Assets/ZooheimTest/Models/run2/GiraffeBehavior/GiraffeBehavior-41744.onnx (onnx, 311509 bytes, 14 tensors)

discrete_act_size_vector f4 [1, 3]
000000 00 00 00 40 00 00 40 40 00 00 80 3f
       2.0 3.0 1.0

network_body.observation_encoder.processors.0.normalizer.running_mean f4 [450]
000000 37 e4 82 3d de 47 38 3f 8d eb 25 3e 95 6e 10 3b
       0.06391185 0.7198466 0.16203137 0.0022038568
000010 96 a8 4d 3b 06 ae 37 3b 5b 45 23 3a dd 6b 1b 3b
       0.0031381003 0.002802731 0.00062282913 0.0023715415
000020 f4 9e 4f 3c 03 d1 5b 3e 3a 8e 77 3d 80 51 36 3f
       0.012672175 0.2146645 0.060438372 0.7121811
000030 d0 2b 27 3e 94 6e 10 3b 98 bb 80 3b 1e cf 45 3b
       0.16325307 0.0022038566 0.003928613 0.0030183266
000040 ba 63 3c 3a a9 8f 1e 3b f7 b0 75 3c 43 06 5c 3e
       0.0007186491 0.0024194515 0.014995805 0.21486764
000050 bf 7f 82 3d 89 e6 37 3f 12 d3 2e 3e bc b0 ac 3a
       0.06372022 0.71836144 0.17072704 0.001317523
000060 d8 1e 2b 3b 54 f8 32 3b a9 c9 5b 3a 0b e8 f4 3a
       0.0026110914 0.002730866 0.0008384237 0.0018684877
000070 c7 0f 43 3c 05 1d 5a 3e bc d3 73 3d 60 d5 36 3f
       0.011905617 0.21300133 0.059528098 0.71419334
000080 d7 f1 25 3e 7d 3a 4f 3b 06 e8 74 3b 02 61 47 3b
       0.16205536 0.0031620555 0.0037369742 0.0030422811
000090 ae c9 5b 3a 24 69 26 3b 6b 53 7e 3c ee d6 5a 3e
       0.00083842396 0.0025392259 0.015522818 0.21371052
0000a0 26 f8 61 3d bf a7 37 3f e3 94 37 3e 34 03 87 3a
       0.055168293 0.71740335 0.1792789 0.0010300637
0000b0 c9 4a 0d 3b 5d 45 23 3b 96 6e 90 3a b0 dc 0e 3b
       0.0021559468 0.002491317 0.0011019285 0.002179902
0000c0 0d 98 46 3c 68 40 57 3e 9e 5c 62 3d 32 46 39 3f
       0.012121213 0.21020663 0.055264108 0.72372735
0000d0 28 cc 25 3e a5 a5 8f 3b 67 df 83 3b 3e d7 24 3b
       0.1619116 0.00438376 0.0040244344 0.0025152708
0000e0 b0 16 cc 3a fe 26 0a 3b e0 7d 41 3c 19 46 59 3e
       0.0015570726 0.002108037 0.011809796 0.21218146
0000f0 a1 a0 3f 3d 2d af 3b 3f 84 29 2e 3e f3 8c 29 3a
       0.046784047 0.7331417 0.17008024 0.00064678414
000100 15 82 d5 3a 80 87 3f 3b d8 58 68 3a 82 4d 02 3b
       0.0016289378 0.0029225051 0.00088633364 0.0019882624
000110 d2 6e 59 3c 36 76 53 3e 83 e5 50 3d 80 bd 39 3f
       0.0132710505 0.20650563 0.05100013 0.7255478
000120 82 fc 28 3e 0d 35 65 3b 8e 5b 5d 3b 4b 71 05 3b
       0.16502574 0.0034974248 0.0033776495 0.0020361717
000130 27 69 a6 3a 67 53 fe 3a c2 9a 3b 3c 0f d0 5b 3e
       0.0012696133 0.0019403518 0.011450471 0.21466087
000140 0d 04 3b 3d f3 95 3c 3f 27 b1 28 3e 94 6e 10 3a
       0.04565816 0.73666304 0.16473828 0.00055096415
000150 e0 a5 d8 3a 60 7f 60 3b fc 26 0a 3a ac c9 db 3a
       0.0016528927 0.003425561 0.00052700914 0.0016768477
000160 d4 46 42 3c 90 31 5a 3e e8 31 56 3d f3 4d 3a 3f
       0.011857707 0.21307969 0.052293688 0.7277519
000170 90 cc 21 3e 12 82 55 3b 8b 0e 6d 3b 7b 3a 4f 3b
       0.1580069 0.0032578749 0.0036171998 0.003162055
000180 b6 63 bc 3a 18 cf c5 3a f8 13 57 3c 5c 52 64 3e
       0.0014372978 0.0015091626 0.0131273195 0.22297043
000190 97 de 47 3d e9 e5 3d 3f 69 15 1c 3e fb 26 8a 3a
       0.048796263 0.7417894 0.15242542 0.0010540182
0001a0 bd b0 2c 3b 74 ed 5e 3b ba 63 bc 39 48 5e d2 3a
       0.0026350461 0.0034016045 0.00035932456 0.0016049827
0001b0 1f 44 4d 3c 35 0a 65 3e 28 d0 4a 3d d1 58 3b 3f
       0.012528448 0.22367175 0.04951492 0.731824
0001c0 a5 2c 1f 3e 6e a0 6e 3b 51 e5 7f 3b 74 16 83 3b
       0.15544374 0.0036411542 0.0039046595 0.0040004794
0001d0 9a bb 00 3b 85 87 bf 3a 6a 19 41 3c e5 f5 68 3e
       0.001964307 0.0014612532 0.011785844 0.22750051
0001e0 70 97 5b 3d 05 78 3d 3f b2 ee 16 3e 47 5e d2 3a
       0.05361122 0.7401126 0.14739493 0.0016049825
0001f0 6f 66 31 3b e2 b8 8b 3b 16 82 55 3a a4 7c eb 3a
       0.0027069112 0.004263983 0.00081446895 0.0017966223
000200 0a 23 3f 3c 58 be 68 3e 84 90 52 3d d8 7a 40 3f
       0.011666069 0.2272886 0.051407352 0.75187445
000210 08 fb 09 3e 15 82 55 3b 14 82 55 3b 88 d4 af 3b
       0.13474667 0.0032578756 0.0032578753 0.005365912
000220 da 6b 1b 3b 0e 35 e5 3a b5 63 3c 3c 48 5a 71 3e
       0.0023715408 0.0017487125 0.011498381 0.23569596
000230 af 74 5d 3d 14 6e 42 3f 4f 8c 02 3e 90 21 20 3b
       0.054066356 0.75949216 0.12748836 0.0024434067
000240 d8 1e 2b 3b 88 c1 7c 3b 88 d4 2f 3a 45 5e d2 3a
       0.0026110914 0.0038567502 0.000670739 0.0016049823
000250 65 41 58 3c 07 62 70 3e e4 09 83 3d 82 99 38 3f
       0.013199185 0.23474894 0.06398371 0.72109234
000260 e9 36 26 3e 95 6e 10 3b 96 a8 4d 3b 06 ae 37 3b
       0.16231884 0.0022038568 0.0031381003 0.002802731
000270 5b 45 23 3a dd 6b 1b 3b cf f9 51 3c 25 47 5c 3e
       0.00062282913 0.0023715415 0.012815907 0.21511514
000280 f2 24 78 3d 91 a1 36 3f e4 70 27 3e 94 6e 10 3b
       0.06058211 0.7134028 0.16351658 0.0022038566
000290 98 bb 80 3b 1e cf 45 3b ba 63 3c 3a a9 8f 1e 3b
       0.003928613 0.0030183266 0.0007186491 0.0024194515
0002a0 d4 0b 78 3c 6c 7e 5c 3e 6c a5 82 3d 75 3e 38 3f
       0.015139539 0.21532601 0.06379208 0.719703
0002b0 0a ff 2e 3e bc b0 ac 3a d8 1e 2b 3b 54 f8 32 3b
       0.17089477 0.001317523 0.0026110914 0.002730866
0002c0 aa c9 5b 3a d6 0b f8 3a 28 06 45 3c 3c 97 5a 3e
       0.00083842373 0.0018924426 0.012025394 0.21346754
0002d0 8d 83 74 3d dd 23 37 3f 30 3d 26 3e 7c 3a 4f 3b
       0.05969577 0.715391 0.16234279 0.0031620553
0002e0 06 e8 74 3b 02 61 47 3b ae c9 5b 3a 24 69 26 3b
       0.0037369742 0.0030422811 0.00083842396 0.0025392259
0002f0 e4 24 80 3c 07 5f 5b 3e be 75 62 3d 64 ee 37 3f
       0.01564259 0.21422969 0.05528807 0.7184813
000300 19 f3 37 3e fe 26 8a 3a b0 dc 0e 3b 5d 45 23 3b
       0.17963828 0.0010540185 0.002179902 0.002491317
000310 96 6e 90 3a b0 dc 0e 3b e3 f2 48 3c 8d b7 57 3e
       0.0011019285 0.002179902 0.01226494 0.21066113
000320 92 25 63 3d d9 8c 39 3f 3a 11 26 3e a5 a5 8f 3b
       0.05545575 0.7248054 0.16217509 0.00438376
000330 67 df 83 3b 3e d7 24 3b b0 16 cc 3a fe 26 0a 3b
       0.0040244344 0.0025152708 0.0015570726 0.002108037
000340 bb d8 43 3c 20 cd 59 3e 36 1e 40 3d ab fd 3b 3f
       0.011953528 0.21269655 0.04690381 0.7343394
000350 98 6e 2e 3e f3 8c 29 3a dd a5 d8 3a 80 87 3f 3b
       0.17034376 0.00064678414 0.0016528923 0.0029225051
000360 d8 58 68 3a 82 4d 02 3b 34 65 5b 3c dd e6 53 3e
       0.00088633364 0.0019882624 0.013390828 0.20693536
000370 74 ae 51 3d 4c 07 3a 3f 4e 3b 29 3e 0d 35 65 3b
       0.051191762 0.72667384 0.16526529 0.0034974248
000380 8e 5b 5d 3b 4b 71 05 3b 27 69 a6 3a 67 53 fe 3a
       0.0033776495 0.0020361717 0.0012696133 0.0019403518
000390 22 91 3d 3c 31 4c 5c 3e 88 68 3b 3d 03 e6 3c 3f
       0.011570247 0.2151344 0.045753986 0.7378847
0003a0 83 fc 28 3e 94 6e 10 3a e0 a5 d8 3a 60 7f 60 3b
       0.16502576 0.00055096415 0.0016528927 0.003425561
0003b0 fc 26 0a 3a ac c9 db 3a 32 3d 44 3c f2 b1 5a 3e
       0.00052700914 0.0016768477 0.011977481 0.21356943
0003c0 bd e1 56 3d 76 91 3a 3f c6 2a 22 3e 12 82 55 3b
       0.052461375 0.72878206 0.1583663 0.0032578749
0003d0 8b 0e 6d 3b 7b 3a 4f 3b 84 87 bf 3a 18 cf c5 3a
       0.0036171998 0.003162055 0.001461253 0.0015091626
0003e0 57 0a 59 3c 8d d0 64 3e d3 10 48 3d d7 32 3e 3f
       0.013247094 0.22345181 0.04884417 0.74296325
0003f0 0d 67 1c 3e fb 26 8a 3a bd b0 2c 3b 74 ed 5e 3b
       0.15273686 0.0010540182 0.0026350461 0.0034016045

network_body.observation_encoder.processors.1.normalizer.running_mean f4 [6]
000000 27 ab eb 43 49 e9 bf 43 18 15 ec 43 be 3b c0 43
       471.33713 383.82254 472.1648 384.46674
000010 09 7f ec 43 ed 8d c0 43
       472.99246 385.1088

network_body._body_endoder.seq_layers.0.weight f4 [128, 456]
000000 0f e1 5d bd fa 27 e6 39 35 24 cf bc 8d 12 9d bc
       -0.05416971 0.00043898803 -0.02528582 -0.019173885
000010 cb 5d 17 3d 7f cb 07 bd 39 80 d3 ba 8f be 84 3d
       0.036954682 -0.033153053 -0.0016136236 0.06481659
000020 58 41 cd 3c 6a b7 c2 bc e5 e2 da 3c f5 ae 88 3d
       0.025055572 -0.0237691 0.02671952 0.066739954
000030 85 af 85 bc 4e 8c 3a bb b5 9c f4 bc 2c 57 4a bc
       -0.016319046 -0.0028464976 -0.02985988 -0.012349885
000040 8d e1 57 3d 6f 36 91 bc bc c9 f1 3c 63 31 54 bb
       0.052705336 -0.017726151 0.02951514 -0.003237807
000050 46 e3 e0 bd 9f 99 9c 3d d6 00 e8 b9 9b c8 7d bc
       -0.10980849 0.076464884 -0.0004425111 -0.015489723
000060 28 de 02 3e a6 b3 fc bc da 3d 30 bd ca 8d c9 bd
       0.12780058 -0.030847382 -0.043027736 -0.09841497
000070 70 6f 59 bd 3c 09 84 bd aa 53 a7 3d 60 b2 10 3c
       -0.05308479 -0.06447074 0.081702545 0.00883159
000080 4e 4d 43 bd 93 57 b3 3d 55 35 ae 3b 0d 34 94 3d
       -0.047681145 0.08756938 0.0053164163 0.072364904
000090 36 37 01 3d 7f 40 c1 3c a7 6e d3 ba 63 88 6c bd
       0.031546794 0.023590324 -0.0016131 -0.057747256
0000a0 00 38 e3 3b 13 4c a7 3c 97 b5 7a bd dd aa 38 3d
       0.006934166 0.020422017 -0.061208334 0.045084823
0000b0 4c e1 93 bb dc ee 2a bd 7f 6a 3e bc 95 ea 00 3d
       -0.0045129415 -0.0417317 -0.01162207 0.031473715
0000c0 5c f2 81 bd b1 e6 c4 bc 88 85 be 3d ca cd fd 3c
       -0.063450545 -0.024035783 0.09302813 0.030981917
0000d0 e5 62 cb bd ae 9b 4c bd e4 19 05 be e0 c3 2c 3d
       -0.09930972 -0.049953155 -0.12998158 0.04217899
0000e0 17 f8 08 bd 9d 60 01 3c 6d 4f a1 bc d8 9f a3 bd
       -0.033439722 0.00789657 -0.019691193 -0.07989472
0000f0 ed 83 d5 3b 5d 6c 04 bb 95 f5 5c 3c 40 db 6b 3d
       0.006515971 -0.002020619 0.013486286 0.05758214
000100 3d 48 73 3d de be 15 bd b6 a6 b9 3d e8 c2 3f 3d
       0.059395064 -0.03655898 0.09065001 0.046816736
000110 7b b8 81 bd e8 38 40 3b 1e 26 26 bd 8c 4c 74 3c
       -0.06334015 0.0029330794 -0.040563695 0.014910828
000120 06 98 95 bd d7 f1 09 3d b4 02 bb 3c 16 1c ff 3d
       -0.07304387 0.033677902 0.022828437 0.12456529
000130 3f 0e 27 bd 88 9a 97 3d 52 bc 77 3c 6f 73 e9 bb
       -0.04078507 0.07402521 0.015120583 -0.0071243565
000140 7b f5 36 3d 1e 48 10 3e f3 25 0f 3e 65 b7 56 bd
       0.044667702 0.1409001 0.1397932 -0.052420992
000150 bc 7d 1b bd 76 ec 69 bd 21 ac 6f 3c d4 24 56 bd
       -0.037961707 -0.057110272 0.014628441 -0.052281216
000160 f0 ca 89 bd 97 72 41 3d 1b 5f e8 3c 19 6a 02 3d
       -0.067281604 0.047228422 0.028365662 0.031839464
000170 b8 5c 90 3d 62 41 1f bd d6 b2 16 3d 15 71 00 bd
       0.07048935 -0.038880713 0.036791645 -0.031357843
000180 28 7e e4 bc e2 1e 84 bd 7c 9b 02 be 14 c6 9d 3c
       -0.027892187 -0.06451203 -0.12754625 0.01925949
000190 36 c2 b9 3b 0b 01 48 bd 80 4f 58 bd 40 36 03 3d
       0.0056689037 -0.04882912 -0.052810192 0.03203416
0001a0 e6 a9 66 bd 29 00 13 bd 2a e9 89 bd 3a b1 96 bd
       -0.05631437 -0.035888825 -0.06733926 -0.07358022
0001b0 36 c6 21 bd fd 5f 50 3c 03 aa 9b 3d b2 7a 56 3c
       -0.03949567 0.012718198 0.076007865 0.013090776
0001c0 4b 1b f1 3c e7 73 a2 bd ec 0f 80 3c 68 85 5a bd
       0.02943196 -0.07932263 0.015632592 -0.053349882
0001d0 af c3 28 3c c4 b4 66 3d a0 e0 40 3b 39 91 23 3c
       0.010300561 0.056324735 0.0029430762 0.009983354
0001e0 e5 d9 1a 3d dc 11 0a 3c 75 34 6d bd 3d 46 ea bc
       0.037805457 0.00842711 -0.057911355 -0.028597945
0001f0 ff f2 cc 3a 7d 28 27 bc e5 26 2d bd 99 c3 bb 3a
       0.0015636383 -0.010202524 -0.04227342 0.001432526
000200 be 06 03 bb 1b a9 b6 3d 8e 75 6c 3d fc 2d 07 3d
       -0.0019993032 0.08918973 0.057729296 0.03300284
000210 94 c3 02 bd 68 13 8f 3d 7f c7 2a 3c c5 af f1 3b
       -0.0319248 0.06986123 0.01042354 0.0073756897
000220 57 95 11 3c ca 4c a3 bd 4d c0 76 3d 8b d6 02 3e
       0.008885703 -0.07973631 0.060241986 0.12777154
000230 59 b0 23 3d e2 65 d4 3c 36 3a bd 3c c0 ea af bd
       0.0399631 0.025927488 0.023099046 -0.08589697
000240 a1 bd 5f bd 6e 6c 33 bd a7 09 55 3c 71 9b d0 bd
       -0.054624204 -0.04380458 0.01300279 -0.10185898
000250 87 4a ec bb a0 70 7b bc 8d 53 c7 bc 0b 62 ae bc
       -0.007211033 -0.015346676 -0.024331832 -0.021286985
000260 76 38 ad 3a 25 d8 72 3d 53 ba 98 bc 86 01 36 bd
       0.0013215679 0.059288163 -0.018643534 -0.044435047
000270 4f 3e 4d bd 21 81 0b be b3 2d 7f bc f5 18 a1 bc
       -0.05010825 -0.13623478 -0.01557486 -0.01966522
000280 23 f7 51 3d 6c fc cd bb 35 e7 27 bd 4e 03 cc bc
       0.05126108 -0.0062861945 -0.04099198 -0.02490392
000290 b3 3c d2 bd 89 eb 98 bd f3 4d 10 3e 3a 6e 8f bc
       -0.10265484 -0.074668 0.14092235 -0.017508615
0002a0 d9 79 eb 3b 7b 63 4a bd 5a 82 53 3d 93 12 f1 3c
       0.007186156 -0.04941128 0.051637985 0.029427802
0002b0 51 29 f9 ba 77 ab 7f bd 5e 8d 99 bd 95 54 ce bc
       -0.0019009506 -0.06241938 -0.07497667 -0.025186816
0002c0 89 e7 2f bc 41 4c 1c bc c6 e4 47 3b f2 b2 70 bc
       -0.010736355 -0.009539665 0.003050135 -0.014691101
0002d0 56 d9 0a bd f8 24 e3 3c 27 64 68 bc 49 53 9d 3c
       -0.033898674 0.027727589 -0.014184034 0.019204753
0002e0 73 33 58 bd f2 c5 39 3d bf c1 b5 bb f2 46 b9 3d
       -0.05278344 0.04535479 -0.005546778 0.09046735
0002f0 9d 69 f3 3b c3 03 80 3c 87 9d 9d bd e3 51 6f 3a
       0.0074283616 0.015626794 -0.076960616 0.00091293285
000300 be 45 35 3d c2 cb a3 3d f8 c3 4c bd 1c 28 9e bc
       0.044255964 0.07997848 -0.049991578 -0.019306235
000310 dd 43 b6 bd 0a 3c 64 3d 8c 41 18 3e 32 c9 51 3d
       -0.08899663 0.05572132 0.14868754 0.051217265
000320 bc 52 4e 3d 7a c5 a6 3d a3 29 39 bd 0f d1 89 3d
       0.05037187 0.081431344 -0.045205723 0.06729328
000330 4b d2 df 3d 73 ac 05 3c 5d 20 81 3d fa 4d 88 bc
       0.10928782 0.008158791 0.06305001 -0.016638745
000340 5f 26 50 bd 91 4c 82 bc 85 b3 d0 3c 78 2b 41 3d
       -0.050817844 -0.01590565 0.025476227 0.047160596
000350 9a cb 93 3d 48 7d cc 3c a5 f9 ed bb 1c f6 68 3c
       0.07216568 0.024962083 -0.007262426 0.014218833
000360 cf 17 f0 3b c2 c6 53 bc 9c 37 1d bd 00 a6 02 bd
       0.007327057 -0.0129258055 -0.03838311 -0.03189659
000370 77 d7 39 3c 10 f4 99 39 d8 28 22 3d 77 42 b5 bb
       0.011342875 0.00029364275 0.039589733 -0.005531605
000380 31 fc b8 3c ec 16 ee bc 24 45 82 3c 5c 40 2c bd
       0.022581192 -0.029063664 0.01590211 -0.042053565
000390 9e 67 6d bd 5a 1c 7c 3d 6d 48 3c bb 6e e4 05 3b
       -0.057960145 0.061550476 -0.0028729693 0.0020430344
0003a0 78 d8 30 3d 2e b9 28 3a e9 7f 15 bd 5d 7e 6e bd
       0.04317519 0.00064362853 -0.036498938 -0.05822598
0003b0 42 c8 93 bc 43 58 47 bd 22 98 51 3d ad 26 58 bc
       -0.018039826 -0.048668157 0.051170476 -0.013192815
0003c0 af 74 8c bd 5a 38 a5 3d 8e 3b 4e bc f8 f6 5d bc
       -0.06858193 0.08067389 -0.012587441 -0.0135476515
0003d0 04 2c 9c 3d 74 59 a0 3d 5e 2e a8 3d 11 f4 96 3c
       0.07625583 0.07829562 0.08211969 0.018426927
0003e0 c5 4e 46 bd 5d 13 1c 3b 1e 3a 55 bd 78 77 03 be
       -0.048414964 0.0023815252 -0.052057378 -0.12838542
0003f0 c3 50 27 3e 57 9b 54 bd 1f 27 ce bd e0 9d 82 bc
       0.16339402 -0.051905956 -0.100660555 -0.015944421

network_body._body_endoder.seq_layers.0.bias f4 [128]
000000 cd fc 77 bc b1 9b 6d 3b 7b 9d 0f bc 82 50 a5 bb
       -0.015135956 0.003625613 -0.008765574 -0.0050449977
000010 6c c6 63 bb dd a9 84 ba 22 c8 3e 3c ec 35 a7 39
       -0.003475572 -0.0010121424 0.011644395 0.00031892897
000020 92 a2 f0 3b 63 fd b4 3b a2 fe 03 bc 9d 75 af 3c
       0.0073435986 0.00552337 -0.008056315 0.021418387
000030 c8 f3 cb 3b c7 49 8d 3c 25 76 90 3b d1 05 98 bb
       0.0062241293 0.017247094 0.004408615 -0.0046393652
000040 50 02 89 bb 89 b7 9a 3c cf e0 2a bc 94 ad 54 3c
       -0.004181184 0.018886345 -0.010429575 0.012980837
000050 41 d6 1d 3c 6a e2 2f bc e4 75 1c 3c 72 79 a7 bb
       0.009633602 -0.010735134 0.009549592 -0.005110913
000060 10 44 46 bc 7f c2 85 3c ee b9 a4 bb f3 43 c5 bb
       -0.012101188 0.016328095 -0.0050270474 -0.006020063
000070 14 a1 fd bb 6f 2f 4d ba 3c 89 c9 bb 20 5c 38 bc
       -0.0077401493 -0.00078271976 -0.006150393 -0.011252433
000080 fc 79 3a 3b 7d aa e6 3a f0 24 b7 bb 64 c7 63 3c
       0.0028454056 0.0017598417 -0.00558912 0.013902519
000090 a8 26 88 3c eb 76 93 bc 31 e0 f7 ba e4 bf 9a bb
       0.016619995 -0.01800104 -0.0018911419 -0.004722582
0000a0 28 2b 3a bb 5a ca 09 bc 99 d5 71 3c 63 d8 b1 bb
       -0.002840707 -0.008410061 0.014760398 -0.0054274066
0000b0 de 6c 40 bb 6d 17 4d bc c5 ee a4 3a 7c 17 cc ba
       -0.0029361765 -0.012517792 0.0012583366 -0.0015570964
0000c0 96 4a 6d 3c 2c 48 f8 bb 28 4b 13 3b bc 8d e3 3b
       0.014483115 -0.007576963 0.0022475217 0.0069443863
0000d0 ae e0 a8 bb 43 52 0a 3a fd d7 ba 3b 21 bf 9b 3c
       -0.005153737 0.000527654 0.0057020173 0.019012036
0000e0 81 73 bc 3b 5f 15 b0 bb be 6e 87 3c 0f 44 6a bc
       0.005751074 -0.0053736414 0.016532298 -0.014298453
0000f0 83 0a 79 bb d6 64 95 3b f7 57 bc bc 43 0e df bb
       -0.003800065 0.0045591397 -0.022991164 -0.00680712
000100 d3 ea f9 3b 5e 92 ab bc 10 8a fb bb ba 39 a3 ba
       0.00762687 -0.020943817 -0.0076763704 -0.0012453117
000110 0d 35 07 3b cc 03 1f bc 13 b4 8b bb f7 c4 14 3b
       0.0020630986 -0.009705495 -0.00426341 0.0022700408
000120 0b 89 c7 bc 73 a4 65 3b 97 18 07 bc 92 6d 05 3c
       -0.02435734 0.0035040646 -0.008245609 0.008143799
000130 79 26 bf bc 65 68 95 3b 82 d8 7f bb 26 9b 2f 3c
       -0.023333775 0.004559564 -0.003903896 0.010718143
000140 d2 6a 63 bc 08 d6 0c 3c f6 87 43 bb 59 a0 04 bc
       -0.013880448 0.008595951 -0.0029835678 -0.0080948705
000150 30 52 e9 bb b7 44 cc 3c 15 cd d8 bb 41 3c c6 3b
       -0.007120393 0.02493511 -0.0066162446 0.0060496633
000160 7e c1 1c b9 56 7c 1f 3c 93 c2 37 bc d2 f8 e3 ba
       -0.00014949401 0.009734234 -0.011215824 -0.001739288
000170 71 82 20 bc 2e 5d 93 bb ca 1c b0 3c 86 9e cd 3a
       -0.009796725 -0.004497192 0.021498103 0.0015687502
000180 d7 e1 ab bb 00 df 4f 3a 5f f5 47 bc 3e 8e c5 3b
       -0.005245428 0.0007929653 -0.012204497 0.0060289195
000190 43 69 c6 ba 4d 6b 48 bc f5 75 32 bc 71 9f 1f 3c
       -0.0015137572 -0.012232614 -0.010892381 0.009742604
0001a0 ac 37 7e 3a 48 8d db 3b c5 33 f2 bb 31 f9 e1 3b
       0.0009697627 0.0067001916 -0.0073914253 0.006896161
0001b0 db f4 5f 3c 60 47 00 38 65 58 2e 3c 03 18 47 3b
       0.013669218 3.058405e-05 0.010641192 0.0030379302
0001c0 1a e3 41 3c 21 49 a4 bb 01 fe 7d bc 45 db d7 3b
       0.01183393 -0.0050136005 -0.015502454 0.0065874183
0001d0 94 ee ec bb ab 32 29 3b 6a cc 93 bb 2e 23 9b bc
       -0.007230589 0.0025817554 -0.004510452 -0.018937673
0001e0 d7 42 97 bc 80 5e 3e bc 7b 75 ac 3c 35 4b a7 b8
       -0.018464489 -0.01161921 0.021052113 -7.977189e-05
0001f0 ed 07 08 3c c4 cc 5d 3b b5 a9 69 3b 5f 06 a0 bb
       0.008302671 0.0033843974 0.0035654132 -0.004883572

network_body._body_endoder.seq_layers.2.weight f4 [128, 128]
000000 90 6f a8 3d be 01 56 3d d8 c2 29 be 08 85 14 3e
       0.08224404 0.052247755 -0.16578233 0.14503872
000010 ef 5e 9e 3d b4 a8 ba 3b 45 61 2f bd 7d 52 65 3d
       0.07732951 0.0056963805 -0.042817373 0.05598687
000020 1a 8b 2d be 4a a9 1b 3e 3d 4b d2 3d f9 fe 49 3d
       -0.16947594 0.15201297 0.10268257 0.049315426
000030 07 28 11 3e 28 b9 d1 3c bf c0 60 3c 44 19 03 3e
       0.14175425 0.025600985 0.013717829 0.12802607
000040 8e 9b 08 bd 06 73 81 bd 00 17 09 3d fd c6 f4 3b
       -0.033351474 -0.06320767 0.0334692 0.0074700103
000050 06 9c 0a 3d 63 e7 e1 bd dc a8 70 bd e9 be 05 3e
       0.0338402 -0.11030462 -0.058754787 0.13061108
000060 4a da 8b bd 39 ab 61 be 7c df 14 bd cd 5c 12 be
       -0.06828745 -0.22037973 -0.036345944 -0.14293213
000070 7e ac 51 3d 8c b5 40 3d 3e be c1 3d fd 47 05 3e
       0.051189892 0.047048137 0.09460114 0.13015743
000080 c9 af 52 bd 6d c4 24 bc 48 aa 8b 3c ae 9e ac bd
       -0.051437173 -0.010056597 0.01704897 -0.08428703
000090 e6 0d fc bd bf 83 f5 3c 40 fa be bd 07 a8 4c 3e
       -0.123073384 0.029970048 -0.09325075 0.19985972
0000a0 55 d7 c3 bd 6e 96 e4 bc d3 a1 07 bd 32 b0 3f 3d
       -0.09562556 -0.027903762 -0.033113312 0.046798892
0000b0 bc 03 2c be 20 6e 50 bd 6c e2 24 be ad 5f 27 bd
       -0.167983 -0.050886273 -0.16101998 -0.040862728
0000c0 70 f5 84 bd 85 fb be 3c e0 4a b4 3d e1 26 c7 3b
       -0.06492126 0.023313293 0.08803344 0.006077633
0000d0 75 e7 a8 bc b3 2b 97 3d 62 d6 78 3d 18 20 f8 3d
       -0.02061818 0.07381382 0.060751326 0.121154964
0000e0 a6 cd fa 38 d1 00 6e 3c 04 79 33 3d d1 36 a7 bd
       0.00011959234 0.014526562 0.04381658 -0.08164752
0000f0 a3 ad ef 3c bf b4 48 bd d4 92 3c 3d 50 f8 16 3c
       0.029257601 -0.049000498 0.046038464 0.009214476
000100 60 a2 85 3d 09 18 05 bd b0 4a 43 3d ed b7 3c 3b
       0.06525111 -0.032493625 0.04767865 0.0028796152
000110 52 11 80 bd 2b 97 79 bd 50 ef fe 3d 52 a7 18 be
       -0.062533036 -0.06093518 0.12447989 -0.14907578
000120 51 c2 b0 3c 5a 08 08 3e 70 63 89 3d e7 c7 b6 3d
       0.021577032 0.13284436 0.06708419 0.08924847
000130 29 28 1f 3e 45 89 9c 3d 85 76 fe bd 22 0a 7c 3c
       0.15542664 0.076433696 -0.124249496 0.015383275
000140 5f c1 bb 3d 76 0f 79 3d 79 a3 08 bd 90 60 c6 3d
       0.09167742 0.06080576 -0.033359025 0.096863866
000150 db 39 1e 3d a9 cd 25 bd 04 6a c1 bd a2 d2 dc bd
       0.038629394 -0.040479336 -0.09444049 -0.107823625
000160 3f 52 98 bd 1d 10 c6 3c 8d e0 74 3d c5 ea ed bd
       -0.07437562 0.024177605 0.05978446 -0.11617044
000170 7c 0b ee bb 5c 98 e0 bd 0d 7d 16 bd dc 89 4b bd
       -0.0072645526 -0.1096656 -0.03674035 -0.04969202
000180 d2 ba c1 3d 33 fc 6c be 79 85 02 bc 12 df b3 3d
       0.09459461 -0.23143081 -0.007966393 0.08782782
000190 3a 8c fb bd 67 b1 bf 3c e8 06 10 3e 40 31 cd 3c
       -0.122826055 0.023400022 0.14065135 0.025047898
0001a0 aa 5e 5e 3c b1 cd 5b bd ab a1 89 3d 4c 43 3a 3e
       0.013572374 -0.05366296 0.06720289 0.18189734
0001b0 a4 e4 fc bd 90 85 72 3d d7 76 c4 3c 24 af e5 bc
       -0.12348297 0.059209406 0.023982449 -0.028037615
0001c0 ac 0a 15 39 ec 2f 0c 3e 87 3a 0b 3e 9c 30 f2 bd
       0.00014213723 0.13690156 0.13596545 -0.11825678
0001d0 f5 d3 cb 3c 75 1e b6 3d f7 8e 30 37 88 b6 6b bd
       0.024881342 0.08892528 1.0523704e-05 -0.057547122
0001e0 c3 21 c3 bd dc e5 90 3d 25 29 2a bd 33 98 07 bd
       -0.09527924 0.07075092 -0.041543145 -0.033104133
0001f0 ea 3f 39 be fd 0d 8d 3d 6e 15 0e 3e 84 37 5e 3c
       -0.18090788 0.06887434 0.13875362 0.013563041
000200 31 06 75 be 1e f5 9d 3d 4e 94 31 bc 8f 68 08 bd
       -0.23928143 0.07712768 -0.010838581 -0.03330284
000210 31 60 00 be 9e 00 e0 3d 52 38 b0 3b 93 a8 46 bd
       -0.12536694 0.10937618 0.0053778077 -0.04850061
000220 4b 77 bd 3d 51 f6 35 bc 16 f8 3f bb be 13 1e bc
       0.09251269 -0.01110609 -0.0029292158 -0.009648262
000230 ac 1d 54 bd 83 b3 10 bd d0 d0 53 3d d5 7d 97 3d
       -0.05178611 -0.035327446 0.05171281 0.073970474
000240 7d bb 43 3d bc 63 11 3e c7 57 57 bd f9 10 24 3d
       0.047786225 0.14198202 -0.052573945 0.04005525
000250 85 5f 7e bd c5 ce 2d be 90 01 b0 3d 57 17 b2 bc
       -0.062102813 -0.16973408 0.08594048 -0.021739645
000260 2f 2e a5 3b 1d a3 33 3e 01 64 14 bc 90 6c 4e bd
       0.005040906 0.17542692 -0.009057046 -0.050396502
000270 fb f9 6b bd e9 c1 ce 3c e8 83 6d 3b 10 b8 1f 3d
       -0.057611447 0.025238948 0.0036241952 0.038993895
000280 91 a5 d3 bd 96 90 0f bd 57 74 15 be 0f 0c 3d be
       -0.10334314 -0.035049997 -0.14595161 -0.18461631
000290 c6 c8 8b be ca 2d 27 bc 61 f3 a8 bc f9 f1 93 3c
       -0.27301615 -0.010203788 -0.020623865 0.018059717
0002a0 27 98 9e bc ba c4 3f bd 22 f0 04 be 56 b8 25 bc
       -0.019359661 -0.046818472 -0.12982228 -0.01011475
0002b0 64 be 8e 3d 8f 98 da 3d c9 97 87 3c 63 da 92 bc
       0.06969908 0.106736295 0.016551869 -0.0179264
0002c0 92 10 cd 3d c9 93 bd 39 0e 21 a7 bc 94 99 cd bd
       0.10012926 0.00036158998 -0.020401504 -0.10039058
0002d0 19 1e 2f bd ab de 5c bd d6 22 bd bd 51 8f b6 3d
       -0.042753313 -0.05392329 -0.0923516 0.08914054
0002e0 4a 50 9c 3d 67 4d 08 b9 8e 6e 67 3d a7 28 13 be
       0.076325014 -0.00012998805 0.056501918 -0.14370976
0002f0 e7 18 01 3d f2 a7 ad 3b 6d b5 72 3c e3 38 53 be
       0.03151789 0.0052995617 0.014813763 -0.2062717
000300 4f 62 b2 bd 58 c3 3a bc 12 00 12 3d 82 1d e0 bc
       -0.08710157 -0.011399113 0.0356446 -0.02735782
000310 2a 50 d5 3d 77 aa a7 bd 90 c5 19 3d 7f 2d 18 3e
       0.10415681 -0.081868105 0.037541926 0.14861105
000320 1f 36 c7 bd 9b e4 21 be c2 04 e9 bd d4 c5 07 3e
       -0.0972712 -0.15809862 -0.113778606 0.13259059
000330 7b 8d 3f bd 47 37 7b bd b5 06 61 3d 9a 56 ab bc
       -0.046765786 -0.061332013 0.054938037 -0.020915318
000340 47 d8 fe bd 3e c4 b6 bd 82 48 d3 3d cf 89 b3 bd
       -0.124435954 -0.08924149 0.10316564 -0.08766519
000350 4a e7 f9 3d f0 44 c3 3d 12 00 24 bd ab 1c 8b 3d
       0.12202318 0.09534633 -0.04003913 0.06792577
000360 f3 4b 0b 3c 4c ab 8b bd e3 be 9f bd 80 d3 24 3e
       0.008501994 -0.06819782 -0.078000806 0.16096306
000370 90 21 a1 bd 55 de 46 3d dd 81 a1 bd f9 3e a0 3c
       -0.0786773 0.048551876 -0.078860976 0.019561278
000380 90 06 88 3d 7a b7 21 3d 38 16 1e be bf 80 03 be
       0.06641877 0.039481618 -0.15438163 -0.12842081
000390 29 3a 0c 3d 8e 08 9a bc 5a 68 5e bc 93 ce e0 3d
       0.034235153 -0.018802907 -0.013574684 0.10976901
0003a0 4d 17 3e bc b9 3b 48 3e 95 96 4a bd fe 65 6e 3d
       -0.011602235 0.19554032 -0.049460012 0.058202736
0003b0 f2 90 c0 bc 3a 48 ee 3d 24 41 af bd 97 6e 16 bd
       -0.023506615 0.1163487 -0.085573465 -0.03672656
0003c0 47 90 14 3e 45 1d 85 3d 1b 6c 6f 3d 2b fb 3b bc
       0.14508162 0.06499723 0.058452707 -0.011473457
0003d0 fe c9 b7 bd 92 0f 34 bc ce 15 86 bc a0 e7 37 be
       -0.08974074 -0.01099004 -0.01636782 -0.17959452
0003e0 fe 17 29 bd b0 af 35 bd 93 c2 81 3d 65 5f 85 3d
       -0.041282646 -0.044357 0.0633594 0.06512336
0003f0 1f 30 10 3d 75 08 e5 bd 7c 12 dc 3d b7 28 6d bd
       0.03520214 -0.11183254 0.10745713 -0.057900157

network_body._body_endoder.seq_layers.2.bias f4 [128]
000000 e5 ac f9 39 dc ec 59 3c 66 ed 23 bc 04 3d d3 ba
       0.00047621797 0.013301101 -0.010005331 -0.0016116207
000010 43 05 1a bb 91 37 e8 ba cd fe 16 bc 9e 76 1f 3b
       -0.0023501671 -0.0017716755 -0.009216023 0.0024332176
000020 05 68 93 3b 8e 3d 8f ba 29 4d 1b 3c 92 3d 0e 3b
       0.004498484 -0.0010928379 0.009478846 0.002170418
000030 9d 53 1b bc f2 59 a6 3c f1 38 fe bb dc 7b 80 3a
       -0.009480384 0.020306561 -0.007758253 0.0009802538
000040 3e 33 a0 3b 0f 32 0f bb 96 cd a5 bb b7 29 0f 3c
       0.004888921 -0.0021849906 -0.005059908 0.008737973
000050 9b 11 37 bb 24 34 d9 39 91 6b 12 bb 7b dd 07 bc
       -0.0027934078 0.00041428313 -0.0022341947 -0.008292551
000060 8c cf 7a ba c2 a1 97 3c 8d 77 62 bb 97 4c 89 bc
       -0.000956767 0.01850975 -0.003455612 -0.016760154
000070 2f 47 1c 3c c3 6a 10 3b 18 b5 85 bb 32 04 81 3b
       0.009538456 0.0022036291 -0.004080426 0.0039372677
000080 cf 05 65 bc ae dd 30 3c 12 6b 64 bc 17 f8 3b 3c
       -0.013978436 0.01079504 -0.013941543 0.011472723
000090 c6 62 96 bc b6 94 11 ba 5e 5a 14 b8 b2 dc c7 3b
       -0.018357646 -0.00055534707 -3.537011e-05 0.006099307
0000a0 a0 1f 22 3c f9 26 01 bb 99 79 75 3a 74 c2 6e b9
       0.009895235 -0.0019707067 0.0009364128 -0.00022769888
0000b0 c9 d8 f3 3b c1 c0 ac 3a f1 f7 f9 3a 8e 44 2f bc
       0.0074416143 0.0013180004 0.0019071085 -0.010697497
0000c0 9f 48 75 3b 26 56 71 39 1c 81 c0 bb d7 3a 9a bb
       0.0037427319 0.00023015644 -0.005874766 -0.0047067213
0000d0 77 2c cf ba 4b bf d4 bb 86 fd 21 bc ab 02 9f 3b
       -0.0015806098 -0.0064925305 -0.009887105 0.004852613
0000e0 1e f6 0f 3b be b9 2c 3b b1 f8 ab ba 6c 1f 19 3b
       0.0021966766 0.0026355828 -0.001312038 0.0023364676
0000f0 c7 a3 8b 3b d5 15 48 3c 5b 52 18 bc 99 7f 3d 3c
       0.004261467 0.012212236 -0.009296979 0.011566066
000100 85 e8 20 bc 6e 56 81 ba 91 f1 a7 bb ac 0a 03 bc
       -0.009821062 -0.0009867677 -0.0051252325 -0.00799815
000110 8d bf 1f ba c5 2d a9 3c 81 7d d2 3a 49 2b f4 38
       -0.0006093912 0.020651707 0.0016059132 0.00011642889
000120 78 eb 2a 3c b5 15 33 3b de 0d ed 3b a0 82 05 3c
       0.010432117 0.002732617 0.007234319 0.008148819
000130 88 db 08 bc 59 3c bf bb de cc 56 3b 6d 03 a0 bb
       -0.008353122 -0.0058360514 0.003277592 -0.004883221
000140 e3 ca 42 bc c4 e6 5b 3b c0 67 79 3b 8d bb 68 bc
       -0.011889192 0.0033554295 0.0038056225 -0.014204872
000150 98 81 05 bb 18 5d 74 3b d4 a3 3b 3c 84 ba 3d 3b
       -0.0020371433 0.0037286934 0.011452634 0.0028950283
000160 2f 7d 0c bc cb 9c 80 bb e3 e4 9c 3c 6c 55 06 bc
       -0.008574768 -0.003924941 0.01915211 -0.008199077
000170 4f 6c 10 bc 9a 7c e4 3b 03 34 cb 3b c7 43 95 3b
       -0.008814885 0.0069728615 0.0062012686 0.004555199
000180 f4 c0 d5 3a ad b7 6f 3c 66 1a f4 3a 60 f1 e0 3a
       0.0016308115 0.014631194 0.001862359 0.0017161779
000190 b3 34 21 3c 5d a4 2f 3c 57 3e d7 ba 17 b9 5d ba
       0.009839225 0.01072034 -0.0016421777 -0.00084580615
0001a0 d8 4a 92 3b fa 74 85 3b 15 ae ef bb 66 c2 46 bb
       0.0044644885 0.0040727826 -0.0073144534 -0.0030328273
0001b0 ea 29 8c 3a 35 f8 da bb ea 95 a3 bb 28 b6 66 bb
       0.0010693644 -0.0066824206 -0.0049922364 -0.0035203788
0001c0 f2 92 8f 3a 41 c5 17 bb af 78 99 bb bd f0 bb bb
       0.0010953827 -0.0023158344 -0.004683576 -0.0057354853
0001d0 c4 02 a8 3b 5b 26 e1 3a 97 88 25 3b ab 1d 21 3b
       0.005127283 0.0017177569 0.0025258416 0.0024584334
0001e0 42 f4 de ba 20 08 76 3b fa 38 a3 3b ae 87 13 bc
       -0.001701005 0.0037541464 0.0049811574 -0.0090045165
0001f0 4a bf 43 3a 19 25 80 ba 9d 7c db 3b 4f 4c 88 ba
       0.0007467164 -0.0009776681 0.0066982047 -0.0010398718

action_model._discrete_distribution.branches.0.weight f4 [2, 128]
000000 f6 ac 97 bb 41 b0 22 3d 4a 47 40 3c 30 66 b3 3a
       -0.004628773 0.03971887 0.011735747 0.001368707
000010 87 8a 0c 3c 8d 57 12 3b 78 3a 0b ba e4 46 29 ba
       0.008577949 0.0022330016 -0.0005311142 -0.0006457402
000020 e3 9b ca b9 e3 d1 84 ba 4a c3 63 3c 87 e6 2f bc
       -0.00038644587 -0.0010133352 0.013901541 -0.010736114
000030 30 c8 ab bb 79 3b 61 bc f5 80 1f bc 38 a4 74 bc
       -0.00524237 -0.01374709 -0.009735336 -0.014931731
000040 46 5c eb 39 86 3b 1f bc 72 94 99 3b 13 11 44 3c
       0.00044891442 -0.009718781 0.0046868855 0.011966961
000050 e8 a8 94 3c 68 2f b2 3c a6 87 09 bc c5 09 bc bb
       0.018146947 0.02175112 -0.0083941575 -0.0057384693
000060 43 20 2e bc d2 39 3d bc 69 8e 42 3c c8 e1 1f bb
       -0.010627809 -0.01154943 0.011874774 -0.002439605
000070 a3 0b b9 3b 99 18 36 3c b3 5a a2 3c b9 ff d5 3c
       0.005647139 0.011114263 0.01981864 0.026122915
000080 bf c9 5d bc f9 bf 03 3d c2 2b 64 bc 64 c6 99 bc
       -0.01353687 0.0321655 -0.013926448 -0.018771358
000090 5a ea 4f bc 9e e6 be 3b 4e 27 e4 bb 30 9e e0 bb
       -0.012690151 0.0058258316 -0.0069626933 -0.006854795
0000a0 76 95 5c 3c 41 9a a9 3a e5 34 a5 3b 6f 71 9c bc
       0.013463369 0.0012939648 0.005041706 -0.019097058
0000b0 aa 0e cc ba 86 b5 97 3a 79 50 b3 bc d8 25 bd bc
       -0.0015568335 0.0011574484 -0.021888958 -0.023089334
0000c0 b4 88 53 3c 3f cc c8 3c 17 c2 e3 ba c7 33 2b 3c
       0.0129110105 0.024511455 -0.0017376569 0.010449356
0000d0 ca 0f dd bb 09 bc 3a bc b3 6f 68 bb ef 2d c9 bc
       -0.006746267 -0.01139737 -0.0035466969 -0.024558036
0000e0 ea 01 7d 3b fa 2f 2c bc d2 40 53 3c 9f 9b 72 bc
       0.0038605877 -0.010509485 0.012893872 -0.014807611
0000f0 0c ac aa ba e3 a5 8a bb 0d 3a 26 3c 6a 57 80 bc
       -0.0013021245 -0.004231201 0.010145676 -0.015666682
000100 d7 61 af bc 6d 05 cf bb fe 7a 91 bc 61 b0 16 bb
       -0.021408958 -0.0063177855 -0.017758843 -0.0022993314
000110 be 2a 6a bc 41 2c 94 3c 16 7f f2 3c b5 30 e6 3c
       -0.014292417 0.018087508 0.029601615 0.028099397
000120 c7 28 74 bc 77 6f 3f bc 30 b9 26 ba d9 d0 a3 bc
       -0.0149023 -0.01168429 -0.00063599925 -0.019997047
000130 e3 74 03 3b 97 9a 9f bb 20 3b 19 3c a3 dc c6 3b
       0.0020058684 -0.0048707235 0.009352475 0.0060687824
000140 be 3d fe ba cc 6d 90 bc eb 3f 07 bd f0 48 a2 bc
       -0.0019397063 -0.01763048 -0.03301994 -0.01981017
000150 62 58 ea 3b f7 88 87 bb 95 0e 77 bc b0 01 93 3c
       0.0071516493 -0.0041362005 -0.01507916 0.01794514
000160 47 3d 6d bc 54 d2 2d 3c 5f 1b 7f bc 60 b0 c8 bb
       -0.014479942 0.010609228 -0.015570491 -0.006124541
000170 a6 70 9d bb 2b 02 93 3c 29 e7 12 bc b4 06 90 bc
       -0.0048046885 0.01794537 -0.008966246 -0.017581321
000180 1e f3 5c bc 9f 37 9e 3c 68 a6 3c bd 2b f8 80 3b
       -0.013485698 0.019313632 -0.046057135 0.003935834
000190 71 86 0d bd 8d b2 89 3b 2d e3 ac bb 93 5f 90 ba
       -0.03455204 0.004202193 -0.005276105 -0.0011014811
0001a0 b0 b0 3d bc 78 a4 db 3c 18 2d e6 bb 8b 38 51 3c
       -0.01157777 0.026811823 -0.0070244186 0.012769829
0001b0 8f 67 0b 3a 82 7c f1 bb a0 03 84 3a 65 fd 27 bc
       0.00053178606 -0.007369579 0.0010071881 -0.010253285
0001c0 e2 8f fd bb 6a 51 48 3b be 7c 66 ba d2 24 19 bc
       -0.0077380994 0.0030566105 -0.0008792392 -0.009347158
0001d0 4b bb d3 bc ee ae 4a 3c a7 42 8b 3a 7a 99 2a 3c
       -0.025846144 0.012370808 0.0010624722 0.010412568
0001e0 aa 44 8c 3b 32 f6 e9 39 11 d7 ae bc 73 54 16 bc
       0.0042806463 0.00044624653 -0.021342786 -0.009175408
0001f0 2b c1 5d 3b 8b 1d b6 bc f4 0f f1 bb f2 39 a5 bc
       0.003383706 -0.022230884 -0.007356638 -0.020169232
000200 bf af 6f ba 1c 14 33 bd 08 f6 6f 3b e6 35 3f 3c
       -0.00091433147 -0.04372035 0.0036615152 0.011670565
000210 a1 3f 50 3b 59 b4 aa ba ab 71 78 3c a8 61 9a bc
       0.0031776207 -0.0013023718 0.015163819 -0.018845394
000220 9f 4c 16 3b c8 ce 6a bc 6a 46 b8 bc 86 02 04 bb
       0.0022933853 -0.014331527 -0.022494514 -0.0020143106
000230 35 3b be 3b 18 6a f8 3b d9 5a 68 3b 01 c0 73 ba
       0.005805398 0.0075810067 0.003545454 -0.0009298325
000240 ee 73 b2 3b d6 f1 3c 3c 54 8a 88 bb 30 bb 6c bc
       0.005445949 0.011532268 -0.0041668806 -0.014448926
000250 b3 f5 4d ba 2f 87 f9 bc 7c dc 89 3c 5f 5a cb bb
       -0.00078567414 -0.030459968 0.016828768 -0.0062058414
000260 ac 72 93 3c 01 fb 0c 3c a7 7d 5f ba 7d f5 19 3c
       0.017999016 0.008604766 -0.00085254986 0.009396908
000270 5c ce 5a 3b 2d 34 c7 bb 5e 87 9b bc f1 79 b3 bc
       0.003338716 -0.006079218 -0.018985447 -0.021908732
000280 1c 8e 1d 3b f1 dc b4 bc 94 1d 53 3b cb f3 d2 3c
       0.0024041003 -0.02207801 0.0032213675 0.025751015
000290 ee b7 94 3a f4 56 9a bb 81 d7 06 3c f4 9c 90 3c
       0.0011346319 -0.0047100727 0.008230091 0.017652966
0002a0 f0 cf 8f bc ce 4e 78 3b ce 4c f3 39 16 a7 15 bb
       -0.017555207 0.0037888768 0.00046405796 -0.0022835187
0002b0 28 f5 99 ba 3e 7e b9 bb b4 c4 94 3b af e9 35 3c
       -0.0011746036 -0.005660801 0.0045400504 0.011103078
0002c0 2c 52 95 bc bc 7d ce bc 77 29 f9 ba b8 26 a5 bc
       -0.01822766 -0.02520644 -0.001900955 -0.020160064
0002d0 7e e2 a0 bb ca cf 84 3b 74 4b 9f 3b 40 24 03 3d
       -0.0049098125 0.0040530907 0.0048612896 0.032016993
0002e0 4f 0f 83 bb 39 81 33 3c 13 91 1f bd 6f 5b 71 3c
       -0.0039996277 0.010956102 -0.038956713 0.014731272
0002f0 ef da 05 3a 3a 52 1d 3a 26 21 9d 3b f4 0a 92 3b
       0.0005106171 0.00060013274 0.0047952114 0.004456872
000300 8f 8d 09 3c 8f c9 22 bb 46 1c 2c bb 5a 6d d8 3c
       0.008395567 -0.0024839377 -0.002626197 0.02641933
000310 47 e2 3a bb a4 a7 79 bc cf ef 40 bb 78 20 7d bb
       -0.002851622 -0.015237723 -0.0029439812 -0.003862409
000320 e3 86 1a bc dc 6a 0d 3c 9f ba b9 bc ec d9 f2 3c
       -0.009431574 0.008631434 -0.022671996 0.029644929
000330 53 d7 1d bc 5c 7b 02 bb 39 9f e8 3b 9a 57 a4 bc
       -0.009633857 -0.0019909954 0.007099059 -0.020061303
000340 0e 0f 86 3b 7e f2 b1 3c a8 cd b7 3c a1 47 fb 3b
       0.00409115 0.021722075 0.022436932 0.007668451
000350 cd a1 8d bc bc 7e ab 3b ea 88 1c bc 47 1d bf bc
       -0.017289067 0.005233614 -0.009554127 -0.02332939
000360 fc 86 11 3c a9 dd 0e bc 3a d2 ae 3c 2a 4c d4 bb
       0.00888228 -0.00871984 0.021340478 -0.006478806
000370 3c 71 06 bc ca 3e aa bc 07 70 59 3c e9 29 1f 3c
       -0.008205708 -0.020781893 0.013271338 0.009714582
000380 c1 3d 82 3c 2d f8 25 bd 95 69 f9 3b 7b 65 1b 3c
       0.015898587 -0.040519882 0.0076114633 0.009484644
000390 8b ee 06 3d e1 25 fd bc 78 9f 16 3c bc e9 9b bb
       0.032942336 -0.030901851 0.009193294 -0.004758088
0003a0 24 98 6f bb 2f 09 07 bd 90 99 07 bc 5e d0 96 bc
       -0.0036559189 -0.032967743 -0.008276358 -0.018409904
0003b0 d4 1a 2f 3c 8b 6c d3 3a 8c 64 16 3c 85 cc a8 3a
       0.010687549 0.0016130371 0.009179246 0.0012878334
0003c0 35 b9 ca 3b c2 42 15 bb e3 74 63 bc 9e e0 70 3c
       0.006186629 -0.0022775386 -0.013882848 0.01470199
0003d0 b9 0b 84 3c 06 04 a7 bc ef 32 1b 3c ea fa ce 3a
       0.016118871 -0.02038766 0.009472593 0.0015791331
0003e0 4c d2 2a bc f5 71 3a 3c 6a db 10 3c 79 ee 10 bb
       -0.010426115 0.011379709 0.008841375 -0.0022114797
0003f0 11 2e 9a 3b 32 eb e6 3b 60 7c 1d bc 27 28 cb 3b
       0.0047051986 0.0070470804 -0.009612173 0.006199855

action_model._discrete_distribution.branches.0.bias f4 [2]
000000 87 f8 91 ba 95 f8 91 3a
       -0.0011136689 0.0011136705

action_model._discrete_distribution.branches.1.weight f4 [3, 128]
000000 b8 7a 91 bc 4c 66 8d bc 49 84 68 bb 3d 93 c5 bc
       -0.017758712 -0.017260693 -0.0035479239 -0.02411806
000010 2b ce b0 3b a8 13 4f bc 96 8c 56 bc 63 1a 86 bb
       0.005395671 -0.012638964 -0.013095042 -0.004092501
000020 65 87 8f bc 47 fe 5e 3c 9e 5e 27 3a 06 82 9a bc
       -0.017520616 0.013610429 0.00063846435 -0.018860828
000030 b4 44 44 bc 34 91 07 3d d1 5c 02 bc 42 a5 f3 bc
       -0.011979271 0.03309746 -0.0079566995 -0.029741887
000040 aa 13 82 bc d3 de dd bc 7a ec e3 3b bf 52 d7 bb
       -0.015878517 -0.02708379 0.0069556804 -0.0065711434
000050 3e 01 3a bc f2 ca e4 ba f1 a3 a0 3c 5c eb 28 bb
       -0.011352835 -0.0017455502 0.019609423 -0.002577505
000060 29 e8 42 bc 3a 70 31 3d 64 1a 8d 3c d8 c7 65 3a
       -0.011896172 0.04331992 0.017224498 0.0008765436
000070 48 84 bf 3a 30 80 20 bc 08 f6 49 3c 9b 46 96 bb
       0.0014611566 -0.009796187 0.012326725 -0.0045860535
000080 90 27 77 bc 80 0c e3 bc 8d 06 24 3c f6 1c a0 3c
       -0.015085116 -0.027715921 0.010011327 0.01954506
000090 50 fb 9c bb 5c d9 a9 3c 3e f7 af ba ff 2f fd bc
       -0.004790701 0.020733528 -0.0013425124 -0.030906675
0000a0 fa a4 12 3c de 70 18 bc 58 95 90 bc 24 87 96 39
       0.008950466 -0.009304253 -0.017649338 0.00028710917
0000b0 91 f8 cc bc f5 e3 66 bc e0 6c 12 3c 46 32 92 3c
       -0.02502087 -0.014092435 0.008937091 0.017846238
0000c0 8f 92 61 3c a0 c9 c1 3b b5 c2 93 bb c4 3b a8 bc
       0.013767852 0.005913928 -0.004509295 -0.020536311
0000d0 45 aa d6 3c 96 d5 f0 3b c3 9e ab bc 89 b8 a5 bc
       0.026204238 0.00734968 -0.020949727 -0.020229595
0000e0 a9 2b 38 3c cd 77 b7 bb 8b ee dc 3a b2 07 f7 bc
       0.011240878 -0.005598998 0.0016855759 -0.030155037
0000f0 6e a6 77 3c 9c 81 39 3d a8 b3 6d 3b 3d 4f 6d 3c
       0.0151153635 0.04528962 0.0036270414 0.014484224
000100 74 5f 5a 3c c4 47 e5 3b da 96 5f 3b 51 f4 46 bc
       0.013328422 0.0069970805 0.0034117014 -0.0121432105
000110 af 5b 5f bc 0c 0f 8e 3c 89 8b c3 bc 85 e9 e3 b9
       -0.013632699 0.01734116 -0.023870246 -0.000434708
000120 88 5d cc bc 14 ce 7b bb 8e 0a 83 bc 96 5f 85 bb
       -0.024946943 -0.0038422393 -0.015996244 -0.0040702326
000130 e4 41 1b bb 28 8b 4e bc 1b 77 9c 3c 18 4b 52 3b
       -0.0023690397 -0.01260642 0.019099763 0.0032088216
000140 f7 5e 06 bc 90 6a 24 3c 2b f8 89 bb ac 73 15 3b
       -0.008201352 0.010035172 -0.004210492 0.0022804542
000150 1b 79 f4 ba 7d d9 e9 3b 41 af 20 bc 9d fb fc 3b
       -0.0018651815 0.0071365223 -0.009807409 0.0077204243
000160 40 de 1a 3c c8 d0 8c 3a 59 1a 42 3c 98 90 9d bb
       0.009452403 0.0010743374 0.011847102 -0.0048084967
000170 aa 35 34 3c f6 c5 1b bd fa 4f 3b bc b3 05 04 3b
       0.010999123 -0.038030587 -0.011432642 0.0020144999
000180 10 f5 c7 bc de 7a 83 38 0f 54 4b bb 13 cf 8e bc
       -0.024408847 6.2694526e-05 -0.0031025445 -0.017432725
000190 e8 59 25 3d 8a 34 fc 3c db 3b 13 3c d6 d1 dc 3c
       0.040368944 0.030786771 0.008986439 0.026955526
0001a0 14 ce b2 bc a1 1f db bc f3 ec 97 3c bd 50 1e bc
       -0.021826781 -0.02674848 0.018545603 -0.009662804
0001b0 17 f5 2d 3d 69 7a 68 bc 8f 67 1d bc e9 79 f9 bc
       0.042470064 -0.014189341 -0.00960721 -0.03045364
0001c0 cb 4e 13 bc 55 ff 73 bc 76 80 79 3c 8b 7d 9c 3b
       -0.008990954 -0.014892419 0.015228381 0.004775708
0001d0 ba 3a e2 3b e3 1a 36 bb cb 56 1c bb f9 14 d8 bc
       0.0069039734 -0.0027787022 -0.0023855444 -0.026377188
0001e0 bb 76 27 ba c3 06 a3 3a 2f 01 4d 3a f9 5d 34 3c
       -0.00063882367 0.0012437928 0.0007820306 0.011008733
0001f0 d9 9b d5 3a 9e 6c b5 b9 cc 10 df bc 37 26 83 3a
       0.0016297057 -0.00034603936 -0.027229689 0.0010005896
000200 65 db bc 3c fc bd 5c bc b7 aa 4d 3b 1c 1e 83 3c
       0.023053834 -0.01347303 0.0031382272 0.016005568
000210 4d 3e d8 bb 9c f4 c8 3c fc 86 bd bb 36 a9 d7 3b
       -0.0065992237 0.024530701 -0.0057839137 0.006581451
000220 49 1f c7 3c 18 c1 2b 3c 0b 7e 0b bd 3b 8c 78 3c
       0.02430691 0.010483049 -0.03405575 0.015170152
000230 71 be 2f 3c f0 5e 39 bd e9 d8 d1 3c fd bd 7a bc
       0.010726557 -0.045256555 0.025616126 -0.015304086
000240 a2 bf e3 bc 3b 3b 2e 3b 1b 2b 8d bb 2d 3b 18 bd
       -0.027801339 0.0026585597 -0.004308117 -0.03716581
000250 94 99 6c 3c 0a dd 1e bc dc 20 b3 ba d2 27 0c 3c
       0.014440913 -0.0096962545 -0.0013666409 0.008554416
000260 4b 39 61 bc 58 66 67 bd af 47 2f bb 68 10 7d 3c
       -0.01374657 -0.056494087 -0.0026745608 0.015445806
000270 67 17 8e bc f1 52 82 bc 0a 5c df ba 5f 6e 2d 3c
       -0.017345143 -0.01590869 -0.001704098 0.010585397
000280 a7 85 66 3c 2f a5 a7 3c 5a a4 cc b9 28 7e 40 bc
       0.014069951 0.020464508 -0.00039032364 -0.011748828
000290 aa 0d 9e bb ed e1 af bc 3e 0a e8 3c 42 3c 82 3b
       -0.004823406 -0.021470034 0.028325196 0.0039744684
0002a0 1c 72 82 bc 63 a8 84 3c 0f ca b9 3c fe 2d 87 bc
       -0.015923552 0.016193574 0.022679357 -0.016501423
0002b0 d1 3e 26 3a 15 b3 8f 3c b5 06 97 bc 95 a5 59 3c
       0.0006341758 0.017541448 -0.018435815 0.013284107
0002c0 5f b7 d5 3b 86 13 66 3c ae 15 a5 3c 9f c4 a7 3a
       0.0065221037 0.014042741 0.02015194 0.0012799687
0002d0 ba 19 82 bc c4 a5 96 3c e2 eb d4 3b a7 b7 d6 3c
       -0.015881408 0.01838959 0.006497846 0.02621062
0002e0 a5 e0 93 bc 34 87 07 bc 00 59 0c bb 51 64 84 3c
       -0.018051455 -0.008271981 -0.0021415353 0.016161116
0002f0 eb 42 1f bc cb d2 c6 bc 13 d7 cb bb 1d 96 cd bc
       -0.009720544 -0.024270436 -0.006220707 -0.025095994
000300 67 70 b9 bb 68 27 47 bc 7b 85 68 bb ac cf 0b 3c
       -0.0056591514 -0.012155391 -0.0035479951 0.0085334
000310 4a 86 df 3c dc 1a 40 bd 19 39 60 3c da 3d 90 b9
       0.027285714 -0.046900615 0.013685488 -0.00027511903
000320 a0 06 2d 3d 89 5d b1 bc 8e 08 89 bc 02 b9 58 3c
       0.042242646 -0.021651046 -0.016727712 0.013227703
000330 21 f6 95 3b 64 9a 1f bb f6 3e ac 3b fc 3d 9b bb
       0.00457646 -0.0024353499 0.005256529 -0.0047376137
000340 d4 08 7c 3b 8a 00 bb bb e9 6d 35 bc 15 93 08 3b
       0.003845741 -0.0057068514 -0.011073568 0.002083962
000350 19 4b 73 3c ac 7e a4 bc a3 e0 0f bd f5 53 ed 3c
       0.014849448 -0.020079933 -0.03512634 0.028970698
000360 e6 27 a0 3c 0e 65 1c 3c dc 44 46 bd 57 de 79 3c
       0.019550275 0.009545578 -0.048405513 0.015250764
000370 fe bc 5d 3b 47 65 eb 3b d1 ae 8a 3c f6 c6 9f bc
       0.0033834572 0.007183704 0.016929062 -0.019504052
000380 62 98 0b 3c 65 fc 3d bc 65 1c 7a 3c 2e 79 4b 3c
       0.008520218 -0.01159582 0.015265559 0.012419028
000390 5b 0c a1 bc bb c1 2a bc 21 a8 49 bc 9b a3 6c bc
       -0.019659212 -0.0104221655 -0.012308151 -0.014443303
0003a0 26 08 0a 3d eb f0 36 3c 53 c7 7d 3c 12 6a 8c 3b
       0.033699177 0.011165838 0.015489417 0.0042851055
0003b0 8b 21 02 bc d2 e1 40 bb a7 07 3e 3b e5 97 20 bc
       -0.007942568 -0.0029431474 0.002899626 -0.0098018395
0003c0 6f d2 67 3c f7 07 bf 3c bc 0c a3 bb 41 da 30 3c
       0.014149292 0.023319228 -0.0049758833 0.010794223
0003d0 37 ef e2 bc 4e 5a 0e 3d b1 43 31 bc f4 f9 5a 37
       -0.027701957 0.03475409 -0.010819362 1.3052009e-05
0003e0 49 89 82 3c 13 98 2c bc e1 ee 08 3c ee 84 3d 3b
       0.015934603 -0.010534304 0.008357734 0.0028918344
0003f0 ed 53 e7 3c 73 ea 7e 3c 11 65 ea 3c 73 20 c5 3c
       0.028238261 0.015558827 0.028612645 0.024063325

action_model._discrete_distribution.branches.1.bias f4 [3]
000000 97 96 24 bb 2e d9 41 bb 1a cb 9e 3b
       -0.0025114173 -0.0029578912 0.004845989

action_model._discrete_distribution.branches.2.weight f4 [1, 128]
000000 60 c4 11 3c 23 71 03 ba dc 4c 82 3c d3 c8 82 ba
       0.008896917 -0.0005014112 0.01590579 -0.0009978063
000010 75 a3 86 bb 8b f4 57 bb 40 95 57 bc 7f 76 67 3c
       -0.004108841 -0.0032952155 -0.013158143 0.014127373
000020 18 68 f8 3b 8d f9 5d 3b f3 0d 4e 3b eb a8 2f 3b
       0.0075807683 0.0033870668 0.003144142 0.0026803564
000030 53 1e a8 3b cf 69 b8 ba 5b 80 0f bc 67 18 42 bb
       0.005130568 -0.0014069619 -0.00875863 -0.0029616596
000040 93 cc 8c b9 99 6e 17 ba cd 0b 82 bb e7 14 1a 3c
       -0.000268553 -0.0005776673 -0.003968692 0.009404398
000050 d8 cc be 3c d1 1e ba 3a 8f 7c 68 bb 70 9f 1b bb
       0.023291036 0.0014199858 -0.0035474633 -0.0023746155
000060 63 72 dd 3a 26 81 b8 3b d7 3c 3f bb d7 25 34 3c
       0.0016895052 0.00563063 -0.002918055 0.01099535
000070 b1 ea 0d 3b 3b 77 19 bc c2 ba 78 3c f9 76 48 3b
       0.002165478 -0.009366806 0.015181245 0.0030588491
000080 2b 4d 19 3b da d5 10 3c 05 30 f2 3b 9a 59 61 bc
       0.0023391943 0.008840049 0.0073909783 -0.013754273
000090 bf 24 ea bb 53 0a 92 3a 30 1f c9 bb 3a 17 8c bb
       -0.0071454938 0.0011141993 -0.006137751 -0.0042752298
0000a0 ef e3 0a 3c 04 6e 2f bb 63 8a 98 bb 65 a7 34 bb
       0.008477195 -0.0026768455 -0.004655169 -0.0027565595
0000b0 e3 73 4b 3b f0 47 ee bb 52 36 61 3a 0b 00 b5 bb
       0.0031044416 -0.007271759 0.0008591163 -0.0055236868
0000c0 38 77 4a bb a7 1a 14 bc 85 b2 19 3b 93 9f 09 bb
       -0.0030893814 -0.009039558 0.0023452353 -0.0020999655
0000d0 d3 ed 0a bc f1 33 2b 3a d6 87 9f 3b af 22 1e bc
       -0.008479553 0.0006530872 0.004868488 -0.009651824
0000e0 87 d1 17 3c a4 1d bb 3b 95 d0 a3 3b e5 f3 69 3b
       0.009266264 0.0057103205 0.00499923 0.003569835
0000f0 14 95 08 3c e2 91 ce bb 52 a2 cf b9 cb 0c 75 bb
       0.008336324 -0.0063040117 -0.00039603055 -0.0037391658
000100 63 ef 83 3a 7f 5e 3f 3c f2 cf 55 3c 5d 9c 07 3c
       0.001006585 0.0116802445 0.013050066 0.008277026
000110 fa e7 1a 3c 4a 58 02 ba 8b 07 d1 3b 84 a7 3c 3b
       0.009454722 -0.00049722625 0.006379073 0.002878637
000120 2f 77 93 b8 b2 48 45 3b 7c 08 10 3c 7d f8 df bb
       -7.031706e-05 0.0030103144 0.008791085 -0.006835042
000130 2d 22 25 bb 59 0b ac bb 47 14 ea bb 5b 50 17 3c
       -0.0025197372 -0.005250376 -0.0071435305 0.009235467
000140 62 5a 81 3c f1 b7 18 3c 68 52 57 3c aa bd 6b ba
       0.015790168 0.009321199 0.013142206 -0.0008992801
000150 56 55 b0 bb 05 07 cd 3a 05 9d 7d 3c a8 be 8e 3c
       -0.0053812666 0.0015642351 0.015479331 0.017424896
000160 6b a2 25 bc 9f a6 e9 ba c2 3f ce 3b 17 47 49 bb
       -0.010109524 -0.0017826146 0.0062942216 -0.003071254
000170 fb bf a4 3b da 1f f0 3b 4f 9c 7a 3b f9 92 36 bb
       0.0050277687 0.0073280158 0.003824014 -0.0027858599
000180 fe 25 c2 3b a5 d4 79 3a de 96 38 3c 7b b8 ef 3b
       0.005924939 0.00095302827 0.011266438 0.007315693
000190 1a 9b 88 3c bb 4a ea bb bd d8 13 bc 97 de 32 bb
       0.01667552 -0.007150022 -0.009023842 -0.0027293318
0001a0 77 ed 2c bc 8f 9d 04 bc ca b9 2a bc 50 18 9e 3b
       -0.010554663 -0.0080942055 -0.010420272 0.0048246756
0001b0 1f 94 7c 3b 20 56 34 3c 86 07 4b bb 9f a3 1c 3c
       0.0038540435 0.011006862 -0.0030979826 0.009560495
0001c0 cc 6f 01 bd 1f 3c 35 bc 98 bd 7b 3b e5 0d 34 3b
       -0.03160076 -0.011061697 0.0038412567 0.0027474102
0001d0 53 13 36 3b b0 8b c6 3b ff 90 ce ba 6a bf 7d bc
       0.0027782514 0.0060591325 -0.0015759765 -0.015487531
0001e0 0e 40 2b bb 3f 59 15 3b 89 46 b9 bb bc 94 b0 3b
       -0.002613071 0.002278879 -0.0056541604 0.0053888243
0001f0 15 8a dc ba 74 1b 21 bc 31 78 20 bc 3b 47 35 b9
       -0.001682582 -0.0098332055 -0.009794281 -0.0001728804
