Assets/ZooheimTest/Models/run1/LionBehavior/LionBehavior-96915.onnx (onnx, 186709 bytes, 14 tensors)

discrete_act_size_vector f4 [1, 3]
000000 00 00 00 40 00 00 40 40 00 00 80 3f
       2.0 3.0 1.0

network_body.observation_encoder.processors.0.normalizer.running_mean f4 [210]
000000 9a 7e 4a 3e 11 95 67 3e 7b 6d 8e 3c 0c 33 fa 3b
       0.19774857 0.22615458 0.017386189 0.00763548
000010 22 99 14 3c c0 e1 9c 3b 61 11 aa 3b b8 0d a9 3b
       0.009069713 0.0047876537 0.00519006 0.005159106
000020 87 50 8c 3b bc ec 9f 3b 28 1a 44 3b 65 ae 0e 3b
       0.0042820605 0.004880516 0.0029922817 0.0021771428
000030 ea 43 e7 3b d3 6d 05 3e 1d a2 50 3e 26 2d 63 3e
       0.0070576565 0.13030176 0.20374341 0.22185192
000040 6a c9 68 3c 26 93 e5 3b b8 cb 16 3c 81 24 80 3b
       0.014208177 0.007006067 0.009203844 0.0039106016
000050 46 85 b2 3b dc 4c 8b 3b f6 e3 85 3b bc 02 a6 3b
       0.0054480163 0.0042511057 0.004086013 0.005066244
000060 7f 4d 52 3b 47 01 0e 3b 7b 9a e7 3b dc 87 06 3e
       0.0032089648 0.0021668242 0.007067976 0.13137764
000070 95 41 40 3e a7 0d 64 3e c5 6c 82 3c e7 1d 0a 3c
       0.18775018 0.22270833 0.015921006 0.008429981
000080 e7 1d 0a 3c 63 3d b6 3b 7a 0b c0 3b 60 48 b9 3b
       0.008429981 0.005561517 0.005860743 0.0056543797
000090 2e 28 81 3b a2 4a a2 3b 26 1a 44 3b 9f 08 10 3b
       0.0039415574 0.0049527446 0.0029922812 0.0021977795
0000a0 45 77 f5 3b a9 cc 08 3e 55 3b 50 3e bc 23 5c 3e
       0.0074910247 0.13359322 0.20335133 0.21498007
0000b0 b6 23 2f 3c 44 d2 c7 3b d8 41 08 3c f0 59 6d 3b
       0.0106896665 0.0060980637 0.00831648 0.0036216937
0000c0 d7 6d 94 3b 60 8a 4b 3b d4 ee 7e 3b db c5 ac 3b
       0.0045296955 0.003105782 0.0038899677 0.0052726096
0000d0 40 4b 69 3b 4a 43 20 3b 08 28 f7 3b d4 d9 0b 3e
       0.003559783 0.002445417 0.007542614 0.13657314
0000e0 a6 c3 35 3e 44 09 57 3e 7b b0 6d 3c 94 0b 05 3c
       0.17750415 0.20999628 0.014507408 0.008120436
0000f0 1f 62 05 3c a1 55 a5 3b 66 e5 9d 3b d7 e6 b5 3b
       0.00814107 0.005045608 0.004818606 0.0055512
000100 09 33 7a 3b 48 01 8e 3b 0c e9 1e 3b 68 c4 14 3b
       0.0038177392 0.004333649 0.0024247793 0.0022700075
000110 7c b0 ed 3b 7f 12 10 3e b7 7b 47 3e 7e b5 48 3e
       0.0072537046 0.14069556 0.19480787 0.19600484
000120 4a 0c 11 3c 2b b7 a8 3b 60 f8 e9 3b 9d ce 46 3b
       0.008853028 0.0051487884 0.0071402043 0.0030335553
000130 87 24 80 3b 0f 2b 31 3b b6 65 41 3b 0b c8 95 3b
       0.0039106044 0.0027033722 0.0029510087 0.004570966
000140 61 48 39 3b 2b ee 37 3b ef 7a f6 3b 09 85 14 3e
       0.00282719 0.0028065543 0.007521979 0.14503874
000150 ea 08 24 3e 51 dc 49 3e 40 fe 53 3c 96 89 fa 3b
       0.16019025 0.1971295 0.012939036 0.007645796
000160 26 ee b7 3b f7 46 a1 3b 65 98 88 3b 62 1c ad 3b
       0.0056131063 0.0049217897 0.0041685575 0.0052829245
000170 db 57 8e 3b d9 2b 82 3b d8 8e 1d 3b d7 12 42 3b
       0.0043439693 0.003972512 0.002404144 0.002961328
000180 26 ca f4 3b 56 0b 19 3e 60 7c 34 3e 3d ce 40 3e
       0.007470387 0.1494573 0.1762557 0.18828674
000190 a2 ad bd 3b 7d 9d a1 3b 06 1d f4 3b 49 85 32 3b
       0.005788521 0.004932104 0.007449749 0.0027240089
0001a0 68 ae 8e 3b ef 9b ff 3a f3 93 36 3b 84 71 95 3b
       0.004354287 0.0019501428 0.002785918 0.0045606513
0001b0 10 a7 0c 3b f0 bf 42 3b f2 ee 08 3c ed 42 21 3e
       0.0021461882 0.0029716454 0.00835775 0.15748186
0001c0 80 34 0b 3e e5 a4 42 3e 9c 1e 16 3c 5d ed e6 3b
       0.13594246 0.19008215 0.009162571 0.007047339
0001d0 a2 76 ae 3b 81 be aa 3b ef 43 67 3b d8 57 8e 3b
       0.0053242007 0.005210698 0.0035288294 0.004343968
0001e0 15 86 83 3b b1 15 72 3b d4 fc 3b 3b 2d 72 5c 3b
       0.0040137866 0.0036939199 0.0028684633 0.003363739
0001f0 42 82 f8 3b 71 d3 22 3e 3b 07 17 3e d9 00 43 3e
       0.0075838873 0.15900971 0.14748852 0.19043292
000200 13 b2 8f 3b 9d 8c b4 3b b2 20 f5 3b b6 7b 47 3b
       0.004385242 0.0055099265 0.007480704 0.0030438728
000210 31 28 81 3b 41 8d fb 3a 63 06 27 3b 2d 3e 87 3b
       0.0039415588 0.0019191877 0.0025485985 0.004127285
000220 d7 36 05 3b f3 93 36 3b 48 eb 07 3c 1a 13 28 3e
       0.0020326877 0.002785918 0.0082958415 0.16413537
000230 1b d5 d8 3d 58 db 48 3e f6 04 0f 3c 09 78 c6 3b
       0.10587522 0.19614923 0.00872921 0.00605679
000240 11 20 ae 3b a0 08 90 3b 49 77 75 3b 46 77 75 3b
       0.005313881 0.0043955594 0.0037455133 0.0037455126
000250 db 2b 82 3b 28 ca 74 3b 29 96 1f 3b 20 e0 7a 3b
       0.003972513 0.003735194 0.0024350977 0.0038280562
000260 7a e7 fc 3b ba e9 2a 3e c4 07 fa 3d c8 36 40 3e
       0.007718024 0.16690722 0.122085124 0.18770897
000270 6b 06 a7 3b 99 76 ae 3b ce ac ec 3b b9 e9 65 3b
       0.0050972006 0.0053241965 0.0072227484 0.0035081937
000280 79 bb 70 3b 69 f0 20 3b f4 51 24 3b 15 7b 80 3b
       0.0036732836 0.0024557358 0.0025073262 0.0039209225
000290 f4 e3 05 3b d6 fc 3b 3b ce 65 06 3c 4e e0 2f 3e
       0.002043006 0.0028684638 0.008202983 0.17175409
0002a0 f4 1d a9 3d 72 3e 48 3e ca b2 1b 3c 61 cc dd 3b
       0.08257666 0.19555071 0.009503076 0.0067687486
0002b0 b8 4f bb 3b 4b e0 84 3b 97 52 6b 3b 61 74 45 3b
       0.0057162903 0.004055058 0.0035907382 0.0030129182
0002c0 11 9c 89 3b 5f a0 51 3b 2c ac 25 3b 92 68 71 3b
       0.004199513 0.0031986458 0.0025279624 0.003683601
0002d0 f8 04 0f 3c 53 e8 32 3e 0b 10 d0 3d 97 25 3f 3e
       0.008729212 0.17471437 0.1015931 0.18666683
0002e0 d1 fc bb 3b f0 7d b0 3b 43 40 e6 3b 40 77 75 3b
       0.005736925 0.0053861067 0.0070267036 0.0037455112
0002f0 13 7b 80 3b d1 54 d4 3a da 4c 0b 3b f2 2d 61 3b
       0.0039209216 0.0016199594 0.0021255524 0.003435966
000300 2e 54 0d 3b b8 65 41 3b 1c af 1a 3c 85 ff 35 3e
       0.0021565068 0.0029510092 0.009441163 0.17773254
000310 fb 69 90 3d 2d a2 42 3e 9e 4a 22 3c b3 b2 d6 3b
       0.07051464 0.19007178 0.009905485 0.0065520643
000320 9f 76 ae 3b d9 2b 82 3b 43 61 6f 3b b9 f7 22 3b
       0.0053241993 0.003972512 0.0036526478 0.0024866892
000330 ed 85 79 3b 61 5e 3f 3b 49 43 20 3b d1 96 66 3b
       0.003807421 0.0029200541 0.0024454168 0.0035185108
000340 2b 3e 07 3c af c6 38 3e
       0.008254568 0.18044542

network_body.observation_encoder.processors.1.normalizer.running_mean f4 [6]
000000 1c 8f 87 42 72 da a7 42 92 96 87 42 b8 15 a8 42
       67.77951 83.92665 67.79408 84.04242
000010 17 9d 87 42 e1 50 a8 42
       67.806816 84.15797

network_body._body_endoder.seq_layers.0.weight f4 [128, 216]
000000 24 1f 92 3d 62 eb f9 bc 7a ea 8f 3d eb 26 98 3c
       0.07134846 -0.030507747 0.07027145 0.018573245
000010 28 7c 8c bd 5d 48 68 bd 28 ec 49 bd bb e6 63 3b
       -0.068596184 -0.056709636 -0.04929748 0.0034774977
000020 af 99 eb 3d c0 74 07 3e d1 64 1a 3c c4 2f 3d 3b
       0.11503922 0.1322813 0.009423451 0.0028867582
000030 70 75 f9 bb ba 67 23 3e a6 74 35 bc f1 9e 48 3d
       -0.0076128766 0.15957537 -0.011075174 0.048979703
000040 be b7 2f bd 25 19 dd bc 0c ac 1b bd 05 78 4b 3d
       -0.04289984 -0.026989529 -0.038005874 0.049675006
000050 29 aa 1a be 88 31 8b bd 3a 5a c7 3c 0c 7f 19 bc
       -0.15103973 -0.06796557 0.024335016 -0.009368669
000060 1d 3b 26 bd 6e 9f c1 3c c5 5a f7 bd 2a 2a 17 bb
       -0.04058372 0.023635592 -0.1207786 -0.0023065903
000070 f9 01 e3 bd d7 fc 46 3d 8d ac 4b bd 49 9a b5 bd
       -0.11084361 0.04858097 -0.049725104 -0.08867318
000080 2f 17 33 bd cd 0f 3f bd 8f 12 26 3c f5 01 a4 3c
       -0.04372328 -0.04664593 0.010136261 0.020020464
000090 b7 44 a6 3d 9e d2 9f bd 1b fe 23 3d 01 5b 20 bd
       0.08118575 -0.07803844 0.040037256 -0.039149288
0000a0 28 c1 e9 bc d4 76 9c bc 2f b5 09 3d a8 b5 b8 3d
       -0.028534487 -0.01909963 0.033620056 0.09019023
0000b0 9c 7c da 3c 98 25 b7 bc 78 f8 42 bd 2e 9e 3f bd
       0.026670747 -0.022356793 -0.04760024 -0.04678171
0000c0 6c c6 17 3d 2f 87 b5 3d db b2 85 bd 58 59 ae bd
       0.037054464 0.08863675 -0.065282546 -0.08513135
0000d0 c4 99 54 3c 3f 3e 44 3c 2f 24 08 3d a1 d6 80 3c
       0.012976114 0.011977731 0.033237632 0.015727343
0000e0 34 56 f4 bc d3 37 7a ba a5 a6 a0 3d 57 38 a5 bd
       -0.029826261 -0.00095450616 0.07844285 -0.080673866
0000f0 56 0a 34 bd 14 17 9c bd dd 73 c9 bc a1 8e db bc
       -0.04395517 -0.07621589 -0.02459138 -0.02680141
000100 ff d7 dd 3d 20 db 5d bc 24 b1 f7 3c f7 39 bd 3d
       0.108322136 -0.013541013 0.030235834 0.092395715
000110 70 be c1 3c 04 16 82 bd 7f 10 d9 bc de 34 fa 3b
       0.023650378 -0.063518554 -0.026497124 0.007635697
000120 92 ea 88 bd 84 e5 03 3d 95 f8 6d bc 63 aa 4a bc
       -0.06685366 0.032201305 -0.014524599 -0.012369725
000130 87 7c ad bc 61 d5 11 3e d5 70 7d bd e1 32 02 be
       -0.021177543 0.14241554 -0.061875183 -0.12714721
000140 f0 ab f1 bd 98 e6 8d bb 72 71 5a bd dc 6d d0 bc
       -0.118003726 -0.0043304674 -0.053330846 -0.02544301
000150 60 5e 1e bd 54 78 1c bd 65 1e 60 3d 78 77 9f ba
       -0.03866422 -0.03820069 0.054716486 -0.0012166342
000160 de 94 dd 3d 38 e0 a4 bd d6 67 8a bd 73 03 d7 3c
       0.1081941 -0.08050579 -0.067580864 0.026246762
000170 f2 23 84 3d aa cf ae 3b f5 db 8f bd e5 35 06 3d
       0.064521685 0.005334814 -0.07024375 0.03276624
000180 7c e8 f3 bd e2 87 10 3d 91 0c 9c 3c ea 17 b9 3b
       -0.11909577 0.035285838 0.01904896 0.0056486027
000190 c7 c5 8d bd d7 b2 21 3d 1f 21 80 3c ef d8 12 3e
       -0.06922489 0.039477196 0.015640793 0.14340566
0001a0 de 4a cf bd 71 19 99 3d 8b 39 1b 3d f2 19 d1 3d
       -0.10121702 0.07475556 0.037896674 0.10210027
0001b0 3f 4e 89 bd b0 e4 cb 3c 51 6a 8c bd 1d 3f f0 bc
       -0.067043774 0.02488932 -0.06856216 -0.02932697
0001c0 a2 e7 00 be 98 59 7c 3c 63 42 6d bd c4 1f 87 3d
       -0.12588361 0.01540222 -0.05792464 0.06597856
0001d0 1a e0 2b 3c 2c 60 d9 3a ee b6 0d be 03 f6 25 bd
       0.010490442 0.0016584448 -0.13839313 -0.04051782
0001e0 52 b9 30 bd 69 b5 f3 3b 4f 9c 16 3d a7 a3 0b 3e
       -0.043145485 0.0074373973 0.03677016 0.13636647
0001f0 c6 79 b1 ba 9a 54 7e 3d 89 88 a6 bd 70 22 93 bc
       -0.001354032 0.0620924 -0.08131511 -0.017960757
000200 02 4b a2 bd 37 1f ae bd bb a5 23 bc bc 9f a4 bc
       -0.07924463 -0.085020475 -0.009988244 -0.020095699
000210 88 17 4c 3d 92 44 d4 bd 0c a3 35 bd 6f 15 40 3d
       0.04982713 -0.10364641 -0.044344947 0.04689544
000220 c7 52 cc bb 90 2f 8d bd e8 d5 6a 3d 53 89 8a bd
       -0.0062354538 -0.068938375 0.057332903 -0.06764474
000230 b4 2b 3e 3d eb 53 b2 bc a7 b1 14 be 55 df 5d bb
       0.046428397 -0.02176853 -0.14520894 -0.003385504
000240 8f bd c3 3b aa 3f 79 37 92 d4 bb 3b 3a a9 cc 3d
       0.005973525 1.48563795e-05 0.0057321275 0.09993215
000250 94 b5 8f 3d e5 30 b0 3d dc f8 bf bd 43 ef 44 bd
       0.07017055 0.08603076 -0.09373638 -0.04807974
000260 e6 95 3f bd d2 a1 18 bd 59 9f b4 bd 26 65 0f 3e
       -0.046773814 -0.0372637 -0.08819456 0.14003429
000270 19 3e 19 3e d5 49 39 3d 77 1a 75 3b ec 0d 81 bd
       0.14965095 0.045236427 0.0037399807 -0.063014835
000280 86 ed 60 3d e1 07 4a 3d 67 39 13 bd 46 e3 31 bd
       0.05491402 0.04932392 -0.035943415 -0.043429635
000290 26 8c 34 3c c0 a0 b3 3c 74 6b d7 3c e9 27 0b 3d
       0.011019742 0.021927238 0.026296355 0.03397361
0002a0 3d cf a8 3c 66 74 3a bd de 35 04 bd a7 e3 a4 3d
       0.020606631 -0.045521162 -0.032277934 0.08051234
0002b0 4d ce 1a bc b5 95 56 3d cf 2f e7 bd 8b a4 1e 3d
       -0.0094486 0.052388866 -0.11288416 0.03873114
0002c0 b6 9f 5a bd 1b 5a 0e bd eb 61 d7 3c e9 d3 1f 3d
       -0.05337497 -0.0347539 0.026291808 0.039020453
0002d0 59 88 95 bd 72 c7 57 bd 4e 87 a4 ba 43 f8 cf 3d
       -0.07301397 -0.05268044 -0.0012552531 0.10154774
0002e0 0e 51 04 3d a2 a7 15 be f0 4f ce 3c 78 4a 2c bd
       0.032303862 -0.14614728 0.025184602 -0.042063206
0002f0 5e 39 25 bd c5 01 a5 bd 80 7a 8e bd 3e c0 3c bd
       -0.040337913 -0.08056978 -0.06956959 -0.046081774
000300 35 e7 04 be 5b 11 aa bd b5 f7 0f bb b6 11 a0 bd
       -0.12978823 -0.083040915 -0.0021967713 -0.07815878
000310 fd b4 b3 bd a4 83 dc 3c fb bf 03 3e a7 ae 01 bd
       -0.08774755 0.02691824 0.12866203 -0.031660702
000320 b8 f9 f0 3c 37 9d cc bc 52 26 0a bd 24 0f 92 3d
       0.02941595 -0.02497731 -0.03372795 0.07131794
000330 55 3c ed 3d 03 f3 28 3d fb 02 0c 3e 5e 73 8a bc
       0.11583773 0.04124738 0.13673012 -0.016900714
000340 a2 54 91 bc 6b c3 d6 bd 17 1e aa 3c e0 f6 96 3a
       -0.017740551 -0.10486492 0.020766301 0.0011517666
000350 ce e3 a1 bc ce bd a6 3d f1 5c 30 3d ef 8d 11 3c
       -0.019761946 0.08141671 0.043057386 0.008883937
000360 cf 2f 00 3c d2 59 fe bd 15 00 38 bd 8b 44 9e bb
       0.007823898 -0.124194756 -0.044921953 -0.0048299483
000370 1b c8 6e 3d ea 24 e4 bc 35 06 d6 3d 53 6f cd 3d
       0.058296304 -0.027849633 0.10450403 0.10030999
000380 f9 b4 30 bd 7b 79 62 bc 9c 9a c8 3d d9 18 ad 3d
       -0.04314134 -0.0138229085 0.097951144 0.08452005
000390 02 46 c6 3a b7 d1 3b 3d 20 69 4d bd fa 90 6b bb
       0.0015127065 0.045854297 -0.050149083 -0.0035944567
0003a0 6d 7b 08 3d 12 9e d7 3c 36 53 6d 3d 34 d6 73 3d
       0.033320833 0.026320491 0.057940684 0.059530452
0003b0 db 5e 4e 3d 20 96 54 bc d6 e4 2c 3d fd 92 8f 3b
       0.05038343 -0.012975246 0.042210422 0.004381536
0003c0 c4 49 84 3d e1 6c da bd 67 60 e0 3d 6f 4e 55 bd
       0.06459382 -0.10665298 0.10955887 -0.052076753
0003d0 ea 45 b5 bc 45 f4 5d 3e d8 c0 22 3d d7 ae a8 3d
       -0.022128064 0.21675213 0.03973469 0.08236473
0003e0 4f 3a 4d 3c a6 6e 44 bd 06 60 cc 3c ee b7 86 3d
       0.012526109 -0.047957085 0.024948131 0.065780506
0003f0 6f d3 bc bd 75 9e 27 3d 6d ba 31 bd b0 2c 82 3d
       -0.09220015 0.0409226 -0.04339068 0.0635618

network_body._body_endoder.seq_layers.0.bias f4 [128]
000000 09 f9 0e 3c 57 f4 32 bc 57 b8 6f ba 85 31 d9 3c
       0.008726367 -0.010922513 -0.0009144595 0.02651287
000010 a3 9d 36 3d 83 c4 8d 3c 58 44 f9 3c ce 6b 36 bd
       0.044583928 0.017305618 0.030428097 -0.044536404
000020 5f 4f db bc ff 89 39 bd ef c1 37 3c 7f a5 33 3c
       -0.026771246 -0.04529762 0.011215671 0.01096475
000030 0c 07 bc 3b ce 1d a7 bb d8 8f 63 bc 1c 9d 55 ba
       0.0057381447 -0.0050999885 -0.0138892755 -0.00081487163
000040 fa 8f 25 3c 87 47 02 3c 1b a3 87 3c e7 1d c6 3c
       0.0101051275 0.007951624 0.016557267 0.02418418
000050 16 1f 00 bc 35 21 24 3c 54 68 ea 3c 35 d6 a4 3c
       -0.007819911 0.010017683 0.0286142 0.020121673
000060 12 83 58 bc 04 60 d1 3c cb 3e bc 3b b9 5c d4 3c
       -0.013214843 0.02555848 0.00574479 0.02592312
000070 d7 00 63 3c ad 4e db 3b 91 85 d2 3c 5b 2b 08 3b
       0.013855181 0.0066927285 0.025698455 0.0020777795
000080 d9 29 83 bc 97 46 66 bc 42 08 97 b9 dc 94 a5 bb
       -0.016011165 -0.014054916 -0.00028807117 -0.005053146
000090 d2 76 4c 3b 32 5e ab bb a7 cb 31 3d 91 0c 90 3b
       0.0031198752 -0.005229735 0.04340711 0.0043960293
0000a0 dd 5a ef 3b 91 ac 22 3c c5 18 83 3c cb 2a 12 3d
       0.007304533 0.009928838 0.016003022 0.03568534
0000b0 79 5c bf bb a0 24 0b bd ba d0 80 bc dc fc 25 bc
       -0.005839881 -0.033970475 -0.015724529 -0.010131087
0000c0 c3 00 38 bc ab 71 52 bc e6 5b 55 bc 32 ed 3a 3c
       -0.01123065 -0.012844483 -0.013022399 0.011409091
0000d0 98 b7 28 bd 25 3d 24 3d 71 40 85 3b 4b 6d aa 3c
       -0.041190714 0.040097374 0.00406652 0.020804068
0000e0 56 e4 d0 3c 5a cf cc bc 5a d8 4e 3c 4d 2d 8b 3b
       0.025499504 -0.025001217 0.012624824 0.0042473436
0000f0 fc fe b9 3b 2f 72 7d bc e2 fe a0 3b eb 49 2e bc
       0.0056761485 -0.015469118 0.004913197 -0.010637741
000100 4c df bb bc dd e9 fc bb f3 ab f3 bc 46 b2 75 3c
       -0.022933625 -0.0077183084 -0.029745078 0.014996117
000110 81 76 c1 bb 8e 3e 51 3c 09 be fc 3c 99 25 c7 3a
       -0.0059040193 0.012771262 0.030852335 0.00151937
000120 40 d4 fb 3c 48 31 81 3c fa 4f 86 bc 2a 51 69 bb
       0.030740857 0.01577057 -0.016395558 -0.0035601356
000130 d0 ba f9 bb 06 72 05 3d 09 6d f2 bc 01 2c a2 bc
       -0.0076211467 0.032579444 -0.029593008 -0.019796373
000140 51 86 a7 39 ce 76 23 bd a4 e3 ed b9 8f a4 ce 3c
       0.00031952796 -0.039908223 -0.00045373768 0.025224952
000150 20 91 27 bc 40 24 84 bc e9 da ff 3c a1 a8 90 3b
       -0.010227472 -0.016130567 0.031232314 0.0044146334
000160 26 72 01 bd 30 be 74 3c 0d c1 9a bc 0a 9c 10 bd
       -0.031603 0.014937922 -0.018890882 -0.03530506
000170 b1 cb 0e 3c 9b 60 d9 3a 33 8b de 3b 35 a1 81 3b
       0.008715556 0.0016584577 0.006791496 0.003955985
000180 ea 7b e8 bc 5d 2a 07 3c 7b 71 bd bc 51 6c cd bc
       -0.0283794 0.008249846 -0.0231254 -0.025076063
000190 e9 89 ce b9 be 92 8e 3c e3 d8 21 3d 0e b5 d1 bc
       -0.00039394133 0.017403957 0.03951348 -0.025599029
0001a0 2f 14 72 ba 19 53 aa ba 9d 9c f6 bc 2c 82 0e 3d
       -0.0009234575 -0.0012994736 -0.030103976 0.03479211
0001b0 1b 1e f5 3c bf e7 06 3c 30 96 db 39 9b 17 c0 bb
       0.029921582 0.0082339635 0.00041882833 -0.005862189
0001c0 b3 ad b7 3c 10 ef 52 3c ab 6c a7 3c fc 88 2c 3c
       0.022421693 0.01287438 0.02043756 0.0105307065
0001d0 f8 71 b7 bb 4d 63 f4 bc e9 e8 19 3c 9f a6 dc bc
       -0.005598303 -0.029832507 0.009393909 -0.02693492
0001e0 7f 30 87 3c 55 7e ca bc 83 a0 44 3b 68 77 ef 3b
       0.016502617 -0.024718443 0.00300029 0.0073079355
0001f0 18 ee 67 3c e3 98 dc 3c 02 a9 58 3c 1f 51 b2 bb
       0.014155887 0.02692837 0.013223888 -0.0054417993

network_body._body_endoder.seq_layers.2.weight f4 [128, 128]
000000 c0 7e e3 3c 52 ff ce bc 34 a6 0f bd cd ba bb bd
       0.0277704 -0.02526823 -0.035070613 -0.09166489
000010 40 d6 89 bd 70 66 cc 3d a8 be e3 3d 7a ff 15 be
       -0.06730318 0.09980476 0.11120349 -0.14648238
000020 15 cd c1 bd cd e4 00 3d 41 1b 13 3d 23 31 ff 3d
       -0.094629444 0.0314682 0.035914663 0.12460544
000030 48 95 49 be 86 87 b2 bd 3c 94 5c 3d 47 16 60 bd
       -0.19685853 -0.08717255 0.053852305 -0.054708745
000040 87 4b 1e bd b7 a0 06 3e f8 bf 60 3c 96 2b 87 3c
       -0.038646247 0.13147245 0.013717644 0.016500276
000050 dc 6f 88 bc de 96 5f 3d 39 a2 89 bd 6e 4f ff bc
       -0.016654901 0.054587238 -0.06720395 -0.031165805
000060 35 4b 5a be 4e 36 c8 bd aa d3 ab bc be 86 25 bd
       -0.21317752 -0.09775983 -0.020974953 -0.040411703
000070 46 7b 5e bd c9 ec c1 bc cf c8 be 3d 18 ed 1c 3e
       -0.05431678 -0.023672478 0.09315645 0.15324819
000080 90 94 9a bc 0e 9d 29 3e 91 95 6f 3d 17 88 9f bc
       -0.018869668 0.16563818 0.058492247 -0.019474072
000090 49 b5 cd 3c e1 99 64 3d 39 48 0f bd c5 59 59 bd
       0.025110858 0.055810813 -0.034980986 -0.053064127
0000a0 2b aa 2d be 57 c4 c0 bd 01 60 49 be d3 ab 64 3d
       -0.16959445 -0.09412449 -0.19665529 0.055827927
0000b0 7d d2 29 3d a8 7a c6 3d e8 0e 3e 3c ae 47 de bc
       0.041460503 0.096913636 0.011600234 -0.027133789
0000c0 d7 04 04 bd 65 47 d3 3c 85 e8 a9 37 6d e8 1e 3c
       -0.032231178 0.02579088 2.0254645e-05 0.009698969
0000d0 cc aa 14 bd 50 89 14 3c ff 93 de bd c2 32 2c 3c
       -0.036295697 0.009065941 -0.10868072 0.0105101485
0000e0 02 eb cb bc 6c f5 32 3d ee b5 2f bd bb 5b d5 bd
       -0.024892334 0.043691084 -0.04289811 -0.10417887
0000f0 a3 25 d8 bd a5 aa 8c be d1 fa 57 bd ef 0f 05 bd
       -0.10554054 -0.2747394 -0.05272943 -0.0324859
000100 6a 85 b2 bd 83 a7 09 be 45 e0 84 bd d0 9b 07 bd
       -0.08716853 -0.13442807 -0.064880885 -0.03310758
000110 bc 04 c0 bd 4e 8b 01 3e 94 07 c3 3d 8b 0b 31 3d
       -0.09375903 0.12650797 0.0952293 0.0432239
000120 c2 02 24 bd de 22 90 3c a6 6a 2e bd 00 81 19 bc
       -0.040041693 0.017594751 -0.042582177 -0.009369135
000130 68 cc 04 3c ea 75 b3 3b 9b d5 9b 3c ca 5f d3 bd
       0.008105375 0.005476703 0.019022753 -0.10321005
000140 e1 f6 c0 3d df 1d 29 3c 86 3d f2 3c 91 8e 60 3e
       0.094220884 0.010322063 0.029570352 0.21929385
000150 fc 9c ba bd 0e 3f 0e 3d 37 18 11 3d b5 73 bf bc
       -0.09111974 0.034728102 0.035423484 -0.023370603
000160 5e 24 f4 3c 3a 1e 63 3c 6b 26 3d 3c d8 52 90 bd
       0.029802497 0.013862187 0.011544804 -0.07047051
000170 31 e0 c0 3d e1 ee 9f bc 3c 68 06 3e b7 44 bb bd
       0.09417761 -0.019523086 0.131257 -0.09143966
000180 c1 15 49 bd ed e4 74 3c 1a a5 a9 bc 0e 15 b0 bd
       -0.04909301 0.014947158 -0.02070861 -0.08597766
000190 4d a6 eb 3d f0 bf b5 3c 37 ec bb 3c 9b 3d ff 3c
       0.11506329 0.02218625 0.022939784 0.031157305
0001a0 4e ef 3b be d7 6c cd bc f1 dc 33 be c7 35 9f b9
       -0.18353006 -0.025076313 -0.17564751 -0.0003036691
0001b0 a3 59 fd 3d 63 ca ab bb 51 c9 50 bc e9 56 e6 3d
       0.123706125 -0.0052426322 -0.01274331 0.112470455
0001c0 08 48 d6 3d c9 a8 b9 bb 33 48 93 3c bd d3 16 3d
       0.104629576 -0.0056658727 0.017978763 0.036823023
0001d0 83 6a 7a bd 38 e9 3f 3d 41 68 47 be 1c 43 e8 bc
       -0.061136734 0.046853274 -0.19473363 -0.028352313
0001e0 9a 06 33 3d 2e 73 90 3d 25 9a 51 3c 0b 8d 03 3e
       0.043707468 0.07053219 0.012793099 0.12846772
0001f0 64 67 2a bd 18 c3 4d bd b4 96 32 be 44 11 33 bd
       -0.041602507 -0.050234884 -0.17440301 -0.043717638
000200 a7 54 59 3e 3c 1d 54 3d db 68 e4 3c d2 30 29 be
       0.21223699 0.051785693 0.02788203 -0.1652253
000210 ca c1 22 3e 35 7f 37 3d c5 0f 2c 3d 9e 9b 75 bd
       0.15894237 0.04479905 0.042007226 -0.05996286
000220 49 11 94 3d 00 ab 92 3d fd b1 b9 bd 9c 97 63 bd
       0.072298594 0.07161522 -0.09067152 -0.055564508
000230 5c ad f6 3d 88 f6 d7 bd 68 3c 9a bc ca b1 0b be
       0.120447844 -0.10545069 -0.018827632 -0.1364204
000240 a0 c9 d2 bd c6 7f 51 3d c6 4d 91 bd 80 da 26 bd
       -0.10292363 0.051147245 -0.07094912 -0.04073572
000250 ab d5 7f b9 1e bb 6e bc 47 cd 56 3e 64 88 97 3c
       -0.00024398293 -0.014570979 0.20976745 0.018497653
000260 0b c5 a4 3d 88 ee ef 3d 2f db 2f 3d 4b b1 b7 bd
       0.080453955 0.11715418 0.04293364 -0.08969363
000270 83 ff 24 bd 79 29 13 3d aa 81 95 3d 77 8e b3 bb
       -0.040282737 0.035928223 0.07300122 -0.0054796296
000280 44 a8 92 3d 36 b1 01 bd a9 71 37 3e 1c 8e c3 3c
       0.07161 -0.031663142 0.17914452 0.023871474
000290 bf cf 2c 3e 8f ea 34 3b c3 f4 73 3d b1 44 1f bd
       0.16876124 0.0027605628 0.059559595 -0.03888387
0002a0 b0 bf 14 be a6 12 c0 3d ba 74 b7 3d fc b1 e2 3c
       -0.14526248 0.09378557 0.08957811 0.02767276
0002b0 f6 df c6 bc 74 30 cc 3c 8d e4 e5 bd fc ea 9e 3d
       -0.024276715 0.024925448 -0.11225233 0.077596635
0002c0 f2 da a1 bd 2a 41 0f 3e e2 6c 34 bc 9b 96 96 3c
       -0.07903089 0.13989702 -0.011012288 0.018382361
0002d0 ff 85 dc bc c8 be b0 3d 80 95 a0 bd 7c 6c df 3c
       -0.026919363 0.08630139 -0.07841015 0.027273409
0002e0 14 08 de 3d fe 93 cd 3a 50 3e 7c bb 46 70 4f 3d
       0.108413845 0.0015684364 -0.003848929 0.05064418
0002f0 fb 2e 27 3d 8d 09 11 be 46 96 77 bd af 70 a6 3d
       0.04081629 -0.141638 -0.060446046 0.081269614
000300 dd e5 0f bd 8f 49 87 be 5b ba d3 3d 7f 2d cc bb
       -0.035131324 -0.26423308 0.10338279 -0.0062310095
000310 81 52 94 3d ab f8 0b be c7 b2 b7 3d db c5 e1 3d
       0.07242299 -0.13669078 0.08969646 0.11024066
000320 38 7e 05 be 05 36 9f bd 1e 4d 24 bd 33 46 72 bd
       -0.1303643 -0.07773975 -0.040112607 -0.05914898
000330 16 a5 e9 ba 3c c4 c8 bd 2a 3c cc bd 2e 73 ea 3c
       -0.0017825689 -0.09803054 -0.09972413 0.028619375
000340 4a bf 96 bd 55 e3 39 bc a8 fe dc 3c b8 52 26 3d
       -0.07360704 -0.011345704 0.026976898 0.04060623
000350 77 95 e0 3c 89 98 a1 3c 47 4e 2d be ca 25 33 bd
       0.02741502 0.019726055 -0.16924392 -0.04373721
000360 54 9d 0f 3e 91 28 d6 3c 74 43 83 bd ef 61 a6 bc
       0.1402486 0.02614239 -0.0640935 -0.02031037
000370 70 cf b8 3d ac 39 9e bd 91 ab 97 bd 20 95 43 3e
       0.090239406 -0.07725844 -0.074057706 0.19099855
000380 40 6f 49 3d ce 42 2f 3d 0d d6 fb bd 4f 02 8e bd
       0.049178362 0.04278832 -0.12296686 -0.06934034
000390 b5 2d 0f be 2c 48 53 bc bb c1 15 3d 9d 32 35 3d
       -0.1398228 -0.012895625 0.03656171 0.04423772
0003a0 35 3a 3f be 71 5b 8f 3d 8f 29 33 bd 4a 92 ef ba
       -0.18674548 0.06999863 -0.043740805 -0.001827785
0003b0 0b 8c 98 3d 37 4e f4 bd 8c 51 92 bd 60 88 08 bd
       0.07448586 -0.11928981 -0.0714446 -0.033333182
0003c0 b6 af 14 3d 70 6c c7 3a e8 65 0d 3d dd 06 e4 bd
       0.036300384 0.0015214812 0.034521013 -0.111341216
0003d0 32 63 6f 3e bb b3 a9 bd 69 e6 dd 3d c2 38 1a 3d
       0.23377684 -0.08286234 0.10834963 0.037651785
0003e0 cb 59 2a bd d8 c4 8d bd 97 d1 65 3e 03 6b 95 3d
       -0.04158954 -0.069223106 0.22443233 0.072958015
0003f0 48 ff 53 bd 37 c8 2f 3e f5 e9 27 bd 51 61 2d bc
       -0.051757127 0.1716622 -0.040994603 -0.010582284

network_body._body_endoder.seq_layers.2.bias f4 [128]
000000 e2 31 23 3c 22 16 c6 3c a6 93 0d bc a1 cc 7e 3c
       0.009960623 0.024180476 -0.008641159 0.015551717
000010 9d ab 80 bc c8 3b 8a bc d8 83 84 3c 87 38 e5 bc
       -0.015706832 -0.016874209 0.01617615 -0.027981056
000020 66 23 8c bc 91 7c a5 3c b4 87 71 3b bd da 09 3d
       -0.017106723 0.020201 0.0036854567 0.03365587
000030 5c 81 a1 3b b4 e8 46 bc ad 7e 0c 3d 82 61 84 3b
       0.004928751 -0.012140442 0.034300495 0.004039944
000040 f3 7b a7 bc b4 65 3b 3b 27 7d b8 bc 8a ee 55 3c
       -0.020444846 0.0028594555 -0.022520615 0.01305736
000050 59 fa 00 bd f9 16 1a 3c 23 f3 fc 3b 06 1e 25 bc
       -0.03148875 0.009404891 0.007719414 -0.010077959
000060 fb ba ad bc 0a 73 39 3c 1f 14 1e 3c fd 80 19 3d
       -0.021207323 0.011318931 0.009648352 0.03747653
000070 57 eb 10 bb fd 3a 98 3c eb 20 37 bc 7b eb a1 3c
       -0.002211293 0.018582815 -0.011177282 0.019765606
000080 2a a0 32 3c 41 18 f4 bc 11 83 e9 bc c7 64 4e bc
       0.010902444 -0.029796721 -0.02850488 -0.012597269
000090 e6 b2 11 bc bd 34 d7 ba 99 89 20 b9 28 3f 86 3b
       -0.00889275 -0.0016418915 -0.00015310048 0.0040968843
0000a0 95 fc 9d bc 2c 82 50 b9 fc 77 a5 bc 81 39 7e 3c
       -0.01928548 -0.00019884919 -0.020198815 0.01551664
0000b0 c6 83 b0 bb 5b 95 0b 3c 87 99 48 3b 3e 30 e8 bc
       -0.0053868024 0.008519496 0.0030609088 -0.028343316
0000c0 fb cf 5e 3b 0f e1 6a 3c c0 57 c2 3c 53 7e 2a 3d
       0.0033998478 0.014335885 0.023723483 0.04162438
0000d0 cc 6f 9b bc 1d e8 3c 3d ac 19 c2 3c d4 34 aa b9
       -0.018974207 0.046119798 0.023693882 -0.00032464287
0000e0 62 cf d4 3c e0 41 1a 3d 09 dc f3 3b 31 3c f1 39
       0.025977794 0.03766048 0.0074420017 0.00046011948
0000f0 81 10 03 bd 4c e9 e8 3c 32 6d 60 bc 9a 1a 1b 3d
       -0.03199816 0.028431557 -0.013697909 0.037867166
000100 af db ba bc 9a e3 31 bc e4 b5 6b 3c f5 cc de 3c
       -0.022809831 -0.010857487 0.014386628 0.02719734
000110 c7 85 2b 3c 0a 33 c1 bc e7 e9 9b bc d0 72 3d bc
       0.010468907 -0.023583908 -0.019032432 -0.011563018
000120 ef 5b d4 ba 9d ef 91 bc 2e 05 be 3a 95 e0 99 bc
       -0.0016201715 -0.017814452 0.0014497393 -0.018783847
000130 19 7a c4 3c 66 db 0d bd f4 4c 9a ba 97 77 fd 3a
       0.023984002 -0.034633063 -0.0011772201 0.0019338009
000140 53 59 36 bc bb a9 16 3c 89 b7 5e bc 04 91 f7 3c
       -0.011129695 0.00919574 -0.013593563 0.030220516
000150 35 6b 4b 3b 26 03 a5 bc 92 eb 72 3c d1 2a cd 3b
       0.0031039242 -0.020143103 0.014826672 0.0062612076
000160 02 d6 22 bc a4 d4 fe bb f9 19 eb bc f5 a6 d9 3c
       -0.009938719 -0.0077768136 -0.028698908 0.02656887
000170 c2 c1 a2 bc b6 0d 65 bc 9e 38 ee 3c 5e 38 03 3d
       -0.019867782 -0.01398032 0.029079732 0.032036178
000180 56 7f 95 bc 00 a8 01 3d 36 12 2f b9 16 cb 3e 3c
       -0.018249195 0.031654358 -0.00016696085 0.011645099
000190 e0 86 dd bc 64 ec 57 3c 11 e3 b9 3c 9b 4f 20 bb
       -0.027041852 0.0131789185 0.022691282 -0.002446151
0001a0 15 01 d8 bc 02 f9 5d 3c b6 7d c3 bc 46 d6 10 bc
       -0.026367703 0.013548138 -0.023863655 -0.008840149
0001b0 1b da 3c 3c 5f 57 6a 3c 25 62 ee bc 79 3d 1e 3d
       0.01152661 0.014303057 -0.029099533 0.038632844
0001c0 61 38 58 bc 08 78 89 bb 11 75 22 bd ca f7 a7 3c
       -0.0131970355 -0.004195217 -0.039662424 0.020503897
0001d0 2d f8 77 3c c9 8c f8 bc 24 14 e9 3c 67 c5 ef 3c
       0.015134853 -0.03034057 0.028451987 0.029268933
0001e0 09 8e 8d 3c 58 9f ce 3c a2 9e 11 bc 14 c4 7c bc
       0.017279642 0.025222465 -0.008887919 -0.015427608
0001f0 ed 29 f8 bc 27 65 24 bd 8d c0 43 3c de 1e de 3c
       -0.03029343 -0.04013553 0.011947763 0.027114328

action_model._discrete_distribution.branches.0.weight f4 [2, 128]
000000 dc b9 78 3c 57 6f 76 bc ff 87 2e bc 0e 89 0f bd
       0.015181031 -0.015041194 -0.010652541 -0.035042815
000010 e1 c5 01 bc 95 ed 13 bd 54 fe e7 3c 21 88 d8 3c
       -0.007920713 -0.036115248 0.028319515 0.026432099
000020 6e 7d df 3b 78 a6 a5 3c 7c f9 49 3c 4e 79 7b 3c
       0.0068203723 0.02022098 0.012327548 0.0153487455
000030 0b fe 03 3c fa 24 1e bc 03 2a e6 bc f5 63 e8 3b
       0.008056174 -0.009652371 -0.028096205 0.007091994
000040 d1 80 ee 3a e4 52 60 bc 37 3a e6 bc fc 72 9a bb
       0.0018196349 -0.013691638 -0.02810393 -0.0047134142
000050 72 8e 87 bb ae a6 20 3d 5d 46 24 ba 42 13 b8 ba
       -0.004136854 0.039221458 -0.00062665885 -0.0014043825
000060 63 82 18 bc 1f e3 52 3c dc a9 bd 3c 8d c6 91 3d
       -0.00930843 0.012871533 0.023152284 0.07117949
000070 88 d9 21 3d e4 45 db 3c c0 cc 61 bc b2 9d 9c bb
       0.039514095 0.026766725 -0.013781726 -0.004779541
000080 fc 43 ce 3b 4e 8d 9d bc 48 1e 2f bd 2e 8c 06 bc
       0.0062947255 -0.019232418 -0.042753488 -0.008212132
000090 0b f2 76 3c 35 53 0d bd dc 23 7f b8 b5 14 fa 3c
       0.015072356 -0.03450318 -6.0830134e-05 0.030527452
0000a0 ba 86 f9 bc 41 6b 1a 3d be 42 37 3c 5b 01 dd 3a
       -0.03045975 0.03769994 0.011185346 0.0016861366
0000b0 52 03 e5 3c 8c 87 b2 3c 19 fb af 3c c0 02 ca 3b
       0.027955685 0.02179315 0.021482037 0.0061648786
0000c0 1e 44 34 3c f9 2f 85 bc e0 dc d4 3a dc 7c 19 3d
       0.0110025685 -0.016258227 0.0016240142 0.03747259
0000d0 a5 a2 06 bd a4 c4 5a bc fb 21 72 3b b1 8d 4f 3c
       -0.032869954 -0.013352547 0.0036946523 0.012668059
0000e0 b8 32 b9 3c f6 80 c2 3c b9 ba 68 bc ac 4b bb bb
       0.022607192 0.023743134 -0.014204674 -0.005715808
0000f0 ec 94 4c 3c 7f 90 e5 3b ea 82 ee 3b 68 df 42 3d
       0.012486678 0.0070057507 0.0072787898 0.047576338
000100 c2 d3 37 3c 1a 4b a6 bc 7b 90 88 bc 5c be 62 bb
       0.011219921 -0.020299483 -0.016670456 -0.0034598326
000110 7d b5 8f 3c 7e 5c 0e bd 84 b0 93 bc 1f 3d 88 bc
       0.017542595 -0.034756176 -0.018028505 -0.016630707
000120 4d 09 12 bd a2 2e 84 bc 2d e1 b3 bb 6d d8 38 bd
       -0.0356534 -0.016135518 -0.0054894895 -0.045128275
000130 65 92 0e 3d 33 46 df bb bd 8a 90 3c 75 da f3 3c
       0.03480758 -0.0068137883 0.01764428 0.029767254
000140 f9 f0 9c 3b 52 ed 5e 3c 97 9a fa 3c f8 4b 98 3c
       0.0047894684 0.013606386 0.030591292 0.018590912
000150 81 f0 db 3a 09 0a f6 3b 83 45 20 bc 62 bb 05 3c
       0.001678005 0.0075085205 -0.009782198 0.008162351
000160 53 4b 09 bb 96 f6 93 bc 8a f7 4d 3b 64 04 20 3d
       -0.0020949438 -0.018061917 0.0031428062 0.039066687
000170 10 4f 89 3b d4 f8 c5 bc e4 69 1d 3d 10 ff 2b 3d
       0.004190333 -0.024166502 0.038431063 0.041991293
000180 23 f5 5b bc d8 a4 14 3c 20 5c ab bd 2a 46 26 3c
       -0.013425144 0.009072505 -0.08367181 0.010148564
000190 30 be d3 bc e0 8b 99 3c 6e 1b 20 3d 73 5a b2 bb
       -0.025847524 0.018743455 0.03908866 -0.0054429113
0001a0 a4 3d a1 3b 5b ac 17 3a 66 e0 38 ba f5 21 a9 bb
       0.004920678 0.0005785876 -0.0007052481 -0.0051615187
0001b0 be 0f 23 bd 4b 36 6c 3c 16 f6 51 bb 9f 33 b0 3c
       -0.039809935 0.014417241 -0.0032037548 0.02150899
0001c0 30 3b 65 bd 85 d2 44 bc 99 9e 3f 3c 16 9b 51 3c
       -0.05596465 -0.012013082 0.0116955275 0.012793323
0001d0 f0 01 20 bc 5f 94 a6 bc b8 56 e4 bb 6c e1 b6 bc
       -0.009766087 -0.02033442 -0.0069683455 -0.022324286
0001e0 68 cc aa bc e7 1f a3 3c 29 e0 58 bd ec 0c 5a bd
       -0.020849422 0.019912673 -0.05294815 -0.05323498
0001f0 87 7d 97 bc 42 35 b0 bc e6 09 18 3c 31 cf f6 3c
       -0.018492473 -0.02150977 0.009279704 0.030128093
000200 df ca c1 bc cb 51 03 bc 98 85 df 3b fb db 1f 3d
       -0.023656307 -0.008015106 0.0068213455 0.03902815
000210 85 f8 53 bb 8e f4 3e 3d 6a ad 89 bc 4a 72 a7 3c
       -0.0032344174 0.046619944 -0.016806323 0.02044024
000220 8f fb 13 bc e8 86 a4 bc 99 7f bf bc d3 55 71 bc
       -0.009032144 -0.02008386 -0.023376273 -0.014729935
000230 cc 21 9a bc da 5d ad bb d1 c2 e4 3c 2e 3b 14 bd
       -0.018814944 -0.005290729 0.027924927 -0.03618925
000240 d3 04 af 3c 27 7d ba 3b a5 10 ad bb 3c 10 8a 3c
       0.021364605 0.005691189 -0.005281525 0.016853444
000250 e1 62 7c bb 88 6f 4a bd 47 08 97 bb 5e 66 20 3c
       -0.0038511085 -0.04942277 -0.004609141 0.009790031
000260 47 a5 a8 3c b0 16 ad bb 52 b4 cf bc b5 cb 4f bd
       0.020586623 -0.0052822456 -0.025354538 -0.05073138
000270 64 db 39 bd 57 9e e2 bc 8f a4 7c 3b 18 27 02 bc
       -0.045375243 -0.027663393 0.0038550233 -0.007943891
000280 b1 22 4e bc fb bf 11 3d 75 0a cc 3c c7 1b bf 3c
       -0.012581513 0.035583477 0.02490733 0.023328675
000290 7b 36 1b 3c a9 9d f7 3c 93 21 84 3c d0 cf 19 bd
       0.009473438 0.030226545 0.01612929 -0.0375517
0002a0 79 6c 48 3c f3 de 0f bd 8b cd 10 bc af 9b c5 bc
       0.012232893 -0.03512473 -0.008838068 -0.024122087
0002b0 eb c1 f3 39 e0 41 c3 bb ad 2c b4 bc 51 7c 1c 3c
       0.00046493052 -0.0059587806 -0.02199396 0.009551124
0002c0 0e b5 1e bc 36 77 c5 3c 91 17 b0 3c 7e d4 21 bd
       -0.0096867215 0.024104696 0.021495612 -0.03950929
0002d0 e1 4b 0d 3d de 2f 10 bb 03 1c 7b bc 03 d8 0b bc
       0.034496192 -0.0022001187 -0.015326503 -0.008535388
0002e0 3b fc 3f bd c2 ae a0 bc 97 85 31 3a 24 d6 b0 3b
       -0.046871405 -0.019614581 0.00067719206 0.0053966213
0002f0 2e 6e a9 bc c9 2f 8f bc c1 b7 06 bd 43 a0 14 bd
       -0.02068242 -0.01747884 -0.032890085 -0.03628565
000300 3a 2e a1 bb ce 11 98 3c 71 9e b9 3c 87 18 4b bc
       -0.0049188407 0.018563177 0.022658559 -0.0123959845
000310 24 55 0e bb fd 3f 81 3c 6f dd 84 3c d2 a6 d1 39
       -0.0021718228 0.015777582 0.016218869 0.00039987877
000320 91 cd 2b 3d 15 9e 4c 3c 73 0e 6b bb a7 ed dc 3c
       0.04194409 0.012488862 -0.0035866767 0.02696879
000330 88 99 75 bd ca 91 cf 39 df 57 c9 bc 53 18 9c bc
       -0.059960872 0.00039590738 -0.024578033 -0.019054567
000340 61 f8 b3 3b 62 3a 48 ba fc bf 02 bd d8 0e 15 bc
       0.0054922556 -0.0007638094 -0.03192137 -0.009097777
000350 55 d6 9d 3c 9f 04 42 3c 38 a0 cf 3c 64 b1 44 bc
       0.01926724 0.011841922 0.025344953 -0.012005184
000360 ca ab c0 3b 87 2a 96 3c c3 7c 80 bb fc e3 b6 bc
       0.005879854 0.018330825 -0.0039211228 -0.022325508
000370 ba 91 3c 3c c3 ba fb 3c e0 21 2b bd f6 f5 08 bd
       0.011509353 0.030728703 -0.041780353 -0.03343769
000380 8b 2f 36 3d 3a 60 d3 3b bf 6e 72 3d d8 a1 82 3b
       0.044478934 0.00645068 0.059187647 0.0039865784
000390 85 ea c7 3c 95 db 8e 3b f4 31 0f bd 5e bd 82 3c
       0.02440382 0.0043596723 -0.03495975 0.015959438
0003a0 02 fd 2a 3c 7c c0 97 bb 79 ab 36 3c ac fa 71 bc
       0.010436298 -0.0046311 0.011149281 -0.0147692375
0003b0 29 47 1b 3d d1 ef b8 bc 74 1f 48 bc b9 77 8d bc
       0.03790966 -0.02257529 -0.01221453 -0.017269002
0003c0 34 53 1b 3d e7 73 98 3c 9b 46 b6 bb 61 bf 77 bc
       0.037921146 0.018609954 -0.005562616 -0.015121312
0003d0 ef 20 cc 3c 25 65 11 3b e0 0c 27 bc 99 86 c8 3c
       0.024918048 0.002218553 -0.010195941 0.024478244
0003e0 4b 66 49 3c 33 0d cb bc dc 94 4e 3d 94 93 cf 3c
       0.012292455 -0.024786567 0.050434932 0.025338925
0003f0 7c d8 fa 3b 13 0a 99 3c 77 29 53 bc cf 69 2b bd
       0.0076552015 0.018681562 -0.012888304 -0.041848954

action_model._discrete_distribution.branches.0.bias f4 [2]
000000 73 be 87 3c 74 be 87 bc
       0.016570305 -0.016570307

action_model._discrete_distribution.branches.1.weight f4 [3, 128]
000000 9e df b8 3c 3c c7 f6 bc a9 9b 43 bc 5e 41 c6 bc
       0.022567566 -0.0301243 -0.011938968 -0.024201091
000010 45 6b 5e 3b 6b 75 83 3c 2f 57 a1 3b 03 73 bc 3c
       0.003393845 0.0160472 0.004923723 0.02300406
000020 4b c0 19 3c eb e4 97 bc 3b 3f 9a bc 66 cb ff bc
       0.009384225 -0.018541774 -0.018828979 -0.031224918
000030 63 ab e2 39 43 cb 7d 3c a7 db 0f bd b3 57 11 3c
       0.00043233772 0.015490356 -0.035121586 0.008871007
000040 07 00 cf 3b fc ae 05 bd b6 96 c1 3a de b8 a2 bc
       0.006317142 -0.03263758 0.0014769647 -0.019863542
000050 b8 0e 39 3c 4a 52 25 3d 29 3b a9 39 c8 b6 33 3c
       0.011295013 0.04036168 0.0003227827 0.010968871
000060 04 a7 e0 3b 01 6c 0e bd af 24 a1 3c 6a 3f b9 3b
       0.0068558473 -0.03477097 0.019670812 0.0056533115
000070 f4 3b f0 3b 9c 39 f9 bb c3 25 00 3d d4 71 98 bc
       0.0073313657 -0.0076057445 0.031286012 -0.018608965
000080 26 9b 3c 3c 4e 72 ba 3c 18 74 3d 3c 1f eb da 3c
       0.0115116 0.022759583 0.011563323 0.026723443
000090 bc 3b 86 3d 33 b2 ba bb f9 2c 1d 3c 38 86 0b 3d
       0.06554362 -0.0056975125 0.009593242 0.034063548
0000a0 26 85 2e bb c9 36 5d 3c 27 55 11 3c 1f 98 ef bb
       -0.0026629656 0.013501831 0.0088704 -0.0073118354
0000b0 52 28 46 3c 64 12 f7 bb b4 21 13 3d ae 8a e8 3c
       0.012094574 -0.007540034 0.035920814 0.02838644
0000c0 ff f0 c6 bb a4 e3 33 bc b9 3d 06 bc a0 a7 32 bd
       -0.0060712094 -0.010979567 -0.008193427 -0.04361689
0000d0 9e e7 b6 3c 8e 3e 34 bd 41 31 19 bd fd 51 16 3c
       0.02232724 -0.04400497 -0.037400488 0.009174821
0000e0 09 df 0d bb 10 6c c8 bc 68 58 12 3d a6 f3 83 bb
       -0.0021647832 -0.02446559 0.035728842 -0.004026848
0000f0 06 eb 68 3d ca 3c 82 bb d6 7a 60 bc 5f 74 19 bd
       0.05686476 -0.003974532 -0.013701161 -0.037464496
000100 47 06 d2 3c 85 77 5e bc ab 37 77 bc cb 5d 57 bd
       0.025637759 -0.0135783 -0.015088956 -0.052579682
000110 56 67 12 3c 21 aa ac bb 2e ce c3 b8 f1 62 ef bb
       0.00893577 -0.0052693044 -9.3367285e-05 -0.007305496
000120 99 e3 d9 3b cc 91 de 3c 14 08 f2 3b 74 f9 f7 3b
       0.006649446 0.02716913 0.007386217 0.007567579
000130 14 88 01 bc c1 dc 4d 3b b4 a4 1e 3c 26 9d bd 3c
       -0.007905979 0.0031412097 0.009682823 0.023146223
000140 ca e5 3c 3c a8 8d 24 3c c2 d8 db 3a 84 74 8e bb
       0.011529395 0.010043539 0.0016772973 -0.004347386
000150 c9 ff 56 3d 3a 3e 52 3c 32 c4 c1 bc 64 e6 46 3c
       0.05249003 0.012832219 -0.023653124 0.01213989
000160 8e 5a 72 3a ae 02 1b bc 0c 91 ec 3c fb 8e 20 bc
       0.0009245061 -0.009461088 0.028877757 -0.009799714
000170 dc af de 3b 7d 94 81 3c e8 39 cf 3b bc cc 1f bd
       0.0067958664 0.015817875 0.0063240416 -0.03901361
000180 11 f9 2f 3c ab 00 9e bc bb 9d 0d 3d 64 1d 18 3c
       0.010740534 -0.019287428 0.03457425 0.009284351
000190 4c 18 7e bb 44 43 cd bb 2e ca 7e bc b9 43 10 bc
       -0.0038771806 -0.006264122 -0.015551133 -0.008805209
0001a0 fd fb 35 3d db 76 d3 bc e3 76 92 3c ee 64 28 3c
       0.044429768 -0.02581351 0.017878955 0.01027797
0001b0 82 fb 7f bc 3f 76 21 3c 00 22 07 3c 93 f6 12 bd
       -0.015623929 0.009854852 0.008247852 -0.035879683
0001c0 28 bd 8d 3c 3e e6 86 bc 60 1e 5c 3c 78 d3 99 bb
       0.01730211 -0.01646721 0.013434976 -0.0046943985
0001d0 1e 52 08 bd 47 db 88 3c d1 bc 07 bd 9f a3 58 bd
       -0.033281438 0.016706122 -0.033139054 -0.052890416
0001e0 ab 86 64 bc 7f 54 b8 bc 19 e0 5b 3c 5e df 10 3b
       -0.013948123 -0.022501228 0.013420128 0.0022105793
0001f0 b5 d3 21 3d e0 24 ff 3c 9d f4 90 3b 53 b2 82 bc
       0.03950854 0.031145513 0.0044236914 -0.015954172
000200 fa 27 0f bd fc c8 d8 3c 2a e4 69 3c eb 2a 01 bc
       -0.034950234 0.026463024 0.01427559 -0.007883768
000210 35 3f 0c 3d 5b 93 d1 3b 65 02 d6 bc 9a 41 9b bb
       0.034239966 0.00639574 -0.026124189 -0.004738045
000220 6f 50 b8 3a b9 37 88 3c d5 f5 cc 39 f0 94 bb bb
       0.0014062057 0.016628133 0.0003909307 -0.005724542
000230 27 d7 bc bc 9f 5a 29 3d bf 18 e8 3b 46 d4 19 bb
       -0.023051811 0.04134619 0.007083028 -0.0023472472
000240 5d cd e9 3c 1b 67 0b 3d 32 4d b7 ba 77 08 4d 3c
       0.028540308 0.034033876 -0.0013984798 0.012514225
000250 6d cd cf 3b 5b 99 10 bc ce 6f 23 bd f4 61 4b bc
       0.0063416273 -0.008825625 -0.039901547 -0.012413491
000260 0b 53 0f 3d 7d 83 86 3d a9 5a 4d bc d3 44 67 3d
       0.034991305 0.06568048 -0.012533822 0.05646212
000270 95 1c 93 bc cd 4c e9 39 b3 3c 28 bd ab d0 f5 3a
       -0.017957965 0.00044498444 -0.041073512 0.0018754205
000280 be 75 2a bd 43 ee 61 3b cd d1 e0 bb e6 a2 ab 3c
       -0.041616194 0.003447429 -0.0068609477 0.0209517
000290 7b 28 2c bd a4 58 5a bc b0 f3 9e bb 9b ff 07 bd
       -0.042030793 -0.013326798 -0.004850827 -0.03320275
0002a0 69 7c c8 3c e1 ca a1 bc 9d 31 a2 3c ee 3e 16 3c
       0.024473386 -0.01975006 0.019799048 0.009170277
0002b0 21 72 80 bc 0a cc 1c 3c 31 a4 2c bd d4 05 a1 bc
       -0.01567942 0.009570131 -0.042148773 -0.0196561
0002c0 cb c7 0b bc 79 be e4 3c 2b 96 1d bd 5f c9 ae 3c
       -0.008531521 0.027922856 -0.03847329 0.021336256
0002d0 0c 1a bb bc 9e 54 c3 3b ea 3c 90 bc 83 2f 38 3d
       -0.022839569 0.005961015 -0.017607171 0.044967186
0002e0 9f 4e e2 3c 05 85 6b 3c f8 25 84 bd 2e b6 5c 3c
       0.02762538 0.014374976 -0.064525545 0.013471169
0002f0 a3 f7 94 bc 33 3e 12 bd 1d 0b b9 3c ae ca e2 3b
       -0.018184489 -0.03570385 0.022588307 0.006921134
000300 5b 07 46 bc 05 b4 c0 3c ba 41 b0 3c 98 69 23 3d
       -0.012086715 0.02352334 0.021515716 0.039895624
000310 3d e3 46 bd 0d 9c 53 ba 70 7d f7 3c 1c c7 96 3c
       -0.048556555 -0.00080722646 0.03021118 0.01840549
000320 c4 2f a4 bc 37 67 b8 3c f9 a8 f5 3c 94 7a 6a ba
       -0.020042308 0.022510154 0.029987799 -0.0008944657
000330 45 33 f1 3a 92 c8 31 3c b2 d5 c2 3c 72 66 e5 bc
       0.001840212 0.010851042 0.023783538 -0.028002951
000340 27 75 6c 3d 08 98 10 bd 3d 73 de bb 5c 29 03 bd
       0.057728913 -0.03530124 -0.00678864 -0.032021865
000350 97 49 90 bd 8e 66 03 bc 4a 9b 2d 3d b1 57 d9 3c
       -0.07045286 -0.008020056 0.042384423 0.026531072
000360 47 fc dc bb 78 61 20 3d 38 d8 48 bc af e6 9e 3c
       -0.006743941 0.039155453 -0.012258582 0.019397108
000370 cb 71 8b 3c 7a 5f fb bc 5d d6 45 bc c7 46 a1 3d
       0.017022034 -0.030685175 -0.012075034 0.07874828
000380 42 7c 9e 3b c6 62 96 bc e3 48 1b bd fc ca 88 bc
       0.00483659 -0.018357646 -0.037911307 -0.016698353
000390 61 58 2d 3c 28 28 1c bd e7 51 0c 3d 39 c1 60 3d
       0.010580153 -0.038124233 0.034257796 0.05487177
0003a0 0d ef 25 bd a3 9b 88 bc 64 93 cd bc ea 9e 01 3d
       -0.04051118 -0.016675776 -0.025094695 0.031645693
0003b0 f2 a8 18 bd 90 57 82 3d ad 3a c6 bc 22 08 db ba
       -0.037270494 0.063643575 -0.0241979 -0.0016710798
0003c0 3c 37 68 3c 80 1e 13 3d d6 d8 36 3c 03 ef 89 bc
       0.014173325 0.03591776 0.011160096 -0.016837602
0003d0 d4 61 9e 3c 5a ea b5 bc ec 28 08 bb 1f 31 1f 3d
       0.019333757 -0.022206474 -0.0020776344 0.038865205
0003e0 ed 16 ca bc e6 ae 46 3d 5c 8c a5 bc cd 60 ac 3b
       -0.024669135 0.04850664 -0.02020853 0.005260563
0003f0 8a db 9e 3a 2f b8 54 bb 4b cf d6 bb 80 8b 4a 3c
       0.0012119871 -0.0032458415 -0.006555473 0.012362361

action_model._discrete_distribution.branches.1.bias f4 [3]
000000 8f 83 03 bd 43 d0 57 3b 01 12 ee 3c
       -0.032107886 0.003293053 0.02906132

action_model._discrete_distribution.branches.2.weight f4 [1, 128]
000000 ab 70 57 3b 71 e5 07 bc 56 71 0b bc dc b4 89 bb
       0.0032873552 -0.008294449 -0.008510908 -0.0042024683
000010 50 c8 90 3b b3 4b 8a bb 4b 88 3e 3a cf 28 c8 3b
       0.0044184104 -0.00422045 0.0007268234 0.0061083804
000020 3a a9 85 3b f2 a5 f0 3b 7b f9 b9 39 d0 62 59 bc
       0.0040790113 0.007344001 0.00035471827 -0.013268188
000030 dc 17 0d 38 54 f7 a1 bb 10 fb 16 3c e6 37 0e 3c
       3.363924e-05 -0.004942814 0.009215131 0.008680319
000040 30 5c 7d ba 4a 57 f6 3a 9f 95 9a 3b d8 ec 80 3b
       -0.0009664921 0.0018794325 0.0047175433 0.003934484
000050 7b da 01 3c ea 24 d3 bb 23 26 1b bc c3 b1 e9 3b
       0.007925625 -0.0064436095 -0.009469542 0.0071317866
000060 a6 ed 92 3b b3 91 8a bb fa ad a6 3b 60 f3 c0 b9
       0.0044838963 -0.0042287945 0.0050866576 -0.00036802422
000070 bf d5 58 3b 37 96 ac 3b f6 f1 83 bc 5b e7 15 3b
       0.0033086387 0.0052669304 -0.016106587 0.0022873494
000080 66 f6 04 3c a9 9e 07 b9 1b 03 d8 3b 1f f8 5b 3c
       0.008115387 -0.00012933709 0.006592167 0.013425856
000090 7a 43 57 bc 56 97 34 bc 49 25 be b9 d7 d0 87 3b
       -0.013138646 -0.011022409 -0.00036267404 0.0041447687
0000a0 4b 95 5f 3c c3 71 8b bb 85 e4 3e 3b 7a 46 5f 3b
       0.013646434 -0.004255505 0.0029127907 0.0034069107
0000b0 62 a7 00 39 58 bb d7 3b 60 31 51 bc 22 05 fa 3a
       0.00012269386 0.0065836124 -0.01276812 0.0019075016
0000c0 a2 b2 a6 bb 6b 09 c1 bb dd 2d 91 bb 33 8d 45 3b
       -0.0050872127 -0.0058910153 -0.004430516 0.0030143976
0000d0 88 60 b6 bb 99 93 32 ba 62 5b 14 bc f1 75 06 3c
       -0.0055657066 -0.0006812155 -0.0090549905 0.00820683
0000e0 b2 39 1b 3a 69 ea 1f bc 9d a7 e7 3b eb 9a d8 3a
       0.0005921378 -0.009760478 0.0070695416 0.0016525661
0000f0 da 96 8b bb c9 0c 8c bb 1a e6 d3 b9 33 66 10 3c
       -0.0042599263 -0.004273985 -0.00040416495 0.008813429
000100 c6 eb 1f bc 2a 05 34 bc 80 7f 57 3b ba 77 22 bc
       -0.009760803 -0.010987559 0.0032882392 -0.00991624
000110 2e 76 11 bc b7 ca 53 bc 7e d9 03 bc d3 2a b3 bc
       -0.008878274 -0.012926749 -0.00804746 -0.021871006
000120 4e 2c 09 bc 37 8b 3a 3c cf 4b 01 3c 9f 22 e6 bb
       -0.0083723795 0.0113857305 0.007891609 -0.00702317
000130 e3 16 17 bc 06 b8 48 bb e1 d1 a1 ba 7a 4e 14 ba
       -0.009221765 -0.0030627265 -0.0012345874 -0.0005657446
000140 73 35 b0 ba ad 70 0b b8 3a 46 71 3c 83 b6 c9 b7
       -0.0013443663 -3.324512e-05 0.014726216 -2.4046056e-05
000150 0f b3 4d 3c 62 22 9b bb d3 88 85 bb 59 52 30 3b
       0.012554898 -0.0047343234 -0.0040751486 0.0026904552
000160 f5 06 e6 3a 30 dd e7 bb 69 44 84 3b 0a 55 63 bc
       0.0017549681 -0.007075928 0.0040364754 -0.013875255
000170 74 38 06 bc 3f 20 84 bc 6f 0a 2f bc 05 a5 d6 3b
       -0.00819217 -0.016128657 -0.01068364 0.0065504336
000180 a7 a9 e5 3b ed 2b d0 3a 09 d7 a7 3b f1 b6 41 3c
       0.0070087495 0.0015882232 0.0051220697 0.011823402
000190 e8 3f 2c bc e3 f7 a9 bb 5f 84 79 3b 36 23 99 bb
       -0.010513283 -0.005187021 0.0038073284 -0.004673387
0001a0 fe 73 8d 3b e7 e6 2d bc 2b 75 7b bc 56 a4 91 3a
       0.004316806 -0.010614133 -0.015347759 0.0011111598
0001b0 6a 6b a7 bb ef 03 04 3c e7 45 5e bb 83 37 ac ba
       -0.0051092403 0.0080575785 -0.0033916177 -0.0013139102
0001c0 d9 7f 97 3b c2 a5 5a 3a 82 68 ba b9 bb 76 5d bc
       0.004623395 0.000834074 -0.0003555455 -0.013517077
0001d0 b5 44 9e bb 99 c3 42 bb 69 ae 23 38 65 82 1d 3b
       -0.004829968 -0.0029718636 3.902466e-05 0.002403402
0001e0 3f 14 63 3b c1 f2 26 3c 62 b1 e3 3a 36 4a 22 ba
       0.0034649519 0.010189713 0.001737159 -0.0006190868
0001f0 3f 6a 03 3c 39 c4 93 bb 20 3d ae bb 7d cc 8f 3b
       0.0080209365 -0.0045094755 -0.0053173453 0.0043883906
