Assets/ZooheimTest/Models/run1/GiraffeFBehavior/GiraffeFBehavior-139489.onnx (onnx, 313069 bytes, 14 tensors)

discrete_act_size_vector f4 [1, 3]
000000 00 00 00 40 00 00 40 40 00 00 80 3f
       2.0 3.0 1.0

network_body.observation_encoder.processors.0.normalizer.running_mean f4 [450]
000000 eb 01 67 3d 5c 1b 24 3f 2f 25 9b 3d 62 d5 8a 3b
       0.056398313 0.6410425 0.075754516 0.004236863
000010 10 6d 2c 3b c5 29 19 3b 6d 06 ca 3a 44 da eb 3a
       0.0026310124 0.0023370844 0.0015413292 0.0017994125
000020 52 71 c6 3c 78 62 66 3e fd 6b 65 3d 6f 77 24 3f
       0.024223957 0.224985 0.05601119 0.6424474
000030 a6 ab 94 3d 03 7c 88 3b ba 9e 21 3b 98 c7 07 3b
       0.07259302 0.004165174 0.0024661259 0.0020718332
000040 d6 14 03 3b a1 f2 0c 3b e6 3d b1 3c 92 6a 62 3e
       0.0020001433 0.0021506923 0.02163596 0.22110966
000050 64 ae 68 3d 2d 5a 22 3f 5c fe 9d 3d 74 11 78 3b
       0.056806937 0.6341885 0.07714531 0.00378522
000060 b5 49 5d 3b 90 dc 1d 3b eb ab ee 3a 7d e6 05 3b
       0.0033765857 0.0024087764 0.0018209195 0.0020431571
000070 d8 06 c9 3c 5b 44 6b 3e 7e 37 81 3d 26 4f 26 3f
       0.024539396 0.22975294 0.063094124 0.6496452
000080 31 d4 9f 3d 6a 00 90 3b 64 70 24 3b d5 14 03 3b
       0.07804144 0.0043945806 0.0025091404 0.002000143
000090 66 11 f8 3a 73 5b 0e 3b 58 1d b7 3c a2 1f 6a 3e
       0.0018926084 0.0021721988 0.02235286 0.2286363
0000a0 55 a9 62 3d 7f 2b 27 3f 7a 77 a5 3d 9a 68 5b 3b
       0.05533727 0.65300745 0.08079429 0.0033479095
0000b0 22 99 77 3b 7d f1 33 3b df 3f 08 3b e0 6a 0d 3b
       0.0037780483 0.002745717 0.0020790023 0.0021578595
0000c0 59 58 de 3c f6 93 72 3e d7 3a 82 3d 61 3f 2a 3f
       0.027141737 0.23689255 0.06358879 0.6650296
0000d0 97 9c 8b 3d 71 96 b5 3b a5 bd 1f 3b 02 82 c2 3a
       0.068169765 0.0055416157 0.0024374512 0.0014839771
0000e0 fc eb 1c 3b 31 43 00 3b 07 4a b8 3c f8 f6 6b 3e
       0.0023944369 0.00195713 0.022496236 0.2304343
0000f0 eb c9 5c 3d 93 35 2b 3f 96 ca a4 3d 44 9a 50 3b
       0.0539035 0.6687862 0.08046453 0.003183023
000100 ce ca 6c 3b b7 49 5d 3b 97 c7 07 3b 68 11 f8 3a
       0.0036131623 0.0033765861 0.002071833 0.0018926086
000110 f5 2a 04 3d cb 36 79 3e 15 11 83 3d 63 cd 2c 3f
       0.03226753 0.24337308 0.063997425 0.67500895
000120 7b 53 86 3d bb 09 c2 3b 89 dc 1d 3b 50 f0 da 3a
       0.065588914 0.00592157 0.0024087748 0.0016703699
000130 ff 4b 0f 3b ae a8 09 3b b8 8d ca 3c 9e bc 71 3e
       0.0021865366 0.0021005082 0.02472578 0.23607108
000140 1a dd 52 3d f0 91 30 3f c0 e2 8e 3d 7a bb 80 3b
       0.05148039 0.6897268 0.06976843 0.003928599
000150 8e dd 63 3b b5 e9 6a 3b 39 0e 13 3b 9a d3 fb 3a
       0.0034769508 0.0035844867 0.0022438897 0.0019212842
000160 34 4f f4 3c 03 03 80 3e 60 b6 79 3d 20 03 30 3f
       0.029822923 0.25002298 0.060964942 0.6875477
000170 46 0c 4e 3d c1 c9 a6 3b a8 e8 24 3b 49 c4 0f 3b
       0.050304674 0.005089969 0.0025163088 0.0021937063
000180 dc 3f 08 3b f1 01 f9 3a 3e 77 dc 3c 17 6e 79 3e
       0.0020790016 0.0018997771 0.026912328 0.24358402
000190 37 be 54 3d d9 82 2f 3f 83 18 79 3d 68 e6 72 3b
       0.051939216 0.6855903 0.06081439 0.0037063602
0001a0 84 27 67 3b cc ca 6c 3b 0b 42 27 3b 88 3c 10 3b
       0.0035271356 0.0036131619 0.0025521542 0.0022008736
0001b0 de 35 0e 3d 26 c6 84 3e c5 af 81 3d ba 7d 30 3f
       0.03471934 0.25932425 0.063323535 0.68941844
0001c0 c7 e0 37 3d bf fe 93 3b d4 1f 31 3b bc 33 01 3b
       0.0448921 0.004516452 0.0027027028 0.0019714674
0001d0 c1 33 01 3b 04 ac 01 3b 72 d4 f9 3c 9d 5c 83 3e
       0.0019714686 0.0019786367 0.03049681 0.25656596
0001e0 3b 7c 50 3d 18 a0 31 3f 05 39 61 3d 12 a3 5f 3b
       0.050899725 0.6938491 0.05498602 0.0034124297
0001f0 2d 84 61 3b 87 52 6c 3b 46 c4 0f 3b 42 64 1d 3b
       0.0034411058 0.0036059932 0.0021937056 0.0024016057
000200 37 9c 15 3d ce 15 8a 3e fa ad 69 3d 1d f7 33 3f
       0.03652593 0.2696976 0.057050683 0.7029894
000210 24 81 32 3d 94 7d 71 3b 18 38 3f 3b 30 c4 fc 3a
       0.04358019 0.0036848532 0.0029177722 0.0019284543
000220 4b 8f 22 3b ea 35 20 3b 6e 60 02 3d 6b 14 8a 3e
       0.0024804648 0.0024446198 0.031830244 0.26968703
000230 74 f9 44 3d ca d6 35 3f c0 ff 47 3d 85 b1 18 3b
       0.04808946 0.7103087 0.048827887 0.002329917
000240 a7 be 65 3b c6 94 39 3b 07 17 22 3b 5f a5 11 3b
       0.0035056265 0.0028317436 0.0024732964 0.0022223813
000250 79 6a 0e 3d 4a d0 8d 3e 26 6b 67 3d 37 63 24 3f
       0.03476951 0.27697974 0.05649867 0.6421389
000260 16 65 9b 3d a2 4d 8b 3b 10 6d 2c 3b c5 29 19 3b
       0.0758764 0.004251198 0.0026310124 0.0023370844
000270 fa f6 ca 3a 44 da eb 3a a2 f8 c6 3c 90 d9 66 3e
       0.0015484982 0.0017994125 0.02428848 0.22543931
000280 2b b7 65 3d 17 bb 24 3f 95 fa 94 3d 03 7c 88 3b
       0.056082886 0.64347976 0.07274357 0.004165174
000290 ba 9e 21 3b e0 3f 08 3b d6 14 03 3b e8 6a 0d 3b
       0.0024661259 0.0020790026 0.0020001433 0.0021578614
0002a0 3e d4 b1 3c 89 df 62 3e 16 10 69 3d ce 9e 22 3f
       0.02170765 0.22155584 0.056900106 0.63523567
0002b0 00 42 9e 3d f5 01 79 3b b5 49 5d 3b 90 dc 1d 3b
       0.07727432 0.0037995551 0.0033765857 0.0024087764
0002c0 eb ab ee 3a 7d e6 05 3b 4a ca c9 3c 9c c5 6b 3e
       0.0018209195 0.0020431571 0.024632592 0.230246
0002d0 51 59 81 3d 34 94 26 3f d6 17 a0 3d 8a 3c 90 3b
       0.06315864 0.6506989 0.07817046 0.004401748
0002e0 ac e8 24 3b d5 14 03 3b f9 01 f9 3a b3 d3 0e 3b
       0.0025163097 0.002000143 0.001899778 0.0021793663
0002f0 97 86 b7 3c 20 8d 6a 3e 25 1a 63 3d 5f 6b 27 3f
       0.022403045 0.22905397 0.055444855 0.6539821
000300 65 b7 a5 3d 22 59 5c 3b 22 99 77 3b bd 69 34 3b
       0.0809162 0.0033622463 0.0037780483 0.0027528845
000310 df 3f 08 3b e0 6a 0d 3b 9d d0 de 3c 7d 04 73 3e
       0.0020790023 0.0021578595 0.027199084 0.23732181
000320 30 64 82 3d fa 83 2a 3f b8 d8 8b 3d 94 d2 b5 3b
       0.063667655 0.6660763 0.06828445 0.0055487845
000330 a5 bd 1f 3b 02 82 c2 3a 45 64 1d 3b 74 bb 00 3b
       0.0024374512 0.0014839771 0.0024016064 0.001964298
000340 30 86 b8 3c bf 61 6c 3e 44 60 5d 3d 5a 77 2b 3f
       0.022524923 0.23084162 0.054046884 0.6697899
000350 7a fb a4 3d d3 8a 51 3b ce ca 6c 3b 48 3a 5e 3b
       0.08055778 0.0031973615 0.0036131623 0.003390925
000360 97 c7 07 3b f8 01 f9 3a 38 94 04 3d be a8 79 3e
       0.002071833 0.0018997779 0.032367915 0.24380776
000370 31 3e 83 3d dc 13 2d 3f 58 84 86 3d e4 45 c2 3b
       0.064083464 0.6760843 0.06568211 0.005928742
000380 ce 54 1e 3b 50 f0 da 3a 46 c4 0f 3b fa 20 0a 3b
       0.0024159434 0.0016703699 0.0021937056 0.0021076784
000390 f1 e7 ca 3c e6 25 72 3e fa 7a 53 3d 88 d6 30 3f
       0.024768801 0.2364727 0.05163095 0.6907735
0003a0 e4 1e 8f 3d e0 6f 81 3b 8e dd 63 3b ff 61 6b 3b
       0.06988314 0.003950104 0.0034769508 0.0035916565
0003b0 7f 86 13 3b 9a d3 fb 3a 65 9a f4 3c 06 3a 80 3e
       0.0022510586 0.0019212842 0.029858777 0.25044268
0003c0 21 27 7a 3d 6a 4c 30 3f 89 75 4e 3d e1 05 a7 3b
       0.061072472 0.688666 0.05040506 0.0050971364
0003d0 3a d9 25 3b 49 c4 0f 3b dc 3f 08 3b 86 f2 f9 3a
       0.002530648 0.0021937063 0.0020790016 0.001906947
0003e0 59 b3 dc 3c b3 db 79 3e f2 1f 55 3d 61 c8 2f 3f
       0.026940988 0.24400215 0.05203242 0.6866513
0003f0 c9 90 79 3d a6 5e 73 3b 84 27 67 3b 5c bb 6d 3b
       0.060929094 0.0037135272 0.0035271356 0.0036275005

network_body.observation_encoder.processors.1.normalizer.running_mean f4 [9]
000000 dd 57 f0 43 ac e7 c9 43 04 a7 a6 3e bd be f0 43
       480.68643 403.80994 0.32549298 481.49014
000010 96 3b ca 43 3d 7d a7 3e a3 25 f1 43 6c 8f ca 43
       404.4655 0.32712737 482.29404 405.12048
000020 7c 53 a8 3e
       0.32876194

network_body._body_endoder.seq_layers.0.weight f4 [128, 459]
000000 e1 ea 87 3b f9 e1 9d 3d 6f 48 af 3d 9d ac 4e 3c
       0.004147873 0.077091165 0.085587375 0.012614396
000010 7e 59 41 3d 16 0b 19 bd df 8e 65 3d 85 91 7b bc
       0.047204487 -0.037364088 0.056044456 -0.015354519
000020 02 4a 22 3c 0e 20 b4 bc f4 5a d3 3c e4 e5 c6 bb
       0.00990534 -0.021987941 0.025800206 -0.0060698856
000030 e1 1d cd bc b9 71 dc 3d c3 c9 1a 3c 87 e1 26 3d
       -0.025038661 0.107638784 0.009447518 0.040742423
000040 66 62 e5 3d 4e 9e f6 bc ce 01 63 bc 5c fb 78 bd
       0.11200409 -0.030104782 -0.013855411 -0.06078659
000050 3a 91 f8 bd 99 9f 1c 3d cc c1 56 3a 8d 7d a8 bd
       -0.12137075 0.03823814 0.000819233 -0.08227072
000060 ff 57 6b bd 72 51 97 3c d4 01 65 3b 16 2e 3d bd
       -0.057456966 0.018471453 0.0034943717 -0.04618653
000070 31 e1 02 bd fb 0e f8 3c 9c 92 b3 3b 12 90 ab bd
       -0.03195304 0.03028058 0.0054801237 -0.083770886
000080 74 f7 07 3e d1 7b b2 bd 40 a4 53 3d 11 27 b1 bd
       0.1327799 -0.08715022 0.051670313 -0.086500295
000090 f8 7f 72 bd 58 a8 54 3d 9f db 8b bd 29 9c 9f b9
       -0.05920407 0.051918358 -0.06828999 -0.00030443192
0000a0 54 7a 94 bc 6d 8d 7d bd e2 63 c7 3d 55 3d e2 bb
       -0.018124737 -0.061902452 0.09735848 -0.006904284
0000b0 76 0b 37 be 79 6a 43 bd 57 d1 d5 3c 2b a7 3d bd
       -0.17875466 -0.047708962 0.026100798 -0.046302002
0000c0 67 d3 d8 bb 87 2b 78 3c 4a 9e a8 3c 24 63 e9 bc
       -0.006616998 0.0151470965 0.02058329 -0.028489657
0000d0 f0 3e 87 3d cc 8a 3f bc 00 8d bb bc d6 53 ab bd
       0.06603801 -0.011690807 -0.022894382 -0.083656
0000e0 8a f4 63 bd 15 ae 18 bc 85 b1 11 bd 4c 83 f6 bc
       -0.055653132 -0.009318848 -0.035569686 -0.030091904
0000f0 77 a0 eb bc 5c 28 20 bd fb 14 e8 3c 6f cc ad 3d
       -0.028763039 -0.03910099 0.028330317 0.08486258
000100 09 df 39 bd 6b 5a c8 bd 01 a9 3b 3d f9 b0 47 be
       -0.04537872 -0.09782871 0.04581547 -0.19501103
000110 60 c8 67 bd 87 a5 73 3d 3e f6 ef 3b 0a c1 c0 bd
       -0.056587577 0.05948403 0.0073230555 -0.09411819
000120 7b 3e 90 3c 82 23 19 bb 81 61 5f 3d c3 65 ff bd
       0.017607918 -0.0023367112 0.054536346 -0.124705814
000130 92 52 81 bd f3 68 db bb 20 de 97 3b 46 ea 03 3d
       -0.06314577 -0.0066958605 0.0046346337 0.032205842
000140 99 5e 85 bd d3 b2 39 3d 56 d6 c4 bd 24 96 8c 3c
       -0.06512184 0.045336556 -0.09611194 0.017161436
000150 15 67 e1 bc 03 9e e3 3c ed 68 76 3d 5c d2 dd bc
       -0.027514974 0.027785307 0.06015866 -0.027077846
000160 79 1f c2 3d 10 bb 56 bd 52 d7 57 bc 7a 70 c0 bd
       0.09478659 -0.05242449 -0.013173895 -0.09396453
000170 c7 0d 1f bd 18 42 18 3d 04 44 3a 3d 28 73 8f bd
       -0.0388315 0.037172407 0.04547502 -0.07004386
000180 ff 43 16 be f2 c9 bc 3d 13 cb 3c 3d c6 df e5 3a
       -0.14674376 0.092182055 0.046092104 0.0017538003
000190 ad cd 8f bd 47 e4 81 3c 53 09 24 bc 9c 06 c9 bd
       -0.070216514 0.015855921 -0.010011989 -0.09815714
0001a0 8f 12 45 bc e2 56 a9 3d 61 1d c0 3d 8d 6e 58 bd
       -0.0120283505 0.08268525 0.093806036 -0.052839804
0001b0 dd 5d 50 bd cd 0a b5 bc 5c 92 c1 3c 74 5b 57 bd
       -0.050870765 -0.022099877 0.02362936 -0.05257745
0001c0 f6 ba 8c bd 16 bc 69 3d f9 69 0f 3e 5c 24 b9 3d
       -0.068715975 0.05706414 0.14005269 0.09040138
0001d0 65 9a 4f bc ad 79 62 bd 4e 30 65 3d 8a 74 b6 bd
       -0.012671088 -0.05529182 0.05595427 -0.08908947
0001e0 f9 64 89 bc 4e 98 a4 bb 89 e9 4c 3d 67 6c 18 3d
       -0.01677178 -0.005023039 0.050027404 0.037212756
0001f0 62 aa a2 3c b2 f0 4b bd 9e 8d 84 3d 5a a3 63 3c
       0.019856635 -0.04979009 0.06472324 0.0138939265
000200 81 c5 92 3d f7 fa 7b 3d df f3 66 bd 04 8f 98 bc
       0.07166577 0.061518636 -0.056384917 -0.018622883
000210 54 fb f7 bc da 63 80 3d c9 f8 0f bd 2c 1f af bb
       -0.03027121 0.06269045 -0.03514937 -0.005344292
000220 92 15 ad bd 1a 90 b0 bd e3 5e 1d bd df 55 02 3d
       -0.0845138 -0.08621235 -0.03842057 0.031820174
000230 6b 92 1e 3d 19 48 77 3d 96 e8 97 3d d5 98 8b bb
       0.038713854 0.060371492 0.07417409 -0.0042601624
000240 42 9a b5 bd c5 74 e5 3a 0e 8f 1d bd dc 22 c8 3d
       -0.08867313 0.0017506114 -0.038466506 0.09772274
000250 08 e9 5c b7 40 f3 25 bd 4d 1f 5f bd 3c 3d 92 3c
       -1.3167279e-05 -0.040515184 -0.05447321 0.017851464
000260 3d 7e ee 3b 52 f9 ba 3b ee 99 dd bd 07 45 0b bd
       0.0072782324 0.005705991 -0.108203754 -0.034001376
000270 20 a2 5b bd 66 39 2a 3d a1 fb 96 bd 58 61 78 bc
       -0.05362141 0.041558646 -0.07372213 -0.015159927
000280 11 ac 6e bd 07 e3 51 3d 6f bd 77 3d 80 c8 12 bd
       -0.058269564 0.0512419 0.060483392 -0.035835743
000290 ec c2 08 3d 31 b9 cb 3c ee 8c e0 3c a0 6f ba 3c
       0.033389017 0.02486858 0.02741095 0.022758305
0002a0 b6 6e 81 bd 69 b3 4b bd cf 0d 4e bd 30 0e 36 3d
       -0.063199446 -0.049731646 -0.050306138 0.044447124
0002b0 d4 f4 6e 3c 77 e1 9d bd 32 c2 7d bd 9d 0e 8e 3d
       0.014584739 -0.0770902 -0.061952777 0.06936381
0002c0 7a 3c 28 bd 64 f7 b3 bd 70 98 02 b9 89 f6 e8 bc
       -0.0410733 -0.087874204 -0.00012454554 -0.02843787
0002d0 f6 79 1d 3d 52 88 7a 3d c2 92 82 3d 1c 88 e8 3c
       0.03844639 0.06116516 0.06375648 0.028385215
0002e0 c0 80 8d 3d a5 00 78 bd 99 a5 fd 3c 4f a5 49 3c
       0.06909323 -0.06054749 0.030962752 0.012307479
0002f0 85 25 62 39 ea 17 5e 3c de a1 1a bd 68 b1 32 bd
       0.00021567017 0.013555506 -0.037752025 -0.04362622
000300 3f e4 06 bc 55 05 b0 3d ab 7a db bd aa 6e a0 bd
       -0.008233129 0.08594767 -0.107167564 -0.078336075
000310 74 64 5b 3d da ce 63 ba cc 73 bc 3d 78 00 ab 3d
       0.053562596 -0.0008690186 0.09201774 0.08349699
000320 e2 49 85 bd 71 46 33 bd 97 11 08 3c 33 bd c9 3d
       -0.06508233 -0.04376835 0.008304975 0.0985054
000330 88 d0 99 3d 58 9e 7a bc ef 2c 4a 3d 2d 9d 41 bd
       0.07510477 -0.015296541 0.04935926 -0.047269035
000340 9f af c3 3d 2c 3f a3 3c 90 3a 65 bc d2 a9 b6 bc
       0.095549814 0.019927584 -0.013991013 -0.022297774
000350 6c d3 53 3d f3 55 a4 3d e4 d5 8c bd e1 12 94 bd
       0.0517153 0.08024206 -0.06876734 -0.07230163
000360 fb 2e 8b bd 00 55 23 bc 07 0e 1f be fa 69 93 3c
       -0.0679607 -0.009968996 -0.15532695 0.01799487
000370 fc 59 86 bc 73 1a 2e bd 4a 5f 61 3d b3 a3 70 3c
       -0.01640033 -0.042505693 0.055022515 0.014687466
000380 5b 67 d1 3a c8 ec 4c bd 47 f2 0d bc 50 22 24 3c
       0.0015976237 -0.0500305 -0.00866372 0.010017946
000390 89 a5 27 3b d9 e8 cd bd f2 2d 5a bc 47 06 9b bc
       0.0025580844 -0.10054178 -0.013316618 -0.018923892
0003a0 cb 77 91 bd d1 11 66 bb 48 36 50 bd 18 d1 11 be
       -0.07102927 -0.0035105834 -0.050833017 -0.14239919
0003b0 f3 7d ae bd 74 31 33 bd 74 00 84 3d e1 61 14 bd
       -0.08520117 -0.043748334 0.06445399 -0.036226157
0003c0 53 ab 66 bc 49 6d 33 3d 2f 73 da bb 39 fb 82 bd
       -0.014078933 0.043805394 -0.006666563 -0.06395573
0003d0 a7 8c 1d 3c 40 22 ef 3c 61 b3 41 bd cb 72 0e 3e
       0.009616054 0.029191136 -0.04729021 0.13910978
0003e0 f4 8d ab 3b 8b dd 0e be c2 c1 08 3d 71 fb 86 bd
       0.005235428 -0.139517 0.033387907 -0.065909274
0003f0 d9 f4 b0 3c 21 70 94 bd 05 2d 8b 3b b4 95 e9 3b
       0.021601127 -0.072479494 0.00424731 0.0071284417

network_body._body_endoder.seq_layers.0.bias f4 [128]
000000 f9 fd 1f 3d 40 9a cf 3c a1 8e 70 bc 58 12 fc 3c
       0.039060567 0.025342107 -0.014682443 0.030770466
000010 a8 4b b6 bc 8e e9 69 bc f3 63 01 3b f6 32 61 3c
       -0.022252873 -0.014276875 0.0019743412 0.01374506
000020 6a b8 b9 bc 21 11 23 bd 95 17 8a 3c 40 65 0d bd
       -0.022670943 -0.039811257 0.016856948 -0.034520388
000030 cb 70 c1 ba fe 04 e6 bb d7 9d 85 bc 79 45 e2 3c
       -0.0014758346 -0.007019638 -0.016310615 0.027621018
000040 6a 7f 51 bc f2 bd 59 bb f3 3c 63 bc da ea a7 3c
       -0.012786726 -0.0033224788 -0.013869512 0.020497728
000050 dc be 0e 3c d8 a0 30 bc a3 48 06 3c e5 9c 8b bb
       0.008712497 -0.010780536 0.008196029 -0.0042606466
000060 c0 26 8c 3c 44 65 f8 bc cd ab 91 3c 54 2b bd 3c
       0.017108321 -0.030321725 0.017782116 0.02309195
000070 83 7b 4c 3c ba cb 0b 3b 64 8e d1 bc 54 cb 7f 3c
       0.012480619 0.0021331147 -0.025580592 0.015612442
000080 b1 1d 9d bc c4 72 e9 3c 70 59 30 bc 76 ff 30 bc
       -0.019179197 0.028497107 -0.010763511 -0.010803094
000090 47 ab f2 bb 4a f1 1b bd 73 67 c9 bc 45 31 49 3c
       -0.0074056718 -0.038071908 -0.024585461 0.012279813
0000a0 42 82 af 3c 37 a2 ea 3c 5f b8 f8 3b 97 16 c2 3b
       0.021424416 0.028641803 0.007590338 0.005923103
0000b0 93 23 05 bd be 99 88 3c 27 c5 10 bc 0b a7 c3 bc
       -0.03250463 0.016674872 -0.008836067 -0.023883363
0000c0 3e 4b 05 3d ee 8a 20 3c 79 cc 44 bc 69 1a 5c 3c
       0.03254246 0.009798748 -0.012011641 0.013434031
0000d0 ac c2 86 bc 7c c4 87 3b b6 7b b2 3a f5 2c fe 3c
       -0.016450249 0.004143296 0.0013617191 0.031027297
0000e0 ef 9f d9 bb 3b ae 30 3c a8 8f 4f 3c 28 f3 10 bd
       -0.00664138 0.010783727 0.012668528 -0.035388142
0000f0 fd e3 9f b9 d5 8a 19 bd 2d cb 27 bc e6 40 19 bd
       -0.00030496708 -0.037485916 -0.010241312 -0.037415408
000100 80 ff 81 bb 7d 7b e9 3c 5c a7 1f bd 31 c2 98 3c
       -0.0039672256 0.028501267 -0.038977966 0.018647285
000110 0a b8 f2 ba 62 9d 07 bd c9 9a 98 3c 26 f0 90 3c
       -0.0018517983 -0.033109076 0.018628495 0.017692637
000120 94 63 02 3c 41 69 e6 bb 8c f0 2d bc 16 a0 d4 bc
       0.007958312 -0.00703159 -0.010616433 -0.025955241
000130 0d 60 fc 3b 42 52 e4 3c 61 3e 39 bc fd c7 0c 3d
       0.00770188 0.027871255 -0.011306376 0.03437041
000140 e0 0e 7c 3b f5 3e 98 3b ef cf 6d 3c 3a 73 02 bc
       0.0038461015 0.004646177 0.014514907 -0.0079620425
000150 ee 47 9a 3a 2c 9f d6 3c f7 ef 47 bc e2 9d 4b bd
       0.0011770704 0.026198946 -0.012203208 -0.049711116
000160 23 df 01 3c df 71 90 bc 27 2c 65 bb 1b 2d e0 bc
       0.007926735 -0.017632423 -0.0034968944 -0.027365258
000170 ae 01 99 bb 13 90 af 3c 0b ce a2 bb 81 2b 19 bd
       -0.0046693897 0.021431005 -0.00496841 -0.037395004
000180 22 bd c9 bb 0f c2 4b 3b a5 28 61 bc 42 7a 60 3c
       -0.0061565796 0.003109101 -0.013742601 0.0137010235
000190 20 7b 80 3a 74 9c ff 3b 8f 50 f6 bb 53 ef 56 bb
       0.0009802319 0.007800633 -0.0075169276 -0.0032796457
0001a0 32 3b 06 bb 01 ab 87 bb 01 6f f8 bc 3c 56 d7 3b
       -0.002048206 -0.0041402583 -0.030326368 0.0065715592
0001b0 19 9a ab 3b b2 28 ce ba 2c af 4c 39 01 fe d2 bb
       0.0052368757 -0.0015728681 0.00019520213 -0.006438971
0001c0 a0 08 f2 ba e2 fb ad bc bd c5 35 bc dd e4 f6 bc
       -0.0018465705 -0.021238271 -0.011094508 -0.030138427
0001d0 0d 82 7c 3c fe 12 d7 3c 2b 30 fe 3c 87 29 ae bb
       0.015411866 0.026254173 0.031028828 -0.005315009
0001e0 ca f5 d3 bb 48 bf 79 bc 41 a2 1c bc d2 76 73 bc
       -0.0064685093 -0.015243359 -0.009560169 -0.014859872
0001f0 c4 92 57 bb 1b 5c 9f 3c 2c 4b 21 3c 59 d8 48 bd
       -0.0032893876 0.019453099 0.0098445825 -0.04903445

network_body._body_endoder.seq_layers.2.weight f4 [128, 128]
000000 01 8c 97 bd 7d 9c 98 bd 3a 1c 17 be e8 68 7c bd
       -0.073997505 -0.07451723 -0.14756861 -0.061623484
000010 4f 1d ee bd 01 aa 1c 3e 84 92 2b bd 08 92 7b be
       -0.11626684 0.15299226 -0.041887775 -0.24567425
000020 7e c0 20 bd 63 bd 8e 3d b0 91 21 be ee a0 a1 3d
       -0.039246075 0.069697164 -0.15778232 0.07892023
000030 0c af 8a bd 3a 55 e4 bd 47 51 80 bd cb c0 4d bd
       -0.06771669 -0.11149068 -0.062655024 -0.05023269
000040 a6 80 3e bd c7 7a 1d be 3c cb c6 bd a3 22 c6 3d
       -0.046509407 -0.15378867 -0.09706733 0.09674575
000050 15 3d c8 bd d5 bf 81 3d 32 aa 88 bd d3 74 6d be
       -0.097772755 0.06335417 -0.06673087 -0.23189096
000060 6d 6b e9 3d 90 2f 5c bd e5 12 fd ba d5 7e 8b bd
       0.11397443 -0.053756297 -0.0019307999 -0.06811301
000070 27 82 74 bd 3e 91 a0 3d 93 e3 a5 bc 21 3d 51 3e
       -0.059694435 0.07840203 -0.020250117 0.20433475
000080 a2 a2 2e bd 6a e8 ab bd 15 3e 7d bd 32 1a 8d bc
       -0.042635567 -0.08393939 -0.061826784 -0.017224405
000090 6a b9 b3 bc e1 f5 26 bc fe 46 30 bd b0 34 1f bd
       -0.021938998 -0.010190458 -0.043036453 -0.038868606
0000a0 3f b4 df bd d8 a0 25 be 31 4f 45 3c d3 c1 56 3d
       -0.10923051 -0.16174638 0.0120428065 0.05243094
0000b0 ed c0 56 3d 49 5e 94 bd f7 fc 93 bd fa ed 67 3d
       0.052430082 -0.07244546 -0.072259836 0.056623437
0000c0 8c 7b 79 3e 2a ad 56 bd 40 9b 10 3e 20 75 87 bc
       0.24363536 -0.052411236 0.14121723 -0.016535342
0000d0 45 d6 2e 3e ae 44 0b 3e cf a3 50 3c 5d da 87 3d
       0.17073925 0.13600418 0.0127343675 0.06633446
0000e0 10 76 0b be 3d 74 14 bd 15 94 ab 3d 0e ba b4 bd
       -0.13619256 -0.036243666 0.08377854 -0.088245496
0000f0 13 b1 a2 bd 1c e4 97 bd f2 d7 47 bd 75 ac 37 bb
       -0.079439305 -0.07416555 -0.048789926 -0.0028026376
000100 0f cc 92 3d 6a e5 2d bc 9a f3 c3 3d f5 8c 3a 3e
       0.07167827 -0.010613779 0.09567948 0.18217833
000110 46 bd 8e 3d 8d e3 74 be 95 19 15 be 51 98 9b 3d
       0.06969695 -0.23914929 -0.1456054 0.075974114
000120 fd 3d 86 3d 81 45 f2 bb 8e 52 24 3e 5a 7e 85 be
       0.06554792 -0.0073935394 0.16047117 -0.2607296
000130 24 53 65 bd 99 1c 03 3e 27 0d 49 3d 03 84 e2 bc
       -0.055987492 0.12803878 0.04908481 -0.027650839
000140 24 52 46 3d 29 f0 2f 3e 0b f5 d3 bd 3f dd 11 be
       0.04841818 0.17181458 -0.103494726 -0.14244555
000150 88 2a da bd 28 e7 ab bc 11 50 ba 3c 00 67 6f be
       -0.106526434 -0.020984247 0.022743257 -0.23379135
000160 34 6c b6 bd 5e 2b ee bd 3e 21 06 3e 65 5c a0 bd
       -0.08907357 -0.116293654 0.13098618 -0.07830123
000170 d3 f1 2b 3e c6 e2 1a 3e bb 0f 1c be 12 48 8a bc
       0.16791467 0.1512557 -0.15240376 -0.016880069
000180 7c 67 c9 bc f5 00 0d 3d df f5 c8 bd e9 0f f1 bd
       -0.024585478 0.03442474 -0.09812521 -0.11770613
000190 35 51 de 3d fc 50 0b bc 2f dd ec bc 97 fa 4d 3d
       0.10855333 -0.008503195 -0.028914062 0.05028781
0001a0 f6 13 aa bd 6b 3a 58 bd 56 eb da 3d 26 9c 71 3d
       -0.083045885 -0.052790087 0.10689418 0.058986805
0001b0 f6 3c b8 3d e4 d3 97 3d 09 9e f8 3d f7 72 bb 3d
       0.089960024 0.07413462 0.12139518 0.09152787
0001c0 9f e0 b2 3c 06 17 ab 3d 1b 32 aa 3d 5e 9c be 3d
       0.021835623 0.08354001 0.08310338 0.093071684
0001d0 87 57 01 3e 6a 01 01 3e 50 f1 b3 3d cd 84 ac bc
       0.12631045 0.12598196 0.08786261 -0.021059418
0001e0 9c 92 3f bd 48 b8 67 bc 92 7a 1d 3e a6 73 82 3d
       -0.046770677 -0.014143057 0.15378788 0.063697144
0001f0 53 6c c1 3d 2e ef b8 bd f0 88 ca bd 10 10 82 bd
       0.09444489 -0.09029995 -0.098894 -0.0635072
000200 62 63 98 bb 1b d0 88 bd 35 34 29 be 02 00 fe 3d
       -0.004650519 -0.06680318 -0.16523822 0.12402345
000210 30 dd 73 be 21 29 15 be 22 a3 0e bd 4c 35 57 3b
       -0.23814845 -0.1456647 -0.034823544 0.0032838164
000220 af 68 97 be e3 2a 8b 3d e2 bb ce 3d d6 cb f9 bd
       -0.29572055 0.06795289 0.100944296 -0.12197082
000230 b0 95 16 bd d6 8c 8f bd 7d 3d 4f 3c c3 12 d8 3d
       -0.036763847 -0.07009284 0.012648937 0.105504535
000240 32 c9 8f bc 39 2b 77 3d ab 3f 6d bc 02 69 81 3e
       -0.017551992 0.060343955 -0.014480512 0.25275427
000250 fd df d5 3d 60 5b 80 3d ec 63 4e 3e ed 90 10 bd
       0.10443113 0.062674284 0.20155305 -0.035294462
000260 77 26 24 bd 09 04 8d bd a4 80 81 bc af 4f d1 bc
       -0.040075745 -0.06885535 -0.015808411 -0.025550691
000270 dc 7c 1c 3e 70 6e e5 bc 39 ad 96 bd ef 58 18 3e
       0.15282005 -0.028006762 -0.07357258 0.14877675
000280 3d f0 91 bd 29 23 38 be 24 81 f3 bd 6b e0 69 3d
       -0.071259 -0.17982163 -0.11889866 0.057098787
000290 2e a9 c4 3d b8 ce a7 3b 0b 84 f4 bd 55 2f f6 bd
       0.09602581 0.0051210783 -0.11939248 -0.120207466
0002a0 16 0e 08 3e e1 1f 3d bd 94 67 40 3d fd 49 b3 bd
       0.13286623 -0.04617298 0.04697378 -0.087543465
0002b0 49 4c a1 bd a0 8f 15 be 07 57 9f 3d 00 9b b2 3d
       -0.07875878 -0.1460557 0.07780271 0.0872097
0002c0 ed 4a 63 bd 92 df 12 3e 4a 6b 16 be 2f 70 26 3d
       -0.055491377 0.14343098 -0.14689365 0.04063433
0002d0 ac 6a 01 bd b4 e1 3f 3d 7d b1 91 3d a9 d0 d6 bc
       -0.03159587 0.046846107 0.07113931 -0.026222544
0002e0 ad 19 29 be a4 7b 61 3e 7c 7a 81 bd b5 61 0a bc
       -0.16513701 0.22019821 -0.0632219 -0.008446147
0002f0 53 3d a1 bd 89 e2 9a 3d 67 c7 3e be ab 78 47 be
       -0.07873025 0.075627394 -0.18630753 -0.19479625
000300 f5 b2 8a 3d dd 36 a0 bd f4 05 c8 bd 0e 19 f7 3c
       0.067724146 -0.07822964 -0.097667605 0.030163314
000310 c7 7a c7 bd 67 da 9a be 41 e9 bc 3d 16 b6 46 3d
       -0.09740215 -0.30244753 0.09224177 0.048513494
000320 e5 71 50 3e 2b b3 6c bd 27 c7 6b 3d 11 3e b9 3c
       0.20355947 -0.057788055 0.057562973 0.022612603
000330 b1 e9 4f 3d 43 7f f2 bd bf 55 e3 3c 5d 19 a0 3d
       0.050759975 -0.118406795 0.027750848 0.07817338
000340 32 df 27 bd b0 2f 7b bc c3 6c 2b bc 22 dd b6 bd
       -0.04098434 -0.015331194 -0.0104629425 -0.089288965
000350 1e f6 3f bd 9d b6 bb bd 62 31 a2 3c 97 b8 26 bc
       -0.046865575 -0.0916569 0.019798938 -0.010175846
000360 03 64 fd 3c 02 bd bd 3d 45 21 a6 3d 64 4d 84 3d
       0.030931478 0.09264566 0.081118144 0.064600736
000370 4b 4c 17 be 8f 8d a9 b9 5c cf 7c bd be f4 3b 3e
       -0.14775197 -0.0003233966 -0.06172119 0.1835508
000380 d7 ca 05 3d 0f 5a 92 bc ec fe ac 3d 81 fc c2 3b
       0.032664146 -0.017865209 0.0844706 0.005950511
000390 2e e6 fc bb 6b 9d a4 bd 94 46 e1 3c dc ac a5 bd
       -0.0077178692 -0.080378376 0.027499475 -0.08089611
0003a0 55 79 89 bd 72 63 07 3e 48 af 48 bd bd 14 93 3c
       -0.067125954 0.13221529 -0.048995286 0.017954225
0003b0 9f be 1d bd d3 94 03 be a3 b3 8f 3d 78 c8 1c 3e
       -0.03851187 -0.1284974 0.07016685 0.15310848
0003c0 8f d4 36 3d 16 1a 39 be 99 f5 ba bd 88 0d c6 3d
       0.044636305 -0.18076357 -0.09128875 0.0967055
0003d0 90 4e 0b 3e 07 81 bc bd cf 2d bf bd 6d 65 5b 3d
       0.13604188 -0.092042975 -0.09334909 0.053563524
0003e0 cb c0 fd 3c 3d ae b5 3d d3 21 53 bd 6c 7e 5e bd
       0.03097572 0.08871124 -0.05154593 -0.054319784
0003f0 8b b4 7d bd 3a 64 c4 3d 18 a5 d7 ba e0 76 f8 bd
       -0.061939757 0.09589429 -0.00164524 -0.121320486

network_body._body_endoder.seq_layers.2.bias f4 [128]
000000 fe f4 9a 3b 77 9c 98 3c 87 3d 53 3c e5 4f ea 3a
       0.0047289124 0.018629296 0.012893087 0.0017876594
000010 75 90 ee 3c 19 77 3a 3a 79 b1 ab 3c 17 aa 5a bc
       0.029121617 0.0007113084 0.020958649 -0.013346217
000020 cd e9 1a bd ae ab be 3b 51 85 57 bc f0 19 d6 bb
       -0.037820626 0.0058188057 -0.013154344 -0.0065338537
000030 cc 8d 01 bd c0 b5 9f bc ca 2e b7 3c e2 b0 35 bc
       -0.03162937 -0.019495845 0.022361178 -0.011089535
000040 10 2b ef 3c 4e 1f 25 3c db 54 41 3c 36 75 99 3b
       0.029195338 0.010078264 0.011800016 0.004683162
000050 d6 fe f8 bc 3d 5d 2c 3b 3f 24 af bc fa 17 c0 bb
       -0.030394953 0.0026300692 -0.021379588 -0.005862233
000060 7a 0f 4b bc 8a aa d1 bc 75 90 05 3d f9 70 c5 bc
       -0.012393827 -0.025594015 0.032608468 -0.024101721
000070 a5 80 c6 bc f7 d9 b8 3c fc 2c 72 39 45 90 96 3c
       -0.024231264 0.022564871 0.00023095676 0.01837934
000080 84 d3 41 3c 30 39 62 3c db 2e 8f ba 18 14 26 3b
       0.011830214 0.01380758 -0.0010923998 0.0025341567
000090 d3 7f 42 bc f9 6a 97 bc db 48 a0 bc 83 c0 99 3b
       -0.011871296 -0.018483626 -0.01956599 0.0046921386
0000a0 00 74 24 3c 02 a3 94 bc 63 64 1b bc 76 2f a9 3c
       0.010037422 -0.018144134 -0.009484383 0.020652514
0000b0 2e 3c 64 ba 4f 3d 0b 3d c9 6b f2 3c 9c a7 cf 3c
       -0.0008706477 0.033994015 0.029592412 0.025348477
0000c0 31 32 0a bd 59 29 88 3c 44 32 03 3d 8f 2c 00 bd
       -0.033739273 0.016621279 0.03203036 -0.031292494
0000d0 15 19 8c 3c 7d 82 a6 bc 9d ac be bb 07 ca 8b 3c
       0.017101804 -0.020325894 -0.005818917 0.017064108
0000e0 9c 2b 88 bc 3b 6a 52 3c 24 17 ed bb a4 29 e3 3c
       -0.016622357 0.01284271 -0.0072354246 0.027729817
0000f0 cf 6d 7c bc 6a 9e bb bb be 62 8b 3b 19 63 6f 3c
       -0.01540704 -0.0057256715 0.0042537143 0.014611029
000100 b6 b6 16 3c df 89 d8 3c a3 76 15 bd af 7f dc 3c
       0.009198835 0.02643293 -0.036490094 0.026916353
000110 2d 47 13 3d de 79 9f bc b7 9b 71 ba 5b a6 c9 3c
       0.03595655 -0.01946729 -0.0009216624 0.024615457
000120 f0 b5 4e 3c 06 32 ab bc b0 3b 86 bb ac e7 b7 3c
       0.0126166195 -0.020897876 -0.004096471 0.022449337
000130 d2 bb 55 bc e5 3d f9 3a d1 99 58 3c 2c 40 22 bc
       -0.013045268 0.0019015638 0.013220266 -0.009902995
000140 c0 5e 9e 3c 64 ab 54 3c 4f 99 93 3b 36 8f 01 3c
       0.01933229 0.012980316 0.00450436 0.007907679
000150 b5 24 06 bd 3b 2c 3d bb 33 b0 4d 3d d7 4c 14 3d
       -0.03274985 -0.0028865475 0.050216865 0.036206093
000160 90 06 86 bc 5d 6a a6 bb 2a e0 81 3c b7 e7 8b 3c
       -0.016360551 -0.0050785975 0.01585396 0.017078264
000170 96 74 c5 b9 c3 18 e5 3a ca 44 21 3c 82 34 b4 bc
       -0.0003766163 0.0017478693 0.009843061 -0.021997694
000180 c1 42 11 bb 23 70 01 3d 4f 13 15 3c e0 db b1 ba
       -0.0022165033 0.031601083 0.009098842 -0.0013569556
000190 ee b5 34 bd 79 d3 a1 bc 49 09 73 3c df b0 1e 3d
       -0.044118814 -0.019754158 0.014833757 0.038742896
0001a0 b5 b4 0d 3c 04 08 a9 bb 95 63 ac bc cf da 9e 3c
       0.008649041 -0.0051584262 -0.021043578 0.019391445
0001b0 75 b7 d5 3c 87 96 e5 3c 0a 21 6e 3b c5 f5 21 bc
       0.026088456 0.028025879 0.003633561 -0.009885256
0001c0 1f 78 b6 bc 45 34 d9 bc 7b 9f 22 3d de 21 b5 bc
       -0.022274075 -0.026514182 0.039702874 -0.022110876
0001d0 b4 98 f9 3c 73 d7 fe 3a 85 87 18 bd 43 4a a2 bc
       0.030468322 0.0019442871 -0.037238616 -0.019810801
0001e0 73 5c 36 3b 81 54 58 bc c7 55 b1 bc 7b 66 13 bb
       0.00278261 -0.013203741 -0.021647347 -0.0022491503
0001f0 1e ca 52 bc f0 1f 04 bd ec fe 03 3d e4 9e 99 bb
       -0.012865571 -0.03225702 0.032225534 -0.0046881307

action_model._discrete_distribution.branches.0.weight f4 [2, 128]
000000 6f f0 fe bb be a7 0b 3b 4f 7a 86 3c 6f 63 9d 3c
       -0.0077801268 0.00213097 0.016415743 0.019212453
000010 44 23 b6 bc 28 78 6d bc 69 18 42 bd 77 9c 77 ba
       -0.022233613 -0.0144939795 -0.04738656 -0.00094456173
000020 4a 97 a4 bb fb e4 9f bc 06 42 db 3b 03 63 e7 3b
       -0.005022918 -0.019518366 0.00669122 0.0070613637
000030 1b 2c 01 3c e0 03 26 3d bd 6f 04 bd 45 35 c5 3b
       0.007884051 0.04053104 -0.032333124 0.006018313
000040 53 4f 30 bd 19 3f 12 bc e0 44 12 3b 76 92 43 bc
       -0.0430444 -0.0089261765 0.0022318885 -0.0119367745
000050 48 bb 1c 3d ba af 3d 3c 73 30 6e b9 c6 14 40 3d
       0.038264543 0.011577541 -0.00022715497 0.04689481
000060 97 8e 4c 3c 01 a0 f1 3b c3 6d 07 bd 40 73 76 3c
       0.012485168 0.0073738103 -0.03306366 0.015042126
000070 4e 71 d9 3c eb 24 c0 bc c3 0c 81 bb e6 a5 71 3c
       0.026543286 -0.023455104 -0.003938289 0.014749026
000080 d0 bb 0b 3c 88 2c de bc 4c a1 d7 3c 50 0a 29 3c
       0.008528665 -0.027120844 0.02632203 0.0103174
000090 f1 2b 1b 3c 2e ca 28 3c 05 95 28 3d 35 53 f9 bc
       0.009470926 0.01030211 0.04115774 -0.030435184
0000a0 bb aa cd 3c 68 69 1e 3d 8f f0 66 3c a9 b9 9e bc
       0.025105825 0.038674742 0.01409544 -0.019375639
0000b0 c8 73 a6 ba ee d8 73 bb f8 01 3d bd f0 59 f4 bb
       -0.00126993 -0.0037208158 -0.046144456 -0.0074570104
0000c0 63 5c ec 3c 93 d4 97 bc 67 4b 2f bd c7 ed 35 3d
       0.028852647 -0.01853398 -0.04279652 0.044416215
0000d0 74 ab 83 bc 75 75 ed 3b f1 b0 a8 3c 00 e3 02 bc
       -0.016072966 0.007246668 0.020592185 -0.007988691
0000e0 32 f2 8f 3d 09 71 05 bc e5 a4 93 bb 94 9f b0 bc
       0.07028617 -0.008144625 -0.004505741 -0.021560468
0000f0 70 94 c1 bc cf ff a8 bc 3d 53 63 bc 05 f0 c1 bb
       -0.02363035 -0.020629792 -0.013874826 -0.005918505
000100 af 01 9e bc 9a 54 a4 bc ec 73 37 3d fb f5 a1 bc
       -0.019287912 -0.020059872 0.044788286 -0.019770613
000110 0f 28 10 bd 77 8c 75 3c 24 d8 1e bb 76 3f e7 bc
       -0.035194453 0.014987103 -0.0024237717 -0.028228503
000120 5e 84 14 bd a6 ad 90 3c 1a 03 51 3c 70 e5 48 3c
       -0.036259048 0.017660927 0.012757087 0.012261733
000130 98 f0 8c bb 9f c2 08 3c 5a e7 3b bc 18 d8 88 bb
       -0.004301142 0.008347183 -0.011468733 -0.004176151
000140 c9 0d 54 bc e4 c8 34 ba 36 4e 3c 3d 59 35 c2 bc
       -0.01294274 -0.000689639 0.045973025 -0.023707079
000150 6a be b2 3c 83 ca a4 bc 17 df 36 bd 76 35 45 bd
       0.021819312 -0.020116096 -0.04464635 -0.048146687
000160 81 8d 66 3d ec 0b da 3c 0f 17 02 bd 42 bf 19 bd
       0.056287292 0.026617013 -0.03176027 -0.037535913
000170 be d6 87 bb 50 c7 62 3b e1 46 16 bc be 2e 31 3d
       -0.0041454723 0.0034603663 -0.009172172 0.043257467
000180 59 92 6e bc 4e 86 f2 bc 04 5a e2 bb 72 22 aa bc
       -0.014561259 -0.029605057 -0.0069077034 -0.020768378
000190 67 ce a9 3c 0c 4a 03 3d 90 ad 3b 3b 1a 1d 1b bd
       0.020728303 0.03205304 0.0028637387 -0.03786955
0001a0 49 36 a8 bc ea 50 57 3c 82 06 14 3c 3e b5 40 bc
       -0.020533698 0.01314185 0.009034755 -0.0117619615
0001b0 9b ff 2d bd 81 04 e3 bc fc c0 72 bb 17 7b 1a bc
       -0.042480092 -0.027712109 -0.0037041297 -0.009428761
0001c0 af 62 11 3c 8f d0 14 b9 9f a4 cc bc a5 22 e7 b9
       0.008873626 -0.00014192074 -0.024980841 -0.00044085566
0001d0 12 d4 cf bc 9e 10 77 3c d9 b4 bf 3c c6 da e4 3c
       -0.025369678 0.015079645 0.023401665 0.02793635
0001e0 90 76 c4 bc b6 e3 b6 ba ce d8 4b 3d 3b 76 64 3d
       -0.023982316 -0.0013953361 0.049767308 0.055776816
0001f0 cc 94 2e 3d 7e 83 1f 3d 23 15 06 bd 98 21 6e 3c
       0.042622373 0.03894376 -0.032735 0.014534377
000200 21 aa 51 3c ac 73 6a bc 26 b2 78 bc 70 7b 5b bc
       0.01279691 -0.014309805 -0.015179193 -0.013396129
000210 25 cf 23 3d f1 62 5c bc aa 13 c0 3c ea 24 0b 3c
       0.03999247 -0.013451324 0.023446877 0.008492688
000220 6e 27 49 bc c5 4b 92 3b bc 75 ed bb 0b cf 16 3b
       -0.012277467 0.004464599 -0.007246701 0.002301159
000230 f5 a0 ff bb bf a6 be bc 91 d9 e5 3c e8 1b 42 3c
       -0.00780117 -0.02327287 0.028057845 0.011847474
000240 98 4f f1 3c 90 7a 16 bd 81 4e a3 bc 96 e5 2e 3c
       0.029456899 -0.03673798 -0.019934895 0.010674855
000250 3c 12 3b bd b8 e2 b9 3a a2 a0 a2 bc e4 18 83 bd
       -0.045671687 0.0014181947 -0.019851986 -0.06401232
000260 38 4e c1 bc fb f6 ba bc 5b d3 fc 3c a8 d8 01 bd
       -0.023596868 -0.022822848 0.0308625 -0.03170076
000270 b5 ca 2b bc f9 45 df 3c 0e 28 90 3b b8 4a 24 bb
       -0.010485341 0.027255045 0.004399306 -0.002506895
000280 d8 fb 49 bc 09 38 e8 3c fd 2d 29 bd 82 54 f5 3a
       -0.012328111 0.028347032 -0.041303623 0.0018717202
000290 b6 7b 8b bc 97 21 38 3c 6b 2f c3 bc b6 48 0a 3d
       -0.017026763 0.011238477 -0.023826322 0.03376075
0002a0 c1 c2 84 3b d3 4c de bc a6 61 07 bc d2 8d 34 bb
       0.004051537 -0.027136242 -0.008263027 -0.0027550352
0002b0 58 bb a8 bb 5b c3 28 3d 06 cc 42 3d b0 aa 6b 3c
       -0.0051492862 0.04120193 0.047557853 0.014383957
0002c0 53 d4 14 bd 9c c8 b4 3c 84 13 d7 3c b8 59 4e bd
       -0.0363353 0.022068314 0.026254423 -0.05037853
0002d0 23 5b 03 bb cf ac 86 3a 07 5d 87 bc 44 9b 85 bc
       -0.0020043335 0.001027489 -0.016523851 -0.016309388
0002e0 42 f4 8a bd 44 b6 96 3c 6a 5f 86 3b 18 92 2c 3d
       -0.0678487 0.018397458 0.0041007297 0.042131513
0002f0 d5 89 6b 3b b6 ee 92 bb 10 b4 30 3c d2 45 e6 3c
       0.0035940309 -0.004484023 0.010785118 0.028109465
000300 66 8c b9 3c 4c 99 c6 3c 28 92 0b bd 45 d0 30 3c
       0.022649955 0.02424302 -0.034074932 0.010791843
000310 07 32 19 3d 7d 8d 30 bc cf 68 f3 3b 60 f2 11 3d
       0.037401225 -0.010775921 0.0074282656 0.035631537
000320 f9 7c 3e 3c 37 c2 88 bc 63 62 a5 bc 3b 07 aa ba
       0.0116264755 -0.016694171 -0.020188516 -0.0012972126
000330 52 f3 cc 3b 1f 73 3f bb 56 79 69 3b 9a 96 98 bb
       0.006254592 -0.0029212905 0.00356253 -0.004656625
000340 21 41 11 bc ce 97 9f 3b 66 c2 63 bd 3e 45 63 3c
       -0.008865626 0.0048703915 -0.055605315 0.013871489
000350 74 2a 18 bd 09 5c 2f 3d 45 49 58 3d 85 44 21 3d
       -0.03714986 0.04281238 0.05280425 0.039371986
000360 44 4e 60 bd 8e 4d 1e bc 2a 47 88 3c 9a 61 d0 3c
       -0.05476214 -0.009662045 0.016635496 0.025437165
000370 bd d0 f1 3b c3 a0 14 bb 16 d5 81 3c 17 f0 cc bc
       0.00737962 -0.002267883 0.015848678 -0.025016828
000380 01 78 99 3c b0 03 0b 3c a1 10 15 3c 51 8a 1a 3d
       0.01873398 0.008484766 0.009098203 0.037729565
000390 54 da 8f bc 0d 8f 2d bd 1f 2a 71 3b d8 c9 1a 3d
       -0.017560162 -0.042372752 0.0036798788 0.03779015
0003a0 ec b2 ed 3c fd 7d e0 bc 6e 55 d2 bc d0 f9 52 3c
       0.02901598 -0.027403826 -0.025675502 0.012876943
0003b0 3c ad fc 3c dd ac 4b 3c 86 c5 b7 3c c2 62 1b bc
       0.030844323 0.012431351 0.022433054 -0.009483995
0003c0 3f a0 07 bc 1a 0f 44 bb 76 44 68 3d cb 94 00 3c
       -0.008277952 -0.0029916228 0.056705914 0.007847975
0003d0 b6 8c 02 3c 69 b5 28 bc 11 eb 7d bc c8 bf 09 bd
       0.007968118 -0.010297158 -0.015497939 -0.033630162
0003e0 05 4b a2 3c ee 4e 6e 3b 8c 75 67 bd 15 21 51 bd
       0.019811163 0.0036362964 -0.056508586 -0.05105694
0003f0 2b 6c 0a bd ef 8d 03 bd 26 02 e9 3c 1d 6a 15 bd
       -0.033794563 -0.03211778 0.028443407 -0.03647815

action_model._discrete_distribution.branches.0.bias f4 [2]
000000 5d 94 13 bd 60 94 13 3d
       -0.036030162 0.036030173

action_model._discrete_distribution.branches.1.weight f4 [3, 128]
000000 9e 5b 98 bd a2 14 9a bd e1 f0 e8 bb c5 8f 15 3d
       -0.074393496 -0.07523467 -0.007108793 0.036514062
000010 88 7e e1 bc c9 75 03 3d 0e b3 d6 3b d7 94 ef bc
       -0.027526155 0.03209475 0.0065521067 -0.029245777
000020 8f d6 3c 3b d1 c7 13 bd ea 54 34 3d 36 c1 e3 3b
       0.002881441 -0.03607923 0.044026293 0.006950523
000030 15 a2 a4 3c 28 6e ab 3b 86 17 12 bc a9 5f ac bc
       0.020096818 0.0052316375 -0.008916741 -0.021041708
000040 dc 7b e9 bb 0c 0c 53 bc bc f2 35 bd 92 09 4c bc
       -0.007125361 -0.01288129 -0.044420943 -0.012453454
000050 97 37 af 39 2b a3 7c bd 0b 87 fb bc bb 41 12 3c
       0.0003342002 -0.061679047 -0.030704042 0.008926804
000060 0b 0a 5f bb 89 ba d7 bc 1d c9 ad 3b 43 cf 24 3d
       -0.0034033086 -0.026334064 0.0053035156 0.040236723
000070 86 6b 91 bb a2 b7 3c 3c dd 96 f7 3c cf 68 3c bc
       -0.0044378666 0.011518391 0.030223304 -0.011499598
000080 04 08 2b 3d e5 fa 2e bb fc c2 68 bc b2 42 98 3d
       0.04175569 -0.0026699838 -0.014206644 0.07434596
000090 6f ed 5c 3c b0 3b 89 bb 57 98 fb bb b1 2a 1e bc
       0.013484343 -0.0041880235 -0.0076780724 -0.009653733
0000a0 f7 03 6f bd 04 b3 c7 3c ad 34 10 3b 63 01 5d 3c
       -0.05835339 0.024377353 0.0022004053 0.0134891
0000b0 6e 29 ac 3c 6f 28 bd 3b 36 8a e6 3a e2 1f d6 bc
       0.021015849 0.0057726423 0.0017588797 -0.02613825
0000c0 ec e2 07 bc 36 0c 2b bb ca a8 86 bc a2 1c 11 bd
       -0.0082938485 -0.0026099808 -0.016437907 -0.035427697
0000d0 06 1c b6 3c 40 6c d7 ba 09 88 d8 bc da 86 1f bd
       0.02223016 -0.0016435459 -0.026432054 -0.038946964
0000e0 dc 0e 09 3c be 07 d0 bb 5b 27 34 bc 13 2e dc 3c
       0.008365359 -0.006348579 -0.010995711 0.026877439
0000f0 24 86 82 3b 5f e3 b2 bb 28 a4 a4 bc b7 be e0 3c
       0.003983276 -0.0054592337 -0.020097807 0.02743469
000100 2f f9 f2 bc e1 4a b7 3c 66 10 bc bc 62 f0 91 3d
       -0.029659836 0.022374572 -0.022957038 0.071259275
000110 ad 59 d4 3c e1 86 ce 3c f9 9c b5 bb 74 be cd 3c
       0.025921667 0.0252108 -0.0055423942 0.02511523
000120 a5 5f a1 3b 6d e1 01 bd dd ec 38 bd 9d a2 39 3d
       0.004924732 -0.031709123 -0.045147765 0.045321096
000130 00 cb 96 3b cf f3 25 bd 84 5b 68 bc 89 ba 2d 3c
       0.004601836 -0.040515717 -0.014181975 0.0106035555
000140 67 0a ec bc 29 2d 36 bc fd e4 ee bc c9 2e 31 bc
       -0.028813554 -0.011119165 -0.029161924 -0.010814377
000150 7f 6d 89 bb dd eb 3c 3d 9b a5 e6 3c ff 5d f2 bc
       -0.004193961 0.046123374 0.028155139 -0.029585836
000160 40 06 0b bd 55 e0 9d bc 01 a9 9a 3c b4 2a b3 3c
       -0.033941507 -0.019272009 0.018879415 0.021870948
000170 1c 83 24 bd 42 b8 98 bc f9 1e eb 3b 1c 64 b1 bc
       -0.0401641 -0.018642548 0.007175323 -0.021654181
000180 62 7d 42 bc a1 04 f4 3a 50 4e 2b 3b 35 09 b5 3b
       -0.011870714 0.0018617102 0.0026139207 0.005524779
000190 d5 65 72 bc 9f 7b 87 3c 82 e4 eb 3c 87 1a 65 bc
       -0.014794786 0.01653844 0.028795484 -0.013983375
0001a0 51 20 0f 3c 17 84 c3 bc 54 2c fe 3c 1d 07 07 bd
       0.008735732 -0.023866696 0.031026997 -0.032965768
0001b0 a6 67 43 bc 77 e5 fc bc 0d c6 0b bd d8 0d 5a 3c
       -0.011926567 -0.030871136 -0.034124423 0.013308965
0001c0 4c 57 11 3c 04 b1 9a bc 8d 17 2d 3d 36 bb 87 ba
       0.008870911 -0.018883236 0.042258788 -0.0010355476
0001d0 7f 81 16 3d d0 2d 9d 3c 4b 2a 31 3d e2 ef 82 bc
       0.03674459 0.019186884 0.043253224 -0.015983526
0001e0 d6 1a a3 bc 27 ce 69 3c 9d df 36 bc 91 2d ef 3b
       -0.019910257 0.014270342 -0.011161712 0.007299133
0001f0 92 96 8f bc 65 a4 17 3b 75 b2 85 3c 7a 7b 50 3d
       -0.017527852 0.0023138758 0.016320447 0.050899006
000200 34 d1 29 3c 1d d1 28 3d 73 b8 40 bd 78 01 93 bc
       0.010364819 0.04121505 -0.047050904 -0.017945036
000210 8b 35 46 3d d1 00 08 bd 7e ec de bc 8d 95 bc 3c
       0.048390906 -0.033203904 -0.027212378 0.02302053
000220 31 08 ce 3b 03 69 22 3d b2 af b8 bc b7 5a 54 3c
       0.0062875976 0.03965093 -0.022544716 0.012961081
000230 41 6e 5f bd 60 c8 98 bc f1 74 53 3c b2 05 a7 bc
       -0.054548506 -0.018650234 0.012906299 -0.020388458
000240 20 81 16 bb c4 58 a8 3c 87 6f 12 3d a0 8a 60 3d
       -0.0022965148 0.02055014 0.035750892 0.054819703
000250 c9 99 1b 3b ea c6 08 3c df 29 b0 bc 99 c9 48 bd
       0.0023742786 0.008348206 -0.02150434 -0.049020384
000260 ea f7 14 3d ad ad e4 bc 09 1e 1f 3b e7 27 1f bc
       0.03636924 -0.027914846 0.0024279377 -0.009714103
000270 2e 8e 20 bc 5b 1a 8e 3a 2f f4 2d bc 03 59 2a 3d
       -0.009799523 0.0010841595 -0.0106173 0.041588794
000280 50 1f 93 3c 34 44 4d 3c 3e 75 9f 3d 70 ed 66 ba
       0.017959267 0.012528468 0.07786034 -0.00088091847
000290 6b eb 2b 3d b7 cf 10 3c 9c db 7e bb 42 c0 24 bc
       0.04197256 0.008838586 -0.0038888222 -0.010055603
0002a0 98 0a 80 3d 1b b5 ee bc d5 61 db 3b 97 4d 7c bc
       0.062520206 -0.029139092 0.006695012 -0.015399358
0002b0 2b 5e 1e bd 54 ed 42 bd 7a 45 65 3c 5d 2c 1f bd
       -0.038664024 -0.047589615 0.013993615 -0.038860667
0002c0 fd bd 8c bb 48 2a aa 3b 78 96 65 3b b4 13 99 3c
       -0.0042951093 0.0051930286 0.0035032313 0.018686153
0002d0 36 05 f3 bc 02 1c 36 bd 64 8a 1f bc 88 da 34 ba
       -0.02966557 -0.044460304 -0.009737585 -0.0006899019
0002e0 4b 26 93 bc 44 4f 28 3c 01 09 a0 3c de 2f 0e 3c
       -0.017962595 0.010272805 0.019535543 0.008678405
0002f0 44 04 1d 3b 0f 84 54 3b 70 12 07 3c 09 59 2e bd
       0.0023958841 0.0032427346 0.008244142 -0.04256538
000300 9e ca 74 bc b5 5f 45 bd 88 d7 73 3a 1e 52 70 3c
       -0.014940886 -0.048186976 0.0009301831 0.014668016
000310 4e 3e e7 39 04 9c c6 39 98 b9 10 3d 54 2c 06 bd
       0.00044106174 0.00037881744 0.035333246 -0.03275712
000320 bf cf 3a 3c a2 c7 23 3c bf c2 c9 3c c8 8b e6 3b
       0.01140207 0.009996327 0.024628995 0.007035706
000330 70 65 50 bc db 5e ad bc be 47 8f bc df 91 7d bc
       -0.012719497 -0.021163395 -0.017490264 -0.015476673
000340 1d 3b 00 3d 38 c3 22 bd 93 44 14 3d 5a 95 e1 bc
       0.031306375 -0.039736956 0.03619821 -0.027537037
000350 cd 51 0d bd b4 6b b7 ba 0d 86 d0 3c 99 70 d7 3c
       -0.03450184 -0.001399389 0.025454545 0.026298808
000360 08 54 8b bc da ec a9 bb 88 d7 46 bd 6b 5e e7 bc
       -0.017007843 -0.0051857056 -0.04854539 -0.028243264
000370 2d 18 a6 3b c0 8b c8 3c 3c 42 e5 3b 20 6f 13 bc
       0.0050688 0.0244807 0.006996421 -0.008998662
000380 2a 10 16 3d c7 7a 74 bd b5 2c 2d 3d 7c 3e d3 bc
       0.03663651 -0.059687402 0.042278964 -0.02578663
000390 1f a7 f3 3a 61 52 0b 3b 5e ba 25 3d 87 a3 0f bc
       0.0018589235 0.0021258818 0.040460937 -0.008767015
0003a0 94 f1 b8 3c c3 78 43 3d 08 9a 3c bd cc 22 1b 3c
       0.02257613 0.04772259 -0.046045333 0.009468745
0003b0 55 d1 10 bd a4 80 b1 3c 4b fa 05 3d 90 41 2e bd
       -0.035355885 0.021667786 0.0327094 -0.042542994
0003c0 36 a9 88 3c be 1a 1a 3d 44 f9 e7 3b ea c8 10 3c
       0.016682249 0.03762316 0.0070792753 0.008836964
0003d0 99 15 73 bd d2 5d 97 bc 8e 93 ae bc 10 9a 94 3c
       -0.05934677 -0.018477354 -0.021310594 0.018139869
0003e0 dd 04 6f 3c 81 45 22 bd 49 2c f2 bc 17 bf 51 bd
       0.014588562 -0.039617065 -0.029562132 -0.051207628
0003f0 ca 5e 0b bd 1c 9a db 3b 9c 35 48 bd 19 31 c5 bc
       -0.034025945 0.006701721 -0.04887925 -0.024071263

action_model._discrete_distribution.branches.1.bias f4 [3]
000000 c3 c0 23 3b d7 e0 8e ba e1 28 0b 37
       0.002498672 -0.0010900748 8.2945635e-06

action_model._discrete_distribution.branches.2.weight f4 [1, 128]
000000 53 a5 1d 3c 2c 2d 35 3c 42 76 7d bb e5 87 32 3c
       0.009621936 0.011058133 -0.0038675223 0.010896658
000010 27 99 d2 ba 0a 22 7a 3b 60 86 46 bc 3d e8 cc 3b
       -0.0016067371 0.0038167262 -0.012116998 0.006253271
000020 57 d6 38 3a 27 ef a2 3b 65 13 50 bb 1f ee 62 3b
       0.0007050982 0.004972357 -0.0031749841 0.0034626795
000030 a0 ca 8f bc 32 9a ef 3b ed e1 c5 3a aa 4a 39 bb
       -0.017552674 0.0073120827 0.0015097238 -0.0028273263
000040 2a ee 5b 3b 08 26 e0 3b c7 26 78 38 3a 3f 71 bb
       0.0033558705 0.006840471 5.9163922e-05 -0.0036811368
000050 72 87 dd bb a9 39 19 3b 27 eb 6b 3b 8b 88 3c 3c
       -0.006760531 0.0023380315 0.0035998316 0.011507164
000060 da a4 f1 bb 7d 36 b5 3b b1 67 82 ba ae 4c 2f 37
       -0.007374388 0.005530177 -0.0009949115 1.0448666e-05
000070 89 a6 3c 3b c2 fc fd 3b 58 55 49 b9 0b 0f 49 bb
       0.0028785786 0.0077510783 -0.00019200647 -0.0030679132
000080 49 1c b0 3b 88 18 27 bb d6 0b 31 3c 30 b3 7a bc
       0.0053744656 -0.00254968 0.010806045 -0.015301511
000090 6b 96 a5 3c 47 b1 b1 bb e3 33 44 3b 77 af dd ba
       0.020213326 -0.0054227444 0.0029938153 -0.0016913255
0000a0 d7 a2 a2 bc d0 8b 6d ba 0b a7 70 bb e8 fa 69 3a
       -0.019853039 -0.0009061666 -0.003672066 0.00089256326
0000b0 0c f6 4a bc 29 f4 2a bc 0b 5a 82 3c ea 45 44 bb
       -0.012387764 -0.010434189 0.015912076 -0.0029948899
0000c0 08 d4 7b bb da 1e 5a 3b 9b 24 51 3c 0b 66 b0 3c
       -0.003842594 0.003328255 0.012765075 0.021533033
0000d0 b2 07 d3 3a 9b b3 72 bb 38 f3 e1 3b d7 16 60 bc
       0.0016100316 -0.0037033323 0.006895449 -0.01367732
0000e0 c1 c9 05 bc 36 1f 44 3c 83 80 24 3b 84 f8 1b 36
       -0.008165778 0.011970332 0.0025101013 2.3241455e-06
0000f0 9f 8f d5 bb 43 22 47 3a ea d8 63 bc 3d 09 fd bb
       -0.006517365 0.0007596353 -0.013906697 -0.0077220486
000100 84 e8 47 bc 17 a9 97 bc fe 12 a9 bb 12 15 bc 3b
       -0.012201432 -0.018513246 -0.0051597347 0.0057398165
000110 ae b3 16 3c 30 91 e6 3b 58 99 40 bc 9c b6 c1 bb
       0.009198112 0.0070363507 -0.01175531 -0.0059116613
000120 d7 04 ea bb 7f dd 11 bc 98 04 ce ba 0f 4d c1 bc
       -0.0071416902 -0.008902906 -0.0015717922 -0.023596315
000130 7e de 9e 3b f0 a7 ce bb bd c2 03 3a dd 6a b7 ba
       0.0048483005 -0.006306641 0.00050262717 -0.001399364
000140 6c a6 84 ba 9f ee bf b9 ac ca 98 3b 1a 29 24 3c
       -0.0010120398 -0.00036608145 0.0046628322 0.010019565
000150 53 bb f2 3b 84 b0 2f bc 39 84 c7 ba c9 3f b5 ba
       0.0074075847 -0.010723237 -0.00152219 -0.0013828214
000160 27 2d fc 38 ca b1 2f 3c 8a 7c c0 3c 55 e8 ea b9
       0.00012024707 0.010723541 0.023496885 -0.0004480506
000170 44 29 0f bc 65 f5 ef bb 9b 5d f0 3b 7b e8 1e 3c
       -0.008737866 -0.0073229545 0.0073353774 0.009698982
000180 a2 e1 6e bb 7b cb 81 bb 72 a6 89 bc 21 04 24 bc
       -0.0036450406 -0.0039610243 -0.016803 -0.01001075
000190 7a 28 b1 3c 47 f6 26 bc 77 81 5f bb 03 67 0c bb
       0.021625746 -0.010190553 -0.0034104267 -0.0021423704
0001a0 55 e5 b5 3b f1 6d 4b bb bb 24 b7 3c 92 f2 23 ba
       0.00555102 -0.0031040872 0.022356382 -0.00062541023
0001b0 c7 21 1e 3a e7 6d a6 3c ee a7 49 3a 54 36 06 bc
       0.0006032255 0.020316077 0.0007692565 -0.008191664
0001c0 b5 e8 f9 3b 21 b0 09 3c e0 0b 46 bc 91 e8 35 3c
       0.007626618 0.008403809 -0.012087792 0.011102811
0001d0 bb a2 31 3c 71 ec 83 3b 47 b2 02 3c 68 6e 59 3b
       0.010842021 0.0040259887 0.007977075 0.003317738
0001e0 03 9b 63 bb fa b4 fd 3b 48 ae 86 3c b0 0a 17 3c
       -0.0034729845 0.0077425214 0.016440526 0.009218857
0001f0 48 c7 4f 3c 9d 3d 19 3b 5c 8d 20 bc 87 e1 29 3c
       0.01268179 0.0023382672 -0.009799328 0.010368711
