Assets/ZooheimTest/Models/run3/DeerFBehavior/DeerFBehavior-151091.onnx (onnx, 157069 bytes, 14 tensors)

discrete_act_size_vector f4 [1, 3]
0	0x40000000	2.0
1	0x40400000	3.0
2	0x3f800000	1.0

network_body.observation_encoder.processors.0.normalizer.running_mean f4 [150]
0	0x3dad2929	0.08455116
1	0x3f34529d	0.7043856
2	0x3e0e67bd	0.1390676
3	0x3be95b63	0.00712149
4	0x3b4ee5f1	0.0031570161
5	0x3b3dfb6d	0.0028988973
6	0x3b097f94	0.0020980584
7	0x3aef6de9	0.0018267009
8	0x3cbfd357	0.023416204
9	0x3e6eab96	0.23307642
10	0x3dadcc43	0.084862255
11	0x3f32a98b	0.6978995
12	0x3e0efb37	0.13963018
13	0x3c01cca2	0.007922323
14	0x3b4173bc	0.0029518446
15	0x3b2fab15	0.0026804854
16	0x3b26fe4e	0.0025481167
17	0x3af65e90	0.0018796492
18	0x3cdec8c1	0.027195336
19	0x3e6fa966	0.23404464
20	0x3da79383	0.081824325
21	0x3f33f337	0.7029299
22	0x3e125eb1	0.14293934
23	0x3be8ec5a	0.0071082534
24	0x3b6efee7	0.0036467852
25	0x3b3857e6	0.0028128563
26	0x3b0a5dae	0.0021112966
27	0x3ad03316	0.0015884365
28	0x3cbca066	0.023025703
29	0x3e6b3f23	0.22973303
30	0x3daed76c	0.08537182
31	0x3f348025	0.70508033
32	0x3e0ba595	0.13637383
33	0x3bd8a858	0.006611865
34	0x3b533c5b	0.003223202
35	0x3b114e4e	0.0022171917
36	0x3b1e5185	0.0024157476
37	0x3abfb792	0.0014626852
38	0x3cd2f6f5	0.025752524
39	0x3e748e67	0.23882447
40	0x3da26973	0.07930269
41	0x3f359fb8	0.70946836
42	0x3e0b0ce5	0.13579138
43	0x3bed0b3f	0.0072340067
44	0x3b773ca0	0.0037725344
45	0x3b37e8d7	0.0028062367
46	0x3b122c64	0.002230429
47	0x3ad11128	0.0015950548
48	0x3ce74bf2	0.028234456
49	0x3e72e723	0.23720984
50	0x3daa2354	0.083075196
51	0x3f33f330	0.7029295
52	0x3e0dd7b7	0.1385182
53	0x3be348d3	0.0069361716
54	0x3b82fe00	0.0039975643
55	0x3b129b6f	0.0022370478
56	0x3b08a183	0.0020848222
57	0x3ad11121	0.0015950539
58	0x3cdbf708	0.026851192
59	0x3e7b2db5	0.24529155
60	0x3d97e832	0.074173346
61	0x3f3425ee	0.70370376
62	0x3e0e1d26	0.13878307
63	0x3c185ab8	0.009298973
64	0x3b844b1c	0.004037274
65	0x3b5870d5	0.0033026238
66	0x3afd4f3a	0.001932598
67	0x3af04c08	0.0018333206
68	0x3d06e55c	0.032933578
69	0x3e7c6849	0.24649157
70	0x3da1d7b2	0.07902469
71	0x3f32c7de	0.69836223
72	0x3e13dfdd	0.14440866
73	0x3bbdc3de	0.0057911715
74	0x3b8560b9	0.004070368
75	0x3b268f47	0.002541499
76	0x3add3644	0.0016877134
77	0x3ad1112a	0.001595055
78	0x3d02120c	0.031755492
79	0x3e828837	0.2549455
80	0x3d87d4c5	0.066323794
81	0x3f3563d7	0.7085547
82	0x3e13b2c1	0.14423658
83	0x3c052934	0.008127499
84	0x3b7889c5	0.0037923914
85	0x3b494273	0.0030709773
86	0x3abfb78f	0.0014626848
87	0x3ad5678f	0.0016281473
88	0x3d0870f2	0.033310838
89	0x3e81a276	0.2531926
90	0x3d8f5729	0.06999046
91	0x3f3265da	0.69686663
92	0x3e17fb49	0.14841951
93	0x3be0ae96	0.0068567498
94	0x3b8c19d1	0.0042755385
95	0x3b29297f	0.0025812087
96	0x3b09ee9f	0.002104677
97	0x3ac095aa	0.0014693041
98	0x3d1364b0	0.035984695
99	0x3e886077	0.26636097
100	0x3d794523	0.06085695
101	0x3f35e7b5	0.7105668
102	0x3e19bca4	0.15013367
103	0x3bee8fde	0.007280334
104	0x3b6fdd00	0.0036600232
105	0x3b46392f	0.0030246486
106	0x3ad2cd50	0.0016082916
107	0x3ae504fe	0.0017472801
108	0x3d01c5b0	0.03168267
109	0x3e867457	0.26260635
110	0x3d846368	0.06464273
111	0x3f330206	0.6992496
112	0x3e1b142a	0.1514441
113	0x3be3b7dc	0.006949408
114	0x3b9c5dd3	0.004771927
115	0x3b215acb	0.0024620767
116	0x3b23f508	0.0025017876
117	0x3adc5831	0.0016810951
118	0x3d0c359b	0.03423081
119	0x3e8bb88d	0.2728924
120	0x3d75b10c	0.0599833
121	0x3f356300	0.70854187
122	0x3e179bda	0.14805546
123	0x3c007f88	0.007842906
124	0x3b91f4e4	0.004454242
125	0x3b308929	0.0026937223
126	0x3adfd07f	0.0017075686
127	0x3b021fef	0.001985546
128	0x3d0f7666	0.035025023
129	0x3e8e0ef4	0.27745783
130	0x3d86686e	0.06562887
131	0x3f33a5f7	0.7017512
132	0x3e1391ce	0.14411089
133	0x3bd295cd	0.006426549
134	0x3ba9297f	0.0051624174
135	0x3b122c5f	0.002230428
136	0x3b0e4506	0.0021708622
137	0x3ac251cf	0.0014825406
138	0x3d275f72	0.040862508
139	0x3e952b5c	0.29134643
140	0x3d776d30	0.060406864
141	0x3f35404e	0.70801246
142	0x3e11344e	0.14180109
143	0x3bed42b9	0.00724062
144	0x3b9c9555	0.004778544
145	0x3b4ee5f6	0.0031570173
146	0x3af8f8cf	0.0018995049
147	0x3afb930d	0.0019193605
148	0x3d2bed65	0.041974444
149	0x3e99c717	0.30034706

network_body.observation_encoder.processors.1.normalizer.running_mean f4 [9]
0	0x42c17efa	96.748
1	0x4329afc7	169.68663
2	0x3edcba36	0.43110818
3	0x42c1c6e6	96.88847
4	0x432a0178	170.00574
5	0x3edd782f	0.43255755
6	0x42c20e23	97.02761
7	0x432a530f	170.32445
8	0x3ede362a	0.434007

network_body._body_endoder.seq_layers.0.weight f4 [128, 159]
0	0x3d5d7fc5	0.05407693
1	0xbd45e5dd	-0.048314918
2	0xbdcc8dc8	-0.0998798
3	0xbd63b5c3	-0.055593263
4	0xbd8754f3	-0.06608
5	0xbdb2d7b3	-0.087325476
6	0x3db55c4e	0.08855496
7	0x3cf1e658	0.029528782
8	0xbe0fcf3f	-0.14043902
9	0x3d23085e	0.0398029
10	0x3e1acc59	0.15117015
11	0xbccbae8f	-0.02486351
12	0xbc07b308	-0.0082824305
13	0xbcebeac4	-0.028798468
14	0xbd1f43d2	-0.038883038
15	0x3e0d2a8a	0.13785759
16	0x3e0083f7	0.1255034
17	0xbd0754f6	-0.03304001
18	0x3df0ee49	0.11764199
19	0xbe0a22b4	-0.134898
20	0xbc4484ae	-0.011994524
21	0xbd3ce405	-0.046115894
22	0xbe05cb41	-0.13065816
23	0x3d4d38e1	0.050103072
24	0xbd79de07	-0.061002757
25	0x3cc15a0d	0.02360251
26	0xbc9d65f3	-0.019213652
27	0x3e09d5ee	0.13460514
28	0xbdc86acd	-0.09785996
29	0x3ccb976d	0.024852479
30	0x3d2bbdd5	0.041929085
31	0xbdbfd6dc	-0.09367153
32	0xbd216306	-0.039401077
33	0xbdec0489	-0.115243025
34	0xbd67428d	-0.056459952
35	0xbd5709cf	-0.05249959
36	0xbd567f98	-0.052367777
37	0xbc96a866	-0.018390846
38	0xbd3875c0	-0.04503417
39	0xbd9702c2	-0.07373573
40	0xbde16e8d	-0.11007414
41	0x3d9f9eb5	0.07793943
42	0xbd22abd8	-0.039714664
43	0xbdcf6572	-0.10126771
44	0xbbf0f220	-0.0073530823
45	0x3d614ba0	0.055003762
46	0xbde6390f	-0.11241352
47	0x3d46cdf4	0.048536256
48	0x3defa3c3	0.11701157
49	0xbcf399b2	-0.029736374
50	0xbdda549e	-0.10660671
51	0xbc85497b	-0.01627039
52	0x3e01b2a2	0.126658
53	0xbc1a44e7	-0.009415842
54	0xbcaa88c1	-0.020817162
55	0xbc3772df	-0.011196821
56	0xbc74b54a	-0.014935801
57	0x3c897ea7	0.016784025
58	0x3d6d5d43	0.05795027
59	0xbd40c5a1	-0.047063474
60	0x3bc8370a	0.006110077
61	0xbdaa1dbb	-0.08306452
62	0xbda4b6d2	-0.08042683
63	0xbcf78817	-0.03021626
64	0x3dc106b2	0.09425105
65	0xbdb13cdd	-0.08654187
66	0xbd3c54d5	-0.04597934
67	0xbcabe80a	-0.020984668
68	0x3cbe382b	0.023220142
69	0xbd1d4427	-0.038395073
70	0xbcf7124f	-0.030160097
71	0x3de19b7f	0.11015987
72	0xbe0eeae5	-0.13956793
73	0x3a95a3ae	0.0011416578
74	0x3d734f44	0.059401765
75	0xbe3e46b0	-0.18581653
76	0x3d363dbf	0.04449248
77	0x3d831b42	0.064016834
78	0x3ccb117c	0.02478861
79	0x3d2be8c9	0.041970048
80	0xbd978384	-0.073981315
81	0xbd63cad2	-0.055613346
82	0x3cfce45c	0.030870609
83	0xbd1f5db0	-0.038907707
84	0xbd99191a	-0.07475491
85	0xbe15ef48	-0.1464206
86	0xbe10c0ee	-0.14136097
87	0xbb3e0d3f	-0.0028999595
88	0x3d8c63c6	0.06854968
89	0x3dbaed42	0.091272846
90	0xbe1a45d7	-0.15065704
91	0x3c1bd0ec	0.00951026
92	0xbca65917	-0.020306153
93	0x3e21035b	0.15723936
94	0x3d3720b7	0.044708934
95	0x3d52cfbc	0.051467642
96	0xbd7e6d35	-0.062115867
97	0x3e0cf48a	0.13765159
98	0xbe0db942	-0.13840201
99	0x3d3ab509	0.045582805
100	0x3e0d3f25	0.13793619
101	0xbcc3c12a	-0.023895819
102	0x3d0d79c0	0.034539938
103	0x3d8875e8	0.06663114
104	0x3d078515	0.0330859
105	0x3d40d677	0.04707953
106	0xbca58f15	-0.020209828
107	0x3daa704e	0.08322202
108	0x3d0e031e	0.03467094
109	0x3d03071d	0.031989206
110	0x3c063495	0.0081912475
111	0xbccbc8f9	-0.024876105
112	0x3d85f79b	0.065413676
113	0xbd73157a	-0.059346654
114	0x3d19ddb4	0.03756495
115	0xbe056d9d	-0.13030095
116	0x3da8ebaf	0.08248078
117	0x3dbf0eb4	0.09328976
118	0xbbbcb510	-0.005758889
119	0xbd253f43	-0.040343534
120	0xbdb6c296	-0.08923833
121	0xbd85067c	-0.064953774
122	0xbd824a87	-0.06361871
123	0x3cbc2f74	0.022971846
124	0xbd4010e2	-0.0468911
125	0xbdce9f4a	-0.10088976
126	0x3c9ac32d	0.018891895
127	0x3c80e483	0.015733963
128	0x3dad44a0	0.08460355
129	0xbdbe21cc	-0.0928379
130	0xbdce638e	-0.10077582
131	0xbd8eff91	-0.06982339
132	0x3d07f67b	0.033194046
133	0x3c232af1	0.0099589685
134	0x3d632f78	0.05546519
135	0xbd161092	-0.036636896
136	0xbda20e83	-0.07912924
137	0x3d6ac1d9	0.057313774
138	0xbc450ccd	-0.012026978
139	0xbcdb3261	-0.026757421
140	0x3bc53b89	0.00601906
141	0xbb66819a	-0.0035172463
142	0x3e4f4b16	0.20243487
143	0x3d297a34	0.041376308
144	0xbe3a714b	-0.1820728
145	0xbac13bd0	-0.0014742557
146	0xbe589d9a	-0.2115387
147	0xbd7b5edd	-0.061369766
148	0x3c3971e2	0.011318656
149	0x3b9c2520	0.004765168
150	0xbd4037d0	-0.046928227
151	0xbd25b1cb	-0.04045276
152	0xbc0573e7	-0.008145309
153	0x3d853632	0.065044776
154	0xbbaf0e1b	-0.0053422577
155	0xbd94c6ec	-0.07264504
156	0x3d93170a	0.07182129
157	0xbd5f77d8	-0.05455765
158	0xbbfc6ef5	-0.007703657
159	0x3ad6c270	0.0016384851
160	0x3c6657ab	0.014058988
161	0xbd6595cc	-0.05605106
162	0xbdfa937e	-0.12235163
163	0x3c61db77	0.013785235
164	0x3c88c582	0.016695742
165	0xbdf98eba	-0.12185426
166	0x3de8a7aa	0.113601044
167	0x3de974ed	0.11399255
168	0x3c9b0df7	0.018927557
169	0x3d88e1e5	0.06683711
170	0xbe1923ef	-0.14955114
171	0x3d5e25a5	0.05423512
172	0xbe133d9b	-0.1437897
173	0xbdc75ba5	-0.09734277
174	0x3bcfcf14	0.0063418243
175	0x3cce7685	0.025202999
176	0x3ddee445	0.10883383
177	0xbcf9f698	-0.030513093
178	0xbb07c335	-0.0020715718
179	0x3e071699	0.13192214
180	0xbe8aa047	-0.27075407
181	0xbd9b8b84	-0.0759497
182	0xbdfdf072	-0.12399377
183	0x3d4d469d	0.05011617
184	0x3d0db333	0.034594726
185	0xbd3115d0	-0.043233693
186	0xbc35bb01	-0.0110919485
187	0xbcb7af7d	-0.022422547
188	0x3d3f6a1f	0.046732064
189	0x3b5449b4	0.0032392563
190	0x3d3f6d95	0.046735365
191	0x3d6ca714	0.057776526
192	0x3d4ef275	0.050524194
193	0xbdc0e940	-0.09419489
194	0x3d3a7e47	0.045530584
195	0x3df7e056	0.121033356
196	0xbd14caf4	-0.036326364
197	0xbd986d18	-0.07442683
198	0x3d3edc06	0.04659655
199	0x3d00d8b5	0.031456668
200	0x3d68f4a6	0.05687394
201	0x3d442fd3	0.04789717
202	0x3dc51762	0.096236005
203	0x3dbffcfe	0.09374426
204	0xbd3388ef	-0.043831762
205	0xbb9dc941	-0.004815251
206	0xbd33e03c	-0.04391502
207	0x3b36cdd7	0.0027893686
208	0xbd95d8f7	-0.073167734
209	0x3ca0e773	0.019641614
210	0x3e29e84b	0.16592519
211	0xbcbb783c	-0.02288448
212	0xbdfc4d9c	-0.1231949
213	0x3d5a6750	0.053321183
214	0x3d9bdbd6	0.0761029
215	0x3d7f8013	0.062378
216	0xbe36725f	-0.17817067
217	0x3d3b97bd	0.045799006
218	0xbba845e2	-0.005135284
219	0x3db491bc	0.08816859
220	0x3cb3b5f8	0.021937355
221	0x3ae5871c	0.0017511579
222	0xbd693f23	-0.056944977
223	0xbcf59c4d	-0.029981757
224	0xbc5c0f1b	-0.013431336
225	0xbdab9cc2	-0.083795086
226	0xbd997182	-0.07492353
227	0x3c4b71c3	0.01241726
228	0x3dc88a80	0.09792042
229	0x3d5c08bd	0.05371927
230	0xbd49437f	-0.049136635
231	0xbd7e51ec	-0.062089846
232	0x3cae68c5	0.021290192
233	0x3e08ec1f	0.13371323
234	0xbdfcc42e	-0.12342106
235	0xbcb06573	-0.02153275
236	0xbe6114de	-0.21980616
237	0x3d8b5441	0.068031795
238	0xbd45cc01	-0.048290256
239	0x3d7d104f	0.06178313
240	0x3bd003ae	0.006348095
241	0x3e073d79	0.13207044
242	0xbc062b5f	-0.008189051
243	0xbdac60f6	-0.08416931
244	0x3cccf324	0.025018282
245	0x3de91ed8	0.11382836
246	0xbd43189b	-0.047630887
247	0xbdc18caa	-0.09450658
248	0x3da542b6	0.08069365
249	0xbd943af0	-0.07237804
250	0xbe3340e6	-0.17505226
251	0xbddf3ae5	-0.10899905
252	0xbd8599ea	-0.065234974
253	0xbd60905c	-0.05482517
254	0x3cb37f8b	0.021911403
255	0x3d5316c9	0.0515354

network_body._body_endoder.seq_layers.0.bias f4 [128]
0	0x3d07ec6b	0.03318445
1	0xbcbe4fd9	-0.023231434
2	0xbd3bf772	-0.04589028
3	0xbceda196	-0.029007714
4	0x3d2e6caf	0.042584118
5	0xbc08e6c3	-0.008355799
6	0xbbeab315	-0.0071624615
7	0xbc099bc2	-0.008398952
8	0x3cc413af	0.023935167
9	0xbd21a3fa	-0.03946302
10	0xbcf8822b	-0.030335506
11	0x3cef871c	0.02923923
12	0xbc7eeb8f	-0.015559091
13	0x3c98bf81	0.018646004
14	0x3d16a340	0.03677678
15	0xbd176fa9	-0.03697172
16	0x3c585292	0.01320328
17	0xbc6a2bf0	-0.014292702
18	0xbc290e46	-0.010318344
19	0x3c71a98f	0.014749899
20	0x3cdf3cc1	0.02725065
21	0xbc32b015	-0.010906239
22	0xbc4138c5	-0.01179332
23	0x3c9124d1	0.01771775
24	0x3cc75483	0.02433229
25	0x3bbe41b4	0.0058061723
26	0xbb254537	-0.0025218257
27	0xbc85480e	-0.01626971
28	0xbc362e00	-0.011119366
29	0x3b568c45	0.0032737416
30	0xbcde2b7d	-0.027120346
31	0x3b358404	0.0027697096
32	0xbc89ac5c	-0.01680582
33	0x3bec327b	0.007208166
34	0xbc1c3757	-0.009534678
35	0xbd04f916	-0.03246411
36	0xbcb73f02	-0.022368912
37	0x3c3e59a7	0.0116180545
38	0x3c4657fd	0.012105939
39	0x39b8a39d	0.00035217116
40	0x3cfeef0e	0.03111985
41	0x3c20ff73	0.009826529
42	0xbb1a7c8b	-0.0023572769
43	0xbb4692df	-0.0030299944
44	0x3d235d62	0.03988398
45	0x3b47db90	0.003049586
46	0xbc25628e	-0.010094298
47	0x3acc34be	0.0015579683
48	0xbcf3528d	-0.02970245
49	0xbc42ad53	-0.011882144
50	0xbb4f7e3a	-0.003166093
51	0xbc8bd666	-0.017070007
52	0x3cef0f4e	0.029182103
53	0xbc83a3ef	-0.01606938
54	0x3c8e3153	0.017357504
55	0xbd4981f8	-0.049196213
56	0x3b3170cc	0.0027075289
57	0xbc82d50c	-0.01597073
58	0xbc95afe7	-0.018272353
59	0x3c6c8f66	0.014438486
60	0xbc445d2c	-0.0119851045
61	0xbccc4250	-0.024933964
62	0x3c0bea4a	0.008539746
63	0xbc9296ec	-0.01789423
64	0xbd027cb7	-0.03185722
65	0x3c615c4d	0.013754916
66	0xbc6d6299	-0.01448884
67	0xbbd71479	-0.00656372
68	0x3a966433	0.0011473953
69	0xbc8b0728	-0.016971186
70	0xbca091a7	-0.019600702
71	0xbc9f7782	-0.019466165
72	0x3d05bee7	0.03265276
73	0xbcbb9b5a	-0.022901226
74	0x3c490a75	0.01227056
75	0x3965f686	0.00021930979
76	0xbd06e0b6	-0.032929145
77	0x3bbd5d97	0.005778979
78	0xbac3ba0a	-0.0014932763
79	0xba70bfab	-0.0009183834
80	0x3cbe1ea6	0.023207974
81	0x3acc3fd8	0.0015582992
82	0xbd194a2b	-0.037424248
83	0x3cad86e6	0.021182489
84	0xbc217d2e	-0.009856505
85	0x3bd4e931	0.006497525
86	0xbc5ecad5	-0.013598164
87	0xbcb493e9	-0.022043185
88	0xbb6a26ba	-0.003572865
89	0xbb02fb39	-0.0019986166
90	0x3c266bd0	0.01015754
91	0xbd4cb5e4	-0.049978152
92	0x3c2c621e	0.01052144
93	0x3a30e877	0.0006748507
94	0xbca4e803	-0.020130163
95	0xbaf23477	-0.001847877
96	0xbbb9ddf2	-0.00567221
97	0xbc54eca7	-0.012995875
98	0xbc99828e	-0.018739011
99	0x3b8247a8	0.0039758272
100	0xbcc79815	-0.02436451
101	0x3cc8ff7d	0.024535889
102	0xbc3b7219	-0.011440777
103	0xbb0b5802	-0.0021262174
104	0x3c2702ee	0.01019357
105	0x3d1263dc	0.035739765
106	0x3bf1bd18	0.007377278
107	0x3c5fcf21	0.013660223
108	0xbcf792e9	-0.03022142
109	0xbc6e20fb	-0.01453423
110	0x3d0a0d0a	0.03370384
111	0xbcdc6640	-0.026904225
112	0xbc6660fb	-0.014061208
113	0xbc48f096	-0.012264391
114	0xbd280089	-0.041016135
115	0x3c9a10ef	0.018806903
116	0x3c442338	0.011971287
117	0x3ae2d995	0.0017307276
118	0x3c8d3246	0.017235886
119	0x3bce0f5f	0.0062884535
120	0x3b9cbbef	0.0047831456
121	0x3c533f7f	0.012893557
122	0xbca17995	-0.019711295
123	0xbb46ce10	-0.0030335225
124	0x3bfc3e89	0.0076978845
125	0x3c8187c9	0.015811818
126	0x3cb9c655	0.02267758
127	0x3ca7f24b	0.020501276

network_body._body_endoder.seq_layers.2.weight f4 [128, 128]
0	0x3c209cab	0.009802978
1	0xbd8eae85	-0.06966881
2	0x3d8be64e	0.068310365
3	0x3df5bd4d	0.11998997
4	0xbe412d91	-0.18865038
5	0xbb461982	-0.0030227606
6	0xbd2b60c9	-0.04184035
7	0xbd8f9010	-0.070098996
8	0x3dea26cd	0.11433182
9	0x3db6a7ed	0.08918748
10	0xbcdd989c	-0.027050309
11	0x3e414798	0.18874967
12	0x3db51b9d	0.088431574
13	0x3e6eee6e	0.23333141
14	0xbd1c4771	-0.03815407
15	0x3e1ba0c9	0.15198053
16	0xbdefe0a3	-0.11712768
17	0xba3108d1	-0.0006753328
18	0xbdc40013	-0.09570327
19	0xbe13e5d6	-0.14443144
20	0xbda90c94	-0.08254352
21	0xbcda6860	-0.026661098
22	0xbdf2d8af	-0.11857735
23	0x3ce4738c	0.027887128
24	0xbda1b648	-0.078960955
25	0xbd8a2732	-0.06745757
26	0xbc873f72	-0.016509745
27	0xbd800737	-0.06251376
28	0xbde97049	-0.1139837
29	0xbd5e9a26	-0.054346226
30	0xbd599536	-0.053120814
31	0xbdef8972	-0.116961375
32	0xbe28cfdb	-0.1648554
33	0xbda2a8b4	-0.07942334
34	0x3b3d6fa5	0.0028905657
35	0xbd1d34da	-0.03838048
36	0xbd4ba3b2	-0.04971666
37	0xbccaa61b	-0.024737408
38	0x3da72f99	0.081633754
39	0xbdf6eae1	-0.12056518
40	0xbd8e2127	-0.06939917
41	0xbcefd518	-0.029276416
42	0xbd1e6e56	-0.038679443
43	0x3de655ec	0.11246857
44	0xbd934ce7	-0.07192402
45	0xbdde6f5f	-0.10861086
46	0xbdb3cfbe	-0.08779858
47	0xbd620bef	-0.055187162
48	0x3e4d9beb	0.20079009
49	0x3c9e76e3	0.019343799
50	0xbcea8d90	-0.028631955
51	0xbd9c3d28	-0.07628852
52	0x3e021b4a	0.12705722
53	0xbdbe3a52	-0.092884675
54	0x3b2646e2	0.002537184
55	0x3c6035b2	0.013684677
56	0xbb86c3b4	-0.004112685
57	0x3b2acec1	0.0026063176
58	0x3d8f91e5	0.07010249
59	0xbe22947e	-0.15876958
60	0x3dad50ab	0.08462652
61	0x3d5d29fb	0.053995114
62	0xbbb327a1	-0.0054673706
63	0x3dbd624b	0.092472635
64	0xbd20294a	-0.039101876
65	0x3df2d32a	0.118566826
66	0xbbb4c6a9	-0.005516846
67	0x3dc7b58b	0.097514234
68	0x3c3fb784	0.011701468
69	0xbcc346dc	-0.0238375
70	0x3c2ab1a1	0.010418327
71	0x3ddd72eb	0.108129345
72	0xbd242ee3	-0.040083777
73	0x3e0c175f	0.1368079
74	0xbd831fa1	-0.06402517
75	0xbcc86a81	-0.024464848
76	0x3d50f8af	0.051018413
77	0xbd1ccef4	-0.038283303
78	0xbdb5c411	-0.08875287
79	0x3db1b966	0.0867794
80	0xbce20075	-0.027588109
81	0x3d7139ab	0.058892887
82	0x3d24fa7d	0.040277947
83	0xbbeb1ce8	-0.0071750768
84	0xbdea8462	-0.11451031
85	0xbd96da7a	-0.0736589
86	0xbd32579a	-0.043540575
87	0xbdb4f509	-0.08835799
88	0xbcf742e9	-0.030183272
89	0x3d0a5247	0.033769872
90	0xbdad23ef	-0.084541194
91	0x3dbb6d47	0.091517024
92	0xbb7689ec	-0.003761883
93	0xbdead18c	-0.11465749
94	0xbca7c2b9	-0.020478593
95	0x3baa5402	0.005198003
96	0xbd295fb2	-0.041351028
97	0x3b308aa2	0.00269381
98	0x3dd23abe	0.102651104
99	0xbe1b472a	-0.15163866
100	0xbe2d2793	-0.16909628
101	0x3d2a2e1f	0.04154789
102	0xbdd9898a	-0.106219366
103	0xbd9bdee2	-0.07610871
104	0xbd70f409	-0.05882648
105	0x3d9c1016	0.07620256
106	0xbd21a919	-0.039467905
107	0xbc45f8c8	-0.01208324
108	0x3bd12777	0.0063828784
109	0xbdfa7806	-0.12229924
110	0x3e296304	0.16541678
111	0xbdb19e18	-0.08672732
112	0x3deb373c	0.114851445
113	0x3d9b9428	0.07596618
114	0x3dc58dd3	0.096461914
115	0xbdb3cf20	-0.0877974
116	0x3cd888df	0.026432453
117	0x3dbb45cd	0.09144173
118	0xbb1c8368	-0.0023882035
119	0x3cd4cd0d	0.025976682
120	0x3cb4172f	0.021983711
121	0xbd03cff5	-0.032180745
122	0x3d4caf95	0.049972136
123	0x3b8fa54a	0.0043837177
124	0xbd5a3761	-0.05327547
125	0xbce94cf6	-0.02847908
126	0x3dbd9584	0.092570335
127	0xbc09a4d0	-0.008401111
128	0x3e2a9ba3	0.16660933
129	0x3e12e4f9	0.14345159
130	0x3d753ed1	0.05987436
131	0xbe13e298	-0.14441907
132	0x3d48de08	0.04903987
133	0xbdf28ddd	-0.118434645
134	0x3d425f9b	0.047454458
135	0xbd8e5495	-0.069497265
136	0x3d0230ed	0.03178494
137	0xbd7bc5d4	-0.06146796
138	0x3c21ab25	0.009867464
139	0xbdae1687	-0.085003905
140	0x3e1fe3ed	0.1561429
141	0x3e15ef80	0.14642143
142	0xbad35182	-0.0016122314
143	0x3b309a32	0.0026947376
144	0xbe896e90	-0.26842165
145	0xbd5fed90	-0.054669917
146	0xbc9ce013	-0.019149816
147	0xbdaebf8f	-0.08532631
148	0x3e28b513	0.16475324
149	0xba85523f	-0.0010171606
150	0xbdc6af82	-0.09701444
151	0xbd9938ce	-0.07481538
152	0x3d14d574	0.036336377
153	0x3e0d880f	0.13821433
154	0xbd3b1225	-0.0456716
155	0xbb837608	-0.004011873
156	0xbd478339	-0.048709128
157	0xbda2f99c	-0.079577655
158	0xbc1dcc55	-0.009631236
159	0xbc95422b	-0.018220028
160	0x3dcee0cd	0.10101471
161	0x3e0566b8	0.13027465
162	0x3c6e4113	0.014541882
163	0x3e02a311	0.12757517
164	0x3e364e90	0.17803407
165	0x3c87ec99	0.01659231
166	0xbc97b9e5	-0.018521259
167	0x3d638914	0.05555065
168	0x3d926eea	0.071500614
169	0xbd8af115	-0.06784264
170	0x3db9289a	0.09040947
171	0x3e2414c0	0.1602354
172	0x3d572108	0.052521735
173	0x3e575272	0.21027544
174	0xbe191fa2	-0.14953473
175	0xbc859ed4	-0.016311087
176	0xba8c460f	-0.0010702031
177	0xbd513053	-0.051071476
178	0xbbee8f2b	-0.0072802505
179	0x3d5336da	0.051565982
180	0xbd60fc7c	-0.054928288
181	0x3d7522c3	0.059847604
182	0x3b1b243a	0.0023672716
183	0xbde7f994	-0.113269
184	0xbcd874fe	-0.026422974
185	0xbdae5ed4	-0.08514181
186	0xbe4edcd3	-0.20201425
187	0x3d196b36	0.03745576
188	0xbd798afb	-0.060923558
189	0xbe0d4c9c	-0.13798755
190	0x3d3afcbf	0.045651194
191	0x3df7c773	0.12098589
192	0xbda82cf6	-0.082117006
193	0x3de461b4	0.11151448
194	0xbc11dfa2	-0.008903416
195	0x3c946b21	0.01811749
196	0xbdf17c40	-0.11791277
197	0x3db6e603	0.0893059
198	0xbda7ed7d	-0.08199594
199	0xbd7e7d88	-0.062131435
200	0xbe0430f5	-0.129093
201	0x3a65e0db	0.0008769163
202	0x3d1804a8	0.037113816
203	0xbe4e36e7	-0.20138131
204	0x3e8f14b3	0.2794548
205	0xbd0b95cd	-0.034078408
206	0xbb8d0dec	-0.004304638
207	0xbe21d3d0	-0.15803456
208	0xbda40fd5	-0.08010832
209	0xba6874e0	-0.00088675134
210	0xbd264991	-0.040597502
211	0x3cef111c	0.029182963
212	0x3e083417	0.1330112
213	0xbdf39370	-0.11893356
214	0x3e00b631	0.125695
215	0xbe5147c5	-0.20437534
216	0xbc1abf80	-0.009445071
217	0x3dcf4f15	0.101225056
218	0x3d5f04eb	0.05444805
219	0xbe184c4c	-0.14872855
220	0x3def9b54	0.11699548
221	0x3dcf15d4	0.10111585
222	0xbdfa5ad5	-0.12224356
223	0x3cdf2503	0.027239328
224	0xbd63229c	-0.055452928
225	0x3c640165	0.013916348
226	0xbd8e7524	-0.069559366
227	0x3d4e832a	0.050418057
228	0xbdc8a3b8	-0.09796852
229	0x3bb4f512	0.0055223787
230	0xbe129338	-0.14313972
231	0xbc531ef6	-0.0128858
232	0x3d55b3f5	0.052173574
233	0x3c8ea8dd	0.017414505
234	0xbe1da6e7	-0.153957
235	0x3e5835e4	0.21114308
236	0xbd9238ea	-0.07139762
237	0xbd8cc6b2	-0.068738356
238	0x3e136a57	0.14396034
239	0xbdb54a12	-0.088520184
240	0x3cf00d28	0.029303148
241	0x3d3effc0	0.04663062
242	0x3d708eb5	0.058729846
243	0xbe526ea1	-0.20550014
244	0x3db30ba0	0.08742452
245	0xbe06fbe0	-0.1318202
246	0xbe25df7a	-0.16198531
247	0x3e2eb085	0.17059524
248	0x3e1c0467	0.15236054
249	0xbd8f8fb8	-0.07009834
250	0xbdce436e	-0.10071455
251	0xbe068a97	-0.13138805
252	0xbd42b301	-0.047533993
253	0x3d18f896	0.037346445
254	0x3c302aac	0.010752361
255	0x3dfca896	0.12336843

network_body._body_endoder.seq_layers.2.bias f4 [128]
0	0xbcbfe907	-0.023426546
1	0x3bf6a385	0.0075268173
2	0x3cad9b97	0.021192355
3	0xb938cd16	-0.00017624008
4	0xbba3443a	-0.0049824985
5	0x3ca7f85b	0.020504167
6	0xbcb19d86	-0.021681558
7	0xbc8c1132	-0.017098043
8	0xbbc7f76c	-0.006102493
9	0x3c973d2f	0.018461792
10	0x3c395d1e	0.011313705
11	0x3a4b4dd0	0.00077554304
12	0x3c2a9fb1	0.01041405
13	0x3c4a6a71	0.012354479
14	0x3b27bc10	0.0025594272
15	0xbc8159e1	-0.015789928
16	0xbb4efb4b	-0.0031582888
17	0x3cc5fb8a	0.024167795
18	0x3c664c9c	0.014056351
19	0x3cc6032c	0.024171434
20	0x3cc0d146	0.02353729
21	0x3c5567b7	0.013025216
22	0xba849c1c	-0.0010117325
23	0x3b3a6542	0.0028441702
24	0xbade0ead	-0.001694163
25	0xbbeef8f5	-0.0072928616
26	0xbbe6a024	-0.007038133
27	0xba89c882	-0.0010512026
28	0x3c161c51	0.009162025
29	0xb9116442	-0.00013865627
30	0x3ca71bbe	0.02039897
31	0xbcf497de	-0.029857572
32	0xba2adf5f	-0.000651827
33	0xbb8180c0	-0.003952116
34	0x3cdef043	0.027214175
35	0xbc8c3c20	-0.017118514
36	0xbc5fb919	-0.013654971
37	0x3aa10ffd	0.001228809
38	0x3d027411	0.03184897
39	0xbc8c3ba3	-0.01711828
40	0xbac43870	-0.0014970433
41	0x3cd428b7	0.02589832
42	0x3ce5cd69	0.028052049
43	0xbd251931	-0.040307228
44	0x3d0284b3	0.031864833
45	0xbcda9443	-0.026682025
46	0x3d062707	0.032752063
47	0x3c80cc13	0.01572231
48	0x3c049a19	0.00809338
49	0x3b756c27	0.0037448497
50	0x3c98bd3b	0.01864492
51	0xbbdf206e	-0.006809286
52	0xbbbea584	-0.005818071
53	0xbb30cf7e	-0.0026979144
54	0x3b82ab7d	0.003987728
55	0xbccc11bd	-0.024910802
56	0xbb831de5	-0.0040013664
57	0xbc920298	-0.017823502
58	0x3bd637ca	0.0065374123
59	0x3c55d2bb	0.01305073
60	0xb9fbdfdb	-0.00048041236
61	0x3bbde421	0.0057950174
62	0xbc86a5bb	-0.016436448
63	0x3ce7d0c0	0.028297782
64	0xbb3a4603	-0.0028423078
65	0xbc4d116f	-0.0125163635
66	0xbd10df19	-0.035369013
67	0xbc003a8a	-0.007826457
68	0xbb064f4f	-0.002049405
69	0x3cfabbd3	0.03060714
70	0x3cc97ebc	0.024596564
71	0x3c96dccd	0.018415833
72	0xbd038a6c	-0.03211443
73	0x3b155419	0.0022785722
74	0xbcde5dbd	-0.027144307
75	0xbbc0ff8b	-0.005889838
76	0x3be2130b	0.0068992428
77	0xbb2e8cf7	-0.0026634315
78	0xbc193e8c	-0.009353291
79	0x3c7426e2	0.0149018485
80	0x3cad4173	0.021149373
81	0x3b365627	0.0027822347
82	0x3b385369	0.0028125888
83	0x3c9e933e	0.01935732
84	0xbc104bec	-0.008807164
85	0x3c4eadee	0.01261471
86	0x3cb2993e	0.021801587
87	0xbbf313f8	-0.007418152
88	0x3c1190e3	0.008884641
89	0x3bb6a9ad	0.005574426
90	0x3d128a2f	0.035776313
91	0xbcf8e8f8	-0.030384526
92	0x3cc45925	0.023968289
93	0x3c26caf4	0.010180224
94	0xbad670de	-0.0016360541
95	0xbac9e5e6	-0.0015403598
96	0xbc8887e0	-0.016666353
97	0x3cb10764	0.02160997
98	0x3ce45be4	0.027875848
99	0x3bf5bdb4	0.007499421
100	0xbc170ed6	-0.009219846
101	0xbcac66e8	-0.021045163
102	0x3c98aad6	0.018636148
103	0x3d286bc4	0.0411184
104	0x3c82f9e0	0.01598829
105	0x3c2c7f62	0.010528417
106	0xbc2b7093	-0.0104638515
107	0xbc821045	-0.015876899
108	0x3c20d20c	0.009815704
109	0x3cf930f8	0.030418858
110	0x3a4d52ee	0.0007832487
111	0xbbefdab2	-0.0073197717
112	0xbbcedf1f	-0.006313219
113	0xbd46bf2f	-0.04852217
114	0xba996ca7	-0.0011705355
115	0xbbba2419	-0.0056805727
116	0x3bd18eef	0.006395213
117	0xbc75918a	-0.0149883125
118	0x3cafe184	0.021469839
119	0xbc2367e3	-0.009973499
120	0x3cf6cf0b	0.030128023
121	0xbbe732c1	-0.007055611
122	0x3cc1852d	0.023623073
123	0xbc468032	-0.012115525
124	0xbb2f1912	-0.0026717824
125	0xbc107895	-0.0088178115
126	0x396acec1	0.00022393001
127	0xbbd65074	-0.0065403525

action_model._discrete_distribution.branches.0.weight f4 [2, 128]
0	0xbc49ae3d	-0.012309608
1	0x3c693c74	0.014235605
2	0xbd0c32b3	-0.034228038
3	0xbc0d7f37	-0.008636287
4	0xbcc89016	-0.024482768
5	0xbc7630e1	-0.015026302
6	0xbcc46454	-0.023973621
7	0x3d112715	0.035437662
8	0xbc9e3598	-0.019312665
9	0xbc8e4f1f	-0.017371712
10	0xbcfae17c	-0.030625097
11	0x3cb316f3	0.021861529
12	0xbcbe3b36	-0.023221593
13	0x3cc52c9d	0.024069125
14	0xbb37cb49	-0.0028044751
15	0xbcbf8326	-0.023377966
16	0xbc9d946c	-0.019235812
17	0xbd167da9	-0.036740933
18	0xbd03d237	-0.0321829
19	0xbd23ef48	-0.04002312
20	0xbc3b9ccf	-0.01145096
21	0xbc0a9149	-0.00845749
22	0x3d238360	0.03992021
23	0xbc3aaec7	-0.011394209
24	0x3c2da27a	0.010597819
25	0xbc5d2122	-0.013496669
26	0x3b63008f	0.0034637784
27	0xbad5e918	-0.0016320078
28	0xbd03b004	-0.032150283
29	0xbabbe3e1	-0.0014334881
30	0x3c98a6c0	0.0186342
31	0xbb97b281	-0.0046294336
32	0x3b66fb4c	0.0035245
33	0x3b8e07b0	0.0043344125
34	0xbc5a84d1	-0.01333733
35	0x3c2411c7	0.010014004
36	0x3ca7e060	0.020492733
37	0xbc36c7d7	-0.011156044
38	0xbd09e7d8	-0.03366837
39	0x3bc7f39a	0.0061020376
40	0x3bf4ad8b	0.007466977
41	0xbbfd75ef	-0.007735006
42	0x3be84f02	0.0070894966
43	0x3c6d8597	0.014497182
44	0xbcbe2084	-0.023208864
45	0xbbbb18c5	-0.00570974
46	0xb9f3ea03	-0.00046522924
47	0x3c3ffa82	0.011717441
48	0xbd1d9961	-0.03847635
49	0x3b60e884	0.0034318278
50	0xbcd1c887	-0.025608314
51	0x3c6ac945	0.014330213
52	0x3ccbc622	0.02487475
53	0x3bea4497	0.00714929
54	0xbcbc7d3b	-0.023008933
55	0x3c62b03e	0.013835965
56	0x3c306f2f	0.010768696
57	0x3b8fae64	0.0043848027
58	0x3d144fdc	0.036208972
59	0x3bb0b3db	0.005392534
60	0x3c907003	0.017631536
61	0xbc1829eb	-0.009287338
62	0x3b8358cb	0.0040083877
63	0xbb7ca264	-0.003854894
64	0xbcbf2ddf	-0.023337303
65	0x3b5d5332	0.0033771512
66	0x3d1216c8	0.035666257
67	0x3b833594	0.0040041897
68	0x3b2b58fe	0.0026145573
69	0xbc0fc806	-0.008775717
70	0x3d3156df	0.043295737
71	0x3b1fe193	0.0024395927
72	0x3be2c86d	0.0069208653
73	0xbc84b0fd	-0.016197676
74	0xbb9873a7	-0.0046524587
75	0xbcab25af	-0.020891992
76	0xbd204fd8	-0.039138645
77	0x3cb7161b	0.022349408
78	0xbcf7773d	-0.030208224
79	0xbc7338ba	-0.014845068
80	0x3c935404	0.017984398
81	0xbd2c8022	-0.042114384
82	0xbc0801c4	-0.008301202
83	0xbd7fa4a3	-0.06241287
84	0x3bc3726b	0.0059645674
85	0x3d267f16	0.040648542
86	0xbd19546f	-0.037434038
87	0xbb4ce28c	-0.0031262962
88	0xbc9df4c6	-0.019281756
89	0xbba44acb	-0.005013799
90	0xbc32f1ca	-0.010921905
91	0x3c347e15	0.011016388
92	0xbcbf1cec	-0.02332922
93	0x3cfdd1ff	0.030983923
94	0xbcbb01d0	-0.022828013
95	0xbc3a242d	-0.011361164
96	0x3d475ebe	0.048674338
97	0xbc87ae5f	-0.016562639
98	0xbd1d5963	-0.038415324
99	0x3d4b5118	0.049637884
100	0xbb5e9bc8	-0.0033967365
101	0xbc0754a5	-0.008259927
102	0xbd344cb2	-0.044018455
103	0xbd12c747	-0.035834577
104	0x3d1507fe	0.036384575
105	0x3d286290	0.04110962
106	0x3b17afa4	0.0023145461
107	0x3d1d6290	0.038424075
108	0x3d27eff7	0.041000333
109	0x3b8fcdfe	0.00438857
110	0xba0c6c4c	-0.00053567137
111	0x3b3508fe	0.0027623768
112	0x3c024fee	0.007953627
113	0xbb839f8a	-0.0040168213
114	0xbaa1e208	-0.0012350688
115	0x3b8e1904	0.004336478
116	0xbc186e7b	-0.009303684
117	0xbca0ced0	-0.019629866
118	0x3cddf172	0.02709267
119	0xbc45fc78	-0.012084119
120	0xbcd14d78	-0.025549635
121	0x3cefbca0	0.029264748
122	0x3d08830c	0.0333281
123	0xb9a08799	-0.00030618606
124	0x3d3acb1f	0.045603868
125	0x3bc5abff	0.0060324664
126	0xbcdeb8b4	-0.027187683
127	0x3c4e8822	0.012605699
128	0x3aeea217	0.0018206266
129	0xbc10793e	-0.008817969
130	0x3cc927bd	0.024555082
131	0x3aa35e5e	0.0012464037
132	0x3c0093e0	0.007847756
133	0x3ca47429	0.02007492
134	0x3bd03d43	0.006354959
135	0xbd06a319	-0.032870386
136	0xbcd19938	-0.025585756
137	0x3aca33fc	0.001542687
138	0x3cf2b70b	0.029628297
139	0xbc3f2aac	-0.011667889
140	0x3c940a25	0.018071244
141	0xbc7d3fc1	-0.015457095
142	0x3cca1a48	0.024670735
143	0x3c65564d	0.0139976265
144	0x3cb6fd03	0.022337442
145	0x3d0e9935	0.03481408
146	0x3d38ef07	0.04514983
147	0x3cfcc2b1	0.030854555
148	0x3b30d7de	0.0026984136
149	0x3c9f80c5	0.019470582
150	0xbca2569d	-0.019816691
151	0x3c9308d9	0.017948555
152	0x3c92e827	0.017932964
153	0xbc889b25	-0.016675541
154	0xbb4c452b	-0.0031169157
155	0xbbd33356	-0.0064453287
156	0x3c8d3e0b	0.017241498
157	0x3c17eda9	0.009272971
158	0xbbaa331a	-0.00519408
159	0x3960bc9f	0.00021432572
160	0x3b9c561e	0.004771008
161	0x3c39c7b7	0.01133912
162	0x3c83d7f3	0.016094184
163	0xbb80a717	-0.0039261687
164	0xbcb8a2ce	-0.022538569
165	0xbc960e83	-0.018317467
166	0x3d13825c	0.036012992
167	0xbc9081d8	-0.01764004
168	0xbb7fb803	-0.0039019592
169	0x3b90c6a3	0.0044182106
170	0xbccca815	-0.024982492
171	0xbcbd02db	-0.02307265
172	0x3ce6ac00	0.028158188
173	0xbc3dacf9	-0.011576884
174	0x3b8b91d8	0.0042593293
175	0xbb9d47d3	-0.004799822
176	0x3ccc3d12	0.024931464
177	0x3c95ca3e	0.018284913
178	0x3cfe97da	0.031078268
179	0xbc786ab4	-0.015162159
180	0xbd1a7c1a	-0.03771601
181	0xbc29b941	-0.010359109
182	0x3c18d4bf	0.009328066
183	0xbcee0d06	-0.029058944
184	0xbc7808cd	-0.015138817
185	0xbc8a25e5	-0.016863773
186	0xbc38bced	-0.011275512
187	0xbc1c90f1	-0.009556041
188	0xbd0d1105	-0.03444006
189	0x3c86fdc8	0.016478434
190	0xbcaf273d	-0.021381015
191	0x39845006	0.00025236624
192	0x3cb9a72c	0.022662722
193	0x3b7dcaad	0.003872554
194	0xbc65119c	-0.013981249
195	0x3b35787a	0.0027690218
196	0x3c388308	0.011261709
197	0x3c36d71d	0.011159685
198	0xbd4e8453	-0.050419163
199	0xbcdd2956	-0.02699725
200	0xbc0580a9	-0.008148351
201	0x3cd87714	0.026423968
202	0x3a422277	0.00074056484
203	0x3c8375d1	0.01604739
204	0x3cc95e28	0.02458103
205	0xbcf90752	-0.030398998
206	0x3c66898b	0.014070879
207	0x3b382ce7	0.0028102936
208	0xbc202a48	-0.009775706
209	0x3d2223ef	0.03958505
210	0x3c1bab1b	0.009501244
211	0x3d83a3d4	0.06427732
212	0xbcf495ad	-0.029856527
213	0xbd28cd82	-0.041211613
214	0x3cdfca14	0.027318038
215	0xbad26d80	-0.0016054362
216	0x3d143d0c	0.03619103
217	0xbc0734d8	-0.008252345
218	0x3c3e5c9d	0.01161876
219	0xbc28f868	-0.010313131
220	0x3c9b49c0	0.018956065
221	0xbc63ebb1	-0.013911174
222	0x3bb606c6	0.0055550067
223	0x3b722eae	0.0036954093
224	0xbd5d221f	-0.05398762
225	0x3c53d9bc	0.01293033
226	0x3d1cadc4	0.038251653
227	0xbd2c2b4d	-0.042033482
228	0x3c716ddd	0.014735666
229	0xbca373c7	-0.019952668
230	0x3d5e21ae	0.05423134
231	0x3d11c928	0.03559223
232	0xbcb430ea	-0.02199598
233	0xbce944b3	-0.028475141
234	0x3c43e12b	0.01195554
235	0xbcd89aaa	-0.026440937
236	0xbd02a655	-0.031896908
237	0x3cb0b825	0.021572182
238	0xbbbc8849	-0.005753551
239	0x3bd2c3aa	0.0064320164
240	0x3b1af0ba	0.002364202
241	0x3b33aa45	0.002741472
242	0x3c309db9	0.0107797915
243	0xbcc44c5e	-0.023962196
244	0x3b6da751	0.0036263058
245	0x3ad58b6d	0.0016292162
246	0xbcaeffd8	-0.02136223
247	0x3c8adac9	0.016950028
248	0x3cc3f0ee	0.023918595
249	0xbcd69ab1	-0.02619681
250	0xbc683037	-0.014171652
251	0x3cb80f6d	0.022468293
252	0xbd628dea	-0.05531112
253	0xbcca9c6e	-0.024732795
254	0x3d05f344	0.0327027
255	0x3c6c7d66	0.014434194

action_model._discrete_distribution.branches.0.bias f4 [2]
0	0xbc9c1665	-0.019053647
1	0x3c9c1664	0.019053645

action_model._discrete_distribution.branches.1.weight f4 [3, 128]
0	0xbc5ee857	-0.013605199
1	0x3c019508	0.007909067
2	0xbb9257bd	-0.0044660256
3	0xbc89c393	-0.01681689
4	0xbc08697c	-0.008325931
5	0xbd28780b	-0.041130107
6	0x3cf5068f	0.029910354
7	0x3b94e386	0.0045437245
8	0x3d397e91	0.04528672
9	0xbd4ccb0b	-0.049998324
10	0x3ca8fa25	0.02062709
11	0x3aed992e	0.0018127316
12	0x3c72bb30	0.014815137
13	0xbd0387e9	-0.032112036
14	0xbc9a16c2	-0.01880968
15	0x3d1cd798	0.038291544
16	0x3c8a4ffc	0.016883843
17	0xbca1f0e2	-0.019768182
18	0xbc9f1631	-0.019419761
19	0xbce40e02	-0.02783871
20	0xbd83d568	-0.064371884
21	0xbcb1faae	-0.021725979
22	0x3af426a0	0.0018627234
23	0x3c261638	0.010137133
24	0xbc86bbd8	-0.016446993
25	0xbc9434bf	-0.018091558
26	0x3c448ad4	0.01199599
27	0xbc6bc4f6	-0.014390221
28	0xbc7d26cb	-0.0154511435
29	0xbc18e544	-0.009332005
30	0xbd164b78	-0.036693066
31	0xbb46ff5a	-0.0030364604
32	0x37ec3a25	2.8160468e-05
33	0x3c26806d	0.010162455
34	0xbd30deb4	-0.043181136
35	0x3c0fffd9	0.008789026
36	0x3d696599	0.056981657
37	0x3c91c155	0.017792383
38	0xbd292eb4	-0.041304305
39	0x3b935710	0.0044964626
40	0x3c3f890b	0.011690388
41	0x3b3682d3	0.0027848973
42	0xbd5a1b51	-0.053248707
43	0x3b222ad0	0.0024744757
44	0xbcb48e7e	-0.022040602
45	0x3bb90f0b	0.005647545
46	0x3bab0165	0.005218672
47	0xbd2715e0	-0.040792346
48	0xbaf14647	-0.0018407785
49	0xbc15a232	-0.009132909
50	0xbcafcf05	-0.02146102
51	0xbc3931ca	-0.011303375
52	0x3d019799	0.031638715
53	0x3bf62e9b	0.00751288
54	0x3cce9e62	0.025222007
55	0xbb9e25ab	-0.0048262677
56	0x3cc786d6	0.024356287
57	0xbc100c9e	-0.008792071
58	0xbd4f4073	-0.050598573
59	0xbd2986f3	-0.041388463
60	0x3d54a446	0.051914476
61	0xba3e8cf2	-0.00072689273
62	0x3d162784	0.03665878
63	0xbd360746	-0.04444053
64	0xbb9096b4	-0.0044124965
65	0x3d1165d9	0.03549752
66	0x3d147a6a	0.036249556
67	0xbba1239f	-0.0049175764
68	0x3bad5e18	0.005290758
69	0xbc8be067	-0.017074777
70	0xbd3d1b86	-0.046168827
71	0xbd438bd8	-0.047740787
72	0x3b3b9e32	0.0028628227
73	0xbc8325d3	-0.016009247
74	0x3cb2c69d	0.021823222
75	0x3d01ea21	0.031717423
76	0x3cba36ee	0.02273127
77	0xbce06db9	-0.02739607
78	0x3add93b2	0.0016904979
79	0xbcb24780	-0.02176261
80	0xbd5600bb	-0.05224679
81	0x3cc00903	0.023441797
82	0x3d74e7b3	0.059791278
83	0x3ccbc59a	0.024874497
84	0xbc222c4a	-0.009898255
85	0xbcaa7e19	-0.020812081
86	0xbcc9c37b	-0.024629345
87	0xbce271af	-0.0276421
88	0xbaa5c4af	-0.0012647117
89	0xbc85c5c1	-0.016329648
90	0xbce6a7a5	-0.028156111
91	0x3cf0ef82	0.029411081
92	0xbd0c176e	-0.03420203
93	0xbd3980e4	-0.045288935
94	0xbc91b775	-0.017787674
95	0x3c22078d	0.009889496
96	0x3cc25e80	0.023726702
97	0xbcc6db05	-0.024274359
98	0x3d8db175	0.06918613
99	0x3b5fe9e1	0.0034166502
100	0xbb8757b5	-0.0041303285
101	0xb9521ba1	-0.00020037453
102	0x3d1852da	0.03718839
103	0xbbd768c8	-0.00657377
104	0x3c94388b	0.018093368
105	0xbcd9192a	-0.026501257
106	0x3c940ab1	0.018071504
107	0x3d41b6c4	0.04729344
108	0xbc84ef70	-0.016227454
109	0xbd8770d1	-0.06613315
110	0xbca5ea2e	-0.020253267
111	0xbba11b45	-0.004916581
112	0x3d39c77d	0.045356262
113	0x3cb8b9b5	0.02254949
114	0xbb80ce5f	-0.0039308514
115	0x3cada884	0.021198519
116	0x3d061a3e	0.03273987
117	0x3d4018d8	0.046898693
118	0xbce94d20	-0.028479159
119	0x3c948592	0.018130098
120	0xbd3b62fa	-0.04574869
121	0xba61935b	-0.00086050265
122	0xbd2765b2	-0.04086847
123	0xbc2b8b49	-0.01047022
124	0x3b60b364	0.0034286613
125	0x3c0e7711	0.00869538
126	0x3bb87ab2	0.005629861
127	0x3ce87d50	0.028380066
128	0x3be77ae6	0.007064211
129	0xbd016e79	-0.031599496
130	0xbc303148	-0.010753937
131	0x3d00fc65	0.031490702
132	0x3ce4a417	0.027910275
133	0x3ba0ac9d	0.0049033896
134	0x3c8b5bc7	0.017011536
135	0xbccee2d3	-0.025254643
136	0x3ca2e2ce	0.01988354
137	0x3cfc00e9	0.030762153
138	0xbc8638ea	-0.01638456
139	0x3cc0776b	0.023494443
140	0x3c8f5544	0.017496713
141	0x3c570278	0.013123147
142	0xbcd10718	-0.025516078
143	0xbc682c5d	-0.014170733
144	0x3acf8dd7	0.0015835118
145	0x3ccebd48	0.02523674
146	0x3c9f2c96	0.01943044
147	0x3d3b91dd	0.045793403
148	0x3c16d62f	0.009206339
149	0x389c292e	7.44633e-05
150	0xbc38a26d	-0.011269194
151	0x3d16bc12	0.03680045
152	0x3bbe6e2a	0.0058114724
153	0x3c4b2466	0.012398815
154	0x3c311202	0.010807516
155	0xbd441d2d	-0.047879387
156	0xbbc23bba	-0.00592753
157	0x3cf54e1f	0.029944478
158	0x3d1b9dea	0.037992395
159	0x3bd8127b	0.006594
160	0xbc026662	-0.00795898
161	0x3d18a5df	0.037267562
162	0x3d31b5b3	0.043386173
163	0xbd2a6248	-0.041597635
164	0xbcaf06b0	-0.021365494
165	0x3d03ee8c	0.032209918
166	0x3cf34fd9	0.02970116
167	0xbce497b5	-0.02790437
168	0x3d348463	0.044071566
169	0x3d184db5	0.037183482
170	0x3c34b921	0.011030466
171	0xbc9bc358	-0.019014046
172	0x3d787d3f	0.06066632
173	0xbc8e179f	-0.017345248
174	0xbd30ccab	-0.043163937
175	0x3ca58f57	0.020209951
176	0xbcb7f9ea	-0.022458035
177	0x3d11151f	0.035420533
178	0x3d0d8cad	0.034557987
179	0xbc76b0e6	-0.015056824
180	0xbd805ce5	-0.06267718
181	0xbb5b3755	-0.0033449729
182	0x3ba537a8	0.005042035
183	0xbb930168	-0.0044862516
184	0xbd0e4dae	-0.03474205
185	0x3ca74d19	0.020422505
186	0x3cb2a7d6	0.021808546
187	0x3cd17b05	0.025571356
188	0x3cec1652	0.028819237
189	0x3cb87579	0.022516953
190	0xbd68819e	-0.056764238
191	0x3d462cfd	0.048382748
192	0xbce53a89	-0.027982013
193	0xbc3b9025	-0.011447941
194	0x3acd9040	0.0015683249
195	0xbc758fb9	-0.014987879
196	0x3c38a320	0.011269361
197	0x3d4ac76f	0.0495066
198	0xbb14cc05	-0.0022704613
199	0x3b50e5a4	0.0031875158
200	0x3bb9bf8d	0.0056685866
201	0xbbc3ae61	-0.0059717153
202	0xbc86f877	-0.0164759
203	0x3b27e40a	0.00256181
204	0x3cab6ded	0.02092644
205	0x3b20f705	0.0024561298
206	0xbc563ce9	-0.013076046
207	0x3d22dec6	0.039763235
208	0x3d34570c	0.044028327
209	0xbc2b7b59	-0.01046642
210	0xbca3bfd8	-0.01998894
211	0xbce7199a	-0.02821045
212	0x3cb0876c	0.02154895
213	0xbd11a943	-0.03556181
214	0x3c49699c	0.012293246
215	0xbc9888a3	-0.018619841
216	0x3bef54db	0.0073038167
217	0x3d4fdb72	0.05074639
218	0xbd296d60	-0.041364074
219	0xbc9056a6	-0.017619442
220	0x3d073c66	0.033016585
221	0xbcfd8245	-0.030945906
222	0xbbc3fc93	-0.005981037
223	0xbc6188d7	-0.013765535
224	0xbd046e5b	-0.032331806
225	0x3cd8f5d8	0.026484415
226	0xbd77c55a	-0.060490943
227	0xbd0b5616	-0.034017645
228	0x3c28e1a6	0.010307705
229	0x3b622af9	0.0034510477
230	0xbd0048e5	-0.031319518
231	0xbcea6bf8	-0.028615937
232	0xbd968e95	-0.07351414
233	0x3d120906	0.035653137
234	0x3b86c44e	0.004112757
235	0xbd2d3510	-0.042286932
236	0x3d24fd1a	0.04028044
237	0x3cb9cf77	0.022681935
238	0x3c8c0daa	0.01709636
239	0x3c7be231	0.015373752
240	0x3c3c4160	0.011490196
241	0xbcc8439c	-0.024446301
242	0x3c924b2f	0.017858116
243	0xbbe598c8	-0.0070067383
244	0xbd929fdb	-0.07159396
245	0xbd16f617	-0.036855783
246	0x39dd2655	0.00042180964
247	0xbc1b02c1	-0.009461106
248	0x3c80a2ec	0.015702687
249	0x3c268156	0.010162672
250	0xbbeabbdc	-0.007163508
251	0x3cbddc66	0.023176383
252	0x3ccdb4b3	0.025110578
253	0x3c51e7cf	0.012811615
254	0xbd11f530	-0.03563422
255	0x3cebe8e7	0.02879758

action_model._discrete_distribution.branches.1.bias f4 [3]
0	0xbc9e6908	-0.019337192
1	0x3c07f398	0.008297823
2	0x3c4995fb	0.012303825

action_model._discrete_distribution.branches.2.weight f4 [1, 128]
0	0x3bd66a0d	0.006543404
1	0xbc8f82ce	-0.017518427
2	0x3bc3572b	0.005961319
3	0x3b4568b4	0.0030122222
4	0x3b7aee5a	0.0038289041
5	0xb8c1b9cb	-9.237564e-05
6	0xbb9b2099	-0.0047341106
7	0xbc79b2bd	-0.015240368
8	0x3c84853f	0.016176818
9	0xbb03b63f	-0.002009764
10	0x3bff6e12	0.007795104
11	0x3c8c5e13	0.017134702
12	0x3c103d09	0.008803614
13	0xbbc3ef48	-0.0059794523
14	0xbba9bc22	-0.005179898
15	0x3ae47ca5	0.0017432166
16	0xbc29b69b	-0.010358478
17	0x3c09d56d	0.008412701
18	0x3bbd8a7a	0.00578433
19	0x3c50b545	0.0127385305
20	0xbae33da5	-0.0017337097
21	0xbc12f0eb	-0.008968572
22	0xba929855	-0.0011184314
23	0x3b45081b	0.0030064646
24	0xbc5b58b0	-0.013387844
25	0xbb517993	-0.0031963333
26	0x3c2b770b	0.010465394
27	0xbb034cd3	-0.0020034804
28	0xbc02a795	-0.007974525
29	0xbc4f90aa	-0.012668768
30	0x3c7412f7	0.0148971
31	0x3c0ce93a	0.008600527
32	0x3b93458f	0.004494376
33	0xbbb3351a	-0.0054689767
34	0x3b93c370	0.004509382
35	0xba967880	-0.0011480004
36	0xbbe22db8	-0.0069024228
37	0xbc95d584	-0.018290289
38	0x3c432b50	0.011912182
39	0xbb9666b3	-0.0045898794
40	0xbc33225e	-0.010933487
41	0xbab40a93	-0.0013736062
42	0xbc521953	-0.012823421
43	0x3c8bae71	0.017050954
44	0xba57dcad	-0.00082344824
45	0x3c01860f	0.007905497
46	0xbc7aac3f	-0.015299856
47	0xbc298434	-0.010346461
48	0xbc9b8226	-0.018982958
49	0x3b307e99	0.0026930927
50	0x3b9894a5	0.0046563917
51	0xb98679c1	-0.00025649185
52	0xbc2e2098	-0.010627888
53	0xbbbcc64b	-0.005760943
54	0xbba69d8b	-0.0050846986
55	0x3b58ac47	0.003306167
56	0xbc456e5f	-0.01205024
57	0x3a398ce1	0.00070781825
58	0x3c1fc543	0.009751621
59	0x3bb50691	0.0055244644
60	0xbbc71140	-0.0060750544
61	0x397becca	0.00024025436
62	0xbc88cf85	-0.016700516
63	0xbb1652db	-0.002293757
64	0x3bc586fb	0.006028054
65	0xbb579cf8	-0.0032899957
66	0x3bd82e70	0.0065973327
67	0xbc0087ba	-0.00784486
68	0x3bbe8529	0.005814214
69	0xb98148f7	-0.0002465916
70	0xbbb17a70	-0.005416207
71	0xba9c6dd3	-0.0011934586
72	0x3cb7f265	0.02245445
73	0xbc20d3a5	-0.009816085
74	0xbc5c1d13	-0.013434666
75	0x3c05b204	0.008160118
76	0x3bae549f	0.005320146
77	0xbc146208	-0.009056576
78	0xb9b21c53	-0.0003397191
79	0x3c16549b	0.009175445
80	0x3c434cb9	0.011920148
81	0x3c5e1835	0.013555576
82	0x3c3eedc5	0.011653368
83	0xbc6f4acb	-0.014605234
84	0xbc2b3a5e	-0.010450928
85	0xba80bed9	-0.0009822502
86	0x3b1cb5a3	0.0023911975
87	0x3b2a5b37	0.002599431
88	0x3c8cfaed	0.017209494
89	0xbb9e49f6	-0.004830594
90	0xb843c660	-4.6676374e-05
91	0x3c9cceb7	0.019141538
92	0x3bcaa56e	0.0061842715
93	0x3c07fa85	0.008299475
94	0xbba4ff11	-0.005035289
95	0xbab780d9	-0.0014000192
96	0xbbdd6c95	-0.0067573288
97	0xbc0aae29	-0.008464375
98	0xbaa408c4	-0.0012514819
99	0xbc391c77	-0.01129829
100	0xbaad5dec	-0.0013226843
101	0x3c3705ae	0.011170788
102	0x3ba2ce09	0.004968409
103	0x3b73e1b3	0.0037213385
104	0x3ae05152	0.0017114079
105	0xbb89c5a1	-0.0042044674
106	0x390daa73	0.00013510305
107	0xbc04f791	-0.008115665
108	0xbb33445b	-0.0027353975
109	0xbb89cc81	-0.004205287
110	0x3b79edc0	0.0038136095
111	0xbc1f0957	-0.009706817
112	0xbb01123b	-0.0019694704
113	0x3b366b43	0.002783493
114	0xbb892111	-0.00418485
115	0x3c93c33a	0.018037427
116	0x3c829355	0.015939394
117	0x3c16048f	0.00915636
118	0xbb314b5a	-0.002705297
119	0x3a0a3b4d	0.0005273119
120	0xbbaadf5f	-0.005214616
121	0x3cbf0342	0.023316983
122	0x3c199bc1	0.0093755135
123	0xbb62c90f	-0.0034604704
124	0xba9a962d	-0.0011794023
125	0xbb0c528c	-0.0021411506
126	0xbb04303d	-0.0020170354
127	0x3afac2e8	0.0019131573

94 f4 [150]
0	0x3e8e736f	0.27822444
1	0x3ee9a389	0.4563258
2	0x3eb12a67	0.34602663
3	0x3dac4ae7	0.08412724
4	0x3d660570	0.05615753
5	0x3d5c7768	0.053824812
6	0x3d3bb6f3	0.04582877
7	0x3d2f384e	0.042778306
8	0x3e1adf7d	0.15124317
9	0x3e758453	0.23976259
10	0x3e8eb03f	0.2786884
11	0x3eeb191b	0.4591759
12	0x3eb17732	0.3466125
13	0x3db5a3e4	0.0886915
14	0x3d5e75d5	0.054311592
15	0x3d540a9f	0.05176794
16	0x3d4ec43c	0.050480112
17	0x3d31ba3c	0.043390498
18	0x3e2693a8	0.16267264
19	0x3e78ff45	0.24316128
20	0x3e8c5801	0.27410892
21	0x3ee9f8a5	0.45697513
22	0x3eb335e1	0.35002044
23	0x3dac2237	0.084049635
24	0x3d77200a	0.06033329
25	0x3d592fe2	0.05302418
26	0x3d3c4d84	0.045972362
27	0x3d23750a	0.03990654
28	0x3e199b78	0.15000713
29	0x3e74f282	0.23920634
30	0x3e8f138c	0.279446
31	0x3ee97aa6	0.45601386
32	0x3eafb737	0.3431947
33	0x3da60fda	0.08108492
34	0x3d68683c	0.05674003
35	0x3d40f157	0.04710516
36	0x3d495a1e	0.049158208
37	0x3d1ce435	0.038303573
38	0x3e223810	0.15841699
39	0x3e7aac0d	0.24479695
40	0x3e8a5aa4	0.27022278
41	0x3ee874a9	0.45401505
42	0x3eaf6634	0.34257662
43	0x3dada31f	0.084783785
44	0x3d7b538b	0.06135897
45	0x3d58eec0	0.052962065
46	0x3d4183ca	0.047244824
47	0x3d23cba1	0.039989118
48	0x3e29a34a	0.16566196
49	0x3e7e7ff4	0.24853498
50	0x3e8d50e7	0.27600786
51	0x3ee9f8a6	0.45697516
52	0x3eb0df2b	0.34545264
53	0x3daa0dd8	0.08303422
54	0x3d8155f3	0.06315222
55	0x3d41ccd7	0.04731449
56	0x3d3b1fe8	0.045684725
57	0x3d23cb9f	0.03998911
58	0x3e258c88	0.1616689
59	0x3e7f2674	0.24917012
60	0x3e862d72	0.26206547
61	0x3ee9cb77	0.45663044
62	0x3eb10377	0.34572956
63	0x3dc4a428	0.09601623
64	0x3d81f912	0.063463345
65	0x3d6b3ce9	0.057431135
66	0x3d34332a	0.043994106
67	0x3d2f890e	0.042855315
68	0x3e36c3ce	0.17848131
69	0x3e81fd27	0.25388452
70	0x3e8a21df	0.26978967
71	0x3eeafee4	0.4589759
72	0x3eb3f985	0.35151306
73	0x3d9b7d59	0.075922675
74	0x3d828060	0.06372142
75	0x3d4e7fcf	0.050414857
76	0x3d287577	0.04112765
77	0x3d23cba2	0.03998912
78	0x3e33937d	0.17536731
79	0x3e836cf1	0.25669053
80	0x3e7ed550	0.2488606
81	0x3ee8abc1	0.45443538
82	0x3eb3e2b2	0.35133892
83	0x3db7f4cf	0.089822404
84	0x3d7bfbaf	0.06151932
85	0x3d62e1b2	0.05539102
86	0x3d1ce435	0.038303573
87	0x3d2579e2	0.04039944
88	0x3e37c5c6	0.17946538
89	0x3e8369df	0.2566671
90	0x3e82a23a	0.25514394
91	0x3eeb533e	0.45961946
92	0x3eb60755	0.3555247
93	0x3da915d8	0.082561195
94	0x3d85bb29	0.065298386
95	0x3d501913	0.050805163
96	0x3d3c024b	0.045900624
97	0x3d1d3e72	0.03838963
98	0x3e3ebd80	0.18626976
99	0x3e870027	0.26367304
100	0x3e74d1d0	0.23908162
101	0x3ee831fe	0.4535064
102	0x3eb6e473	0.35721168
103	0x3dae3012	0.085052624
104	0x3d77921e	0.060442083
105	0x3d612c2e	0.054973774
106	0x3d247843	0.040153753
107	0x3d2b63af	0.041843113
108	0x3e336081	0.17517282
109	0x3e84f03d	0.25964537
110	0x3e7bcf45	0.24590786
111	0x3eeacc82	0.45859152
112	0x3eb78c12	0.35849053
113	0x3daa370a	0.08311279
114	0x3d8d3c02	0.06896211
115	0x3d4b437e	0.049624912
116	0x3d4ce34d	0.05002146
117	0x3d28214d	0.041047383
118	0x3e3a342e	0.18183967
119	0x3e8641e1	0.26222137
120	0x3e732b4d	0.23746987
121	0x3ee8ac8b	0.4544414
122	0x3eb5d816	0.35516423
123	0x3db4bc42	0.0882497
124	0x3d887b10	0.06664097
125	0x3d548fc9	0.051894937
126	0x3d2970fe	0.041367523
127	0x3d36a377	0.044589486
128	0x3e3c4612	0.18386105
129	0x3e86d4e8	0.2633431
130	0x3e7d96d2	0.24764565
131	0x3eea3cfa	0.45749646
132	0x3eb3d1fe	0.3512115
133	0x3da3bc60	0.07994914
134	0x3d92dcec	0.07171044
135	0x3d4183c7	0.047244813
136	0x3d3eed3c	0.046612963
137	0x3d1df249	0.03856114
138	0x3e4abd73	0.19798832
139	0x3e888928	0.26667142
140	0x3e73f89b	0.23825304
141	0x3ee8cc52	0.45468384
142	0x3eb29d30	0.3488555
143	0x3dadb74b	0.08482226
144	0x3d8d54eb	0.069009624
145	0x3d660573	0.05615754
146	0x3d32a89f	0.04361784
147	0x3d3395c1	0.04384399
148	0x3e4d5c43	0.20054726
149	0x3e8ad813	0.27117977

97 f4 [9]
0	0x416638fd	14.388913
1	0x41d9f9a4	27.246895
2	0x3efd8fd0	0.49523783
3	0x416052a2	14.020174
4	0x41d1ca24	26.223701
5	0x3efda9f8	0.49543738
6	0x415a7b27	13.6550665
7	0x41c93f0e	25.155788
8	0x3efdc386	0.49563235
