Assets/ZooheimTest/Models/run2/WolfBehavior/WolfBehavior-44836.onnx (onnx, 405109 bytes, 14 tensors)

discrete_act_size_vector f4 [1, 3]
000000 00 00 00 40 00 00 40 40 00 00 80 3f
       2.0 3.0 1.0

network_body.observation_encoder.processors.0.normalizer.running_mean f4 [630]
000000 c6 05 49 3e 0a d7 3a 3e 28 a1 b9 3b 32 cf 93 3c
       0.19631109 0.18246093 0.0056649633 0.018043134
000010 a0 48 3d 3c 57 ef 9a 3b 2c ab c1 3b 17 18 e1 3b
       0.01155296 0.0047282386 0.005910298 0.006869327
000020 70 dc 43 3b cf c8 46 3b 2b b5 49 3b 74 04 e4 3a
       0.002988603 0.0030332094 0.003077815 0.0017396347
000030 58 ea 16 3c 02 e2 0d 3e f2 2f 4a 3e d1 98 37 3e
       0.009211145 0.13855746 0.19744852 0.17929389
000040 42 5c ba 3b 26 6a 8d 3c cb 91 1a 3c 9d 16 95 3b
       0.0056872675 0.01726253 0.009434174 0.004549815
000050 28 a1 b9 3b 89 ab d4 3b 91 dd 7c 3b 12 dc 30 3b
       0.0056649633 0.006490175 0.0038584212 0.002698664
000060 ce c8 46 3b 60 3f db 3a 58 08 2f 3c c2 dc 0f 3e
       0.0030332091 0.0016727261 0.010683142 0.14049056
000070 42 b2 42 3e 62 47 3c 3e b4 e5 a5 3b f6 ee 87 3c
       0.19013312 0.18386605 0.005062783 0.016593438
000080 00 44 4c 3c bc 53 7e 3b a2 5c cd 3b 45 84 da 3b
       0.012467384 0.0038807234 0.006267146 0.0066686
000090 12 dc 30 3b 11 dc 30 3b b4 03 3e 3b e9 8d cf 3a
       0.002698664 0.0026986639 0.0028993906 0.0015835139
0000a0 58 f4 1e 3c 08 61 11 3e 4b e2 43 3e a0 b0 2e 3e
       0.009701811 0.1419717 0.19129293 0.17059565
0000b0 b6 ef ad 3b 3c 1b 86 3c 5d 5d f3 3b 13 04 51 3b
       0.005308117 0.016370408 0.0074269013 0.0031893298
0000c0 0d a0 80 3b ba 17 ce 3b 53 db 8a 3b b3 db 1d 3b
       0.0039253295 0.0062894495 0.0042375713 0.002408725
0000d0 88 8d 3c 3b e4 3d 8f 3a 72 0e 6c 3c a5 7e 19 3e
       0.0028770883 0.0010928479 0.014407741 0.14989717
0000e0 c3 33 31 3e 31 64 37 3e 26 6f 91 3b b7 17 4e 3c
       0.17304902 0.17909314 0.0044382988 0.012578896
0000f0 fb 2f 3c 3c 57 17 3b 3b 2c 8d a9 3b 89 97 c4 3b
       0.011486049 0.0028547847 0.0051742997 0.0059995097
000100 cd b4 36 3b e3 65 2f 3b 70 c8 33 3b c9 8c 16 3b
       0.0027878762 0.002676361 0.0027432702 0.0022972098
000110 14 04 51 3c fe d0 19 3e 94 2f 37 3e 49 57 28 3e
       0.01275732 0.1502113 0.17889243 0.16439547
000120 9d 34 ad 3b ff 52 58 3c 74 f0 d3 3b a0 66 55 3b
       0.005285813 0.013203382 0.006467873 0.003256239
000130 41 7a 52 3b 8c 97 c4 3b c9 82 8e 3b 0e c8 20 3b
       0.0032116326 0.005999511 0.004349087 0.0024533304
000140 74 f0 53 3b be 2b de 3a 53 d6 86 3c e5 c9 20 3e
       0.0032339366 0.0016950292 0.01645962 0.15702017
000150 8c e6 21 3e 08 cd 32 3e 66 8c 83 3b e2 42 13 3c
       0.15810603 0.17461026 0.0040145395 0.008988114
000160 f6 16 28 3c 43 66 42 3b 54 db 8a 3b 14 e6 b8 3b
       0.010259381 0.0029663004 0.0042375717 0.005642662
000170 3f 52 32 3b 12 c8 20 3b e2 65 2f 3b b3 db 1d 3b
       0.0027209667 0.0024533314 0.0026763608 0.002408725
000180 a2 6b 59 3c f8 af 20 3e 48 27 27 3e 74 51 28 3e
       0.013270291 0.15692127 0.16323578 0.16437322
000190 25 65 89 3b b6 03 3e 3c 29 97 b1 3b 82 47 84 3b
       0.0041929656 0.011597564 0.005419631 0.0040368447
0001a0 e4 65 2f 3b 9a 20 9d 3b f8 f8 8f 3b b2 db 1d 3b
       0.0026763612 0.004795146 0.004393693 0.0024087247
0001b0 27 79 19 3b be 53 fe 3a e3 47 97 3c ee f4 28 3e
       0.002341816 0.0019403619 0.018466895 0.16499683
0001c0 9e 41 12 3e 2b bd 2a 3e c1 53 7e 3b b1 b8 01 3c
       0.14282843 0.16673724 0.0038807245 0.007917569
0001d0 47 ac fa 3b 40 52 32 3b a5 8e 75 3b f8 f8 8f 3b
       0.0076499316 0.002720967 0.0037469056 0.004393693
0001e0 e5 8d 4f 3b 70 c8 33 3b 25 79 19 3b e5 65 2f 3b
       0.003167027 0.0027432702 0.0023418155 0.0026763615
0001f0 4b 93 66 3c d6 a7 28 3e 4d b5 11 3e bc fe 2b 3e
       0.014073203 0.16470274 0.14229317 0.16796392
000200 25 83 a1 3b cb 91 1a 3c fb 16 a8 3b 3d 16 82 3b
       0.0049289637 0.009434174 0.0051296926 0.003969936
000210 ce c8 46 3b eb b5 6f 3b 46 a2 72 3b 6e b4 23 3b
       0.0030332091 0.0036576937 0.0037022992 0.002497937
000220 6b 8c 03 3b ee b5 ef 3a 6b aa 9b 3c 63 53 30 3e
       0.002007271 0.0018288472 0.01900216 0.1721931
000230 0b 08 00 3e d5 05 2d 3e f8 02 98 3b a2 5c cd 3b
       0.12503068 0.16896756 0.004639026 0.006267146
000240 85 83 b4 3b 13 f0 40 3b b8 2b 5e 3b 76 18 74 3b
       0.0055088424 0.002943997 0.003390057 0.0037246025
000250 cc dc 56 3b b3 ef 2d 3b 70 a0 13 3b 54 db 0a 3b
       0.0032785414 0.0026540577 0.0022526048 0.0021187859
000260 fa 75 74 3c ca 5f 2f 3e 5f 62 f7 3d 32 5a 2f 3e
       0.014920706 0.17126384 0.1207931 0.1712425
000270 c8 82 8e 3b dd 38 0b 3c 3e 2a 92 3b 5e 53 6b 3b
       0.0043490864 0.008497444 0.004460602 0.0035907845
000280 e4 65 2f 3b a0 7a 65 3b 72 04 64 3b 11 c8 20 3b
       0.0026763612 0.0035015717 0.0034792689 0.0024533311
000290 b9 2b de 3a 61 67 fb 3a 03 63 9a 3c d4 15 35 3e
       0.0016950286 0.001918059 0.01884604 0.17684108
0002a0 6c 37 de 3d d8 9d 2d 3e 25 65 89 3b 85 6f a4 3b
       0.10850415 0.16954744 0.0041929656 0.005018177
0002b0 55 ef 9a 3b d2 f0 66 3b 9e 2a 25 3b e5 8d 4f 3b
       0.0047282376 0.0035238755 0.0025202404 0.003167027
0002c0 ce dc 56 3b 57 03 2b 3b f8 ee 07 3b c9 78 06 3b
       0.0032785418 0.002609452 0.0020741802 0.002051877
0002d0 de 2e 83 3c 47 86 35 3e cf 44 d6 3d af 0b 2d 3e
       0.016013559 0.17727004 0.10462343 0.16898988
0002e0 fa 02 98 3b a5 98 fd 3b 0b a0 80 3b ea a1 5f 3b
       0.0046390267 0.007739144 0.0039253286 0.0034123608
0002f0 6e c8 33 3b 5a 3f 5b 3b b6 2b 5e 3b 44 a2 f2 3a
       0.0027432698 0.0033454509 0.0033900565 0.0018511494
000300 49 a2 f2 3a a6 8e f5 3a cb 9b a2 3c 37 af 3a 3e
       0.00185115 0.0018734529 0.019849679 0.18230902
000310 a8 ad c3 3d c2 2e 2d 3e e2 65 af 3b 3f 20 8a 3b
       0.09554607 0.16912368 0.0053527215 0.00421527
000320 0f aa 88 3b fa 16 28 3b 87 79 2c 3b 59 3f 5b 3b
       0.004170663 0.002564846 0.0026317553 0.0033454506
000330 bc 3f 6e 3b b8 03 3e 3b b4 c7 0d 3b bb 53 fe 3a
       0.0036353907 0.0028993916 0.0021633925 0.0019403616
000340 8b a2 82 3c 4a 82 39 3e 3e 8c 49 3e 33 1d 3b 3e
       0.015946647 0.18116108 0.19682404 0.18272857
000350 56 17 bb 3b c0 2c 94 3c a0 48 3d 3c 6b aa 9b 3b
       0.005709569 0.018087745 0.01155296 0.00475054
000360 2c ab c1 3b 8c bf e4 3b fe 3e 48 3b 2d b5 49 3b
       0.005910298 0.006980842 0.0030555124 0.0030778155
000370 71 f0 53 3b e9 b5 ef 3a fa 02 18 3c f3 2d 0e 3e
       0.003233936 0.0018288466 0.009278053 0.13884716
000380 e2 a4 4a 3e 89 f0 37 3e 71 d2 bb 3b eb 98 8d 3c
       0.1978946 0.1796285 0.0057318737 0.017284831
000390 cb 91 1a 3c af d1 95 3b 3e 5c ba 3b 18 0e d9 3b
       0.009434174 0.0045721154 0.0056872657 0.0066239946
0003a0 0f a0 80 3b 71 c8 33 3b e9 8d 4f 3b 79 04 e4 3a
       0.0039253305 0.0027432705 0.0031670278 0.0017396352
0003b0 6e c3 2f 3c 44 20 10 3e e3 32 43 3e e8 a4 3c 3e
       0.010727746 0.14074808 0.1906238 0.18422282
0003c0 b4 e5 a5 3b be 1d 88 3c 00 44 4c 3c ed c9 7f 3b
       0.005062783 0.016615745 0.012467384 0.003903027
0003d0 a2 5c cd 3b d0 e6 de 3b 72 c8 33 3b 41 52 32 3b
       0.006267146 0.0068024173 0.0027432707 0.0027209672
0003e0 fa 3e 48 3b ff 52 d8 3a f7 0c 20 3c 8c b3 11 3e
       0.0030555115 0.0016504227 0.009768716 0.14228648
0003f0 e7 62 44 3e a9 fc 2e 3e e6 65 af 3b 01 4a 86 3c
       0.19178353 0.1708857 0.0053527234 0.01639271

network_body.observation_encoder.processors.1.normalizer.running_mean f4 [6]
000000 3b 3c 92 42 21 87 69 42 6b 31 92 42 d7 ce 69 42
       73.11764 58.38196 73.09652 58.451992
000010 06 26 92 42 da 15 6a 42
       73.074265 58.52134

network_body._body_endoder.seq_layers.0.weight f4 [128, 636]
000000 d2 d6 93 bd 29 88 02 3d d5 56 02 3c 8e 65 38 bc
       -0.07218708 0.031868134 0.007955273 -0.011254681
000010 0f b7 a5 3c 6d 08 3a bc 83 3b 33 bc e1 a0 83 3d
       0.02022889 -0.011354548 -0.010939482 0.064271696
000020 42 e5 c9 3b 9c 56 5c 3c 6f b7 68 3c cc 7d 0c 3c
       0.006161363 0.013448384 0.01420389 0.008574914
000030 94 a7 98 bc 45 1d d6 3d 31 3b 62 bd f2 42 b3 bb
       -0.018634595 0.104548015 -0.05523223 -0.005470627
000040 da fd cf 3d d5 43 de bd a8 ab 4d 3d e2 be a4 3c
       0.1015584 -0.10852782 0.050212532 0.020110551
000050 a5 1b 22 bd fa 27 01 bc bb 83 99 bd a4 9f c1 3d
       -0.039577145 -0.007883066 -0.07495829 0.09454277
000060 e7 72 1d 3c f2 40 40 3d 7a ec 1e 3c 63 a7 ca bc
       0.009609914 0.046936937 0.009699935 -0.02473802
000070 d5 96 25 3d f2 50 99 bc eb d9 6f bd c0 11 13 3c
       0.040427048 -0.018715356 -0.058557432 0.0089764
000080 7d 32 e9 bc df dc f3 ba ec 53 1e bd 87 ee 8c bd
       -0.028466458 -0.0018605253 -0.038654253 -0.06881433
000090 0d 9e 5e bd be 04 ca bc f1 0b 77 3d 2d 85 ee ba
       -0.054349948 -0.024660464 0.060314123 -0.0018197648
0000a0 5b 1e 8e bd 34 2c bf 3c 7e 5f 99 bc 6e b6 d1 3b
       -0.069393836 0.023336507 -0.018722292 0.006399921
0000b0 1c 0c cb 3d 26 96 0a 3c 8e 25 38 bd 62 c7 23 3d
       0.09914419 0.00845865 -0.04495769 0.03998507
0000c0 d5 97 00 bd a0 85 14 3d 50 b3 dd 3c 86 9e 55 3b
       -0.0313948 0.036260247 0.027063042 0.0032595708
0000d0 73 6c c7 bc 75 46 79 bb 1e 8e 23 bd f0 37 49 bd
       -0.024343705 -0.003803638 -0.039930455 -0.04912561
0000e0 17 fa b0 3a b1 49 0f bd 93 86 9b bc e4 9e da bc
       0.0013502267 -0.034982387 -0.018985068 -0.026687093
0000f0 23 e2 3f bc 3a cf 22 bd b8 bb 69 bd 4d c2 10 39
       -0.01171163 -0.039748408 -0.05706379 0.00013805293
000100 b9 e6 0b 3d b5 ce b3 bb 9a 7b 2a 3d 10 a9 13 3d
       0.03415558 -0.005487288 0.041621782 0.036049902
000110 71 93 93 bb 57 ce 60 bc 46 35 40 3d 13 89 91 bd
       -0.0045036604 -0.01372107 0.046925806 -0.07106223
000120 ac 7f a2 bd f4 0c b3 3d b8 9c 91 3d ce 96 53 bc
       -0.07934508 0.08742705 0.0710997 -0.012914373
000130 b5 d8 08 bd 23 3b ba 3d 35 aa 19 bc b3 8a ad bb
       -0.033409793 0.09093311 -0.009378959 -0.0052960753
000140 88 a9 1c 3c 69 15 94 3c 07 97 0c bd cf 77 92 bc
       0.009561904 0.018076615 -0.03432372 -0.017879395
000150 80 0d 6a b7 e2 4e 09 bd 51 6f bc 3c e2 70 76 3b
       -1.395063e-05 -0.033522494 0.023002299 0.0037603904
000160 04 9d 9d 3d d3 2a 67 3c 05 f0 5f 3d 1c e8 87 bd
       0.07695964 0.014109331 0.05467226 -0.06636068
000170 e9 ba f6 3c fb 57 ad bb 1d a6 7c 3c 07 1f 2f 3b
       0.030118423 -0.005290029 0.015420464 0.0026721375
000180 cd 25 38 bd c8 9f 49 bc 06 ad 38 3c 91 39 59 bd
       -0.044957925 -0.012306161 0.011271721 -0.053033415
000190 d8 84 4f 3c cc 3d 1e 3c d5 1b 4d bb 83 c1 65 bd
       0.01266595 0.009658288 -0.0031297107 -0.05609275
0001a0 52 25 65 b9 0f 69 1f bd a1 88 bd bc b3 45 05 3d
       -0.00021853045 -0.03891855 -0.023136439 0.032537173
0001b0 64 7c 15 bd aa 8c a0 3c fa 37 6e 3d aa eb 33 3c
       -0.03649558 0.019598324 0.058158852 0.01098148
0001c0 25 9c 5b 3d 21 04 89 bd 4d 73 ef 3c 65 c8 2f be
       0.053615708 -0.06690241 0.029229784 -0.17166288
0001d0 4a d4 b2 bc 52 36 58 bc ec 9f e7 bd 58 48 8b 3d
       -0.021829743 -0.013196545 -0.113097996 0.06800908
0001e0 f3 e1 15 3d 00 b3 b0 bc 89 00 3c bd 5e cd b9 3c
       0.036592435 -0.021569729 -0.045898948 0.022680935
0001f0 39 c9 20 3d 83 61 8c 3d 1c e0 e3 3c 8a af 3f 3d
       0.0392544 0.068545364 0.027816825 0.046798266
000200 7b 3a 39 3d d2 7c 05 3d 26 8c a4 3c 69 09 cb bc
       0.045221787 0.03258974 0.02008636 -0.02478476
000210 da c1 68 3d b0 4a 36 bb 88 58 49 bd ad 02 08 bd
       0.056825496 -0.0027815513 -0.049156696 -0.033205677
000220 04 f0 70 3c e5 8f d7 bc 7b ac 49 3b b2 df 04 bd
       0.014705662 -0.026313731 0.0030772972 -0.032439895
000230 f9 40 a4 3b 5e b7 2a bc bf 97 04 bc 64 36 08 3c
       0.005012628 -0.010419695 -0.00809282 0.008313749
000240 65 79 09 bd 90 1a 49 bd f0 23 f1 bc 4f 1e b6 3c
       -0.033563036 -0.049097598 -0.029436082 0.02223125
000250 dd c7 91 bc 97 fd 1d 3d d5 11 92 3d 48 5c a3 3d
       -0.017795498 0.03857192 0.071323074 0.079765856
000260 f6 33 0e bc d8 aa eb 3c 7e 38 f9 bc 79 d3 2e bc
       -0.008679381 0.028767988 -0.030422445 -0.010670536
000270 af af c6 bc 60 42 07 bc 7b 16 40 3d 05 1e 21 3c
       -0.024253694 -0.008255571 0.04689644 0.009833817
000280 e4 18 a8 bc 00 45 b0 bd 7b ec 4a 3d f7 44 32 bd
       -0.020519681 -0.08606911 0.04954193 -0.0435228
000290 16 15 02 3c 22 1a dd 3c 74 87 55 b9 d8 65 9f bb
       0.007939598 0.02699 -0.00020363723 -0.0048644356
0002a0 ac a2 46 3c b8 0a 4e bd 04 54 8f 3c 7e a9 a5 3d
       0.012123745 -0.05030319 0.017496116 0.08088969
0002b0 b1 cd 5c 3d 46 3d 9d bd 87 91 7e 3d 8d c2 bc bc
       0.0539071 -0.076777026 0.062150504 -0.023041988
0002c0 36 10 69 3c 0f 2d 1a 3d 93 a8 cf bc 3d 80 54 3b
       0.014225056 0.037640627 -0.025348937 0.0032425069
0002d0 4c 75 cc 3d 89 b1 00 bd f2 cb bd bc 84 34 82 3d
       0.0998331 -0.03141931 -0.023168538 0.06357673
0002e0 e9 c6 d5 bc f9 9c 8b 3c 6e 98 8a bd dc 3d bb 3c
       -0.026095824 0.017042624 -0.06767355 0.022856645
0002f0 b3 fb bd bb 8b e9 21 3d bd f6 a0 3c bd 63 ab 3d
       -0.005797827 0.039529365 0.019648904 0.08368633
000300 f9 61 59 39 a9 04 71 3d df 28 38 3d f0 f7 21 3b
       0.0002073123 0.058842335 0.044960853 0.0024714433
000310 c7 88 8a bd 9e e7 cc 38 49 30 15 bc e9 31 59 3d
       -0.067643695 9.77062e-05 -0.00910575 0.053026114
000320 8e ef c8 3c d7 97 bf 3c 54 89 37 bd 5c ee aa 3d
       0.024528291 0.023387833 -0.0448087 0.08346245
000330 87 e4 05 bd 4c 95 0a bd 15 02 9a bd e1 68 5d bc
       -0.032688644 -0.033833787 -0.07519928 -0.013513775
000340 b8 1f 28 bd b1 55 3f 3c 80 c4 1d bd 3f 9e 33 bd
       -0.041045874 0.011678145 -0.038517475 -0.043852087
000350 fd 8a fd bc 87 be 3a 3d 08 e7 66 3d 79 87 07 bd
       -0.030950064 0.045591857 0.056372672 -0.03308818
000360 07 65 12 bd 29 46 b3 3b 8e 30 fb bc 0f e6 2b bd
       -0.03574088 0.00547101 -0.030662801 -0.041967448
000370 65 ba 67 3c 1e 5a b1 3c 8e 0e 92 3d ea 06 8a 3d
       0.014143561 0.021649417 0.07131682 0.067396
000380 f1 23 23 3d fc 5e d3 bc ac 11 4c 3d 5d e1 6a 3d
       0.0398292 -0.025802128 0.04982154 0.05734383
000390 56 72 47 bd fc d9 38 3d 85 cb 21 3d c0 5f aa bc
       -0.048693024 0.04512976 0.039500732 -0.02079761
0003a0 14 5c 7f bd b6 4b 9f bc 12 19 f7 bc 1a 37 ff bc
       -0.062343672 -0.019445281 -0.030163322 -0.031154204
0003b0 2f 03 2b bd e6 8f b0 3c 14 df 0a 3d c9 61 72 bc
       -0.041751083 0.021552991 0.03390415 -0.014793822
0003c0 c7 c7 5b bc 0b 0c 64 bb 93 c7 ba bc 13 6f 61 3c
       -0.01341433 -0.0034797217 -0.022800243 0.013759392
0003d0 74 85 01 be 36 de 32 3d b4 7b 8b bc 2e f9 ae bc
       -0.12648565 0.043668948 -0.01702676 -0.021359053
0003e0 85 59 03 3b b5 f5 8e 3c 20 be 9d bc 47 f4 75 3b
       0.0020042371 0.017451147 -0.019255698 0.0037529634
0003f0 49 62 15 3c f6 3c 13 3d cc 35 a6 bb 0c 43 bb bc
       0.009117671 0.03594681 -0.005072331 -0.022859119

network_body._body_endoder.seq_layers.0.bias f4 [128]
000000 a2 37 ba ba 5a ed d1 3b 05 aa b9 3b 59 03 22 3c
       -0.0014207254 0.0064064683 0.00566602 0.009888493
000010 08 7e 79 bb f6 d1 4c bc fc 0a 84 bb aa 9f 5f bc
       -0.0038069505 -0.01250123 -0.0040296298 -0.013648907
000020 ea e9 76 3b c0 17 10 bc 97 12 15 3c da 90 0d 3c
       0.0037676045 -0.008794725 0.00909867 0.008640492
000030 96 55 e6 bb d7 47 af bb c6 0b 8f bb b4 48 67 3c
       -0.0070292456 -0.00534914 -0.004365417 0.014116455
000040 a0 c3 ba bb 2a bd 11 3b dd d2 62 ba 97 4b 14 3b
       -0.00569959 0.0022237995 -0.0008652637 0.0022628063
000050 42 f1 03 bb 17 0d f2 bb 42 39 ec ba eb 34 1f bc
       -0.0020132815 -0.0073868143 -0.0018022435 -0.0097172065
000060 8c 5f 14 3c cb cd bb ba 3c 9a 09 3c 87 6f ae bb
       0.009055983 -0.0014328299 0.008398589 -0.0053233537
000070 09 69 e5 b8 99 da 82 3c 82 fc 4b 3c 7d 8c f8 ba
       -0.00010939135 0.015973376 0.012450339 -0.0018962767
000080 52 a1 87 3b 12 19 81 bc d2 b4 56 bb 89 7b bb 3b
       0.004139104 -0.015759025 -0.0032761586 0.0057215136
000090 87 0d 01 bc 16 3d 60 3b 96 9c 53 bc 5d df 90 b9
       -0.00787676 0.0034216098 -0.012915751 -0.0002763224
0000a0 80 ee c2 bb 6e 02 82 bc b4 e4 26 3c 53 71 e6 bb
       -0.0059488416 -0.0158703 0.010186363 -0.0070325523
0000b0 ed ea 55 3c a0 e0 50 bc 20 ea 45 3c 6d 32 fa 3b
       0.013056499 -0.012748867 0.0120797455 0.0076354058
0000c0 70 4c 11 3c a2 c1 bd 3b 79 3c 06 3b 99 8b 3d 3b
       0.008868322 0.005790905 0.0020482822 0.0028922318
0000d0 31 ea 05 bc 9f d7 ac 3a 9f 16 e6 3a 64 cc 87 3b
       -0.008173511 0.0013186819 0.0017554349 0.0041442383
0000e0 5a 57 87 3c f5 00 5c 3c 4a 9f 8f 3a ca c2 b8 3a
       0.016521145 0.013427963 0.0010957506 0.0014096138
0000f0 1c af 82 3b 21 ae 92 3b e7 f2 87 3b 7b c8 48 3c
       0.00398816 0.004476324 0.0041488293 0.0122548295
000100 45 fc db 3b 9e b3 ba 3a 52 b4 82 b9 de 94 2a bc
       0.0067134225 0.0014244204 -0.0002492988 -0.010411469
000110 da 16 4d bb 14 8f 6d bb fd e0 76 3c 77 a5 51 3c
       -0.0031294138 -0.0036248611 0.01506829 0.012795798
000120 3d 15 ac 3b 06 cc 81 ba 19 d7 2e 3c 98 8b 79 3b
       0.0052515552 -0.0009902723 0.0106714 0.003807759
000130 50 e1 71 bc cb 91 1e 3c c8 53 8f bb c9 27 9a 3a
       -0.014763191 0.009678314 -0.004374001 0.0011761124
000140 aa 06 c9 ba 61 8a 72 3a 62 4c 96 3b c0 6e 8b 3b
       -0.0015337069 0.00092521874 0.0045867423 0.004255146
000150 8d 80 38 bb fe a6 83 bc ad cc a0 bb 6d 1d 84 ba
       -0.0028152794 -0.016070839 -0.0049072118 -0.001007957
000160 66 5a 66 bc 15 4a 98 3b 6d 48 2d 3c 25 ec 2a 3c
       -0.014059639 0.004647503 0.01057635 0.010432278
000170 40 c4 82 bb bd 3c 19 bb 71 93 23 ba 8c 88 c1 bb
       -0.00399068 -0.002338215 -0.0006239927 -0.0059061702
000180 71 07 f5 3b e5 7b 21 bb b7 2d a8 bb 94 14 c5 3b
       0.0074776937 -0.0024640497 -0.0051324028 0.006014416
000190 90 c2 5f 3b 94 66 b3 bb f3 75 92 3a 92 d9 8f 3b
       0.0034143068 -0.0054748747 0.0011174068 0.00438995
0001a0 47 cc 1f bb 76 7a fc bb c6 a9 f7 ba e5 28 c2 ba
       -0.0024383233 -0.007705028 -0.0018895201 -0.0014813213
0001b0 f4 eb 7b 3b 17 fc 80 3b 58 21 0d 3c 41 25 eb 3b
       0.00384402 0.0039363015 0.008613907 0.007176072
0001c0 e8 4f 0c 3c 08 46 c3 3b 09 93 26 3c d7 1a d0 ba
       0.008563973 0.005959276 0.010166892 -0.001587714
0001d0 10 4c 86 bb 65 b8 97 3b 86 1e bc 3b 0f 73 2c 3c
       -0.004098423 0.004630136 0.0057409434 0.010525479
0001e0 99 38 85 bb a5 09 cb 3a ba a2 be bb 76 ca de 3b
       -0.004065585 0.0015490545 -0.0058177384 0.0067990376
0001f0 a3 e8 9f 3c 3e fd 1b 3c 70 da 95 bc 15 9a 84 bc
       0.01952011 0.009520827 -0.018292636 -0.016186753

network_body._body_endoder.seq_layers.2.weight f4 [128, 128]
000000 d4 a7 cd 3d 7b fc 04 be b7 fe 57 3e 3e 8e 3f 3c
       0.10041776 -0.12986939 0.2109326 0.011691628
000010 f1 ec e2 3d 39 00 2c 3d 69 0c 4f 3e d1 13 04 3e
       0.11080349 0.0419924 0.20219578 0.12898184
000020 e1 03 8f 3d a7 39 b0 bb 29 d9 ed bd 0a 5a a9 3d
       0.06983162 -0.0053779664 -0.11613686 0.08269127
000030 98 bd ae bd 0f c7 7b bd 9c 9b 05 3d 2b 12 4f 3d
       -0.08532256 -0.061469134 0.032619104 0.050554436
000040 ee a0 e0 3d fc 9d 06 bd 6d 3d bf 3c d0 d1 e4 3d
       0.10968195 -0.03286551 0.02334472 0.11172831
000050 c7 4a c1 3c 83 c4 38 3e 2d 75 7a bc c3 c7 41 be
       0.023595227 0.18043713 -0.015286726 -0.1892386
000060 78 cd 96 bd da 4f 96 3d 67 fb 6d 3d 96 83 7a 3d
       -0.07363409 0.07339449 0.058101084 0.061160646
000070 ed 01 04 be d5 6d 9f 3d ea 2b 64 3c 02 46 60 bd
       -0.1289136 0.07784621 0.013926486 -0.054754265
000080 21 b8 d5 3c 78 b2 c0 bd 8f 81 16 3d d4 7b 9d 3d
       0.026088776 -0.0940904 0.03674465 0.07689634
000090 bd 16 d4 bd 4d b7 e6 3d 06 2f 83 3d dc 28 db bd
       -0.103558995 0.112654306 0.064054534 -0.10701153
0000a0 0b 8f b7 bd 7b 4f 94 bd 77 ef a4 3c 15 c4 71 3d
       -0.0896283 -0.07241722 0.020133717 0.05902489
0000b0 78 12 8c 3d 87 a1 0a bd 7f 58 c7 3d 30 42 0a bd
       0.0683946 -0.03384545 0.09733676 -0.033754528
0000c0 e7 9f 52 bd 97 73 ef bc e5 c4 b9 3d 3b d9 8d bd
       -0.051422026 -0.029229922 0.09070758 -0.06926199
0000d0 68 61 0a be a6 57 09 3d 24 2c af 3d 07 5a d6 3d
       -0.1351372 0.033530854 0.08553341 0.1046639
0000e0 75 5c 9a 3b 66 25 eb bd 4f aa 47 3e 6b 3c b4 3c
       0.004710729 -0.114817426 0.19498561 0.022001466
0000f0 7f 91 74 bd 88 1d 2c bd d0 2b 33 bd 14 55 84 3d
       -0.05970907 -0.04202035 -0.043742955 0.0646154
000100 98 d8 b6 bd 64 01 69 3d 60 33 d8 3c 62 3d f6 bd
       -0.08928031 0.05688609 0.026391685 -0.120234266
000110 11 60 eb 3c f3 50 b9 bd fa 04 02 bd bb 0e 7d 3d
       0.028732331 -0.09048643 -0.031743027 0.061781626
000120 ba bf 22 3c 69 24 cf bd a3 f4 42 3d 6e fb aa 3d
       0.0099334065 -0.101143666 0.047596585 0.08348738
000130 df 33 49 3e 6d 65 6d be b6 0b 37 3d 51 ba 8f bd
       0.19648694 -0.23183222 0.044688903 -0.07017959
000140 10 e8 17 3e 1e 64 06 bd 56 85 91 3d 8a f6 91 bd
       0.14834619 -0.032810323 0.0710551 -0.07127102
000150 17 83 1c 3d da 29 cb bc 93 b1 df bd c2 77 9f bc
       0.038210955 -0.02480023 -0.109225415 -0.019466285
000160 0e 8b 5d 3c 74 7d e5 3d 53 57 fd bd 42 04 ce bd
       0.013521923 0.11205569 -0.123701714 -0.10059406
000170 22 3b d0 3d a2 d7 50 bd da 7f 38 3e f9 5c a7 3d
       0.10167529 -0.050986893 0.18017522 0.0817203
000180 4e 69 8f bd 14 c7 91 3d 29 90 a4 bd 71 db 77 3d
       -0.07002507 0.07118049 -0.08035309 0.06051201
000190 26 73 c4 3d 89 bf 7a bb 97 c4 8c 3c 7b a7 0e be
       0.09592275 -0.0038261137 0.017183585 -0.13931076
0001a0 b8 64 39 3d 85 dd 8b 3d 6b 9c 36 3e 25 26 3b be
       0.04526207 0.06829361 0.17833106 -0.1827627
0001b0 85 93 56 bc 8d da c5 3d a9 d5 d4 3b 21 a7 f2 bd
       -0.013096695 0.09660826 0.006495197 -0.118482836
0001c0 08 78 79 bd 6f ec da 3a ac 4a 4f 3d ad f1 00 3d
       -0.060905486 0.0016702543 0.050608322 0.03148048
0001d0 0e aa 9a bd df 05 ce 3d 47 1b 2d 3c c5 e6 4c 3c
       -0.075519666 0.100597136 0.010565585 0.012506192
0001e0 89 47 0e bd af 84 ab 3c ea 30 ba 3d 94 0a cb bd
       -0.03473619 0.020937292 0.09091361 -0.09914127
0001f0 fa 90 a6 3d e7 00 bb bd 09 27 ff 3d 12 17 52 3d
       0.08133121 -0.091310315 0.12458617 0.051291533
000200 ae cd b2 bd ef 7b ad 3d a0 02 85 3c 20 e8 0f bd
       -0.087306365 0.08470904 0.016236603 -0.03513348
000210 e1 3a a4 bd 07 27 cc 3c 31 45 80 bd 68 a7 07 3e
       -0.08019043 0.024920953 -0.06263197 0.13247454
000220 bb f9 b2 bd 0c f8 db bd 61 cf 08 3d 9e 2b cc bc
       -0.087390386 -0.107406706 0.033400897 -0.024923142
000230 fd 07 40 3d 7b 9a 57 be 35 64 23 bd 7e 4d 87 3d
       0.04688262 -0.21055023 -0.039890487 0.06606577
000240 6f db 40 3e 59 20 2b 3e 7c d0 47 3d 90 2b 8e 3d
       0.18833707 0.16711558 0.04878281 0.06941903
000250 fb 71 c9 3c 18 3e 89 3c 54 b5 5e bd ad f3 46 bd
       0.024590483 0.016753241 -0.054372147 -0.04857223
000260 3f 38 90 bc a9 91 87 bc 46 1a 3f bd 54 3a 62 3d
       -0.017604945 -0.016548948 -0.046655916 0.055231407
000270 61 d2 7a 3c 60 60 7c 3d df 8c 51 3e e9 da d1 bd
       0.015308947 0.061615348 0.20463894 -0.10246832
000280 41 d6 e8 3c fa b4 31 3d e1 bd ff bd 60 7c 31 bd
       0.028422477 0.043385483 -0.124873884 -0.043331504
000290 65 d3 8d 3d 70 aa 19 be b4 ee 59 bd 0d f9 a4 3d
       0.06925086 -0.15006423 -0.05320616 0.08055315
0002a0 8f 91 29 3d 76 0d 3d 3e 07 f5 bf bd 07 22 a4 3d
       0.04139858 0.18462166 -0.09372907 0.08014303
0002b0 54 fe f6 bd a3 02 0d be 01 c1 33 3d 5a e4 02 3e
       -0.12060228 -0.13770537 0.043885235 0.12782422
0002c0 a4 28 20 3e 1e 39 1d 3b 69 54 88 bd e7 27 c7 bd
       0.15640503 0.0023990343 -0.06656725 -0.09724408
0002d0 60 6b 9f bd c5 68 ed 39 44 46 cd bd 31 29 d9 bd
       -0.07784152 0.00045282222 -0.10023168 -0.1060356
0002e0 83 4e a6 bd b8 fa 51 bd 06 07 68 3d e9 c6 a3 3a
       -0.08120444 -0.051264495 0.056647323 0.0012495193
0002f0 ce 73 d0 3d 9f d4 22 be a1 d6 48 3c 90 e9 d9 bd
       0.10178338 -0.15901421 0.012258203 -0.10640252
000300 e7 77 62 3e 2c 33 c3 bd 0a 17 1d 3d 15 e0 08 3c
       0.22116052 -0.09531245 0.03835205 0.008354207
000310 14 ac 4a bd 6e 53 f3 bd 05 4a bc 3d 13 a9 97 bd
       -0.049480513 -0.11881147 0.091938056 -0.07405295
000320 ef d9 a5 bd f3 56 d8 bc a4 a4 b0 3c 4b 51 a6 3d
       -0.08098208 -0.026408648 0.021562882 0.08120974
000330 ba ad ea 3d 21 38 8c 3c 42 78 a1 bc a0 7b c8 3d
       0.11458917 0.017116608 -0.019710664 0.097892046
000340 00 54 72 be a3 04 4f bd c3 2f c0 bd 5c 4c 81 3d
       -0.23664856 -0.05054153 -0.0938411 0.063133925
000350 7d ad 4c bd 96 c9 2d 3d a1 5d 0d be 35 88 8b 3d
       -0.04997014 0.042428575 -0.13805248 0.06813089
000360 60 c1 89 3d 07 62 82 bd 56 05 59 3d 93 b5 c0 bd
       0.067263365 -0.063663535 0.052983604 -0.094096325
000370 87 87 08 be b4 d9 b7 b9 68 5d 53 3d 1c e4 01 be
       -0.1333295 -0.0003506668 0.05160275 -0.12684673
000380 cf 53 8c 3c c5 ee 06 be 30 63 01 be 05 1b e9 3b
       0.017129807 -0.13177021 -0.12635493 0.0071138167
000390 4d 38 ae 3d 73 12 62 bd 16 83 89 3d c8 37 be 3b
       0.08506832 -0.055193376 0.06714456 0.0058049895
0003a0 a9 5d 9c bd 2b 37 c4 3c 00 57 36 be d2 e0 87 bc
       -0.07635052 0.023952087 -0.17806625 -0.016586695
0003b0 aa 62 a2 bc 3e 45 09 bc 93 7f 10 3d ee 0b 7e bd
       -0.019822437 -0.008378325 0.035277914 -0.062023096
0003c0 4e 64 1b 3c 77 cc b0 bd d2 1f 2f bd 7f 6d d1 3b
       0.009484364 -0.086327486 -0.042754956 0.006391227
0003d0 52 d0 26 3c d8 f9 09 3d 9a 8f 10 bc a1 95 9e 3d
       0.010181503 0.033685535 -0.0088233 0.07743383
0003e0 54 db 64 3c b3 99 b0 3c 60 0c 65 bd 10 e5 92 3a
       0.0139683075 0.021557664 -0.055920005 0.0011207182
0003f0 68 d2 c2 bc b3 de 08 be 66 b0 df bc 38 82 51 bc
       -0.02378197 -0.13366203 -0.027305793 -0.012787394

network_body._body_endoder.seq_layers.2.bias f4 [128]
000000 d6 01 5a 3c d9 00 06 3c ef b6 69 3c 8c 35 12 bc
       0.013306102 0.008178913 0.014264806 -0.008923899
000010 f2 8c 00 3b da 23 74 bc 7f 63 d6 bb d3 bd 46 ba
       0.001961526 -0.014901126 -0.0065426226 -0.00075813866
000020 d8 37 b1 3c f6 37 92 3b c3 13 3b 3c ab b3 f9 3b
       0.021633074 0.0044622375 0.011418286 0.007620295
000030 2d d5 40 bb 57 77 8e bc c5 cc 1a 3c 43 bc c1 3b
       -0.0029423938 -0.01739089 0.009448235 0.005912335
000040 c3 a7 ec 3b 72 f8 ce b9 e9 65 69 bb ab b3 cb ba
       0.007222147 -0.00039476488 -0.0035613722 -0.0015541216
000050 cd 40 2b bc 90 a7 b6 bb 5c 43 16 3c 7a 80 e0 3b
       -0.010452461 -0.005574174 0.009171333 0.006851253
000060 84 94 97 bb 72 6d 28 3c 18 06 1e 3c e0 4d 3d bb
       -0.0046258587 0.01028 0.009645008 -0.0028885528
000070 6f cd 11 bc 78 26 5d bb ac 40 d4 ba 4e 34 4f 3c
       -0.008899077 -0.0033744853 -0.001619359 0.012646748
000080 6c 56 ca 39 46 22 a7 ba 2a e7 8b 35 6d d0 37 3b
       0.00038592832 -0.0012751303 1.0423585e-06 0.0028047815
000090 24 3e f5 3a 00 51 16 38 e6 1c 8b 3b 2f c3 c0 39
       0.0018710536 3.5838224e-05 0.0042453883 0.00036766517
0000a0 d2 b5 9d ba d5 69 fc 3b b4 17 90 3b c9 8d 41 3b
       -0.0012032336 0.007703046 0.004397357 0.0029533973
0000b0 d9 dc dc ba 23 7a 0b bc a0 98 b4 3b bb 97 12 bc
       -0.0016850486 -0.008513006 0.0055113584 -0.008947308
0000c0 30 c6 a7 36 4d af 45 bb d3 a3 0c b9 07 9f 81 bb
       5.00006e-06 -0.0030164302 -0.0001341247 -0.003955725
0000d0 ca 96 18 3c 9d c0 fd 3b 1e 99 cf 3b 1e 70 a7 3b
       0.009313295 0.0077439086 0.0063353917 0.005109801
0000e0 a5 b1 49 3b 37 8d 90 bb 8b bc db 3b 15 0c b3 3b
       0.003077605 -0.0044113654 0.0067058257 0.005464087
0000f0 9f 04 bf bb 7f ab a0 3b b5 e3 36 3c 0e 5d 52 bb
       -0.0058294083 0.0049032564 0.011162688 -0.0032098922
000100 a9 a5 04 bb 61 cb 47 ba 58 eb 6f 3c 19 0a 3a bc
       -0.0020240343 -0.00076215534 0.014643513 -0.0113549465
000110 1d 6c 4e 3c 4b 37 df 3a 80 68 5d bb e8 66 d8 3b
       0.012599018 0.0017030028 -0.003378421 0.0066040643
000120 4d e2 3d bb db f9 9b bc 6b 4f cc bb 6e 9c 17 3c
       -0.0028973997 -0.019040039 -0.0062350533 0.009253604
000130 bd 99 33 3c ad 91 a7 3b 04 35 65 3c 6b b4 ad bb
       0.010961947 0.0051138015 0.013989691 -0.0053010485
000140 c3 2a 2e 3c a6 42 a3 b8 df 16 24 3c ec f4 5c bb
       0.010630312 -7.78486e-05 0.0100152185 -0.003371532
000150 b9 28 99 3a 85 2b 56 bb 89 a1 01 bc 93 bf a4 3b
       0.001168511 -0.0032679748 -0.007912048 0.0050277202
000160 a5 e7 15 bc 1f 64 58 b9 4e 9c 57 3b 0c 28 23 bc
       -0.009149467 -0.00020636663 0.0032899561 -0.009958278
000170 af f4 d1 ba 42 7a a2 3a 21 55 94 3b 6e 90 56 3a
       -0.0016018356 0.0012396055 0.0045267497 0.0008184974
000180 5e d3 a3 bb 2b 2d f7 bb 71 6d 04 3c 31 ac 4e 3b
       -0.004999562 -0.0075432262 0.0080827335 0.003153574
000190 5b 61 cf bb 81 70 0b bb cd 42 f3 3b 16 a8 a2 bb
       -0.0063287443 -0.0021276774 0.0074237348 -0.004963885
0001a0 70 c1 55 3c 51 a9 70 bb 3f 99 93 3b 3b 70 a9 3b
       0.013046607 -0.0036722014 0.0045043523 0.0051708496
0001b0 d0 74 2c 3b 95 d2 8f bb b9 79 bc bb 77 64 6e 3b
       0.0026314743 -0.004389117 -0.005751815 0.00363758
0001c0 bd 14 2f bc a0 37 22 bc 72 4f 83 3b 35 ad 64 3c
       -0.010686097 -0.009900957 0.0040072734 0.013957311
0001d0 c2 3b b1 3b d8 00 08 3c c7 a4 fb 3b 53 04 35 bc
       0.005408735 0.008300982 0.007679555 -0.011048394
0001e0 27 a2 08 3c d9 ee 2a 3b dd e5 28 3a 76 a1 ed 3a
       0.008339441 0.0026082306 0.00064429437 0.0018129784
0001f0 14 53 25 bc fa 39 b2 3b 3c 63 0a 3c 85 80 6c 3b
       -0.010090608 0.0054390403 0.008446511 0.0036087346

action_model._discrete_distribution.branches.0.weight f4 [2, 128]
000000 51 92 44 3b f3 9a aa 3b 0e 9c ae 3c 76 a5 b0 b9
       0.0029994438 0.0052064597 0.021314647 -0.00033692614
000010 99 62 ab bc 01 cf 07 bc c9 d1 31 bc 61 2d f2 3b
       -0.020921038 -0.0082891 -0.010853239 0.0073906635
000020 f0 32 06 3c a2 a2 73 3c 05 dd 86 bc c3 e5 11 3c
       0.008190855 0.014870318 -0.016462812 0.008904877
000030 da 34 d1 3b 4b 16 ba bb b7 c9 2f bc 0f 5e 6b ba
       0.006384474 -0.005678927 -0.010729245 -0.00089785544
000040 26 45 f4 ba 96 b7 0c ba 6b f4 dc bc 51 d2 b9 ba
       -0.001863633 -0.00053679326 -0.026972016 -0.0014177059
000050 02 c7 40 bc c0 a1 7e 3a a2 be 3c 3c c7 c0 8d ba
       -0.011766197 0.00097134337 0.01152006 -0.0010814898
000060 ca 6b 91 3b f0 55 7c 3c 03 9d ab 3a d1 ed ef bb
       0.0044378983 0.0154013485 0.0013093058 -0.007322051
000070 65 d5 31 bc de 7a 18 bd ab 3e b4 bb c1 e2 02 bc
       -0.0108541 -0.03722655 -0.0055006347 -0.007988633
000080 01 98 1f bc a7 19 29 3c 83 ef d5 bb 14 9c 81 3c
       -0.00974083 0.010321057 -0.006528796 0.015821494
000090 a7 de 98 ba 2d 73 b6 bb 22 d2 d7 b9 f0 a0 06 3c
       -0.0011663035 -0.0055679292 -0.00041164557 0.008217081
0000a0 96 0a 22 bd b2 4d 85 3b 3a a7 64 ba fd b1 65 3c
       -0.039560877 0.0040681 -0.00087224285 0.0140194865
0000b0 2b 79 c9 3b a0 66 73 bc 44 22 b3 3b be 5b b3 bc
       0.0061484776 -0.014856011 0.0054667313 -0.021894332
0000c0 a7 29 bb bc 50 49 4f bc 04 0d 81 38 df ed 98 3c
       -0.02284701 -0.012651756 6.153624e-05 0.018668113
0000d0 c7 08 d8 bc 0c 14 c4 bc 97 1a f8 bc 3f c8 20 b9
       -0.026371373 -0.02393534 -0.030286117 -0.00015333387
0000e0 f7 5d 4a 3c 90 60 02 3c f9 19 3c 3c 1e d4 15 3c
       0.0123515045 0.007957593 0.011480802 0.009144811
0000f0 5c ae 75 bc 06 d1 8a 3b 86 f3 9d 3c 12 98 ab 3c
       -0.014995184 0.0042363433 0.01928116 0.020946536
000100 32 fb 07 bc 79 7b a0 bb 70 3e 89 3c 5d d7 8d 3b
       -0.008299636 -0.0048975316 0.016753405 0.004328652
000110 80 62 0d 3d 49 4c c0 bb 3a ce 9a bb 86 64 98 3a
       0.034517765 -0.005868469 -0.004724291 0.0011626638
000120 48 97 00 3c 2e 81 82 3b 5a f7 8a bc 78 3b 60 bc
       0.007848568 0.0039826846 -0.01696365 -0.013686053
000130 83 4f 4b 3a dc ac 90 3c 07 a7 ec b9 70 a0 ae bc
       0.00077556836 0.01766055 -0.00045137873 -0.021316737
000140 82 d4 1f bd bd c0 9d bb cd 63 97 3c f2 54 89 ba
       -0.039021023 -0.004814236 0.018480206 -0.0010477586
000150 30 d5 8a 3c 5e 26 c9 3b e0 c9 b4 bb 83 93 b6 3b
       0.016947359 0.006138607 -0.0055172294 0.005571784
000160 78 8d 97 bc 6b 4e 00 bc 9f 96 cc bc 63 e1 e1 ba
       -0.018500075 -0.007831196 -0.024974165 -0.0017233308
000170 66 ab 05 bc 41 96 23 3c 2b 00 37 3c 70 26 6b 3c
       -0.00815854 0.009984554 0.011169474 0.014352426
000180 e8 2b 71 3c 8f 71 88 bc f9 d3 0b bc 18 97 8d 3c
       0.014719941 -0.016655711 -0.008534425 0.017283961
000190 8b 77 6a bc 6c ab ea 3b 2e 5c e8 bb 9f 00 8e bc
       -0.014310728 0.0071615484 -0.007091067 -0.01733428
0001a0 e0 88 9c 3c 53 cc cf bc ac 86 04 3a f1 f1 b9 3c
       0.019108236 -0.025365984 0.0005055468 0.022698374
0001b0 be d1 6c 3c ee 85 91 bb c9 49 ce bb cb d9 96 3c
       0.014454303 -0.0044410145 -0.006295417 0.018414399
0001c0 b8 7a 47 bc 90 67 b7 3b 63 08 68 bb f4 37 d9 bc
       -0.0121752545 0.0055970624 -0.003540539 -0.026515938
0001d0 7e 48 f3 3b 97 bd 0c 3c db 69 c0 3c fd da 5f bc
       0.007424413 0.008590124 0.023487976 -0.013663051
0001e0 6f 01 33 3c 51 1e 11 bc af 80 d2 bc 31 1d 90 3c
       0.010925635 -0.008857326 -0.025696127 0.017592045
0001f0 da 40 87 bc 4a d3 90 3c 94 29 37 3c 95 b3 3e bd
       -0.016510416 0.017678875 0.011179347 -0.04655798
000200 72 09 80 3c 07 70 9b bc fc ee a8 bc e5 c7 09 bc
       0.015629504 -0.018974317 -0.02062177 -0.008409475
000210 e7 aa 86 bb 12 ca 7f ba 9b 9d e8 3b aa a4 49 bc
       -0.0041097286 -0.0009757589 0.007098866 -0.012307325
000220 c8 b0 1c bc 8e 5e e3 bc 79 77 1c 3c 2f f3 16 bc
       -0.009563632 -0.027755048 0.009549969 -0.009213253
000230 f0 71 5b bc 42 65 27 3b b6 20 64 3c 1c e4 1e bc
       -0.013393864 0.0025542532 0.0139238145 -0.00969794
000240 22 6e e1 3b 51 d4 8a 3c a4 66 07 3d 77 c7 8e 3b
       0.006879584 0.016946943 0.03305687 0.004357274
000250 73 ff 2d 3b 4c 42 e9 bb e3 46 7b bc e7 10 79 bc
       0.0026549965 -0.007118499 -0.015336725 -0.015201784
000260 f3 1c 2a 3c ef 38 a9 bb 4c d9 1e bd 3b 6f cf 3b
       0.010382879 -0.0051642577 -0.03878145 0.0063303984
000270 62 db f9 3c 5a 09 14 3d ea f9 a6 3b 7e 6b e3 3a
       0.030500118 0.03614173 0.00509571 0.0017350761
000280 8d 3f ac bc 08 62 29 bc 9e 39 cc bb 6e 02 96 bb
       -0.021026397 -0.010338314 -0.0062324544 -0.0045779264
000290 ee c1 88 3a 16 f6 a2 3c ee 0f 81 3c c0 c7 ca bb
       0.0010433772 0.019892734 0.015754666 -0.006188363
0002a0 9f a8 4e 3c ef 41 af bb 61 49 ee b9 05 b4 ad bc
       0.012613445 -0.005348436 -0.0004544957 -0.021204004
0002b0 b0 29 73 bc 6a 73 b4 3c 82 76 c7 bc 6d 2b 43 3c
       -0.014841482 0.02202769 -0.024348501 0.011912209
0002c0 7c 61 d8 3c f5 69 26 bb b6 3e 5a 3c 8e dc b3 bb
       0.026413672 -0.0025392745 0.0133206155 -0.0054889387
0002d0 fc b8 c9 3c 7c cc 20 3d be 13 00 3d e0 2f 98 3b
       0.02462434 0.03925751 0.031268828 0.004644379
0002e0 74 dc ad bc d3 df 4e 3c 86 15 9d bb 55 5f 65 bc
       -0.021223284 0.012626606 -0.0047938256 -0.01399978
0002f0 a7 a8 12 3c 09 05 3c 3c 99 49 b2 bc ca 34 d9 bb
       0.008951343 0.01147581 -0.02176361 -0.0066286074
000300 bb 5d 14 3c 73 4e 2c 3a 3f a2 04 3b bb 0d c5 3b
       0.00905555 0.0006572969 0.0020238308 0.0060135997
000310 ed 5d 8b bc 2f 37 f4 bb 0e 00 a2 3c 8e b9 8e 3b
       -0.01701256 -0.0074528675 0.019775417 0.004355616
000320 84 c0 61 bc 32 1d 87 3b 80 0e 04 3c 13 6c b4 bb
       -0.013778809 0.0041233534 0.008060098 -0.0055060475
000330 0c 0f d7 bc cc c3 67 bc c6 bc 80 b9 6d 44 ed 3c
       -0.026252292 -0.014145803 -0.0002455471 0.028963292
000340 62 c9 df 3c 2e 84 8a 3b 17 3a b9 bc 43 ed 5e bc
       0.027317706 0.004227183 -0.022610707 -0.013606372
000350 1c 77 4a bc 23 76 7a bc 35 8f ff bb a4 e6 dc bb
       -0.012357499 -0.015286955 -0.007799054 -0.0067413617
000360 5a 2b 1c 3c c3 7a 78 bc e4 6d ca 3b 3d a3 62 bb
       0.00953182 -0.015165987 0.0061776508 -0.003458216
000370 ce 1b 1d 3b 4d 18 be bc 26 65 1c bc a3 39 bd bc
       0.0023972872 -0.023204947 -0.0095456 -0.023098772
000380 ee 60 4e 3b 40 75 06 3b df ba b8 3b c6 c4 71 bc
       0.003149088 0.0020516664 0.005637511 -0.014756387
000390 22 b8 41 3c 98 33 00 39 d9 30 db 3b 31 51 89 3c
       0.011823686 0.00012226251 0.0066891727 0.016762348
0003a0 7f f5 55 3a 64 52 57 3c b6 f4 48 3b 70 b8 b7 ba
       0.0008161887 0.013142202 0.0030663437 -0.0014016759
0003b0 9d f1 91 bc d0 c8 b3 3b 2b 03 1d 3b b5 f5 0d bc
       -0.017815406 0.005486585 0.0023958187 -0.008664538
0003c0 86 a7 87 3c 90 1b 0d 3b 9f a8 4d 3c ec 97 a7 3c
       0.016559374 0.002153132 0.012552409 0.020458184
0003d0 b3 8e 33 bc 3d a2 fd ba f8 b1 ed bb ce 06 e7 3a
       -0.010959315 -0.0019350719 -0.0072538815 0.0017625929
0003e0 68 07 a3 bc 78 37 8f bb ce de c2 3c 47 fd db 3b
       -0.019900993 -0.004370626 0.023787882 0.0067135426
0003f0 75 14 11 3c 4c 18 b5 bb 8c ee cc ba 67 63 34 3c
       0.008854975 -0.005526578 -0.0015635057 0.0110100275

action_model._discrete_distribution.branches.0.bias f4 [2]
000000 e4 87 06 3c e4 87 06 bc
       0.00821111 -0.00821111

action_model._discrete_distribution.branches.1.weight f4 [3, 128]
000000 3f 66 be bc e9 00 ff bc 8e f5 91 bb 06 d4 25 3c
       -0.023242114 -0.031128364 -0.004454321 0.010121351
000010 de e9 18 bc 44 86 0f 3c f3 35 b2 3c f6 4c e7 3b
       -0.009333102 0.008760039 0.02175424 0.007058735
000020 b9 c0 b7 bc c7 cc 02 3d 94 5b 18 3c bb 9f 47 3b
       -0.022430765 0.031933572 0.009299178 0.0030460197
000030 7d f5 08 3d 9c 8c 39 bb 49 3d 00 ba f3 14 43 3a
       0.03343724 -0.002831257 -0.00048919447 0.00074417813
000040 de ff 93 3c 58 9e c1 3c 85 00 98 3c 30 2d 22 3c
       0.018066343 0.023635074 0.018554935 0.009898469
000050 dc fd 0b bb 86 e8 85 bc 84 ea 69 3b 34 7d 59 bc
       -0.0021361029 -0.016346227 0.003569276 -0.01327448
000060 b2 29 6f b9 35 f7 c3 bc 6a 5b 19 bc 35 4a c8 3b
       -0.00022808349 -0.023921588 -0.009360174 0.006112362
000070 ee d5 54 3c 51 55 68 3c 1c 3a 8b 3c 39 b8 85 3c
       0.012990458 0.014180497 0.016995482 0.016323196
000080 8b 74 ee bc e2 2a ad 3c ef cd 85 39 72 dd b5 bc
       -0.029108306 0.021138612 0.0002552117 -0.02220032
000090 64 d5 a6 3c 3d 87 a0 bc fd fb a2 ba d2 fd c8 3b
       0.020365424 -0.019595737 -0.0012434718 0.0061337734
0000a0 24 9b 74 3c 83 6f 7d 3c 5b 3d b0 ba 4b 5c a1 3c
       0.0149295665 0.015468481 -0.001344602 0.019697329
0000b0 34 6f 9a 3c dc ec 8d b9 34 1e 91 bb 06 f5 e9 bb
       0.018851854 -0.0002707009 -0.0044286493 -0.007139805
0000c0 55 96 76 b9 04 e6 13 3c 7c 4b a8 3b c6 66 08 3c
       -0.00023516391 0.009027008 0.0051359516 0.008325284
0000d0 54 08 69 bb a3 14 ba 3c f1 45 a4 3c 77 05 6c bc
       -0.0035557942 0.022714918 0.020052882 -0.0144056
0000e0 31 50 90 3c b6 f6 fe bb 63 09 62 bb 2c 83 30 bc
       0.017616363 -0.007780875 -0.0034490458 -0.010773461
0000f0 db a3 6b bc 83 00 72 ba 98 29 36 bc c1 62 28 3c
       -0.014382328 -0.00092316436 -0.011118315 0.010277451
000100 ad 5e 58 3b f2 eb 6e bb d6 d9 91 bc 8e 09 de 3b
       0.0033015416 -0.0036456552 -0.017804068 0.0067760414
000110 ce 74 a1 bc 4f f2 70 ba a2 bc 20 3c 25 df c6 bb
       -0.019709017 -0.000919138 0.009810599 -0.0060690814
000120 61 9a 7a 3c 5c 57 7c bb 38 9d 04 3c ab c4 26 bc
       0.015295596 -0.0038504219 0.0080941245 -0.010178725
000130 98 24 60 3c 7e 05 1f bc 20 3b 91 3c bd 8e 84 bb
       0.0136806 -0.009705899 0.017728388 -0.004045336
000140 66 bf 04 bc 50 3b cd 3c 4a c9 10 3d ef 78 bb bb
       -0.008102274 0.025052696 0.035348214 -0.0057212035
000150 e0 49 95 bc b0 06 57 bb 69 d7 b8 39 7c ef e4 bc
       -0.018223703 -0.0032810383 0.00035255708 -0.027946226
000160 8a 9e 3f bb 5e 69 b6 bb 6c e6 b6 bc 2c 7c cf 3c
       -0.0029238784 -0.00556676 -0.02232667 0.025327764
000170 df 6b d0 3b a8 de 96 3b c0 1e c8 3b 85 7d 22 3c
       0.0063605155 0.0046041794 0.0061071813 0.0099176215
000180 af 4a 34 bc 0c 18 f7 3b 1c 8b 72 bb 65 4f ac bb
       -0.011004134 0.0075407084 -0.0037009185 -0.005258488
000190 e5 45 93 bb ae 0d d5 bb b5 a0 a4 3b 96 16 05 3c
       -0.004494416 -0.006501875 0.0050240406 0.008123061
0001a0 05 d8 a9 bb 01 64 be 3c a4 7c 95 bc f0 85 18 3c
       -0.0051832222 0.023241045 -0.01824791 0.009309277
0001b0 54 8b d8 3c 08 91 0f 3c 16 49 81 bb 33 32 f8 3b
       0.026433624 0.0087626055 -0.00394548 0.0075743436
0001c0 62 b5 b1 ba f9 1d fd bb 45 d9 6a 3d 3b a7 eb ba
       -0.0013558085 -0.0077245203 0.05733611 -0.0017978916
0001d0 61 3d 38 bc 28 15 14 3d 0e a0 db bb 9d 3a d2 3b
       -0.011245103 0.03615299 -0.0067024296 0.0064156787
0001e0 f2 8e 25 bc 5a 10 1a bc d8 4c 9f bb 87 db f2 bb
       -0.010104882 -0.009403313 -0.0048614554 -0.0074114236
0001f0 50 04 1f bc 54 92 a9 bc 74 49 d8 bc b9 87 f7 3b
       -0.009705618 -0.020699657 -0.026402213 0.007554021
000200 d5 23 54 39 9d 7d 82 3c 7f 59 82 3c 88 94 93 bc
       0.00020231244 0.015929038 0.015911816 -0.018015161
000210 50 47 a8 3c ef 4f e5 bb 88 82 85 3c 9f a5 d6 3c
       0.020541817 -0.006998054 0.016297594 0.026202021
000220 45 ff ac bc 17 0a de 3b 0e 5c c4 3b 6b b4 d3 bb
       -0.021117816 0.006776105 0.005992419 -0.0064607165
000230 00 5a 0e 3c e5 de e8 3a d8 54 53 bc f7 64 01 bd
       0.00868845 0.0017766623 -0.012898646 -0.03159043
000240 be c5 2b bd be 9b 97 bc 6d 66 80 bb 8d 9c ad ba
       -0.04193663 -0.01850688 -0.00391846 -0.0013245508
000250 f1 14 4b 3c eb a5 18 3c ce 59 83 bc e5 0d 44 bc
       0.01239513 0.009316902 -0.016034033 -0.011966203
000260 e5 5d c1 bc 5a 78 d7 3a 23 6f dc bb 07 52 05 bc
       -0.023604343 0.0016439066 -0.0067271157 -0.008137233
000270 1a 14 c8 bb 29 50 5c bc b6 f4 54 3c 47 8c cb 3b
       -0.006105912 -0.013446846 0.012997797 0.0062117907
000280 52 b2 cf 3c 24 ee 34 bc 77 41 68 bc 80 03 3e bb
       0.025353584 -0.011043105 -0.014175764 -0.0028993785
000290 b2 74 0a bd 19 e2 d8 bb 8a 9f a6 bc 6e 6a b9 bc
       -0.033802696 -0.00661875 -0.020339746 -0.022633757
0002a0 09 01 69 3c 47 dd 01 3c 8c 33 cb 3b 67 f8 bd bc
       0.014221438 0.007926292 0.006201213 -0.023189737
0002b0 06 6f e4 3c 11 79 43 bc d3 42 3e 3c 95 4c d1 b9
       0.027884971 -0.01193072 0.011612612 -0.00039920644
0002c0 f5 de 5c 3c 11 08 59 3c d8 b8 0b 3d c0 fb 83 ba
       0.0134808915 0.013246552 0.034111828 -0.0010069534
0002d0 d9 23 0a 3b 8d bc dc 3c 11 a6 1f bb be cb 99 3c
       0.0021078496 0.026945377 -0.0024360458 0.01877391
0002e0 8f 07 14 3c 8f 1a 8a 39 ac 78 a0 bc 4c c4 e3 bb
       0.009035005 0.000263412 -0.01958879 -0.0069508906
0002f0 b7 1e 53 bc 87 63 d8 3b 42 e6 1c 3c b3 0c 9f 3c
       -0.012885741 0.0066036615 0.009576382 0.019415235
000300 2e 97 3c 3b 9c ed fe ba d0 16 de bb 03 13 0f bb
       0.0028776634 -0.0019449475 -0.006777622 -0.00218314
000310 bf 0e 61 3c 72 2d 2a 3c a8 51 ad bc e3 c3 32 bc
       0.013736426 0.010386812 -0.0211571 -0.010910961
000320 e1 66 e0 bc b3 dd 87 bb e7 d2 16 3a 79 09 64 3c
       -0.027392806 -0.0041463017 0.0005753473 0.013918274
000330 f5 f9 0f 3d 50 c7 7b 3c 88 d0 6a bc c7 3f 43 3c
       0.035150487 0.015367344 -0.014331944 0.011917061
000340 a1 15 8b ba 4a 63 ef bc 5a cf 29 bc 82 fc 57 bc
       -0.0010611304 -0.02922215 -0.010364378 -0.013182761
000350 2e 16 c1 3c 20 b3 3c 3c c3 19 0d b6 09 cb b7 3c
       0.023570146 0.011517316 -2.1025633e-06 0.022435682
000360 71 42 d9 3b be 28 cd 3c 29 10 42 3c 53 7a ea bb
       0.006630235 0.025043841 0.011844673 -0.0071556955
000370 32 21 e3 bc da a4 90 3b 20 78 af bb dc 11 39 bc
       -0.02772579 0.004414183 -0.005354896 -0.011295762
000380 8f 45 dc 3b 0c 60 b0 bc 39 e3 2f 3d ed 0c 58 bc
       0.006722159 -0.021530174 0.042941306 -0.0131866755
000390 02 e0 9d bc bf e1 b9 bc 21 8e bf 39 e4 22 63 3b
       -0.019271854 -0.022690652 0.00036536253 0.0034658248
0003a0 f3 41 80 bc 19 d8 d1 3b b3 dc 55 3c 7c b1 c8 3b
       -0.015656447 0.0064039347 0.013053107 0.0061246734
0003b0 be 2d 05 3d 35 a9 b1 3b db ea 38 bc b5 2d 8a 3c
       0.032514326 0.0054217824 -0.011286463 0.016867498
0003c0 93 a7 3e bb d7 98 27 3b dd 67 03 bd d6 2d 09 bd
       -0.0029091581 0.0025573277 -0.032081474 -0.03349098
0003d0 18 b5 c8 3c bf c5 18 bd 44 df 09 bc 58 b7 37 bc
       0.024500415 -0.03729796 -0.008415047 -0.011213146
0003e0 72 71 8a ba 98 c2 85 3c 68 39 4c 3c 95 ab f3 3c
       -0.0010562374 0.016328141 0.012464859 0.029744903
0003f0 81 fe 80 bb a4 97 bf 3c 99 82 1c bc af ae fa 3b
       -0.003936589 0.023387738 -0.009552621 0.0076502184

action_model._discrete_distribution.branches.1.bias f4 [3]
000000 fd 38 06 bc c1 e4 0c 3b 16 c3 10 3c
       -0.008192298 0.0021498653 0.008835575

action_model._discrete_distribution.branches.2.weight f4 [1, 128]
000000 a3 49 5f 38 16 5d c2 bb 8b 43 60 b9 52 ed ce 3b
       5.3235923e-05 -0.005931507 -0.00021387466 0.006314912
000010 a2 82 57 3c 97 5f 31 39 1a fa 71 bc b7 6e 4d bc
       0.013153704 0.00016915645 -0.0147691015 -0.0125386035
000020 5a 9e d5 bb 5c 19 ad bb 20 92 31 3a bf 22 c4 bb
       -0.006519121 -0.005282564 0.00067737885 -0.0059855874
000030 c2 5b 7a bb 4d 6b d1 bb f3 94 c9 b9 71 c5 ac bb
       -0.0038201665 -0.006390965 -0.00038448683 -0.0052725603
000040 fa 09 ff bb 3f 06 3a bc 08 d3 cc 3b 3b 28 0b bc
       -0.0077831717 -0.011354028 0.006250743 -0.008493478
000050 00 90 31 bb 87 8b 6c 3c e2 6d 51 bc 7f 27 9d bb
       -0.0027093887 0.014437563 -0.012782546 -0.004795968
000060 1f b9 b7 bb b9 bd ca bb 43 c4 95 ba 77 0c 2a bc
       -0.005606785 -0.0061871675 -0.0011426288 -0.010378948
000070 4b af 5e ba 74 9f 86 bb fd 5d d2 ba 1a 3f 81 bb
       -0.00084947486 -0.0041083638 -0.0016049739 -0.00394429
000080 e9 81 33 bc bd 73 e1 bb bf 62 27 bc f1 1e af 3a
       -0.010956266 -0.006880252 -0.010216414 0.0013360662
000090 87 04 a0 bb f3 59 a3 3a 14 a6 0a bc 08 9f 53 bb
       -0.004883352 0.001246272 -0.008462448 -0.0032290835
0000a0 c5 d1 92 3a 47 d2 58 3b e0 d3 cc bc 17 38 ba bb
       0.0011201432 0.003308432 -0.025003374 -0.005682956
0000b0 fa 8f b1 39 18 cf 83 bb 7a 21 5b 3b 29 99 2e 3c
       0.00033867342 -0.0040224902 0.0033436702 0.010656633
0000c0 ed f7 66 3c 99 2c 1d 3c 6f 18 eb ba ff 5d 2d 3c
       0.014097196 0.009593152 -0.0017936359 0.010581492
0000d0 be 7e a3 3a 6b be a1 3b 23 6c 85 bb 75 b6 32 3c
       0.0012473685 0.0049360297 -0.004071729 0.010907759
0000e0 5a 2b 5e bb 1f 13 8b bb 57 cf 5e 3c c5 fb f9 b8
       -0.0033900351 -0.004244223 0.013599238 -0.00011920141
0000f0 0e a2 0a 3b 64 1b 9b 3c 43 e3 f0 38 0a 3c 02 bb
       0.002115372 0.01893396 0.000114864226 -0.0019872212
000100 99 f0 1c 3c 17 d2 5a 3c e9 0b 36 bc e1 f6 00 3c
       0.009578847 0.013355753 -0.011111238 0.0078713605
000110 04 55 04 3c eb f3 0b b9 b7 cf f1 3b 27 3a 71 3c
       0.00807691 -0.0001334694 0.007379498 0.014723337
000120 8a 67 ca bb ee ca b7 bb dd 48 57 bc 80 e3 5f bc
       -0.0061768936 -0.005608908 -0.013139931 -0.01366508
000130 f8 fd 13 bb 63 40 07 bc 67 56 8d ba df 46 01 3c
       -0.0022581797 -0.008255097 -0.0010783196 0.007890432
000140 c3 52 f7 bb 83 fb 32 ba 0a 3c 5f bb 30 b1 58 3b
       -0.0075477078 -0.00068276393 -0.0034062886 0.0033064596
000150 28 73 9a 3c c9 58 2a 3c 93 64 4d bb 6e 54 bf bb
       0.018853739 0.010397145 -0.0031340464 -0.005838922
000160 80 ff 18 3c 3b 0d 4d bc 3a ab 6f 3c b3 4f c4 3b
       0.00933826 -0.012515361 0.014628226 0.005990946
000170 13 31 9b 3b 77 7f cf ba 63 d4 33 3b c5 33 7b bb
       0.0047360747 -0.0015830834 0.0027439825 -0.0038330418
000180 a7 ca 7d bb d2 56 0c bc 08 d9 22 3c da 05 42 bc
       -0.0038725527 -0.008565621 0.00993944 -0.011842215
000190 90 7c 55 bc c3 ab 16 bc 10 c5 57 bc 6a f9 de bb
       -0.013030186 -0.009196225 -0.013169542 -0.006804635
0001a0 5a f8 f9 3b 51 74 1f bb 2b d3 f1 3b 7b da 06 3c
       0.0076284828 -0.0024330805 0.0073799095 0.008230801
0001b0 62 5b 82 3b 3f 08 bf bb 47 2d 1c 3c 90 16 60 3c
       0.003978179 -0.0058298404 0.009532279 0.013677254
0001c0 4d 6a 2f 3c bf ca de bb 1d 49 de 3a af 09 c7 3b
       0.010706496 -0.0067990716 0.0016959045 0.0060741524
0001d0 ab 06 fc 3b ad cb 55 ba ca cc 68 3c 70 75 45 3c
       0.0076912246 -0.0008155655 0.014208982 0.012051925
0001e0 5a 2a f3 3a 42 bc d6 3b 47 5a b8 ba df 5f 17 bc
       0.001855205 0.006553204 -0.0014064991 -0.009239166
0001f0 64 eb 47 3c 01 87 21 3c 18 5b 25 bc 02 0c 84 3c
       0.012202118 0.009858848 -0.010092519 0.016119007
