Assets/ZooheimTest/Models/run3/RabbitFBehavior/RabbitFBehavior-187513.onnx (onnx, 406669 bytes, 14 tensors)

discrete_act_size_vector f4 [1, 3]
2.0 3.0 1.0
00000000: 0000 0040 0000 4040 0000 803f

network_body.observation_encoder.processors.0.normalizer.running_mean f4 [630]
0.030771052 0.53419983 0.09025992 0.0018451957 0.00187186 0.0014185606 0.0013598984 0.001327901
0.31224334 0.5493217 0.03261621 0.53289366 0.09414764 0.0022078345 0.0020478459 0.001466557
0.0014238937 0.0015038876 0.30854762 0.54544586 0.030563058 0.53326666 0.09213709 0.0022771636
0.0018025315 0.0015785488 0.0012692392 0.0013758974 0.31130472 0.5515474 0.033613518 0.53382653
0.09286244 0.0025811417 0.0020425147 0.0013279009 0.001706539 0.0014185607 0.30812642 0.54461783
0.03172566 0.5248089 0.094040975 0.0017652015 0.0018718601 0.0017598687 0.0010612543 0.0013065687
0.31645638 0.5540863 0.037517216 0.5351653 0.09280907 0.0022611637 0.0018878586 0.0010612536
0.0013332338 0.0013279009 0.3018547 0.5397619 0.031725653 0.52432907 0.090430565 0.0021225072
0.0018345302 0.0016692088 0.00090126565 0.0014238942 0.32214126 0.55837023 0.04202887 0.5396718
0.09612081 0.0022344994 0.002309161 0.0010079253 0.0012639054 0.0012852381 0.2902186 0.5322921
0.03199229 0.52682483 0.09791806 0.0021545063 0.0017971991 0.0016585427 0.0011679129 0.0014985554
0.31169945 0.5540018 0.046551175 0.5389945 0.098206006 0.0022771629 0.0026291374 0.0011572472
0.0013438993 0.0014878889 0.2822564 0.52886283 0.034194775 0.52918184 0.09998717 0.002154506
0.0020478466 0.0017758674 0.0011572466 0.0012159095 0.30484658 0.55259544 0.04897233 0.5424982
0.098238006 0.0024211514 0.0028157888 0.0013119023 0.0015838824 0.001674542 0.27407023 0.5294113
0.03683459 0.5284458 0.10301631 0.0018558615 0.0023518251 0.0017332031 0.0011252495 0.0013119024
0.29958826 0.5541771 0.051804148 0.53584784 0.098851316 0.002629137 0.0024424847 0.0016478768
0.0012905705 0.0017065385 0.27686462 0.53456837 0.03709589 0.52627 0.10041915 0.0020958453
0.0021811714 0.0020371808 0.0009759272 0.0011732458 0.30118293 0.5586856 0.052156117 0.52885646
0.10304296 0.0026931332 0.0024691508 0.0016692076 0.0014132273 0.0015412186 0.27887532 0.540652
0.038658436 0.5194865 0.10518149 0.0019998497 0.0020211828 0.0018451957 0.0010719198 0.0011679134
0.30227613 0.56615627 0.05388399 0.5162227 0.111986324 0.0026824668 0.0024211542 0.0015145547
0.0012852369 0.0013865635 0.28228822 0.5486348 0.04193286 0.5083513 0.108957194 0.0020585135
0.0020211823 0.0015625497 0.0013705647 0.0011145829 0.30604655 0.57385814 0.051164154 0.5009382
0.11417812 0.0023678232 0.0023731564 0.0015305525 0.0012105769 0.0011785788 0.29775903 0.56455123
0.043975387 0.49330705 0.11897777 0.0021385066 0.002127841 0.0014558914 0.0014185606 0.0011145831
0.30941153 0.57945055 0.030856354 0.53510654 0.09045728 0.0018505288 0.0018878595 0.0014238935
0.0013812294 0.001327901 0.3128567 0.55036706 0.03270155 0.53384846 0.094318286 0.002218501
0.0020638464 0.0014718905 0.0014398927 0.0015145539 0.30911827 0.5464696 0.030653717 0.5341253
0.092377126 0.0022824977 0.0018131981 0.0015838819 0.0012852371 0.0013758974 0.3119234 0.552617
0.033693507 0.5348292 0.09301172 0.0025811417 0.0020585132 0.0013279009 0.0017225381 0.0014292274
0.30870745 0.5456243 0.031826947 0.5256141 0.09428094 0.0017652015 0.0018878591 0.0017705344
00000000: 9313 fc3c 52c1 083f 31da b83d 7eda f13a
00000010: 3359 f53a ffee b93a 9e3e b23a f70c ae3a
00000020: 5cde 9f3e 59a0 0c3f 9398 053d b86b 083f
00000030: 7ad0 c03d 51b1 103b 2735 063b 7d39 c03a
00000040: f2a1 ba3a 181e c53a f4f9 9d3e 57a2 0b3f
00000050: 615f fa3c 2a84 083f 5fb2 bc3d 773c 153b
00000060: ec42 ec3a 4fe7 ce3a 9a5c a63a 7557 b43a
00000070: 5563 9f3e 3632 0d3f 54ae 093d dba8 083f
00000080: aa2e be3d 5f28 293b b6db 053b f60c ae3a
00000090: f2ad df3a 00ef b93a bfc2 9d3e 136c 0b3f
000000a0: c4f2 013d e059 063f 8e98 c03d 555e e73a
000000b0: 3459 f53a 65ab e63a c919 8b3a 2c41 ab3a
000000c0: 9206 a23e 9ad8 0d3f a7ab 193d 9800 093f
000000d0: af12 be3d 0830 143b 0672 f73a c319 8b3a
000000e0: e7bf ae3a f60c ae3a b38c 9a3e d62d 0a3f
000000f0: c2f2 013d 6e3a 063f a933 b93d c319 0b3b
00000100: 9e74 f03a 5ac9 da3a ea42 6c3a f6a1 ba3a
00000110: b3ef a43e 5af1 0e3f 7726 2c3d ee27 0a3f
00000120: fdda c43d ae70 123b 4b55 173b 5c1c 843a
00000130: a1a9 a53a 6f75 a83a 8897 943e 4c44 083f
00000140: 590a 033d fedd 063f 4489 c83d 9e32 0d3b
00000150: ff8f eb3a 7563 d93a a714 993a 2d6b c43a
00000160: 1297 9f3e 10d3 0d3f 72ac 3e3d 8bfb 093f
00000170: 3b20 c93d 743c 153b 9b4d 2c3b c6ae 973a
00000180: c725 b03a 4405 c33a e983 903e 8e63 073f
00000190: d20f 0c3d 7678 073f 13c6 cc3d 9d32 0d3b
000001a0: 2a35 063b 39c4 e83a c1ae 973a 275f 9f3a
000001b0: da14 9c3e e576 0d3f 3697 483d 29e1 0a3f
000001c0: 0231 c93d 2eac 1e3b 1989 383b 23f4 ab3a
000001d0: 469a cf3a 4e7c db3a ef52 8c3e 8087 073f
000001e0: dedf 163d 3948 073f 37fa d23d 6140 f33a
000001f0: 1421 1a3b a52c e33a 1c7d 933a 24f4 ab3a
00000200: a263 993e 8dde 0d3f 9630 543d 532d 093f
00000210: 8f72 ca3d 994d 2c3b 1812 203b 92fd d73a
00000220: 5c28 a93a eead df3a 33c1 8d3e 79d9 083f
00000230: dcf1 173d a1b9 063f 8ea8 cd3d 735a 093b
00000240: fcf1 0e3b 3982 053b 5ed5 7f3a 99c7 993a
00000250: a634 9a3e 0506 0f3f a7a1 553d 2363 073f
00000260: 3008 d33d 477f 303b 7ad1 213b 50c9 da3a
00000270: 0a3c b93a b702 ca3a bfc8 8e3e 2b68 0a3f
00000280: 4f58 1e3d 11fd 043f 6569 d73d e90f 033b
00000290: d275 043b 7eda f13a a97f 8c3a ac14 993a
000002a0: f0c3 9a3e 9eef 103f 75b5 5c3d 2c27 043f
000002b0: 1659 e53d 53cc 2f3b 3aac 1e3b 0684 c63a
000002c0: 6575 a83a 5abd b53a 1588 903e 5573 0c3f
000002d0: cac1 2b3d 5023 023f f324 df3d 20e8 063b
000002e0: d075 043b 78ce cc3a 85a4 b33a 3217 923a
000002f0: 22b2 9c3e 5ee8 123f 8191 513d 7c3d 003f
00000300: 38d6 e93d 7b2d 1b3b f586 1b3b d29c c83a
00000310: 38ac 9e3a 8b7a 9a3a df73 983e 6e86 103f
00000320: 891f 343d be92 fc3e 9eaa f33d 3026 0c3b
00000330: 4073 0b3b 9cd3 be3a ffee b93a 3417 923a
00000340: 306b 9e3e df56 143f 77c6 fc3c befc 083f
00000350: ab41 b93d 718d f23a 0e72 f73a f0a1 ba3a
00000360: 5e0a b53a f70c ae3a c12e a03e dbe4 0c3f
00000370: 0ff2 053d 4baa 083f f229 c13d 4564 113b
00000380: 9941 073b 73ec c03a c8ba bc3a ff83 c63a
00000390: c044 9e3e 6fe5 0b3f 811d fb3c 70bc 083f
000003a0: 3830 bd3d f595 153b d5a8 ed3a 429a cf3a
000003b0: 6775 a83a 7557 b43a 6db4 9f3e 4f78 0d3f
000003c0: 3402 0a3d 91ea 083f ee7c be3d 5f28 293b
000003d0: 1fe8 063b f60c ae3a cac6 e13a ea54 bb3a
000003e0: e70e 9e3e 09ae 0b3f f95c 023d a58e 063f
000003f0: 5e16 c13d 555e e73a 0a72 f73a 4711 e83a

network_body.observation_encoder.processors.1.normalizer.running_mean f4 [9]
48.666397 120.45915 0.53802943 48.73224 120.67204 0.5396238 48.79756 120.88392
0.5412184
00000000: 64aa 4242 16eb f042 4cbc 093f d0ed 4242
00000010: 1658 f142 c924 0a3f b430 4342 91c4 f142
00000020: 4a8d 0a3f

network_body._body_endoder.seq_layers.0.weight f4 [128, 639]
0.011581145 0.007934283 -0.014890651 0.0070774197 -0.050952308 -0.033672675 -0.0031546582 -0.08491102
-0.005306221 0.056110047 -0.050024793 -0.007859543 0.020294629 0.029172854 -0.024185326 0.08546463
0.0010113202 -0.082103595 0.026853474 -0.019219302 0.06507069 -0.024275418 0.05249233 -0.018346595
0.016476301 -0.013245314 0.022756465 -0.014842764 0.019805131 0.062302705 0.01773046 -0.052452844
-0.040554885 -0.0015667572 -0.11020061 0.0010676308 -0.08959128 0.009336633 0.074159555 0.0058269375
-0.019105973 -0.050615244 0.060726408 0.053690754 0.011099115 0.08857805 -0.08441126 0.009729399
0.06284662 -0.033326227 0.03441261 -0.01138047 0.023819016 -0.024192704 0.024535976 -0.044110246
-0.023155585 0.032875843 0.056629535 -0.054305088 0.019193131 0.062269278 0.03911222 -0.0041341716
-0.021568825 -0.01994169 -0.06824647 0.09513815 0.029729117 0.06567049 0.027589256 0.013885142
-0.029608866 -0.023651745 0.056771435 0.0017645577 -0.045323823 -0.021963838 0.055468716 -0.0021160392
0.021137258 0.02198779 0.012567326 0.0008588608 -0.013411357 0.11958448 -0.100319624 -0.0108497655
-0.02588959 -0.09826919 -0.060180765 0.00038086483 0.0779979 0.05578884 0.041435268 -0.057865333
-0.08343204 0.08653426 -0.039681442 -0.076074354 0.10097936 0.03921848 -0.0056783254 -0.0031017838
-0.040227123 -0.06277832 -0.039860252 -0.06583721 -0.0059695384 -0.06102723 -0.024809219 0.024464274
0.0061548706 0.08668069 -0.0470583 -0.045328103 -0.011076967 0.004032054 -0.03637104 -0.05647304
0.021991752 0.017733034 -0.04323404 -0.06333373 0.013275269 -0.03462512 -0.057772193 -0.052898217
-0.02099776 -0.10010448 -0.030065939 0.009304094 0.016215656 0.01594661 -0.03735361 0.013194128
0.0011337725 0.014072166 -0.053686496 0.058135543 0.041369203 -0.05192199 0.045012336 -0.019128108
0.06936445 0.0631198 0.010582271 0.04884313 -0.018050076 0.060929686 0.037064955 -0.023689695
0.01880831 0.039308894 0.05048743 0.0036762243 0.085352644 0.02561974 -0.022524465 0.013477529
0.0036968326 -0.022656837 -0.0033276868 0.020980692 0.033600666 0.0018237738 -0.045150656 0.03808779
0.015835837 0.050507393 0.040643346 0.013767011 -0.023462007 0.08592822 0.021911819 -0.053626392
0.031313345 -0.030213943 0.00022181512 -0.024974084 0.062717475 0.014510854 0.070779495 0.016604887
-0.030252745 0.074634716 -0.036481183 0.021502234 -0.03578325 0.05968878 0.10751246 -0.061037473
-0.03276612 0.10345221 0.039827216 -0.006150029 0.04998628 0.035489872 0.0005727725 -0.03897676
0.028045474 -0.02974006 -0.005782891 0.07224453 -0.052600406 -0.019433614 -0.020631606 0.055255882
0.022805894 0.022391463 -0.065170884 0.002444507 0.021036545 -0.09574389 0.07031039 -0.09172001
-0.030176736 -0.046359133 0.0029603841 0.13271527 -0.07879674 0.054739393 -0.06956165 -0.13075157
-0.029737981 -0.00028234112 -0.054984972 -0.03280335 0.062280927 0.06546957 0.079839125 0.06793762
0.016519297 0.021235099 0.08641274 -0.09212435 -0.019970972 -0.0058846674 0.015073222 0.0758769
-0.058316108 -0.10777168 -0.08391961 -0.13491167 -0.0030000347 -0.008500351 0.022730507 0.04244554
0.023977436 -0.05104637 -0.009158965 -0.07942079 0.0088456655 -0.10555289 0.0422033 -0.032389227
00000000: d8be 3d3c ccfe 013c ebf7 73bc b3e9 e73b
00000010: 5eb3 50bd 5cec 09bd 62be 4ebb d4e5 adbd
00000020: cfdf adbb a6d3 653d cce6 4cbd 50c5 00bc
00000030: ec40 a63c e9fb ee3c 4e20 c6bc 1408 af3d
00000040: 468e 843a ee25 a8bd d1fb db3c cc71 9dbc
00000050: c843 853d 3edd c6bc 3302 573d 994b 96bc
00000060: 4ff9 863c e002 59bc c46b ba3c 102f 73bc
00000070: 5f3e a23c 1f31 7f3d 783f 913c cbd8 56bd
00000080: e11c 26bd a65b cdba dbb0 e1bd bfef 8b3a
00000090: a27b b7bd adf8 183c f7e0 973d e5ef be3b
000000a0: 2184 9cbc ee51 4fbd 41bc 783d d6ea 5b3d
000000b0: 10d9 353c 6968 b53d d0df acbd 0f68 1f3c
000000c0: bbb5 803d 1581 08bd 3df4 0c3d 2775 3abc
000000d0: 1920 c33c c72f c6bc acff c83c f2ac 34bd
000000e0: c8b0 bdbc d2a8 063d 5ff4 673d 036f 5ebd
000000f0: ea3a 9d3c 120e 7f3d 2334 203d f277 87bb
00000100: 1bb1 b0bc c15c a3bc cec4 8bbd cad7 c23d
00000110: 7a8a f33c 407e 863d dd02 e23c 827e 633c
00000120: 4b8e f2bc 4ec1 c1bc 2a89 683d bb48 e73a
00000130: 79a5 39bd 82ed b3bc 2a33 633d 3fad 0abb
00000140: 0b28 ad3c bd1f b43c 30e7 4d3c 2c25 613a
00000150: 4fbb 5bbc b5e8 f43d 6074 cdbd 37c3 31bc
00000160: 6816 d4bc 5b41 c9bd 1b80 76bd d0ae c739
00000170: 5dbd 9f3d d782 643d 07b8 293d 3304 6dbd
00000180: 6bde aabd e038 b13d 0289 22bd dfcc 9bbd
00000190: 44ce ce3d 8fa3 203d 3f11 babb 4c47 4bbb
000001a0: 32c5 24bd eb91 80bd 8144 23bd a9d5 86bd
000001b0: 1e9c c3bb b0f7 79bd b43c cbbc 4d69 c83c
000001c0: ccae c93b a585 b13d 34c0 40bd f6a9 39bd
000001d0: 2b7c 35bc 521f 843b cdf9 14bd 4650 67bd
000001e0: 0c28 b43c de44 913c 2d16 31bd 1db5 81bd
000001f0: 8480 593c 12d3 0dbd 89a2 6cbd cdab 58bd
00000200: 7f03 acbc 9403 cdbd d84c f6bc 3370 183c
00000210: b2d6 843c 77a2 823c 1900 19bd 2f2c 583c
00000220: 189b 943a f18e 663c 5fe6 5bbd 891f 6e3d
00000230: c172 293d 27ac 54bd db5e 383d 8db2 9cbc
00000240: f30e 8e3d f444 813d 4361 2d3c bc0f 483d
00000250: c1dd 93bc 6891 793d 6cd1 173d e410 c2bc
00000260: e313 9a3c 5d02 213d e8cb 4e3d cfec 703b
00000270: 5ecd ae3d 7de0 d13c 3a85 b8bc dbd0 5c3c
00000280: 8f46 723b d59a b9bc 5215 5abb b3df ab3c
00000290: daa0 093d b20b ef3a e5ef 38bd f101 1c3d
000002a0: 28ba 813c d7e0 4e3d a379 263d 088f 613c
000002b0: 6533 c0bc 22fb af3d 6a80 b33c 59a7 5bbd
000002c0: 6c42 003d 3b83 f7bc 0b97 6839 7396 ccbc
000002d0: 0572 803d efbe 6d3c d7f4 903d f906 883c
000002e0: 9bd4 f7bc 16da 983d 4b6d 15bd 7425 b03c
000002f0: 7591 12bd 397c 743d 7e2f dc3d 6e02 7abd
00000300: c435 06bd c1de d33d dd21 233d 2f86 c9bb
00000310: 6abe 4c3d d45d 113d 1d26 163a 18a6 1fbd
00000320: 9fbf e53c 6da1 f3bc 687e bdbb f1f4 933d
00000330: 8673 57bd 3e33 9fbc 9d03 a9bc fe53 623d
00000340: 6dd3 ba3c 4d6e b73c 5078 85bd 0634 203b
00000350: d554 ac3c 5f15 c4bd e5fe 8f3d b3d7 bbbd
00000360: 3435 f7bc 13e3 3dbd 0103 423b 83e6 073e
00000370: 2f60 a1bd 6a36 603d 5776 8ebd bde3 05be
00000380: 119d f3bc 2f07 94b9 ec37 61bd ce5c 06bd
00000390: 491a 7f3d e914 863d b282 a33d e122 8b3d
000003a0: 7a53 873c 3bf5 ad3c 2af9 b03d b1ab bcbd
000003b0: 2a9a a3bc 2bd4 c0bb adf5 763c 5965 9b3d
000003c0: dfdc 6ebd 66b7 dcbd 0bde abbd 4926 0abe
000003d0: 3b9c 44bb 0e45 0bbc 5435 ba3c 60db 2d3d
000003e0: 546c c43c 0016 51bd 7c0f 16bc 5ea7 a2bd
000003f0: 69ed 103c 1d2c d8bd 5edd 2c3d 91aa 04bd

network_body._body_endoder.seq_layers.0.bias f4 [128]
-0.008418575 -0.039688416 -0.0064565744 -0.004278894 -0.012451108 -0.046480987 0.015326069 0.015453905
0.016673679 0.002278018 -0.0050494843 0.00823727 -0.0021985043 -0.017566431 0.014324423 -0.016192816
-0.01882634 -0.021503754 -0.0154163735 -0.007804771 -0.00404175 -0.016570497 -0.034111597 -0.01977939
-0.03616824 -0.027440093 -0.032480165 -0.046167966 -0.030867891 -0.040850937 0.017339302 -0.0017960194
0.0015622772 -0.021120155 -0.020676693 -0.017637793 -0.0074506146 0.013024129 -0.03293944 -0.001489074
-0.021333633 -0.0029646135 -0.007981073 -0.013515847 -0.018746657 -0.012723204 -0.004764594 -0.0033741652
-0.0095520755 0.01474911 -0.008083252 -0.019684883 -0.0035884997 -0.030982556 0.006829516 -0.030217458
-0.0099756215 -0.01722208 -0.00035168708 -0.004643332 0.01098757 -0.0054844976 -0.006053075 0.0076875463
-0.0019502799 -0.03562155 -0.021426138 -0.022836028 -0.028899038 -0.005909911 0.006548384 0.0047360826
0.0024694134 0.011091159 -0.03694074 -0.035350982 -0.02409796 -0.015146537 -0.0033293767 -0.008111669
-0.013056328 -0.0045257113 -0.004695495 -0.0269796 0.010427738 -0.0051229736 -0.015496112 0.0033297183
0.003379755 -0.024402415 -0.008198772 -0.028036656 0.0137888035 -0.02497624 0.005820588 -0.001635918
-0.017369792 -0.008211715 -0.0027160877 -0.0058011813 -0.011977415 -0.028539933 -0.018300565 0.011473128
-0.015038983 -0.0014726232 -0.021922497 -0.01813844 0.0026167766 -0.008349987 -0.02065575 -0.0011785135
-0.034006786 -0.0036331378 -0.024495782 -0.0017115 -0.024214659 -0.0015515096 -0.0010734833 0.0026908487
0.012551133 -0.050521158 -0.0048255823 -0.0067603076 -0.008181802 -0.009398342 -0.03254889 -0.024157126
00000000: 10ee 09bc 5290 22bd ac91 d3bb f735 8cbb
00000010: bbff 4bbc d962 3ebd 311a 7b3c 6032 7d3c
00000020: 3d97 883c cd4a 153b 2576 a5bb 9df5 063c
00000030: c814 10bb 7ae7 8fbc fcb0 6a3c cca6 84bc
00000040: b239 9abc a428 b0bc f594 7cbc 2abf ffbb
00000050: a870 84bb dabe 87bc 9ab8 0bbd 6308 a2bc
00000060: 2625 14bd 0cca e0bc ec09 05bd 9f1a 3dbd
00000070: a9de fcbc 5053 27bd 270b 8e3c 6968 ebba
00000080: 53c5 cc3a 2d04 adbc 2b62 a9bc 227d 90bc
00000090: 4924 f4bb 2863 553c 82eb 06bd 082d c3ba
000000a0: dfc3 aebc f649 42bb 0cc3 02bc 9271 5dbc
000000b0: 9792 99bc fc74 50bc 5020 9cbb 1921 5dbb
000000c0: 4f80 1cbc 40a6 713c 9e6f 04bc 3142 a1bc
000000d0: 092d 6bbb 21cf fdbc 22ca df3b 9a8a f7bc
000000e0: ca70 23bc 5215 8dbc a462 b8b9 1827 98bb
000000f0: 3505 343c 4db7 b3bb e058 c6bb d0e7 fb3b
00000100: 89a0 ffba e7e7 11bd de85 afbc 9f12 bbbc
00000110: adbd ecbc eda7 c1bb d493 d63b 2431 9b3b
00000120: e2d5 213b b1b7 353c 2c4f 17bd 31cc 10bd
00000130: 1669 c5bc 2e29 78bc ac31 5abb cee6 04bc
00000140: 35ea 55bc 6b4c 94bb abdc 99bb 5204 ddbc
00000150: 1ad9 2a3c 9ede a7bb 68e3 7dbc 6737 5a3b
00000160: e17e 5d3b 93e7 c7bc 2454 06bc 21ad e5bc
00000170: 6fea 613c f99a ccbc a2ba be3b 4d6c d6ba
00000180: 184b 8ebc 6e8a 06bc 6400 32bb d617 bebb
00000190: eb3c 44bc 94cc e9bc 11eb 95bc c9f9 3b3c
000001a0: 1166 76bc 0905 c1ba cf96 b3bc 1197 94bc
000001b0: 3a7e 2b3b 62ce 08bc 3f36 a9bc 5a78 9aba
000001c0: b34a 0bbd f019 6ebb 61ab c8bc 6954 e0ba
000001d0: d25d c6bc 065c cbba 1fb4 8cba f358 303b
000001e0: 44a3 4d3c 46ef 4ebd eb1f 9ebb 9285 ddbb
000001f0: f70c 06bc 81fb 19bc fc51 05bd 2ae5 c5bc

network_body._body_endoder.seq_layers.2.weight f4 [128, 128]
-0.08109279 -0.033741362 0.084514804 -0.15467219 0.02645617 -0.0018147806 -0.027665047 -0.020463623
-0.07958187 -0.1242972 -0.086182944 0.045264523 -0.024985092 0.053237814 0.017280878 -0.09315103
-0.07935004 -0.11021453 -0.061936744 0.11948401 -0.043911595 0.0076731923 -0.08114701 -0.046628524
-0.024126472 0.12186095 -0.023584962 0.029614033 -0.044441383 -0.006744436 -0.018383102 -0.093202405
0.05018091 -0.14441295 -0.059961963 0.07903494 0.0006609474 -0.029686326 0.15389518 0.07469313
0.01832374 0.0590166 -0.056930266 0.0864168 0.044407297 -0.06694508 -0.04096749 0.057815548
0.12080313 -0.11412262 0.29871467 0.048195794 -0.16116585 0.043328546 -0.031144572 0.038813718
-0.016873157 0.0888254 0.038784303 0.27050358 -0.22136973 -0.07278768 0.046280157 -0.09374215
-0.20625049 0.06121597 0.009617891 0.06973613 -0.078334205 -0.037153013 -0.17526881 -0.14813404
-0.048321173 -0.12984653 0.20469871 -0.01963274 0.012480481 -0.17216815 0.05470526 -0.048410248
-0.01619953 -0.08415482 -0.19718274 0.013959364 0.086932965 -0.030817846 -0.09277808 -0.12559354
0.0025118566 0.084582254 -0.05044174 0.05832088 0.069342375 -0.0139119 -0.03059477 -0.01171537
-0.045936726 -0.059843924 -0.0016389231 -0.0058242367 0.068154596 -0.01974308 -0.067301095 -0.03964479
0.025933683 0.11179575 0.041627105 -0.04904349 -0.07186539 0.011700379 -0.055511717 -0.066921405
0.17108892 -0.0784791 -0.0013938614 -0.048820067 -0.16402563 -0.13976961 -0.05342613 0.17280328
0.015545893 0.09966773 -0.06560511 -0.17726085 -0.094074845 0.007884203 -0.026021687 -0.20272197
-0.064026445 -0.17846341 -0.05591101 0.08871042 0.003262395 -0.13943061 0.10082688 0.06923935
0.108170085 0.06397698 0.008713342 -0.033104606 0.11359739 -0.14028822 0.055299483 -0.15920617
-0.047662828 -0.06727466 -0.028720414 -0.10155958 -0.079660006 0.07796378 -0.054116458 -0.035532176
0.11169063 -0.023207856 0.07921484 -0.0969438 -0.09017398 0.07078573 -0.11305513 0.009848659
-0.046044387 0.06070078 0.10505686 -0.12182948 0.022593629 0.03104001 -0.13336009 -0.14296709
0.07466416 0.17358007 -0.018905943 0.0683445 -0.013011884 0.07912193 0.07260842 0.08357933
-0.1523196 0.051856183 0.1306341 -0.09090666 -0.042808235 -0.071530595 0.18286315 -0.00054680434
-0.11399175 -0.13799247 0.0029587504 -0.04511575 -0.003010542 -0.08875236 0.002654279 -0.07899137
-0.07567919 -0.095492564 -0.15504466 -0.13768381 -0.024544828 0.09869543 0.07689073 -0.0016967638
-0.04711734 -0.05899965 -0.038841773 0.08872116 -0.060488448 -0.048191525 0.0735306 -0.09818903
-0.032922745 -0.043764696 0.03892706 -0.015026547 0.040217552 0.034201335 0.1940561 -0.021074628
0.007773726 0.14617147 0.040049806 0.13754044 -0.30659074 0.10937886 0.064610355 0.12255209
-0.022129426 0.022300664 0.0469304 -0.019334154 -0.05794732 0.01823242 -0.053332284 0.20007353
0.048947327 0.053408753 0.098489046 -0.07947744 -0.15354013 -0.06377429 -0.10571152 0.1570423
0.070336446 -0.10460168 -0.02009164 -0.0662474 0.06823648 -0.11311782 0.004889722 0.0075149634
-0.15430753 -0.12631486 0.028712723 0.011226688 0.0003085293 0.12693489 -0.06187985 0.09083124
00000000: fa13 a6bd 6234 0abd 1916 ad3d 6362 1ebe
00000010: 9cba d83c efdd edba cfa1 e2bc 54a3 a7bc
00000020: d2fb a2bd 888f febd af80 b0bd 4b67 393d
00000030: 89ad ccbc e50f 5a3d a190 8d3c f8c5 bebd
00000040: 4682 a2bd 28b8 e1bd 62b1 7dbd 08b4 f43d
00000050: a5dc 33bd 676f fb3b 6730 a6bd 8dfd 3ebd
00000060: e1a4 c5bc 3c92 f93d 4035 c1bc 2199 f23c
00000070: 2b08 36bd 6e00 ddbb 2998 96bc e7e0 bebd
00000080: 7f8a 4d3d fde0 13be ad9a 75bd 12dd a13d
00000090: 6e43 2d3a bd30 f3bc b396 1d3e b6f8 983d
000000a0: ab1b 963c 64bb 713d b62f 69bd 4bfb b03d
000000b0: 6de4 353d 811a 89bd 87cd 27bd ffcf 6c3d
000000c0: a267 f73d 1fb9 e9bd 21f1 983e f468 453d
000000d0: a908 25be 4679 313d e722 ffbc 22fb 1e3d
000000e0: 9339 8abc 17ea b53d 4adc 1e3d 727f 8a3e
000000f0: bfae 62be b511 95bd 4390 3d3d e2fb bfbd
00000100: 5433 53be 99bd 7a3d 5c94 1d3c d1d1 8e3d
00000110: af6d a0bd c22d 18bd ab79 33be 73b0 17be
00000120: 6cec 45bd 7df6 04be 8a9c 513e d7d4 a0bc
00000130: ee7a 4c3c d94c 30be 9f12 603d d349 46bd
00000140: e0b4 84bc 5d59 acbd 46ea 49be d1b5 643c
00000150: e909 b23d b575 fcbc 6f02 bebd 989b 00be
00000160: f69d 243b 7639 ad3d ff9b 4ebd e0e1 6e3d
00000170: 6003 8e3d bdee 63bc e2a1 fabc d3f1 3fbc
00000180: 2628 3cbd e71e 75bd 22d1 d6ba 3dd9 bebb
00000190: a394 8b3d 3dbc a1bc 28d5 89bd 9362 22bd
000001a0: e072 d43c 2cf5 e43d 2f81 2a3d d4e1 48bd
000001b0: 292e 93bd f2b2 3f3c 4160 63bd 170e 89bd
000001c0: ef31 2f3e a6b9 a0bd 3ab2 b6ba 8df7 47bd
000001d0: 56f6 27be c41f 0fbe 5cd5 5abd 58f3 303e
000001e0: 34b4 7e3c 981e cc3d f95b 86bd de83 35be
000001f0: 50aa c0bd bf2c 013c 6f2b d5bc 5996 4fbe
00000200: 4c20 83bd 1dbf 36be f102 65bd cfad b53d
00000210: e8cd 553b e6c6 0ebe 537e ce3d 5ccd 8d3d
00000220: 4788 dd3d 5d06 833d 68c2 0e3c b298 07bd
00000230: c0a5 e83d b7a7 0fbe b681 623d f106 23be
00000240: 193a 43bd 4cc7 89bd 1347 ebbc 78fe cfbd
00000250: c924 a3bd 79ab 9f3d 38a9 5dbd 308a 11bd
00000260: 0fbe e43d 671e bebc 643b a23d 798a c6bd
00000270: 23ad b8bd 1cf8 903d 7389 e7bd 455c 213c
00000280: 0a99 3cbd 62a1 783d 0d28 d73d bc81 f9bd
00000290: 4616 b93c 9e47 fe3c 8c8f 08be f765 12be
000002a0: 86e9 983d f9be 313e a3e0 9abc 34f8 8b3d
000002b0: cc2f 55bc ae0a a23d b9b3 943d a42b ab3d
000002c0: abf9 1bbe 2667 543d f2c4 053e 452d babd
000002d0: b057 2fbd a27e 92bd 7a40 3b3e 6b57 0fba
000002e0: 8274 e9bd e64d 0dbe 98e7 413b 4bcb 38bd
000002f0: 834c 45bb ccc3 b5bd 69f3 2d3b 3ac6 a1bd
00000300: b1fd 9abd 9b91 c3bd 07c4 1ebe fcfc 0cbe
00000310: 3c12 c9bc d420 ca3d e378 9d3d f265 deba
00000320: 1dfe 40bd 9ea9 71bd 8d18 1fbd 71b3 b53d
00000330: bcc2 77bd 7a64 45bd 3697 963d 5517 c9bd
00000340: 00da 06bd 9c42 33bd fb71 1f3d e831 76bc
00000350: 29bb 243d b316 0c3d a4b6 463e b3a4 acbc
00000360: bdba fe3b f9ad 153e 440b 243d 67d7 0c3e
00000370: 76f9 9cbe 0602 e03d 6f52 843d 97fc fa3d
00000380: c548 b5bc e2af b63c 173a 403d a962 9ebc
00000390: 2b5a 6dbd 285c 953c f472 5abd 13e0 4c3e
000003a0: fe7c 483d 23c3 5a3d a0b4 c93d 11c5 a2bd
000003b0: a039 1dbe 189c 82bd 487f d8bd b2cf 203e
000003c0: 8e0c 903d 6839 d6bd 3997 a4bc b8ac 87bd
000003d0: 91bf 8b3d 51aa e7bd f639 a03b 1540 f63b
000003e0: cb02 1ebe af58 01be f236 eb3c 24f0 373c
000003f0: 1ac2 a139 38fb 013e ba75 7dbd bb05 ba3d

network_body._body_endoder.seq_layers.2.bias f4 [128]
-0.019140637 0.010672064 -0.015745627 -0.02654759 -0.02514851 -0.002923766 0.027389202 -0.00030036905
-0.032850448 0.011964234 -0.019137254 0.004117435 -0.023862105 -0.008871702 0.01950072 -0.012603576
-0.013233973 -0.014382134 0.00440943 -0.005065571 0.0027144668 -0.019791815 -0.022379614 0.014932363
0.004449201 0.00825404 0.0017670117 -0.007980713 -0.024118785 0.0012140801 0.004458566 -0.0069850767
-0.065537825 -0.005926212 0.022463733 -0.0022719502 0.002602921 -0.005501562 -0.007425767 -0.02584199
-0.003084743 -0.010737154 -0.03769113 -0.01984391 0.034458768 -0.036370974 -0.017297791 -0.0010384511
-0.009441082 -0.00748963 -0.02894107 0.0035149618 -0.020510936 -0.0058773286 -0.01586182 0.008631363
-0.011187694 -0.008115163 0.0014455189 -0.006023269 -0.00060733675 -0.013868032 -0.021074094 -0.0063050454
0.025966823 0.0067351605 -0.04900032 -0.0068793115 -0.030462774 -0.015760398 0.0024894278 -0.0078074676
0.0010278468 0.009644646 -0.016454918 -0.00070655736 -0.009003145 0.00068613957 0.0024010292 -0.00075664994
0.0082796225 -0.047728516 -0.0077191903 0.0040536253 -0.014895817 0.004689906 -0.0038415943 -0.0071341856
-0.021778248 -0.013715479 0.0039941994 -0.009081366 -0.024226464 -0.0039955946 0.0028946002 -0.012822866
-0.025315871 -0.008950067 -0.040396128 0.010052163 -0.016602159 0.009267927 0.000713547 -0.00898422
0.0013863049 -0.01958678 0.0027345212 -0.00525658 -0.0140393535 -0.058541615 0.016587986 0.004076409
0.031890854 -0.012915366 -0.0110292295 -0.012039367 -0.03812943 -0.009832818 -0.014253394 0.00019966638
-0.009041922 0.011940606 0.029706197 0.0090697585 0.0018072668 -0.010584754 -0.015334895 -0.0044508926
00000000: d3cc 9cbc e1d9 2e3c f9fc 80bc 557a d9bc
00000010: 3f04 cebc a79c 3fbb 525f e03c da7a 9db9
00000020: 318e 06bd a205 443c bbc5 9cbc 8ceb 863b
00000030: 767a c3bc 9d5a 11bc f9bf 9f3c 3b7f 4ebc
00000040: 4ed3 58bc 0ba3 6bbc fb7c 903b 17fd a5bb
00000050: 32e5 313b 7222 a2bc 7455 b7bc dfa6 743c
00000060: 9aca 913b f43b 073c 139b e73a 89c1 02bc
00000070: c294 c5bc c521 9f3a 2a19 923b 12e3 e4bb
00000080: b238 86bd ab30 c2bb dd05 b83c 00e5 14bb
00000090: c595 2a3b 7246 b4bb d953 f3bb 95b2 d3bc
000000a0: 6629 4abb e3ea 2fbc 0462 1abd b28f a2bc
000000b0: a324 0d3d bbf9 14bd 19b4 8dbc a31c 88ba
000000c0: c5ae 1abc 926b f5bb d315 edbc 465b 663b
000000d0: 8d06 a8bc 9b96 c0bb a6f0 81bc 8f6a 0d3c
000000e0: 974c 37bc 76f5 04bc 9177 bd3a d85e c5bb
000000f0: ae35 1fba be36 63bc 94a3 acbc 8e9a cebb
00000100: 60b8 d43c 9fb2 dc3b 8fb4 48bd d96b e1bb
00000110: 118d f9bc f31b 81bc ab25 233b c9d5 ffbb
00000120: d1b8 863a 9404 1e3c 77cc 86bc 4338 39ba
00000130: ed81 13bc 0cde 333a 965a 1d3b eb59 46ba
00000140: 41a7 073c fa7e 43bd 43f1 fcbb 46d4 843b
00000150: 960d 74bc c8ad 993b 42c3 7bbb e3c5 e9bb
00000160: 4c68 b2bc e3b6 60bc c6e1 823b 02ca 14bc
00000170: 9476 c6bc 7aed 82bb 55b3 3d3b 0017 52bc
00000180: 3b63 cfbc 4da3 12bc 6976 25bd d4b1 243c
00000190: 4001 88bc 81d8 173c 540d 3b3a 8d32 13bc
000001a0: acb4 b53a 7474 a0bc a735 333b 643f acbb
000001b0: 5105 66bc 55c9 6fbd 87e3 873c 6693 853b
000001c0: fc9f 023d f99a 53bc f1b3 34bc c440 45bc
000001d0: 9b2d 1cbd d419 21bc 1187 69bc 895d 5139
000001e0: 9224 14bc 88a2 433c 695a f33c 5399 143c
000001f0: d0e1 ec3a ad6b 2dbc 363f 7bbc cbd8 91bb

action_model._discrete_distribution.branches.0.weight f4 [2, 128]
-0.004827874 -0.040566094 0.013035439 0.01565859 -0.011989154 -0.0053241984 -0.004692264 -0.011562893
-0.0215247 -0.020392323 0.009711329 0.036232326 -0.0124204075 -0.0660646 0.0066272635 -0.03222746
-0.013506183 0.005001583 0.0049684304 0.02296699 -0.024576165 0.0047214143 -0.015059084 0.06365323
-0.030958164 -0.014296508 0.027776977 0.027806295 -0.023199989 -0.02873006 0.020379111 -0.023468534
0.008520252 -0.01133146 0.067908764 -0.04334944 0.032995384 -0.058710106 0.02654437 -0.014260659
-0.008335096 0.037381608 -0.00072116737 -0.0047019054 0.032345925 0.005398983 -0.0032996256 -0.055843186
0.019284163 0.0028575924 -0.022184119 0.04358205 -0.06460732 -0.030315518 -0.033284046 -0.013057478
0.012930167 0.0053970045 0.049234748 0.013025407 0.034618415 0.015280164 0.010569158 -0.04436395
0.001673183 0.061162632 0.027657794 -0.028012484 0.00830998 -0.0051973546 -0.008810657 0.02665123
-0.021943228 -0.06421691 -0.027651727 -0.027392648 -0.029859062 0.030077567 -0.02403048 0.0069750505
0.012567485 0.008036394 -0.0043949713 0.025443355 0.018363554 0.036485557 0.0042757215 -0.012153501
-0.009933693 0.0071381493 0.014469827 -0.03643818 0.007393242 0.02885321 -0.019313792 0.021579375
-0.019926779 0.035307083 -0.0014432966 0.01191336 -0.014156662 0.008965516 0.006983599 0.0037131968
-0.0012305552 -0.012701732 -0.008606827 -0.020342456 0.001239873 0.0029287713 -0.04433902 0.038272757
0.05968274 -0.020237671 0.01266745 0.014720853 -0.0014110841 0.011544889 -0.0010862991 -0.038304523
-0.015735 0.015101374 -0.029295221 -0.010459633 0.0030009872 -0.031329982 -0.0046442533 -0.0047840676
0.02898713 0.019203002 0.00026123997 -0.029644005 -0.011733285 -0.0029058678 0.014084173 0.0076728766
0.009616311 0.003602468 -0.00063901313 -0.03910152 0.0016697408 0.069684595 -0.013252823 0.024195842
0.018838547 0.0030021877 0.005454861 -0.011332551 0.05312725 -0.0012263973 0.015235049 -0.05610755
0.029753124 -0.0009152424 -0.021961626 -0.0205515 0.024501598 0.011714011 -0.033695146 0.031017283
0.003832648 0.020634323 -0.05051963 0.05695212 -0.026820324 0.06673002 -0.018053943 0.020201676
0.0006593845 -0.027640361 0.0023692513 0.016109055 -0.041581765 0.013037619 0.0030830398 0.046336375
-0.016378708 0.015493345 0.015170861 -0.053061586 0.050069567 0.025381865 0.0439853 -0.008618237
-0.010926694 0.009155609 -0.041454304 -0.043777917 -0.04068344 -0.038327686 -0.020545818 0.048084836
0.012638302 -0.07089305 -0.0072214277 0.02469858 0.0042249635 0.0092373835 -0.008893682 -0.02476221
0.03822137 0.07373918 0.042326506 0.031910215 0.021115027 -0.023513261 0.029961789 -0.025659801
-0.00024359624 -0.011539795 -0.018346362 -0.017816015 0.0054505216 -0.02213513 -0.010097186 0.03257354
-0.012028743 0.005289127 -0.032212283 0.05966384 -0.0063923732 -0.034352627 0.011406348 -0.05661534
0.0209204 -0.034978386 0.024494145 -0.004302201 0.027895248 -0.029353777 0.0046298825 -0.0014271581
0.023109864 -0.010624204 -0.012549408 0.020133022 -0.00028376654 -0.016227715 0.027271118 -0.0337267
-0.06491795 0.030490277 -0.0153068425 -0.029222589 -0.016754737 -0.025641626 -0.011528536 0.048476137
-0.0010239958 -0.028678829 0.028344989 -0.004037767 0.0063826996 0.0416982 0.00081900414 0.014000694
00000000: 2433 9ebb a228 26bd 9892 553c 7146 803c
00000010: 286e 44bc 9d76 aebb 90c1 99bb 4a72 3dbc
00000020: 9154 b0bc cd0d a7bc 441c 1f3c 5968 143d
00000030: f77e 4bbc e14c 87bd 8429 d93b f100 04bd
00000040: 0a49 5dbc 52e4 a33b 37ce a23b 4525 bc3c
00000050: f453 c9bc 18b6 9a3b 60ba 76bc a05c 823d
00000060: fa9b fdbc e73b 6abc 8b8c e33c 07ca e33c
00000070: e70d bebc 4e5b ebbc 18f2 a63c 1541 c0bc
00000080: 8798 0b3c 97a7 39bc c013 8b3d 2f8f 31bd
00000090: 2b26 073d 027a 70bd 9473 d93c 8aa5 69bc
000000a0: ed8f 08bc 751d 193d b90c 3dba 7112 9abb
000000b0: 297d 043d f4e9 b03b 883e 58bb d3bb 64bd
000000c0: d2f9 9d3c 7246 3b3b 78bb b5bc 1783 323d
000000d0: d850 84bd 4058 f8bc da54 08bd 08ef 55bc
000000e0: 0dd9 533c 5bd9 b03b 60aa 493d 8468 553c
000000f0: 0acc 0d3d a759 7a3c 432a 2d3c f9b6 35bd
00000100: b54e db3a ab85 7a3d 9992 e23c 707a e5bc
00000110: 9526 083c 924e aabb 935a 10bc ae53 da3c
00000120: 49c2 b3bc 2884 83bd e085 e2bc 8c66 e0bc
00000130: fe9a f4bc 3b65 f63c 92db c4bc f78e e43b
00000140: dae7 4d3c 14ab 033c b103 90bb 956e d03c
00000150: 2a6f 963c e171 153d 5a1b 8c3b 7a1f 47bc
00000160: eec0 22bc 23e7 e93b da12 6d3c 3340 15bd
00000170: 0243 f23b 915d ec3c f537 9ebc 3bc7 b03c
00000180: 7c3d a3bc 299e 103d ff2c bdba 4130 433c
00000190: 58f1 67bc 1ae4 123c add6 e43b 1b59 733b
000001a0: 954a a1ba ed1a 50bc a603 0dbc 39a5 a6bc
000001b0: 3c83 a23a a1f0 3f3b d59c 35bd e5c3 1c3d
000001c0: e475 743d 79c9 a5bc 238b 4f3c bc2f 713c
000001d0: 20f4 b8ba c626 3d3c 2662 8eba 34e5 1cbd
000001e0: b0e6 80bc c16b 773c 88fc efbc e15e 2bbc
000001f0: 36ac 443b de53 00bd d22e 98bb abc3 9cbb
00000200: 6b76 ed3c 9d4f 9d3c 09f7 8839 fcd7 f2bc
00000210: f73c 40bc 5f70 3ebb 4ec1 663c c16c fb3b
00000220: bb8d 1d3c 6217 6c3b 7283 27ba ea28 20bd
00000230: 34db da3a ccb6 8e3d 5e22 59bc 5c36 c63c
00000240: 4c53 9a3c 5ac0 443b b1be b23b 2aac 39bc
00000250: f69b 593d 11bf a0ba 6d9c 793c 08d1 65bd
00000260: d3bc f33c e1ec 6fba dee8 b3bc 9f5b a8bc
00000270: 93b7 c83c 20ec 3f3c ec03 0abd f517 fe3c
00000280: 2a2d 7b3b 5009 a93c aced 4ebd a046 693d
00000290: 4cb6 dbbc c0a9 883d dde5 93bc fc7d a53c
000002a0: 8bda 2c3a 0a6e e2bc 7145 1b3b 23f7 833c
000002b0: a451 2abd bd9b 553c d30c 4a3b 36cb 3d3d
000002c0: a42c 86bc cdd7 7d3c 348f 783c 1b57 59bd
000002d0: bf15 4d3d a1ed cf3c ee29 343d 8233 0dbc
000002e0: e005 33bc 6801 163c fdcb 29bd 7950 33bd
000002f0: aea3 26bd 7efd 1cbd b44f a8bc 9bf4 443d
00000300: e110 4f3c 6030 91bd baa1 ecbb ad54 ca3c
00000310: 9071 8a3b 6558 173c ceb6 11bc 1eda cabc
00000320: 038e 1c3d 9104 973d 8f5e 2d3d 49b4 023d
00000330: 6cf9 ac3c e29e c0bc 6d72 f53c 8134 d2bc
00000340: de6d 7fb9 6911 3dbc 1c4b 96bc e4f2 91bc
00000350: 4a9a b23b bb54 b5bc ab6e 25bc d56b 053d
00000360: 3414 45bc 6a50 ad3b 07f1 03bd 1262 743d
00000370: 1d77 d1bb 57b5 0cbd b1e1 3a3c 7de5 67bd
00000380: 4261 ab3c 7f45 0fbd f2a7 c83c 7af9 8cbb
00000390: 9384 e43c 5577 f0bc 45b6 973b 7b0f bbba
000003a0: e650 bd3c 2411 2ebc 089c 4dbc 02ee a43c
000003b0: 80c6 94b9 fcef 84bc ae67 df3c 0225 0abd
000003c0: b4f3 84bd bfc6 f93c 8dc9 7abc 3664 efbc
000003d0: 3b41 89bc 630e d2bc 2fe2 3cbc ea8e 463d
000003e0: 9937 86ba ddef eabc c033 e83c 3f4f 84bb
000003f0: f725 d13b bbcb 2a3d 70b2 563a 2b63 653c

action_model._discrete_distribution.branches.0.bias f4 [2]
0.008225685 -0.008225684
00000000: 06c5 063c 05c5 06bc

action_model._discrete_distribution.branches.1.weight f4 [3, 128]
0.009800933 -0.037746828 -0.0023261912 0.02220993 0.0027025272 0.016599664 0.0043421085 -0.012330928
0.011572341 0.053205017 -0.0026749088 -0.008252595 0.022749055 0.033273276 -0.0015051789 -0.02979296
-0.01894027 0.012010857 -0.04913328 0.028067281 -0.02333834 0.021062065 -0.015464807 -0.015673243
-0.0057407827 -0.04918721 -0.024436729 0.004336302 0.0043854853 -0.020405265 0.018578267 -0.003494475
0.0041231997 -0.046587363 -0.022010434 -0.016995603 -0.019352514 0.02478464 0.06927059 0.007324878
0.015929796 -0.0015678754 -0.006569588 0.032310586 0.0012755513 0.008480936 -0.0033274936 -0.027740924
0.037368122 0.04848748 0.012584973 -0.021834463 0.030590296 0.029161023 -0.0019626347 -0.026502697
-0.023926234 -0.012074916 -0.014499219 -0.053136423 0.023282139 0.0061539263 -0.019387795 0.028779922
-0.0008899932 0.0007630272 0.007970806 -0.011214934 -0.0011812573 0.01300038 -0.034253657 0.017688017
-0.034589387 -0.0339711 0.023670759 -0.019415569 0.00057401427 0.04225429 -0.017775014 0.012394675
-0.044396404 -0.0024481716 0.035962176 -0.0016983509 -0.011613642 -0.052322503 0.03311217 -0.0034128109
0.021303955 -0.00034744872 -0.052772265 -0.028228732 0.0074953777 0.006674346 -0.033865184 -0.0024062432
0.02150759 0.03962274 0.026006967 -0.05017611 0.010112791 -0.034939084 -0.03256522 -0.023502002
0.055030864 0.0024616604 0.024658402 -0.012304255 0.04695057 0.003528984 -0.04865973 -0.014848513
-0.02033797 -0.00899957 0.012905172 0.018567238 0.002610362 0.029100232 -0.004421344 0.031972237
-0.019450793 0.020375239 0.006937321 0.020671548 0.048797756 -0.017029954 0.05166097 -0.016184924
-0.038475975 0.009323177 -0.0077804197 -0.02613882 0.008028802 0.02572526 -0.08932301 0.040318687
-0.002870908 0.043493416 0.015224341 0.01368841 -0.017465014 -0.021354856 -0.048470378 -0.006433139
0.023142053 -0.02398767 -0.014431711 0.005366027 0.0018537411 -0.026143309 -0.0006544355 0.0030341852
0.05954488 0.015472393 -0.0045749648 -0.035291005 0.0047931042 0.0040971483 0.011137988 -0.019779952
-0.004686375 -0.008177378 -0.014644971 -0.0148762055 0.035813086 -0.02407241 -0.04274014 -0.017283283
-0.026496388 0.008395386 0.011238557 -0.042870887 -0.03615163 0.012947197 -0.008469159 0.040830445
-0.04855116 -0.051464576 -0.010455958 -0.01330861 -0.006355856 -0.022324447 0.02372695 0.08959164
0.028761743 -0.026187317 0.007724876 0.022738045 0.014497083 -0.024585983 0.012973516 -0.009783255
-0.09240115 0.024724469 -0.0034795692 -0.00338002 0.0119021125 -0.0010577264 0.008824177 -0.019612364
0.025987655 0.054573502 -0.027578013 0.04099541 0.0014787106 0.014430059 0.05979807 -0.061440613
0.0484257 0.011984657 -0.0061662933 0.06285437 0.047761153 0.007048963 -0.01047201 -0.012287225
-0.028665802 -0.030095205 0.038850054 0.022860058 -0.036169417 0.049510013 0.03379773 -0.0070882053
0.015622633 -0.021223953 -0.01621981 0.0011719369 0.008584775 -0.038041163 0.040362056 -0.006649877
-0.017647099 0.00913322 0.014482506 -0.041760676 -0.01159778 -0.026143273 0.0037053057 0.044099223
0.050755043 0.0052209306 0.022685245 -0.049870405 0.00644753 -0.04455562 0.011648742 -0.010238114
0.018380493 0.04361229 0.044481926 0.036673848 -0.031069389 0.017705388 -0.005490244 -0.028473537
00000000: 1894 203c 6b9c 1abd 0373 18bb 99f1 b53c
00000010: e21c 313b 05fc 873c 3f48 8e3b a907 4abc
00000020: eb99 3d3c 81ed 593d 864d 2fbb e435 07bc
00000030: 3a5c ba3c 8f49 083d 6c49 c5ba 5e10 f4bc
00000040: a028 9bbc 30c9 443c fa3f 49bd 5bed e53c
00000050: 0c30 bfbc 5a8a ac3c 1a60 7dbc 2c65 80bc
00000060: 2d1d bcbb 8778 49bd 892f c8bc 8a17 8e3b
00000070: 1eb4 8f3b f128 a7bc 7331 983c 9003 65bb
00000080: e81b 873b 64d2 3ebd 3a4f b4bc 5d3a 8bbc
00000090: 2a89 9ebc 2809 cb3c bddd 8d3d 8805 f03b
000000a0: 347f 823c 2b81 cdba b345 d7bb 1b58 043d
000000b0: 6630 a73a a0f3 0a3c 1412 5abb ef40 e3bc
000000c0: 510f 193d cf9a 463d 3431 4e3c 30de b2bc
000000d0: 8098 fa3c 19e3 ee3c 8c9f 00bb 2f1c d9bc
000000e0: f300 c4bc ded5 45bc 228e 6dbc 94a5 59bd
000000f0: 2fba be3c e0a6 c93b 27d3 9ebc dfc3 eb3c
00000100: 6f4e 69ba e305 483a fc97 023c d8be 37bc
00000110: 6bd4 9aba 8cff 543c 904d 0cbd 76e6 903c
00000120: 9aad 0dbd 4825 0bbd 2ee9 c13c 660d 9fbc
00000130: 7279 163a d612 2d3d e89c 91bc 0913 4b3c
00000140: 01d9 35bd 8171 20bb 134d 133d 339b deba
00000150: 2547 3ebc 1f50 56bd a0a0 073d 77a9 5fbb
00000160: a285 ae3c c729 b6b9 bb27 58bd f13f e7bc
00000170: c99b f53b 79b4 da3b 38b6 0abd 10b2 1dbb
00000180: af30 b03c 744b 223d 900c d53c 7785 4dbd
00000190: 1fb0 253c 491c 0fbd 1c63 05bd 4587 c0bc
000001a0: 0b68 613d cf53 213b 6b00 ca3c c997 49bc
000001b0: 3e4f 403d 8746 673b 6d4f 47bd 2d47 73bc
000001c0: d19b a6bc ef72 13bc 3770 533c 521a 983c
000001d0: 9b12 2b3b 9c63 ee3c ece0 90bb 52f5 023d
000001e0: 4557 9fbc f9e9 a63c 7752 e33b 6157 a93c
000001f0: 28e0 473d 6782 8bbc 749a 533d 3f96 84bc
00000200: fc98 1dbd 3dc0 183c e4f2 febb 1421 d6bc
00000210: 3d8b 033c c8bd d23c fbee b6bd 3525 253d
00000220: d825 3cbb 2726 323d 846f 793c 5a45 603c
00000230: ca12 8fbc 61f0 aebc e088 46bd 15cd d2bb
00000240: 6794 bd3c ca81 c4bc fc72 6cbc 7fd5 af3b
00000250: 3bf9 f23a 7e2a d6bc 6c8e 2bba 2ed9 463b
00000260: 55e5 733d eb7f 7d3c 96e9 95bb 4d8d 10bd
00000270: 790f 9d3b 5f41 863b 1c7c 363c 9109 a2bc
00000280: 2a90 99bb 69fa 05bc 76f1 6fbc 54bb 73bc
00000290: beb0 123d 8133 c5bc 4910 2fbd ac95 8dbc
000002a0: f40e d9bc cd8c 093c ed21 383c 6299 2fbd
000002b0: bb13 14bd 7b20 543c 3ac2 0abc d33d 273d
000002c0: 95dd 46bd 85cc 52bd 774f 2bbc 5b0c 5abc
000002d0: c944 d0bb c2e1 b6bc 055f c23c d27b b73d
000002e0: bf9d eb3c c986 d6bc f520 fd3b 2345 ba3c
000002f0: 2c85 6d3c 8b68 c9bc df8e 543c f249 20bc
00000300: d03c bdbd f88a ca3c 7c09 64bb 5383 5dbb
00000310: 1401 433c 69a3 8aba 4893 103c 1caa a0bc
00000320: 10e4 d43c 7788 5f3d 49eb e1bc ceea 273d
00000330: 4bd1 c13a 0e6c 6c3c d2ee 743d 27a9 7bbd
00000340: 075a 463d 4b5b 443c 9e0e cabb cbb9 803d
00000350: 33a1 433d fdfa e63b cb92 2bbc 5b50 49bc
00000360: 8bd4 eabc 388a f6bc 3c21 1f3d 0445 bb3c
00000370: 6226 14bd 03cb 4a3d 7d6f 0a3d 2d44 e8bb
00000380: 12f6 7f3c dbdd adbc 68df 84bc ad9b 993a
00000390: 28a7 0c3c 0dd1 1bbd af52 253d 36e7 d9bb
000003a0: a690 90bc 80a3 153c 0848 6d3c 3e0d 2bbd
000003b0: 9d04 3ebc 6b2a d6bc b7d4 723b 63a1 343d
000003c0: 85e4 4f3d 5714 ab3b 68d6 b93c e944 4cbd
000003d0: cd45 d33b f47f 36bd 5dda 3e3c c3bd 27bc
000003e0: b092 963c cda2 323d ae32 363d 5137 163d
000003f0: 3b85 febc e40a 913c 81e7 b3bb 5641 e9bc

action_model._discrete_distribution.branches.1.bias f4 [3]
-0.010122847 0.0067268508 0.0028834634
00000000: 4cda 25bc ea6c dc3b 7df8 3c3b

action_model._discrete_distribution.branches.2.weight f4 [1, 128]
-0.0014533828 0.005086237 0.0039203498 0.008235608 -0.015383049 -0.00038639392 0.014387906 -0.00563299
-0.0068884143 0.00066627 0.007837783 -0.00697257 0.010853581 0.008021118 -0.0144612985 -0.0030032971
-0.0055208784 0.008399429 -0.0061002504 0.012761252 -0.0032345578 0.0065565393 -0.006952067 0.0025555207
-0.005256248 -0.0030605923 0.005113043 0.0034582706 0.010648019 0.00023498957 0.0066916654 -0.010431912
-0.0019737426 0.00013810406 0.016273238 0.00036748697 -0.0034534414 -0.007012456 0.015373617 0.0043965853
-4.0207324e-06 0.02070078 -0.008376765 0.0102974 8.3522835e-05 0.0016291924 -0.010222767 0.0015209981
0.005221396 -0.009794706 0.010846377 -0.007986211 0.0073019983 0.0040695965 0.005720892 -0.007354422
-0.006250702 0.012658901 -0.003279029 -0.0073011005 -0.0016206469 -0.0029401567 -0.011974566 -0.010669491
-0.002193224 0.006670017 -0.0017401282 0.0048816823 -0.0066530057 0.0016876217 0.014283656 -0.0039388235
0.0023031358 -0.013366449 0.010882714 0.011119842 0.007367305 -0.00022362506 0.008295985 0.0063861436
0.0015859578 -0.0073172846 0.00017448561 -0.017036485 0.015848478 -0.0056810062 -0.00012996602 0.0014941732
-0.0059830775 -0.026934624 -0.0049949507 0.0030148008 -0.005228926 -0.006505874 0.011980175 -0.001678572
0.0073725097 -0.000936564 -0.014807402 -0.0017376522 0.009691426 -0.013336323 0.001230404 -0.016209519
0.007064537 -0.010126862 0.00029333096 -0.014169427 -0.0074276812 -0.0117470445 0.0014183109 0.008013489
0.020754725 0.011476739 9.490151e-05 0.0034078334 -0.011480955 -0.0046850527 -0.010964801 0.0029161954
-0.0015875867 -0.0020206275 -0.008788221 0.0046631335 0.007257649 -0.0088155335 -0.010407883 -0.006097728
00000000: 6f7f beba 73aa a63b 4776 803b a5ee 063c
00000010: 2f09 7cbc ea94 cab9 40bb 6b3c f294 b8bb
00000020: 35b8 e1bb 9fa8 2e3a 0b6a 003c 287a e4bb
00000030: 38d3 313c 026b 033c 15ef 6cbc f7d2 44bb
00000040: 7ce8 b4bb c29d 093c 9ce4 c7bb 9214 513c
00000050: e0fa 53bb 3dd8 d63b 2ace e3bb 867a 273b
00000060: 9b3c acbb 3894 48bb 508b a73b 27a4 623b
00000070: 0775 2e3c 8867 7639 c245 db3b 9cea 2abc
00000080: e859 01bb 07d0 1039 744f 853c 44ab c039
00000090: 2253 62bb bfc8 e5bb a0e1 7b3c 3b11 903b
000000a0: d4e9 86b6 af94 a93c b33e 09bc 6db6 283c
000000b0: fb28 af38 a08a d53a 647d 27bc 3a5c c73a
000000c0: 3f18 ab3b f979 20bc 01b5 313c 99d8 02bc
000000d0: 9a45 ef3b 405a 853b 5276 bb3b 5dfd f0bb
000000e0: b0d2 ccbb 4767 4f3c fae4 56bb 123e efbb
000000f0: e36b d4ba a5af 40bb f830 44bc 17cf 2ebc
00000100: 31bc 0fbb 2890 da3b 0315 e4ba 85f6 9f3b
00000110: 7501 dabb 3033 dd3a ff05 6a3c 3f11 81bb
00000120: 35f0 163b f3fe 5abc 694d 323c ff2f 363c
00000130: 6f69 f13b e57c 6ab9 e2eb 073c db42 d13b
00000140: eadf cf3a d5c5 efbb 20f6 3639 1990 8bbc
00000150: abd4 813c bc27 babb 7d47 08b9 22d8 c33a
00000160: b10d c4bb 00a6 dcbc afac a3bb f793 453b
00000170: 6957 abbb 3a2f d5bb 7f48 443c 8803 dcba
00000180: 1895 f13b bf83 75ba bf9a 72bc efc1 e3ba
00000190: c9c8 1e3c 9880 5abc 8245 a13a d3c9 84bc
000001a0: a27d e73b 23eb 25bc 37ca 9939 e226 68bc
000001b0: e863 f3bb ad76 40bc 9ee6 b93a 024b 033c
000001c0: d005 aa3c ef08 3c3c dc05 c738 f555 5f3b
000001d0: 9e1a 3cbc 1285 99bb b5a5 33bc a41d 3f3b
000001e0: 9216 d0ba 816c 04bb 78fc 0fbc 33cd 983b
000001f0: 93d1 ed3b 076f 10bc d385 2abc 73cf c7bb

94 f4 [630]
0.17271224 0.49883434 0.2865631 0.04297818 0.043286126 0.037707843 0.03692401 0.036489315
0.46341416 0.3763213 0.17764506 0.4989222 0.2920431 0.04699249 0.045265723 0.03833718
0.03777829 0.038819566 0.4618997 0.3761168 0.1721461 0.49889746 0.28922862 0.04772119
0.04248077 0.039766695 0.035678577 0.037139427 0.46303278 0.3758794 0.18024695 0.4988598
0.2902487 0.05079184 0.04520703 0.036489323 0.04133957 0.037707847 0.46172476 0.3766932
0.17528392 0.49938947 0.29189485 0.04204069 0.04328613 0.04197743 0.0326414 0.036196616
0.46509898 0.37650415 0.19003949 0.49876726 0.29017377 0.047554016 0.043469846 0.032641396
0.036562126 0.036489323 0.45906842 0.37638614 0.17528392 0.49941316 0.28680694 0.046079673
0.042854372 0.040887106 0.030096287 0.037778288 0.4673025 0.37812275 0.20066829 0.49842906
0.2947659 0.047274094 0.04805373 0.03181575 0.03560395 0.035901506 0.45386887 0.3741128
0.17599462 0.49928513 0.29721272 0.046424083 0.042418182 0.040756892 0.034232758 0.038751025
0.46319348 0.37602508 0.21068817 0.49848244 0.297602 0.047721185 0.051259704 0.03407698
0.036707316 0.03861357 0.45010322 0.372294 0.18174385 0.49915296 0.29999182 0.046424083
0.04526573 0.042166885 0.03407698 0.034925118 0.46034822 0.37379834 0.21582256 0.4981959
0.29764515 0.049199827 0.05303955 0.036270015 0.039833467 0.04095205 0.44605055 0.36972657
0.18836968 0.49919552 0.30398896 0.043101616 0.048493557 0.04165972 0.033605296 0.03627001
0.45808342 0.3712875 0.22164336 0.49871865 0.29847112 0.051259704 0.049415093 0.04062627
0.035975512 0.041339565 0.447455 0.36872327 0.18901086 0.49931476 0.3005669 0.04579066
0.046709154 0.045148246 0.03130986 0.034310378 0.45877776 0.36933345 0.22235374 0.49917218
0.30402374 0.051876888 0.04968285 0.04088711 0.037637264 0.039295997 0.44845197 0.36709994
0.1927934 0.49962544 0.30679584 0.044734586 0.044971447 0.042978175 0.032804023 0.03423276
0.45925 0.36742082 0.22580044 0.49974197 0.315358 0.051774547 0.049199827 0.038956285
0.035901513 0.037282348 0.45011872 0.36444682 0.20044906 0.49993557 0.311594 0.045382906
0.044971444 0.039565668 0.037067756 0.03344658 0.4608551 0.36518207 0.22034457 0.50000453
0.31803593 0.048657473 0.048711985 0.03916048 0.034848865 0.034387827 0.45727894 0.36461377
0.20505334 0.49996036 0.3237706 0.046252206 0.046137247 0.03819822 0.037707847 0.033446588
0.4622569 0.36216757 0.17294385 0.49877137 0.28684503 0.043039948 0.04346985 0.037778288
0.03721096 0.036489315 0.4636623 0.37593067 0.17786933 0.49885833 0.29228017 0.047105342
0.045441378 0.03840647 0.037988838 0.038956296 0.46213573 0.37573072 0.17239313 0.49883962
0.28956676 0.04777675 0.04260567 0.039833486 0.035901506 0.037139427 0.46328437 0.3754727
0.18045373 0.49879065 0.29045802 0.05079184 0.045382906 0.036489323 0.04153197 0.037848603
0.46196595 0.37631157 0.17555436 0.4993488 0.29222834 0.04204069 0.04346985 0.04210383
00000000: 7adb 303e 3767 ff3e 66b8 923e e309 303d
00000010: cb4c 313d 8a73 1a3d a13d 173d d275 153d
00000020: 9f44 ed3e 2fad c03e 96e8 353e bb72 ff3e
00000030: ac86 953e 327b 403d 8d68 393d 7207 1d3d
00000040: 69bd 1a3d 4401 1f3d 1e7e ec3e 6292 c03e
00000050: 1147 303e 7d6f ff3e c615 943e 4b77 433d
00000060: 5100 2e3d 67e2 223d b323 123d 831f 183d
00000070: a212 ed3e 4473 c03e a892 383e 8d6a ff3e
00000080: 7a9b 943e 1b0b 503d 022b 393d d475 153d
00000090: ae53 293d 8b73 1a3d 3067 ec3e eedd c03e
000000a0: a17d 333e faaf ff3e 3e73 953e dc32 2c3d
000000b0: cc4c 313d 87f0 2b3d fdb2 053d e742 143d
000000c0: 7421 ee3e 27c5 c03e b699 423e 6c5e ff3e
000000d0: a891 943e 00c8 423d 700d 323d fcb2 053d
000000e0: 2bc2 153d d475 153d 040b eb3e afb5 c03e
000000f0: a17d 333e 15b3 ff3e 5cd8 923e 0abe 3c3d
00000100: 1188 2f3d 3d79 273d 7d8c f63c 68bd 1a3d
00000110: 4642 ef3e 4e99 c13e fd7b 4d3e 1832 ff3e
00000120: 8eeb 963e 7ba2 413d fdd3 443d 3b51 023d
00000130: 73d5 113d 750d 133d 8061 e83e b78b bf3e
00000140: ef37 343e 4da2 ff3e 442c 983e 2e27 3e3d
00000150: b0be 2d3d b3f0 263d a637 0c3d 65b9 1e3d
00000160: b227 ed3e 5c86 c03e a4be 573e 1739 ff3e
00000170: 4a5f 983e 4a77 433d b2f5 513d 4e94 0b3d
00000180: 695a 163d 4329 1e3d ee73 e63e 529d be3e
00000190: 0f1b 3a3e fa90 ff3e 8798 993e 2e27 3e3d
000001a0: 8f68 393d 2fb7 2c3d 4e94 0b3d a40d 0f3d
000001b0: c3b2 eb3e 7f62 bf3e 9700 5d3e 8813 ff3e
000001c0: f264 983e c285 493d 0040 593d de8f 143d
000001d0: 6b28 233d 56bd 273d bd60 e43e cd4c bd3e
000001e0: fbe3 403e 8e96 ff3e 71a4 9b3e 528b 303d
000001f0: 2ea1 463d 62a3 2a3d b5a5 093d dd8f 143d
00000200: e989 ea3e 6519 be3e 7af6 623e 0d58 ff3e
00000210: 35d1 983e b2f5 513d 7b67 4a3d bb67 263d
00000220: 0f5b 133d ad53 293d d218 e53e 4cc9 bc3e
00000230: 108c 413e 2fa6 ff3e e8e3 993e fd8e 3b3d
00000240: 1952 3f3d 5eed 383d c53e 003d 0a89 0c3d
00000250: ebe4 ea3e 4619 bd3e b3b0 633e 7f93 ff3e
00000260: 00a9 9b3e dc7c 543d 3e80 4b3d 3e79 273d
00000270: 8829 1a3d d7f4 203d 7f9b e53e 86f4 bb3e
00000280: a26b 453e e8ce ff3e 5814 9d3e 9d3b 373d
00000290: fb33 383d e209 303d 835d 063d a737 0c3d
000002a0: d122 eb3e 951e bc3e 3b38 673e 2ede ff3e
000002b0: 9b76 a13e 8c11 543d c285 493d a090 1f3d
000002c0: 770d 133d 60b5 183d f675 e63e c698 ba3e
000002d0: 8542 4d3e 8ef7 ff3e 4089 9f3e 6de3 393d
000002e0: fa33 383d 9c0f 223d 5cd4 173d 48ff 083d
000002f0: 33f5 eb3e 25f9 ba3e 02a2 613e 4c00 003f
00000300: 9bd5 a23e 0f4d 473d 3886 473d bd66 203d
00000310: afbd 0e3d 40da 0c3d 7720 ea3e a8ae ba3e
00000320: 81f9 513e cefa ff3e 43c5 a53e f472 3d3d
00000330: 69fa 3c3d bd75 1c3d 8b73 1a3d 4aff 083d
00000340: f0ac ec3e 076e b93e 3118 313e f65e ff3e
00000350: 5add 923e a84a 303d 710d 323d 68bd 1a3d
00000360: 856a 183d d275 153d 2565 ed3e fc79 c03e
00000370: 6123 363e 5c6a ff3e bfa5 953e 88f1 403d
00000380: bd20 3a3d 1a50 1d3d 2f9a 1b3d a390 1f3d
00000390: 0e9d ec3e c75f c03e d387 303e e867 ff3e
000003a0: 1842 943e 8eb1 433d 4883 2e3d 7028 233d
000003b0: 750d 133d 831f 183d 9c33 ed3e f53d c03e
000003c0: ddc8 383e 7d61 ff3e eab6 943e 1b0b 503d
000003d0: 6de3 393d d475 153d 6d1d 2a3d 2307 1b3d
000003e0: cd86 ec3e e9ab c03e 86c4 333e a5aa ff3e
000003f0: f49e 953e dc32 2c3d 710d 323d 1175 2c3d

97 f4 [9]
7.3868227 30.719225 0.498557 7.248051 30.308195 0.49843296 7.1166387 29.89092
0.49830362
00000000: da60 ec40 f9c0 f541 dd42 ff3e 09f0 e740
00000010: 2f77 f241 9b32 ff3e 81bb e340 9b20 ef41
00000020: a721 ff3e
