Assets/ZooheimTest/Models/run3/RabbitBehavior/RabbitBehavior-183386.onnx (onnx, 405109 bytes, 14 tensors)

discrete_act_size_vector f4 [1, 3]
0	0x40000000	2.0
1	0x40400000	3.0
2	0x3f800000	1.0

network_body.observation_encoder.processors.0.normalizer.running_mean f4 [630]
0	0x3cf396ac	0.029734932
1	0x3f21c6fb	0.63194245
2	0x3def9177	0.11697667
3	0x3b2a1aff	0.0025956032
4	0x3ae7927d	0.0017667558
5	0x3a9f6272	0.0012160076
6	0x3ad7d924	0.0016467911
7	0x3aa23e58	0.0012378199
8	0x3e3e2278	0.18567836
9	0x3ed8c899	0.42340544
10	0x3d01fdc6	0.031736158
11	0x3f20cef6	0.628158
12	0x3df46d14	0.119348675
13	0x3b4768cc	0.0030427454
14	0x3acd2091	0.0015649964
15	0x3ab58a88	0.001385049
16	0x3adb6bf8	0.0016740551
17	0x3aafd2c6	0.0013414256
18	0x3e3d26dd	0.18471856
19	0x3ed90115	0.42383638
20	0x3d016366	0.031588934
21	0x3f2060e2	0.6264783
22	0x3df8111b	0.121126376
23	0x3b2ec053	0.0026664927
24	0x3adfb5cc	0.001706773
25	0x3a8d8431	0.0010796842
26	0x3ae56d93	0.0017503969
27	0x3ab41c98	0.0013741432
28	0x3e3d0045	0.18457134
29	0x3ed7f0a3	0.4217578
30	0x3d0a0279	0.033693764
31	0x3f21c699	0.6319366
32	0x3de20b4b	0.1103731
33	0x3b380aee	0.0028082686
34	0x3adcd9eb	0.0016849613
35	0x3ab1f7ae	0.0013577843
36	0x3af74bdb	0.0018867211
37	0x3abbf93f	0.0014341249
38	0x3e408bfe	0.18803403
39	0x3ed90d44	0.42392933
40	0x3d065e7c	0.03280495
41	0x3f1e6f69	0.6188875
42	0x3e010f16	0.12603411
43	0x3b2a767f	0.002601057
44	0x3ad16a69	0.0015977147
45	0x3a6eb831	0.0009106426
46	0x3acf4574	0.0015813545
47	0x3ab4d392	0.0013795963
48	0x3e3f8c25	0.18705805
49	0x3ed9de53	0.42552432
50	0x3d16e5b2	0.03684015
51	0x3f213f2b	0.6298701
52	0x3dedc80a	0.1161042
53	0x3b2e095d	0.0026555874
54	0x3ad5b434	0.0016304315
55	0x3aa7f615	0.0012814427
56	0x3b054c05	0.00203395
57	0x3abf8c1a	0.0014613897
58	0x3e38c90b	0.18045442
59	0x3ed76123	0.42066297
60	0x3d088362	0.03332842
61	0x3f1d7939	0.61513096
62	0x3dff648d	0.124703504
63	0x3b1a062e	0.0023502219
64	0x3ab91d61	0.0014123135
65	0x3a71940d	0.00092154817
66	0x3af0dd12	0.0018376431
67	0x3abbf94c	0.0014341264
68	0x3e42ff84	0.19042784
69	0x3edbcc74	0.42929423
70	0x3d1bad4d	0.03800707
71	0x3f211780	0.62926483
72	0x3dedb40d	0.116066076
73	0x3b3089c1	0.0026937576
74	0x3ad7221f	0.0016413367
75	0x3ab2aea2	0.0013632367
76	0x3af526ef	0.001870362
77	0x3ae3ff96	0.0017394896
78	0x3e393e46	0.18090162
79	0x3ed7395b	0.42035946
80	0x3d09237c	0.033481106
81	0x3f1dadbe	0.61593235
82	0x3e038f76	0.12847695
83	0x3b20d063	0.002453827
84	0x3af74bd4	0.0018867203
85	0x3a498db5	0.00076886575
86	0x3aebdc4c	0.0017994731
87	0x3abe1e2e	0.0014504844
88	0x3e3e490c	0.18582553
89	0x3edc5000	0.43029785
90	0x3d1f45dd	0.038884986
91	0x3f21fa70	0.6327276
92	0x3df447f0	0.119277835
93	0x3b37af70	0.0028028153
94	0x3ace8e7f	0.001575902
95	0x3ad94711	0.0016576966
96	0x3b065e7b	0.0020503092
97	0x3abcb03a	0.0014395781
98	0x3e2f7fdd	0.1713862
99	0x3ed659d1	0.418654
100	0x3d143d3d	0.036191214
101	0x3f1ea6d6	0.6197332
102	0x3e04a35a	0.12952939
103	0x3b2299ce	0.0024810913
104	0x3b010234	0.001968515
105	0x3a8b5f45	0.0010633251
106	0x3b05a781	0.002039403
107	0x3ac81fca	0.0015268263
108	0x3e34c825	0.17654474
109	0x3edb7798	0.4286468
110	0x3d20ecfa	0.0392885
111	0x3f221428	0.63312006
112	0x3e01748b	0.12642114
113	0x3b19aaac	0.0023447676
114	0x3aeeb830	0.0018212851
115	0x3aacf6e2	0.0013196135
116	0x3b0bbabc	0.002132102
117	0x3ab140b2	0.0013523309
118	0x3e275bb6	0.16343579
119	0x3ed4d046	0.4156515
120	0x3d2153e7	0.039386656
121	0x3f200f62	0.6252347
122	0x3e0a21ef	0.13489507
123	0x3b0b5f42	0.0021266495
124	0x3aee0136	0.001815832
125	0x3aa9640b	0.0012923492
126	0x3b1c2b16	0.0023829392
127	0x3adfb5c9	0.0017067726
128	0x3e25fc0e	0.16209432
129	0x3ed8c9c4	0.42341435
130	0x3d2300ba	0.039795615
131	0x3f214928	0.6300225
132	0x3e077dce	0.13231584
133	0x3b1eab76	0.0024211085
134	0x3b03de16	0.0020121387
135	0x3ab3659c	0.0013686898
136	0x3b15bc56	0.0022847853
137	0x3ac768cf	0.001521373
138	0x3e23ba90	0.15989137
139	0x3ed63313	0.41835842
140	0x3d24d595	0.04024275
141	0x3f207a9c	0.6268709
142	0x3e0dd713	0.13851576
143	0x3b054c08	0.0020339508
144	0x3af694df	0.0018812678
145	0x3aadaddb	0.0013250666
146	0x3b10bb8a	0.0022084438
147	0x3ae56d8e	0.0017503963
148	0x3e20c21b	0.15699045
149	0x3ed8a4bf	0.4231319
150	0x3d2c010a	0.04199318
151	0x3f1eeb16	0.6207746
152	0x3e0c5c47	0.13707076
153	0x3b1e4ffd	0.0024156563
154	0x3ae4b699	0.0017449438
155	0x3abcb040	0.0014395788
156	0x3b2407c4	0.0025029043
157	0x3ac768ce	0.0015213729
158	0x3e276893	0.16348486
159	0x3ed9d924	0.42548478
160	0x3d31967a	0.043356396
161	0x3f1ea342	0.6196786
162	0x3e0caf32	0.13738707
163	0x3af5dde7	0.0018758149
164	0x3b0fa91b	0.0021920863
165	0x3acffc71	0.001586808
166	0x3b05a780	0.0020394027
167	0x3ae06cc7	0.0017122262
168	0x3e2501e3	0.16114001
169	0x3edca9b0	0.4309821
170	0x3d342dbd	0.043988932
171	0x3f1ccf74	0.6125405
172	0x3e116e3e	0.1420221
173	0x3b3b4252	0.0028573466
174	0x3b117286	0.0022193505
175	0x3ab41c94	0.0013741427
176	0x3b004b3a	0.0019576089
177	0x3ae123c2	0.0017176794
178	0x3e278ada	0.16361561
179	0x3ede4549	0.43412235
180	0x3d385af5	0.04500862
181	0x3f1aa7b4	0.60412145
182	0x3e12906c	0.14312905
183	0x3aeeb832	0.0018212853
184	0x3b0c1640	0.0021375567
185	0x3acc6998	0.0015595434
186	0x3b117285	0.0022193503
187	0x3add90e4	0.0016904143
188	0x3e2def9c	0.16985935
189	0x3ee2e43b	0.4431475
190	0x3d417d96	0.04723891
191	0x3f18c0fb	0.59669465
192	0x3e144e6b	0.14483039
193	0x3b31f7b6	0.0027155704
194	0x3b15bc53	0.0022847846
195	0x3abd6736	0.0014450315
196	0x3ac5fadc	0.0015104669
197	0x3ae7927c	0.0017667557
198	0x3e319ac2	0.17344192
199	0x3ee5496f	0.44782588
200	0x3d35795e	0.044305198
201	0x3f19cb8f	0.6007623
202	0x3e13ed36	0.14445958
203	0x3b183cbc	0.002322956
204	0x3b24633f	0.002508357
205	0x3ae4b69f	0.0017449445
206	0x3b12e074	0.0022411617
207	0x3af526ee	0.0018703619
208	0x3e30b8ed	0.17258044
209	0x3ee56c9d	0.44809428
210	0x3cf46ff2	0.029838536
211	0x3f221484	0.63312554
212	0x3df0098c	0.11720571
213	0x3b2a767c	0.0026010564
214	0x3ae9006d	0.0017776616
215	0x3a9f6272	0.0012160076
216	0x3ad7d924	0.0016467911
217	0x3aa3ac47	0.0012487256
218	0x3e3e80cd	0.18603821
219	0x3ed93463	0.4242278
220	0x3d025efc	0.031828865
221	0x3f211c83	0.6293413
222	0x3df4d3fa	0.11954494
223	0x3b4768cc	0.0030427454
224	0x3ace8e7f	0.001575902
225	0x3ab58a88	0.001385049
226	0x3adb6bf8	0.0016740551
227	0x3ab089c0	0.0013468787
228	0x3e3d8c61	0.18510582
229	0x3ed97400	0.42471313
230	0x3d01c49e	0.03168165
231	0x3f20a972	0.62758553
232	0x3df891c0	0.121371746
233	0x3b2ec053	0.0026664927
234	0x3ae1dab2	0.0017231314
235	0x3a8d8431	0.0010796842
236	0x3ae56d93	0.0017503969
237	0x3ab4d38d	0.0013795957
238	0x3e3d72a9	0.1850077
239	0x3ed860a6	0.42261237
240	0x3d0a5288	0.033770114
241	0x3f2211a2	0.63308156
242	0x3de28648	0.11060768
243	0x3b380aee	0.0028082686
244	0x3ade47d7	0.0016958666
245	0x3ab1f7ae	0.0013577843
246	0x3af802c9	0.0018921728
247	0x3abcb041	0.001439579
248	0x3e40f5cd	0.18843766
249	0x3ed98247	0.42482206
250	0x3d06bfb0	0.03289765
251	0x3f1eb9ca	0.6200224
252	0x3e01483e	0.12625214
253	0x3b2ad1fa	0.0026065097
254	0x3ad44645	0.0016195258
255	0x3a6eb831	0.0009106426

network_body.observation_encoder.processors.1.normalizer.running_mean f4 [6]
0	0x4242cad4	48.698074
1	0x42f3a19e	121.81566
2	0x4243043d	48.75414
3	0x42f4166f	122.043816
4	0x42433cf1	48.809513
5	0x42f48ae9	122.27131

network_body._body_endoder.seq_layers.0.weight f4 [128, 636]
0	0xbc0a9e30	-0.008460566
1	0xbbf1aee8	-0.007375587
2	0x3caec399	0.021333503
3	0x3b2d7dcd	0.0026472688
4	0xbd8cfd96	-0.06884305
5	0x3c042f2b	0.008067886
6	0x3dd3b2cb	0.103368364
7	0xbc7e6ce1	-0.015528888
8	0x3d802d77	0.06258672
9	0xbdac98d0	-0.08427584
10	0xbca6f682	-0.020381216
11	0xbcb60cd7	-0.02222292
12	0xbd2664aa	-0.040623344
13	0xbba9a2ef	-0.005176894
14	0x3cbeedd5	0.023306767
15	0x3d0d2c52	0.034466095
16	0x3c1aa03a	0.009437615
17	0x3dae4d08	0.08510786
18	0x3d1c30b7	0.038132396
19	0xbd1e9acc	-0.038721845
20	0xbc8e1b23	-0.017346924
21	0xbbf97be2	-0.007613645
22	0x3d431f49	0.047637258
23	0xbc1326db	-0.008981432
24	0xbccf3091	-0.025291713
25	0x3d72b777	0.059256997
26	0x3c6b9592	0.014378922
27	0x3d152f69	0.036422167
28	0xbd996c5c	-0.07491371
29	0xbc3273f9	-0.010891908
30	0x3dbf20fa	0.09332462
31	0xbdb584be	-0.08863209
32	0xbd193bb1	-0.03741044
33	0xbcbcbf4d	-0.023040438
34	0xbb67cce2	-0.0035369922
35	0xbc87b340	-0.016564965
36	0x3d168da8	0.036756188
37	0xbc94595f	-0.018109022
38	0x3ba80ad6	0.005128245
39	0xbd1710dd	-0.036881316
40	0xbc1d5bc8	-0.009604402
41	0xbcc02339	-0.023454295
42	0xbcea7477	-0.028619988
43	0x3d7281bb	0.059205752
44	0x3c61b023	0.013774904
45	0x3d765d08	0.060147315
46	0x3d9ea3af	0.07746064
47	0xbbe29f85	-0.006915989
48	0xbd8f5aa9	-0.06999714
49	0xbd255354	-0.04036267
50	0x3c83c5e9	0.016085582
51	0x3d1fe8e7	0.039040472
52	0xbcb1db55	-0.021711031
53	0x3c2b8000	0.010467529
54	0x3d15c7d5	0.036567528
55	0x3c59a8d3	0.01328488
56	0x3d9cb67b	0.07651993
57	0xbc1beff6	-0.00951766
58	0x3cb9e3b6	0.022691589
59	0x3d00dac9	0.03145865
60	0x3c953267	0.01821251
61	0xbd1ee86f	-0.038795885
62	0x3cd733fb	0.026269903
63	0xbdc559e1	-0.09636284
64	0xbc288008	-0.010284431
65	0x3d9fb668	0.07798463
66	0x3d014deb	0.03156845
67	0x3d24f050	0.040268242
68	0xbcca890a	-0.024723548
69	0x3c28879e	0.01028624
70	0x3d99969a	0.07499428
71	0xbd9264da	-0.07148142
72	0x3c0fb5bc	0.008771356
73	0x3d65e50b	0.056126636
74	0x3d0a8ad2	0.033823796
75	0x3db21f8d	0.08697424
76	0x3dbf3bfa	0.093376115
77	0xbc54941f	-0.012974768
78	0xbba990a5	-0.0051747137
79	0xbd816118	-0.06317347
80	0xbd220937	-0.03955957
81	0x3deee77f	0.11665248
82	0xbd29f8f3	-0.041497182
83	0x3cbfc6e8	0.023410276
84	0x3c1f2a0a	0.009714613
85	0x3cbeccef	0.02329108
86	0x3cdb75a6	0.026789498
87	0x3baf2a45	0.005345615
88	0x3c04b6ee	0.008100254
89	0xbcdac442	-0.026704911
90	0x3abfcf00	0.0014633834
91	0x3d318e8f	0.043348845
92	0xbd174d7e	-0.036939137
93	0x3d648145	0.055787344
94	0xbbe5277d	-0.0069932328
95	0xbb9bc6f5	-0.004753942
96	0x3c85f4fc	0.01635217
97	0xbdd6355b	-0.104593955
98	0x3d43a818	0.04776773
99	0xbcbbf97b	-0.02294611
100	0xbd355028	-0.044265896
101	0x3be807a5	0.0070809894
102	0xbc7bcccc	-0.015368652
103	0xbc14419c	-0.009048846
104	0x3c778fca	0.015109966
105	0xbc11ecd7	-0.008906565
106	0x3c0e1fe7	0.008674598
107	0x3c674a1a	0.014116788
108	0x3c1980d4	0.009369094
109	0x3d0a8061	0.033813838
110	0x3c8a33f0	0.016870469
111	0x3ce09286	0.027413618
112	0xbbc00e06	-0.0058610467
113	0x3d8dfa45	0.06932501
114	0xbda9dd70	-0.08294189
115	0x3dad61af	0.08465897
116	0xbcfff0e7	-0.0312428
117	0xbd849b67	-0.06474953
118	0xbd01abc3	-0.031657945
119	0xbcfeddb4	-0.031111576
120	0x3c325a56	0.010885796
121	0xbd10d7ef	-0.03536218
122	0x3c826014	0.015914954
123	0x3b79d8a1	0.0038123506
124	0xbda8ac48	-0.08235985
125	0x3bf29d5a	0.0074040117
126	0x3d8ea5da	0.069652274
127	0xbd82a2a3	-0.06378677
128	0x3c1dfbce	0.009642554
129	0x3c93b355	0.018029848
130	0x3dad4936	0.084612295
131	0x3c184095	0.009292741
132	0x3bc8961e	0.006121411
133	0x3d15fdeb	0.03661911
134	0xbd9c0928	-0.07618934
135	0x3c173bfb	0.009230609
136	0xbd13ef92	-0.036117144
137	0x3a68cc7d	0.0008880569
138	0xbb954581	-0.0045554047
139	0x3cebe503	0.028795725
140	0xbdd0663a	-0.10175748
141	0x3d455e11	0.04818541
142	0xbd8bab63	-0.06819799
143	0xbd93682e	-0.07197605
144	0xbd5eb5be	-0.05437254
145	0x3bcf52ee	0.0063270247
146	0x3cc31d4b	0.023817679
147	0xbd0d3fbe	-0.034484617
148	0x3c4ac381	0.012375713
149	0xbd249752	-0.040183373
150	0x3d898592	0.0671493
151	0xbd7dff08	-0.062010795
152	0xbbae9bb4	-0.00532862
153	0xbb10f249	-0.002211707
154	0x3d9babc5	0.07601122
155	0x3c8f4c43	0.01749242
156	0xbd8fb234	-0.070164114
157	0xbcc81b37	-0.02442704
158	0x3cd69068	0.026191905
159	0x3c1620f3	0.009163129
160	0x3a0cecfe	0.0005375891
161	0x3cb7b7f9	0.022426592
162	0xbc2d0891	-0.010561124
163	0x3cac9101	0.021065237
164	0x3ccd5f80	0.025069952
165	0x3daeb8c4	0.08531335
166	0x3ded2d5c	0.11580917
167	0xbd9acf2d	-0.07559047
168	0x3c81460c	0.015780471
169	0xbdb712f4	-0.08939162
170	0x3d1b6e27	0.037946846
171	0x3c63ef14	0.013911981
172	0xbd46e322	-0.048556454
173	0xbc654f8a	-0.013996014
174	0x3d1e069b	0.03858052
175	0x3d52cf53	0.05146725
176	0xbbbd6061	-0.0057793115
177	0x3d2bb643	0.041921865
178	0x3cb02384	0.02150131
179	0x3cf93bf8	0.030424103
180	0x3d9de54e	0.07709752
181	0xbc9f91ac	-0.019478641
182	0xbd5b9c86	-0.05361607
183	0xb9f86fa8	-0.00047385436
184	0x3d86d3d6	0.06583373
185	0x3cc4e730	0.02403602
186	0x3cb1eb11	0.021718534
187	0xbdb6d3ec	-0.0892714
188	0xbbe1b466	-0.0068879602
189	0xbd5e14c6	-0.05421903
190	0x3dce1e64	0.1006439
191	0x3cefcd28	0.02927263
192	0x3b35a0d4	0.002771427
193	0x3d641364	0.055682555
194	0x3d88a731	0.06672514
195	0x3c85213a	0.016251195
196	0xbd8ed897	-0.06974905
197	0xbd984c18	-0.07436389
198	0x3d7b26fb	0.06131647
199	0xbbe5555e	-0.006998702
200	0xbd3ca5da	-0.046056606
201	0xbe0e2dfe	-0.13884732
202	0x3b888ddc	0.0041673016
203	0xbda40b07	-0.08009916
204	0xbd3c0732	-0.0459053
205	0x3d0835d6	0.033254467
206	0xbd9a1e6e	-0.07525335
207	0x3d73e26f	0.059542116
208	0xbde976c2	-0.113996044
209	0xbc8b1543	-0.016977912
210	0x3c6db461	0.014508338
211	0x3d2efeeb	0.042723577
212	0xbd3a9699	-0.045553777
213	0x3d8ff7ea	0.07029708
214	0xbdc445f9	-0.09583659
215	0x3ca38ded	0.019965136
216	0x3d211a0f	0.039331492
217	0x3d9a2325	0.075262345
218	0x3d0d1a11	0.034448687
219	0x3d19e4e2	0.037571795
220	0x3d3d065f	0.046148654
221	0x3bcdc55a	0.0062796297
222	0xbd332640	-0.04373765
223	0x3c8755c1	0.016520383
224	0xbbea45ad	-0.0071494193
225	0x3dabdc82	0.08391668
226	0xbc6d992e	-0.014501853
227	0x3ceb0417	0.028688474
228	0x3c8ec200	0.01742649
229	0xbd934a97	-0.07191961
230	0x3c4e7e2d	0.012603325
231	0xbd1f5d54	-0.038907364
232	0x3cab5f09	0.02091934
233	0x3d928503	0.07154276
234	0xbb47fdf6	-0.0030516363
235	0x3d88345f	0.06650614
236	0x3d279b49	0.040919576
237	0xbc70477e	-0.014665483
238	0x3bb1e857	0.0054293084
239	0xbc34dbbb	-0.011038716
240	0x3b993048	0.004674945
241	0xbd98e9c9	-0.07466466
242	0x3bbf191f	0.005831852
243	0xbc0005b8	-0.007813863
244	0x3d3d226c	0.046175405
245	0x3d4d8ada	0.050181247
246	0xbd285b86	-0.04110291
247	0x3b270b24	0.0025488818
248	0x3dcd8df3	0.1003684
249	0xbc34aacb	-0.011027048
250	0xbd09dabb	-0.033655863
251	0x3d7856c8	0.060629636
252	0x3dab8e8b	0.08376797
253	0x3d1544a6	0.03644242
254	0x3ccac20e	0.024750736
255	0x3bfc49b0	0.007699214

network_body._body_endoder.seq_layers.0.bias f4 [128]
0	0xbccfd0d9	-0.025368141
1	0xbb7bc0ab	-0.00384144
2	0xbc27fce7	-0.010253168
3	0x3b576889	0.0032868704
4	0xbc1330f6	-0.008983841
5	0xbcfd0473	-0.03088591
6	0xbb9b19b0	-0.004733287
7	0xbc862a5c	-0.01637762
8	0xbcb0b463	-0.02157039
9	0xbbc90a8e	-0.0061352914
10	0xbd1d569d	-0.03841268
11	0xbb72f3f7	-0.0037071684
12	0x3b65e8c2	0.0035081361
13	0xbc02f93a	-0.007993991
14	0xbbf94a7c	-0.007607756
15	0xbc0e5ef9	-0.008689635
16	0xbd0115f5	-0.03151508
17	0xbbdf92d5	-0.0068229237
18	0xbccf211d	-0.025284344
19	0xbca60a5f	-0.020268617
20	0x3c455c68	0.012045957
21	0xbd10d7f8	-0.035362214
22	0xbd423779	-0.047416184
23	0xbce8e1e8	-0.028428033
24	0x3a94dc04	0.0011357074
25	0xbb599a78	-0.0033203643
26	0xbbabfe5c	-0.005248828
27	0xbc81aab0	-0.01582846
28	0xbd45b5f6	-0.048269235
29	0xbd0e5be0	-0.034755588
30	0xbc1d7483	-0.009610298
31	0xbc6ce1ad	-0.014458102
32	0xbc88e26e	-0.016709533
33	0xbcf092f3	-0.029366946
34	0xbc65c6b6	-0.014024427
35	0xbc90437f	-0.01761031
36	0xbca904ef	-0.020632235
37	0xbc056833	-0.008142519
38	0xbc9e56df	-0.019328533
39	0xbd535049	-0.051590238
40	0xbba426da	-0.0050095143
41	0xbcbb026c	-0.022828303
42	0xbc72a130	-0.014808938
43	0xbb35456a	-0.0027659782
44	0xbc25765f	-0.010099023
45	0xbce27bcc	-0.027646922
46	0xbc090b13	-0.008364457
47	0xbc1b2f7c	-0.00947177
48	0xbb31fc8d	-0.0027158589
49	0xbcb06bae	-0.02153572
50	0xbccb4f36	-0.024818044
51	0xbd1f529c	-0.03889714
52	0xba984ade	-0.0011618992
53	0xbca871d3	-0.020562088
54	0x3c1b4332	0.00947647
55	0x3b8a03be	0.004211872
56	0xbd19ff72	-0.037597127
57	0xbcfc9c8c	-0.030836366
58	0xbc8b8856	-0.017032783
59	0xbac8021b	-0.0015259417
60	0xbd35376f	-0.04424232
61	0x3bcc7e29	0.0062406254
62	0xbc7b9eea	-0.015357712
63	0xbab4434e	-0.0013752969
64	0xbbbd2085	-0.005771699
65	0xbcac509a	-0.021034528
66	0xbbae5b69	-0.0053209555
67	0xbc66df29	-0.014091291
68	0xbc054263	-0.008133504
69	0xbc8c3266	-0.017113876
70	0x39cacf06	0.00038682687
71	0xbcc025cf	-0.023455529
72	0xbd2567fc	-0.04038237
73	0xbcab6165	-0.020920465
74	0xbd084de8	-0.033277422
75	0x3ba59ff6	0.005054469
76	0xbd69eb26	-0.05710902
77	0xbc0ae1f6	-0.008476725
78	0xbc36d6b7	-0.01115959
79	0xbbd97c3b	-0.006637124
80	0xbc1893c5	-0.009312575
81	0xbcf56df8	-0.029959664
82	0x3cc0263c	0.023455732
83	0xbc0b09a6	-0.008486187
84	0x3bc65c66	0.006053495
85	0x3ca4218a	0.020035524
86	0xbc9975b4	-0.018732883
87	0xbadec7e5	-0.0016996829
88	0x3a86e790	0.00102924
89	0x3c16d548	0.009206124
90	0xbc87f97e	-0.01659846
91	0xb8d46b26	-0.00010128906
92	0xbd103f13	-0.035216402
93	0x3c40968c	0.011754643
94	0xbaf1a262	-0.0018435235
95	0xbc9badb5	-0.019003728
96	0xbc6d9640	-0.014501154
97	0xbc82ddc1	-0.015974881
98	0xbb83b116	-0.004018913
99	0xbcbd6650	-0.023120075
100	0xbc70c438	-0.01469522
101	0x3b7776e3	0.003776007
102	0xbcd0c93d	-0.025486583
103	0xbc9f0830	-0.019413084
104	0xbbf3cd1e	-0.0074402234
105	0x3ca40cef	0.020025698
106	0xbb527b43	-0.0032116927
107	0xbbb50f99	-0.005525541
108	0x3b604c1d	0.0034225055
109	0x3b63055f	0.0034640653
110	0xbcb327ac	-0.021869503
111	0xbb606518	-0.0034239944
112	0xbc20ea5a	-0.009821499
113	0x3b30c721	0.0026974159
114	0xbd01695a	-0.03159461
115	0xbc96fe6d	-0.018431867
116	0x3b65ac32	0.0035045263
117	0x3b05a155	0.002039035
118	0xbc8eb4ff	-0.01742029
119	0xbc2671fa	-0.01015901
120	0x3ab3c763	0.0013716038
121	0x3bba7d32	0.005691194
122	0xbcab683c	-0.020923726
123	0x3c6afa15	0.014341851
124	0xbcfebb07	-0.031095041
125	0xbc92de6a	-0.01792832
126	0xbbf1886d	-0.0073709995
127	0xbce4a7cd	-0.027912045

network_body._body_endoder.seq_layers.2.weight f4 [128, 128]
0	0xbd95c758	-0.073134124
1	0xbdb63f28	-0.08898765
2	0x3beff6ad	0.007323107
3	0x3cf60509	0.030031698
4	0xbcda399e	-0.026638802
5	0x3d61eee5	0.05515947
6	0xbd47c65e	-0.048773162
7	0xbe189819	-0.1490177
8	0xbcfdd524	-0.030985422
9	0x3d9043a0	0.070441484
10	0xbe401278	-0.18757045
11	0xbcd43488	-0.025903955
12	0xbdee5f16	-0.1163923
13	0xbdd4a69d	-0.103833415
14	0xbc67677d	-0.014123795
15	0x3b49552a	0.0030720928
16	0xbd70bfbf	-0.058776613
17	0xbe0a3769	-0.134977
18	0xbdc74566	-0.097300336
19	0x3e37de18	0.17955816
20	0xbc4bdf61	-0.012443394
21	0xbccddc3a	-0.025129426
22	0x3ccd40a8	0.025055245
23	0x3da98d96	0.082789585
24	0xbd4232fb	-0.0474119
25	0x3cd526b1	0.026019426
26	0xbdffd0e0	-0.124910116
27	0xbbb37e49	-0.005477701
28	0x3dadf4a7	0.08493929
29	0xbd3c595b	-0.045983654
30	0xbdc6f9fc	-0.097156495
31	0x3e5163a7	0.2044817
32	0xbca258c4	-0.019817717
33	0x3a05dd86	0.0005106557
34	0xbdece311	-0.11566747
35	0x3dd01c09	0.10161597
36	0x3dc10e89	0.094266005
37	0xbda962ef	-0.08270823
38	0x3ced1a5c	0.028943233
39	0x3cdfd85e	0.027324852
40	0xbe311d4f	-0.17296337
41	0xbc40bdef	-0.011764034
42	0xbe1dce5c	-0.15410751
43	0xbe6b572d	-0.22982474
44	0xbd5aea2b	-0.053445976
45	0x3d8d65dc	0.06904194
46	0x3d802fec	0.0625914
47	0xbbdff2c6	-0.006834361
48	0xbdd9ee2a	-0.10641129
49	0xbdff0d67	-0.12453728
50	0xbd48d54e	-0.04903155
51	0x3dc241eb	0.09485229
52	0xbccd184b	-0.025035998
53	0x3c9ab509	0.018885152
54	0x3d4ba68c	0.04971938
55	0xbda092cf	-0.078405015
56	0xbd8adbde	-0.067802176
57	0x3df96d68	0.12179071
58	0x3dec6853	0.11543336
59	0x3ddb87d0	0.107192636
60	0x3d6a1105	0.057145137
61	0xbdf7ea53	-0.12105241
62	0xbe63464e	-0.22194788
63	0x3dd9cf35	0.10635225
64	0x3e121bd2	0.14268425
65	0xbe346d16	-0.17619738
66	0xbcae89c9	-0.021305935
67	0x3d987f10	0.0744611
68	0xbceb7256	-0.028741043
69	0x3d67bd25	0.056576867
70	0xbdfdf0ed	-0.123994686
71	0xbcc01f52	-0.023452435
72	0x3c0cc100	0.008590937
73	0xbd4615bc	-0.04836057
74	0xba492348	-0.0007672799
75	0xbdf7e490	-0.12104142
76	0xbd2c3f8d	-0.042052794
77	0x399224f2	0.00027874816
78	0x3da50ec9	0.08059461
79	0x3c1d4c0b	0.00960065
80	0x3dab60ea	0.08368094
81	0x3d5dbc15	0.054134447
82	0xbdc4b8c4	-0.09605554
83	0xbcbdeede	-0.02318519
84	0x3e064f75	0.13116248
85	0x3ca33bf3	0.019926047
86	0x3e0c8761	0.13723518
87	0x3e08253a	0.13295451
88	0x3d867272	0.065647975
89	0x3dc81075	0.09768764
90	0x3d6e22fa	0.058138825
91	0x3d1cb24c	0.038255975
92	0xbe15f366	-0.1464363
93	0xbe02e1c5	-0.12781437
94	0xbe0b16c3	-0.13582902
95	0xbda114ff	-0.07865333
96	0xbe3df5cc	-0.18550795
97	0xbd2035de	-0.03911387
98	0x3e007e9d	0.12548299
99	0x3bdc0e9d	0.006715609
100	0xbc8fa12d	-0.01753291
101	0xbd587df6	-0.0528545
102	0xbd01e1dc	-0.031709537
103	0xbe1cf437	-0.15327536
104	0xbce75778	-0.02823995
105	0x3e151b04	0.14561087
106	0xbd9cda6b	-0.076588474
107	0x3dc04be5	0.09389476
108	0xbe199c66	-0.15001068
109	0x3d6f403c	0.058410868
110	0xbd17787e	-0.036980145
111	0xbd55ffb6	-0.052245818
112	0x3e08c473	0.1335619
113	0x3cd15f30	0.025558084
114	0xbbd4dd69	-0.0064961207
115	0xbe7e7ed1	-0.24853064
116	0x3e06e53e	0.13173386
117	0xbd0bbc16	-0.03411492
118	0xbc0c030f	-0.008545651
119	0x3de4e6b2	0.11176814
120	0x3d9555e2	0.072917715
121	0xbe1b8508	-0.15187466
122	0x3d92acd2	0.07161869
123	0xbcfa193e	-0.030529615
124	0xbe0bcb56	-0.13651785
125	0x3e69f86d	0.22848673
126	0x3cd2f50a	0.02575161
127	0xbd14e82e	-0.036354236
128	0xbcc5851d	-0.024111325
129	0x3b8d02a0	0.0043032914
130	0x3d137bdf	0.036006805
131	0xbdf776d1	-0.12083209
132	0x3cfb735a	0.030694652
133	0xbe3e27a4	-0.18569809
134	0x3db07eda	0.08617945
135	0xbd30cc2d	-0.043163467
136	0xbaf73b18	-0.0018862216
137	0x3d3671bb	0.044542056
138	0x3dbbb511	0.09165395
139	0x3c933ef2	0.01797435
140	0x3dd2250c	0.102609724
141	0x3d4a23bc	0.049350485
142	0xbdd16df0	-0.10226047
143	0xbdcef908	-0.10106093
144	0x3c6d2f0c	0.014476549
145	0xbdbd780d	-0.092514135
146	0xbd950f44	-0.07278302
147	0xbc0f58a9	-0.008749166
148	0xbcce3cb8	-0.025175437
149	0x3a8d6fdc	0.0010790783
150	0x3de1f4ae	0.11032997
151	0xbe01e71a	-0.12685814
152	0x3c6808a8	0.01416222
153	0x3bbecc74	0.0058227126
154	0xbe37955a	-0.17928067
155	0x3e4ccebb	0.20000736
156	0x3e16c165	0.14722212
157	0xbd894cd4	-0.06704107
158	0x3d960b42	0.07326366
159	0xbdb6b078	-0.089203775
160	0xbdcce12b	-0.10003885
161	0xbd020522	-0.031743176
162	0x3c1e30db	0.009655203
163	0xbdfff2ff	-0.1249752
164	0xbd02d7af	-0.031943973
165	0xbc05b397	-0.008160493
166	0x3e7f9464	0.2495895
167	0xbd88b9d0	-0.06676066
168	0x3d3cabe1	0.046062354
169	0x3dc2fd11	0.09520925
170	0x3da98465	0.082772054
171	0xbe081f9c	-0.13293308
172	0xbdeb87b7	-0.11500495
173	0x3d9fb3d0	0.077979684
174	0xbcab4962	-0.020909015
175	0x3d8878e6	0.066636845
176	0x3da5892f	0.08082806
177	0xbd0a6451	-0.033787075
178	0x3e045c95	0.12925942
179	0x3c55af31	0.013042257
180	0xbd2ecbdb	-0.04267488
181	0x3dfd8c04	0.123802215
182	0x3d852afc	0.06502339
183	0xbd108a61	-0.03528822
184	0xbdecf213	-0.115696095
185	0x3d933455	0.07187716
186	0x3c10b69b	0.008832599
187	0xbe2d8e02	-0.16948703
188	0x3c9e2ead	0.019309366
189	0xbd3c1f59	-0.045928333
190	0xbd7c698e	-0.061624102
191	0x3d5a5092	0.053299494
192	0xbdc9c403	-0.098518394
193	0x3e30c36b	0.17262046
194	0x3deed1d2	0.11661114
195	0xbdfcd15d	-0.123446204
196	0xbd917b07	-0.07103544
197	0xbe0c440f	-0.13697837
198	0xbe4907ed	-0.1963193
199	0x3d4bd411	0.04976279
200	0x3c6bf72e	0.014402194
201	0x3d2d8689	0.04236463
202	0x3e2497f4	0.1607359
203	0xbc8abd62	-0.016936008
204	0xbc486208	-0.012230404
205	0x3d9bf1bc	0.076144665
206	0xbc6f9adb	-0.014624323
207	0x3d13a2dc	0.036043987
208	0x3e5296e4	0.20565373
209	0x3dae1609	0.085002966
210	0x3c8b0756	0.016971271
211	0xbdce0ada	-0.100606635
212	0xbc245652	-0.010030346
213	0x3ac151c0	0.0014749095
214	0x3d45b4bd	0.04826807
215	0xbc9de401	-0.01927376
216	0xbdfd86a4	-0.12379196
217	0x3bd618d7	0.006533723
218	0x3cab439d	0.020906264
219	0xbe55c14c	-0.20874518
220	0x3bf9efa1	0.007627443
221	0xbc9395cc	-0.018015765
222	0xbdb416f2	-0.08793439
223	0xbe334332	-0.17506102
224	0x3d6a2fe6	0.057174586
225	0xbda4afd7	-0.08041351
226	0x3e0507ca	0.12991253
227	0xbe167577	-0.14693247
228	0xbd800892	-0.06251635
229	0xbc8a11f8	-0.016854271
230	0x3d108bbb	0.035289507
231	0x3cc38a2b	0.023869595
232	0x3d377ff0	0.044799745
233	0xbdf3aa42	-0.118977085
234	0x3e370f05	0.17876823
235	0xbd0b7cbd	-0.034054507
236	0xbdf9f069	-0.12204058
237	0xbc318d40	-0.010836899
238	0xbdae4913	-0.085100316
239	0xbe178206	-0.14795694
240	0xbe026add	-0.12736078
241	0x3e555d15	0.20836289
242	0xbdaab316	-0.08334939
243	0x3e35f543	0.17769341
244	0x3e7d7571	0.24751832
245	0x3cced5a5	0.025248358
246	0xbc18584b	-0.009298394
247	0xbda237d3	-0.07920804
248	0x3dcf3bd1	0.10118831
249	0x3da2506b	0.07925495
250	0xbd2a7b3b	-0.041621428
251	0xbc4aa4ef	-0.012368425
252	0xbcc04075	-0.023468236
253	0x3d7aa17b	0.061189156
254	0x3ca225e0	0.01979345
255	0x3dbb6d99	0.091517635

network_body._body_endoder.seq_layers.2.bias f4 [128]
0	0x3c648993	0.013948816
1	0xbc1bc1bc	-0.009506639
2	0x39dc39b1	0.00042004653
3	0x3a8d4512	0.0010778031
4	0xbc0146cd	-0.007890415
5	0xbca6c233	-0.020356273
6	0xbc559ef3	-0.013038385
7	0x3c30ad77	0.010783545
8	0x3be2daaf	0.006923042
9	0x3c414d92	0.011798279
10	0xbaddf54b	-0.0016934065
11	0x3c088046	0.008331364
12	0xbb853bad	-0.004065952
13	0xbcb208dc	-0.02173274
14	0x3b56ffca	0.003280627
15	0xbcefb7da	-0.029262472
16	0xbca75ad6	-0.020429056
17	0xbbd9a1bf	-0.006641596
18	0xbbe484b5	-0.0069738277
19	0xbb126d1a	-0.0022342862
20	0xbc85e69f	-0.01634532
21	0x3c0e0a06	0.008669382
22	0xbc5f3d5e	-0.013625471
23	0xbbc2abf3	-0.005940908
24	0xbc05b0ab	-0.008159797
25	0x3c8cd2c2	0.01719034
26	0xbd002955	-0.031289417
27	0x3c128ced	0.008944732
28	0xbbfb1dae	-0.00766345
29	0xbc3b28f2	-0.011423336
30	0xbca4fff5	-0.020141581
31	0xbcd0275b	-0.025409391
32	0xbd3262dc	-0.04355131
33	0xbb936a85	-0.004498782
34	0xbbbe3ff4	-0.0058059637
35	0xbb28fbef	-0.002578493
36	0x3c32f46e	0.010922534
37	0xbad53778	-0.0016267141
38	0x3b0a7fcb	0.00211333
39	0xbc9e78a3	-0.019344633
40	0xbcd29196	-0.025704186
41	0xbcb8625e	-0.022507843
42	0x3c949814	0.018138923
43	0xbc9855b7	-0.01859556
44	0xbd0a50ef	-0.03376859
45	0xbbaea642	-0.005329878
46	0xbc9b769b	-0.018977454
47	0xbc943c9d	-0.018095309
48	0xbc1c5eef	-0.009544118
49	0xbc07a228	-0.008278407
50	0x3a99add4	0.0011724778
51	0xbc9c84e1	-0.01910633
52	0xbcf621e9	-0.030045466
53	0xbc0a4d6b	-0.008441309
54	0x3c61cd1c	0.013781812
55	0x3c1f2285	0.00971282
56	0x3c4518dc	0.012029853
57	0xbcc07dfb	-0.023497572
58	0xbd161850	-0.03664428
59	0xbd21aeb8	-0.039473265
60	0x3c0cac81	0.00858605
61	0xbcd26fc4	-0.02568806
62	0xbbec43b1	-0.007210218
63	0xbc1aa23c	-0.009438094
64	0xbb998261	-0.004684732
65	0xbb23f83d	-0.0025019788
66	0xbcb7a3c6	-0.02241696
67	0x3c37d361	0.01121983
68	0xbc309eb1	-0.0107800225
69	0xbc70fc5e	-0.0147086065
70	0xbc7ccb2a	-0.015429297
71	0x3bd23da1	0.006416038
72	0xbcbed509	-0.023294942
73	0xbb460a88	-0.003021868
74	0xbc17b213	-0.009258765
75	0x3c2dd3db	0.010609592
76	0xbc909c44	-0.017652638
77	0xbd47e81b	-0.048805337
78	0x3c4e7859	0.012601935
79	0x3c930125	0.017944882
80	0x3b7a59df	0.003820054
81	0xbc375170	-0.01118885
82	0x3cc4bec4	0.024016745
83	0xbc6529a4	-0.013986979
84	0x3cbe7c12	0.02325252
85	0xbc92259f	-0.017840205
86	0x3c97cc40	0.018530011
87	0xbcac98a9	-0.021068888
88	0xbc4331f7	-0.011913768
89	0xbc5a9fdb	-0.013343777
90	0xbcb8f000	-0.022575378
91	0xbbb1b5b7	-0.0054232734
92	0xbc9404f1	-0.018068762
93	0x3c24a0ad	0.010048074
94	0xbbf8085a	-0.007569355
95	0xbcbe7a66	-0.023251723
96	0x3c3df6b0	0.011594459
97	0xbd00ebad	-0.031474758
98	0x3ca3fcea	0.02001806
99	0xbbb62d81	-0.0055596237
100	0x3c099284	0.008396748
101	0xbc9a224e	-0.018815186
102	0xbc831b53	-0.01600424
103	0x3be37eb5	0.006942595
104	0xbc9b2389	-0.018937843
105	0x3ba484c9	0.005020712
106	0xbc6d32af	-0.014477416
107	0xbbe71574	-0.007052118
108	0xbcdfb274	-0.027306773
109	0x3c573d37	0.013137153
110	0xbbdac559	-0.0066763577
111	0x3ad5603e	0.0016279293
112	0x3adac5d8	0.0016691042
113	0xbc11c55d	-0.008897153
114	0x3c4d8230	0.012543246
115	0xbcc0fe11	-0.023558648
116	0xbc330a33	-0.010927725
117	0x3be7b041	0.0070705716
118	0x39bcb474	0.00035992602
119	0xbb46cb58	-0.0030333605
120	0x3c85c6ef	0.01633021
121	0x3baf02d2	0.0053409124
122	0x3c808abf	0.01569116
123	0xba308fb5	-0.0006735281
124	0xbb800a72	-0.003907495
125	0xbacfe4bd	-0.0015861016
126	0xbc713ac8	-0.014723487
127	0xbccfb6d6	-0.025355738

action_model._discrete_distribution.branches.0.weight f4 [2, 128]
0	0xbd14e040	-0.036346674
1	0x3d04e3c6	0.032443784
2	0xbd068406	-0.03284075
3	0x3cd1a0df	0.025589405
4	0xbbda999c	-0.0066711437
5	0xbcda0e10	-0.026618034
6	0xbd29a8d0	-0.041420758
7	0x3ca4c8e9	0.020115333
8	0x3ceb5e3a	0.028731454
9	0x3c35f09c	0.011104729
10	0x3c26416b	0.010147433
11	0xbca9a993	-0.020710742
12	0xbc8e5c83	-0.017378097
13	0xbcd3b0dc	-0.025841169
14	0xbcb53b53	-0.022123015
15	0xbb8428b0	-0.0040331706
16	0x3b8e0259	0.004333776
17	0x3ce2214c	0.027603768
18	0xba66c5fd	-0.0008803306
19	0xbc3cad47	-0.011515922
20	0xbc66ed3f	-0.01409465
21	0xbbea64e3	-0.00715314
22	0xba164f3d	-0.00057338533
23	0x3c493a6d	0.012281996
24	0xbcd569ed	-0.026051486
25	0x3c2b8b72	0.010470258
26	0xbaf4758b	-0.0018650753
27	0xbda610aa	-0.08108647
28	0xbc751b6a	-0.014960149
29	0x3cafbac0	0.021451354
30	0xbbc9474b	-0.006142532
31	0x3c15c5a9	0.009141364
32	0xbbd5a134	-0.006519461
33	0xbc4329cf	-0.011911823
34	0x3af6acff	0.0018819867
35	0xbbaf8506	-0.005356434
36	0x3d30dcdf	0.04317939
37	0x3b44c8f2	0.0030027
38	0x3bcc8b16	0.0062421663
39	0xbb98a7c3	-0.0046586706
40	0x3c78425e	0.015152542
41	0xbc0545bc	-0.008134302
42	0x3c680cb1	0.014163182
43	0x3d393903	0.045220386
44	0xbcb87f04	-0.022521503
45	0xbd6338f2	-0.05547423
46	0xbcc025b8	-0.023455486
47	0x3c866906	0.016407501
48	0xbbb02ec5	-0.005376669
49	0xbcd1a564	-0.02559156
50	0x3cc44b56	0.023961704
51	0x3c551c7a	0.013007278
52	0x3b31489c	0.0027051335
53	0xbc71a89b	-0.014749671
54	0xbc1e6780	-0.009668231
55	0xbc8e993c	-0.017407052
56	0x3ce3efd1	0.027824314
57	0xbcf8602e	-0.0303193
58	0x3c197bcf	0.009367897
59	0x390ba289	0.00013316622
60	0x3d16f758	0.03685698
61	0x3c81a45c	0.015825443
62	0xbc0b77ed	-0.008512479
63	0xbc81a0cf	-0.01582375
64	0xbc4d6f6b	-0.012538771
65	0x3d081bd7	0.033229675
66	0xbccfb972	-0.025356982
67	0x3b959f9e	0.004566147
68	0xbcd09fce	-0.025466826
69	0x3c363898	0.011121891
70	0x3c85b851	0.01632324
71	0xbd1925a8	-0.037389427
72	0xbc7db3bb	-0.015484746
73	0xbd161eb8	-0.03665039
74	0xbcb1f7ef	-0.02172467
75	0x3becb56d	0.007223776
76	0xbce87ecf	-0.02838078
77	0x3ca382b2	0.019959781
78	0xbcca7625	-0.024714539
79	0x3d1c203c	0.03811668
80	0xbba39745	-0.004992398
81	0xbcc39abd	-0.023877496
82	0xbc065ab5	-0.008200337
83	0xbb9e66f8	-0.004834052
84	0x3c8a9614	0.016917266
85	0xbc2e0427	-0.010621107
86	0x3d052f08	0.032515556
87	0x3bbcbc06	0.005759719
88	0x3d10eb2a	0.03538052
89	0xbcbf42af	-0.023347227
90	0xbca5d271	-0.020241948
91	0xbcbfdd46	-0.023420941
92	0xbd202665	-0.039099116
93	0xbd469326	-0.048480175
94	0xbcda644f	-0.026659159
95	0x3ae7813a	0.0017662414
96	0xbc93c0c6	-0.018036257
97	0xbc0d5cac	-0.008628052
98	0xbc3d6fe3	-0.01156232
99	0xbc9fbd31	-0.019499393
100	0x3c8a7d67	0.0169055
101	0x3b79d306	0.0038120165
102	0xbd1d9229	-0.038469467
103	0xbd3cf9ef	-0.046136793
104	0xbd1b9e44	-0.03799273
105	0xbbbd2c64	-0.005773114
106	0x3c01a120	0.00791195
107	0x3cea0b20	0.028569758
108	0xbb049a18	-0.0020233449
109	0xbc50745c	-0.012723055
110	0xbc2f8e8c	-0.010715138
111	0x3cde886b	0.027164659
112	0xbcc8f695	-0.024531642
113	0x3d176dbc	0.036969885
114	0x3c97cdd7	0.01853077
115	0xbc25c79b	-0.01011839
116	0x3b8a74c0	0.0042253435
117	0xbd22e31b	-0.039767366
118	0xbc498e86	-0.012302047
119	0x3ccac2c3	0.024751073
120	0x3d26ff6c	0.040770933
121	0x3d07a6b8	0.03311798
122	0xbd870ae0	-0.06593871
123	0xbc41eb17	-0.011835835
124	0x3d1e087c	0.03858231
125	0xbd063647	-0.032766607
126	0x3c3bdc70	0.011466131
127	0xbc897dbb	-0.016783586
128	0x3cf0260a	0.029315013
129	0xbd2e9c47	-0.042629506
130	0x3cb16624	0.02165515
131	0xbc66fca6	-0.014098322
132	0x3c81a0f5	0.01582382
133	0x3ce5e485	0.028063068
134	0x3cf6bc66	0.030119132
135	0xbcec7f24	-0.02886922
136	0xbd310c31	-0.043224517
137	0xbc9a764b	-0.018855235
138	0xbc8cfd80	-0.017210722
139	0x3bf73c7e	0.007545053
140	0x3bd46589	0.0064818305
141	0x3d282b4c	0.041056916
142	0x3ca0e451	0.01964012
143	0xbced7f8c	-0.028991483
144	0x3a34a20d	0.00068906025
145	0xbc2795d3	-0.010228592
146	0x3c0e4842	0.00868422
147	0xbb0da11b	-0.002161092
148	0x3d0ac890	0.033882678
149	0x3ae79326	0.0017667755
150	0xbcc26fde	-0.023734983
151	0x3c033225	0.008007561
152	0x3c5083b6	0.012726715
153	0x3a91235e	0.0011073162
154	0xbc27d6c5	-0.010244076
155	0x3d88bb5c	0.06676361
156	0x3d0e008f	0.0346685
157	0xbce5f58f	-0.028071193
158	0x3aec2cdb	0.0018018739
159	0x3c186fbe	0.009303985
160	0xbb905747	-0.0044049355
161	0x3c4b041c	0.0123911165
162	0xbc8469dd	-0.01616376
163	0x3c4d67cc	0.012536954
164	0xbd076079	-0.033050988
165	0xbba2bfa1	-0.0049666916
166	0x3b167bd9	0.0022962003
167	0xba9fd451	-0.0012194013
168	0xbc9b36d9	-0.018947052
169	0x3af1668a	0.00184174
170	0xbcb59ced	-0.022169555
171	0xbce7edce	-0.028311636
172	0x3c5deedf	0.013545721
173	0x3d8dee9a	0.06930275
174	0x3c50b230	0.012737796
175	0x3c3effef	0.011657699
176	0x3c28dbc4	0.010306302
177	0x3bd8522c	0.0066015925
178	0xbcfc7ec6	-0.030822169
179	0xbc2e0839	-0.010622078
180	0xbbf67cdd	-0.007522209
181	0x3cb6bdff	0.022307394
182	0x3b63b4e4	0.003474527
183	0x3bb2ba6e	0.005454353
184	0x3c3112fe	0.010807751
185	0x3c457f12	0.012054222
186	0xbcc788a4	-0.024357148
187	0xbb8631cb	-0.0040952913
188	0xbd205da2	-0.039151795
189	0xbbc6b0f8	-0.006063577
190	0x3b1aed00	0.0023639798
191	0x3ca45a9c	0.020062737
192	0x3be7e6b2	0.0070770616
193	0xbcf1acae	-0.029501285
194	0x3c81fda9	0.015868025
195	0x3a820b2a	0.000992154
196	0x3cb66e89	0.022269504
197	0xbc6665db	-0.01406237
198	0xbc07f147	-0.008297271
199	0x3c97554c	0.01847329
200	0x3c2a10e4	0.010380004
201	0x3d239152	0.03993351
202	0x3c0c85ae	0.008576794
203	0xbc8e52ed	-0.017373526
204	0x3b1529cd	0.002276051
205	0xbce9a015	-0.028518716
206	0x3b6f8aed	0.0036551312
207	0xbce2de81	-0.027693989
208	0x3b8ad182	0.004236401
209	0xbbbc4d7a	-0.0057465406
210	0x3b70b950	0.0036731549
211	0x3c06aa3a	0.008219296
212	0xbc42435e	-0.011856882
213	0xbb86bb66	-0.004111695
214	0xbd3d9708	-0.046286613
215	0xbb26eeef	-0.0025472005
216	0xbcfaaac0	-0.030598998
217	0x3cccf1e7	0.025017692
218	0x3c908716	0.017642539
219	0x3c60fc92	0.013732092
220	0x3d18f3b2	0.03734178
221	0x3d612c7b	0.05497406
222	0x3d1495e7	0.03627577
223	0xbc7f4c0c	-0.015582096
224	0x3c56e22a	0.013115445
225	0xbc5bffc9	-0.013427683
226	0x3bed07d6	0.0072336
227	0x3d1fb1fa	0.03898809
228	0xbc84700f	-0.016166715
229	0xbc0709f2	-0.008242117
230	0x3ced8c88	0.028997675
231	0x3d75981b	0.059959512
232	0x3d0443e0	0.032291293
233	0xbc1dcdb1	-0.00963156
234	0x39fda6db	0.00048380237
235	0xbd73aae0	-0.05948913
236	0xbb8102ca	-0.0039371
237	0x3c42e015	0.011894246
238	0x3ce840f3	0.028351283
239	0xbc5582fd	-0.013031718
240	0xbbc05543	-0.005869539
241	0xbcdf2a7f	-0.027241943
242	0xbcd2274e	-0.025653508
243	0x3c69befd	0.014266727
244	0x3ba1977e	0.0049313894
245	0x3d3e902a	0.046524204
246	0x3c8ae9a8	0.01695712
247	0xbd0b7c6d	-0.03405421
248	0xbd3a187b	-0.045433503
249	0xbd52569f	-0.05135214
250	0x3d88c89a	0.06678887
251	0x3c9711aa	0.01844104
252	0xbc6803fe	-0.014161108
253	0x3d02263e	0.03177475
254	0xbcd473fd	-0.025934214
255	0x3b26181a	0.0025343955

action_model._discrete_distribution.branches.0.bias f4 [2]
0	0x3b99fd86	0.004699412
1	0xbb99fd7e	-0.004699408

action_model._discrete_distribution.branches.1.weight f4 [3, 128]
0	0xbc97f654	-0.018550076
1	0xbcd0472e	-0.025424566
2	0x3d57a266	0.05264511
3	0xbc92e12d	-0.017929638
4	0xbcc5f448	-0.024164334
5	0xbcc6fea2	-0.02429134
6	0x3d28af9a	0.04118309
7	0x3c9fd8da	0.019512583
8	0xbccd58a7	-0.025066687
9	0xbd7f8aef	-0.062388357
10	0xbcfa5ef5	-0.030562857
11	0xbc6cc132	-0.014450358
12	0xbcc04d0e	-0.023474243
13	0x3cd0aead	0.025473917
14	0xbcf7db25	-0.030255863
15	0x3c4abbac	0.012373846
16	0xbc3cc2b2	-0.011521028
17	0xbc21adbb	-0.009868081
18	0xbc873478	-0.016504511
19	0xbb8e2305	-0.0043376707
20	0x3d2fd14d	0.042924214
21	0xbccf5b08	-0.025311962
22	0x3c2f8486	0.010712748
23	0xbc5279ea	-0.012846449
24	0xbc34ad78	-0.011027686
25	0xbd479db2	-0.048734374
26	0x3b0e4f96	0.0021714917
27	0xbb41ad8c	-0.0029552905
28	0xbce7a89a	-0.028278638
29	0x3cb45d7d	0.022017235
30	0xbb0a2beb	-0.0021083306
31	0x3c66e82b	0.014093439
32	0x3c0f1151	0.008732156
33	0x3cfdd219	0.030983971
34	0x3cad83e5	0.021181056
35	0xbbce9bce	-0.0063051945
36	0xbc7e4564	-0.015519474
37	0xbca589d9	-0.020207332
38	0x3be15c71	0.006877475
39	0xbc95ab07	-0.018270029
40	0x3ce32bdd	0.027730877
41	0x3c791e84	0.015205029
42	0xbc9f7fcc	-0.019470118
43	0xb9ae836c	-0.00033285783
44	0x3d2b2529	0.041783486
45	0xbc888691	-0.016665729
46	0xbb204329	-0.0024454093
47	0x3d24a0c8	0.040192395
48	0x3cf4deef	0.02989146
49	0xb95be339	-0.00020970115
50	0x3c88d2e6	0.016702127
51	0xbb3b7695	-0.0028604616
52	0x3b34998a	0.0027557337
53	0xbca1ee58	-0.019766971
54	0xbc33d12f	-0.010975166
55	0xbd04ba4b	-0.032404225
56	0x3c3f3ef3	0.011672723
57	0x3c090bcf	0.008364632
58	0x3ca815e0	0.020518243
59	0x3b0020a9	0.0019550717
60	0xbc2dd9f0	-0.010611042
61	0x3d0dea1c	0.034647092
62	0xbcd76ad9	-0.026296066
63	0xbbd26cde	-0.0064216694
64	0xbce4da59	-0.027936148
65	0x3c08f32d	0.008358759
66	0x3c9d858a	0.019228715
67	0xbc8225ae	-0.015887108
68	0xbcc8da01	-0.024518015
69	0x3c82d10c	0.015968822
70	0xbc7996d4	-0.015233714
71	0xbd33eec7	-0.043928888
72	0xbc68ce78	-0.014209382
73	0x3d2dc018	0.042419523
74	0xbc8cc4cd	-0.017183686
75	0xbd1f8dd7	-0.03895363
76	0x3b9283f7	0.004471298
77	0x3c662a44	0.014048163
78	0xbc0d76e2	-0.008634301
79	0xbd041ca1	-0.032253865
80	0x3c3b927c	0.011448499
81	0xbcae6420	-0.021287978
82	0x3c92a196	0.017899316
83	0xbb3edd7d	-0.0029123717
84	0xbc7017e0	-0.01465413
85	0xbbe53e08	-0.00699592
86	0xbcbfa9b5	-0.023396352
87	0x3bef6bd0	0.0073065534
88	0x3cf95054	0.030433811
89	0x3d2388e7	0.039925482
90	0xbc6454dc	-0.013936248
91	0x3d559a2f	0.052148994
92	0x3c4742c1	0.012161911
93	0xbd280111	-0.041016642
94	0xbc71975b	-0.014745559
95	0x3c7f46df	0.015580862
96	0xbb8a10a8	-0.0042134114
97	0xbbe85db1	-0.007091247
98	0xbd19793d	-0.037469137
99	0xbd484137	-0.04889032
100	0xbcbeb209	-0.023278253
101	0xbb575bc9	-0.0032861105
102	0x3c427b57	0.011870227
103	0xbca3044d	-0.019899512
104	0xbbb8643f	-0.0056271846
105	0xbc854f77	-0.016273243
106	0xbc80e3f5	-0.015733698
107	0x3cff93f6	0.031198483
108	0x3c79958d	0.01523341
109	0xbcb21913	-0.021740472
110	0xbbf5d083	-0.007501663
111	0x3d4d3ee7	0.050108816
112	0x376a4d4f	1.3965487e-05
113	0x3c44f317	0.012020848
114	0xbc8ff404	-0.01757241
115	0x3d13779a	0.036002733
116	0x3b8c4391	0.0042805155
117	0xbcfa7120	-0.03057152
118	0xbcdc180c	-0.026866935
119	0x3d887f59	0.06664915
120	0xbc09372d	-0.008374971
121	0x3cc43336	0.0239502
122	0x3d22a134	0.039704517
123	0xbc4e158e	-0.012578381
124	0xba8d65c8	-0.001078778
125	0xbbb24fcc	-0.0054416414
126	0x3d43bd1f	0.04778778
127	0x3ccf09da	0.025273252
128	0x3c35c6ed	0.011094791
129	0x3c974e33	0.018469905
130	0xbd6ff761	-0.05858553
131	0x3ca43132	0.02004299
132	0x3cba5749	0.022746699
133	0x3bd54fb9	0.006509748
134	0xbd6afef8	-0.057372063
135	0xbd82a63d	-0.06379364
136	0x3b42def1	0.0029734934
137	0x3beb8342	0.007187278
138	0x3c53e58d	0.012933147
139	0xbd4b11e8	-0.049577624
140	0x3d0a6059	0.03378329
141	0x3b8825be	0.00415489
142	0x3ce18f49	0.027534144
143	0x3b2e6c76	0.002661494
144	0x3c81b742	0.015834454
145	0x3ca42ff1	0.020042391
146	0x3b9e2380	0.0048260093
147	0xbd1bb0d8	-0.03801045
148	0xbc875c59	-0.016523527
149	0xbb4d352e	-0.0031312215
150	0xbcb8b343	-0.022546416
151	0x3c55b426	0.013043439
152	0x3cb6f423	0.02233321
153	0x3ccb58a4	0.02482254
154	0xbb5d2ac7	-0.003374742
155	0x3d0f313f	0.034959074
156	0xbcbb4b4b	-0.02286305
157	0xbd1e0a9e	-0.038584344
158	0xbc192d96	-0.009349247
159	0xbc8ee0eb	-0.017441234
160	0xbcb1c8fe	-0.021702286
161	0x3cb97d8e	0.022642877
162	0x3c503d3c	0.012709912
163	0x3d29f710	0.041495383
164	0x3cc7e6b3	0.024401998
165	0x3d1e649e	0.038670175
166	0x3c42e1bb	0.011894639
167	0x3c1b2cac	0.0094711
168	0xbcd6eb16	-0.026235145
169	0x3cabf5e7	0.020991279
170	0x3d616dbe	0.0550363
171	0x3cb3ac76	0.021932822
172	0xbca3e771	-0.02000782
173	0x3ceb65a6	0.028734993
174	0x3bfda1da	0.0077402415
175	0x3c728b2b	0.014803688
176	0xbd8199d4	-0.063281685
177	0xbcdc4d5f	-0.026892362
178	0x3d1679b3	0.036737155
179	0x3d1fe9c9	0.039041314
180	0xbbd29a3f	-0.006427079
181	0xbc492025	-0.01227573
182	0x3cd05668	0.025431827
183	0x3b618c4c	0.00344159
184	0x3d99ba93	0.07506289
185	0x3c6fe7c4	0.01464266
186	0x3b824391	0.0039753397
187	0x3bf39813	0.0074339
188	0x3c8c4929	0.01712473
189	0xbd5dda8b	-0.054163497
190	0xbcba9175	-0.022774437
191	0x3d075f44	0.033049837
192	0xbc886d29	-0.016653614
193	0xbc54379c	-0.012952711
194	0xbaabccf5	-0.0013107347
195	0x3d81acbc	0.063317746
196	0xbbe483e6	-0.0069737313
197	0x3c2b4ad3	0.010454851
198	0xbceae2b6	-0.028672557
199	0xbc93ff5c	-0.0180661
200	0xbb8f0ec0	-0.004365772
201	0xbc9c3f6e	-0.019073214
202	0x3c63c42e	0.013901753
203	0x3b693084	0.0035581896
204	0x3b943d3b	0.004523901
205	0x3b81944b	0.0039544455
206	0xbcfc2580	-0.0307796
207	0x3cefe20e	0.029282596
208	0x3d29a729	0.041419182
209	0x3cfd8a2a	0.03094967
210	0x3d3a31af	0.04545754
211	0xbc6ac009	-0.014328011
212	0x3d6724a5	0.05643143
213	0xbc820e66	-0.015876006
214	0x3d1e63b2	0.038669296
215	0xbb4efbe8	-0.0031583253
216	0xbd01ae76	-0.03166052
217	0x3c3445d9	0.011002981
218	0xbc1ae470	-0.009453878
219	0x3c957b69	0.018247323
220	0xbcd81ad3	-0.026379978
221	0xbb28a15d	-0.0025730946
222	0x3d0e6c51	0.034771267
223	0x3c98af59	0.0186383
224	0x3d31483e	0.043281786
225	0x3c9ba9a9	0.019001799
226	0x3d5a8ff2	0.053359933
227	0x3cd4eb8e	0.025991227
228	0x3bcb4cd2	0.006204226
229	0xbc9a50a2	-0.018837277
230	0xbd06ca3a	-0.032907702
231	0x3be60903	0.0070201172
232	0xb97d30cb	-0.00024146137
233	0x3c1e1351	0.00964816
234	0xbc635c2f	-0.013876959
235	0xbd00d16c	-0.03144972
236	0x3a3f8872	0.0007306404
237	0x3d1eed7a	0.038800694
238	0xbc323ea5	-0.010879193
239	0xbd827d8d	-0.06371603
240	0xbcf18c5a	-0.02948587
241	0x3d00a87d	0.031410683
242	0x3d569238	0.05238554
243	0xbcce5b80	-0.025190115
244	0x3cac458c	0.021029256
245	0x3ca01af1	0.019544097
246	0xbba0e4f9	-0.004910108
247	0xbade246d	-0.0016948112
248	0x3cc7ed6b	0.024405202
249	0xbc4fca2d	-0.01268248
250	0x3c7e6844	0.015527789
251	0x3c1f7c59	0.009734237
252	0xbb13a312	-0.0022527617
253	0x3ce8eaa2	0.028432194
254	0xbceeacbe	-0.029135104
255	0xbba4b7f6	-0.0050268127

action_model._discrete_distribution.branches.1.bias f4 [3]
0	0xbc9064ac	-0.01762613
1	0x3c72b5f7	0.014813892
2	0x3b3347f6	0.0027356124

action_model._discrete_distribution.branches.2.weight f4 [1, 128]
0	0x3b4ac80b	0.0030941989
1	0xbc1a68fe	-0.009424446
2	0xba132096	-0.00056124607
3	0x3c1a4543	0.009415927
4	0xb8d262fb	-0.00010032017
5	0x3c9b8dcd	0.018988514
6	0xba248db3	-0.00062772183
7	0x3c5b738a	0.013394246
8	0xbc504a55	-0.012713035
9	0xb997dd07	-0.00028965643
10	0x3a20b014	0.00061297533
11	0xbc2b5b00	-0.010458708
12	0xbb66830b	-0.0035173323
13	0x3ca19cfc	0.019728176
14	0x3ba11325	0.0049156123
15	0x3c2ee662	0.010675045
16	0xbc0b78ff	-0.008512734
17	0x3a0aa357	0.0005288622
18	0x3c1eecce	0.009700013
19	0xbb032039	-0.002000822
20	0xbc985edf	-0.018599926
21	0xbc3be839	-0.01146894
22	0xb9dd7a4a	-0.00042243517
23	0x3bb80d70	0.0056168362
24	0xbadb1265	-0.0016713856
25	0xbc361ed3	-0.0111157475
26	0x3a04bc66	0.0005063474
27	0x3ab3d86b	0.0013721114
28	0xbc4edf7d	-0.012626526
29	0xbbc1cd0f	-0.0059143375
30	0x3b668342	0.003517345
31	0x3b545d92	0.0032404405
32	0x3c0ac14c	0.008468937
33	0x3c316e96	0.010829588
34	0x3c05b156	0.008159956
35	0x3c6fa16b	0.014625887
36	0xbbe41bc5	-0.006961318
37	0x3b75c07b	0.003749876
38	0xbc4421af	-0.011970921
39	0xbc02f367	-0.007992602
40	0xbc6ea157	-0.014564834
41	0xbc15ecef	-0.009150728
42	0x3b4ebf4b	0.0031547125
43	0x3a51a595	0.0007997391
44	0xbc640725	-0.013917719
45	0xbb9e7fed	-0.0048370273
46	0x3b2ceb21	0.0026385265
47	0xbca069b5	-0.019581655
48	0x3b815b3e	0.0039476445
49	0xbb932a23	-0.004491107
50	0xbc4c5975	-0.0124725
51	0xbb7d5290	-0.0038653947
52	0xbc6cc868	-0.014452077
53	0x3ba51b33	0.005038643
54	0x3a00edb4	0.0004918233
55	0xbaa3986b	-0.0012481337
56	0x3c23b25a	0.009991253
57	0x3c5b74cb	0.013394545
58	0xbc0ed322	-0.00871733
59	0x3c6ef652	0.0145850945
60	0x3c2a9e8f	0.01041378
61	0xbc9e57be	-0.019328948
62	0xbc0718ab	-0.008245627
63	0xbb15ec46	-0.0022876426
64	0xbbed5dcd	-0.007243848
65	0xbb8d8938	-0.0043193363
66	0xbb97fa62	-0.0046380023
67	0x3c142f0f	0.009044423
68	0x3c8e40ef	0.017364947
69	0x3c908652	0.017642174
70	0x3a315b7f	0.0006765648
71	0xbb4db162	-0.0031386246
72	0x38a54196	7.8800294e-05
73	0xbc9b1139	-0.01892911
74	0xba998a1e	-0.0011714136
75	0x3bdef7aa	0.006804426
76	0xba30d64f	-0.00067458017
77	0xbb94452c	-0.0045248475
78	0xbbbb4951	-0.005715527
79	0x3c3ac4ab	0.011399428
80	0xba79ce5d	-0.0009529347
81	0xbc067d01	-0.008208514
82	0xbc457e2b	-0.012054007
83	0x3c165ac8	0.009176917
84	0xbc5e5918	-0.013571046
85	0xbb42d8ab	-0.0029731195
86	0xbbaff27c	-0.0053694826
87	0xbc23a767	-0.009988642
88	0xbc4787b3	-0.012178349
89	0x3b1123bb	0.002214654
90	0x3c08e849	0.008356162
91	0x3b3c9e70	0.002878096
92	0xbb82c440	-0.00399068
93	0x3b08b76c	0.002086128
94	0x3bfbb4c0	0.007681459
95	0xbbc17d53	-0.0059048324
96	0xbb60b6e2	-0.0034288694
97	0xba863213	-0.0010238312
98	0xba94945c	-0.0011335718
99	0xbbe36ad0	-0.0069402233
100	0xbbfe104b	-0.007753407
101	0x3c11dbe9	0.008902528
102	0xbb7a1d1d	-0.0038164326
103	0xbc3ffee5	-0.011718486
104	0x3c158ded	0.009128076
105	0xbbf30df3	-0.0074174344
106	0x3998ea80	0.00029166415
107	0x3b69c8cb	0.003567266
108	0x3b3b73cc	0.0028602956
109	0xbc122b17	-0.008921406
110	0x3bb70188	0.0055848993
111	0x3bbc31bd	0.005743234
112	0xbab22ca8	-0.0013593631
113	0xba54e81f	-0.0008121747
114	0xbc21aae3	-0.009867403
115	0xbb600e68	-0.0034188274
116	0x3c311f3f	0.010810672
117	0xba609198	-0.0008566617
118	0x3c0265ad	0.007958812
119	0x3ae66d15	0.0017580116
120	0x3bd4ac08	0.0064902343
121	0x3a89c8b7	0.0010512088
122	0xba21b903	-0.00061692315
123	0x3c484ca3	0.012225303
124	0xbb761988	-0.003755184
125	0xbc1cf26f	-0.009579285
126	0xbb039c60	-0.002008222
127	0x3c96d3b0	0.018411487
