Assets/ZooheimTest/Models/mytraining01/DeerBehavior.onnx (onnx, 155263 bytes, 14 tensors)

91 f4 [150]
00000000: 450d 5b3e 76a4 d83e c692 ab3e 6102 a53d
00000010: de49 593d 5133 673d 0f84 623d a066 593d
00000020: c060 a03d 4d4d 353e 3b89 643e 8841 dc3e
00000030: de85 af3e d745 a23d 6569 4f3d aba5 7d3d
00000040: fd8c 643d 43e5 553d fa84 a73d aadd 373e
00000050: 3f52 543e a859 db3e 7969 ae3e 0567 b43d
00000060: 660a 803d 6709 773d a731 693d 94a5 703d
00000070: 54f8 a73d d26f 393e 6e47 6f3e e855 e13e
00000080: 8a95 b53e becf a03d 48ed 4c3d 3e72 8b3d
00000090: 761b 583d dab7 5e3d e033 a33d 4a81 3b3e
000000a0: 03f3 503e bd89 dc3e 4f32 b03e d2ef b43d
000000b0: f634 893d 7cd4 883d 7ec7 673d 5b20 7e3d
000000c0: 371c b13d cdf2 413e 9bcc 733e 7f5f e33e
000000d0: 7225 b73e 87f9 9b3d 43b6 573d 76b5 953d
000000e0: 43d7 5d3d 11ad 5d3d 86ee ae3d ebda 413e
000000f0: 64bc 4a3e 2208 de3e 5f85 b33e 6063 ad3d
00000100: 4124 8f3d fe09 953d 5ad1 7b3d a552 833d
00000110: 57f7 ae3d 5e26 443e fb5b 743e d845 e43e
00000120: 89f2 b73e 4784 963d fa7e 6a3d 9965 a03d
00000130: dec8 623d fbe8 633d a4e9 b73d 48b8 463e
00000140: 4d0e 473e d818 e03e 0eed b63e d048 ab3d
00000150: db17 963d 311f a73d 4ab4 843d 9f15 843d
00000160: 7858 b33d d625 473e 4bfb 6e3e f595 e53e
00000170: 0271 bb3e c0d9 953d 5469 743d 53e6 ac3d
00000180: 5c53 6b3d 7ec7 673d c617 b83d 8c22 473e
00000190: b3c1 4b3e 11a6 e33e 21a5 ba3e 1aea ae3d
000001a0: 7d7f 9e3d edf7 ba3d 999b 883d 5804 803d
000001b0: 895d bc3d 1d04 4d3e 39e4 6c3e 48e3 e63e
000001c0: ceaf bd3e 187f 913d fa3a 823d 1a63 b73d
000001d0: e9e4 6b3d c8cd 783d 1d20 b83d bd86 493e
000001e0: 1bfe 533e a566 e43e 0dc1 b83e 8c95 ab3d
000001f0: ce6e a63d ae85 c73d ab93 8b3d 2669 813d
00000200: 67db cc3d f221 533e 40ae 6f3e da6e e73e
00000210: c798 bc3e aada 933d 6ab8 973d dbcf b83d
00000220: 332f 773d 34db 813d 200c ba3d 6581 493e
00000230: 9c6a 663e df55 e43e 847e b43e c336 ab3d
00000240: 391e a93d c2f2 c83d 668d 8c3d 4e07 883d
00000250: 65cb c33d 2172 513e
0.2139178 0.42312974 0.33510417 0.08057094 0.05304896 0.056445424 0.055301722 0.053076386
0.078309536 0.17705269 0.22317974 0.43018746 0.3428182 0.07923477 0.05063762 0.06192557
0.05579852 0.052220594 0.0817966 0.17955652 0.207345 0.4284184 0.34064844 0.08808712
0.06251983 0.0603117 0.056932118 0.058751658 0.08201662 0.18109062 0.23367092 0.44010854
0.35465652 0.07852124 0.050030977 0.06808899 0.052760564 0.054374553 0.07968879 0.18311039
0.20405202 0.43073836 0.34413382 0.088348046 0.066995546 0.06681153 0.056586735 0.062042575
0.0864796 0.18940277 0.2380852 0.44408795 0.35770756 0.07615953 0.052664053 0.073100016
0.054160368 0.054120127 0.085415885 0.18931167 0.19798428 0.4336558 0.35062692 0.0846622
0.06989337 0.072772965 0.06147895 0.064122476 0.0854327 0.19155261 0.23863213 0.44584537
0.35927227 0.07349449 0.05725 0.07831878 0.055367343 0.05564211 0.0898011 0.19406235
0.19439049 0.43768954 0.35727733 0.08363497 0.07328769 0.08160246 0.064797 0.064494364
0.087571084 0.19448027 0.23338048 0.4484097 0.36609656 0.07316923 0.05967076 0.08442368
0.057452545 0.056586735 0.089889094 0.19446772 0.19898109 0.44462636 0.36454108 0.08540745
0.0773916 0.09129319 0.06670303 0.062508285 0.09197528 0.200211 0.23133935 0.45095277
0.3704819 0.07104319 0.06358905 0.08954449 0.057591353 0.060743123 0.089905 0.19680305
0.20702402 0.44609562 0.36084786 0.08378133 0.08126603 0.09742294 0.06815275 0.063188836
0.10002785 0.20618418 0.23406315 0.4520176 0.3683531 0.07219441 0.07408221 0.0902402
0.060347747 0.06340638 0.09084344 0.19678266 0.22501606 0.44596764 0.35252774 0.08360054
0.08257718 0.098119274 0.06862907 0.06642018 0.09560279 0.20453693

94 f4 [6]
00000000: 6c5b 9b41 8a7a a641 81dd 9a41 ebd7 9841
00000010: bc96 9a41 c3ce 8941
19.41964 20.809834 19.358156 19.105429 19.3236 17.225958

action_model._discrete_distribution.branches.0.bias f4 [2]
00000000: 2ee5 30bc 1ae5 303c
-0.010796828 0.01079681

action_model._discrete_distribution.branches.0.weight f4 [2, 128]
00000000: cc1a d8bc 672d 853c 4cd5 033d f9a1 253d
00000010: c3b1 51bd 0f8d 8cbc 0e56 04bd ef10 7e3c
00000020: c6ec 98bc 1568 a5bc 3e0d e6bc ac92 063d
00000030: c194 ef3c 7d64 cd3c 8285 d03c f919 3abd
00000040: 8ba9 213d b591 e03c 7646 35bc 29b4 3cbc
00000050: 268e 10bd 2e78 213d a111 60bd 3bb2 043d
00000060: ffa4 af3b b9ca b1bc 034e 843d 1e94 0a3d
00000070: 0eb0 063d 1d11 11bc 607a e53c 0daf 653d
00000080: 8344 6b3c 9342 983c 4cb6 f8bc e3c4 b53c
00000090: cc69 9a3c a931 403d 57ee 073c fefa a53b
000000a0: dc14 37bd 535e 093c 550e b63c 8427 dabb
000000b0: 98dd ed3c 81e6 dd3c 7857 893c 2456 67bc
000000c0: 2e0c 3fbc a89c 9ebc 8409 b6bc 9e1d 553c
000000d0: 7944 e03c 4d53 e9bc 47a9 95bc 4849 71bc
000000e0: 060b 03bd 7a74 b9bc d700 1abb 2a22 293c
000000f0: b3a9 9fba fb90 cc3c e0a9 e3bb be4e bd3c
00000100: f35c 32bd 9359 75bb 38c0 02bd 44e6 95bc
00000110: e164 28bc 0912 84bc 9afb 923b d1fd b9bc
00000120: 644e 89bd bce5 00bd f799 333d 2d85 b1ba
00000130: eb8f 143b 8258 ccbc 931a ce3c bb07 7dbd
00000140: 1d44 14bd 8104 7c3c f2e7 323c cab9 183d
00000150: 99eb fabc b91d 683d 7964 43bc 0f7d d0bb
00000160: 0c65 033d 512d 993c d5eb 103c 9fa6 4cbb
00000170: a140 03bc c8da 803c 14f3 81bc 4586 f93b
00000180: 4c30 25bc 79e5 36bc c89e ccbd 5147 cf39
00000190: 7e67 e8bc 8402 e43a da8b bdbb 027c aebc
000001a0: 38ab 383d ba89 0538 2c96 693c e619 2a3d
000001b0: 065b 013d d5c1 50bc 436c dc3b 3ba0 e4bd
000001c0: f083 013b f685 003d 6f01 f63a d3a4 18bd
000001d0: d1aa 573c 2643 cfbc f835 6c3c bac5 b5bc
000001e0: eb78 d7bc 8a0b 4cbd a47a 89b5 5c16 19bd
000001f0: 15f2 b33c ae61 bf3c a151 eebc 8813 c9bb
00000200: 6f4d 743c 6970 9ebc 6f4e 66bd 8940 a7bc
00000210: e796 3e3d 5d20 023c 0a28 b23b e451 2f3b
00000220: 797b b93c ab8b d73c 12a8 e33c 5e8a 24bd
00000230: 91f5 40ba 9d38 32bd f82a c4bc ffe1 dc3c
00000240: 3ff3 a4bc 17b8 6dbd dca9 a139 1057 3f3c
00000250: 665c 3f3d fd6b 89bd e6a8 4e3d 31de 9dbc
00000260: ee3e fcbb c635 ba3c 8fb4 4abd 66fe 843b
00000270: d1f3 19bc 52eb 093c 7604 8cbc 582b b8bc
00000280: 19ba 04bc 7c8b 9dbc d897 a9b9 667a 27bc
00000290: aad0 6cbc 2b44 71bd da40 a2bc 8186 e43b
000002a0: f2ba 343d ffd5 20bd 1be2 7dbc 89f1 60bc
000002b0: b044 38bd 03e6 efbc 6e08 10bc 8d96 343c
000002c0: 94dc e73c 681d 43ba b2a0 243d ab89 733b
000002d0: f65c cbbc 9641 a43c 7b94 0a3d 9236 0c3c
000002e0: c984 783c 2578 b93c a792 8f3c e16b 20ba
000002f0: 135f 9cbb 4e75 1cbd b7d9 343c 0dd6 91bc
00000300: 0665 0d3d 7df5 233c 0a28 713c bc94 8f3c
00000310: c938 bc3c 1031 143d d68b d0bb 06c8 573c
00000320: f362 9f3d 15c6 f13c c827 5abd d32c 5f3c
00000330: fa33 4eba 93dd a43c 6f30 a4bc fd60 373d
00000340: 18cb 023d 728a dcbc 1e06 6f3c 2e4a 36bb
00000350: 4d09 c93c d902 38bd 5f9f da3b 6e9f 71ba
00000360: 8f6d 50bc 7fcd 77bc 9aa9 663c e5ac e6bc
00000370: a72e d2ba 42cf b9bc 0ba2 e83b bab8 8939
00000380: 72fa 913c 5224 b83c 787d c03d b739 f13a
00000390: 8e2c f53c c223 3c3b 8774 263b 21e6 333c
000003a0: dbea b5bc 53b8 143a e226 0b3c 94a3 0ebd
000003b0: 6140 36bc da17 3fbc 9c04 393c 60bb 083e
000003c0: 332f 33bb 6e08 2bbd 3077 58bc fcfc 9f3c
000003d0: ee49 a93b 1515 633c a1ea 01bd 7397 af3c
000003e0: 0918 0f3d 9a7b a73c 426a cfbc 6e4f cc3c
000003f0: be80 9abc 36dc b1bc c952 2d3d 6005 893c
-0.026379965 0.016257001 0.032185838 0.040437672 -0.051194917 -0.017157106 -0.03230863 0.015506967
-0.01866759 -0.020191232 -0.028082486 0.03285472 0.029245736 0.02507233 0.025454286 -0.045434926
0.03946833 0.027413229 -0.0110641625 -0.011517563 -0.035291813 0.039421253 -0.054704312 0.032396536
0.0053602452 -0.021703111 0.06460192 0.03383266 0.032882743 -0.008854178 0.028012455 0.056075145
0.014359596 0.018586433 -0.030360363 0.02218861 0.018849276 0.04692236 0.008296571 0.005065321
-0.044697627 0.008384305 0.02222363 -0.0066575427 0.029036328 0.027087452 0.016765341 -0.014119659
-0.011660619 -0.019361809 -0.022221334 0.01300755 0.0273764 -0.028482104 -0.018269194 -0.014726944
-0.031992935 -0.022638548 -0.0023499036 0.010323087 -0.0012181312 0.024971476 -0.006947741 0.023108836
-0.043545675 -0.0037437424 -0.031921595 -0.018298276 -0.010277958 -0.016121881 0.0044855596 -0.022704037
-0.06704405 -0.03146909 0.043848004 -0.0013543718 0.002266879 -0.024944548 0.025159156 -0.06177495
-0.03619777 0.015381933 0.010919558 0.037286557 -0.03062992 0.05666897 -0.01192581 -0.0063625644
0.032078788 0.018698366 0.008845289 -0.0031227244 -0.008011014 0.015729323 -0.015862979 0.007614883
-0.010082316 -0.011163109 -0.099912226 0.00039535252 -0.028369661 0.0017395769 -0.005784494 -0.021299366
0.045085162 3.183794e-05 0.014256995 0.041528605 0.031580947 -0.012741526 0.006726773 -0.11163374
0.0019762479 0.031377755 0.0018768738 -0.037266564 0.013163284 -0.025300574 0.014417164 -0.02218901
-0.026302775 -0.049815692 -1.0242989e-06 -0.03737484 0.02196602 0.023362007 -0.029091658 -0.0061363615
0.01491104 -0.01934071 -0.056227144 -0.020416515 0.04653063 0.007942286 0.005436902 0.0026751691
0.022641884 0.026311716 0.027790103 -0.04017102 -0.0007360811 -0.043511022 -0.02394627 0.026963232
-0.02013552 -0.05803689 0.00030834868 0.011678472 0.046718977 -0.0671005 0.050454043 -0.019270988
-0.0076979315 0.02273072 -0.0494886 0.004058647 -0.009396509 0.008417921 -0.01709197 -0.022481605
-0.00810101 -0.01923155 -0.00032347324 -0.010222053 -0.014454046 -0.0589029 -0.019806314 0.006974042
0.044123597 -0.039266583 -0.015495802 -0.0137294615 -0.04498738 -0.029284483 -0.008791072 0.011022222
0.028303422 -0.00074430415 0.040192313 0.0037160914 -0.0248246 0.020050805 0.03383301 0.008557932
0.015168377 0.022640297 0.017525984 -0.0006119591 -0.004772076 -0.038197808 0.011038235 -0.017802263
0.03452017 0.010007259 0.014719019 0.017526977 0.022976296 0.036179602 -0.006364326 0.013170248
0.07782545 0.029513398 -0.053260595 0.013621527 -0.00078660215 0.020125186 -0.020042626 0.04477023
0.031931967 -0.026921485 0.014588861 -0.002781521 0.024540568 -0.04492459 0.0066718305 -0.0009217177
-0.012721433 -0.015124678 0.014078522 -0.028158614 -0.0016035632 -0.022681836 0.007099395 0.00026268308
0.017819617 0.022478256 0.09398931 0.0018404041 0.029928472 0.0028707837 0.0025399046 0.01098016
-0.022206714 0.00056732184 0.008493157 -0.03482397 -0.011123748 -0.0116634015 0.011292603 0.13352728
-0.0027341365 -0.041756086 -0.01321201 0.019529812 0.005166284 0.013860007 -0.0317179 0.021434521
0.03493503 0.02044468 -0.025319222 0.024940219 -0.018860217 -0.02171145 0.04231528 0.016726196

action_model._discrete_distribution.branches.1.bias f4 [3]
00000000: 2049 6bbc c9d8 09bc 2832 b93c
-0.014360696 -0.008413502 0.022606924

action_model._discrete_distribution.branches.1.weight f4 [3, 128]
00000000: 2abf 2e3d 0c33 a53c 2788 fd3c 3356 013d
00000010: a04a 6ebd d616 d8bc 1759 2a3d 80ed 193d
00000020: 9cfb ab3b 872d eb3c 0463 8d3a 3ae6 383d
00000030: 3d2e f3ba 5942 68bc 5a78 44bd 4ada 653d
00000040: 5476 d53c 0b44 23bd a0e3 0e3d 6a6d d43c
00000050: 6cc3 bcbc 8bab b8bc 9e20 44bd 9526 b63c
00000060: 04f8 be3c 0c2f 2ebc 283a 67bd 07b4 3bbc
00000070: 9385 80bc d701 45bd 5b68 803c 8c51 50bc
00000080: 574a 023d b20f da3c dd8f 9c3c f178 8ebb
00000090: a9a6 e9bc d768 f3bc a2dc e0bb 19ea bf3c
000000a0: da1e ee3c 79b4 be3d 5718 6abc 15c6 503b
000000b0: f379 a9bb b4be 3f3d 3ca2 423c 623c 33bc
000000c0: b7ae bdbb 6810 65bb 84de 3cbd 6342 c33c
000000d0: c84c 853d c952 b4bc 26d1 ad3c 5aec 5bbc
000000e0: 8677 293d 6bca 193d 4a3d 293d ba44 7c3b
000000f0: 0a0e ef3c 6974 1cbc 927e 53bd cfd9 2b3d
00000100: 48e2 44bc 1bcc 723c ad38 5bbc cc14 c8ba
00000110: 6194 9bbc ada6 44bd 7394 a7bb 552e 7e3c
00000120: a373 b83b af9c d3bc c09b 21bc 78bc 8dbc
00000130: d127 90bc 6d37 85bc 78a7 15bc 40c3 c4bc
00000140: 6aa1 c33b 6c00 193d f6e5 bebc 1835 b93c
00000150: c29a d23c 2393 d93b 5b23 63bb 8b92 e73c
00000160: c418 9cbc 776b d2bb 6176 abbb 1659 6cbd
00000170: 5000 953b e6fd fd3a 0a32 e43c a652 883c
00000180: eac2 6cbd 7eb4 ef3c a638 293c 4c9d 47bd
00000190: aae2 1abd 67c0 6bbd 53a0 8bbd 679f 98bd
000001a0: bf37 db3c 081d 7ebc 0f2b 0d3d a062 163b
000001b0: 17fd 8ebd 1843 f73b bcd7 26bd cc71 793a
000001c0: 349a d73b 80c6 e53b d0cd 2b3d 75f8 3c3d
000001d0: 8c2b b1bc 64d2 5f3d befd cc3c eb60 85bc
000001e0: 84cb 2d3d 2095 f63b c540 373c 5e9e aa3c
000001f0: d037 8fbb 5368 5a3d c978 be3d 1186 bebb
00000200: f4d2 2ebc bcdf 153b 3987 a53c 1f44 20bd
00000210: ef86 fe3b 8786 d23c 11cf 423d 363d 6dbd
00000220: ced2 fc3c 6bb7 62bd 4fda 363d e1ac 2fbd
00000230: 1f78 553d 5cf3 943d 29d4 313d e3c8 6b3a
00000240: e4f6 c33c 2410 45bc b495 50bd 40f8 50bc
00000250: efc2 1b3d c549 f93c d9bd e73b afe9 85bd
00000260: 1345 cbbc 8fbb 6abd e71f 533d d84f 70bd
00000270: 699e e93c 64be ba3c 9f13 413d 2f2d 7c3c
00000280: 2ec8 b9bc d01a a93c 6332 29bc 9d52 35bc
00000290: b660 5cbb 4a3a 25bd 7b31 3a3b 70d7 60b8
000002a0: 9286 cfbc 37a1 8fbd 960c 433d 2e8f df3b
000002b0: a27d 38bc 5c68 333c 54ce 943d 2424 033d
000002c0: 376b 67bd 762f 10bd 9238 e73c 843f 1c3b
000002d0: 47d6 35bd 20df bc3b dd7d 0e3c 6c48 d6bc
000002e0: 0774 b5bc 4175 e43a 09d1 043b 8acc 46bc
000002f0: ead6 0bbd a365 ae3b 9b1e e43c f86f c43c
00000300: ce3c 0b3c 2fbf acbd bf78 f6bb 75e2 bd3b
00000310: 1f01 643d 6da5 833d 95a5 9a3d dad1 1fbd
00000320: 616a 333d 08f8 5a3b fd13 50bd 392b 1dbd
00000330: 23e0 263d 07a3 44bd 80fc ee3c c6f5 6b3c
00000340: 58ba a9bc fdc8 c7bc 7aba b13c 3606 5dbd
00000350: 9105 1dbd d15a 7fbb 4df2 7d3d f0e7 b139
00000360: d238 193d 9900 093d 5100 62bd 550c 7d39
00000370: 156c 633d 6aba 893d b216 7dbd a3a8 47bd
00000380: 88d7 c2bc 89b9 6bbc 4520 1cbc 33d4 dd3b
00000390: adf7 6d3d 51bc 173c f6f9 323c 895d 9e3d
000003a0: 5abe cfbb d3f2 293d 3358 bd3c 396e 34bd
000003b0: 2fef bc3c 45f9 d7bc 061b 9c3b 1d93 adbc
000003c0: 24ba 153d faf4 233d 84a0 1dbd 5614 3c3d
000003d0: 1495 093d 9198 af3c 74ba 2e3d c8c4 ea3c
000003e0: 4527 4d3c e42f 73bc 2989 13bd e90d 7cbc
000003f0: bf37 7abd ff5f 21bd 9c65 6cbd 5938 233d
0.042662777 0.020165943 0.030948712 0.031576347 -0.058176637 -0.026378077 0.04158887 0.037580013
0.0052485 0.028708233 0.0010786955 0.045141436 -0.0018553209 -0.014175975 -0.04796634 0.05611638
0.0260574 -0.039859813 0.03488505 0.025931079 -0.023042403 -0.022542736 -0.04788267 0.022235194
0.023311622 -0.010631334 -0.056451946 -0.011456496 -0.015688693 -0.048097458 0.01567476 -0.012714755
0.031809177 0.026618812 0.019111568 -0.0043479134 -0.028521853 -0.029713077 -0.006862239 0.023427056
0.029067446 0.09311766 -0.01428803 0.0031856347 -0.005172008 0.046812728 0.0118795 -0.010939689
-0.00578865 -0.0034952406 -0.046110645 0.023835367 0.065087855 -0.022012131 0.021217894 -0.01342305
0.041373752 0.037546556 0.041318215 0.0038493113 0.029181499 -0.009549239 -0.05163438 0.041955765
-0.01201684 0.01481917 -0.013380212 -0.0015264987 -0.018991651 -0.048010517 -0.005114132 0.015513976
0.0056290193 -0.025831548 -0.009863794 -0.017301783 -0.017597111 -0.01626178 -0.009134166 -0.024018884
0.00597017 0.037353918 -0.023303013 0.022608325 0.02570856 0.0066398545 -0.0034658525 0.02826812
-0.019054778 -0.006421502 -0.0052326177 -0.057702146 0.0045471564 0.0019378036 0.027855892 0.016640972
-0.057803072 0.02926087 0.010328447 -0.048733994 -0.03781382 -0.057556536 -0.06817689 -0.074522786
0.02675998 -0.015509851 0.034464892 0.0022946969 -0.06981867 0.00754584 -0.040733084 0.0009515553
0.0065796617 0.0070121884 0.041944325 0.046135385 -0.02162721 0.054644004 0.025023337 -0.016281566
0.042430416 0.0075251013 0.011184876 0.020827468 -0.004370667 0.053322148 0.09300382 -0.005814322
-0.010670412 0.0022868952 0.02020608 -0.039127465 0.00776755 0.025698913 0.047560755 -0.057919703
0.030862238 -0.055350702 0.04464179 -0.04288948 0.05211651 0.072729796 0.043415222 0.0008994473
0.023921438 -0.012027774 -0.050924018 -0.0127545 0.0380277 0.030430684 0.007072192 -0.06538712
-0.02481321 -0.057307776 0.051544096 -0.058669895 0.028517919 0.022795863 0.047137853 0.015391632
-0.02267846 0.020642668 -0.010326955 -0.01106706 -0.003362698 -0.040338792 0.002841084 -5.3606404e-05
-0.025332723 -0.07013171 0.047619425 0.0068224883 -0.011260422 0.010950174 0.072659165 0.03201689
-0.056498732 -0.035201512 0.028225217 0.002384157 -0.044393804 0.0057639033 0.008697 -0.02615758
-0.022150053 0.0017429964 0.0020266196 -0.012133727 -0.034140505 0.0053221746 0.027846625 0.023979172
0.008498384 -0.08434903 -0.0075217183 0.005794818 0.05566513 0.06428037 0.075511135 -0.03901849
0.043802623 0.0033411998 -0.050800312 -0.0383713 0.040741097 -0.048007037 0.029173136 0.014401859
-0.020718738 -0.02438783 0.021695364 -0.053961 -0.038335387 -0.0038964043 0.061998654 0.00033932878
0.037407704 0.033447836 -0.055176083 0.00024132554 0.055522997 0.06725009 -0.061789222 -0.04874481
-0.023784414 -0.014387497 -0.009529178 0.006769681 0.05809753 0.009261207 0.010923853 0.07732684
-0.0063398303 0.04149134 0.023113346 -0.04405043 0.02306327 -0.026363978 0.0047639636 -0.021188313
0.03655447 0.04002855 -0.038483158 0.04591783 0.033589438 0.021435054 0.042658284 0.028658286
0.01252157 -0.014842961 -0.036019478 -0.015384176 -0.06108832 -0.03939819 -0.05771409 0.03984866

action_model._discrete_distribution.branches.2.weight f4 [1, 128]
00000000: a55c 1ebc 98d1 f7bb 4746 fb3b 8251 e7bb
00000010: 8315 bd3b e03c 84bb 42ba 523b f2c3 93ba
00000020: 3021 6e3b 4230 c5bb d731 4fbb 29da 29bc
00000030: 9537 69bb a024 c13b 3110 b33b fd89 363c
00000040: 27ef 2cbb 5da6 0fbc a20e b0bc 5f02 9d3c
00000050: 23b0 4bbc 5d34 39bc 3b44 49bc 3433 243b
00000060: c76a 2d38 9b15 0dbb 8057 46bc 4031 e13b
00000070: 6b8c b2bb 52c9 2a3b abf0 99bc d717 833a
00000080: b894 3d3b ea29 c63a 5c01 bdbb bb65 e2bb
00000090: 30c7 49bb afa3 06bb 757b 5a3c d3b0 6cbc
000000a0: 3b96 223c e096 423c f5ff ec3b f389 eabb
000000b0: e824 62ba 5059 24bb e6e8 1ebb 0c40 223c
000000c0: 049e 993c 7d35 55ba 2b31 043c 2b38 7dbc
000000d0: b59f 32bc 726a c23b 3944 9abc 6025 723b
000000e0: 4a64 553b 7a04 da3b 2111 8bbb cb7d 473b
000000f0: fdbb 913b ec11 273c 7fe1 263b 6b6b 853c
00000100: d2c0 3a3b 6fed e43b 7674 1abc f506 43bb
00000110: 50ad a9bc 9eb1 993c ca16 93ba eb37 893b
00000120: 0cce 2d3b e7ce 80bb e0ae 0ebc 2c31 82bb
00000130: d1c1 1b3c 18b3 123b d8be 49bc af28 adbb
00000140: 93b0 5abc a227 cb3b 4a9a e13a 24b9 0dbc
00000150: 6f64 d63b 8fe8 a93b 4d27 56bc 50e5 82bb
00000160: b28b fc3b b36b 613b 3f17 debb 32e1 d838
00000170: 9505 01bb 9314 b03b da18 e7bb e1d2 89bc
00000180: 62aa 02bc 3021 5f3c 9fe4 1fbc c394 b9bb
00000190: 2dcc 653c 1fda d53b 0382 71bc 8bf8 57bc
000001a0: 5b24 0cbc f248 613c edba 76bb 60d9 57b8
000001b0: 93f9 12bc 15c7 5f3a 45ba 553c fb33 5d3c
000001c0: 6718 563c bfcd e03b 73c6 863c 83d6 003c
000001d0: ac06 3ab9 59c0 8d3b 95fe 673b 2602 4c3c
000001e0: f054 f7bb 1fd3 363c d452 2fbb ea6b 8c3a
000001f0: df58 96bb 2fdf 8738 3717 5abc 0f05 a0bb
-0.009665643 -0.0075628273 0.00766829 -0.007059277 0.0057703867 -0.004035577 0.0032154475 -0.0011273606
0.00363357 -0.0060177157 -0.00316154 -0.010366955 -0.0035586108 0.0058942586 0.0054645767 0.011141297
-0.0026387663 -0.008767691 -0.021491352 0.01916617 -0.012432131 -0.011303988 -0.012284334 0.0025054934
4.134586e-05 -0.002152777 -0.012105823 0.006872326 -0.005448868 0.0026059938 -0.018791517 0.0010001612
0.0028927755 0.0015118693 -0.0057679843 -0.0069091 -0.003078889 -0.002054434 0.0133350985 -0.014446455
0.009923513 0.011876792 0.007232661 -0.007157558 -0.0008626715 -0.0025077648 -0.0024247705 0.009902965
0.018752106 -0.00081332756 0.008068363 -0.015455286 -0.010902335 0.0059330994 -0.01883136 0.0036948547
0.0032560998 0.0066533657 -0.0042439853 0.0030439969 0.004447459 0.010197144 0.0025463996 0.016286572
0.0028496278 0.006986312 -0.0094271805 -0.0029758785 -0.020712525 0.018761452 -0.0011222002 0.004187574
0.0026520519 -0.0039309147 -0.008708686 -0.003973147 0.009506659 0.002238458 -0.012313567 -0.005284391
-0.013347763 0.006199793 0.001721212 -0.008650098 0.0065427343 0.005185194 -0.0130708935 -0.0039946213
0.0077070827 0.003439647 -0.0067776735 0.000103416285 -0.0019687165 0.0053735464 -0.007052523 -0.016824188
-0.007975193 0.013618752 -0.009759097 -0.0056634857 0.01402573 0.006526246 -0.01474047 -0.013181816
-0.00855359 0.013750302 -0.0037648038 -5.146244e-05 -0.008970636 0.00085364404 0.013044898 0.013501163
0.013067341 0.0068604643 0.01645205 0.007863644 -0.00017740828 0.004325908 0.0035399545 0.012451684
-0.007547967 0.011158734 -0.002675225 0.0010713313 -0.004588231 6.478873e-05 -0.013311199 -0.0048834155

discrete_action_output_shape f4 [1, 3]
00000000: 0000 0040 0000 4040 0000 803f
2.0 3.0 1.0

network_body._body_endoder.seq_layers.0.bias f4 [128]
00000000: 0def aebb 2cb5 55bc de85 96bc f587 143c
00000010: 0548 91ba 9ff6 63bc 9eb8 32bc 5f0b 7a3c
00000020: bc4e 0c3d d4ac 0a3d c6bf 993c d061 a8bc
00000030: 2a9d 0e3c dd1d e7ba 45b4 6e3c f836 9bbb
00000040: 7d3c 2b3d 3097 503c 857b 813c 2180 e8bc
00000050: 9216 00bc 4bc8 fcbb 874a 39bc d312 05ba
00000060: baad 8eba 2d24 e5bb 2bf0 1f3b eb71 993b
00000070: 0a42 89bc aed9 2bbc 0fac 9f3c 1a94 4abc
00000080: d78d e23b 9c05 4bbc 37fb db3b 32db 3bbc
00000090: 44ad 943c 10b8 5d3c de52 3cbb fab2 db3c
000000a0: 6324 db3c dfa0 c0b9 4881 c53b f4c4 e5bc
000000b0: 11c2 83bb 1a50 3f3a eebc ecbc bb9f 213d
000000c0: 02dd 5f3c 98ad e2bc 6cc7 4abc f19e b2ba
000000d0: bc9c 19bc 5878 71bc d924 09bc 9d33 f5bc
000000e0: 527f dfba 1160 a43c f202 2bbc 1e48 0d3a
000000f0: ee8a 83bb 7826 823d f269 a0bc 4e6a dc3c
00000100: b434 efbc 8638 0fbc cd45 ccbc a895 f93c
00000110: 3665 07bb f62e 313c d4d7 8438 e1a1 08bc
00000120: c227 803c 9fef ce3c ce9c 90bc 4294 c3bc
00000130: c1cb a73c bb4c 6b3c abdd 31bc 348a e43c
00000140: 8ffb 953c 6242 9fbc dce2 ac3c 341c f9bb
00000150: 7d3f f03a b6a9 01bc 299c ef3c d5b2 6a3d
00000160: 8c8d 0cbc 7548 9a3c 24f1 1a3d e690 9b3c
00000170: a5d4 763c 79fe d03c 5845 0bbc dec7 90bc
00000180: 9595 9c3c 757d 3bbc 1ebb f43b 4696 013c
00000190: a5ac 723b 328a c8bc d030 a7bc 1a58 80bc
000001a0: 6bfd 2dbd 806e bd38 3d9d 7fbc a95c b5bc
000001b0: 7b5e 91bc c180 09bc c9ba cc3b eaae 8f3c
000001c0: 654d 8b3c cf08 0abc 364a ee3c 19b9 a63c
000001d0: ede0 87bc 87e8 07bc ba3f 2dbc 6cd8 1cbc
000001e0: 1320 77bc c816 32bd e4b5 6d3c 7c69 84bc
000001f0: d9f2 c3bc 5f28 d03c 1b1b 98bc 1764 783b
-0.0053385557 -0.013043683 -0.01837438 0.009065618 -0.0011084086 -0.0139137795 -0.010908274 0.0152615
0.034254774 0.033856228 0.018768203 -0.020554453 0.008704463 -0.0017632801 0.014569347 -0.0047367774
0.041805733 0.012731358 0.015805969 -0.02838141 -0.007817881 -0.0077143065 -0.011309273 -0.00050763524
-0.0010885515 -0.006992838 0.0024404626 0.0046827695 -0.016755123 -0.010488911 0.019491224 -0.012364412
0.0069138813 -0.012391474 0.0067132968 -0.011465834 0.018149026 0.013532653 -0.0028735916 0.026818741
0.026750749 -0.00036740952 0.0060273744 -0.028048016 -0.0040209373 0.0007298008 -0.028898682 0.03945897
0.013663532 -0.027670667 -0.012376647 -0.001362769 -0.009375747 -0.014738165 -0.008370602 -0.029931838
-0.0017051494 0.02006534 -0.010437714 0.00053894694 -0.0040143644 0.063549936 -0.019581769 0.026906159
-0.029199935 -0.008741504 -0.024935627 0.03046687 -0.0020659692 0.010814419 6.3344516e-05 -0.008339376
0.015643958 0.025260745 -0.017652895 -0.023874406 0.0204829 0.014361556 -0.010856072 0.027897932
0.018308429 -0.019440833 0.021104269 -0.007602239 0.0018329468 -0.007913997 0.029249268 0.057299454
-0.008578669 0.018833378 0.037827626 0.018989991 0.015065347 0.025511967 -0.00850042 -0.01767343
0.019114295 -0.0114434855 0.007468595 0.007909363 0.0037029174 -0.02447996 -0.020409018 -0.01566701
-0.042478006 9.0328045e-05 -0.015601453 -0.02213891 -0.017745247 -0.008392514 0.0062478525 0.01753946
0.017004678 -0.008424952 0.02908812 0.020351933 -0.016586745 -0.008295185 -0.010574276 -0.009573083
-0.015083331 -0.043478757 0.014508698 -0.01616358 -0.02391951 0.025409875 -0.018567612 0.0037901455

network_body._body_endoder.seq_layers.0.weight f4 [128, 156]
00000000: beeb ed3c 1d04 9b3e 97cf 19be 287c 1a3d
00000010: 482e 83bd d14e bd3c 0840 39bd 1fc9 333d
00000020: e847 29bd 39ff 74bc 6853 943d 6f7c 0a3e
00000030: 760a c9bd a8b7 05be 7b65 45bd 48c8 953d
00000040: 481b 5a3c 0052 0f3d bf9c 01bc 8caf 7ebd
00000050: c274 acbc 3847 d43d d453 51bd af6e 2e3e
00000060: 1d8a d8bb 0295 373e ec01 973c 895a 17be
00000070: 1cca cdbd eb11 013e 1b12 e4bc 74b1 ae3c
00000080: dc2f 453d 16c6 fabd 26a7 9abd 6581 c8bd
00000090: d961 613d eda1 333e 4d26 51bc eaa3 eb3c
000000a0: bb1b 2abe acd0 d53c 2d6f d73d 509f 6cbd
000000b0: dcc9 93bc 5fd9 22ba 348e 293e e1d1 b33d
000000c0: e7af 253e 2258 d93d c572 0fbd a729 3e3d
000000d0: 65a4 3dbd fb0c da3b 00f1 03be 5930 c9bc
000000e0: 8c35 a4bd 570b d83d 9144 0d3e 9dc1 dabd
000000f0: 1718 d23d 51a5 503d f150 953b 3e67 783d
00000100: 8628 0c3e a61e 733b 45fd b13d f540 1fbe
00000110: c45a 5ebd 0a42 823d 2b75 5a3d 5cef 383c
00000120: 3a91 d8bc c922 1f3e fa13 203d fdc1 c1bd
00000130: f3c0 af3d 50fa de3d 2d6e ffbc 796d 9b3c
00000140: f337 b43d 139d 013a b757 b33d 91b4 353d
00000150: 7212 02bd fcfb acbd 1aee 13be 11a0 f53d
00000160: dbba 803d 9019 8e3d 39cb acbc 7134 acbc
00000170: ce22 123c c417 a53d 5d6d 6fbe 61cc ea3d
00000180: 9552 f6bc 03f6 55bd b774 263e 5cd6 323d
00000190: 3d57 86bc f0f3 8e3d d07a 73bd 68f3 353d
000001a0: b5f0 13bd 6d4e 9fbd 39c3 843d e222 ba3d
000001b0: 9dba b13d 732f da3b 6793 8cbd 035d 2b3e
000001c0: 920e f2bd d1b5 963d 6af8 91bd 4b1d 7dbd
000001d0: eb54 db3d 9f94 ee3b 271a a2bd ad7d 0bbe
000001e0: 8026 1fbc b727 783d 9a32 f83c e173 413d
000001f0: 4689 83bc 316c a4bc 344a 1cbd de56 1f3b
00000200: 1fcb 1bbd 9070 f33c 3817 8d3d cc6b 32bc
00000210: 4d8e 383d ab86 cabd b312 d8bd 0488 b1bb
00000220: 703b d63a 0529 333c 9a21 0cbd 0700 e63d
00000230: 46b0 d13d 1b16 3dbd 1294 86bc fe87 af3d
00000240: e76c d13d 74e0 733b 4817 c0bd fdb4 b2bc
00000250: 961c 043d d62b 59bd b03d 8f3c b28b 87bc
00000260: a496 91bd 8a05 98bd 0f87 483c 9d86 bebd
00000270: 86d9 7dbc 1986 e73d f1cd b0bd 7f81 f93c
00000280: 35f6 883d 7321 6a3a 68fa 1bbe 0608 85bb
00000290: cba2 ea3a 5acb bdbd d4cf c8bd 79b0 d13d
000002a0: e97e 2c3d 316d e2bd 8e0b 2ebd c7b8 b93d
000002b0: f027 f5ba 7dd8 1cbc 29cc 8cbd c6d9 cdbc
000002c0: 68c1 a1bd 943f e9bd 17f5 033e 24ba 8dbd
000002d0: ac6c 0e3d ea49 a73b 0bf3 56bd 2016 043e
000002e0: 7a2e 97bd 32ad 413e 9c8b 10bd 71be f83d
000002f0: bb0a f7bd b04c 68bd fa7d 05be 2245 29bd
00000300: 49d5 af3b caee 083e 891a e03c aac4 9fbd
00000310: e9b1 003d caa6 00bb 16a0 b8bc cd0f e2bd
00000320: b7bf dabd 3037 623c 0a3b 523d aff4 f9bb
00000330: a6d1 e5bc 13fb e13d f89b 81be 5f58 a9bc
00000340: 9e51 f63d b4fb 36bb adb6 cc3d e164 61be
00000350: 0f64 09be d5ca 233d 0068 e5ba 0143 113c
00000360: 1a60 e13c a5f8 9abd 90aa 5fbd f6a0 913d
00000370: 53ca 38bd 255a 4ebd 9b16 fd3b 9c90 09bb
00000380: 609b 3cbe 5e4c 5c3c 37a4 8d3b c718 5abd
00000390: 6f8f aa3d cdcd e7bd 0476 8ebd f6f8 81bd
000003a0: 964e b6bd 5a3f c6bd 86e5 6abd b869 1bbd
000003b0: eddd 7ebb 1853 b5bc a606 efbd ace5 963d
000003c0: 5c7f 913d c5b2 b2bd ee41 403e 11b1 f3bb
000003d0: e680 82bc 48f4 b43d 53fc 8c3d 05fe debd
000003e0: 6153 a13d 3e72 053d 7ca7 2cbd 405c b5bd
000003f0: 3247 2abd dc15 123d 7a44 073d 6c9f 40bd
0.029043075 0.30276576 -0.15020595 0.03771606 -0.06405312 0.023108872 -0.04522708 0.043892976
-0.04132834 -0.014953428 0.07242471 0.1352403 -0.098164484 -0.1305834 -0.048192482 0.07313591
0.013312168 0.03499031 -0.007910906 -0.062179133 -0.021051768 0.103651464 -0.051105335 0.1703441
-0.0066082613 0.17927936 0.018433534 -0.1478063 -0.10048315 0.12604491 -0.027840665 0.02132485
0.048141345 -0.12244813 -0.07551412 -0.09790305 0.055024955 0.17542239 -0.012765479 0.028764684
-0.16612141 0.026100479 0.10519252 -0.05776912 -0.01804059 -0.00062122004 0.16558152 0.087802656
0.16180383 0.10612513 -0.035021562 0.04642644 -0.046299357 0.0066543794 -0.12884903 -0.024559187
-0.08018026 0.10549038 0.13795687 -0.1068146 0.10258501 0.050938908 0.004556768 0.060645334
0.13687333 0.0037097125 0.086908855 -0.15552123 -0.05428578 0.06360252 0.053334396 0.0112875365
-0.026436437 0.15540613 0.03908155 -0.094608285 0.08581724 0.10887587 -0.031180466 0.018973099
0.08799734 0.00049443654 0.08756965 0.044361655 -0.031755872 -0.084465 -0.14446297 0.11993421
0.0628564 0.069384694 -0.021092998 -0.0210211 0.008919431 0.080611736 -0.23381563 0.114647634
-0.030068675 -0.05223657 0.1625546 0.04366146 -0.01639902 0.06980121 -0.059443295 0.044421583
-0.036118228 -0.077786304 0.06482548 0.090886846 0.08678172 0.0066584884 -0.06864052 0.167347
-0.11819185 0.073588975 -0.07127459 -0.061795514 0.10709556 0.0072809006 -0.079151444 -0.1362216
-0.009713769 0.06058475 0.030297566 0.04722965 -0.016056668 -0.020071121 -0.038156703 0.0024313251
-0.03803551 0.02971676 0.06889194 -0.010889959 0.045057584 -0.09888967 -0.105504416 -0.0054178257
0.0016344618 0.010935073 -0.034211732 0.11230474 0.102386996 -0.04616366 -0.016428027 0.0857086
0.102258496 0.0037212642 -0.093794405 -0.021814818 0.032253824 -0.05302032 0.01748547 -0.016546104
-0.071088105 -0.074229315 0.012239232 -0.09303019 -0.015493756 0.11304874 -0.0863303 0.030457256
0.06687585 0.0008931376 -0.15232241 -0.0040597944 0.0017901299 -0.09267302 -0.09805265 0.102387376
0.04211322 -0.11055983 -0.04249149 0.090684466 -0.0018703919 -0.009573099 -0.06874878 -0.025128257
-0.078982174 -0.1138908 0.12886463 -0.06920269 0.034771606 0.005105247 -0.052477878 0.12899065
-0.073819116 0.18913725 -0.035289392 0.12145699 -0.120625935 -0.05671376 -0.13036337 -0.041325696
0.0053660017 0.13372341 0.027356403 -0.078011826 0.03141967 -0.0019630664 -0.022537272 -0.1103817
-0.10681098 0.013807103 0.051325835 -0.0076280455 -0.02805407 0.11034217 -0.25314307 -0.020672021
0.12027286 -0.0027921023 0.0999578 -0.22011138 -0.13417076 0.039988358 -0.0017502308 0.008866073
0.027511645 -0.075669564 -0.05460602 0.07110779 -0.045114826 -0.050378937 0.007723642 -0.0020990735
-0.18418646 0.013445942 0.0043225545 -0.053246286 0.08328139 -0.1131855 -0.069561034 -0.06346314
-0.08901708 -0.09680052 -0.057347797 -0.037942618 -0.0038889602 -0.022134349 -0.1167119 0.07368025
0.0710437 -0.08725504 0.1877515 -0.0074368794 -0.015930604 0.088356555 0.068840645 -0.10888294
0.078772314 0.032579653 -0.042151913 -0.08855486 -0.041571803 0.035665378 0.03302429 -0.047027037

network_body._body_endoder.seq_layers.2.bias f4 [128]
00000000: 4e17 bd3a 1f3f 1ebd 5e6a 223b ea99 4e3b
00000010: 5bfc 143d 01c8 8c3c d75c 84bb 7cc7 e139
00000020: a90d f4bc 7f01 283c 5139 fbbb 3bbd 473b
00000030: be28 d8bc 8a2d 07bc 1442 5dbc ecba b6bb
00000040: 6581 9dbc a02d 8b3c 5e91 b23b 46dc 22bd
00000050: 5657 803c 6627 eebb 7bfe cc3c fb62 e13b
00000060: 456a c6bc e89e d53c a5c0 7e3c b500 1a3d
00000070: 84e1 5abb 8e40 ef3c d7ab 2cbc 4ad7 e5bc
00000080: 9a6e 2bbd 3a27 863a 2b5b 9ebc 6b2f b0bc
00000090: 23dd 5a3c 7df4 9c3c d888 b0bc 6898 bbbc
000000a0: 9ea6 df3b eaa9 bfbb 0e71 85bc 9617 1bbd
000000b0: ebd0 9d3b 0582 0a3c e3d1 e73a dbf1 2cbc
000000c0: 016e 023d fc4e d13c 8d05 a1bb f464 edbc
000000d0: 45dd 763c a212 4e3c 17a7 0fbc 8ed1 2a3c
000000e0: a176 e8bc 34cf 2f3c 8446 e7bb 21c3 34bc
000000f0: 9faf aebc 937f 8fbc e15f 1e3c df23 44bb
00000100: 5aaf 5c3c 6082 513c df62 043c 14c3 3dbc
00000110: 0e56 b53b 7262 b73b 24a8 d03b 235b 6f3b
00000120: e889 d43c 9678 063c 16e2 653c 6daf e23c
00000130: 2a33 97bc 0659 be3c fd16 9ebc d7d0 a43c
00000140: 9d18 c53c d839 bbbc 24c4 813b 4f14 ea3c
00000150: da95 8ebc 7d3a 8a3c 3923 e539 0f75 5cbd
00000160: f915 12bc 4298 02bd 16cc 0c3c 7a2a cd3c
00000170: f2b6 68bc 7d15 cbbc d801 633c e20e 5cbc
00000180: 669c c03c 63cc 0dbd 2b06 da3c 9a52 dd3c
00000190: b628 b53a a2be e33c aa27 f23c 6fb7 8a3c
000001a0: c881 88bc 7378 c1bb 54e0 1dbc 9266 45bc
000001b0: e11d cb3c a19d 83bc a0ef 303c a312 863d
000001c0: 8666 f9bc 6d8f 82bc e9a0 0ebd 0628 4a3b
000001d0: 6b73 80bc 5a88 6bbc 8de0 47bc e505 9c3c
000001e0: 2165 48bb b348 da3b 0653 70bc 031b c0bc
000001f0: ad64 0b3c ef67 25bc 88ad 3a3c 838c 1fbd
0.0014426501 -0.038634416 0.0024782638 0.0031524845 0.036373477 0.017185213 -0.0040393877 0.00043063972
-0.02979167 0.010254263 -0.0076667448 0.003047778 -0.026386615 -0.008250603 -0.013504524 -0.005576482
-0.01922674 0.01698953 0.005449458 -0.03976085 0.015666645 -0.0072678803 0.02502369 0.0068782545
-0.024220595 0.026076749 0.01554886 0.03759833 -0.0033398578 0.029205587 -0.010539017 -0.02805676
-0.041853525 0.0010235079 -0.019330582 -0.021506986 0.013358387 0.01915955 -0.021549627 -0.022899821
0.0068252822 -0.0058491128 -0.01628926 -0.03786429 0.0048161647 0.008453851 0.0017686452 -0.01055571
0.03184319 0.025550358 -0.004913992 -0.028978802 0.015067403 0.012577685 -0.008767865 0.010425938
-0.02837688 0.010730553 -0.0070579667 -0.0110328505 -0.021323977 -0.017516887 0.009666414 -0.0029928607
0.013469541 0.0127874315 0.008080213 -0.011582155 0.00553394 0.0055964524 0.0063677 0.0036522828
0.025944665 0.008207461 0.014030954 0.02767154 -0.018457014 0.023235809 -0.019298071 0.020119114
0.024059588 -0.02285473 0.0039601494 0.028574137 -0.01740544 0.016873593 0.00043704527 -0.053822573
-0.0089163715 -0.031883486 0.00859358 0.025044668 -0.014203774 -0.02479052 0.01385542 -0.013431283
0.023512077 -0.034618746 0.02661427 0.027016927 0.0013821337 0.027800862 0.029559929 0.016933171
-0.016663447 -0.0059042512 -0.0096360035 -0.01204838 0.02479452 -0.016066374 0.010799319 0.065465234
-0.030444395 -0.015937531 -0.034821425 0.003084661 -0.015680036 -0.01437577 -0.012199533 0.01904578
-0.0030577856 0.0066614985 -0.014668232 -0.02345038 0.00850789 -0.0100955805 0.011393912 -0.03895236

network_body._body_endoder.seq_layers.2.weight f4 [128, 128]
00000000: 6cc4 b53d 7e6e afbd 56ca c2bd c78e 3f3c
00000010: f65e cd3c 2518 37bd 1ba3 27bd c9e9 5fbe
00000020: 51c2 17be b963 193c cd39 d43d 9ec4 a9bc
00000030: cac9 70bd 88f8 e4bd 658e 90bd 5805 c1bc
00000040: 50ba a43d fc7d 883d c0be 963c 9b2f 0e3d
00000050: cee8 aa3d c5b4 7c3d 8745 083d 2ade 4b3e
00000060: bf61 8ebd 7043 483d 5699 0f3e 3087 523d
00000070: 8f3c 1e3d 6b55 0dbc 90b0 0bbe 7d53 44bd
00000080: 468e c03d 720f 02bd 8859 18be 97ee c1bc
00000090: d0a9 f83d 1939 f4bd c3a2 0ebb eb33 63be
000000a0: b9a7 963d 262e e53c 5fce bc3d 15fc 3dbc
000000b0: 6a83 a7bd 06ad c5bd 3517 9c3c a995 11bd
000000c0: 5888 813c 0c67 dbba f0ee bfbd 8827 09be
000000d0: bf6a 18bd 8d0e a13d 5d34 91bd a071 41be
000000e0: 4fc6 373d 0a0f 7bbd 4569 26bd 55a9 723d
000000f0: 34c5 703e a23f d53d 8620 ab3d 8276 00be
00000100: cb60 31bd a635 3a3d a745 f5bc bd96 8aba
00000110: b52b 373e 4a4e 7f3d bfbc be3d 1aca 543d
00000120: c43b e63c 3ba6 01bd 0fad 5e3a a82f e63d
00000130: 1bb4 95bc b205 0ebc 9b0b 5f3c 5da4 13bd
00000140: 6c56 28bd 1224 e9bd 5045 88bb 761f 323d
00000150: 1e1d 12bb 109b 0abe b152 dabd ee69 1ebd
00000160: 1de3 38bd 00c0 f0bc b365 df3b abd1 8fbd
00000170: f814 19bd 9cf1 a13d c8e1 a4bd 5692 143d
00000180: e088 843d 0c68 22be 1f57 e4bd 3c6d 213d
00000190: 4800 fcbd 54da 96bd 781e b03d a4d4 0bbd
000001a0: 163c 883d f408 fa3c a0b4 53bd 21ee 34bd
000001b0: 3b7b 323c be95 493d 3109 6a3d aee1 3abb
000001c0: 4c2e 70be e6f8 9cbe a8da aabd 74bc f9bb
000001d0: ae5c 433d 41ea 06bd 768f 303c a7c8 90bd
000001e0: a875 273d b16d 22be 99f5 193e 6cc8 c9bd
000001f0: 26e8 0d3e cd09 733e 3408 91bd d8b3 54bc
00000200: ab35 103e 0d69 03bd b003 18be 7dc0 113e
00000210: fcd4 06be 2d7b aabc cd72 d23a b473 3ebe
00000220: 7530 e8bc b7c2 8ebd 9680 e0ba bf9d acbc
00000230: 129f 493d e725 a63c 7be6 64bd 550a 2cbe
00000240: eb38 c7bd a4bd 05bd 07c7 a2bd 9ffb 853d
00000250: 72af 9f3d 21e1 98bc cb34 f03d dbd7 633d
00000260: 3c5d c03d 3da8 75bc cecf cebc 9446 b2bc
00000270: e52c 803c 727f 153d 17ae 313d a4b5 4d3d
00000280: 71ef 08bc 749c d43d 2339 88bd 667c 1cbe
00000290: deb1 35be de9e 24bd a203 d9bc f421 a3bd
000002a0: 6f7a b4bd 44a0 4ebd be0d b5ba 6e9a babd
000002b0: 2362 58be a04a c1bc d8ad 9cbe c1ea 07bc
000002c0: 218c 8a3d 9613 e4bd f714 183d 186f c6bd
000002d0: 542f a3bd 5fcb cdbd af6b 89bd 0656 273e
000002e0: 9423 743c 06aa 91bd 6a70 f43c f543 82bc
000002f0: 4cf5 4d3d bbe9 03be 69c5 08bd 81ac 1f3d
00000300: a248 99bd 65f5 2bbd d647 53bd 1d26 99bd
00000310: cff2 3a3e 523f bdbb cf4f a3bc a96f 1f3d
00000320: 8705 d73d 64c6 d73d c853 913c 519a d33d
00000330: 0f21 8f3d 445f e13c a315 9e3c 2663 1fbd
00000340: b81a 1bbe 80b2 df3d dba7 d73d 3448 b5bd
00000350: efb7 523d 7baf fe3d 8302 873d ac31 ad3c
00000360: a550 823b 167e 313b 3f55 9c3d 92e9 47be
00000370: 7b5b 583d 686b f23d 0e48 00be b52d 863d
00000380: 5dd7 d8bc 8e8c 453d 687e ecbc 8e6e 3bba
00000390: 9973 23bc 1b01 20bb 8772 713c 95b6 57bd
000003a0: 5540 233d b669 b4bd 0ee7 4cbd 6bdb 4fbd
000003b0: 0141 18be 1ecc bc3d 22fa a0bb 3fd0 353d
000003c0: f62c 573e 87ce 20bd 6808 73bd 81a1 75bc
000003d0: 5e0a b33d a44b cd3c 6be9 70bd c849 c4bd
000003e0: af67 a93c fc4b acbc ec2a cc3c fd88 1ebe
000003f0: f371 8e3d 470e 31bd bd96 ea3d 01ee de3d
0.08875355 -0.085659966 -0.09511249 0.011691756 0.025069695 -0.04470076 -0.040927034 -0.21866526
-0.1482022 0.009362155 0.10362587 -0.020723637 -0.05878619 -0.11180216 -0.070584096 -0.023562118
0.08043349 0.066646546 0.018401504 0.03471337 0.08345185 0.061695833 0.03326943 0.19908968
-0.06952237 0.04889244 0.14023337 0.051398456 0.038631972 -0.008626322 -0.13641572 -0.047931183
0.094021365 -0.03175301 -0.14877903 -0.023673339 0.12141764 -0.11924953 -0.0021764494 -0.22187774
0.07356209 0.027976107 0.0921905 -0.011595746 -0.08179362 -0.09652142 0.019054035 -0.035543118
0.015812084 -0.0016739084 -0.093717456 -0.13393986 -0.037211176 0.078641035 -0.07090066 -0.18891001
0.044866856 -0.06129364 -0.040627737 0.05924352 0.23512727 0.104125276 0.08355813 -0.12545207
-0.0433052 0.04546132 -0.02994044 -0.0010573488 0.17887767 0.06233052 0.09313344 0.05195055
0.02810467 -0.03165267 0.00084944157 0.112395585 -0.018274358 -0.00866835 0.013613607 -0.03604542
-0.041098043 -0.11383833 -0.0041586533 0.043487035 -0.0022295187 -0.13535714 -0.106603034 -0.03867524
-0.045138467 -0.029388428 0.0068175434 -0.07022413 -0.037373513 0.079074115 -0.08050877 0.03627237
0.06471419 -0.15860003 -0.111494295 0.039410815 -0.12304741 -0.073658615 0.085995615 -0.034138337
0.066520855 0.030521847 -0.05168593 -0.04417241 0.010893638 0.04921507 0.05713767 -0.0028515863
-0.23455161 -0.30658644 -0.083424866 -0.0076213423 0.047695808 -0.032938246 0.010776391 -0.070695214
0.04088369 -0.15862156 0.15035094 -0.098526806 0.13858089 0.23734207 -0.07081643 -0.012982331
0.14082973 -0.032082606 -0.14845157 0.14233585 -0.13167185 -0.020810688 0.0016055942 -0.18598825
-0.028343419 -0.06970733 -0.0017128165 -0.021071313 0.049223967 0.020281745 -0.055883866 -0.16800816
-0.09727653 -0.03265156 -0.07948118 0.065421335 0.077971354 -0.018662037 0.117288195 0.055625778
0.09392783 -0.014993724 -0.025245573 -0.02176217 0.015646407 0.036498494 0.043378916 0.050222054
-0.0083578685 0.103814036 -0.06651523 -0.15281829 -0.17743632 -0.04019057 -0.02649099 -0.079654604
-0.08812415 -0.05044581 -0.00138133 -0.091114864 -0.21131186 -0.023595154 -0.30601382 -0.008295716
0.06765009 -0.11136548 0.03712937 -0.09689158 -0.079680115 -0.100485556 -0.06709992 0.16341409
0.014901061 -0.071125075 0.02983876 -0.015901545 0.05028276 -0.1288213 -0.03339139 0.038982872
-0.07484557 -0.041982073 -0.05158218 -0.07477973 0.18256687 -0.0057753706 -0.019935517 0.038924847
0.10499101 0.10535887 0.017740145 0.10332168 0.06988727 0.027511247 0.019297427 -0.038912915
-0.15146911 0.10922718 0.10530063 -0.08851662 0.051444944 0.12435814 0.06592276 0.02114185
0.0039768987 0.002708321 0.07633447 -0.19522694 0.052821618 0.11836892 -0.12527487 0.06551687
-0.02646988 0.048229747 -0.028868869 -0.0007149958 -0.009976291 -0.0024414721 0.014736778 -0.05266436
0.039856274 -0.08809225 -0.05002504 -0.050746363 -0.14868547 0.0921862 -0.0049126307 0.044388052
0.21013245 -0.03925946 -0.05933419 -0.014992119 0.08742212 0.025060482 -0.058816355 -0.09584385
0.020679323 -0.021032326 0.02492281 -0.15481944 0.06955328 -0.043226507 0.11454532 0.108852394

network_body.observation_encoder.processors.0.normalizer.running_mean f4 [150]
00000000: 32e5 443d 0132 443f 5901 043e cf11 d63b
00000010: 51db 383b 6360 513b 9ef2 483b 5c0c 393b
00000020: 2d25 ca3b e50f 293e 3b55 573d cd3c 413f
00000030: 5f4a 0b3e 6bfb ce3b dd61 283b bf30 7c3b
00000040: 6796 4c3b 2b1c 333b b0ad dc3b 7c1c 293e
00000050: c563 383d e9fe 413f d735 093e 4a1b 003c
00000060: a089 803b 0d2a 6f3b 4304 553b 7fe7 623b
00000070: 45e0 dd3b 27b1 2a3e 7967 6d3d f5be 3c3f
00000080: b417 173e 213f cb3b 175c 243b 2294 983b
00000090: 62d8 363b 463e 423b 6760 d13b 0302 2b3e
000000a0: 3f4d 323d b8ff 403f 7490 0c3e 79df 003c
000000b0: a0b1 933b 3be1 923b 216e 523b e825 7d3b
000000c0: d4df f63b f2b0 303e 0414 773d 44d1 3a3f
000000d0: 8943 1a3e 6421 bf3b ca2c 363b 37ff af3b
000000e0: f3b5 403b 586c 403b d6ca f03b fde3 2f3e
000000f0: 8163 273d f2b6 3f3f d1fc 123e c387 ec3b
00000100: cfd0 a03b ab6a ae3b 018d 783b 043e 873b
00000110: 76e3 f03b 9914 353e 284b 783d 80f0 393f
00000120: 5fe9 1b3e 9ae9 b13b 3169 573b 7031 ca3b
00000130: 3a6d 493b 2670 4b3b de2e 053c 41c7 353e
00000140: ea1b 213d 6be1 3d3f 2dd0 193e 99c8 e63b
00000150: 2be8 b03b 0ba0 db3b 9d1d 8a3b a4d2 883b
00000160: 3f32 fd3b dd66 383e 95c6 6c3d b7a0 383f
00000170: ad46 233e 0555 b03b 8816 6a3b 7030 eb3b
00000180: 6ff1 583b 156e 523b 3b72 053c 8e3d 393e
00000190: 8d27 293d db8c 3a3f 5192 213e 9dbe f03b
000001a0: 6267 c53b 47af 093c 9366 923b 5f7d 803b
000001b0: 97c4 0b3c be6c 403e 5263 683d c649 373f
000001c0: bf2a 283e e92d a63b c4fd 843b b36a 043c
000001d0: 2eff 593b cb9c 723b 907e 053c db63 3f3e
000001e0: 8fca 373d 21d0 393f 1696 1d3e f598 e73b
000001f0: 27ce d93b 0afc 1c3c b4dd 983b b850 833b
00000200: b294 253c fb0f 4c3e 1b41 6e3d 1eb7 363f
00000210: e5c6 253e 90a3 ab3b 3dc9 b43b 0e80 063c
00000220: aa73 6f3b a539 843b dc51 083c 172d 473e
00000230: b91a 5b3d b4e0 393f 70e9 143e 9297 e63b
00000240: dbf0 e03b 5e42 1f3c 6a05 9b3b da27 913b
00000250: 2d1e 173c 9177 533e
0.04807014 0.766388 0.12891139 0.0065328847 0.0028206895 0.003194832 0.003066219 0.0028236127
0.0061689825 0.1650997 0.052571516 0.754834 0.13602589 0.0063165925 0.0025693097 0.0038481203
0.0031217576 0.0027330022 0.0067345724 0.16514772 0.045017023 0.7577959 0.13399445 0.007819006
0.003922656 0.003649357 0.003250376 0.0034622846 0.00677112 0.16669141 0.057960007 0.7372888
0.14755136 0.006202594 0.0025079304 0.0046563307 0.002789997 0.0029639169 0.006389666 0.16699986
0.0435307 0.75390196 0.1372698 0.00786578 0.0045072585 0.004482416 0.00321091 0.003862733
0.0075340066 0.17255 0.060321823 0.72975564 0.15064825 0.005832838 0.0027797692 0.005371
0.0029405325 0.0029361453 0.0073483987 0.17176814 0.04086638 0.7488853 0.14354254 0.0072183325
0.0049077044 0.0053227744 0.0037925842 0.004127266 0.007351334 0.17683639 0.06061855 0.726326
0.15225743 0.005429459 0.0032869095 0.006170444 0.003073527 0.0031042187 0.00812885 0.1775179
0.03933326 0.74172086 0.15020819 0.007042956 0.0053987703 0.006702428 0.004214956 0.004175501
0.007726937 0.18007989 0.05780657 0.7212023 0.1594493 0.005381229 0.0035718996 0.007177405
0.003310289 0.003210907 0.00814491 0.18089887 0.041297484 0.7287118 0.15778472 0.0073469416
0.006024287 0.008403606 0.004467794 0.0039211954 0.008530757 0.18791482 0.056735344 0.71596944
0.16422556 0.005071391 0.0040585715 0.00808208 0.0033263671 0.0037019725 0.008147851 0.18690436
0.04487091 0.72583205 0.15389284 0.0070677944 0.0066468897 0.009581575 0.004665101 0.004007425
0.0101062525 0.19927971 0.05816756 0.71373165 0.16189153 0.005238004 0.0055171535 0.008209242
0.0036537447 0.004035192 0.008320298 0.19450794 0.05349228 0.72608495 0.14542174 0.0070371116
0.0068646497 0.009720413 0.00473087 0.0044297995 0.009223503 0.2065108

network_body.observation_encoder.processors.1.normalizer.running_mean f4 [6]
00000000: 2a26 bc42 2783 2e43 f457 bc42 eee3 2e43
00000010: 3b88 bc42 8144 2f43
94.07454 174.51231 94.17178 174.89035 94.266075 175.2676
