Assets/ZooheimTest/Models/mytraining01/GiraffeBehavior.onnx (onnx, 311263 bytes, 14 tensors)

91 f4 [450]
0.16948625 0.3875765 0.29997256 0.0488973 0.05000178 0.04404657 0.046191942 0.048734084
0.0901991 0.18113635 0.17332771 0.38858902 0.2980202 0.05619027 0.04748019 0.04653573
0.05163582 0.049222007 0.083374135 0.17673379 0.16456938 0.3906014 0.30774513 0.04040386
0.04757599 0.041268975 0.044046577 0.049268227 0.090919316 0.18273625 0.18316269 0.40421024
0.31391707 0.06329699 0.048288368 0.047263917 0.0534962 0.051259995 0.088639006 0.1818908
0.1632248 0.40890038 0.33533478 0.040205922 0.04633958 0.047095027 0.046949755 0.050926045
0.08807856 0.18520744 0.20073874 0.42265356 0.3308806 0.07027079 0.04850001 0.04854693
0.053304568 0.05063483 0.094411574 0.18826 0.17054246 0.41807786 0.34345376 0.047191605
0.046167288 0.04882742 0.050341927 0.05227064 0.088308305 0.18821386 0.21448553 0.42904803
0.33233088 0.07464283 0.046828363 0.052531067 0.05218354 0.0504548 0.09626011 0.19414185
0.17328437 0.4157079 0.33743712 0.04945266 0.048146736 0.05159175 0.051877543 0.051370837
0.08846106 0.19209763 0.22218367 0.43398392 0.33738974 0.07309659 0.0437091 0.051215593
0.048075765 0.05040966 0.101021685 0.19578369 0.18359195 0.4159661 0.3299011 0.056089062
0.046706665 0.05287624 0.053687118 0.049198892 0.100588344 0.20260373 0.22819057 0.42962155
0.32757643 0.06592924 0.04257363 0.049842242 0.045094237 0.04726392 0.099839374 0.1983434
0.18479812 0.41081166 0.32119793 0.058196306 0.047504157 0.05216175 0.052768644 0.045521505
0.10621434 0.20479068 0.2291112 0.41646075 0.30497852 0.054506633 0.043368984 0.047814634
0.0474562 0.044993106 0.10103271 0.20122196 0.19453694 0.3962668 0.29442832 0.052962203
0.0431055 0.047263928 0.051171154 0.044891756 0.10528431 0.20575052 0.16965754 0.38647673
0.30018917 0.048967034 0.05004726 0.044072427 0.0462412 0.04875744 0.09052272 0.18126743
0.17349473 0.38749444 0.29823267 0.056291282 0.04752812 0.046584625 0.051657844 0.049222007
0.08367107 0.17684732 0.16472028 0.38953227 0.3079794 0.0404884 0.047599908 0.041268975
0.044046577 0.049314383 0.091227956 0.18285327 0.18333682 0.40327644 0.314172 0.0633507
0.048406053 0.04736017 0.0534962 0.05125999 0.08896848 0.18202685 0.16336381 0.4079945
0.33559507 0.040262576 0.04636414 0.047095027 0.046998248 0.050926045 0.0884356 0.18536317
0.20092125 0.42187163 0.33116275 0.07031909 0.048546936 0.048593804 0.053325895 0.05063483
0.09474398 0.18840435 0.17066844 0.41725743 0.3437704 0.047215723 0.04621658 0.048850723
0.050341927 0.05227064 0.088575475 0.18832135 0.21465875 0.42830676 0.33259034 0.07468826
0.046852678 0.052552715 0.05218354 0.05047733 0.09662073 0.1942996 0.1734515 0.41486433
0.33771217 0.04949864 0.048170373 0.05159175 0.051899463 0.051370837 0.0887912 0.19222793
0.22238185 0.4332778 0.3376371 0.07318937 0.043735143 0.05123779 0.048075765 0.050432224
0.10133156 0.19592102 0.18374248 0.41510123 0.33016136 0.056089062 0.04675539 0.052897744
00000000: ce8d 2d3e 6d70 c63e 0196 993e 8948 483d
00000010: abce 4c3d 2d6a 343d c333 3d3d 649d 473d
00000020: 4eba b83d cf7b 393e d27c 313e 24f5 c63e
00000030: 1b96 983e c527 663d 967a 423d 409c 3e3d
00000040: 1580 533d 049d 493d 0fc0 aa3d b4f9 343e
00000050: e084 283e e8fc c73e c590 9d3e 857e 253d
00000060: 0bdf 423d a809 293d 2f6a 343d 7bcd 493d
00000070: e833 ba3d 361f 3b3e 008f 3b3e a5f4 ce3e
00000080: bdb9 a03e daa1 813d 06ca 453d cf97 413d
00000090: d51e 5b3d 00f6 513d 5e88 b53d 9541 3a3e
000000a0: 6724 273e 645b d13e 00b1 ab3e f7ae 243d
000000b0: 92ce 3d3d b7e6 403d 634e 403d d497 503d
000000c0: 8862 b43d 05a7 3d3e 758e 4d3e 0c66 d83e
000000d0: 2f69 a93e 22ea 8f3d f2a7 463d 25d9 463d
000000e0: e455 5a3d 7866 4f3d db5a c13d 3bc7 403e
000000f0: afa2 2e3e 4d0e d63e 2cd9 af3e fc4b 413d
00000100: e919 3d3d 43ff 473d 5633 4e3d bd19 563d
00000110: fcda b43d 22bb 403e 18a2 5b3e 2fac db3e
00000120: 4627 aa3e 57de 983d 19cf 3f3d d12a 573d
00000130: 68be 553d b1a9 4e3d 0524 c53d 1fcd 463e
00000140: 7571 313e aad7 d43e 8fc4 ac3e df8e 4a3d
00000150: 8335 453d df51 533d 8c7d 543d 3a6a 523d
00000160: 122b b53d 3eb5 443e 1e84 633e 2433 de3e
00000170: 59be ac3e aab3 953d 5008 333d 71c7 513d
00000180: 18eb 443d 5c7a 4e3d 75e4 ce3d 857b 483e
00000190: 87ff 3b3e 82f9 d43e cce8 a83e a5bd 653d
000001a0: 7d4f 3f3d c294 583d 06e7 5b3d c784 493d
000001b0: 4301 ce3d 5a77 4f3e caaa 693e 5bf7 db3e
000001c0: 19b8 a73e e905 873d b061 2e3d 6127 4c3d
000001d0: bcb4 383d d097 413d 9678 cc3d 881a 4b3e
000001e0: b83b 3d3e e855 d23e 0e74 a43e 405f 6e3d
000001f0: b893 423d 8fa7 553d ef23 583d c274 3a3d
00000200: e786 d93d a6b4 513e 209c 6a3e 583a d53e
00000210: 2526 9c3e 5942 5f3d ada3 313d 47d9 433d
00000220: 6f61 423d b14a 383d 3dea ce3d 210d 4e3e
00000230: b134 473e 7be3 ca3e 4fbf 963e e5ee 583d
00000240: 658f 303d d297 413d d898 513d 6be0 373d
00000250: 4d9f d73d 44b0 523e b5ba 2d3e 47e0 c53e
00000260: 65b2 993e a891 483d 5bfe 4c3d 4a85 343d
00000270: 6a67 3d3d e2b5 473d fa63 b93d 2b9e 393e
00000280: 9aa8 313e ac65 c63e f4b1 983e b091 663d
00000290: d9ac 423d 85cf 3e3d 2d97 533d 049d 493d
000002a0: bd5b ab3d 7717 353e 6fac 283e c670 c73e
000002b0: 7aaf 9d3e 2ad7 253d 1ff8 423d a809 293d
000002c0: 2f6a 343d e1fd 493d b9d5 ba3d e33d 3b3e
000002d0: a6bc 3b3e 407a ce3e 27db a03e 03be 813d
000002e0: 6d45 463d bdfc 413d d51e 5b3d fff5 513d
000002f0: 1b35 b63d 3f65 3a3e d848 273e a8e4 d03e
00000300: 1ed3 ab3e 5fea 243d 53e8 3d3d b7e6 403d
00000310: 3c81 403d d497 503d b91d b53d d8cf 3d3e
00000320: 4dbe 4d3e 8fff d73e 2a8e a93e 7403 903d
00000330: 27d9 463d 4c0a 473d 416c 5a3d 7866 4f3d
00000340: 2209 c23d 12ed 403e b5c3 2e3e c4a2 d53e
00000350: ad02 b03e 4665 413d 994d 3d3d b217 483d
00000360: 5633 4e3d bd19 563d 0f67 b53d 50d7 403e
00000370: 81cf 5b3e 064b db3e 4849 aa3e 29f6 983d
00000380: 98e8 3f3d 8441 573d 68be 553d 51c1 4e3d
00000390: 17e1 c53d 79f6 463e 459d 313e 1969 d43e
000003a0: 9ce8 ac3e 16bf 4a3d 4c4e 453d df51 533d
000003b0: 8894 543d 3a6a 523d 29d8 b53d 66d7 443e
000003c0: 11b8 633e 96d6 dd3e c5de ac3e 4fe4 953d
000003d0: 9f23 333d b8de 513d 18eb 443d 0592 4e3d
000003e0: ec86 cf3d 859f 483e fd26 3c3e 2688 d43e
000003f0: e90a a93e a5bd 653d 9482 3f3d 4eab 583d

94 f4 [6]
83.06825 47.53108 80.87713 44.652596 78.610664 41.55615
00000000: f222 a642 d31f 3e42 17c1 a142 429c 3242
00000010: a938 9d42 7f39 2642

action_model._discrete_distribution.branches.0.bias f4 [2]
-0.007304103 0.007304106
00000000: 4257 efbb 4857 ef3b

action_model._discrete_distribution.branches.0.weight f4 [2, 128]
-0.008845988 0.084249906 0.004970549 -0.054831166 -0.037113942 0.02997823 0.046339836 0.048204515
0.006946766 -0.01663531 -0.018138856 -0.014792778 0.011872563 0.012629307 -0.0074638943 0.008623526
-0.036952507 0.07475648 0.022351075 0.008188437 -0.033787496 -0.036891982 0.05208222 0.017322892
-0.023959564 0.034613214 0.043456335 -0.034629516 0.007059995 0.0695837 -0.034528174 -0.011137867
-0.043092653 0.003193733 -0.02047954 -0.023985546 -0.01817109 -0.028344264 -0.022488734 0.003891504
0.006153507 -0.015856316 0.04233257 0.010038454 -0.0125830285 -0.013827797 0.013326688 0.0071098176
-0.043528084 0.016077697 -0.0018176483 0.035180304 -0.0021650197 0.013946457 -0.04282638 -0.033275705
0.07296841 0.012261384 -0.06899928 0.047922425 -0.054555364 0.03860833 0.028358541 0.016550727
0.025379265 -0.018323347 0.026999664 0.04184807 0.029887618 -0.012487132 0.027853953 0.012594417
-0.0312675 -0.018557703 0.00614537 -0.02165639 -0.009706799 0.013334676 -0.0075066728 0.024267616
0.027959341 0.02000209 -0.03185061 -0.0053953314 -0.001306725 -0.053577736 -0.057709802 -0.02443338
-0.058509085 0.06566575 0.012837159 -0.027424708 -0.07830732 0.01440988 0.07026757 -0.0008864434
-0.07631074 -0.01084074 0.036959395 0.0021493991 0.036521792 0.03011714 -0.051005065 0.0030008275
-0.0077205966 -0.011392772 0.032095756 0.003339199 -0.051275134 -0.016351888 -0.005911039 -0.034676198
-0.02927176 0.0140757905 -0.03325956 -0.05734932 0.015353118 -0.029111193 0.0028808496 0.030514343
-0.016345544 -0.109278776 0.012817617 0.015396504 0.04198069 -0.03902721 0.050530516 0.007322655
0.011681692 -0.09828173 -0.024225516 0.07267138 0.049107466 -0.019478396 -0.045414623 -0.060480237
-0.014509182 0.024215093 0.007364937 0.00599244 -0.0015735158 -0.0020515246 -0.00595631 0.007836582
0.03989747 -0.07817744 -0.037089508 -0.017923279 0.025145205 0.023870775 -0.04936645 -0.015887206
0.025854185 -0.012462492 -0.04795047 0.048487775 0.008069341 -0.07657914 0.029362071 0.014436089
0.024056887 0.00146719 0.022879684 0.025506303 0.043348208 0.016604753 0.0044261306 -0.004831232
0.0077273333 0.026369577 -0.032092977 -0.017857673 0.0039150887 0.018923268 -0.007518948 -0.020183885
0.039371505 -0.04310199 -0.0014961428 -0.021288063 -0.0066929986 -0.049504373 0.019144027 0.020325283
-0.053887255 -0.0034782412 0.046154834 -0.04683839 0.0509913 -0.04988975 -0.017897574 0.002700266
-0.009793921 0.017550489 -0.01441619 -0.023317255 -0.036073286 0.014813955 -0.018603247 -0.017043171
0.024749616 0.021457646 0.01702944 0.012488195 -0.001472232 0.006610758 0.0018484097 -0.010758582
-0.019104116 -0.003138448 0.016654735 0.010423993 -0.008817795 0.06735641 0.083105884 0.045588225
0.05292729 -0.051977377 -0.016842518 0.03875902 0.062908866 0.0061551444 -0.07158708 0.011983485
0.050259177 -0.010452017 -0.0144464625 -0.010410425 -0.040513344 -0.01869479 0.015501392 -0.015049017
0.0034800107 0.032447148 -0.032600638 -0.009047198 0.052469857 0.01777053 -0.006228575 0.031851057
0.02374588 0.0057091624 0.032919068 0.041290846 -0.018241048 0.040822037 0.0051860083 -0.02574422
0.010468125 0.087827705 -0.007873068 -0.006832931 -0.053131774 0.04895845 -0.042024624 0.000934777
00000000: c3ee 10bc 378b ac3d fddf a23b a596 60bd
00000010: ca04 18bd e894 f53c d7ce 3d3d 1972 453d
00000020: b2a1 e33b c646 88bc f097 94bc 685d 72bc
00000030: 2385 423c 27eb 4e3c af93 f4bb b149 0d3c
00000040: 835b 17bd ed19 993d 9a19 b73c cb28 063c
00000050: c264 0abd 0c1c 17bd 2a54 553d bde8 8d3c
00000060: d946 c4bc 96c6 0d3d 45ff 313d aed7 0dbd
00000070: 8857 e73b e681 8e3d 6a6d 0dbd 9a7b 36bc
00000080: ec81 30bd f34d 513b b5c4 a7bc 567d c4bc
00000090: 8adb 94bc 3b32 e8bc 4b3a b8bc 9a08 7f3b
000000a0: 5ca3 c93b 1be5 81bc eb64 2d3d 5478 243c
000000b0: 0c29 4ebc fc8d 62bc 2e58 5a3c 79f9 e83b
000000c0: 814a 32bd 60b5 833c 283e eeba 3919 103d
000000d0: 01e3 0dbb ae7f 643c b76a 2fbd 1b4c 08bd
000000e0: 7670 953d f9e3 483c 7f4f 8dbd 4e4a 443d
000000f0: 7275 5fbd c523 1e3d 2c50 e83c 6495 873c
00000100: 2de8 cf3c d81a 96bc 662e dd3c e268 2b3d
00000110: e1d6 f43c d496 4cbc f92d e43c d058 4e3c
00000120: 5a12 00bd 5306 98bc 1a5f c93b be68 b1bc
00000130: 4409 1fbc af79 5a3c 89fa f5bb e1cc c63c
00000140: fd0a e53c 6cdb a33c c975 02bd 52cb b0bb
00000150: 6a46 abba 5474 5bbd 1d61 6cbd 8328 c8bc
00000160: 39a7 6fbd c47b 863d f352 523c c8a9 e0bc
00000170: 975f a0bd 6b17 6c3c 72e8 8f3d 3660 68ba
00000180: ce48 9cbd 5c9d 31bc bc62 173d efdc 0c3b
00000190: e097 153d 38b8 f63c b0ea 50bd 88a9 443b
000001a0: 0ffd fcbb c0a8 3abc d776 033d 76d6 5a3b
000001b0: e005 52bd 65f4 85bc 64b1 c1bb a108 0ebd
000001c0: 54cb efbc 259e 663c 2d3b 08bd 1fe7 6abd
000001d0: a58b 7b3c 997a eebc a3cc 3c3b 37f9 f93c
000001e0: 17e7 85bc 8dcd dfbd fb00 523c 9e41 7c3c
000001f0: f2f3 2b3d ffda 1fbd 16f9 4e3d e2f2 ef3b
00000200: 9164 3f3c ef47 c9bd 9774 c6bc bcd4 943d
00000210: e924 493d 2891 9fbc af04 3abd 20ba 77bd
00000220: ecb7 6dbc bb5e c63c 9255 f13b 3b5c c43b
00000230: 6e3e ceba df72 06bb 262d c3bb 0265 003c
00000240: 886b 233d 7e1b a0bd 2beb 17bd d7d3 92bc
00000250: 51fd cd3c a58c c33c 7a34 4abd e325 82bc
00000260: 28cc d33c 7b2f 4cbc b667 44bd 1e9b 463d
00000270: 4535 043c 86d5 9cbd ba88 f03c 5985 6c3c
00000280: f312 c53c ba4e c03a 2d6e bb3c 98f2 d03c
00000290: e48d 313d b106 883c 1309 913b 504f 9ebb
000002a0: 9235 fd3b 0305 d83c ed73 03bd 414a 92bc
000002b0: 254a 803b f804 9b3c 8261 f6bb ad58 a5bc
000002c0: 0444 213d b68b 30bd 391a c4ba 4e64 aebc
000002d0: f150 dbbb 19c5 4abd efd3 9c3c 3581 a63c
000002e0: e2b8 5cbd 34f3 63bb da0c 3d3d 9dd9 3fbd
000002f0: 41dc 503d 3259 4cbd ef9d 92bc f2f6 303b
00000300: af76 20bc 0bc6 8f3c e231 6cbc d403 bfbc
00000310: 95c1 13bd 3bb6 723c d665 98bc 1f9e 8bbc
00000320: b5bf ca3c f2c7 af3c 5381 8b3c 499b 4c3c
00000330: e9f7 c0ba 0f9f d83b 5646 f23a c344 30bc
00000340: 3c80 9cbc 6cae 4dbb 836f 883c 65c9 2a3c
00000350: 8378 10bc 28f2 893d 6b33 aa3d b8ba 3a3d
00000360: 49ca 583d 3be6 54bd 52f9 89bc c7c1 1e3d
00000370: 5dd6 803d 18b1 c93b 3f9c 92bd 6156 443c
00000380: 91dc 4d3d f03e 2bbc dbb0 6cbc 7d90 2abc
00000390: 52f1 25bd d125 99bc 8df9 7d3c 2790 76bc
000003a0: e410 643b 4de7 043d 3f88 05bd b33a 14bc
000003b0: a2ea 563d 8193 913c 1319 ccbb 4176 023d
000003c0: b886 c23c ed13 bb3b 25d6 063d 9720 293d
000003d0: 406e 95bc 0235 273d 64ef a93b 8be5 d2bc
000003e0: 8082 2b3c 03df b33d 0afe 00bc c8e6 dfbb
000003f0: b4a0 59bd a888 483d 0322 2cbd d30b 753a

action_model._discrete_distribution.branches.1.bias f4 [3]
-0.0043928092 -0.010192401 0.015424374
00000000: 8ef1 8fbb 07fe 26bc 83b6 7c3c

action_model._discrete_distribution.branches.1.weight f4 [3, 128]
-0.034401037 -0.07870526 -0.057395466 -0.015327809 -0.0015139382 -0.005815108 0.0008805925 -0.008810178
0.0020078756 0.02526552 0.04694667 -0.10988035 0.004639096 -0.03578948 -0.039030958 -0.037208818
0.01990099 0.06164822 -0.010362812 -0.028181192 -0.03978829 0.03905956 0.06583104 -0.006155103
0.008665085 0.013967097 -0.025579099 0.0029613695 0.0027498906 0.013708606 -0.048654806 0.068590626
0.03698551 -0.0032650202 0.008153463 0.0145814875 -0.061011072 -0.0049817897 0.018170424 0.011157534
-0.040601395 0.06447301 -0.051463727 0.05277504 0.012253197 -0.02767549 -0.007893252 0.023431351
-0.0039224103 0.027504249 0.003654432 0.04508811 0.06949579 -0.05822158 -0.036791433 0.07034676
0.020148402 0.015825087 0.044151284 0.005641205 -0.0061943927 0.027016556 0.027368978 0.011412519
0.025824009 -0.017636437 -0.016777188 -0.06511003 -0.025287325 -0.004611321 0.0051333695 0.027267182
0.02487699 0.012650769 -0.011468741 0.010339861 -0.055588327 -0.052415464 -0.042024978 0.012058783
-0.03762539 0.030422326 0.014655556 0.024114018 0.035398964 -0.027013736 -0.008576605 -0.026239114
-0.024851143 -0.035266608 0.024314271 -0.016781194 0.016486865 0.0008792033 -0.028368302 -0.024694499
-0.015468199 0.011700158 -0.018208792 0.0045390087 -0.06316772 0.0059069833 0.023025317 -1.4761341e-05
-0.01251991 0.028026883 0.07233842 -0.005033758 0.024261586 0.038321935 -0.041092314 -0.0042264597
0.040559735 -0.009676412 -0.043704376 0.03198593 -0.018152602 -0.008131161 0.032567143 0.041164752
0.0059143957 0.0016850034 0.053073633 0.06605843 -0.026887676 -0.06491832 0.033929665 0.008107417
-0.02035 -0.052323442 -0.017069716 0.04474487 0.003268096 0.034458093 -0.03219586 -0.062420025
0.07565399 0.007838415 0.02747586 0.05798948 -0.006691247 0.030089844 0.0165741 0.029413575
0.021529404 -0.010121258 0.04698041 -0.03593541 0.0075360695 -0.051233012 -0.0059955656 -0.027871342
-0.01559676 -0.018475842 0.05989882 -0.01989149 -0.02896424 -0.018499203 -0.04110321 0.00066139986
0.011649369 -0.011518863 0.025052845 -0.055664215 0.0564619 0.01890968 0.051576074 0.02718416
0.036886066 -0.07201385 -0.042619612 -0.02965252 0.04640476 -0.03129677 0.018083977 -0.074918516
-0.03464695 -0.010850185 0.015858209 -0.07266033 -0.04711355 0.017945737 0.0316984 -0.031425845
-0.0019810582 0.026138818 -0.070418 0.032241747 -0.026105734 -0.002091867 -0.046109956 -0.0073869433
-0.0013070218 0.0070931357 -0.0041175424 0.006209436 0.011441209 0.0308823 0.04439435 -0.009937548
-0.003051466 0.013948672 -0.057664137 -0.0642454 0.008241212 0.03299842 0.027421264 -0.01395431
0.08795955 -0.023300296 0.0027342825 -0.03858681 0.053218707 0.062482387 0.017546033 -0.008920939
-0.010251061 0.025749126 0.0030426893 0.08077795 -0.0015437854 0.030738823 0.0086752875 0.036571436
-0.020939374 0.02931614 -0.015380936 -0.016182346 0.03378552 -0.019391974 -0.004934787 -0.026082218
-0.062591985 -0.011245935 -0.007863449 0.023825703 -0.035824887 -0.027790986 -0.022201976 0.044860777
-0.078219645 -0.012836621 -0.016400073 -0.019681541 0.04098205 -0.04725828 -0.010855289 -0.033600636
-0.02956186 0.05420844 -0.020069206 -0.0065789632 -0.022323778 0.07904376 0.0129361255 0.03892117
00000000: 1ae8 0cbd 3930 a1bd 8217 6bbd 7e21 7bbc
00000010: 566f c6ba a98c bebb 90d7 663a 9158 10bc
00000020: 9096 033b a3f9 ce3c 274b 403d f308 e1bd
00000030: 8f03 983b fd97 12bd edde 1fbd 4668 18bd
00000040: 6707 a33c d882 7c3d c9c8 29bc 3edc e6bc
00000050: 0cf9 22bd ebfc 1f3d 6dd2 863d bfb0 c9bb
00000060: 00f8 0d3c 40d6 643c 428b d1bc 8913 423b
00000070: 8237 343b 109a 603c 434a 47bd 3e79 8c3d
00000080: 1e7e 173d f3f9 55bb 1a96 053c 31e7 6e3c
00000090: bfe6 79bd 483e a3bb 24da 943c 17ce 363c
000000a0: a64d 26bd 6d0a 843d a1cb 52bd a42a 583d
000000b0: a2c1 483c b6b7 e2bc b352 01bc 1bf3 bf3c
000000c0: 9087 80bb 9750 e13c 327f 6f3b 4fae 383d
000000d0: cf53 8e3d c079 6ebd 9db2 16bd f611 903d
000000e0: 430e a53c 9da3 813c fad7 343d dbd9 b83b
000000f0: 55fa cabb d351 dd3c e834 e03c 93fb 3a3c
00000100: df8c d33c 4a7a 90bc 5070 89bc 6858 85bd
00000110: 5d27 cfbc 901a 97bb d335 a83b 6d5f df3c
00000120: d4ca cb3c 2c45 4f3c 63e7 3bbc 8568 293c
00000130: 96b0 63bd 99b1 56bd 6222 2cbd 3492 453c
00000140: 151d 1abd 3e38 f93c db1d 703c c38a c53c
00000150: 81fe 103d e94b ddbc e384 0cbc 69f3 d6bc
00000160: a094 cbbc b873 10bd b92e c73c b778 89bc
00000170: 760f 873c 567a 663a a464 e8bc 1e4c cabc
00000180: 546e 7dbc 05b2 3f3c 9b2a 95bc f7bb 943b
00000190: 145e 81bd 5e8f c13b 979f bc3c 7aa7 77b7
000001a0: 4f20 4dbc a298 e53c 2a26 943d 39f2 a4bb
000001b0: 3cc0 c63c 76f7 1c3d 6a50 28bd 1d7e 8abb
000001c0: f721 263d d089 1ebc 5c03 33bd ae03 033d
000001d0: c4b4 94bc 9038 05bc 2065 053d 5f9c 283d
000001e0: 8ccd c13b 55db dc3a bd63 593d a449 873d
000001f0: 8b43 dcbc e5f3 84bd d5f9 0a3d f9d4 043c
00000200: 0bb5 a6bc 1b51 56bd cad5 8bbc 6646 373d
00000210: 8d2d 563b ee23 0d3d cedf 03bd 24ac 7fbd
00000220: 7bf0 9a3d b26c 003c 0e15 e13c 6186 6d3d
00000230: 4042 dbbb fa7e f63c 68c6 873c bdf4 f03c
00000240: 6f5e b03c a2d3 25bc 886e 403d 0231 13bd
00000250: 22f1 f63b b5d9 51bd 7376 c4bb 7152 e4bc
00000260: 8e89 7fbc a65a 97bc 7758 753d 7af3 a2bc
00000270: 6a46 edbc a48b 97bc d75b 28bd cb61 2d3a
00000280: ffdc 3e3c 9db9 3cbc a03b cd3c 2900 64bd
00000290: 9844 673d 79e8 9a3c 6f41 533d 51b1 de3c
000002a0: d815 173d ff7b 93bd e791 2ebd d7e9 f2bc
000002b0: eb12 3e3d 0b31 00bd d924 943c e16e 99bd
000002c0: f6e9 0dbd f9c4 31bc 13e9 813c f0ce 94bd
000002d0: 23fa 40bd f002 933c 2ed6 013d 63b8 00bd
000002e0: a4d4 01bb 1321 d63c 5037 90bd ec0f 043d
000002f0: b1db d5bc b417 09bb cbdd 3cbd 2c0e f2bb
00000300: 6050 abba 896d e83b 73ec 86bb 8678 cb3b
00000310: e973 3b3c e1fc fc3c dad6 353d 19d1 22bc
00000320: 1bfb 47bb f988 643c 3b31 6cbd 1893 83bd
00000330: 2606 073c 5a29 073d 8fa2 e03c 9ea0 64bc
00000340: 2324 b43d 43e0 bebc a631 333b 340d 1ebd
00000350: dcfb 593d 88ed 7f3d b3bc 8f3c 2129 12bc
00000360: 11f4 27bc d5ef d23c db67 473b e96e a53d
00000370: d858 caba fccf fb3c cb22 0e3c eecb 153d
00000380: 0d89 abbc 6728 f03c 5200 7cbc d790 84bc
00000390: af62 0a3d ebdb 9ebc feb3 a1bb 60aa d5bc
000003a0: 3a30 80bd df40 38bc b2d5 00bc 1f2e c33c
000003b0: 1ebd 12bd eca9 e3bc ebe0 b5bc efbf 373d
000003c0: 9f31 a0bd b150 52bc 7259 86bc 2f3b a1bc
000003d0: cbdc 273d e691 41bd 62da 31bc d2a0 09bd
000003e0: b72b f2bc ab09 5e3d 2d68 a4bc 5894 d7bb
000003f0: 5be0 b6bc b2e1 a13d 0bf2 533c ce6b 1f3d

action_model._discrete_distribution.branches.2.weight f4 [1, 128]
0.0034256533 -0.0061521423 0.00034855652 0.0006348311 0.0028683404 -0.007821617 0.01371166 0.006020555
0.012534708 0.0006887669 0.0020488445 0.0036184178 -0.0018416763 0.0054963543 0.012307077 0.005560774
-0.009563409 -0.0058512273 0.0057665664 -0.0064229877 -0.005771364 0.003363474 -0.006232986 -0.0035394893
0.0008534452 0.008551161 -0.0039109243 0.013235117 0.00069413177 -0.0015271393 0.0194552 0.0032240767
0.0047652344 0.0039595664 -0.0045536156 0.013087228 0.009865858 -0.003498802 0.004014178 -0.0029302195
0.008131498 -0.008921103 -0.008566172 -0.021652384 -0.011338801 -0.00112891 0.006386801 -0.006083028
-0.004282978 -0.0022168334 -0.0018947128 -0.0070876065 0.00012000035 0.0020783513 0.0036144468 0.014928551
0.002877501 -0.000362454 0.0036654815 -0.009757429 -0.008604632 -0.014233003 -0.009596366 0.0037041754
-0.0049558636 -0.0046300157 0.014641188 -0.01839068 -0.0062138676 0.006727432 0.004312222 0.0042148647
0.011070422 0.0065416466 -0.00022835167 -0.008508783 -0.00935365 0.0073656733 -0.009126313 0.0027617544
0.0032899068 0.001171241 0.015746357 0.0034945526 0.007895364 0.012139991 0.0005232374 -0.0019619134
0.006978345 -0.010415311 -0.00052545307 0.004532812 0.0032965764 0.013789094 0.004671301 0.008647028
-0.0015284246 -0.010598881 0.006715289 -0.011756302 0.009003316 -0.0028040232 0.005917614 0.020339107
0.0031334448 -0.0034346823 -0.0019033337 0.0089566205 0.0027796922 -0.008134048 -0.012412892 0.0017074532
0.0013770262 0.010602621 0.010414961 0.0031103615 -0.014789124 0.0007389827 0.0022677935 0.0110612465
-0.0056957467 0.012654036 0.0130381435 -0.0007086042 0.0041193734 -0.0020707955 0.013492323 -0.0013189986
00000000: ed80 603b e997 c9bb 77be b639 cb6a 263a
00000010: c4fa 3b3b 3d26 00bc dfa6 603c 1348 c53b
00000020: 605e 4d3c 5d8e 343a e845 063b fa22 6d3b
00000030: 6764 f1ba c31a b43b 9fa3 493c 2737 b63b
00000040: d8af 1cbc a7bb bfbb 77f5 bc3b ed77 d2bb
00000050: b61d bdbb bb6d 5c3b 143e ccbb c7f6 67bb
00000060: bdb9 5f3a 2b1a 0c3c 3627 80bb 1bd8 583c
00000070: 65f6 353a 4b2a c8ba 8360 9f3c 084b 533b
00000080: af25 9c3b 40bf 813b 7f36 95bb d06b 563c
00000090: 68a4 213c 284c 65bb 5e89 833b ed08 40bb
000000a0: f939 053c d129 12bc 2159 0cbc 5760 b1bc
000000b0: 61c6 39bc eff7 93ba 5f48 d13b 2354 c7bb
000000c0: 3958 8cbb 4b48 11bb 0358 f8ba 273f e8bb
000000d0: b3a8 fb38 f334 083b 5be0 6c3b e296 743c
000000e0: 7594 3c3b c107 beb9 9338 703b a0dd 1fbc
000000f0: 71fa 0cbc 8b31 69bc 143a 1dbc c0c1 723b
00000100: cc64 a2bb 63b7 97bb 98e1 6f3c 0da8 96bc
00000110: b39d cbbb ca71 dc3b 8a4d 8d3b d91c 8a3b
00000120: b760 353c 4f5b d63b af71 6fb9 6c68 0bbc
00000130: 0d40 19bc bf5b f13b 8886 15bc 8dfe 343b
00000140: 7a9b 573b 5484 993a 81fe 803c dd04 653b
00000150: 8f5b 013c d0e6 463c de29 093a 7293 00bb
00000160: 9aaa e43b fba4 2abc 8fbe 09ba fc87 943b
00000170: 600b 583b a7eb 613c b711 993b 44ac 0d3c
00000180: 6b55 c8ba eea6 2dbc ed0b dc3b 819d 40bc
00000190: a582 133c b4c3 37bb 8be8 c13b 339e a63c
000001a0: 7b5a 4d3b 6818 61bb 4879 f9ba cabe 123c
000001b0: 7f2b 363b ac44 05bc 715f 4bbc 9fcc df3a
000001c0: 557d b43a 9eb6 2d3c 83a3 2a3c 35d7 4b3b
000001d0: 154e 72bc 4ab8 413a 439f 143b 3b3a 353c
000001e0: 63a3 babb e052 4f3c f09d 553c 9fc1 39ba
000001f0: cffb 863b 2fb6 07bb e80e 5d3c 40e2 acba

discrete_action_output_shape f4 [1, 3]
2.0 3.0 1.0
00000000: 0000 0040 0000 4040 0000 803f

network_body._body_endoder.seq_layers.0.bias f4 [128]
-0.01525185 -0.027582351 0.004280134 -0.008017825 -0.0025949376 0.0076673334 0.013688676 0.0074340515
0.010465085 -0.03211633 -0.017461948 0.025632277 -0.0044815773 -0.019679284 -0.043889713 -0.0042560636
0.0001996592 0.005455851 0.017318899 -0.010692005 -0.032207966 -0.015734613 -0.009929212 -0.0072826617
-0.021964438 0.01804096 -0.0016334134 -0.005996112 -0.011370776 -0.028071534 0.009607356 -0.023360534
-0.00481088 -0.033081952 0.0071867136 -0.013423091 -0.017352702 -0.022200525 0.008509076 -0.020183187
-0.0155858565 0.0014040222 -0.0015870122 0.0022788264 8.5182895e-05 -0.039919037 -0.014572094 -0.00013395403
0.01135277 -0.027350709 -0.011678306 -0.010387957 -0.0072219134 0.03735711 0.0025762536 -0.033145934
0.035151817 0.009721329 0.002389137 -0.018620152 -0.017248828 -0.011434515 0.005583957 0.06637388
-0.012494939 0.022062192 -0.0019729964 -0.01470934 0.015002816 -0.0069756806 0.013229051 -0.007848307
-0.022414507 -0.013922598 -0.009639417 -0.0016632222 -0.023553625 0.009483703 -0.014537268 -0.0054823426
-0.028761778 -0.032709412 -0.006696879 0.005790374 -0.03713253 -0.008980878 0.005365968 -0.013881333
-0.022361659 0.0061444356 0.014084209 -0.006115346 -0.019025348 0.023860216 0.0021332486 -0.0062945737
0.00077435334 -0.01168795 0.008467664 -0.0067865704 -0.027168004 -0.0069198143 0.014591652 0.012813915
-0.01670766 0.022378651 -0.026229706 -0.012311103 -0.013675881 0.0066350927 -0.027425425 -0.006061065
-0.007314727 -0.006081438 0.009072987 -3.811815e-06 -0.01602273 -0.0007770535 -0.027794385 -0.013564949
-0.0176219 -0.0053061536 -0.00561988 -0.009473117 0.00023057511 0.008599851 -0.012331374 -0.0261287
00000000: e5e2 79bc 62f4 e1bc 5e40 8c3b 325d 03bc
00000010: d40f 2abb 413e fb3b 7846 603c 5899 f33b
00000020: bf75 2b3c 6a8c 03bd 5c0c 8fbc c8fa d13c
00000030: 32da 92bb 7336 a1bc b3c5 33bd 7376 8bbb
00000040: 9c5b 5139 ffc6 b23b 5de0 8d3c 852d 2fbc
00000050: 80ec 03bd e0e5 80bc 22ae 22bc 65a3 eebb
00000060: c4ee b3bc a3ca 933c 4218 d6ba 087b c4bb
00000070: 7e4c 3abc 46f6 e5bc 2c68 1d3c 975e bfbc
00000080: 96a4 9dbb f180 07bd 867e eb3b 86ec 5bbc
00000090: 4127 8ebc e0dd b5bc a769 0b3c 3657 a5bc
000000a0: d25b 7fbc 2b07 b83a 4b03 d0ba 5d58 153b
000000b0: 38a4 b238 2582 23bd cbbf 6ebc 0376 0cb9
000000c0: f800 3a3c 980e e0bc 5e56 3fbc 4032 2abc
000000d0: cda5 ecbb c503 193d 5dd6 283b 08c4 07bd
000000e0: 5afb 0f3d 3646 1f3c 1193 1c3b 4a89 98bc
000000f0: 6a4d 8dbc d557 3bbc a0f9 b63b 07ef 873d
00000100: 93b7 4cbc c5bb b43c 634d 01bb 72ff 70bc
00000110: 5fce 753c 4094 e4bb a9be 583c 2f96 00bc
00000120: a19e b7bc 9c1b 64bc a5ee 1dbc 7a00 daba
00000130: 88f3 c0bc 8961 1b3c b92d 6ebc 39a5 b3bb
00000140: d29d ebbc 4efa 05bd 7e71 dbbb 2dbd bd3b
00000150: 4818 18bd 8824 13bc 01d5 af3b 886e 63bc
00000160: cc2f b7bc 4357 c93b 74c1 663c 3e63 c8bb
00000170: 0cdb 9bbc 8076 c33c f9cd 0b3b b642 cebb
00000180: f9fd 4a3a d17e 3fbc f5bb 0a3c e161 debb
00000190: 6f8f debc 9cbf e2bb d311 6f3c 74f1 513c
000001a0: 81de 88bc 6f53 b73c aedf d6bc 82b4 49bc
000001b0: cd10 60bc 316b d93b 49ab e0bc e69b c6bb
000001c0: 61b0 efbb cd46 c7bb dea6 143c 7cce 7fb6
000001d0: 1a42 83bc 2db3 4bba 0db1 e3bc 853f 5ebc
000001e0: ce5b 90bc 3edf adbb f826 b8bb 2235 1bbc
000001f0: 89c6 7139 64e6 0c3c 8809 4abc db0b d6bc

network_body._body_endoder.seq_layers.0.weight f4 [128, 456]
0.021389253 0.01655077 0.09076165 0.025478093 0.014987654 0.07297056 0.018277662 -0.020242162
-0.0855393 -0.0028316115 -0.013367297 -0.004889244 -0.10102013 -0.12726156 0.11128244 -0.11687931
0.10422679 -0.08392354 -0.017488029 -0.060275108 -0.03882984 -0.026160043 -0.11401026 0.001345406
-0.12814727 0.0147471335 -0.035658885 0.0014442166 -0.120752804 -0.03326376 0.013987172 -0.057400543
0.029932126 0.033385552 0.013337881 0.09586697 0.063488044 -0.09019387 -0.02273223 -0.011419106
-0.026375202 0.07327528 0.071489215 -0.037751954 -0.0066184998 0.03421185 0.01271544 -0.027150597
-0.011734655 -0.03989877 0.047319386 -0.025955629 -0.003521178 -0.029138323 -0.047062535 0.026710112
-0.01188208 0.058501586 -0.02166725 -0.03020284 -0.04724114 0.025530037 -0.02834621 0.0015819161
0.09097194 -0.025543254 -0.08293033 0.0450752 -0.030450894 0.0015792097 -0.0052105426 0.1031838
0.007594088 0.04434885 0.1012865 0.022482457 -0.016314752 -0.011001632 -0.006441371 -0.03083824
-0.01836115 0.031248996 -0.06734096 0.028076977 0.17320049 -0.037186485 -0.033910792 0.05309051
0.048933797 0.058503013 0.025574248 0.037118163 -0.032852057 -0.013896805 0.08674519 0.015309036
0.045169614 -0.0633866 0.053587433 0.13427974 -0.08576861 -0.05112739 0.008822801 -0.042116337
-0.0055543813 0.1047309 -0.01762039 0.005121763 -0.018997435 -0.050718844 0.011629646 -0.06464487
0.04237208 -0.017422412 0.014130502 -0.07661697 -0.03504923 0.023060698 0.03419174 0.055990607
-0.090352885 0.008976886 -0.12633829 0.08480767 -0.033952683 0.0005317957 0.072463505 -0.012686057
0.012636675 -0.061587244 -0.048007846 -0.0100119775 -0.036564045 0.012735719 -0.0052659563 -0.005452381
-0.07820522 -0.032167457 -0.04415236 -0.021203928 0.03907883 -0.03444956 -0.048383676 0.049591083
-0.042135667 0.028028795 -0.10359905 0.059584226 0.0021996892 -0.018473126 0.041179504 0.051599827
-0.01926551 -0.051386874 -0.07466271 -0.03341449 -0.0127104465 0.11809791 -0.031617783 -0.027529925
0.019983755 -0.03507741 -0.099880725 -0.05967314 0.1317156 0.00081816036 -0.08159256 -0.05043785
0.1856616 0.0014348358 -0.047602758 0.051623628 -0.014947826 -0.048499633 -0.033935286 -0.03701441
0.012405183 0.082237914 -0.098731264 -0.075287834 -0.008411395 0.03211889 -0.052666586 -0.027071513
0.0355187 0.034403056 -0.06614306 0.0024022434 -0.10005886 -0.048443228 -0.016388234 -0.050745007
-0.01460012 -0.059531976 -0.03313558 0.067485906 -0.09440407 -0.0045805075 0.054058064 -0.0021051506
0.05326609 0.0053776107 -0.06906743 -0.06813682 0.046248127 -0.0039040896 -0.117911205 0.07086168
-0.02689965 0.06641205 -0.0778453 0.08652718 0.1595237 0.047006655 0.13105115 0.091336586
0.024967637 0.099360056 -0.04919627 -0.012514867 -0.027057156 0.007499158 0.10493856 0.0105467
-0.019997712 -0.15698715 0.06238272 0.038219873 0.055649996 0.027637627 0.11189492 -0.0010218204
0.0078978175 -0.027874852 0.10221512 0.03466045 0.010920075 -0.061396882 -0.122360535 -0.001962671
0.024268523 0.048824172 -0.031921342 0.13195416 0.025044287 0.0148762455 0.025381563 -0.03387348
-0.07931987 -0.029896198 -0.07304771 -0.014428646 0.02520273 0.033095043 -0.04162441 0.023839036
00000000: 8438 af3c 7b95 873c 3ee1 b93d 6fb7 d03c
00000010: c78e 753c 9771 953d 09bb 953c e4d2 a5bc
00000020: 3b2f afbd 8f92 39bb 8202 5bbc f435 a0bb
00000030: a4e3 cebd db50 02be 0ce8 e33d 6b5e efbd
00000040: db74 d53d 1be0 abbd 0e43 8fbc 08e3 76bd
00000050: 0a0c 1fbd 964d d6bc 367e e9bd 5658 b03a
00000060: 0a39 03be f69d 713c 0d0f 12bd de4b bd3a
00000070: 3f4d f7bd 953f 08bd 742a 653c d51c 6bbd
00000080: 3834 f53c 4abf 083d 2187 5a3c e755 c43d
00000090: 0506 823d 90b7 b8bd f138 babc 3417 3bbc
000000a0: cf10 d8bc 5a11 963d f068 923d cba1 1abd
000000b0: 00e0 d8bb ba21 0c3d 6c54 503c ee6a debc
000000c0: b642 40bc e56c 23bd f9d1 413d e6a0 d4bc
000000d0: 90c3 66bb 7eb3 eebc a5c4 40bd 2acf da3c
000000e0: 0ead 42bc 5c9f 6f3d 847f b1bc f26b f7bc
000000f0: ed7f 41bd 5e24 d13c 5036 e8bc 4c58 cf3a
00000100: 7f4f ba3d 1640 d1bc 60d7 a9bd c6a0 383d
00000110: 2774 f9bc 7cfd ce3a 33bd aabb 0752 d33d
00000120: d4d7 f83b 24a7 353d 4c6f cf3d 212d b83c
00000130: 84a6 85bc 3040 34bc 2312 d3bb 7aa0 fcbc
00000140: 1f6a 96bc e5fd ff3c 0fea 89bd b001 e63c
00000150: 785b 313e db50 18bd 0be6 0abd 6f75 593d
00000160: ce6e 483d dba0 6f3d 1681 d13c 3709 183d
00000170: e18f 06bd 6daf 63bc 76a7 b13d c0d2 7a3c
00000180: c603 393d d5d0 81bd 7f7e 5b3d a180 093e
00000190: 74a7 afbd f46a 51bd 828d 103c 2e82 2cbd
000001a0: 8701 b6bb 277d d63d a358 90bc 76d4 a73b
000001b0: 82a0 9bbc 90be 4fbd 458a 3e3c 8864 84bd
000001c0: 598e 2d3d 72b9 8ebc 9f83 673c 5ce9 9cbd
000001d0: c88f 0fbd cae9 bc3c a30c 0c3d 6856 653d
000001e0: ef0a b9bd ca13 133c d35e 01be a5af ad3d
000001f0: f811 0bbd 3568 0b3a bf67 943d 2ed9 4fbc
00000200: 0e0a 4f3c e842 7cbd e0a3 44bd 4709 24bc
00000210: 2ec4 15bd 7aa9 503c 0b8e acbb e3a9 b2bb
00000220: 0f2a a0bd 06c2 03bd 1bd9 34bd dcb3 adbc
00000230: 2011 203d fb1a 0dbd f62d 46bd 0520 4b3d
00000240: 7396 2cbd a59c e53c bd2b d4bd 970e 743d
00000250: a928 103b f454 97bc d7ab 283d 575a 533d
00000260: b4d2 9dbc 0b7b 52bd c3e8 98bd a2dd 08bd
00000270: 7a3f 50bc 51dd f13d a681 01bd 7086 e1bc
00000280: f9b4 a33c 55ad 0fbd 448e ccbd d36b 74bd
00000290: 74e0 063e d079 563a 001a a7bd eb97 4ebd
000002a0: 131e 3e3e 1a11 bc3a 1cfb 42bd 4c73 533d
000002b0: bae7 74bc 8da7 46bd baff 0abd 6c9c 17bd
000002c0: 1c3f 4b3c 5a6c a83d 9e33 cabd 8230 9abd
000002d0: f3cf 09bc 198f 033d ebb8 57bd 14c5 ddbc
000002e0: 0e7c 113d 38ea 0c3d 0376 87bd f56e 1d3b
000002f0: a9eb ccbd 686c 46bd 9e40 86bc ffd9 4fbd
00000300: 5735 6fbc cdd7 73bd 2db9 07bd 0d36 8a3d
00000310: ec56 c1bd 1518 96bb fd6b 5d3d 91f6 09bb
00000320: 8b2d 5a3d ab36 b03b 3a73 8dbd 518b 8bbd
00000330: ad6e 3d3d c1db 7fbb 6e7b f1bd ee1f 913d
00000340: a85c dcbc 0a03 883d 5b6d 9fbd 2a35 b13d
00000350: 2e5a 233e 0d8a 403d 4632 063e ad0e bb3d
00000360: ee88 cc3c 497d cb3d 0782 49bd 280b 4dbc
00000370: f8a6 ddbc 7fbb f53b 07ea d63d 11cc 2c3c
00000380: 3ed2 a3bc 3dc1 20be 0685 7f3d 718c 1c3d
00000390: 40f1 633d 4e68 e23c 2a29 e53d 9aee 85ba
000003a0: d965 013c cd59 e4bc 2956 d13d 1ef8 0d3d
000003b0: 1dea 323c 4c7b 7bbd 2998 fabd 28a0 00bb
000003c0: c8ce c63c dbfb 473d f4bf 02bd fe1e 073e
000003d0: ad29 cd3c 7fbb 733c ffec cf3c ebbe 0abd
000003e0: 7572 a2bd dfe8 f4bc 0a9a 95bd 2166 6cbc
000003f0: f575 ce3c ab8e 073d 5b7e 2abd 154a c33c

network_body._body_endoder.seq_layers.2.bias f4 [128]
-0.014227614 0.036249295 0.01975607 -0.0015021319 -0.02666035 -0.0051572155 -0.008924357 0.023185175
-0.010298587 -0.024775697 0.0037040527 0.031155042 -0.02635189 -0.008758605 0.019328317 -0.0027606688
-0.0065539186 0.009747425 -0.009143774 0.0027438859 -0.0028369473 0.007963421 -0.006147205 -0.013255641
-0.0015944757 -0.018038701 -0.0045355805 0.016360004 -0.013358995 0.010488406 0.027361743 0.0011855286
0.010866571 -0.024902025 -0.013119427 0.0062538222 0.007184188 -0.022959318 -0.0007620186 -0.021665797
-0.024718285 0.011918539 0.021468475 -0.017334761 0.0057143234 -0.005426146 -0.045500763 0.015706815
-0.0021385578 -0.018629106 -0.01906467 0.014568693 0.0085518705 0.0021515903 -0.0030523122 -0.0023695454
0.0060071 -0.021483893 0.03261811 -0.0038622853 0.013876395 -0.021272143 -0.009762965 -0.029260194
-0.021083336 -0.004019211 -0.01280364 0.023228852 -0.0059840535 -0.026821073 -0.008701408 -0.019336076
-0.006780019 -0.033711396 0.0073549813 0.023285452 0.0087394575 -0.033061244 -0.013343605 0.0133155035
0.0138569595 -0.008611998 -0.0062219207 -0.0036390277 -0.01576583 0.012281403 0.012854532 0.0008900128
0.02432131 0.00248913 -0.0064147986 0.010036097 0.014580299 -0.029947864 0.0062061693 -0.02421244
0.00801448 -0.022910358 0.0056161806 -0.018493148 0.005632418 0.0041769138 0.00060806156 0.012036962
0.040022977 -0.019241743 4.835109e-05 -0.021969218 0.026883883 -0.014403927 -0.00013591781 -0.013599126
0.0141268885 -0.0110191 0.025996432 0.01101939 -0.006956023 0.024625445 -0.025306009 -0.0033470823
-0.026339222 0.040557608 -0.008969292 0.015311678 0.0013820205 0.018533375 -0.010071353 -0.028288674
00000000: f01a 69bc 247a 143d 7bd7 a13c 2fe3 c4ba
00000010: ce66 dabc dcfd a8bb 7737 12bc d6ee bd3c
00000020: 68bb 28bc 67f6 cabc b1bf 723b dc38 ff3c
00000030: ebdf d7bc 4180 0fbc 6b56 9e3c 56ec 34bb
00000040: 41c2 d6bb aab3 1f3c c5cf 15bc c4d2 333b
00000050: 14ec 39bb 0279 023c 7e6e c9bb 302e 59bc
00000060: bafd d0ba e6c5 93bc 359f 94bb 6a05 863c
00000070: b0df 5abc 90d7 2b3c bc25 e03c bd63 9b3a
00000080: b409 323c 55ff cbbc ddf2 56bc ddec cc3b
00000090: 5669 eb3b 2e15 bcbc 34c2 47ba 787c b1bc
000000a0: 007e cabc fa45 433c a8de af3c a101 8ebc
000000b0: 383f bb3b d0cd b1bb 025f 3abd 94ab 803c
000000c0: 0c27 0cbb 119c 98bc 832d 9cbc 87b1 6e3c
000000d0: 251d 0c3c b201 0d3b 4d09 48bb 604a 1bbb
000000e0: 35d7 c43b fdfe afbc 919a 053d 651e 7dbb
000000f0: d259 633c eb42 aebc d8f4 1fbc 13b3 efbc
00000100: f6b6 acbc 96b3 83bb 5cc6 51bc 6f4a be3c
00000110: e115 c4bb deb7 dbbc 5a90 0ebc b166 9ebc
00000120: ec2a debb f614 0abd 0e02 f13b 22c1 be3c
00000130: f12f 0f3c 3a6b 07bd 239f 5abc 4529 5a3c
00000140: 4d08 633c 5619 0dbc 41e1 cbbb c17c 6ebb
00000150: 5827 81bc f037 493c d19b 523c bf4f 693a
00000160: 7c3d c73c ac20 233b 3b33 d2bb 716e 243c
00000170: 35e2 6e3c 3955 f5bc 1f5d cb3b 2b59 c6bc
00000180: 2a4f 033c 81ae bbbc f007 b83b f17e 97bc
00000190: 2690 b83b 7ede 883b 5266 1f3a ae36 453c
000001a0: 22ef 233d dca0 9dbc 96cc 4a38 caf8 b3bc
000001b0: 973b dc3c 73fe 6bbc 2985 0eb9 dece 5ebc
000001c0: 7774 673c 7589 34bc 78f6 d43c ac8a 343c
000001d0: 5aef e3bb 4dbb c93c 8c4e cfbc b95a 5bbb
000001e0: 5ac5 d7bc bc1f 263d f0f3 12bc d5dd 7a3c
000001f0: ea24 b53a 4ed3 973c 5102 25bc a6bd e7bc

network_body._body_endoder.seq_layers.2.weight f4 [128, 128]
-0.1328984 0.06603481 0.19261287 0.015687251 0.05007485 0.25475836 0.027700942 0.032307275
0.06503101 0.114644885 -0.04390004 0.19060028 0.01830003 0.08945397 -0.075381935 -0.12381162
-0.102282025 0.14552481 -0.10696787 -0.07358606 0.03452607 0.06419971 0.112744294 0.014544336
-0.10923791 -0.15044996 -0.019451013 -0.0017449773 0.06359496 -0.06306507 0.101529464 -0.14140305
-0.056511756 -0.06726897 0.101395644 -0.12562758 -0.07483056 -0.06382767 0.034888957 -0.031381115
-0.007919604 0.154321 -0.02616122 -0.057316408 0.19530043 -0.07529582 -0.04464908 0.1393455
0.12715413 -0.026302103 -0.13288754 -0.07287589 0.07612956 0.09607338 0.068569444 0.16459334
-0.057876475 0.0040150937 -0.01200574 0.0039416407 -0.03333904 -0.042263485 0.06882459 0.084595144
-0.061796352 0.12771407 -0.10027448 -0.09685022 -0.00012752261 0.045435496 -0.20099984 -0.052440252
0.008243474 0.0513379 -0.05727612 0.060425438 0.14987907 -0.05480799 0.06353072 -0.16164434
-0.0048215464 -0.058907837 -0.07742794 -0.15564115 0.022380903 0.044005685 -0.079090945 0.19913855
0.019989142 0.04941818 -0.10718349 0.03148619 -0.17132613 -0.18276066 0.16947061 0.0010165295
-0.014235673 0.032030314 -0.019726649 0.01222819 -0.049584083 0.008526592 0.010560908 -0.021546891
-0.047048707 0.09753082 -0.11782129 0.09509673 0.18624905 -0.014416557 0.13752711 -0.07393667
-0.022902315 0.17466852 -0.073873244 0.041512877 0.118352875 -0.02058527 0.027377693 0.026334194
-0.23550698 0.106854595 0.056521308 -0.043182842 -0.046004724 0.011970849 0.01608473 -0.013232805
0.028968034 -0.051575072 -0.095062025 -0.010538282 0.02158396 0.0027477778 0.16166958 -0.06300086
0.27124846 -0.21989237 -0.021957844 -0.030145956 0.08694918 0.07906221 -0.15516791 -0.05083425
-0.09459753 -0.067729205 0.028127383 -0.106538504 0.06494815 -0.017343871 -0.0974639 0.11522098
-0.17965345 0.029244745 0.039401557 -0.068874255 0.089171305 -0.13787463 0.09595496 -0.034579817
-0.135365 -0.09089905 0.15280446 0.0013093711 -0.14897288 -0.08913235 0.14598724 0.06510694
0.10727958 -0.0707938 0.1525215 -0.189782 0.041108437 -0.16364993 -0.04712168 0.030089645
0.093935154 -0.033319343 0.00811621 -0.16079761 0.04231387 0.09077966 0.12331255 -0.27003893
0.1632825 0.07071465 0.098553844 0.055532098 -0.068930045 -0.19533865 0.074793994 0.17511164
0.072828636 -0.029684484 0.01046772 -0.0590344 -0.031193474 0.026729956 0.06319177 -0.201796
-0.097388946 -0.048894968 0.006430857 -0.08660265 -0.06906045 -0.16020633 -0.06637917 0.09443032
0.22888252 -0.009400736 0.15949878 0.059996367 0.0675144 -0.024332885 -0.096530676 0.044383246
-0.08541805 0.15675674 0.15909757 -0.043239787 -0.10462697 -0.049795743 0.052976336 0.0027121552
0.0025933872 -0.14853008 0.0796781 -0.15577991 -0.101817265 0.015117511 0.099397264 -0.06392851
0.10998892 0.15907206 -0.11011719 -0.27718228 -0.21514428 0.006307764 0.11300067 0.051873565
0.11999853 -0.044487566 0.10103492 0.0026207343 -0.17237876 0.007459895 -0.06696219 0.04986872
-0.11714486 -0.12546459 -0.1762062 -0.01891083 0.15447582 -0.044138033 0.09346662 -0.061311245
00000000: 8516 08be 423d 873d 4f3c 453e 8d82 803c
00000010: 491b 4d3d b06f 823e 16ed e23c a254 043d
00000020: fa2e 853d f0ca ea3d 87d0 33bd b82c 433e
00000030: f2e9 953c a533 b73d d861 9abd f290 fdbd
00000040: 3d79 d1bd 7504 153e f811 dbbd 4ab4 96bd
00000050: 356b 0d3d 237b 833d 7be6 e63d 5e4b 6e3c
00000060: 20b8 dfbd 8e0f 1abe bb57 9fbc b9b7 e4ba
00000070: 133e 823d 4228 81bd aeee cf3d f6cb 10be
00000080: df78 67bd 50c4 89bd 85a8 cf3d 84a4 00be
00000090: c440 99bd 15b8 82bd b9e7 0e3d 7c89 00bd
000000a0: 3ac1 01bc 5306 1e3e 0e50 d6bc 9cc4 6abd
000000b0: d6fc 473e b234 9abd f4e1 36bd 96b0 0e3e
000000c0: b134 023e 8277 d7bc ac13 08be f43f 95bd
000000d0: d1e9 9b3d 1fc2 c43d 236e 8c3d 288b 283e
000000e0: e20f 6dbd 0c91 833b b9b3 44bc e128 813b
000000f0: 848e 08bd 7a1c 2dbd e8f3 8c3d 3840 ad3d
00000100: 2c1e 7dbd 7ac7 023e b55c cdbd 6859 c6bd
00000110: 97b7 05b9 921a 3a3d e7d2 4dbe 97cb 56bd
00000120: a30f 073c b147 523d 5d9a 6abd aa80 773d
00000130: e679 193e 587e 60bd 651c 823d 1886 25be
00000140: 10fe 9dbb 5849 71bd 8a92 9ebd 6560 1fbe
00000150: 2858 b73c 4e3f 343d 6ffa a1bd faea 4b3e
00000160: 45c0 a33c b86a 4a3d 0583 dbbd aaf7 003d
00000170: 1e70 2fbe 9c25 3bbe b489 2d3e 123d 853a
00000180: bd3c 69bc 3832 033d c899 a1bc bf58 483c
00000190: ae18 4bbd 1eb3 0b3c a907 2d3c 1b83 b0bc
000001a0: 25b6 40bd 3dbe c73d 4a4c f1bd 13c2 c23d
000001b0: 12b8 3e3e 6c33 6cbc e8d3 0c3e 1c6c 97bd
000001c0: a39d bbbc 4edc 323e db4a 97bd 6809 2a3d
000001d0: fe62 f23d 71a2 a8bc 2f47 e03c cfba d73c
000001e0: be28 71be 95d6 da3d e382 673d 7ee0 30bd
000001f0: 736f 3cbd 6121 443c 20c4 833c 68ce 58bc
00000200: 5f4e ed3c 6240 53bd e1af c2bd c2a8 2cbc
00000210: d8d0 b03c 1014 343b b68c 253e 9806 81bd
00000220: 14e1 8a3e 772b 61be f0e0 b3bc a7f4 f6bc
00000230: 6912 b23d 5eeb a13d 56e4 1ebe 9337 50bd
00000240: 5abc c1bd 9cb5 8abd 666b e63c dc30 dabd
00000250: 8903 853d bc14 8ebc 279b c7bd faf8 eb3d
00000260: 13f7 37be ad92 ef3c 8763 213d f20d 8dbd
00000270: 729f b63d 022f 0dbe 0984 c43d 91a3 0dbd
00000280: 1f9d 0abe 4829 babd c678 1c3e 349f ab3a
00000290: 598c 18be 068b b6bd ae7d 153e ca56 853d
000002a0: 65b5 db3d 57fc 90bd 992e 1c3e 3656 42be
000002b0: 5261 283d d993 27be aa02 41bd 8f7e f63c
000002c0: 1361 c03d dd79 08bd daf9 043c 21a8 24be
000002d0: 4f51 2d3d b0ea b93d 4a8b fc3d 8b42 8abe
000002e0: 8733 273e d8d2 903d 99d6 c93d a075 633d
000002f0: 322b 8dbd db06 48be 982d 993d 7750 333e
00000300: 2e27 953d e02c f3bc cd80 2b3c 0ece 71bd
00000310: 7589 ffbc c8f8 da3c b06a 813d 9ca3 4ebe
00000320: db73 c7bd 1746 48bd f0b9 d23b bb5c b1bd
00000330: 916f 8dbd 210d 24be cdf1 87bd af64 c13d
00000340: 2e60 6a3e 8b05 1abc a653 233e c0be 753d
00000350: fd44 8a3d c255 c7bc e0b1 c5bd 35cb 353d
00000360: a9ef aebd d784 203e 79ea 223e 341c 31bd
00000370: aa46 d6bd 9ff6 4bbd b7fd 583d 6abe 313b
00000380: d1f5 293b 4518 18be 462e a33d c584 1fbe
00000390: 9285 d0bd 70af 773c cb90 cb3d f3ec 82bd
000003a0: df41 e13d c9e3 223e 1f85 e1bd d6ea 8dbe
000003b0: c84e 5cbe 5cb1 ce3b e56c e73d 6079 543d
000003c0: cac1 f53d 9838 36bd 65eb ce3d a0c0 2b3b
000003d0: 0f84 30be 2372 f43b 7923 89bd 2543 4c3d
000003e0: a5e9 efbd ca79 00be 666f 34be e3ea 9abc
000003f0: e92e 1e3e 15ca 34bd 6d6b bf3d 8021 7bbd

network_body.observation_encoder.processors.0.normalizer.running_mean f4 [450]
0.029599432 0.8158903 0.09997673 0.0023943915 0.0025041616 0.0019415822 0.0021359702 0.0023783827
0.008200841 0.16332686 0.031001315 0.81464374 0.09851991 0.0031650774 0.0022571776 0.0021679867
0.0026711067 0.002426407 0.0069979304 0.15809664 0.027856814 0.8121423 0.10592488 0.0016328517
0.0022663248 0.0017037446 0.0019415828 0.00243098 0.00833349 0.16579075 0.034754112 0.7943065
0.110823445 0.004020382 0.0023349337 0.0022365944 0.0028677806 0.0026322294 0.00791727 0.16094719
0.027390271 0.7877552 0.12911874 0.001616842 0.0021496913 0.0022205862 0.0022068648 0.0025979234
0.0078166425 0.16763255 0.04206308 0.7671443 0.12513949 0.0049602985 0.0023555125 0.0023600874
0.0028471972 0.0025681942 0.008992115 0.16712584 0.02998133 0.7742501 0.13662444 0.002229735
0.002133685 0.0023875302 0.002538466 0.0027374253 0.007857808 0.17082162 0.04833836 0.7567485
0.12642469 0.005600635 0.00219543 0.0027648702 0.0027282801 0.0025499007 0.009351156 0.1759947
0.030985292 0.77782935 0.13103063 0.0024492769 0.0023212107 0.0026665335 0.0026962617 0.0026436616
0.007885257 0.17667538 0.052075114 0.74831486 0.130987 0.0053696563 0.0019118537 0.002627655
0.0023143487 0.0025453272 0.010309374 0.18007322 0.03492332 0.777443 0.12427736 0.0031536422
0.002183994 0.00280146 0.002888365 0.002424122 0.010220184 0.18793204 0.055105284 0.7557884
0.12224883 0.0043634158 0.0018135172 0.0024881514 0.0020353463 0.0022365944 0.010066961 0.18480708
0.035401307 0.78501934 0.11681058 0.0033960557 0.0022594642 0.0027259924 0.0027900261 0.0020742242
0.011409372 0.19240104 0.055578686 0.7766998 0.10377974 0.0029775521 0.001882124 0.002289192
0.0022548884 0.0020261987 0.010311665 0.19221899 0.039394267 0.8049181 0.09587855 0.002810606
0.0018592555 0.0022365937 0.00262308 0.0020170503 0.011208129 0.19783501 0.029661195 0.81723535
0.100139074 0.002401252 0.002508736 0.0019438693 0.0021405434 0.0023806696 0.008260301 0.16366744
0.031063067 0.8159907 0.098677665 0.0031765122 0.0022617502 0.002172562 0.0026733938 0.002426407
0.0070482446 0.1584079 0.027909404 0.8134757 0.10610789 0.0016397121 0.00226861 0.0017037449
0.0019415828 0.0024355564 0.008390668 0.16613263 0.03482273 0.79558486 0.11102923 0.0040272423
0.0023463662 0.0022457421 0.0028677806 0.0026322296 0.007976721 0.16127798 0.027438324 0.78903687
0.12935416 0.0016214162 0.0021519784 0.0022205862 0.002211439 0.0025979232 0.007880674 0.1680012
0.04214311 0.7683773 0.1253887 0.0049671596 0.002360086 0.0023646615 0.0028494839 0.0025681944
0.009056144 0.16747935 0.03002707 0.77549684 0.13692409 0.0022320207 0.0021382568 0.0023898175
0.002538466 0.0027374253 0.007905836 0.17117599 0.048420656 0.75798404 0.12665562 0.005607496
0.0021977162 0.002767158 0.0027282801 0.0025521875 0.00942205 0.1763849 0.03104701 0.77908725
0.13128205 0.0024538485 0.0023234973 0.0026665335 0.0026985484 0.0026436616 0.007944706 0.177064
0.052173465 0.7495449 0.13121347 0.005383377 0.0019141389 0.002629941 0.0023143487 0.002547614
0.010373409 0.18046702 0.03498282 0.7787349 0.12450605 0.0031536422 0.0021885694 0.0028037473
00000000: 827a f23c 30de 503f 9ac0 cc3d 39eb 1c3b
00000010: dc1c 243b b07c fe3a a2fb 0b3b a4de 1b3b
00000020: d25c 063c 283f 273e 78f6 fd3c 7e8c 503f
00000030: cec4 c93d 306d 4f3b 28ed 133b c814 0e3b
00000040: bc0d 2f3b 5b04 1f3b e54e e53b 16e4 213e
00000050: f933 e43c 8fe8 4f3f 25ef d83d 6905 d63a
00000060: 9f86 143b 2f50 df3a b57c fe3a 1451 1f3b
00000070: 3189 083c 0dc5 293e 545a 0e3d ac57 4b3f
00000080: 67f7 e23d 69bd 833b b005 193b d493 123b
00000090: 60f1 3b3b 7b81 2c3b 70b7 013c 57cf 243e
000000a0: 9061 e03c 53aa 493f b437 043e 37ec d33a
000000b0: d6e1 0c3b 4187 113b 0ca1 103b ec41 2a3b
000000c0: 6011 003c dea7 2b3e 564a 2c3d 9263 443f
000000d0: 9124 003e 008a a23b f15e 1a3b b2ab 1a3b
000000e0: 0b98 3a3b 264f 283b aa53 133c 0923 2b3e
000000f0: 689b f53c 4135 463f 47e7 0b3e bf20 123b
00000100: 4bd5 0b3b 1c78 1c3b 645c 263b 6066 333b
00000110: 09be 003c ddeb 2e3e 72fe 453d 45ba 413f
00000120: 7975 013e 8885 b73b 34e1 0f3b d332 353b
00000130: f2cc 323b 3c1c 273b 9735 193c f437 343e
00000140: ded4 fd3c d31f 473f e52c 063e 0c84 203b
00000150: 741f 183b 02c1 2e3b c4b3 303b 4841 2d3b
00000160: 2a31 013c 64ea 343e b74c 553d 9091 3f3f
00000170: 7521 063e f1f3 af3b 2a97 fa3a bc34 2c3b
00000180: 54ac 173b 81cf 263b a6e8 283c 1d65 383e
00000190: c10b 0f3d 8106 473f 2185 fe3d 56ad 4e3b
000001a0: 5721 0f3b b398 373b b94a 3d3b 05de 1e3b
000001b0: 8f72 273c 4271 403e 14b6 613d 597b 413f
000001c0: 985d fa3d fcfa 8e3b 8ab3 ed3a 4110 233b
000001d0: 7263 053b d493 123b e5ef 243c 113e 3d3e
000001e0: f600 113d 07f7 483f 633a ef3d 5c90 5e3b
000001f0: 8513 143b 90a6 323b dfd8 363b b5ef 073b
00000200: 60ee 3a3c c704 453e 7aa6 633d ccd5 463f
00000210: 798a d43d 0923 433b 9ab1 f63a 4506 163b
00000220: c0c6 133b f9c9 043b 42f2 283c 0ed5 443e
00000230: e25b 213d 1d0f 4e3f f95b c43d 2532 383b
00000240: 43b2 f33a d193 123b fbe7 2b3b 7d30 043b
00000250: 4da2 373c 4395 4a3e 09fc f23c 5636 513f
00000260: b715 cd3d 535e 1d3b 9b69 243b 6ec9 fe3a
00000270: 5c48 0c3b 0205 1c3b 3756 073c 7098 273e
00000280: f977 fe3c c4e4 503f 8417 ca3d 082d 503b
00000290: df39 143b 8b61 0e3b 1b34 2f3b 5b04 1f3b
000002a0: f6f4 e63b ae35 223e 43a2 e43c f23f 503f
000002b0: 184f d93d 9ceb d63a f6ac 143b 3150 df3a
000002c0: b57c fe3a db9d 1f3b 0379 093c ac1e 2a3e
000002d0: 47a2 0e3d 73ab 4b3f 4b63 e33d f5f6 833b
000002e0: 7ec5 193b 4d2d 133b 60f1 3b3b 7c81 2c3b
000002f0: cbb0 023c 0e26 253e 56c6 e03c 52fe 493f
00000300: 6b75 043e b385 d43a 3508 0d3b 4187 113b
00000310: caed 103b eb41 2a3b f11d 013c 8208 2c3e
00000320: 419e 2c3d 60b4 443f e565 003e 8ec3 a23b
00000330: acab 1a3b 70f8 1a3b 68be 3a3b 274f 283b
00000340: 3960 143c b57f 2b3e 54fb f53c f686 463f
00000350: d435 0c3e 1847 123b ff21 0c3b 7c9e 1c3b
00000360: 645c 263b 6066 333b 7b87 013c c248 2f3e
00000370: bd54 463d 3e0b 423f 03b2 013e 16bf b73b
00000380: 8f07 103b 3559 353b f2cc 323b 9a42 273b
00000390: f15e 1a3c 3e9e 343e 4d56 fe3c 4372 473f
000003a0: cd6e 063e bfd0 203b d145 183b 02c1 2e3b
000003b0: 21da 303b 4841 2d3b 832a 023c 4450 353e
000003c0: d8b3 553d 2de2 3f3f d35c 063e 0a67 b03b
000003d0: d8e3 fa3a 175b 2c3b 54ac 173b dff5 263b
000003e0: 3bf5 293c 59cc 383e 254a 0f3d 2c5b 473f
000003f0: 07fd fe3d 56ad 4e3b 1a6e 0f3b 13bf 373b

network_body.observation_encoder.processors.1.normalizer.running_mean f4 [6]
463.16077 395.02277 463.94928 395.69208 464.7403 396.3634
00000000: 9494 e743 ea82 c543 82f9 e743 96d8 c543
00000010: c25e e843 842e c643
