Assets/ZooheimTest/Models/mytraining01/WolfFBehavior.onnx (onnx, 406423 bytes, 14 tensors)

91 f4 [630]
000000 84 b1 66 3e ef e5 cf 3e b3 02 fb 3d d8 1c 2e 3e
       0.22528654 0.40605113 0.12256374 0.1700319
000010 f8 5e 1e 3e 03 21 bd 3d 09 cc a6 3d c8 f6 82 3d
       0.15465915 0.09234812 0.08144385 0.06394726
000020 29 93 71 3d 96 90 80 3d 23 4e 54 3d 4a 3a 4d 3d
       0.058978233 0.062775776 0.05183233 0.050104417
000030 23 5c 29 3e 01 e6 82 3e e9 05 68 3e c4 c1 cf 3e
       0.16539054 0.25566104 0.22658505 0.4057752
000040 10 8a fb 3d fd 11 29 3e 96 e9 1d 3e 70 a0 b1 3d
       0.12282193 0.16510768 0.15421137 0.08673179
000050 d7 93 ac 3d 5a 98 86 3d f6 99 73 3d 98 cc 7e 3d
       0.08426636 0.065720275 0.059473 0.062206835
000060 15 61 55 3d a7 79 3f 3d 7a 62 2b 3e 1c 31 83 3e
       0.052094538 0.046746876 0.16736785 0.25623405
000070 5f 80 6b 3e fa 89 ce 3e f0 b3 f6 3d 2b 3c 28 3e
       0.22998188 0.40339643 0.12046039 0.16429202
000080 e7 69 16 3e f9 a3 b8 3d 4e 9b 99 3d 74 1f 7b 3d
       0.14688836 0.0901565 0.07500325 0.061309293
000090 a8 a5 65 3d 73 5d 83 3d 05 cf 52 3d 73 0e 52 3d
       0.056066185 0.064143084 0.05146696 0.05128331
0000a0 13 52 36 3e 1c 8e 86 3e 8a 04 6e 3e 8a 57 cb 3e
       0.17804746 0.26280296 0.23243919 0.39715225
0000b0 d7 8f f2 3d 88 b8 17 3e c0 7a 11 3e 38 5e 9e 3d
       0.118438415 0.14816487 0.14206982 0.077328146
0000c0 a3 a8 9f 3d af c7 89 3d 24 98 78 3d 9f 47 7d 3d
       0.07795837 0.0672754 0.060691968 0.06183588
0000d0 47 2f 57 3d 5c b8 3d 3d 31 b5 35 3e 18 a3 85 3e
       0.05253532 0.046318397 0.177449 0.26100993
0000e0 04 d0 6a 3e c4 41 cb 3e f7 30 d9 3d a8 e8 19 3e
       0.22930914 0.39698613 0.106050424 0.15030158
0000f0 da 9c 03 3e 91 e0 aa 3d 3a fc 86 3d 9c 4c 79 3d
       0.12852803 0.08343614 0.06591077 0.060864076
000100 03 f8 5e 3d 67 2d 81 3d ff 91 4d 3d 0e 0f 53 3d
       0.05443574 0.06307488 0.05018806 0.05152803
000110 80 d0 3c 3e 67 44 88 3e 14 0b 71 3e b5 ce c7 3e
       0.18438911 0.26614687 0.23539382 0.39024892
000120 bf 0e e1 3d 80 22 06 3e 42 cc 01 3e 42 5c 8b 3d
       0.10989141 0.13099098 0.12675574 0.06804706
000130 75 84 8b 3d 74 06 91 3d 05 96 7c 3d ab fb 7a 3d
       0.068123735 0.07081309 0.061666507 0.061275166
000140 8b 3e 58 3d 37 41 3a 3d dd 0f 3c 3e 53 2f 87 3e
       0.05279402 0.04547235 0.18365426 0.26403293
000150 ec 83 6c 3e db 2a c9 3e 55 bf ba 3d 48 02 0b 3e
       0.23097199 0.3929051 0.09118525 0.13575089
000160 da 30 df 3d bd 8c 99 3d d0 77 75 3d 2d 1c 75 3d
       0.108979896 0.07497547 0.059928715 0.059841324
000170 38 52 61 3d e6 01 81 3d 6e b6 4c 3d c7 a0 50 3d
       0.05501005 0.0629919 0.049978666 0.05093458
000180 fc b3 42 3e 8a ac 89 3e 65 12 72 3e 36 32 c6 3e
       0.19013971 0.2688945 0.2363983 0.38710183
000190 07 1b c1 3d af 3e e6 3d e9 fc e4 3d dc 1e 80 3d
       0.09428983 0.11242425 0.11181051 0.06255886
0001a0 e9 47 7f 3d 29 f4 94 3d 61 07 78 3d 93 7e 82 3d
       0.06232444 0.07273132 0.060553912 0.06371798
0001b0 b7 ce 53 3d 84 3d 36 3d 1f 39 3f 3e a8 19 88 3e
       0.05171081 0.04449226 0.18674134 0.26582074
0001c0 65 36 6c 3e bf 57 c7 3e 1d ec 98 3d 70 0d fa 3d
       0.23067625 0.38934132 0.0746691 0.12209594
0001d0 ff fb b6 3d 16 5c 90 3d 5d 3d 6b 3d ba 3d 78 3d
       0.08934783 0.07048814 0.057431567 0.060605742
0001e0 08 1b 66 3d 01 1c 81 3d de 81 49 3d 63 e2 4c 3d
       0.056178123 0.063041694 0.049196117 0.050020587
0001f0 df ce 45 3e e5 b1 89 3e bf da 71 3e 30 dc c7 3e
       0.19317196 0.26893535 0.23618601 0.39035177
000200 93 69 9f 3d 8e 0d c6 3d 47 89 cb 3d 3a 22 6e 3d
       0.077838086 0.09670554 0.09938293 0.05813811
000210 40 ae 76 3d 02 82 93 3d 25 2b 73 3d c4 aa 80 3d
       0.06022477 0.072025314 0.059367318 0.06282571
000220 99 fb 48 3d 29 a5 2f 3d f9 5f 41 3e 90 3f 88 3e
       0.049068067 0.04288212 0.18884267 0.26610994
000230 a3 dc 68 3e a5 7a c5 3e 22 64 77 3d 7a 45 dc 3d
       0.22740416 0.38570133 0.06039823 0.10755439
000240 ff 7b a5 3d 3c d3 8a 3d 98 63 6b 3d 25 e3 77 3d
       0.08080291 0.06778571 0.057468027 0.060519356
000250 87 80 71 3d 7f f0 80 3d 95 ff 3d 3d b3 12 4b 3d
       0.058960464 0.06295871 0.04638632 0.04957838
000260 0f 51 41 3e b4 39 88 3e 15 84 71 3e b6 05 c8 3e
       0.18878578 0.26606524 0.23585542 0.39066857
000270 10 3c 8b 3d 83 17 b2 3d be e9 b6 3d bc 6d 6e 3d
       0.067985654 0.08695891 0.089313015 0.05821012
000280 53 43 70 3d cb 03 89 3d 07 a2 61 3d 29 24 7d 3d
       0.058657955 0.066901766 0.055086162 0.061802063
000290 59 4c 43 3d 96 ba 2d 3d de 05 45 3e 20 e4 88 3e
       0.047680233 0.04241427 0.1924052 0.26736546
0002a0 54 81 66 3e 18 89 c3 3e 31 31 5c 3d 14 e0 ca 3d
       0.22510272 0.38190532 0.05375785 0.09906021
0002b0 a0 92 97 3d 9e d3 87 3d 50 2c 6d 3d 44 4a 69 3d
       0.074010134 0.0663216 0.057903588 0.05695559
0002c0 36 52 6d 3d 99 28 79 3d eb f9 3c 3d db 7b 40 3d
       0.05793973 0.060829733 0.046136778 0.046993118
0002d0 7a 17 3d 3e c5 c1 86 3e cc 46 6e 3e 20 27 c7 3e
       0.18465987 0.2631971 0.23269194 0.38897038
0002e0 b3 a6 79 3d 98 34 9d 3d 56 c5 a6 3d 6d ad 6f 3d
       0.060949992 0.07676047 0.081431076 0.058515
0002f0 b9 de 6e 3d aa f4 81 3d 5e 1a 57 3d 5c 59 7d 3d
       0.058317874 0.06345494 0.05251538 0.061852798
000300 93 aa 42 3d 50 5e 35 3d 74 8a 43 3e 9d 77 88 3e
       0.047525954 0.044279397 0.19095784 0.26653758
000310 1d 5f 65 3e 35 e8 c1 3e 91 0c 51 3d 4f e8 bb 3d
       0.22399564 0.37872472 0.051037375 0.09175169
000320 cd 14 8c 3d b2 db 84 3d 3a a6 6e 3d 8f 2e 66 3d
       0.06839905 0.06487216 0.058263995 0.056196745
000330 62 20 5f 3d 3e a6 6e 3d c4 22 3c 3d 6b 41 3d 3d
       0.054474242 0.05826401 0.045931593 0.046204966
000340 d9 3c 43 3e a5 41 88 3e f9 e4 66 3e 2b 0e d0 3e
       0.1906618 0.26612583 0.22548284 0.4063581
000350 10 8a fb 3d 64 58 2e 3e 57 ab 1e 3e 87 67 bd 3d
       0.12282193 0.17025906 0.15495048 0.09248262
000360 31 f4 a6 3d d6 d4 83 3d 0b 75 73 3d c3 aa 80 3d
       0.081520446 0.064370796 0.059437793 0.0628257
000370 8c 3e 58 3d b3 62 51 3d a1 ba 29 3e 48 f5 82 3e
       0.052794024 0.051119518 0.165751 0.2557776
000380 db 37 68 3e ac ea cf 3e 0c 04 fc 3d 39 49 29 3e
       0.22677557 0.40608728 0.123054594 0.16531838
000390 fa 2b 1e 3e 6c e5 b1 3d 84 c7 ac 3d f1 80 87 3d
       0.15446463 0.08686337 0.08436492 0.066163905
0003a0 c2 77 75 3d d9 ef 7e 3d 29 61 59 3d 2b 1e 43 3d
       0.059928663 0.062240455 0.053071175 0.047636192
0003b0 d8 a6 2b 3e 0f 3d 83 3e 4f c0 6b 3e 37 b2 ce 3e
       0.16762865 0.25632522 0.23022579 0.40370342
0003c0 5c 39 f7 3d fb 81 28 3e 8b b3 16 3e 42 ec b8 3d
       0.12071487 0.16455834 0.14716928 0.090294376
0003d0 6c b8 99 3d 64 cb 7c 3d f6 52 67 3d 13 77 83 3d
       0.07505879 0.061717406 0.056475602 0.06419196
0003e0 aa 72 56 3d 9a 09 56 3d 61 90 36 3e aa 98 86 3e
       0.052355446 0.05225525 0.17828514 0.26288348
0003f0 64 3e 6e 3e 1e 81 cb 3e 8e 05 f3 3d e8 ed 17 3e
       0.23265988 0.39746946 0.11866294 0.14836848

94 f4 [9]
000000 f3 fc fa 41 b4 3b a0 42 02 24 d5 3e 7d 31 fc 41
       31.37351 80.11661 0.41629034 31.524164
000010 9e 41 a0 42 6c 99 d5 3e 85 6f fd 41 41 47 a0 42
       80.12816 0.41718614 31.679453 80.13917
000020 2b 0e d6 3e
       0.41807684

action_model._discrete_distribution.branches.0.bias f4 [2]
000000 fd af 91 bb f0 af 91 3b
       -0.0044460283 0.004446022

action_model._discrete_distribution.branches.0.weight f4 [2, 128]
000000 74 84 84 3c 5b 59 12 3d 67 e6 6c bc 23 0f 01 bc
       0.01617644 0.035729747 -0.014459229 -0.007877144
000010 db 19 f9 3c 97 41 1e 3d 24 b6 95 bc 69 c3 01 b9
       0.030407837 0.03863677 -0.018275328 -0.00012375195
000020 c4 53 b4 3d 93 ec e6 bc 53 ee 87 bb b3 c3 e4 bb
       0.088050395 -0.02818898 -0.0041482835 -0.006981337
000030 69 4e 33 bb f7 76 97 3c 28 39 87 3c fb b3 51 bc
       -0.0027359969 0.018489344 0.016506746 -0.012799258
000040 32 fc bb bc 95 d7 49 3c 79 e7 5b 3d f6 12 a6 3c
       -0.022947405 0.012319465 0.053687546 0.020272713
000050 48 55 30 bc 77 ae ae 3d 85 91 ce 3c cc c8 f3 bc
       -0.01076252 0.0852937 0.025215873 -0.029758833
000060 c2 37 85 3d f9 e0 29 bd 38 75 fa bc b8 23 25 bd
       0.065047756 -0.041474316 -0.030573472 -0.040317267
000070 01 bd 53 3d c3 d8 8b 3d c5 87 50 3b 74 41 33 bc
       0.05169392 0.068284534 0.0031819206 -0.010940898
000080 9a 50 86 bd 40 5e 69 bb e6 08 46 3d 6d 37 62 3d
       -0.06558342 -0.0035609156 0.04834833 0.05522864
000090 55 06 cb bc 24 4f 29 3d 02 4a e6 3c 79 3f 82 bb
       -0.024783293 0.04133524 0.028111462 -0.0039748517
0000a0 11 7b 68 3d 89 07 9b 3c 06 13 c0 3c 1d 53 0a bd
       0.05675799 0.018924491 0.023446571 -0.03377067
0000b0 0a 85 3f bd 77 09 18 bb 18 d3 07 3c a0 fd 05 3b
       -0.046757735 -0.0023199 0.008290075 0.0020445362
0000c0 0d a4 b9 3c 12 b2 92 bd 6c e2 1a bd a9 42 9f bc
       0.022661233 -0.071628705 -0.03781359 -0.019440966
0000d0 3a 64 c3 bc 95 8a b3 bc 2e 44 8a ba e2 ba b8 3c
       -0.023851503 -0.021916667 -0.0010548884 0.02255005
0000e0 a4 a6 b9 bc bf 4b ea 3c 5d 30 49 bd 37 c0 19 3d
       -0.022662468 0.028600572 -0.04911839 0.037536826
0000f0 3d bd be bc 59 fd 07 3d f1 b9 4f 3c 23 8b ad 3a
       -0.023283595 0.033200596 0.012678609 0.0013240319
000100 44 92 a7 3d d9 a2 8c 3d e8 43 16 3c 39 f9 21 bd
       0.08182195 0.06866998 0.009171464 -0.039544318
000110 c3 40 a7 3d 4f 55 79 3c c7 5e 1c bd 5a c8 6d bc
       0.08166649 0.015218093 -0.038176324 -0.0145131
000120 cf 42 b8 3c ef 83 68 3d b7 28 4a 3b 44 7e 41 bc
       0.022492794 0.056766447 0.0030847022 -0.011809889
000130 25 cc d8 3c d3 d1 f7 ba 79 26 ae 3b 3e 19 8d bc
       0.026464531 -0.0018907137 0.005314645 -0.01722395
000140 03 2a 65 bb f0 ee ce bc ac 8f f7 3c ed 8f f1 bc
       -0.0034967668 -0.025260419 0.030219875 -0.029487574
000150 8a 31 68 3c cd 06 a0 bc ec 7c ee bc 95 19 aa bc
       0.014171967 -0.019534493 -0.029112302 -0.020764152
000160 6c bb 36 bd fb 40 00 bd 0f 7a 41 3d 49 3b 4f bd
       -0.044612333 -0.03131197 0.047235545 -0.050593648
000170 7e d7 93 3c c4 6f 65 ba b8 24 2e 3c e8 d4 df bc
       0.01804709 -0.0008752311 0.010628872 -0.027323201
000180 8b 5a b2 3b 9f f4 c0 3c 2c 5f 43 bd ac d4 c3 bc
       0.0054429225 0.023554144 -0.047698185 -0.02390512
000190 69 21 9b bc 8f 5b ea 3c 94 66 72 3d cb 68 4d bd
       -0.01893683 0.028608112 0.059179857 -0.050148766
0001a0 b4 10 0d bc 34 46 be 3c 4b f9 22 3d 11 a9 27 3d
       -0.008609939 0.023226835 0.039788526 0.04093272
0001b0 95 ca 00 ba ce 07 ab bd 8a 3c c7 3c d6 87 1c 3d
       -0.00049129996 -0.08351098 0.02432086 0.03821548
0001c0 77 a8 7d bc 17 2a 29 3d 13 2c a4 bb 6a c6 06 3c
       -0.01548206 0.041299906 -0.005010137 0.008226017
0001d0 d9 a0 46 3c cc ca 2e 3d 19 b1 8c bc 28 ce de bc
       0.01212331 0.04267387 -0.01717429 -0.027197912
0001e0 36 66 6e bc df 04 4d 3d f6 d9 76 3c 0a 96 e5 bb
       -0.014550736 0.050053474 0.015066614 -0.0070064114
0001f0 c7 b8 c3 bc 03 2b f9 bc 19 7d 3a 3d b7 f1 8a 3d
       -0.02389182 -0.030416017 0.04552946 0.06784385
000200 be e1 98 bc 9a 8d d0 bc ee 44 e8 3b 17 25 2d bc
       -0.01866233 -0.025458146 0.007088295 -0.010567925
000210 df 27 9c bc f6 86 08 bd a8 b0 67 3c 79 6c 4b 3c
       -0.01906198 -0.033331834 0.014141239 0.012415999
000220 8a 82 90 bd 40 e6 02 3d 67 c5 27 3c 02 90 eb 3b
       -0.07056148 0.031957865 0.0102399355 0.007188798
000230 6c 47 85 3c f6 9a fa bc 8b 77 6b bc 51 12 18 3c
       0.016269408 -0.03059147 -0.014371763 0.009281711
000240 92 a2 c4 bb 37 83 85 bc 6a 90 66 bd 99 af 26 bd
       -0.006000825 -0.01629792 -0.056290068 -0.040694807
000250 8c 43 c8 3c 28 a8 8e bd 67 1e 46 bd 29 8e ee 3c
       0.024446271 -0.06965667 -0.048368838 0.029120522
000260 78 5b a4 bd 45 d3 40 3d 8a 94 23 3d d4 c6 21 3d
       -0.08025259 0.047076482 0.03993658 0.039496258
000270 cb e8 5f bd 52 c1 8a bd 9b cd 07 bc dc 6e cc 3b
       -0.054665368 -0.06775154 -0.008288766 0.0062388014
000280 78 8b 4d 3d 8c 90 6f bb 0a 1c 48 bd a8 38 1f bd
       0.050181836 -0.0036554663 -0.048854865 -0.03887239
000290 bc d8 2e 3d a5 76 16 bd b1 42 c3 bc 4a 6e 22 bc
       0.042687163 -0.036734242 -0.023835512 -0.00991399
0002a0 f7 d5 09 bd 84 47 b5 bc 0f 3b 9d bc a4 8d 16 3d
       -0.03365132 -0.022128828 -0.0191932 0.036756173
0002b0 a4 8a 5d 3d 1c 9f e1 3b bc f5 47 bc cc 8b 34 bb
       0.054087296 0.0068854224 -0.012204584 -0.0027549146
0002c0 7a eb 20 bd ee 82 a4 3d 53 47 27 3d d4 32 e6 3b
       -0.039287068 0.08032785 0.040839504 0.007025102
0002d0 d8 ce 48 3c 66 9a 18 3d 68 52 63 bb b9 ae 53 bc
       0.012256347 0.03725662 -0.003468657 -0.012920075
0002e0 96 6c a6 3c 18 1b c0 bc d1 3c 0b 3d 83 23 2f bd
       0.02031545 -0.02345042 0.033993546 -0.042758476
0002f0 cc 12 7f 3c 0a 3c 4f bd c0 78 af bb 84 d8 25 bc
       0.015568446 -0.050594367 -0.0053549707 -0.010122422
000300 a2 2e 92 bd 47 1c 81 bd 35 29 fb bc 93 9e af 3c
       -0.07137801 -0.063042216 -0.030659297 0.021437919
000310 5b 85 91 bd 53 a8 c8 bc 53 1f 76 3d 91 be 0b 3c
       -0.07105514 -0.024494326 0.060088467 0.008529321
000320 0d 94 39 bd 9a c8 59 bd e5 8e 06 3c 66 a3 12 3c
       -0.045307208 -0.053169824 0.00821278 0.00895009
000330 8d ea b4 bc 69 c2 51 3c a0 d0 46 bc 73 96 a2 bc
       -0.022084499 0.012802699 -0.012134701 -0.01984713
000340 d9 1e 46 3a 11 97 f0 3c 0d 86 be bc 2b 32 f5 3c
       0.0007557697 0.02936891 -0.02325728 0.029931149
000350 a7 77 8c bc d4 be 56 bc d3 c2 68 3c 40 ce 79 3b
       -0.017146898 -0.01310702 0.014206606 0.003811732
000360 35 ee eb 3c 42 86 ee 3b 0a 5e 49 bd cb 78 6f 3d
       0.02880011 0.0072791884 -0.04916195 0.058464807
000370 c0 85 d6 bc e5 35 79 bc f5 32 82 bb 4c c4 d7 3c
       -0.026186824 -0.015210603 -0.0039733597 0.026338719
000380 6a 53 4c bb f9 aa 6c bc 12 40 43 3d 1c 26 b3 3c
       -0.0031177648 -0.01444506 0.047668524 0.021868758
000390 0f 4b 65 3c 9f 4a c6 bc 74 73 8d bd 71 77 d3 3c
       0.013994946 -0.024205504 -0.069067866 0.02581379
0003a0 d2 1c bf ba 01 9e e4 bb 0e ea ca bc 5a a4 23 bd
       -0.0014580733 -0.0069768433 -0.02476981 -0.03995166
0003b0 f2 e3 1a 3a 36 ab aa 3d 40 8f 4a bc 62 17 2f bd
       0.00059086 0.08333437 -0.012363255 -0.04274691
0003c0 6e c1 d5 3b 11 b5 33 bd 94 fb 16 3d 06 46 e8 3b
       0.0065233028 -0.04387385 0.036861017 0.0070884256
0003d0 f4 ff ac 39 a7 3b d9 bc 8c 97 e8 3c fa 86 95 3c
       0.00032997096 -0.026517702 0.028392576 0.018252838
0003e0 b7 39 9f 3c 4e b0 31 bd 9a 75 08 bd 71 2c a7 bb
       0.0194367 -0.043381028 -0.03331528 -0.0051017334
0003f0 0a fe 0b 3c a1 1b 30 3d 72 97 5b bd 2c a7 92 bd
       0.008544454 0.0429951 -0.053611226 -0.07160792

action_model._discrete_distribution.branches.1.bias f4 [3]
000000 c6 dd f9 b8 bb 68 31 bb 92 1e 62 3b
       -0.00011914554 -0.002707048 0.0034503085

action_model._discrete_distribution.branches.1.weight f4 [3, 128]
000000 ff f2 2d 3d 24 97 bd 3c e5 99 64 3c 32 fa 88 3d
       0.042468067 0.023143359 0.013952707 0.06688346
000010 a4 75 a7 ba 91 08 8f bb 04 e8 26 3c ea 8a bb 3c
       -0.0012776149 -0.004365035 0.010187153 0.022893388
000020 09 08 1e bd 32 84 be 3c ab 15 ad 3d cd 6f 57 3c
       -0.03858188 0.023256395 0.084513985 0.013149214
000030 7e 5e 1b 3d 90 cf bf 3b 4c 0c 17 ba 6d dc 63 3d
       0.03793191 0.005853601 -0.0005762025 0.055630136
000040 a8 e7 0d 3d 8d be a0 3a ac 95 89 ba 86 e9 09 3d
       0.034644753 0.001226382 -0.0010496876 0.03366997
000050 ef ac ea 3c c3 c5 91 bc a0 10 e2 3b de 66 f3 bc
       0.028646914 -0.017794495 0.0068989545 -0.029712137
000060 c6 fc 47 bd f7 41 b7 bc cb d6 d8 3c 1d c5 b8 bd
       -0.048825048 -0.022370322 0.026469609 -0.090219714
000070 3e c8 95 3d 50 48 94 bc b9 d4 05 3d 15 5b 04 bd
       0.07313584 -0.018100888 0.03267357 -0.032313425
000080 51 5b 45 3d d9 7d 07 bd f8 b8 e8 bb e9 bb db 39
       0.04818279 -0.033079002 -0.007102128 0.0004191094
000090 8a c5 77 3c b9 c3 29 bc b4 7c 28 bd e8 14 90 3b
       0.015122781 -0.010361605 -0.04113455 0.0043970235
0000a0 6c 37 4f 3d f0 07 d5 bc 61 20 5f 3d 42 5e 37 3d
       0.050589964 -0.026004761 0.05447424 0.044767626
0000b0 fa 0e 72 bc a6 63 22 3c 8f a8 7d bc 99 8e 17 3d
       -0.0147740785 0.009911453 -0.015482082 0.037001226
0000c0 bd 0a c5 3c a3 ab aa bc f6 57 02 bd df cd e2 bc
       0.024052972 -0.020833796 -0.031822167 -0.027686058
0000d0 f4 42 df bc 72 27 8c 3d 86 c7 14 bc 30 03 6a 3c
       -0.027253605 0.06843461 -0.009080773 0.0142829865
0000e0 03 04 26 3d 8f 17 88 bd 68 db 01 bd 75 2f db 3c
       0.04053117 -0.066451184 -0.031703383 0.026756028
0000f0 99 6e 4e 3d 4c 6d 96 3d 4f 91 3f 3d f8 49 83 3c
       0.050398443 0.073450655 0.046769436 0.016026482
000100 65 43 08 bd 9a b7 4c bc 34 be 68 bc e7 b8 5b 3d
       -0.033267397 -0.012494946 -0.014205504 0.053643133
000110 19 9b 5c bb 5c 11 a0 bc 03 93 df 3c b1 b7 58 3c
       -0.0033661781 -0.019539528 0.02729178 0.013227389
000120 e3 a5 cd bc 90 ed 70 3d f5 42 13 bd d2 09 2e 3d
       -0.025103515 0.058820307 -0.035952527 0.042489834
000130 1b 71 85 bd 89 dc 28 bc 51 ca 2a bd 2d b8 a4 bc
       -0.06515714 -0.010306486 -0.04169685 -0.020107353
000140 aa 54 f3 3c 49 a2 5e bd 31 6a 32 bc 75 02 41 bc
       0.029703457 -0.054353986 -0.010889576 -0.011780371
000150 d6 59 3f ba 0f 03 8a 3c 7d 9e 47 3d 10 aa 61 bb
       -0.00072994584 0.016847162 0.04873513 -0.003443364
000160 9d 15 27 bd 3a b5 38 3d de 18 a2 3c 13 50 d9 3c
       -0.040792096 0.045094706 0.019787248 0.02652744
000170 94 ab ed bb 40 80 5d 3d 1d 53 1b 3d 23 82 71 bd
       -0.0072531197 0.054077387 0.03792106 -0.058962
000180 11 6b 02 3d d5 71 a0 3c 79 10 01 bd ef 90 6a 3d
       0.031840388 0.01958553 -0.03150985 0.057267126
000190 61 83 a1 bd 3b b8 05 bc 47 d6 81 3c af 70 ca 3c
       -0.07886387 -0.0081616 0.015849246 0.024711935
0001a0 40 9e a8 3c 6a a3 c3 bc 26 31 62 3d d1 76 36 bc
       0.020583272 -0.023881633 0.055222653 -0.0111367265
0001b0 f7 59 06 3d 4e 7a b7 bc 13 47 02 bb e7 dc 09 bd
       0.03280064 -0.022397187 -0.001987879 -0.033657935
0001c0 61 0e ea 3c ab 3c 4f bc d1 53 c7 b8 ba 26 26 3c
       0.02857131 -0.012648742 -9.5046715e-05 0.010141069
0001d0 ec 3a b2 3c 34 f8 39 3d 44 b1 f5 3c 16 36 62 3d
       0.021756612 0.04540272 0.029991753 0.05522736
0001e0 c0 d3 82 3d 8b 2a 62 bb e1 a7 e0 bc e4 93 28 bd
       0.06388044 -0.003451022 -0.0274238 -0.041156664
0001f0 af 45 22 3d 61 c2 69 3d f1 00 dd 3c f7 70 5c 3d
       0.039617237 0.05707014 0.026977988 0.05381867
000200 f3 ab 72 bd a4 95 5a bd 7b bd 13 3c b1 ae 65 bd
       -0.059246015 -0.053365365 0.009017344 -0.0560748
000210 c2 11 0d 3d 3c 8d 20 3d ad 9b ac bc db 34 17 bd
       0.034440763 0.03919719 -0.021070326 -0.03691564
000220 fc 64 4f 3c 98 35 dc 3c 8a 01 a1 bd 87 eb 72 3b
       0.012658354 0.026881024 -0.07861622 0.0037066655
000230 36 4f 98 3c 4b c7 b2 3b 7d fe 6a 3c e8 7d bc 3c
       0.018592458 0.0054558865 0.014342901 0.023009256
000240 e4 01 4b bd 43 26 0b bd 0f 35 f4 3c 64 8b 80 bd
       -0.04956235 -0.033972036 0.029810457 -0.06276587
000250 db b4 39 3c 8b 48 10 bd b0 43 a0 bc bd a7 71 3c
       0.011334623 -0.035225432 -0.019563526 0.014749465
000260 23 8e 89 bb 36 23 a2 3c a1 6d cc 3b 4c a3 82 3c
       -0.004197852 0.01979218 0.0062386547 0.015947007
000270 ec f1 c0 3b d6 d6 bf bc 62 eb a5 3a da 41 89 3a
       0.0058882143 -0.023417871 0.001265865 0.0010471896
000280 96 0f 31 bb 1d 26 60 3d 8d d9 03 bb b2 70 b4 3d
       -0.0027017347 0.054723848 -0.0020118684 0.088105574
000290 0e 93 b2 3c db 07 83 3b 28 ef e2 bc 33 4e 14 3c
       0.021798637 0.003998739 -0.02770193 0.009051847
0002a0 26 24 c6 bc 49 b1 3e 3b ae ad 0b bd 41 92 a2 bc
       -0.024187159 0.002909737 -0.03410118 -0.01984513
0002b0 71 bb d3 bb a4 8d 25 bd e4 96 b4 bc 6f 28 3f bb
       -0.0064615537 -0.040418282 -0.022044607 -0.0029168387
0002c0 9c 02 0f bd aa bd 8d 3d 53 2e 76 3d 3e 5b 3e bd
       -0.034914598 0.06920941 0.060102772 -0.046473734
0002d0 6b d3 c6 bd e4 70 e1 3b cb 14 a2 3d 09 b8 ae 3c
       -0.097082935 0.0068799127 0.07914122 0.02132799
0002e0 e0 73 b1 bd 23 0e 7a 3c 04 26 19 bd 59 42 07 3d
       -0.086646795 0.0152621595 -0.03738977 0.03302226
0002f0 2c 16 45 3d 89 41 96 bd d6 cc c4 bd 1c c3 34 3c
       0.048116848 -0.073367186 -0.09609382 0.011032846
000300 98 e5 85 3a 5b b5 0f bd cb c6 50 3a f3 f1 6f bd
       0.0010215519 -0.035085063 0.0007964193 -0.05858035
000310 85 17 08 3c 5f 30 24 3d c1 0d 68 bd 3a 6e 2e bd
       0.008306389 0.040085193 -0.05665374 -0.04258559
000320 93 90 b4 bb 0a b5 50 bc 67 ab cb bb a3 55 8d bd
       -0.0055103987 -0.012738476 -0.006215501 -0.069010995
000330 5a 7d 00 bb fc 0c d3 bb f1 7f 71 bd cf f1 2d bd
       -0.0019605965 -0.006440757 -0.058959905 -0.042466935
000340 7f ce 97 bb c4 9a 63 3d 0a aa 31 bd e3 4d a7 bb
       -0.0046327705 0.055567518 -0.043375053 -0.0051057204
000350 84 8a 73 bd af bf 07 bd fd 5c 85 bc cb 91 53 bd
       -0.05945827 -0.033141788 -0.016279692 -0.05165271
000360 a9 19 fe bc eb 6c 2e bd d6 53 8d 3c 45 99 48 bd
       -0.031018095 -0.04258434 0.01725189 -0.048974294
000370 67 0e b2 3d a1 16 84 bc 38 a6 ae bd 14 0e a2 3d
       0.08694153 -0.016124072 -0.085277975 0.079128414
000380 3b 67 b4 3d af 83 5d 3d 5e 2b a9 3c 4a 5e d0 bb
       0.08808752 0.05408066 0.020650562 -0.0063588964
000390 ca e4 d2 3d 92 61 83 3d 8b 9c ac bc 64 2a 45 bd
       0.10297544 0.064150944 -0.02107074 -0.04813613
0003a0 e2 09 a2 3c f6 d9 73 bd dd 38 22 bd 86 59 53 3c
       0.019780103 -0.059534036 -0.03960501 0.012899762
0003b0 69 f7 9e bc a3 6b b1 3c 8d 0c 91 3b 82 87 02 bd
       -0.019405084 0.02165777 0.004426545 -0.03186751
0003c0 7f de 5e bc 8e 37 1d 3d a5 7f c6 3b 66 39 c3 bd
       -0.013602852 0.03838306 0.006057697 -0.09532432
0003d0 40 0a d4 bc 3f 05 57 bd 2b e9 00 bd c8 02 8e bd
       -0.025883794 -0.052495237 -0.031472366 -0.06934124
0003e0 14 94 57 3c 71 8a 3d 3d 00 2f 89 3d b2 e1 b1 3d
       0.013157863 0.046274606 0.06698418 0.08685626
0003f0 94 c0 e4 bc c1 8d 24 bd f9 69 91 bd 43 e8 d6 3c
       -0.02792386 -0.04017425 -0.07100291 0.026233798

action_model._discrete_distribution.branches.2.weight f4 [1, 128]
000000 ba 70 37 3b 04 93 19 ba a3 48 0b bb 7e ac 22 bc
       0.0027990774 -0.0005858394 -0.0021253012 -0.009928821
000010 d3 94 28 3c f3 c4 66 3c 1b e9 1a bc 4f 9e a1 bc
       0.010289389 0.014085042 -0.009454991 -0.019728808
000020 cb 46 25 3c 53 3c 9f 3c 90 42 ff bb c8 1f 66 3b
       0.010087679 0.019437945 -0.0077899173 0.0035114158
000030 98 f9 d3 3b 60 ec 25 bc 58 83 6d b9 f2 32 6a 39
       0.006468963 -0.010127157 -0.0002265101 0.00022334958
000040 8b 15 66 3c f3 9c c7 3a 3c 39 a1 b9 cf 11 51 3c
       0.014043222 0.001522927 -0.00030750956 0.012760594
000050 37 89 99 3a 40 0b ce bb 2f 16 35 3b 32 c3 cd bb
       0.0011713867 -0.006287962 0.002763163 -0.0062793726
000060 8f b9 26 3c e8 e4 17 3c f6 64 9d 3b 3d a6 8d bc
       0.010176077 0.009270884 0.0048032952 -0.017291183
000070 22 9c 60 3c ff 88 bc 3a a7 a7 63 bc 63 3d ab 3b
       0.0137091 0.001438409 -0.013894952 0.0052258237
000080 7d e8 7d bb 91 1d b9 ba 1d 0e 9d bc df 1d 6a bc
       -0.003874331 -0.0014123191 -0.019171769 -0.014289348
000090 d8 f8 ea 3b 3f a3 9c ba 25 99 ce ba 98 13 88 3b
       0.007170778 -0.0011950507 -0.0015762193 0.0041527264
0000a0 6b 65 7c bb ea 48 85 bb 63 cf 2f 3b 7b 88 23 3c
       -0.0038512598 -0.00406753 0.0026826493 0.00998127
0000b0 b2 07 52 bc 57 75 bd ba 9b ad 19 3c 38 ef 4c 3b
       -0.0128192175 -0.0014454526 0.00937977 0.0031270515
0000c0 b7 20 38 3c 47 38 44 3a 50 c3 d4 3b 66 8a 13 3c
       0.011238269 0.00074851926 0.0064930096 0.009005165
0000d0 f2 f7 3a 3c 50 46 61 ba a9 06 36 bc 75 88 03 bc
       0.011411654 -0.0008593546 -0.011109986 -0.008028139
0000e0 2f ae 1d 3c a5 4d 5d 3b 33 3b c7 3a b0 14 80 bc
       0.009624048 0.0033768204 0.0015200138 -0.015634865
0000f0 b3 12 41 bc 8b 5d d7 3b 07 94 86 3a fb 38 33 bc
       -0.011784243 0.0065724305 0.0010267504 -0.010938878
000100 8b 83 4d bc 83 5e 9c bc 01 56 05 3c f6 97 43 bb
       -0.012543569 -0.019088035 0.008138181 -0.0029845214
000110 75 6b f9 bb bf 0c 53 3c c0 f6 25 3c 23 17 c5 3b
       -0.007611687 0.012881457 0.010129631 0.006014721
000120 b2 97 11 3b aa e1 7e 3a 79 aa 91 ba 73 23 b7 3b
       0.0022215662 0.00097229576 -0.0011113427 0.0055889427
000130 cf c9 bd 3c 39 09 85 b8 77 8c bc bb e7 b3 8a bb
       0.023167519 -6.343652e-05 -0.0057540494 -0.004232872
000140 90 5f e2 3b 07 b6 d4 3b b5 f4 da 3b 32 19 36 3b
       0.0069083646 0.006491426 0.0066820034 0.0027786014
000150 10 b0 91 3b 83 4d 5c b9 bd 9a 07 3b 18 d9 70 3c
       0.004446037 -0.0002100971 0.0020691596 0.014700197
000160 23 36 68 3a 20 11 23 3c f9 f4 84 bb 97 15 01 3b
       0.00088581647 0.009952813 -0.0040575233 0.0019696706
000170 b8 59 36 3b 17 a9 25 3c 0a 49 fe ba 2f f4 0c 3b
       0.0027824473 0.010111115 -0.001940043 0.002150785
000180 78 94 80 3c bb 3e 46 3c f4 6f 2e bc 28 41 77 3c
       0.015695795 0.012099917 -0.010646809 0.015091218
000190 6c 3d 1a 38 47 34 26 3b a6 8c 9b 3c aa 93 75 3b
       3.6773665e-05 0.002536075 0.018987965 0.0037472048
0001a0 66 f7 91 3b e3 5d 07 bc 7f 7d de ba 9a 1a 01 3c
       0.004454541 -0.00826213 -0.0016974657 0.007879877
0001b0 7e a0 44 bc 53 ea be 3b 9b c4 34 ba bd 0b dd bb
       -0.012001155 0.0058262735 -0.00068957516 -0.006745784
0001c0 68 45 e2 3b 7e 75 9d ba 26 86 36 3c 80 ab db 3b
       0.0069052465 -0.0012013165 0.011140382 0.006703794
0001d0 7b b6 9c bb 40 39 66 bb df ae 1f bb 73 14 e2 bb
       -0.0047824956 -0.0035129339 -0.0024365706 -0.0068994104
0001e0 9e 53 05 bc 76 fa c0 39 ab d8 42 bc 0f 3b b4 3c
       -0.008137612 0.00036807702 -0.011892478 0.022000818
0001f0 cf 41 3d bc 62 f4 7b bb 9b a0 52 bb 91 c2 23 bc
       -0.0115513345 -0.0038445224 -0.0032139185 -0.009995119

discrete_action_output_shape f4 [1, 3]
000000 00 00 00 40 00 00 40 40 00 00 80 3f
       2.0 3.0 1.0

network_body._body_endoder.seq_layers.0.bias f4 [128]
000000 fa cc d5 3b 91 87 1b bc bf d7 ba 3b cb dd 59 bb
       0.0065246793 -0.009492771 0.0057019885 -0.0033243771
000010 e6 bd e3 bc 3d 89 ef bb 84 c1 f1 3b fb 06 c6 bc
       -0.027800512 -0.0073100612 0.007377805 -0.02417325
000020 46 9f 20 bc 9b cc d7 bb 07 8d 99 3a c3 96 33 bc
       -0.009803599 -0.00658567 0.0011715003 -0.010961237
000030 51 8d 53 bc 46 ca d7 ba cf a6 13 bb 63 b2 a4 bc
       -0.01291211 -0.001646348 -0.0022529846 -0.020104593
000040 0e 98 ee bc 3f 25 84 bc 18 bb d7 bc 36 64 d1 bb
       -0.02912524 -0.016131042 -0.02633433 -0.00639012
000050 e4 25 1b bd b0 d9 83 3c 11 72 a1 3c 34 7e 9f bc
       -0.037877932 0.016095012 0.019707711 -0.019469358
000060 65 0c 81 bc 5d a1 cf bc 36 63 86 bc b1 a1 6d bc
       -0.01575298 -0.025345499 -0.01640473 -0.014503882
000070 57 90 1b bc 5b 4c 1f bd 6f 9e 70 3c f1 d3 02 bd
       -0.0094948625 -0.038891178 0.014686211 -0.031940404
000080 11 e1 92 3a 74 b6 f7 bc 46 da aa 3c fe 3a 63 bb
       0.0011205991 -0.030238368 0.020856034 -0.0034672613
000090 2e 49 a5 3c 50 a8 f1 bc 57 4e 08 bd 5a 9d 05 bb
       0.020176496 -0.029499203 -0.033277836 -0.0020387978
0000a0 31 1d d2 bc 7b be f7 3b 38 31 b0 bc ab 5d 41 3c
       -0.025648685 0.007560549 -0.021507844 0.011802117
0000b0 73 e8 1a 3c cc bc 89 39 66 f3 25 3d 40 48 a5 bb
       0.009454834 0.0002627134 0.040515326 -0.0050440133
0000c0 d6 d9 95 bc 27 57 91 bc 5f b3 4c 3c bf 23 15 3c
       -0.018292349 -0.017741753 0.012493937 0.009102761
0000d0 bf 86 42 bc 8f c5 0e bc 3e ab 84 bc c3 de 3f 3c
       -0.011872946 -0.008714094 -0.016194936 0.011710825
0000e0 68 8c b7 bc 14 1b cb bc 9e 20 47 3c e0 8c 34 bc
       -0.022405818 -0.024793185 0.012153773 -0.011019915
0000f0 76 d7 88 bc c0 61 a3 bb 9a a7 40 3c 24 4a 40 bb
       -0.016704302 -0.004986018 0.011758709 -0.0029341066
000100 fb b0 b0 bc b7 cf d7 bc f8 63 ab bc 2b 58 06 bc
       -0.021568766 -0.026344163 -0.020921692 -0.008199732
000110 ca 8c 37 3c 30 8f 99 bc b0 c2 5f bc 31 69 2e 3c
       0.011203 -0.018745035 -0.013657257 0.010645197
000120 eb cc 8b 3b 9e 22 18 bd 1e b9 cd bb f1 81 9d bb
       0.0042663715 -0.03714239 -0.006278171 -0.00480675
000130 38 8d ba bc 03 8b d0 bc de 1f 4d 3b 42 8d 5c bc
       -0.022772416 -0.025456911 0.0031299512 -0.013461413
000140 85 bb b8 bc 6e 60 0a 3c 05 04 f7 bc 02 31 0f bd
       -0.022550354 0.008445842 -0.030153284 -0.034958847
000150 d0 be 0e bc 7b f3 8f 3c fc f8 87 bc 2e ed b9 bc
       -0.008712485 0.017572155 -0.016598217 -0.022696104
000160 60 91 78 bc e8 2a 89 3c 77 ce e7 bc 8f f4 d6 bc
       -0.015171379 0.016744092 -0.028296692 -0.026239661
000170 3f f1 bb bc 22 b9 4b bc ff 4b 2b bc ca 0a 18 bc
       -0.022942184 -0.012434276 -0.010455131 -0.009279916
000180 de aa 5b bc 88 3a c8 bc 3e 0a c2 bc 77 de 83 3b
       -0.013407437 -0.024441972 -0.023686524 0.0040243226
000190 da f0 40 bc 37 29 22 bd 3a b9 33 bc 36 1b 4c ba
       -0.0117761735 -0.039590087 -0.010969454 -0.0007786037
0001a0 da a0 49 bd f6 bb 2c 3c 97 2e ea bc a1 68 46 bb
       -0.049225666 0.01054286 -0.028586669 -0.0030274766
0001b0 bb 87 cb bc 03 61 ac 3a 54 60 8f bc e0 c1 7b 3c
       -0.024844995 0.001315147 -0.017501988 0.015366048
0001c0 18 76 96 bc 1f ae fb bb 2c 74 57 3c b9 c4 a7 bb
       -0.018366858 -0.007680669 0.013150256 -0.0051198867
0001d0 01 69 15 bc 88 16 fe bc 4e 51 0c bc e9 18 93 bc
       -0.009119273 -0.031016603 -0.008564306 -0.017956214
0001e0 8e 2f 5b bc aa f7 a2 3c 6c f2 c0 bc 82 aa 61 3b
       -0.013378037 0.019893486 -0.023553096 0.0034433906
0001f0 d6 c2 f6 bc da c6 1a bd 30 94 cd bc e1 09 b0 3a
       -0.030122202 -0.037787296 -0.025095075 0.0013430679

network_body._body_endoder.seq_layers.0.weight f4 [128, 639]
000000 a4 a6 90 bd 27 f1 b6 3b 94 93 2d 3d 19 bb a2 bc
       -0.07063034 0.005582947 0.04237707 -0.019864606
000010 9b 19 65 3c 2b c5 29 3d cb ac 86 3c 68 79 07 bd
       0.013983156 0.0414478 0.016439816 -0.033074766
000020 38 28 90 3c 24 71 0a 3d 3a cd ed 3c e9 00 82 bc
       0.017597303 0.033799306 0.029028524 -0.015869575
000030 3e 5e 2b 3d 9c e5 4c 3c e2 7a 9d 3c 81 df c7 bb
       0.041837923 0.012505915 0.019223634 -0.006099642
000040 ba 1a 0c bd 85 d2 90 bd 27 23 1d 3c c3 7c 9a bd
       -0.034205176 -0.070714034 0.0095909005 -0.07543328
000050 e2 f2 96 3d 23 fe ad 3d 55 72 df bc d5 17 4e 3d
       0.07370545 0.08495738 -0.027276197 0.050315697
000060 6c 3d 91 3d 57 31 99 bd 31 4f 44 3d 20 8d e0 3d
       0.070917934 -0.07480114 0.047927085 0.109644175
000070 35 d3 c5 3c f0 9e 79 3c 9c 02 03 3d ee 38 d2 bd
       0.024148563 0.015235648 0.03198491 -0.10264765
000080 01 0f 59 3d 37 86 1f ba d8 ac 9f bc a3 74 d6 3b
       0.052992824 -0.0006085368 -0.019491598 0.006544666
000090 b5 ee a9 bd 97 d9 34 3d 7c e9 43 bc cd 73 39 3d
       -0.08297483 0.044152822 -0.0119575225 0.04527645
0000a0 31 20 9c 3d d1 58 c2 3b be 0b 95 bc 1c 92 8f 3d
       0.076233275 0.005930998 -0.018194076 0.0701029
0000b0 a8 1b 9e 3c 32 0b 0c 3d 27 1c 5c bd 7b ec a2 bc
       0.019300297 0.034190364 -0.053737786 -0.019888153
0000c0 71 4c 39 bc 1e 5e 95 bd f9 81 21 bd 74 e8 b8 bc
       -0.011309729 -0.07293342 -0.039430592 -0.02257178
0000d0 c1 52 63 bd dd 64 73 bd d0 d1 4b bd ec ad 20 bc
       -0.055498842 -0.059422363 -0.04976064 -0.009807091
0000e0 7c 6e 58 3d 61 ed 75 3c 96 98 92 bd 49 60 b0 bc
       0.05283974 0.015010209 -0.0715801 -0.021530287
0000f0 17 5a 0a bc 46 d5 bc bd 42 6c 8a 3c 46 c1 87 3b
       -0.008444331 -0.09220366 0.016897324 0.004142913
000100 31 c1 42 bc cb f7 80 bd c7 87 99 3c 14 9a 15 bd
       -0.011886881 -0.06297263 0.018741501 -0.036523893
000110 77 ae 12 3d 98 63 22 3d b9 bc 48 bd 6a 5a db bc
       0.035810914 0.03964576 -0.049008105 -0.026776511
000120 b2 bf 0e bd e0 da 6a 3d 24 04 7d 3d 94 57 cc 3c
       -0.034850784 0.05733764 0.061771527 0.024944104
000130 b6 00 ad bd 0a 36 a6 bd 1e 66 8a 3c 3c 93 83 3d
       -0.08447401 -0.08115776 0.016894396 0.06424567
000140 db 27 05 bc 82 74 1f bd f1 c6 15 bd df a6 3d 3d
       -0.008127178 -0.03892947 -0.03656668 0.04630172
000150 9c a1 1c 3c 59 a7 c0 bd 1d df 98 bd 78 6d 20 bd
       0.009560015 -0.09406919 -0.074644305 -0.039166898
000160 07 e9 3b bc 17 b9 09 3b 0a 5f be 3d 27 63 93 3d
       -0.011469132 0.0021014863 0.09295471 0.07196646
000170 49 5e 98 3c 02 91 12 3e 2b 37 93 ba e0 ed ba bd
       0.018599646 0.14313129 -0.0011231651 -0.09127402
000180 0b d2 a3 bb 5f 19 24 3d e6 bd 7b bc fe 28 8d bd
       -0.0049994043 0.04006326 -0.0153651 -0.06892584
000190 89 04 89 bd 4e 49 f0 bc b7 d3 7f bd cf f5 ea 3b
       -0.06690318 -0.02933183 -0.062457766 0.007170416
0001a0 39 fa d6 bd 9d a0 3e bd 40 b8 b6 bd 8a 4e 9f bd
       -0.10496945 -0.04653989 -0.08921862 -0.07778652
0001b0 27 71 b1 bc 0c fc 45 3c 72 cc 15 ba 46 68 71 3d
       -0.0216604 0.012084018 -0.00057143637 0.058937334
0001c0 07 9d ff 3c d7 6c 33 3d 04 a7 05 bb c3 e5 88 ba
       0.031202806 0.04380497 -0.0020393739 -0.0010444451
0001d0 1a 3b fa 3c 19 40 57 bd 17 44 c7 bc 94 36 1a bd
       0.03054576 -0.052551363 -0.02432446 -0.037649706
0001e0 12 79 5d 3d 3a 8c 44 bd 34 81 94 3b 99 fa 9c bd
       0.05407054 -0.047985293 0.004532004 -0.07664985
0001f0 05 47 2b 3d fd 9b 36 3d 7e 18 4a 3d 93 21 71 3c
       0.041815776 0.044582356 0.049339764 0.014717477
000200 dd 60 7f 3c bb d7 d1 bc be c8 14 bd d5 c4 df 3d
       0.015587059 -0.025615564 -0.036324255 0.109262146
000210 b2 38 ed 3c 86 f2 21 bd 83 ca fa 3a e6 b9 b4 3b
       0.028957698 -0.03953793 0.001913384 0.005515325
000220 e4 33 37 3d d0 b7 e1 bd 47 5e 2e bc 01 80 15 bc
       0.04472722 -0.110213876 -0.010642595 -0.009124757
000230 dd ae 44 bd 29 1f 56 bd b0 71 28 bd 95 fa 07 be
       -0.048018325 -0.05227581 -0.041124046 -0.13279183
000240 4d 38 20 3d 18 7f 85 ba 79 fa fc bc 20 d4 ce 3c
       0.039116193 -0.0010184972 -0.030881153 0.025247633
000250 3f 76 95 bd 2d 7f 8a 3c f2 7c 0b bd fc 73 9b bd
       -0.07297944 0.016906345 -0.034054704 -0.07590482
000260 c6 6f 81 3d 06 16 3a 3d 68 9c 25 3d 11 fe e6 bd
       0.06320147 0.04543116 0.040432364 -0.11278928
000270 83 d8 cd bd 1f fa ea bc f9 e7 ce bc 96 4f f8 3b
       -0.10051062 -0.02868372 -0.025257098 0.0075778468
000280 28 10 f7 bd 09 bc 71 bd 4e 51 66 bd b0 90 11 bd
       -0.120636284 -0.059017215 -0.056229882 -0.035538375
000290 4e 96 be 3c af 30 c3 3c b1 cd 20 3d 9c 72 da bb
       0.02326503 0.023826925 0.039258663 -0.0066664945
0002a0 ee f7 65 bc 2e 08 b9 3b 49 9c c9 3b 14 40 8e bd
       -0.014036162 0.005646727 0.006152664 -0.06945816
0002b0 f5 ca 9f bd 8e 1a 85 3c 89 da 43 bc 9c a3 56 3c
       -0.07802383 0.016248014 -0.011953958 0.013100531
0002c0 10 51 f3 3c 65 44 b6 3c ce 5f e4 39 5a e7 c5 3c
       0.02970174 0.02224941 0.0004355893 0.024158169
0002d0 a2 e9 14 bd 9c 46 67 3d 5b 2b a0 3d 7f 8c 03 bd
       -0.036355622 0.056463823 0.078207694 -0.03211641
0002e0 7d 2a 44 bb 83 18 cc 3d 10 5d b6 3b 4e a2 ce bc
       -0.0029932552 0.09965613 0.005565293 -0.025223877
0002f0 7f 8a 26 ba 5e b7 bb bd 1b e5 90 bb 0d 99 43 3d
       -0.0006353035 -0.09165834 -0.0044218428 0.047753382
000300 c6 fd 8d bc f4 d4 26 3c cb bc 1b 3d 1f a4 f2 3c
       -0.017332923 0.010182608 0.038021844 0.029619275
000310 8b d0 52 3d 65 90 18 3c 5c 6a ab bd 84 58 ac bd
       0.051468413 0.00931177 -0.08369896 -0.084153205
000320 0a 5c e2 bc cb c8 9d 3c 92 ae 66 3d f2 b4 66 3d
       -0.027631778 0.019260785 0.056318827 0.056324907
000330 48 e0 bb 3d 42 b4 3c 3d 2b 9d 8b 3d 50 f9 89 bd
       0.09173638 0.046070345 0.06817087 -0.06737006
000340 ea cc be bd c8 97 2d bd 39 97 97 bd 70 c0 0c 3d
       -0.09316428 -0.042381078 -0.0740189 0.03436321
000350 29 fc f3 bb d4 87 7a bd 98 e3 51 bd d9 f3 ad 3d
       -0.0074458313 -0.061164692 -0.05124244 0.08493776
000360 15 07 b9 bd b0 40 91 3d 9b 3d aa bc b8 8b b0 bc
       -0.09034554 0.07092416 -0.020781329 -0.021550998
000370 f6 11 d7 3b cc 7c 81 bc 10 56 97 3c 09 d3 07 3d
       0.0065634204 -0.015806578 0.018473655 0.033160243
000380 33 fc c7 3c 25 67 f4 3d 39 d0 f4 bd e6 a7 05 bd
       0.02441225 0.11933736 -0.11953778 -0.032630824
000390 55 57 4f bd b9 09 7a ba 94 58 41 3d 64 1b 68 3c
       -0.050620396 -0.0009538192 0.047203615 0.014166687
0003a0 05 d9 17 bd 36 d5 c8 bd 89 e3 08 3d 2d 3d 40 bd
       -0.0370722 -0.09806292 0.03342012 -0.04693334
0003b0 ed 89 27 3d 1d d6 98 3d 25 a2 1a 3a 89 5e d3 3d
       0.04090302 0.07462714 0.0005898795 0.103207655
0003c0 dc fa 70 bd 71 88 94 ba 0e 3b b4 3a 36 e4 d9 3d
       -0.05883299 -0.0011332167 0.001375051 0.10639231
0003d0 7c d9 64 bd cf 95 e9 3c 35 86 1f 3b 7d ae 14 bd
       -0.05587147 0.028513817 0.0024341468 -0.036299217
0003e0 09 db ca bc 2e 03 dc bd bd b6 33 3b 9d 53 6d bd
       -0.024762647 -0.10742794 0.0027422153 -0.057941068
0003f0 58 cb 5e 3c 7a af 52 bd 87 02 a5 bc 68 24 e2 3d
       0.013598286 -0.05143688 -0.020142807 0.110421

network_body._body_endoder.seq_layers.2.bias f4 [128]
000000 49 be 5e 3c cc 6a 95 3a 30 43 d5 bc 93 76 b2 3b
       0.013595172 0.0011399626 -0.026033014 0.005446264
000010 87 97 a8 bc 01 f0 08 3c 0f 31 cc bb 92 af 26 3b
       -0.020580066 0.008358003 -0.006231434 0.0025434238
000020 5d 22 8c 3c c6 97 a4 3c 2c b3 e0 3c 1b 28 c2 bc
       0.01710623 0.020091902 0.027429186 -0.023700764
000030 fa e9 b3 3b ab e2 82 bc f4 2d 76 bc 66 2e 46 3c
       0.0054905387 -0.015977224 -0.0150256045 0.012096023
000040 cd 4d a3 b9 1d 35 00 bb f7 a3 da 3a 56 90 5c 3c
       -0.0003114775 -0.0019562908 0.0016680945 0.013462147
000050 18 69 9e 38 c4 e8 7f 3c a8 56 85 bb ac 49 22 bc
       7.553602e-05 0.0156194605 -0.004069168 -0.00990526
000060 93 3b e6 3b 7f e3 d0 bb be 06 b9 ba 4d 15 92 3c
       0.007026145 -0.006374776 -0.0014116389 0.017832423
000070 8b 24 a4 3c 5d b9 21 3b cf e0 82 bc 95 92 8c bc
       0.020036956 0.0024677136 -0.015976338 -0.01715974
000080 5c d7 92 3c 5e f4 1f 3c 81 58 dc ba 37 b8 c5 3c
       0.017924957 0.0097628515 -0.0016811044 0.024135692
000090 75 ca c2 3b f0 53 59 3b 53 34 76 3b 0d df 08 bd
       0.005944545 0.0033161603 0.0037567809 -0.033415843
0000a0 bb 04 b2 3c 8f f0 8b bc 59 f2 06 ba 00 b5 17 3c
       0.021730771 -0.01708248 -0.0005147807 0.009259462
0000b0 a3 91 e1 ba 4a 8b ab bc 64 92 47 bb dd 36 16 3c
       -0.0017209541 -0.020940442 -0.0030452246 0.009168354
0000c0 10 73 14 bb ac a7 cc 3c 3d 37 32 3c a7 23 9e 3b
       -0.002265159 0.024982296 0.010877428 0.0048260274
0000d0 d4 89 bb 3c 8a 90 83 3c 8c 47 8e 3c 1b 38 f1 bc
       0.02289287 0.016060133 0.0173681 -0.029445698
0000e0 79 af 94 3c 13 60 b1 bb 67 46 8f 3c 72 f7 b3 ba
       0.018150078 -0.0054130643 0.017489625 -0.0013730361
0000f0 a1 2b c2 3c ed 1a 35 3c 4a 40 1b 3c 1d 82 a7 bc
       0.023702445 0.011053783 0.009475777 -0.020447785
000100 49 e2 c1 3b ee b1 3c 3b e1 ee b7 bc 76 d0 d6 3b
       0.005916868 0.0028792578 -0.022452774 0.006555612
000110 e2 e2 b0 3c 90 d2 82 bc 00 8b 53 3b 6e 2c 5a bc
       0.021592561 -0.015969545 0.0032278895 -0.013316257
000120 6a d1 19 3b 04 df f5 bb 63 f5 78 bb 1a 6b 19 3c
       0.0023470768 -0.007503392 -0.0037988059 0.009363914
000130 e8 8d c1 ba fc b0 d6 bb c0 17 17 3c d0 6f a7 3c
       -0.0014767023 -0.00655186 0.009221971 0.020439059
000140 88 7f 83 bc 7b be 00 3c 4e f2 2f 3c cd 00 c7 39
       -0.016052023 0.007857914 0.010738922 0.00037956834
000150 1d f7 34 3c e5 f0 17 bd 7f 1d 9f bb 79 49 77 39
       0.0110452445 -0.03709497 -0.004855811 0.00023583126
000160 e5 bb 8b 3b 14 88 e1 3a ff 62 2e bb c4 31 65 3c
       0.004264342 0.0017206692 -0.00266093 0.013988916
000170 89 3d 30 3c 58 76 b2 bc 4f 3f ed 3b 2c c2 8d 3b
       0.010756859 -0.021784946 0.007240213 0.0043261256
000180 b1 ca 56 3d 38 24 93 3c bc 01 d0 3c 1d 74 b0 3b
       0.052439395 0.017961606 0.025391452 0.0053849355
000190 6d 05 9e 3c 68 6a 5c 3c b0 29 67 3a a6 32 56 3c
       0.019289697 0.013453104 0.00088181626 0.013073599
0001a0 5f f8 b6 bc 15 21 5f bb 27 05 85 3c 9f ed 9f bb
       -0.02233523 -0.0034046818 0.016237808 -0.0048806216
0001b0 0a b7 88 bc c1 56 b5 3c 63 1b 22 bd 43 56 3e 3c
       -0.016688842 0.022136094 -0.0395769 0.011617246
0001c0 41 7a 00 bc 13 d4 7e 3c 84 91 b8 bc 72 4e a6 3c
       -0.007841648 0.015553492 -0.022530325 0.020301078
0001d0 85 12 cc bc 01 38 59 3c b7 ee 4e bb e0 bd bf 3b
       -0.024911175 0.013257981 -0.003157539 0.0058514923
0001e0 f2 b3 72 3c 89 22 91 ba f6 8a 82 3b 2c 64 b1 3c
       0.01481341 -0.0011072914 0.0039838506 0.021654211
0001f0 61 50 99 bb 90 c1 3e 3c f5 82 60 3c d6 88 b2 3c
       -0.0046787714 0.011642829 0.013703098 0.021793764

network_body._body_endoder.seq_layers.2.weight f4 [128, 128]
000000 74 6b bf bd b4 5e 4b bd 07 a0 ca 3d a9 ec a9 3d
       -0.09346667 -0.049650863 0.09893804 0.082970925
000010 6d b7 1b 3e f5 f6 fe 3c 08 97 5d bd d4 82 33 be
       0.1520669 0.031123618 -0.054099113 -0.17530376
000020 25 b7 68 bd 7d d5 a6 bd f9 88 1b 3e 9c f2 19 be
       -0.056815285 -0.081461884 0.1518897 -0.15033954
000030 8a af d0 bd b6 2b e1 bd 87 e0 c2 bc b2 8d 8c 3d
       -0.101897314 -0.10994665 -0.023788704 0.06862964
000040 f8 30 b0 3d 71 0e 71 3d e7 e5 9b bc eb 52 99 3d
       0.0860309 0.058851663 -0.019030524 0.074865185
000050 99 60 8d bd e9 4b e0 3c 2b ed a4 3d eb 3a 8d bd
       -0.0690319 0.027379947 0.08053049 -0.06896003
000060 37 bc 0f be 57 f0 9e bd 72 7e a0 bb 06 92 b8 bd
       -0.14036642 -0.07760685 -0.004897886 -0.09012227
000070 1b db 18 3d 85 c9 49 3b b4 07 12 be 06 5d e1 3b
       0.03731833 0.003079028 -0.14260751 0.0068775443
000080 c7 56 99 bd 3d 4f 0f 3e 10 23 f0 bc 3f b8 a2 3d
       -0.074872546 0.13995071 -0.029313594 0.079452984
000090 a0 7e ff bd 37 e0 aa 3d ad 62 94 bd 56 bd a1 bd
       -0.12475324 0.08343547 -0.072453834 -0.07897441
0000a0 3a 8f 1a 3e 33 33 55 be 22 72 bb 3b 7f f7 4b 3d
       0.15093699 -0.20820312 0.005720393 0.049796578
0000b0 90 b1 f8 3c 0a cf f1 3d 40 bf c5 39 72 14 04 3d
       0.030358106 0.11807068 0.0003771726 0.03224606
0000c0 90 c3 be bd 84 43 90 3d 17 fe 7e bd 01 e5 98 bd
       -0.09314644 0.070441276 -0.062254038 -0.07465554
0000d0 d5 07 89 bd 4a e7 63 be f5 c4 10 be 5d f6 8e 3d
       -0.06690947 -0.22256199 -0.14137633 0.06980584
0000e0 dc a2 df 3d e2 04 8b bd 94 01 8e bd 1d 24 01 3e
       0.10919735 -0.06788041 -0.06933895 0.12611432
0000f0 13 d5 b3 3a cd 32 8f 3c 8f e0 04 3d 0a 88 f6 3d
       0.0013720117 0.017480278 0.03244072 0.12037666
000100 91 24 a3 3d bf ac af 3c 02 9f 21 bd 94 6d ab 3d
       0.07965959 0.021444676 -0.039458282 0.0837051
000110 22 5a d8 bd db 26 9b bd cc 45 ad bd 02 1f 14 bd
       -0.105640665 -0.075757705 -0.08460578 -0.036162384
000120 db 4f 45 3c 14 d7 04 3e 23 67 58 3b d1 fd a3 be
       0.012042965 0.12972671 0.0033020459 -0.32029584
000130 04 8a 7d bd 2a 3c 1b bd 35 2a b9 3c 21 12 60 bc
       -0.0618992 -0.037899174 0.022603134 -0.013676197
000140 d0 12 28 bd c8 9c 54 3c 38 9d 0c bd cf e3 01 bc
       -0.041033566 0.012976833 -0.034329623 -0.007927849
000150 8c a2 3d 3e d5 ca af bc d3 0f 02 3e c5 70 97 bd
       0.18519038 -0.021459023 0.12701349 -0.07394556
000160 88 9c 40 3d 7c d8 8b 3e a7 b0 c9 bd 6f 51 84 3d
       0.04702428 0.27313602 -0.09848147 0.06460845
000170 e5 84 fb 3c 18 60 c4 bd 71 27 de 3d 8b c7 95 bd
       0.030703017 -0.09588641 0.108473666 -0.073134504
000180 71 5b 11 3e 64 10 5f bc 8f 2e 6b 3c c1 80 0f be
       0.14195038 -0.013614748 0.014354362 -0.1401396
000190 3f 6b d4 bd ff 5d 11 bd 9f df ad 3d 89 79 c3 3d
       -0.10372018 -0.035490032 0.08489918 0.09544665
0001a0 e5 50 27 be 82 49 df 3d 6c bb 1b 3e 03 02 86 3d
       -0.16339453 0.109026924 0.15208215 0.065433525
0001b0 3d 94 a9 bc a6 5a 42 bd 11 ef 90 3c ee e0 b9 bd
       -0.020700568 -0.04744973 0.01769212 -0.09076105
0001c0 95 f2 5c bd 59 8e 4f 3d 3a 76 66 be 79 b4 30 be
       -0.05394228 0.050672863 -0.22506037 -0.17256345
0001d0 52 ea 39 be 40 1a 02 3d 1b 5d e2 bc ee 32 fd 3b
       -0.18155792 0.031763315 -0.027632287 0.0077270186
0001e0 42 2c 17 bd d3 ad c4 bc 43 86 94 bc 62 ed 44 be
       -0.036907442 -0.024008667 -0.018130427 -0.1923118
0001f0 26 f4 4f 3d df 18 fc bd 34 13 b1 3d e6 99 30 bd
       0.050769947 -0.12309431 0.08646241 -0.04311552
000200 a1 c9 47 be b3 bb c9 bd 9a 7b 3c 3c b5 a3 86 3d
       -0.19510509 -0.09850254 0.011504078 0.065741934
000210 85 e8 03 bc 0f 79 da bc b9 83 9f bc 9b 7e f2 3c
       -0.008051042 -0.026669053 -0.01947199 0.029601386
000220 67 a4 1f bd 5d e5 45 3e f0 64 8c be 47 9f 8f bd
       -0.038975146 0.19325776 -0.2742076 -0.070128016
000230 e8 5b 8d 3c 61 c8 fa bd fb 7b 7f be bd 60 9b bc
       0.017255738 -0.122452505 -0.24949639 -0.018967027
000240 8f 19 e9 bc 11 68 b8 bc d5 da 54 bd 16 4f e5 3d
       -0.02845457 -0.02251056 -0.051966507 0.11196725
000250 71 52 74 3d 36 d4 be bd 73 72 61 3d 53 e4 77 3d
       0.059648935 -0.0931782 0.055040788 0.06052048
000260 ab b0 bc bd b1 b0 e8 bd 73 5c 3b 3c 6b 84 c3 bd
       -0.09213384 -0.11361826 0.011435616 -0.09546741
000270 bf 04 87 bd 18 bd a0 3d 56 4d ee bc bb cd 00 bd
       -0.06592702 0.07848567 -0.029089611 -0.0314462
000280 c1 e7 35 be b4 bc 01 bd 29 ec cf 3c 8f 91 bb 3c
       -0.17764188 -0.031674102 0.025381165 0.022896556
000290 0d d3 1b 3e 09 11 01 3e 6a a7 b3 3b 71 30 1c 3d
       0.15217228 0.12604155 0.005482604 0.038132135
0002a0 fe b4 41 3e 3a 75 c2 3c 3f 32 65 bd 49 dc d3 bc
       0.189167 0.023737539 -0.05595612 -0.025861876
0002b0 16 b9 9e 3d 45 45 13 be 68 92 ae bc cd 6a 58 3e
       0.07750146 -0.14381893 -0.021310046 0.21134491
0002c0 f7 69 c7 bc 38 9a 17 3e 8f b7 ec bc 74 ee 4a be
       -0.02434252 0.14804924 -0.028896121 -0.19817525
0002d0 00 2a a7 3c 6f 92 01 3e 78 eb d0 bb 97 02 6b bd
       0.02040577 0.12653516 -0.0063757263 -0.057375517
0002e0 e6 ab 36 bd 0c 53 24 3b b3 cf ac 3d 5d 8f f1 3d
       -0.04459753 0.0025073914 0.08438053 0.117949225
0002f0 fa a6 62 3c 2b 32 a9 3c 53 ca 03 3e 52 3e 44 3d
       0.013833756 0.020653805 0.1287015 0.047910996
000300 14 3d a5 3d 1b 9e f2 3c 0f cf 94 3d 1f 09 98 3c
       0.0806829 0.029616406 0.07266056 0.018559037
000310 69 6e 54 bc 66 34 ab 3d df 9e 77 bd b0 52 13 be
       -0.012965777 0.083596036 -0.060454246 -0.14387012
000320 a4 ef 23 3e 0b ee e3 bc 15 cd 19 bd 77 cc 65 bc
       0.16009384 -0.027823469 -0.037549097 -0.014025799
000330 a2 a2 e2 bd 14 f9 12 bd 67 80 24 be e5 57 81 3d
       -0.11066176 -0.03588207 -0.16064607 0.06315593
000340 19 79 a1 3d 9a 41 88 bd e6 25 e1 bd 76 3b 60 bd
       0.07884426 -0.066531375 -0.10993557 -0.054744206
000350 fd 50 85 3d 2d a6 da bc 31 1a 02 3e 9f 10 20 bd
       0.06509588 -0.026690567 0.12705304 -0.03907835
000360 73 9d 0a bd 55 d0 ba 3c 31 67 bc bc 8c 26 ee bd
       -0.03384156 0.022804419 -0.022998424 -0.11628446
000370 11 fd 4f 3e db 74 5b 3e c1 a6 37 bd 06 5f 0d bd
       0.20311381 0.21431296 -0.044836763 -0.03451445
000380 15 8d 9c bc dc 11 7c 3d da 5e e2 3d 92 a5 54 bd
       -0.019110242 0.06154047 0.11053248 -0.051915713
000390 fa 11 00 3d 40 ae a8 3c 1c be b7 3d c1 67 c9 bd
       0.031267144 0.020590901 0.08971807 -0.098342426
0003a0 f2 1d c0 bd 47 09 7d bd 3f 79 22 3e 11 73 84 3d
       -0.093807116 -0.061776426 0.15866564 0.0646726
0003b0 22 23 6e bd d1 23 bc 3d 76 a0 12 be c5 f1 e4 bd
       -0.058138974 0.09186519 -0.14319023 -0.111789264
0003c0 be e1 c1 3d e7 f4 95 3d b7 8d b0 bc 2b 91 43 bd
       0.09466885 0.07322102 -0.02155195 -0.047745865
0003d0 f4 f1 2f 3d de 06 2a 3c 96 23 05 3d 04 7a 0a bd
       0.042955354 0.010377614 0.03250464 -0.03380777
0003e0 ec 94 c7 bb a4 99 66 be 80 72 e8 3b 6d 6e e8 3d
       -0.006090751 -0.22519547 0.0070937276 0.11349187
0003f0 ba c2 87 bc 24 02 e4 bd 8e cf 35 bd f2 6d 62 3d
       -0.016572345 -0.11133221 -0.044387393 0.055280633
