Assets/ZooheimTest/Models/run2/DeerBehavior/checkpoint.pt (torch, 916956 bytes, 59 tensors)

discrete_act_size_vector f4 [1, 3]
2.0 3.0 1.0
00000000: 0000 0040 0000 4040 0000 803f

network_body.observation_encoder.processors.0.normalizer.running_mean f4 [150]
0.11737702 0.64808995 0.17530525 0.008101642 0.004299679 0.002419433 0.002557687 0.0021982274
0.006069321 0.1626291 0.117695004 0.64283633 0.17924547 0.007728358 0.004175249 0.002820368
0.0022950042 0.00275124 0.006304352 0.1619477 0.11927114 0.6537861 0.17411621 0.006967966
0.004119949 0.0020737997 0.0025023846 0.0017143411 0.0045761843 0.1599996 0.108584166 0.6653717
0.16842021 0.007244472 0.0037743158 0.0029447954 0.0022535287 0.0023088304 0.004147599 0.16211079
0.11584245 0.6601042 0.1678671 0.006124621 0.0042167264 0.0023641312 0.0022258784 0.0016866901
0.005765164 0.16544431 0.10048253 0.6689662 0.17132346 0.005778986 0.004133774 0.0038434416
0.002488559 0.0019217205 0.0075209783 0.17105313 0.108473554 0.6582656 0.17063226 0.0076177604
0.004714439 0.0030415729 0.002709765 0.0016590395 0.006221399 0.16974308 0.08660187 0.6833448
0.1746001 0.005308926 0.004175249 0.0035392847 0.0016313888 0.0014931355 0.0043135015 0.17545365
0.09471731 0.6670169 0.17986754 0.0060001947 0.0047420887 0.0031936523 0.0026406376 0.0014516596
0.0063181785 0.17557558 0.07084099 0.68975955 0.17757256 0.0060278447 0.005322752 0.004050822
0.0021982272 0.0012581048 0.0080878185 0.18487906 0.07988277 0.68069017 0.17556785 0.0060831453
0.005709861 0.0038987435 0.0026682888 0.0015346115 0.008018691 0.18274567 0.06485461 0.68779653
0.1846373 0.0058619375 0.0065532075 0.0047420883 0.0031383499 0.0010230746 0.0067329346 0.19374543
0.07085483 0.68171334 0.18376629 0.0056822104 0.0058204643 0.0044932324 0.0022120534 0.0015069608
0.009055589 0.19438457 0.06455046 0.69581515 0.17393655 0.006511731 0.006207573 0.004424105
0.0019631973 0.0013963578 0.008931166 0.20911358 0.071255736 0.6969488 0.16589008 0.005198325
0.007064745 0.0052951006 0.0019770223 0.0017972931 0.007921915 0.20986047
00000000: 5d63 f03d 39e9 253f 3883 333e c0bc 043c
00000010: 52e4 8c3b 5a8f 1e3b de9e 273b 2310 103b
00000020: 28e1 c63b 3e88 263e 140a f13d ec90 243f
00000030: 208c 373e 2a3e fd3b 87d0 883b ecd5 383b
00000040: c867 163b 264e 343b bd94 ce3b 9ed5 253e
00000050: 6d44 f43d 875e 273f 854b 323e 8953 e43b
00000060: a300 873b 96e8 073b 0cff 233b beb3 e03a
00000070: d1f3 953b efd6 233e 6061 de3d cd55 2a3f
00000080: 5976 2c3e 0963 ed3b 835a 773b 78fd 403b
00000090: f0af 133b bf4f 173b 95e8 873b 5f00 263e
000000a0: ce3e ed3d 97fc 283f 5ae5 2b3e 0bb1 c83b
000000b0: 772c 8a3b 8aef 1a3b 0be0 113b ee13 dd3a
000000c0: b3e9 bc3b 3c6a 293e c9c9 cd3d 5e41 2b3f
000000d0: 6b6f 2f3e a65d bd3b 9c74 873b 40e2 7b3b
000000e0: 1817 233b 3de2 fb3a 8a72 f63b 8d28 2f3e
000000f0: 6227 de3d 1884 283f 39ba 2e3e 689e f93b
00000100: 957b 9a3b 2055 473b 5096 313b 2174 d93a
00000110: e1dc cb3b 21d1 2d3e 525c b13d afef 2e3f
00000120: 5eca 323e 80f6 ad3b 87d0 883b 58f3 673b
00000130: 53d4 d53a 50b5 c33a 4658 8d3b 1faa 333e
00000140: 26fb c13d 9fc1 2a3f 322f 383e 489d c43b
00000150: 8663 9b3b 984c 513b 8c0e 2d3b 9d45 be3a
00000160: b908 cf3b 16ca 333e 1515 913d 1594 303f
00000170: 95d5 353e 3a85 c53b 7b6a ae3b c2bc 843b
00000180: 2210 103b fee6 a43a c582 043c f050 3d3e
00000190: 9499 a33d b641 2e3f 0fc8 333e 1f55 c73b
000001a0: c919 bb3b 1082 7f3b 75de 2e3b 0425 c93a
000001b0: d460 033c ae21 3b3e 7ed2 843d 6f13 303f
000001c0: 8f11 3d3e 7f15 c03b 4abc d63b 8563 9b3b
000001d0: c6ac 4d3b b018 863a f39f dc3b 3465 463e
000001e0: 561c 913d c484 2e3f 3b2d 3c3e d631 ba3b
000001f0: 98b9 be3b f73b 933b 19f8 103b 3785 c53a
00000200: e55d 143c c00c 473e 0833 843d f120 323f
00000210: 6c1c 323e 5c60 d53b e668 cb3b 15f8 903b
00000220: fca8 003b fe05 b73a 0654 123c df21 563e
00000230: 87ee 913d 3d6b 323f 17df 293e b656 aa3b
00000240: 607f e73b 8682 ad3b ee90 013b 2693 eb3a
00000250: ebca 013c aae5 563e

network_body.observation_encoder.processors.0.normalizer.running_variance f4 [150]
7494.4688 16497.482 10458.129 582.2525 310.66284 175.57658 185.52687 159.65054
437.33554 2239.7732 7512.0615 16608.041 10642.085 555.6799 301.73898 204.42453
166.61905 199.45253 454.12524 2350.3708 7599.048 16373.115 10402.181 501.48807
297.77222 150.68893 181.54701 124.787415 330.48523 2217.2402 7002.1797 16105.655
10131.306 521.20404 272.9696 213.37276 163.63268 167.61443 299.7556 2297.9639
7409.3564 16229.665 10104.755 441.28677 304.7139 171.59569 161.64163 122.79422
415.5961 2499.3281 6538.691 16018.725 10269.959 416.5844 298.76398 277.93155
180.55206 139.7329 540.9084 2551.7317 6995.916 16272.005 10237.057 547.8025
340.39227 220.33087 196.46893 120.800896 448.20035 2542.2058 5722.527 15652.322
10424.974 382.96136 301.739 256.09387 118.807526 108.83872 311.65417 2467.037
6203.0903 16066.102 10670.928 432.39578 342.37338 231.2623 191.4956 105.84758
455.1127 2633.484 4762.012 15479.203 10564.257 434.37183 383.95074 292.81305
159.65047 91.88551 581.26843 2758.0195 5317.4385 15722.216 10470.46 438.32355
411.6418 281.90063 193.48505 111.82967 576.34924 2760.17 4387.7676 15532.818
10890.169 422.5145 471.8937 342.37335 227.28763 74.92426 484.7211 2797.6406
4762.8696 15695.402 10850.378 409.66464 419.54953 324.53967 160.64606 109.8357
650.06854 2889.8743 4368.614 15310.32 10393.706 468.93307 447.21274 319.58426
142.72122 101.858955 641.2305 2947.463 4787.7466 15278.115 10009.483 375.04538
508.38983 381.97195 143.71729 130.76634 569.4608 2968.2483
00000000: c033 ea45 f7e2 8046 8468 2346 2990 1144
00000010: d854 9b43 9b93 2f43 e186 3943 8aa6 1f43
00000020: f3aa da43 5ffc 0b45 7ec0 ea45 15c0 8146
00000030: 5748 2646 83eb 0a44 97de 9643 ae6c 4c43
00000040: 7a9e 2643 d973 4743 0810 e343 efe5 1245
00000050: 6278 ed45 76d4 7f46 b988 2246 79be fa43
00000060: d8e2 9443 5eb0 1643 098c 3543 2893 f942
00000070: 1c3e a543 d893 0a45 70d1 da45 9fa6 7b46
00000080: 394d 1e46 0f4d 0244 1c7c 8843 6d5f 5543
00000090: f7a1 2343 4b9d 2743 b8e0 9543 6c9f 0f45
000000a0: da8a e745 a996 7d46 05e3 1d46 b5a4 dc43
000000b0: 615b 9843 7f98 2b43 42a4 2143 a496 f542
000000c0: 4dcc cf43 4035 1c45 8755 cc45 e64a 7a46
000000d0: d677 2046 ce4a d043 ca61 9543 3df7 8a43
000000e0: 548d 3443 9fbb 0b43 233a 0744 b57b 1f45
000000f0: 549f da45 0540 7e46 3af4 1f46 5cf3 0844
00000100: 3632 aa43 b454 5c43 0c78 4443 0f9a f142
00000110: a519 e043 4be3 1e45 37d4 b245 4a91 7446
00000120: e5e3 2246 0e7b bf43 98de 9643 040c 8043
00000130: 749d ed42 6dad d942 bcd3 9b43 9830 1a45
00000140: b9d8 c145 6808 7b46 b6bb 2646 a932 d843
00000150: cb2f ab43 2643 6743 e07e 3f43 f6b1 d342
00000160: 6d8e e343 be97 2445 19d0 9445 d0dc 7146
00000170: 0711 2546 982f d943 b2f9 bf43 1268 9243
00000180: 85a6 1f43 62c5 b742 2e51 1144 5060 2c45
00000190: 822b a645 dda8 7546 d799 2346 6a29 db43
000001a0: 27d2 cd43 48f3 8c43 2c7c 4143 cba8 df42
000001b0: 5a16 1044 b882 2c45 241e 8945 46b3 7246
000001c0: ad28 2a46 db41 d343 65f2 eb43 ca2f ab43
000001d0: a249 6343 39d9 9542 4d5c f243 40da 2e45
000001e0: f5d6 9445 9c3d 7546 8389 2946 13d5 cc43
000001f0: 57c6 d143 1445 a243 64a5 2043 e1ab db42
00000200: 6384 2244 fd9d 3445 e984 8845 4839 6f46
00000210: d366 2246 6f77 ea43 3b9b df43 c9ca 9f43
00000220: a2b8 0e43 c9b7 cb42 c14e 2044 6837 3845
00000230: f99d 9545 76b8 6e46 ef65 1c46 cf85 bb43
00000240: e631 fe43 69fc be43 a0b7 0f43 2fc4 0243
00000250: 7e5d 0e44 f983 3945

network_body.observation_encoder.processors.1.normalizer.running_mean f4 [6]
96.336754 168.24298 96.461 168.57721 96.58247 168.91034
00000000: 6bac c042 343e 2843 08ec c042 c493 2843
00000010: 3a2a c142 0ce9 2843

network_body.observation_encoder.processors.1.normalizer.running_variance f4 [6]
1.782251e+07 6.3150516e+07 1.7293238e+07 5.905656e+07 1.6824028e+07 5.4953336e+07
00000000: 97f9 874b 6de6 704c dbef 834b 6c48 614c
00000010: 6e5b 804b 5ea1 514c

network_body.processors.0.normalizer.running_mean f4 [150]
0.11737702 0.64808995 0.17530525 0.008101642 0.004299679 0.002419433 0.002557687 0.0021982274
0.006069321 0.1626291 0.117695004 0.64283633 0.17924547 0.007728358 0.004175249 0.002820368
0.0022950042 0.00275124 0.006304352 0.1619477 0.11927114 0.6537861 0.17411621 0.006967966
0.004119949 0.0020737997 0.0025023846 0.0017143411 0.0045761843 0.1599996 0.108584166 0.6653717
0.16842021 0.007244472 0.0037743158 0.0029447954 0.0022535287 0.0023088304 0.004147599 0.16211079
0.11584245 0.6601042 0.1678671 0.006124621 0.0042167264 0.0023641312 0.0022258784 0.0016866901
0.005765164 0.16544431 0.10048253 0.6689662 0.17132346 0.005778986 0.004133774 0.0038434416
0.002488559 0.0019217205 0.0075209783 0.17105313 0.108473554 0.6582656 0.17063226 0.0076177604
0.004714439 0.0030415729 0.002709765 0.0016590395 0.006221399 0.16974308 0.08660187 0.6833448
0.1746001 0.005308926 0.004175249 0.0035392847 0.0016313888 0.0014931355 0.0043135015 0.17545365
0.09471731 0.6670169 0.17986754 0.0060001947 0.0047420887 0.0031936523 0.0026406376 0.0014516596
0.0063181785 0.17557558 0.07084099 0.68975955 0.17757256 0.0060278447 0.005322752 0.004050822
0.0021982272 0.0012581048 0.0080878185 0.18487906 0.07988277 0.68069017 0.17556785 0.0060831453
0.005709861 0.0038987435 0.0026682888 0.0015346115 0.008018691 0.18274567 0.06485461 0.68779653
0.1846373 0.0058619375 0.0065532075 0.0047420883 0.0031383499 0.0010230746 0.0067329346 0.19374543
0.07085483 0.68171334 0.18376629 0.0056822104 0.0058204643 0.0044932324 0.0022120534 0.0015069608
0.009055589 0.19438457 0.06455046 0.69581515 0.17393655 0.006511731 0.006207573 0.004424105
0.0019631973 0.0013963578 0.008931166 0.20911358 0.071255736 0.6969488 0.16589008 0.005198325
0.007064745 0.0052951006 0.0019770223 0.0017972931 0.007921915 0.20986047
00000000: 5d63 f03d 39e9 253f 3883 333e c0bc 043c
00000010: 52e4 8c3b 5a8f 1e3b de9e 273b 2310 103b
00000020: 28e1 c63b 3e88 263e 140a f13d ec90 243f
00000030: 208c 373e 2a3e fd3b 87d0 883b ecd5 383b
00000040: c867 163b 264e 343b bd94 ce3b 9ed5 253e
00000050: 6d44 f43d 875e 273f 854b 323e 8953 e43b
00000060: a300 873b 96e8 073b 0cff 233b beb3 e03a
00000070: d1f3 953b efd6 233e 6061 de3d cd55 2a3f
00000080: 5976 2c3e 0963 ed3b 835a 773b 78fd 403b
00000090: f0af 133b bf4f 173b 95e8 873b 5f00 263e
000000a0: ce3e ed3d 97fc 283f 5ae5 2b3e 0bb1 c83b
000000b0: 772c 8a3b 8aef 1a3b 0be0 113b ee13 dd3a
000000c0: b3e9 bc3b 3c6a 293e c9c9 cd3d 5e41 2b3f
000000d0: 6b6f 2f3e a65d bd3b 9c74 873b 40e2 7b3b
000000e0: 1817 233b 3de2 fb3a 8a72 f63b 8d28 2f3e
000000f0: 6227 de3d 1884 283f 39ba 2e3e 689e f93b
00000100: 957b 9a3b 2055 473b 5096 313b 2174 d93a
00000110: e1dc cb3b 21d1 2d3e 525c b13d afef 2e3f
00000120: 5eca 323e 80f6 ad3b 87d0 883b 58f3 673b
00000130: 53d4 d53a 50b5 c33a 4658 8d3b 1faa 333e
00000140: 26fb c13d 9fc1 2a3f 322f 383e 489d c43b
00000150: 8663 9b3b 984c 513b 8c0e 2d3b 9d45 be3a
00000160: b908 cf3b 16ca 333e 1515 913d 1594 303f
00000170: 95d5 353e 3a85 c53b 7b6a ae3b c2bc 843b
00000180: 2210 103b fee6 a43a c582 043c f050 3d3e
00000190: 9499 a33d b641 2e3f 0fc8 333e 1f55 c73b
000001a0: c919 bb3b 1082 7f3b 75de 2e3b 0425 c93a
000001b0: d460 033c ae21 3b3e 7ed2 843d 6f13 303f
000001c0: 8f11 3d3e 7f15 c03b 4abc d63b 8563 9b3b
000001d0: c6ac 4d3b b018 863a f39f dc3b 3465 463e
000001e0: 561c 913d c484 2e3f 3b2d 3c3e d631 ba3b
000001f0: 98b9 be3b f73b 933b 19f8 103b 3785 c53a
00000200: e55d 143c c00c 473e 0833 843d f120 323f
00000210: 6c1c 323e 5c60 d53b e668 cb3b 15f8 903b
00000220: fca8 003b fe05 b73a 0654 123c df21 563e
00000230: 87ee 913d 3d6b 323f 17df 293e b656 aa3b
00000240: 607f e73b 8682 ad3b ee90 013b 2693 eb3a
00000250: ebca 013c aae5 563e

network_body.processors.0.normalizer.running_variance f4 [150]
7494.4688 16497.482 10458.129 582.2525 310.66284 175.57658 185.52687 159.65054
437.33554 2239.7732 7512.0615 16608.041 10642.085 555.6799 301.73898 204.42453
166.61905 199.45253 454.12524 2350.3708 7599.048 16373.115 10402.181 501.48807
297.77222 150.68893 181.54701 124.787415 330.48523 2217.2402 7002.1797 16105.655
10131.306 521.20404 272.9696 213.37276 163.63268 167.61443 299.7556 2297.9639
7409.3564 16229.665 10104.755 441.28677 304.7139 171.59569 161.64163 122.79422
415.5961 2499.3281 6538.691 16018.725 10269.959 416.5844 298.76398 277.93155
180.55206 139.7329 540.9084 2551.7317 6995.916 16272.005 10237.057 547.8025
340.39227 220.33087 196.46893 120.800896 448.20035 2542.2058 5722.527 15652.322
10424.974 382.96136 301.739 256.09387 118.807526 108.83872 311.65417 2467.037
6203.0903 16066.102 10670.928 432.39578 342.37338 231.2623 191.4956 105.84758
455.1127 2633.484 4762.012 15479.203 10564.257 434.37183 383.95074 292.81305
159.65047 91.88551 581.26843 2758.0195 5317.4385 15722.216 10470.46 438.32355
411.6418 281.90063 193.48505 111.82967 576.34924 2760.17 4387.7676 15532.818
10890.169 422.5145 471.8937 342.37335 227.28763 74.92426 484.7211 2797.6406
4762.8696 15695.402 10850.378 409.66464 419.54953 324.53967 160.64606 109.8357
650.06854 2889.8743 4368.614 15310.32 10393.706 468.93307 447.21274 319.58426
142.72122 101.858955 641.2305 2947.463 4787.7466 15278.115 10009.483 375.04538
508.38983 381.97195 143.71729 130.76634 569.4608 2968.2483
00000000: c033 ea45 f7e2 8046 8468 2346 2990 1144
00000010: d854 9b43 9b93 2f43 e186 3943 8aa6 1f43
00000020: f3aa da43 5ffc 0b45 7ec0 ea45 15c0 8146
00000030: 5748 2646 83eb 0a44 97de 9643 ae6c 4c43
00000040: 7a9e 2643 d973 4743 0810 e343 efe5 1245
00000050: 6278 ed45 76d4 7f46 b988 2246 79be fa43
00000060: d8e2 9443 5eb0 1643 098c 3543 2893 f942
00000070: 1c3e a543 d893 0a45 70d1 da45 9fa6 7b46
00000080: 394d 1e46 0f4d 0244 1c7c 8843 6d5f 5543
00000090: f7a1 2343 4b9d 2743 b8e0 9543 6c9f 0f45
000000a0: da8a e745 a996 7d46 05e3 1d46 b5a4 dc43
000000b0: 615b 9843 7f98 2b43 42a4 2143 a496 f542
000000c0: 4dcc cf43 4035 1c45 8755 cc45 e64a 7a46
000000d0: d677 2046 ce4a d043 ca61 9543 3df7 8a43
000000e0: 548d 3443 9fbb 0b43 233a 0744 b57b 1f45
000000f0: 549f da45 0540 7e46 3af4 1f46 5cf3 0844
00000100: 3632 aa43 b454 5c43 0c78 4443 0f9a f142
00000110: a519 e043 4be3 1e45 37d4 b245 4a91 7446
00000120: e5e3 2246 0e7b bf43 98de 9643 040c 8043
00000130: 749d ed42 6dad d942 bcd3 9b43 9830 1a45
00000140: b9d8 c145 6808 7b46 b6bb 2646 a932 d843
00000150: cb2f ab43 2643 6743 e07e 3f43 f6b1 d342
00000160: 6d8e e343 be97 2445 19d0 9445 d0dc 7146
00000170: 0711 2546 982f d943 b2f9 bf43 1268 9243
00000180: 85a6 1f43 62c5 b742 2e51 1144 5060 2c45
00000190: 822b a645 dda8 7546 d799 2346 6a29 db43
000001a0: 27d2 cd43 48f3 8c43 2c7c 4143 cba8 df42
000001b0: 5a16 1044 b882 2c45 241e 8945 46b3 7246
000001c0: ad28 2a46 db41 d343 65f2 eb43 ca2f ab43
000001d0: a249 6343 39d9 9542 4d5c f243 40da 2e45
000001e0: f5d6 9445 9c3d 7546 8389 2946 13d5 cc43
000001f0: 57c6 d143 1445 a243 64a5 2043 e1ab db42
00000200: 6384 2244 fd9d 3445 e984 8845 4839 6f46
00000210: d366 2246 6f77 ea43 3b9b df43 c9ca 9f43
00000220: a2b8 0e43 c9b7 cb42 c14e 2044 6837 3845
00000230: f99d 9545 76b8 6e46 ef65 1c46 cf85 bb43
00000240: e631 fe43 69fc be43 a0b7 0f43 2fc4 0243
00000250: 7e5d 0e44 f983 3945

network_body.processors.1.normalizer.running_mean f4 [6]
96.336754 168.24298 96.461 168.57721 96.58247 168.91034
00000000: 6bac c042 343e 2843 08ec c042 c493 2843
00000010: 3a2a c142 0ce9 2843

network_body.processors.1.normalizer.running_variance f4 [6]
1.782251e+07 6.3150516e+07 1.7293238e+07 5.905656e+07 1.6824028e+07 5.4953336e+07
00000000: 97f9 874b 6de6 704c dbef 834b 6c48 614c
00000010: 6e5b 804b 5ea1 514c

network_body._body_endoder.seq_layers.0.weight f4 [128, 156]
-0.023089852 -0.15487269 -0.020406492 -0.19855574 -0.108820714 -0.14273807 -0.04421683 0.02214833
0.044968784 -0.11148837 -0.21852253 0.006015842 0.045137692 -0.011267746 0.04073712 0.056107044
0.04389337 -0.03884638 0.0010526261 -0.095500626 -0.12576167 0.043443333 0.0025651539 -0.029153736
-0.07448424 0.020875894 -0.07768152 0.0686856 -0.053363696 -0.042604227 0.015023262 0.12806888
0.040910054 0.07171644 -0.095947094 -0.035898387 0.049398948 -0.06077483 -0.056975704 0.09431814
0.03770601 -0.08685851 -0.02728082 -0.030379165 -0.031524986 0.039792143 -0.050676562 -0.036905188
0.0538012 0.07841915 -0.16153404 0.1179023 0.021537067 -0.011734441 0.13336727 -0.16394563
-0.056515694 -0.08740523 0.20959535 -0.024997814 9.035243e-05 -0.0193226 -0.016539073 0.016155805
0.142543 0.01622613 0.04871157 0.0026934403 0.016012173 0.12560545 -0.016303128 0.14597058
0.08762592 0.06627634 -0.07007128 -0.15065248 0.048921328 0.123304024 -0.04841142 0.046526372
-0.08386947 0.14536577 -0.13146065 0.008893666 -0.07728266 0.00012495682 -0.10123524 -0.050415356
-0.09813188 0.0019755168 0.05386837 -0.011899971 0.10151142 0.037805956 0.003927363 -0.15309148
-0.15075168 0.012574764 0.033187337 -0.028548026 -0.06605393 0.04256629 -0.059652727 0.10381507
0.09440447 -0.006432413 -0.044650126 0.13552238 -0.14202106 0.26965952 0.12794381 0.080933504
0.021067498 0.08715716 -0.16835962 -0.15198964 0.041939218 0.04494293 0.087676056 0.08620279
-0.042732015 0.27723154 -0.14528653 -0.021367677 0.060945373 0.0019245602 -0.012428293 -0.04649576
-0.06535802 -0.098225996 -0.04333283 0.017273124 -0.03035419 -0.016347084 0.018526305 0.07313523
-0.029703265 -0.12998068 0.08644472 0.04928213 -0.029548554 0.0547756 0.07729166 -0.08492013
0.10369709 0.030917272 -0.04971109 0.09647322 -0.008795818 -0.09722907 -0.1778318 0.048622787
-0.18839344 -0.04193931 0.15742871 0.091219306 0.03058524 -0.04155355 -0.038526732 -0.021120176
-0.10452489 -0.08638112 -0.014190211 0.029146671 -0.14484926 0.07881953 -0.08840251 -0.042021193
-0.06998334 0.06766753 0.058364753 0.0926023 -0.11100943 -0.097816095 0.030114785 -0.06663325
0.0077837813 0.040767897 -0.060168754 0.030080725 -0.013121309 0.07584779 0.086553305 0.030851707
0.040634364 0.063545905 -0.033585005 0.09238571 0.08380633 0.13337572 0.051237054 -0.035039935
0.10911967 0.13920699 0.04149453 0.023910066 -0.051785816 -0.005294069 0.08418363 -0.13618506
0.01953206 0.022701254 -0.045571968 -0.02784539 -0.0887219 -0.069612406 -0.008693079 0.033575874
-0.25076044 0.17669372 -0.004371644 -0.062148813 -0.11172669 -0.0053322786 -0.18391979 -0.055829775
0.022040874 -0.047345344 -0.08862174 -0.21414165 0.10856128 -0.1849242 -0.030849373 0.03186397
-0.09737675 -0.052588828 0.17644504 -0.027093137 -0.017803658 -0.14602447 -0.056403697 -0.022751117
-0.07593653 0.080534466 -0.062580734 -0.067001626 0.08742683 0.117945306 -0.059965715 -0.104608886
0.061505143 -0.09053865 0.025652774 -0.15730356 -0.06782475 -0.08730876 -0.09597461 -0.039705854
-0.038915575 -0.061388806 0.14927487 -0.003214736 -0.094529964 0.036387265 0.057006158 -0.10014851
00000000: ee26 bdbc f296 1ebe 842b a7bc 3252 4bbe
00000010: 65dd debd ee29 12be b51c 35bd 6a70 b53c
00000020: 3031 383d 0454 e4bd 5fc4 5fbe 8a20 c53b
00000030: 4de2 383d 5a9c 38bc f7db 263d 80d0 653d
00000040: 89c9 333d 621d 1fbd 45f8 893a d595 c3bd
00000050: abc7 00be a3f1 313d 241c 283b d1d3 eebc
00000060: 318b 98bd ec03 ab3c 7d17 9fbd 09ab 8c3d
00000070: e493 5abd c581 2ebd 2124 763c 7d24 033e
00000080: 4d91 273d 12e0 923d e97f c4bd 300a 13bd
00000090: 8d56 4a3d 07ef 78bd 5b5f 69bd de29 c13d
000000a0: 9e71 1a3d e0e2 b1bd 077c dfbc badd f8bc
000000b0: 5820 01bd 16fd 223d 3a92 4fbd e529 17bd
000000c0: a65e 5c3d 389a a03d 2e69 25be c376 f13d
000000d0: 816e b03c d041 40bc 6e91 083e 5de1 27be
000000e0: 007d 67bd 8301 b3bd 2aa0 563e 37c8 ccbc
000000f0: 977b bd38 6e4a 9ebc f37c 87bc 2e59 843c
00000100: cbf6 113e a9ec 843c c985 473d 6e84 303b
00000110: f62b 833c b79e 003e 238e 85bc 5079 153e
00000120: 3875 b33d e4bb 873d 8881 8fbd a544 1abe
00000130: bb61 483d d286 fc3d 0e4b 46bd 7092 3e3d
00000140: c2c3 abbd c4da 143e 9f9d 06be bdb6 113c
00000150: 5f46 9ebd d706 0339 6c54 cfbd 5580 4ebd
00000160: 5ef9 c8bd ac77 013b 14a5 5c3d 19f8 42bc
00000170: 38e5 cf3d 6bda 1a3d 1cb1 803b 03c4 1cbe
00000180: a65e 1abe 6206 4e3c 72ef 073d 8ddd e9bc
00000190: 4847 87bd fd59 2e3d 6b56 74bd ff9c d43d
000001a0: 2157 c13d fec6 d2bb 0de3 36bd 61c6 0a3e
000001b0: f86d 11be d010 8a3e b403 033e 77c0 a53d
000001c0: bf95 ac3c 747f b23d 7766 2cbe 2ca3 1bbe
000001d0: 75c8 2b3d 1416 383d 818f b33d 178b b03d
000001e0: c407 2fbd 4bf1 8d3e fec5 14be 440b afbc
000001f0: dba1 793d 8641 fc3a 0aa0 4bbc 5772 3ebd
00000200: 6dda 85bd b62a c9bd c47d 31bd 5e80 8d3c
00000210: 5aa9 f8bc 52ea 85bc 7ac4 973c ecc7 953d
00000220: 4354 f3bc a819 05be ee09 b13d 0fdc 493d
00000230: cf0f f2bc 615c 603d 174b 9e3d 9bea adbd
00000240: 245f d43d 3846 fd3c db9d 4bbd c093 c53d
00000250: 561c 10bc 0920 c7bd 8a19 36be b028 473d
00000260: 36ea 40be 8ec8 2bbd fe34 213e 30d1 ba3d
00000270: e68d fa3c 0e34 2abd 35ce 1dbd 3804 adbc
00000280: 2511 d6bd 96e8 b0bd 0f7e 68bc 00c5 ee3c
00000290: 5d53 14be 226c a13d 600c b5bd 6a1e 2cbd
000002a0: 6d53 8fbd 4695 8a3d e10f 6f3d 46a6 bd3d
000002b0: e958 e3bd ce53 c8bd 48b3 f63c 0377 88bd
000002c0: 170f ff3b 3dfc 263d 8373 76bd da6b f63c
000002d0: c2fa 56bc 1656 9b3d dc42 b13d b8bc fc3c
000002e0: 3870 263d 5b24 823d 6e90 09bd b834 bd3d
000002f0: a7a2 ab3d a593 083e f2dd 513d 0986 0fbd
00000300: 227a df3d 478c 0e3e 2bf6 293d 0bdf c33c
00000310: 5d1d 54bd df79 adbb 7868 ac3d 1974 0bbe
00000320: b301 a03c fbf7 b93c aca9 3abd 041c e4bc
00000330: d4b3 b5bd f390 8ebd 6b6d 0ebc db86 093d
00000340: ac63 80be 33ef 343e 0240 8fbb c18f 7ebd
00000350: f6d0 e4bd 65ba aebb 7855 3cbe c3ad 64bd
00000360: 108f b43c 31ed 41bd 517f b5bd f347 5bbe
00000370: 6055 de3d c55c 3dbe d3b7 fcbc cb83 023d
00000380: 766d c7bd 6267 57bd 02ae 343e 6df2 ddbc
00000390: fad8 91bc 7087 15be 9007 67bd 8d60 babc
000003a0: 9d84 9bbd 41ef a43d 542a 80bd 2638 89bd
000003b0: d60c b33d 4f8d f13d 9c9e 75bd 2f3d d6bd
000003c0: d1ec 7b3d 546c b9bd c425 d23c 2f14 21be
000003d0: b4e7 8abd efce b2bd 568e c4bd 9ba2 22bd
000003e0: f065 1fbd d472 7bbd 83db 183e 52ae 52bb
000003f0: ed98 c1bd d00a 153d 4a7f 693d a91a cdbd

network_body._body_endoder.seq_layers.0.bias f4 [128]
-0.011862018 0.016917054 0.0131201735 0.019695615 -0.001978863 0.0023977659 0.002754164 0.02480238
0.013170815 -0.008953682 0.030329464 -0.033911187 -0.023444766 -0.018699909 0.017264597 0.03705525
0.0074200253 0.03945838 0.012426811 0.0049110176 0.01673334 0.026630308 -0.024891214 0.0020760405
-0.0064324066 0.017179154 0.008485402 -0.0049338485 -0.024582665 -0.030827178 0.016098443 0.003472775
-0.00888912 0.017327197 0.021817587 0.0072172335 -0.0024580895 0.028397717 0.019874187 0.017080072
-0.017733192 0.023537688 -0.005441625 0.009797856 0.015061575 0.006159224 -0.003308895 0.022109317
0.0028834592 0.033426512 0.022563102 -0.009054658 0.0022110895 0.0100263385 -0.020656932 0.0022671907
-0.023422545 0.014176739 0.0162844 -0.004042099 0.013414192 -0.0041874493 -0.010395192 -0.024101453
-0.0107350405 0.0026611346 0.019257948 0.018000327 -0.0055188304 0.016090376 0.0120981 0.016724152
-0.010331843 -0.012006299 -0.011163123 -0.0019491619 -0.004561254 0.02274547 -0.0145886 -0.0185458
0.0043229545 -0.011705097 -0.021180226 0.029347518 0.0068404777 -0.022373378 -0.035760928 0.01922741
-0.028164504 -0.0050185155 0.007970985 0.015993627 0.010535135 -0.007273698 0.025856161 -0.03122011
0.002932734 0.01102464 0.00025225975 0.002370601 -0.016942283 -0.014802147 -0.015838673 -0.00036776604
0.022686506 0.0036667227 -0.006711999 0.031163488 0.020609472 0.020881295 0.008520646 -0.00826313
0.04315073 0.036653195 -0.029807378 -0.008172769 0.014879776 -0.0031005817 -0.027970482 -0.00034651285
-0.015383071 0.019208571 -0.035133455 0.0017027911 0.017633427 -0.03260053 -0.01912769 -0.009503342
00000000: e958 42bc a295 8a3c fff5 563c b358 a13c
00000010: d0af 01bb d623 1d3b 347f 343b 5c2e cb3c
00000020: 67ca 573c 77b2 12bc 7f75 f83c 75e6 0abd
00000030: 3d0f c0bc 8d30 99bc 7c6e 8d3c 3fc7 173d
00000040: af23 f33b 1c9f 213d d399 4b3c 9aec a03b
00000050: 5c14 893c ce27 da3c a9e8 cbbc 2e0e 083b
00000060: f0c6 d2bb 4cbb 8c3c 5b06 0b3c 1fac a1bb
00000070: 9661 c9bc 4789 fcbc e2e0 833c 7f97 633b
00000080: aca3 11bc c4f1 8d3c ccba b23c 8b7e ec3b
00000090: e617 21bb 54a2 e83c 31cf a23c 82eb 8b3c
000000a0: 3345 91bc 1cd2 c03c a94f b2bb 3087 203c
000000b0: d3c4 763c 51d3 c93b 0cda 58bb 991e b53c
000000c0: 6bf8 3c3b 3dea 083d 41d6 b83c fd59 14bc
000000d0: ede7 103b 8345 243c ba38 a9bc 2695 143b
000000e0: a3e0 bfbc 8e45 683c dd66 853c 9673 84bb
000000f0: 33c7 5b3c df36 89bb 9850 2abc 6970 c5bc
00000100: 06e2 2fbc 6e66 2e3b d8c2 9d3c 6c75 933c
00000110: 4ed7 b4bb f7cf 833c 1c37 463c 1701 893c
00000120: e446 29bc 11b6 44bc 88e5 36bc 057b ffba
00000130: 9276 95bb b554 ba3c 0605 6fbc 5ded 97bc
00000140: 92a7 8d3b bcc6 3fbc 2782 adbc 356a f03c
00000150: 1626 e03b 6048 b7bc 0d7a 12bd cd82 9d3c
00000160: 3fb9 e6bc 5c72 a4bb bc98 023c 1105 833c
00000170: 8f9b 2c3c 3458 eebb 4dd0 d33c 51c1 ffbc
00000180: 1d33 403b b1a0 343c bb41 8439 165c 1b3b
00000190: 8bca 8abc b484 72bc 1bc0 81bc b9d0 c0b9
000001a0: 0dd9 b93c 664d 703b 54f0 dbbb 924a ff3c
000001b0: 32d5 a83c 400f ab3c 2e9a 0b3c 1462 07bc
000001c0: d2be 303d a921 163d 9a2e f4bc 14e7 05bc
000001d0: 4eca 733c 2133 4bbb 5a22 e5bc 2bac b5b9
000001e0: 4709 7cbc 4b5b 9d3c 19e8 0fbd 3030 df3a
000001f0: fa73 903c 2288 05bd acb1 9cbc e8b3 1bbc

network_body._body_endoder.seq_layers.2.weight f4 [128, 128]
-0.13129896 -0.043930996 -0.043830425 -0.0038422619 -0.11656609 -0.028923715 -0.11130734 0.107363485
-0.056113627 -0.1333479 -0.013435971 -0.05564435 0.0055805137 -0.053360205 -0.0073424126 0.065560885
-0.026134724 -0.16769902 0.03259652 -0.07565076 0.16092926 -0.007118214 0.0068775476 -0.07407495
0.050826542 0.05293853 0.15244415 0.028574178 -0.13176993 0.039254565 0.21869874 0.035067398
-0.03597851 -0.18958066 -0.12730445 0.009964963 -0.19587226 -0.06594267 -0.03973496 -0.02161944
0.098351285 -0.0026357046 0.027341366 -0.032036446 -0.0406074 -0.10756577 -0.0013241788 0.016261715
-0.037289098 0.006915807 0.0021306805 0.015455713 0.044235617 -0.076203294 0.039794724 0.045148663
0.13207208 -0.1783649 0.042352635 0.02739208 -0.104318194 -0.0893101 -0.016007926 -0.13018976
0.078823276 0.12001483 0.07354709 -0.22046131 0.06311709 0.080239475 -0.06162458 0.006884622
0.08471632 -0.009790088 -0.09677147 0.15214516 -0.08447407 0.0816161 0.081513844 -0.046179645
-0.120032184 0.052858733 -0.04891691 0.022421798 0.03631637 -0.06619956 0.016733304 0.12212476
0.09848448 -0.09010901 -0.08163089 0.002584199 -0.029999403 -0.086530715 0.14936273 -0.08190931
-0.1344751 0.017924907 0.013370325 0.02355637 0.030272458 -0.18932629 0.100009866 0.05652182
-0.019067448 -0.04689955 -0.08236645 -0.087351434 0.11582355 -0.010390766 -0.0034392984 0.06028719
0.09193771 0.26260707 0.021919116 0.09747304 0.038714703 -0.03398034 0.032997254 -0.09791899
0.059661776 0.20406407 -0.010003281 0.06408537 0.15264533 0.081336565 0.0014018036 -0.051068403
-0.011692328 -0.06690835 -0.10168188 0.15594395 -0.09373796 0.0786398 -0.084622554 -0.1102552
0.11028546 0.101743944 0.030965928 -0.013565178 -0.04578998 -0.115510724 -0.009987938 0.051147874
-0.1570251 0.14001757 0.086453326 0.016548743 -0.121274084 0.024874996 -0.080059394 -0.057373777
0.044217847 0.09666472 0.008077494 0.19697942 0.23158239 -0.073281065 -0.05266668 -0.009223144
-0.012790329 0.0859375 0.1261919 0.17155252 0.0017220918 0.076073594 0.065676525 -0.020218875
0.10770075 0.13295089 -0.035822228 0.08025025 0.03434178 0.15533096 -0.018059714 -0.00994661
-0.026479471 -0.14145443 -0.0026269106 0.015519162 0.03774736 -0.013372454 0.002060992 0.085742556
-0.11476937 0.08689555 -0.0156014925 -0.010823714 -0.043948207 0.03388645 0.017102908 -0.113278374
0.0577376 0.06485044 -0.14803654 0.0014243427 -0.15497431 0.10802646 -0.16044448 0.07960038
-0.16963346 0.0044528022 -0.22394107 0.1742347 0.03905184 -0.045247898 0.048491023 -0.061817612
0.1911278 -0.01631637 0.07046644 0.14865226 -0.13722484 -0.021036137 -0.1555613 -0.11430493
-0.08923383 -0.20203826 0.031957846 0.07514389 -0.051704008 0.06871185 0.020965459 -0.0066145016
-0.039096612 -0.060859207 -0.038934026 -0.019048823 -0.12890908 0.10527548 -0.07071545 -0.11914761
0.20939691 -0.02927846 -0.11978907 -0.06439606 0.07636218 0.08948297 0.06770491 0.037127104
-0.12285373 0.04628258 -0.10797691 -0.18386653 0.09509891 0.021133527 -0.18396834 -0.14967911
0.14622885 0.2341717 0.09657391 0.12395561 -0.0627807 -0.01541831 -0.124522716 -0.044120476
00000000: 3c73 06be fdf0 33bd 8887 33bd 75ce 7bbb
00000010: 34ba eebd 6df1 ecbc 1af5 e3bd 63e1 db3d
00000020: 67d7 65bd 5a8c 08be 8c22 5cbc 54eb 63bd
00000030: bedc b63b 3b90 5abd 9f98 f0bb c944 863d
00000040: 7d18 d6bc 4bb9 2bbe ee83 053d c9ee 9abd
00000050: a4ca 243e e83f e9bb 0d5d e13b 9bb4 97bd
00000060: 7e2f 503d 12d6 583d 521a 1c3e 6514 ea3c
00000070: b2ee 06be 65c9 203d 90f2 5f3e d5a2 0f3d
00000080: 345e 13bd 6f21 42be 195c 02be 1644 233c
00000090: bd92 48be f30c 87bd 20c1 22bd 401b b1bc
000000a0: 666c c93d c9bb 2cbb 00fb df3c a638 03bd
000000b0: f253 26bd 714b dcbd 1190 adba 4a37 853c
000000c0: 74bc 18bd fe9d e23b e3a2 0b3b f539 7d3c
000000d0: 6830 353d 7910 9cbd cbff 223d ceed 383d
000000e0: e73d 073e 4aa5 36be f579 2d3d 5b65 e03c
000000f0: c7a4 d5bd 37e8 b6bd 0e23 83bc 7750 05be
00000100: 196e a13d 56ca f53d db9f 963d 9cc0 61be
00000110: 8843 813d 9854 a43d 0e6a 7cbd 6598 e13b
00000120: c07f ad3d 9b66 20bc 1f30 c6bd f1cb 1b3e
00000130: be00 adbd 5826 a73d bbf0 a63d de26 3dbd
00000140: 6fd3 f5bd 6682 583d 195d 48bd ebad b73c
00000150: 79c0 143d a393 87bd 4814 893c 8c1c fa3d
00000160: 3bb2 c93d 138b b8bd 192e a7bd aa5b 293b
00000170: 4fc1 f5bc 0437 b1bd 8bf2 183e 11c0 a7bd
00000180: d7b3 09be 41d7 923c 350f 5b3c 4af9 c03c
00000190: f2fd f73c c0de 41be f9d1 cc3d 6d83 673d
000001a0: 5633 9cbc be19 40bd beaf a8bd 4fe5 b2bd
000001b0: e634 ed3d 083e 2abc da65 61bb b3ef 763d
000001c0: d749 bc3d 6f74 863e b88f b33c f29f c73d
000001d0: 4f93 1e3d f82e 0bbd 2128 073d c089 c8bd
000001e0: e85f 743d 2cf6 503e cde4 23bc 313f 833d
000001f0: 0f4f 1c3e c993 a63d b9bc b73a 1a2d 51bd
00000200: 2e91 3fbc 3f07 89bd 973e d0bd c5af 1f3e
00000210: b0f9 bfbd e70d a13d 974e adbd 7acd e1bd
00000220: 58dd e13d 215f d03d 42ac fd3c 7b40 5ebc
00000230: 468e 3bbd e390 ecbd 73a4 23bc 6f80 513d
00000240: 30cb 20be c460 0f3e 710e b13d 3b91 873c
00000250: 8c5e f8bd a6c6 cb3c 2ef6 a3bd c400 6bbd
00000260: c61d 353d 27f8 c53d 7757 043c f9b4 493e
00000270: ef23 6d3e 6214 96bd 04b9 57bd ab1c 17bc
00000280: 878e 51bc 0000 b03d 7338 013e 77ab 2f3e
00000290: d0b7 e13a 79cc 9b3d 6a81 863d 0ea2 a5bc
000002a0: 3692 dc3d 4724 083e 54ba 12bd 3e5a a43d
000002b0: f7a9 0c3d 140f 1f3e f7f1 93bc 1bf7 22bc
000002c0: 7aeb d8bc 6ed9 10be 3f28 2cbb 1544 7e3c
000002d0: fa9c 1a3d 2318 5bbc b511 073b cb99 af3d
000002e0: 340c ebbd 4bf6 b13d 679d 7fbc f255 31bc
000002f0: 0903 34bd 85cc 0a3d 661b 8c3c 7efe e7bd
00000300: 437e 6c3d 4fd0 843d e496 17be 03b1 ba3a
00000310: 96b1 1ebe fa3c dd3d 8f4b 24be 8605 a33d
00000320: 65b4 2dbe d0e8 913b cf50 65be 956a 323e
00000330: d2f4 1f3d dc55 39bd 869e 463d 7734 7dbd
00000340: 02b7 433e e8a9 85bc b550 903d 4c38 183e
00000350: ab84 0cbe fa53 acbc 764b 1fbe b418 eabd
00000360: 3ac0 b6bd 1ee3 4ebe 3be6 023d 0ae5 993d
00000370: 95c7 53bd ccb8 8c3d c1bf ab3c 76be d8bb
00000380: c523 20bd 8147 79bd 4979 1fbd 470c 9cbc
00000390: be00 04be ac9a d73d 43d3 90bd aa03 f4bd
000003a0: 256c 563e 62d9 efbc f953 f5bd 15e2 83bd
000003b0: c663 9c3d d942 b73d dfa8 8a3d 9712 183d
000003c0: bd9a fbbd cd92 3d3d 0023 ddbd 8247 3cbe
000003d0: 38c3 c23d 3820 ad3c 3262 3cbe 7b45 19be
000003e0: 04bd 153e b5ca 6f3e 8bc8 c53d 70dc fd3d
000003f0: 2b93 80bd 149d 7cbc c405 ffbd acb7 34bd

network_body._body_endoder.seq_layers.2.bias f4 [128]
0.0203012 0.0329694 0.012089094 0.017434504 0.0008957216 0.005794541 0.021133536 -0.004985182
0.0048871245 0.02834357 -0.011275123 0.010839482 0.0005419287 0.0017805035 0.014015314 -0.014918331
-0.001696722 -0.027732333 0.012251853 0.027322235 -0.00023343117 -0.018149229 0.0020055412 -0.011280737
-0.005638038 0.029188642 -0.023812603 0.012197252 0.01933832 0.0123782335 0.016989123 0.02459952
-0.021815937 -0.003314592 0.0006641787 0.022761766 -0.0070532872 0.016935226 -0.042652924 -0.011810099
-0.020659707 -0.0009314355 -0.004489095 0.03130955 -0.012715463 -0.037652865 0.009732012 -0.007605267
0.012154736 0.025889724 0.020138767 -0.0131128635 -0.0032907482 0.02652755 -0.021446668 0.0049294457
-0.012369971 -0.003800541 0.014412629 -0.039759196 0.033829156 -0.0038233644 -0.024928328 -0.020535965
-0.02889647 0.008570399 0.013181995 -0.0075507024 -0.0065260762 0.023347791 0.005058746 0.0254452
-0.011721325 -0.0020437576 -0.02099211 0.0027579241 0.0068139457 -0.0286503 -0.038880162 0.0023099314
0.01355001 -0.012136886 0.0132840965 0.0017285082 -0.016731009 -0.019108586 0.013566628 -0.018908137
0.0129368175 -0.0033203706 -0.041964382 -0.0012811568 0.014724943 -0.018152893 0.017984932 0.005845317
-0.011792445 0.016368369 0.020856349 -0.012336388 -0.020055719 0.027603727 0.0017466095 0.0073822225
-0.0060846377 -0.014471636 0.026978344 -0.009543676 -0.025221782 0.007202955 0.027054768 0.023100737
0.03368948 0.009798854 -0.004403569 0.0049281837 0.009217753 -0.009737466 0.043658026 0.035329107
0.007793559 -0.009779531 -0.026555305 0.010143295 -0.019876963 -0.0070825624 -0.005831013 -0.01636915
00000000: b44e a63c ec0a 073d 5611 463c ced2 8e3c
00000010: dcce 6a3a 22e0 bd3b 3d20 ad3c bd5a a3bb
00000020: 2c24 a03b c630 e83c 4bbb 38bc 1598 313c
00000030: 3810 0e3a c95f e93a 7da0 653c 046c 74bc
00000040: 8b64 deba eb2e e3bc ffbb 483c e1d2 df3c
00000050: 34c5 74b9 b1ad 94bc 666f 033b d7d2 38bc
00000060: 4abf b8bb 051d ef3c a612 c3bc fcd6 473c
00000070: 656b 9e3c 13ce 4a3c c62c 8b3c ef84 c93c
00000080: 56b7 b2bc a039 59bb 471c 2e3a e276 ba3c
00000090: 431f e7bb bebb 8a3c d5b4 2ebd 257f 41bc
000000a0: 8c3e a9bc 942b 74ba 4219 93bb 713e 003d
000000b0: 8454 50bc e439 1abd 0473 1f3c 9b35 f9bb
000000c0: a824 473c b016 d43c 0efa a43c 56d7 56bc
000000d0: 98a9 57bb 4e50 d93c ecb0 afbc 3087 a13b
000000e0: 6bab 4abc 7f12 79bb f322 6c3c 8ada 22bd
000000f0: 7190 0a3d 6991 7abb 7e36 ccbc 0a3b a8bc
00000100: 4ab8 ecbc dc6a 0c3c 4bf9 573c e26b f7bb
00000110: b2d8 d5bb de43 bf3c d6c3 a53b 7472 d03c
00000120: cd0a 40bc 90f0 05bb a5f7 abbc 4abe 343b
00000130: 8547 df3b 09b4 eabc ce40 1fbd 3862 173b
00000140: dc00 5e3c cad9 46bc 8aa5 593c 1c8f e23a
00000150: 780f 89bc 9c89 9cbc 9046 5e3c 3de5 9abc
00000160: f2f4 533c 939a 59bb d8e2 2bbd 7dec a7ba
00000170: e340 713c 60b5 94bc 2355 933c 138a bf3b
00000180: 1935 41bc f516 863c efda aa3c 901e 4abc
00000190: e44b a4bc 3621 e23c 7dee e43a 92e6 f13b
000001a0: a461 c7bb 711a 6dbc b001 dd3c 145d 1cbc
000001b0: e99d cebc c406 ec3b f6a1 dd3c c23d bd3c
000001c0: fbfd 093d 5f8b 203c d04b 90bb 9a7c a13b
000001d0: 0f06 173c e589 1fbc c2d2 323d 41b5 103d
000001e0: 1d61 ff3b 533a 20bc 838a d9bc 1030 263c
000001f0: 03d5 a2bc d714 e8bb 1512 bfbb 9818 86bc

action_model._discrete_distribution.branches.0.weight f4 [2, 128]
-0.0052849813 -0.01391531 -0.023331655 -0.018196698 -0.019240286 0.013500672 -0.00018126042 -0.010424611
0.007894314 -0.01984356 -0.012238157 -0.016482938 -0.013257564 0.033933822 -0.0108611435 0.037726462
0.011485781 0.019082494 -0.023062658 -0.0075794947 0.00494185 -0.018218746 -0.002954174 0.0076297247
-0.0136238625 -0.0061123245 0.016363546 0.0022202046 -0.008716492 -4.4937817e-05 -0.010547383 -0.011436592
-0.00030629014 0.0043614944 -0.0046934793 -0.023704965 -0.004560795 -0.022582665 0.006513055 0.014803103
0.005814913 -0.010909376 0.026713334 -0.008580801 0.030596232 -0.004218049 -0.0082958285 0.0024263235
-0.0027816077 -0.021067725 0.016909325 0.040720355 0.013206613 -0.018335562 0.00877531 -0.0021132077
0.016340174 -0.002023888 -0.020441273 0.00045789249 -0.014997823 0.02523739 0.01276585 0.0307728
0.018245922 -0.004286702 -0.028250448 0.0039192066 -0.006138899 -0.022428524 0.018311419 0.0010022243
0.0027214866 0.011329232 0.017845295 0.017496716 0.024542352 -0.013791848 -0.011198059 0.007638735
0.0011393379 -0.013549507 0.0062894244 0.016782004 0.0032564062 -0.0080641 -0.0043141907 0.0139393695
0.014196232 0.00046257486 0.017911572 -0.017033068 0.019016981 0.030341927 -0.0070082713 0.015075907
0.028456764 -0.014167245 -0.019819453 0.0019810132 0.015610622 -0.019501403 -0.007512726 -0.0026601043
-0.0012094047 0.0029803058 -0.008918703 0.02505225 0.016377512 0.0053985678 -0.004871963 0.0024079366
-0.018814731 0.0022506854 -0.0051507484 -0.01131336 -0.018096332 0.016902698 -0.040786184 -0.005998641
-0.0047751768 0.04166496 0.02504792 -0.028059112 0.0057830084 0.053079363 0.011614415 -0.003522825
0.016862193 0.0066789268 0.01910255 0.017845051 0.007341898 0.008699706 -0.0056767357 -0.003983176
0.013574077 0.009144464 -0.00420378 0.018173391 0.00484479 -0.011900849 0.016740568 -0.039512567
-0.019302832 -0.01103136 0.0010548274 0.010962236 0.0024097795 0.0040043956 -0.0024152808 0.004146634
0.012258811 0.004591737 -0.0066761514 0.00720679 0.009782693 -0.0009443049 0.006722213 0.01898294
-0.00014795664 -0.0011301358 0.014868265 0.029098691 -0.0058228206 0.015872207 -0.007971679 -0.03381993
-0.0038603956 -0.016797004 -0.044832464 -0.0051384983 -0.02299471 -0.00870833 0.0074862973 0.005211205
0.0065281475 0.027307125 -0.004492935 -0.050289776 -0.021681694 -0.0026469915 0.022127993 0.015295435
-0.025322385 -0.021837568 0.007183604 0.016422989 0.015178756 -0.01697023 -0.02014812 -0.04449038
-0.009779704 0.024628239 0.017593874 -0.00481023 0.020758342 0.0144834425 -0.031431302 0.0076359906
-0.009425148 0.0030707535 -0.016894102 -0.029656433 -0.05357475 0.0047494746 -0.008204963 0.008734427
-0.005206452 0.0028491465 -0.009847372 0.012359032 0.013593276 0.0047595166 -0.0040555946 0.00033049157
-0.0046728863 -0.005684482 0.0049899714 0.02306947 -0.013810186 -0.03011727 0.023398008 -0.0068820342
-0.012007015 -0.0043605883 0.021440588 -0.009362119 -0.013520098 -0.00016916805 0.02535747 0.009904088
0.012791804 -0.014277962 -0.0015142075 -0.03132839 -0.0040593045 0.007857229 0.016388783 0.017920077
0.013407651 0.014169281 -0.01386461 0.004634612 0.010663787 -0.0014791755 0.02479781 0.014728643
-0.0019299984 -0.028080009 -0.037430428 0.022645371 -0.017038977 -0.055535518 -0.034006417 -0.002105428
00000000: a32d adbb 0afd 63bc 0722 bfbc 3e11 95bc
00000010: ce9d 9dbc ec31 5d3c b910 3eb9 fdcb 2abc
00000020: 2757 013c f68e a2bc 8d82 48bc 3a07 87bc
00000030: 4136 59bc 31fe 0a3d f0f2 31bc 1087 1a3d
00000040: db2e 3c3c e452 9c3c e6ed bcbc 695d f8bb
00000050: 3eef a13b 7b3f 95bc d19a 41bb c502 fa3b
00000060: 9f36 5fbc e549 c8bb d80c 863c da80 113b
00000070: 9ecf 0ebc 9d7b 3cb8 eece 2cbc 8b60 3bbc
00000080: 9195 a0b9 deea 8e3b c2cb 99bb ea30 c2bc
00000090: b972 95bb 48ff b8bc 776b d53b b788 723c
000000a0: 078b be3b 3dbd 32bc ecd5 da3c 7d96 0cbc
000000b0: f3a4 fa3c 8f37 8abb 3aeb 07bc f402 1f3b
000000c0: a24b 36bb 3996 acbc 6d85 8a3c 63ca 263d
000000d0: 8d60 583c 7634 96bc 51c6 0f3c be7d 0abb
000000e0: d4db 853c 35a3 04bb 7574 a7bc 4a11 f039
000000f0: 6eb9 75bc a5be ce3c db27 513c 3d17 fc3c
00000100: 7978 953c 7677 8cbb 7c6d e7bc b06c 803b
00000110: d128 c9bb 06bc b7bc d401 963c 115d 833a
00000120: f85a 323b 3e9e 393c 4c30 923c 4655 8f3c
00000130: 0b0d c93c 34f7 61bc 1078 37bc 5b4e fa3b
00000140: d655 953a c0fe 5dbc 8417 ce3b 6a7a 893c
00000150: 6e69 553b 491f 04bc 0e5e 8dbb f461 643c
00000160: 5097 683c bf85 f239 4abb 923c ef88 8bbc
00000170: 80c9 9b3c a28f f83c a4a5 e5bb f000 773c
00000180: 291e e93c bb1d 68bc 685c a2bc e3d3 013b
00000190: b2c3 7f3c 68c1 9fbc 502d f6bb 2555 2ebb
000001a0: e384 9eba 3c51 433b c01f 12bc 603a cd3c
000001b0: 222a 863c 78e6 b03b fda4 9fbb 79ce 1d3b
000001c0: 5a21 9abc 3c80 133b 9cc7 a8bb ac5b 39bc
000001d0: c23e 94bc 8777 8a3c 6a0f 27bd 3f90 c4bb
000001e0: 1679 9cbb e1a8 2a3d 4c31 cd3c 39dc e5bc
000001f0: 647f bd3b bf69 593d 634a 3e3c 32df 66bb
00000200: 9522 8a3c e6da da3b f37c 9c3c c92f 923c
00000210: 4e94 f03b 3689 0e3c e903 babb 4d85 82bb
00000220: ce65 5e3c a9d2 153c ddbf 89bb 5de0 943c
00000230: 0bc1 9e3b c7fb 42bc 8423 893c eed7 21bd
00000240: f920 9ebc e1bc 34bc 2242 8a3a f39a 333c
00000250: 64ed 1d3b 4e37 833b b049 1ebb 7de0 873b
00000260: 2ed9 483c 4876 963b 9ec3 dabb f026 ec3b
00000270: 9747 203c 3b8b 77ba 0246 dc3b 1c82 9b3c
00000280: cf24 1bb9 1121 94ba 069a 733c 6160 ee3c
00000290: 5ccd bebb 6e06 823c a59b 02bc c486 0abd
000002a0: b1fe 7cbb df99 89bc 3fa2 37bd d960 a8bb
000002b0: 675f bcbc 62ad 0ebc 9d4f f53b c2c2 aa3b
000002c0: 12ea d53b 31b3 df3c 7839 93bb a7fc 4dbd
000002d0: cf9d b1bc 2679 2dbb c445 b53c b499 7a3c
000002e0: e470 cfbc b3e4 b2bc 7064 eb3b 8189 863c
000002f0: 51b0 783c 2705 8bbc ac0d a5bc 8b3b 36bd
00000300: 0d3b 20bc 29c1 c93c 0721 903c 229f 9dbb
00000310: 660d aa3c f64b 6d3c 1cbe 00bd 5537 fa3b
00000320: f06b 1abc b23e 493b 8065 8abc 0cf2 f2bc
00000330: 3271 5bbd 7ba1 9b3b 1c6e 06bc d81a 0f3c
00000340: e39a aabb bfb8 3a3b df56 21bc 8a7d 4a3c
00000350: 55b6 5e3c b8f5 9b3b cbe4 84bb d445 ad39
00000360: 031f 99bb e444 babb ea82 a33b 2ffc bc3c
00000370: 1e44 62bc 7eb8 f6bc 2ead bf3c b082 e1bb
00000380: 12b9 44bc 44e3 8ebb 2ca4 af3c 9363 19bc
00000390: 6783 5dbc b462 31b9 78ba cf3c c244 223c
000003a0: b794 513c 1dee 69bc 5f78 c6ba 3352 00bd
000003b0: ea03 85bb 9bbb 003c c541 863c 20cd 923c
000003c0: c4ab 5b3c 4626 683c 6428 63bc f1dd 973b
000003d0: 2ab7 2e3c e5e0 c1ba c724 cb3c 6850 713c
000003e0: 00f8 fcba 0c08 e6bc a650 19bd c982 b93c
000003f0: 5395 8bbc 3679 63bd 504a 0bbd 38fb 09bb

action_model._discrete_distribution.branches.0.bias f4 [2]
-0.021156607 0.021156609
00000000: 9f50 adbc a050 ad3c

action_model._discrete_distribution.branches.1.weight f4 [3, 128]
-0.0012415694 0.023729093 -0.027952252 0.03406968 0.0044750418 0.04892578 -0.0054553007 -0.0112634
-0.046671096 0.00094527105 0.038076274 0.010978188 -0.012270262 -0.028180514 0.014364437 0.011068329
0.0011944317 0.006241819 -0.0027233793 -0.011560851 0.008036001 0.016680319 0.02922559 -0.02032313
-0.016294325 -0.009726424 0.0038583232 0.018801758 0.011806781 0.020065652 -0.013451786 -0.0240259
0.0025863927 0.029538931 0.01643115 -0.014695782 -0.0010526936 -0.0013504588 0.000117147756 0.02512323
0.017548697 -0.015055336 -0.018410994 -0.032269713 -0.013538096 -0.0015398475 -0.006745505 -0.0059544803
-0.0012729706 -0.021313649 0.009661548 -0.01609631 0.019848824 -0.0009444838 -0.0067265974 0.02361229
0.03018418 -0.030620525 -0.006271257 -0.005180836 -0.016751964 0.0005410735 0.013570267 -0.017650068
0.014598599 0.0022817205 0.016262792 0.009999481 0.005922675 -0.01872008 -0.011366296 0.008631085
-0.003811158 -0.011574708 0.01730641 0.006204461 0.026569674 0.019978607 -0.0017549787 -0.023175562
-0.04955119 -0.0035789772 -0.009279226 -0.014514984 0.004970867 -0.009625074 0.005505692 -0.011920405
-0.028259113 -0.0007783714 0.011935171 0.012752356 -0.03168056 -0.04423721 0.0003844525 -0.005676128
-0.0054027303 -0.0062914863 0.00063248916 0.0028247205 -0.000833389 0.00336799 -0.002045566 -0.0012109481
-0.0015624093 -0.012732467 -0.022656577 0.01618765 0.002441109 -0.003288263 -0.029428154 -0.030167883
-0.04696421 -0.020045182 0.01654016 0.005987555 -0.007210713 -0.019286674 -0.029380985 -0.009728782
0.008185507 0.009877594 -0.011803493 -0.015768196 -0.021893326 0.033141118 -0.0023371174 0.0012586457
0.0049700625 0.022661036 0.012209289 -0.009365932 -0.025031535 -0.015211047 0.0190736 -0.019106265
0.009687015 0.013280512 -0.056078356 -0.015535895 0.00016116636 0.024321966 0.0024393953 -0.043216154
0.0015021126 -0.026214005 0.0008219858 0.035797883 0.024328543 -0.014403227 -0.060221396 -0.008566338
-0.015786953 0.026591359 -0.03458308 -5.4431057e-05 0.007665334 0.009113233 0.025389984 -0.00032799077
-0.033001866 0.012145538 -0.017191205 0.00031380044 -0.021686856 -0.0039106226 -0.014543196 -0.028490685
-0.018367061 0.009267149 0.00017805296 0.034384556 0.00063044747 -0.014209964 0.014484382 -0.008315627
0.006053235 0.012800056 0.015553109 0.0010649948 -0.040926732 0.02759088 -0.0010354362 -0.014365257
-0.0099666435 -0.0120235225 -0.029660566 -0.025032328 0.034861624 0.013065877 -0.025041401 0.0026531704
-0.028065395 -0.010611013 -0.0030850663 -0.0060307714 -0.007549634 0.017183553 0.021822449 0.011668239
0.019181056 0.00024283676 -0.028494988 0.01277387 0.004468931 -0.020797176 -0.017963061 -0.0281595
0.004660617 -0.035596073 0.00017955941 0.00028690227 0.014943085 -0.015451672 0.021239456 0.013309707
0.023152296 0.004463179 -0.012255917 -0.011799151 0.034281757 -0.005443412 0.024588881 0.029575726
-0.0100708185 0.03639733 0.016424758 0.010605693 -0.008991056 0.008286767 -0.013579787 -0.008966903
0.009479236 0.018520396 0.030659508 -0.036602393 -0.036501616 0.01042581 0.02287815 0.034152023
0.036832638 0.011014931 0.0126804765 -0.008060031 -0.00045090556 -0.0071074637 0.030601455 0.025083391
0.01064871 -0.016429335 -0.0068049515 -0.021266546 -0.014686709 -0.008105809 0.014123809 -0.016782558
00000000: 28bc a2ba 8463 c23c 1ffc e4bc a68c 0b3d
00000010: 5fa3 923b 6666 483d 61c2 b2bb 208a 38bc
00000020: 312a 3fbd 11cc 773a def5 1b3d dcdd 333c
00000030: 3609 49bc d2da e6bc d158 6b3c f057 353c
00000040: 7a8e 9c3a 2c88 cc3b b97a 32bb b969 3dbc
00000050: 6ea9 033c 2aa5 883c 816a ef3c b17c a6bc
00000060: ad7b 85bc 945b 1fbc ecdb 7c3b 2506 9a3c
00000070: 3b71 413c b960 a43c e164 5cbc f7d1 c4bc
00000080: 7880 293b a1fb f13c 9e9a 863c 94c6 70bc
00000090: 89fa 89ba e101 b1ba 39ad f538 3bcf cd3c
000000a0: 49c2 8f3c a8aa 76bc a7d2 96bc 3f2d 04bd
000000b0: e4ce 5dbc b5d4 c9ba 6609 ddbb cd1d c3bb
000000c0: ced9 a6ba f699 aebc 784b 1e3c 69dc 83bc
000000d0: 009a a23c 3c97 77ba ca6a dcbb 906e c13c
000000e0: d044 f73c e5d7 fabc 1e7f cdbb 01c4 a9bb
000000f0: 6a3b 89bc d4d6 0d3a d355 5e3c e096 90bc
00000100: f62e 6f3c eb88 153b 8c39 853c ddd4 233c
00000110: 0013 c23b da5a 99bc b339 3abc 6569 0d3c
00000120: 9fc4 79bb d8a3 3dbc 2cc6 8d3c cb4e cb3b
00000130: a5a8 d93c 2daa a33c 5007 e6ba adda bdbc
00000140: 30f6 4abd 468d 6abb e507 18bc 41d0 6dbc
00000150: a8e2 a23b 7db2 1dbc 1869 b43b cd4d 43bc
00000160: a87f e7bc 9f0b 4cba bc8b 433c 42ef 503c
00000170: 7ac3 01bd 1432 35bd 5790 c939 d0fe b9bb
00000180: 6309 b1bb d028 cebb a1cd 253a f21e 393b
00000190: ca77 5aba 7fb9 5c3b e70e 06bb adb8 9eba
000001a0: c2c9 ccba d69b 50bc 499a b9bc f69b 843c
000001b0: 03fb 1f3b e67f 57bb 5013 f1bc a322 f7bc
000001c0: 8b5d 40bd cb35 a4bc 3b7f 873c 4033 c43b
000001d0: d847 ecbb 16ff 9dbc 64b0 f0bc 7865 1fbc
000001e0: 811c 063c a2d5 213c 7063 41bc 4e2c 81bc
000001f0: a259 b3bc fbbe 073d 532a 19bb 24f9 a43a
00000200: e8db a23b a3a3 b93c 7809 483c 9173 19bc
00000210: ef0e cdbc c137 79bc 3d40 9c3c be84 9cbc
00000220: 49b6 1e3c 8196 593c 6bb2 65bd 448a 7ebc
00000230: c4fe 2839 dc3e c73c 43de 1f3b 6c03 31bd
00000240: 89e2 c43a c1be d6bc 897a 573a cda0 123d
00000250: a74c c73c 83fb 6bbc b6aa 76bd d359 0cbc
00000260: a453 81bc 1fd6 d93c fda6 0dbd e74c 64b8
00000270: 7b2d fb3b ab4f 153c a8fe cf3c 2df6 abb9
00000280: f72c 07bd 14fe 463c 92d4 8cbc 9585 a439
00000290: a2a8 b1bc ae24 80bb 9646 6ebc 4c65 e9bc
000002a0: 8576 96bc 3dd5 173c bab3 3a39 d2d6 0c3d
000002b0: 9d44 253a e9d0 68bc e74f 6d3c 453e 08bc
000002c0: 375a c63b 53b7 513c 78d2 7e3c 4c97 8b3a
000002d0: caa2 27bd 4506 e23c 79b7 87ba 415c 6bbc
000002e0: 224b 23bc 4ffe 44bc b7fa f2bc 9910 cdbc
000002f0: 10cb 0e3d 4312 563c a023 cdbc d0e0 2d3b
00000300: 66e9 e5bc d0d9 2dbc d32e 4abb c79d c5bb
00000310: ec62 f7bb 86c4 8c3c fec4 b23c 242c 3f3c
00000320: 9721 9d3c ffa1 7e39 526e e9bc 7e49 513c
00000330: 1c70 923b d75e aabc 4527 93bc c0ae e6bc
00000340: 17b8 983b 30cd 11bd 1d48 3c39 5f6b 9639
00000350: d7d3 743c 0229 7dbc 5efe ad3c f510 5a3c
00000360: e2a9 bd3c dc3f 923b 0bcd 48bc 3a51 41bc
00000370: 076b 0c3d a65e b2bb 9f6e c93c cb48 f23c
00000380: 1300 25bc 5e15 153d 378d 863c 80c3 2d3c
00000390: 394f 13bc 38c5 073c c17d 5ebc ebe9 12bc
000003a0: cc4e 1b3c 16b8 973c a629 fb3c 64ec 15bd
000003b0: b882 15bd 04d1 2a3c f56a bb3c fee2 0b3d
000003c0: d2dd 163d f877 343c c6c1 4f3c 380e 04bc
000003d0: 8567 ecb9 bae5 e8bb e7af fa3c af7b cd3c
000003e0: ed77 2e3c d096 86bc 12fc debb 2e37 aebc
000003f0: 86a0 70bc 3ace 04bc 8c67 673c 937b 89bc

action_model._discrete_distribution.branches.1.bias f4 [3]
-0.004592657 0.018493626 -0.014307005
00000000: 007e 96bb f27f 973c ee67 6abc

action_model._discrete_distribution.branches.2.weight f4 [1, 128]
0.0062108478 0.0003289034 0.011207215 0.012454623 -0.0059907953 -0.004123555 -0.0070454613 -0.0058290907
-0.00091032713 -0.014164909 -0.00015640311 -0.005005844 -0.005928668 -0.005122231 0.00587311 -0.009701866
-0.013086303 0.0018483251 -0.003230519 0.0078227045 -0.0017255353 0.005078687 -0.0055609155 -0.0011267026
-0.0065293745 0.0066135684 -0.0009195674 0.007282819 -0.00011818182 -0.0044681923 0.008679087 -0.010447119
-0.0152884 -0.015088332 -0.005365562 0.00218443 0.0058106575 -0.0070274207 -0.0080325855 0.010834008
-0.0032925073 0.00065395894 -0.023099894 0.0052694897 -0.0040122615 0.0073555857 0.011873236 -0.009518638
-0.0006861873 -0.0029844183 -0.014596376 -0.0009381748 -0.0023152197 -0.01218674 0.007652651 -0.006280649
0.01256194 0.012860904 0.013151439 0.006323896 0.008733033 -7.6091645e-05 0.0223731 -0.0043474576
-0.0028369094 0.001629305 -0.019330904 0.015975555 -0.003587116 -0.002055568 0.0095293885 0.010321572
-0.018818727 -0.011203021 -0.00502759 -0.0010953838 -0.001758731 -0.009501539 -0.011858369 -0.0022939134
-0.0011022083 -0.015972555 0.0027447687 -0.009453368 0.010480122 0.0042824745 -0.0044871955 -0.0018337835
-0.009330696 0.015731597 0.0002131454 -0.01063472 -0.0062624137 -0.019058103 0.003517021 -0.0002633637
-0.0005457804 0.007927706 -0.0071846186 -0.01515879 0.00637818 0.0009713094 0.009888638 -0.022406554
-0.006592241 -0.0016874736 -0.0008111571 0.009060887 0.008088128 0.010532105 0.00087653747 -0.010235555
0.008484694 0.008297649 0.0009427609 -0.0043794904 -0.0097130705 -0.0025680482 0.0020577803 0.005749236
0.012837841 -0.006554878 -0.0046037976 0.011544288 -0.0067701074 0.0053231968 -0.010837133 -0.013177802
00000000: 5e84 cb3b ab70 ac39 779e 373c 7a0e 4c3c
00000010: 6f4e c4bb e31e 87bb 9ddd e6bb f501 bfbb
00000020: 05a3 6eba ef13 68bc 2400 24b9 1008 a4bb
00000030: 4645 c2bb 63d8 a7bb 3873 c03b 93f4 1ebc
00000040: ef67 56bc 8043 f23a 1db7 53bb cd2a 003c
00000050: 5b2b e2ba 1d6b a63b 5738 b6bb dead 93ba
00000060: 5df4 d5bb a2b6 d83b 200f 71ba b7a4 ee3b
00000070: 62d8 f7b8 ea69 92bb bb32 0e3c 652a 2bbc
00000080: 337c 7abc 0d35 77bc 99d1 afbb a728 0f3b
00000090: 5467 be3b 4746 e6bb 1b9b 03bc 2081 313c
000000a0: 1bc7 57bb 716e 2b3a fd3b bdbc afab ac3b
000000b0: 4a79 83bb 2007 f13b f687 423c 10f4 1bbc
000000c0: 40e1 33ba 3b96 43bb a325 6fbc d8ef 75ba
000000d0: f1ba 17bb e4aa 47bc 17c3 fa3b e7cd cdbb
000000e0: 98d0 4d3c 8bb6 523c 2279 573c af38 cf3b
000000f0: ff14 0f3c 6493 9fb8 cb47 b73c 1e75 8ebb
00000100: 71eb 39bb 678e d53a d85b 9ebc 2bdf 823c
00000110: d215 6bbb b5b6 06bb 2721 1c3c d01b 293c
00000120: bb29 9abc e08c 37bc 7bbe a4bb fb92 8fba
00000130: 3885 e6ba 58ac 1bbc 9b49 42bc 7b55 16bb
00000140: f977 90ba e0d8 82bc 94e1 333b 4de2 1abc
00000150: d1b4 2b3c 0054 8c3b 5309 93bb 905b f0ba
00000160: c7df 18bc 8ddf 803c c87f 5f39 403d 2ebc
00000170: ef34 cdbb bd1f 9cbc d27d 663b 1414 8ab9
00000180: b412 0fba 36e3 013c f36c ebbb 935c 78bc
00000190: 0d00 d13b 789f 7e3a f403 223c f38d b7bc
000001a0: ba03 d8bb 382e ddba d5a3 54ba 1d74 143c
000001b0: 1184 043c da8e 2c3c 6fc7 653a 07b3 27bc
000001c0: 6303 0b3c ddf2 073c 9d23 773a d481 8fbb
000001d0: 9223 1fbc b34c 28bb d3db 063b 1664 bc3b
000001e0: cf55 523c 4dca d6bb 74db 96bb 4124 3d3c
000001f0: c7d7 ddbb 366e ae3b 3b8e 31bc b5e7 57bc
