Assets/ZooheimTest/Models/run1/LionFBehavior.onnx (onnx, 188269 bytes, 14 tensors)

discrete_act_size_vector f4 [1, 3]
000000 00 00 00 40 00 00 40 40 00 00 80 3f
       2.0 3.0 1.0

network_body.observation_encoder.processors.0.normalizer.running_mean f4 [210]
000000 7a af 59 3e 7f e3 63 3e 2f e6 97 3c 23 eb 36 3c
       0.21258345 0.22254752 0.018542377 0.011164459
000010 63 fe 01 3c e9 1c 83 3b b5 6a 9b 3b 83 59 44 3b
       0.007934186 0.004001249 0.004742945 0.002996058
000020 87 2e d0 3b cc e4 9f 3b 87 12 84 3b a1 b6 7a 3b
       0.0063532027 0.0048795696 0.004030529 0.0038255828
000030 d6 59 c2 3c ea ad 3e 3e 7c bd 61 3e aa 8b 59 3e
       0.023724478 0.1862103 0.22044939 0.21244684
000040 f4 58 8b 3c 6f 4e 49 3c 1a d4 09 3c 42 8b 90 3b
       0.01701019 0.012286766 0.008412385 0.004411132
000050 0a 04 9d 3b e2 2f 48 3b 00 aa cc 3b 99 c5 a2 3b
       0.0047917413 0.0030546119 0.0062458515 0.004967403
000060 c7 db 98 3b 06 8d 7e 3b 1e 1c c4 3c ea b6 3d 3e
       0.0046648714 0.003884138 0.023939189 0.18526807
000070 05 b1 50 3e a0 48 5c 3e 94 df 7a 3c aa 68 27 3c
       0.20380028 0.21512079 0.015312094 0.010217825
000080 c8 64 fa 3b ee 12 7a 3b 6f 50 bd 3b 55 b0 63 3b
       0.0076414086 0.0038158256 0.0057774107 0.0034742553
000090 27 c0 c2 3b 7c b8 b3 3b c8 30 7f 3b 89 d4 7f 3b
       0.0059433165 0.0054846387 0.0038938988 0.0039036593
0000a0 0c e7 ce 3c cf b0 46 3e 0d e6 63 3e 81 43 4d 3e
       0.025256656 0.19403385 0.22255726 0.20045282
0000b0 9a 79 78 3c f0 65 37 3c ff 8d 00 3c 39 36 5f 3b
       0.015165711 0.011193737 0.0078463545 0.0034059419
0000c0 a4 61 94 3b 4f 0f 53 3b f5 a0 c5 3b 21 dd 90 3b
       0.004528241 0.003220517 0.0060311505 0.004420892
0000d0 55 c8 92 3b 0d cb 82 3b 2b 59 c6 3c c2 c0 42 3e
       0.004479448 0.0039914907 0.02421244 0.19018844
0000e0 d2 25 47 3e 57 52 50 3e ae aa 48 3c dc e6 13 3c
       0.19448021 0.2034391 0.012247724 0.009027209
0000f0 42 3f e6 3b d7 4c 96 3b 4f 94 97 3b 2f ce 68 3b
       0.007026584 0.0045867967 0.004625834 0.0035523286
000100 93 29 b1 3b ed 2a a9 3b ea 97 3e 3b e2 09 73 3b
       0.0054065674 0.005162588 0.0029082247 0.0037084748
000110 25 5f df 3c d6 a0 50 3e 87 85 5f 3e 20 1d 3e 3e
       0.027267048 0.20373854 0.2182828 0.18565798
000120 d4 8c 43 3c 86 ba 27 3c e6 71 e9 3b f0 ff 34 3b
       0.0119354315 0.010237342 0.0071241735 0.002761837
000130 13 a0 8e 3b 44 e0 76 3b bd 73 a2 3b 5c 64 84 3b
       0.0043525784 0.0037670294 0.0049576447 0.004040284
000140 ba 27 78 3b d8 df 80 3b d0 f1 cb 3c 46 5f 4f 3e
       0.0037865476 0.0039329343 0.024895579 0.20251188
000150 df c1 38 3e 80 ec 3d 3e 08 71 32 3c 01 b8 f2 3b
       0.18042706 0.18547249 0.010891207 0.007407189
000160 a9 6f ba 3b 50 27 82 3b 84 33 6f 3b 19 08 85 3b
       0.0056895805 0.0039719716 0.0036499212 0.004059803
000170 d7 4c 96 3b 53 35 a8 3b 53 35 28 3b 9a 0c 63 3b
       0.0045867967 0.00513331 0.002566655 0.0034644962
000180 9e 13 f6 3c 7d 96 62 3e 99 f6 4d 3e cf 0f 32 3e
       0.030038651 0.22127719 0.20113601 0.17388843
000190 a7 2d 19 3c 44 8b 10 3c cc e9 be 3b c4 b5 43 3b
       0.009349263 0.008822266 0.0058262106 0.002986298
0001a0 2d 11 8c 3b b0 fd 85 3b 2e 79 82 3b 3f d7 6f 3b
       0.0042745085 0.00408908 0.003981731 0.0036596803
0001b0 07 4b 5d 3b 6f a1 86 3b 1f 90 ec 3c ee 94 5f 3e
       0.0033766644 0.0041086 0.028877316 0.21834156
0001c0 4f 10 20 3e 49 33 34 3e 3e 50 02 3c 39 fd c4 3b
       0.15631221 0.17597689 0.007953702 0.006011632
0001d0 ec 2a a9 3b 44 65 3b 3b 96 83 81 3b 0c cb 82 3b
       0.0051625874 0.0028594295 0.003952454 0.00399149
0001e0 61 64 84 3b 72 d5 81 3b 44 2c 21 3b 59 77 49 3b
       0.0040402864 0.0039622122 0.0024593035 0.0030741303
0001f0 64 cb 00 3d 34 5e 73 3e db 10 2c 3e a6 59 34 3e
       0.03144397 0.23766404 0.16803305 0.17612323
000200 61 4c d5 3b 0d 20 e9 3b e9 89 98 3b 29 66 72 3b
       0.006509349 0.0071144165 0.004655112 0.0036987162
000210 a7 c0 83 3b 4a bf 8b 3b c6 8f 6e 3b 82 fa 54 3b
       0.0040207687 0.004264747 0.0036401614 0.0032497947
000220 48 06 4c 3b e4 e8 87 3b 93 83 01 3d f6 41 6f 3e
       0.0031131674 0.004147636 0.03161962 0.23365006
000230 39 17 ff 3d 47 f8 34 3e 06 d0 a1 3b df 8e b7 3b
       0.12455601 0.17672835 0.0049381284 0.0056017484
000240 f2 5e a4 3b 46 06 4c 3b 70 d5 81 3b d3 5f 5b 3b
       0.005016201 0.003113167 0.0039622113 0.0033473864
000250 77 2a 68 3b fe 8d 80 3b 5c 64 04 3b 06 71 32 3b
       0.0035425702 0.003923177 0.002020142 0.0027228012
000260 e0 1a 0f 3d ce 62 80 3e b5 3f 09 3e 05 9c 35 3e
       0.03493774 0.25075382 0.13403209 0.17735298
000270 df c2 b2 3b 3e 9e d5 3b 5e 30 89 3b 38 82 89 3b
       0.0054553594 0.006519108 0.004186674 0.0041964315
000280 d9 df 80 3b cd 43 8f 3b 0d b3 53 3b 80 b8 33 3b
       0.0039329347 0.004372096 0.0032302768 0.0027423203
000290 d2 85 30 3b 7e 33 6f 3b ae fc 0b 3d dc 37 7a 3e
       0.0026935232 0.0036499198 0.03417652 0.24435371
0002a0 e8 ba c3 3d 33 21 35 3e 55 d6 b8 3b 20 4a a6 3b
       0.09557134 0.17688446 0.0056407847 0.0050747544
0002b0 2e e6 97 3b 5a d6 38 3b 2f ce 68 3b ba e5 56 3b
       0.004635594 0.0028203935 0.0035523286 0.0032790736
0002c0 11 b3 53 3b 5b 77 49 3b 59 51 f4 3a f4 ff 34 3b
       0.0032302777 0.0030741307 0.0018639966 0.002761838
0002d0 47 41 1e 3d 07 6c 86 3e fc 7b ea 3d 6b d9 35 3e
       0.038636472 0.26254293 0.114494294 0.1775872
0002e0 b7 0b ac 3b 59 b0 e3 3b b9 d2 91 3b 3f 9e 55 3b
       0.00525042 0.0069485125 0.004450169 0.0032595543
0002f0 30 ce 68 3b 96 83 81 3b 64 80 50 3b 50 6e 42 3b
       0.0035523288 0.003952454 0.0031814808 0.0029667802
000300 6d 47 36 3b 7d d4 7f 3b 38 39 11 3d 14 17 82 3e
       0.002781357 0.0039036565 0.03545496 0.25408232
000310 c2 82 a4 3d c6 a0 37 3e 88 62 cb 3b 9e 8c 88 3b
       0.080327526 0.17932424 0.006206814 0.0041671535
000320 64 05 95 3b 49 cd 31 3b 30 79 82 3b 70 2a 68 3b
       0.0045477618 0.0027130416 0.003981732 0.0035425685
000330 7f b8 33 3b 7c b8 33 3b a4 61 14 3b d8 85 30 3b
       0.00274232 0.0027423194 0.0022641206 0.0026935246
000340 64 22 1f 3d e4 e3 89 3e
       0.038851157 0.2693168

network_body.observation_encoder.processors.1.normalizer.running_mean f4 [9]
000000 7e 8a 8b 42 80 b1 a5 42 94 55 db 3d d9 91 8b 42
       69.77049 82.84668 0.10709682 69.78486
000010 b3 d9 a5 42 f2 ca dd 3d 19 98 8b 42 8a 01 a6 42
       82.92519 0.10829724 69.797066 83.003006
000020 86 4a e0 3d
       0.10951714

network_body._body_endoder.seq_layers.0.weight f4 [128, 219]
000000 37 8b e8 3c 92 0c da bb 21 f5 c1 bc 27 8d ff bc
       0.028386695 -0.0066543305 -0.023676457 -0.031195236
000010 2a 36 b4 bc 77 3b c2 bb f2 99 bb bd 7e fe 93 3d
       -0.021998484 -0.005927499 -0.09160222 0.07226275
000020 f5 ca 64 3b 29 03 26 bd 36 08 29 3e 9f 37 00 3d
       0.003491101 -0.040530358 0.16507038 0.031303044
000030 83 47 9c 3c 97 24 a1 bd f3 ab b9 3d 6c a8 24 3d
       0.019077068 -0.07868307 0.09066 0.040199682
000040 c8 e9 b2 bd 6e 61 f3 3d 9f cd 6e bd 6f de 05 bd
       -0.087359965 0.118838176 -0.058301564 -0.032682832
000050 09 70 84 bb 51 1d 81 3d d5 e6 84 3c 62 e6 d6 bb
       -0.004041676 0.0630442 0.01622335 -0.0065582255
000060 68 76 77 3d 5f 0b 72 3d 63 1d d6 bc f3 3a 27 be
       0.060415655 0.059092876 -0.02613706 -0.16331081
000070 52 4e b4 3d 1c 9f 8d bc 8b bb 66 3d e5 07 bb bd
       0.08804001 -0.017287783 0.0563312 -0.09132365
000080 c0 06 28 bd 58 18 60 3d 87 fd 03 bd 69 6a 4a bd
       -0.041022062 0.054710716 -0.032224204 -0.049417887
000090 87 c4 e6 3c eb 6e ad 3d 4c f7 22 3e 22 2f 2d 3d
       0.028169883 0.084684215 0.15914649 0.042281277
0000a0 9f 5f c4 3c 13 35 db bc 45 b4 ab 3d 18 7c 54 3d
       0.023971377 -0.026758706 0.08383993 0.051876158
0000b0 2b 0f fa bd ca b0 e8 bd 01 dd 91 bd f1 43 8e bd
       -0.12209924 -0.11361845 -0.07122231 -0.069465525
0000c0 a0 fc bf bc 9b 69 db 3d 56 fe 9f bd 1a ce cb 3d
       -0.02343589 0.10713502 -0.078121826 0.0995142
0000d0 ad de bd 3d d0 12 13 bd 5e ef e5 bc ae 42 a2 bb
       0.09270988 -0.035906613 -0.02806824 -0.0049517965
0000e0 cd be 5f 3d d7 a2 75 bd 5c 0d 27 be 8e 15 a1 bd
       0.05462532 -0.05996975 -0.1631369 -0.07865439
0000f0 62 1a 07 be ae 88 8f 3d 09 e7 d6 3c 2e 96 78 3c
       -0.13193658 0.070084915 0.026233213 0.015172524
000100 f0 a8 43 3c 3d 03 19 3c 63 cc 96 bd 8d dc 0c be
       0.011942133 0.009339151 -0.073632024 -0.13756008
000110 89 8c 20 bd eb 09 bc bd a2 9b 32 bd a8 e8 bf 3c
       -0.039196525 -0.09181579 -0.043605454 0.023426369
000120 eb e4 a0 bd 24 c0 03 be 2b ee a1 bc 1e 8a 05 3d
       -0.07856163 -0.12866265 -0.019766888 0.032602422
000130 23 d1 00 3c f3 df 01 bc 43 6c 11 bd 55 55 9f bd
       0.007862362 -0.007926929 -0.035503637 -0.07779948
000140 cf dc a6 bd 3e 9f d3 bd 0a 87 80 3d 9d 5c 52 be
       -0.08147585 -0.103331074 0.06275757 -0.20543142
000150 a6 09 8f 3c 41 08 87 bd a9 5c ca bd 98 5f 2b 3e
       0.017460655 -0.06593371 -0.09880955 0.16735685
000160 0a 9f 20 3d 2b 22 89 bd 22 1e 3d be 8b e6 01 3e
       0.03921417 -0.0669597 -0.18468526 0.12685601
000170 e3 2e dc 3b 34 bc 72 bd 5c a3 82 3b 78 f6 0f 3e
       0.0067194565 -0.059261516 0.003986759 0.14058864
000180 d4 0d bc 3b 60 e4 2b 3d b0 6f 64 bd 05 9a 01 3b
       0.005738953 0.041965842 -0.055770576 0.001977564
000190 24 65 95 bd 13 d0 95 bd 6f 19 46 3d a3 0b 1a 3e
       -0.07294682 -0.07315078 0.0483641 0.15043502
0001a0 00 22 09 bd 1c 75 b3 bc 69 58 50 bd 52 77 c1 3c
       -0.03347969 -0.021906428 -0.050865564 0.023616467
0001b0 64 af 7f bd 70 5f cc 3d c3 94 af bd 48 26 8f bc
       -0.062423125 0.09979141 -0.08573296 -0.017474309
0001c0 58 2a 80 3d 98 68 54 bd 8e c6 50 3d ba 16 db bc
       0.062580764 -0.05185756 0.050970607 -0.026744235
0001d0 9f f1 1e 3c 0f d9 69 bd 06 b4 d6 bd 71 2d 05 3d
       0.009701162 -0.05709177 -0.104835555 0.03251404
0001e0 fe 80 8b bd d6 0d cf 3c c2 2e 95 3d c8 44 50 bd
       -0.06811713 0.025275152 0.07284309 -0.050846845
0001f0 5d b7 f4 bd bc a8 d0 3d ee aa cc 3c 43 04 85 be
       -0.11949036 0.101884335 0.02498385 -0.25979814
000200 33 8d 1d bd e9 8c 1a be fe 56 e6 3c 63 c2 6e 3d
       -0.038464736 -0.15092815 0.028117653 0.05829085
000210 c4 d3 0b 3d e8 6f 9f bd 2b 2c 67 b9 b3 55 1d be
       0.034137502 -0.07785016 -0.0002204633 -0.15364723
000220 24 7b 7a bc e7 1b 20 3d 5c 9f 59 ba 78 d7 f0 3c
       -0.015288148 0.03908911 -0.00083016395 0.029399619
000230 fe 40 2e bd 5d 5b 20 bd f0 1c 9b bd e4 8a 4f bd
       -0.04254245 -0.03914963 -0.07573879 -0.050669566
000240 bf 04 9b bc 55 69 66 3d df 44 9a 3d 9f 19 ae 3d
       -0.018923162 0.056252796 0.07532667 0.085009806
000250 b5 ff b5 bd 61 c4 4b bc f0 0f 90 3d 2c 29 d8 3d
       -0.08886663 -0.012436957 0.0703429 0.10554728
000260 ba 74 79 bd 66 c4 0b be d9 34 2c bd c7 39 6e 3d
       -0.060902335 -0.13649139 -0.042042587 0.05816057
000270 f9 7e e6 bd 61 c9 ee bd 4f 3b f9 bc ea 62 01 3c
       -0.11254687 -0.11659504 -0.030423788 0.007897118
000280 8d 5a 9e 3d ce f8 04 3d 80 06 01 be bd 8a cb 3a
       0.07732115 0.03246384 -0.12600136 0.0015529018
000290 c6 1b a0 bd 0d ff 3a 3d 44 00 aa bd 06 63 c8 bd
       -0.07817797 0.04565339 -0.08300832 -0.09784512
0002a0 a8 29 2a 3e a7 b6 04 be 52 a9 92 bc a7 8b ad bd
       0.16617453 -0.12960301 -0.017903004 -0.08473902
0002b0 9d ef 93 3c 77 87 1e bd ae d5 97 bd 65 cb 76 bd
       0.018058592 -0.038703408 -0.07413803 -0.060252566
0002c0 ff cd 23 be c9 62 b6 bd 30 3d 4b ba 75 17 91 3b
       -0.1599655 -0.089055605 -0.0007752953 0.004427845
0002d0 b1 fb 1e bd 1b f5 30 bd ae 5b 5e 3d 2f 4a 55 bc
       -0.03881425 -0.0432025 0.05428665 -0.013018175
0002e0 4f 3c e4 bd 1c fa ae bc 33 00 e4 3c c0 81 ed bd
       -0.111443155 -0.021359496 0.027832126 -0.115970135
0002f0 62 2d 16 be 17 1b 9e bd 70 55 46 3c 9b c4 62 bd
       -0.1466575 -0.07720011 0.012105331 -0.05536328
000300 b0 8f 74 3b 61 20 3e 3c 6c 1a 5b bd 7a d3 04 be
       0.003731709 0.011604399 -0.053491995 -0.12971297
000310 81 64 97 3d 2f d5 17 3d e4 28 cf 3c de a1 37 bb
       0.073922165 0.037068542 0.025288053 -0.0028020064
000320 08 00 86 3c 34 72 e9 bd 9c 0e aa bd dc cf dc 3d
       0.016357437 -0.11398736 -0.08303568 0.107818335
000330 cf 8d 7b 3d c2 46 03 be 53 4f 51 bd 48 7b 68 bd
       0.061414536 -0.1281996 -0.05110104 -0.056758195
000340 4d b2 55 3d 4c 36 11 bd d8 bf 4d be 39 75 82 3d
       0.052171994 -0.035452172 -0.20092714 0.06370015
000350 2b ab 90 3d c9 b6 a4 bb eb ba 9b bc ae 10 75 3d
       0.07063898 -0.0050266725 -0.019010028 0.05983036
000360 ee b4 bf bb fc 03 bc 3d f8 cc 6c bb 88 f0 cd bd
       -0.005850426 0.091804475 -0.0036132913 -0.10055643
000370 42 ec cf bb 63 ac 0d 3d 10 36 d5 3a 43 1b b8 3c
       -0.006345303 0.03458823 0.0016266722 0.022473937
000380 ff 14 6a 3d 8e 1d fd 3c d9 ff 27 3d e3 5c 44 bd
       0.05714893 0.030897882 0.04101548 -0.047940146
000390 f2 53 3f 3e 24 05 7b 3c ba 49 02 bd 9b b1 a3 bd
       0.18684366 0.01532105 -0.031808592 -0.0799286
0003a0 b1 e7 60 3d a0 f6 a7 3d 88 d3 a1 bd c2 6d 6c bd
       0.05490846 0.08201337 -0.079016745 -0.05772186
0003b0 59 f1 c0 bd 53 e3 4b 3d e8 44 dd bd d1 79 c8 bd
       -0.094210334 0.04977734 -0.108041584 -0.0978886
0003c0 21 46 78 bc 9e 29 d8 3c 02 97 c8 3d e8 2f 28 bd
       -0.015153439 0.026387032 0.097944275 -0.041061312
0003d0 80 69 9e 3d 83 eb ff bc a7 16 48 3d 8f ca f1 bd
       0.07734966 -0.03124023 0.048849728 -0.11806213
0003e0 d9 53 08 be 79 cd af 3d 27 cc 00 bd a4 2d 46 bc
       -0.13313235 0.08584113 -0.031444695 -0.0120958425
0003f0 c0 f1 67 3d 7a 3a d6 bd f8 7f d1 bc 19 90 94 3d
       0.056627035 -0.10460372 -0.025573716 0.07254047

network_body._body_endoder.seq_layers.0.bias f4 [128]
000000 e5 f8 f2 3c 48 0f 3a bc 8b 27 01 bb 08 ba 74 3c
       0.029659698 -0.011356182 -0.0019707407 0.014936931
000010 c1 92 ff bb df cb 19 3c d5 44 ac 3c 6b ce cb 3c
       -0.007799477 0.009386986 0.021028915 0.024878701
000020 bb 94 c6 b9 48 cc 00 3c e2 83 a9 bb 79 fa f5 ba
       -0.00037876316 0.007861204 -0.0051731924 -0.0018766663
000030 74 1f fd bb 60 46 cf bc 6d e6 28 bc 69 73 b0 3c
       -0.007724697 -0.025302112 -0.010308844 0.021539407
000040 0b f3 dd 3a b5 56 41 bc 8c ca b2 3c b4 2c 02 bc
       0.0016933394 -0.011800458 0.021825098 -0.007945228
000050 37 8d ed 3c 0b e6 77 bb 68 e8 46 bb 53 d2 91 bb
       0.028998 -0.0037826325 -0.0030350927 -0.0044501214
000060 51 59 f7 3c 54 73 04 ba ee 1e 3d 3c 03 f3 d7 3b
       0.030193957 -0.00050525856 0.011543019 0.0065902486
000070 95 4d 16 bc 2b 91 a7 3c 3a a4 87 bc 25 e1 f0 3b
       -0.00917377 0.020454964 -0.016557802 0.007351058
000080 83 80 84 3c 49 23 08 ba c2 4f 9e bb a7 a8 d4 3b
       0.01617456 -0.0005193246 -0.004831285 0.0064898315
000090 80 95 aa bc 78 a9 c9 bb 5c 61 97 bc 79 4a fa bc
       -0.02082324 -0.0061542355 -0.018479042 -0.03055309
0000a0 d6 e7 03 bc 79 ad 04 3d 2c a4 7d bb a4 61 cd bc
       -0.008050879 0.032392 -0.003870259 -0.025070973
0000b0 94 01 9e bb 03 c9 a1 ba 70 f3 54 bc cc 0c 83 3b
       -0.0048219655 -0.0012343231 -0.012997493 0.0039993282
0000c0 db f7 e5 bb 02 c4 8c 3c 7f 45 15 3d 3f aa 7b 3c
       -0.007018072 0.017183308 0.03644323 0.015360414
0000d0 3c f2 87 3b 68 e9 a2 3c 1e ec 00 3c 43 81 c2 bc
       0.0041487496 0.019886687 0.007868795 -0.023743277
0000e0 75 46 87 bc 2b 4c dd 3c a9 a1 8e b9 48 9a c4 3c
       -0.016513089 0.027013859 -0.00027204797 0.023999348
0000f0 5b 1a 95 bc 2f 22 8c bb 93 c7 6c 3c 83 ed f8 bb
       -0.018201044 -0.004276536 0.014451879 -0.007596673
000100 68 1a 0e bc c5 fe 7f 3c ff b2 3a 3c 0e 71 9d 3c
       -0.008673288 0.015624707 0.011395215 0.019218948
000110 cd 10 1e 3d 56 b1 2d 3c 5b ce 4b bc d1 b6 2d bc
       0.03859024 0.010601362 -0.012439336 -0.010602669
000120 7b a6 87 3c 91 0c 38 bc 01 da 40 3a 97 d8 19 3a
       0.016558876 -0.011233465 0.0007356704 0.0005868761
000130 c8 09 e2 3b 55 a8 92 3c 10 37 bd 3c 2f 2f ee 3c
       0.0068981387 0.017902533 0.023097545 0.029075233
000140 da 7b 1f 3d f0 bb c5 bc b7 2a 2c bb 33 fc 94 bc
       0.038936473 -0.024137467 -0.0026270577 -0.018186664
000150 77 e9 c0 bc 91 66 2b 3c 34 92 6c bc 2e bd c5 ba
       -0.023548825 0.010461465 -0.014439154 -0.0015086287
000160 82 52 97 ba 77 1d a1 3a ac 1c bd 3c af c9 23 3c
       -0.0011544975 0.0012292106 0.02308496 0.009996816
000170 b7 bb 00 bc f2 57 fc bc 1e ee 9c 3b 4b 7c 73 3c
       -0.007857255 -0.030803654 0.004789128 0.014861177
000180 ed 00 e2 3c 9d 65 8e 3c 0a af b3 bc 9d 8f 85 3c
       0.027588332 0.017382437 -0.021934051 0.016303832
000190 6b df 73 bc 0b ab 99 bc a5 5f 24 3d 23 1c 6d bc
       -0.01488481 -0.018758317 0.040130276 -0.01447204
0001a0 d5 4d d7 3a e0 d0 78 3c b8 ef 3f 3a db 79 ae 3c
       0.0016426394 0.015186518 0.00073217927 0.02129834
0001b0 03 6e 69 3b 3b 72 3b bc 90 7b a8 3b 4b 26 c5 3b
       0.003561855 -0.011440809 0.005141683 0.006016528
0001c0 90 13 d9 3c 8e ec 8d 3c 4c 86 3d bd ba 03 88 3c
       0.026498586 0.017324712 -0.046270654 0.01660334
0001d0 a6 12 b3 bc 73 88 c1 3c a1 57 d9 3c e2 40 86 bc
       -0.021859478 0.023624634 0.026531043 -0.01638836
0001e0 05 b1 b0 3b b1 7f 75 3c 19 f0 d9 3c bd 4b 8e 3c
       0.005392196 0.014984057 0.026603745 0.0173701
0001f0 51 bc cc b9 0b 83 6b 3c a7 b1 65 bc f0 14 b3 bb
       -0.0003905022 0.014374505 -0.014019406 -0.0054651424

network_body._body_endoder.seq_layers.2.weight f4 [128, 128]
000000 3c c7 9a bd 6a 57 68 3d 33 78 3e 3b 15 56 3e bc
       -0.07557532 0.05672399 0.0029063344 -0.011617203
000010 55 f5 12 3e 1f 27 55 3d f7 a9 56 bd 1e 49 36 3c
       0.14351399 0.052039262 -0.052408185 0.011125831
000020 fc 81 61 3c 49 48 ee 3d 73 df 44 ba 13 16 af bc
       0.013763901 0.11634881 -0.0007510103 -0.02137283
000030 35 0d 5d bd 5a fd e2 bb 47 dc 6a bd ce 5d b7 3d
       -0.053967673 -0.0069271745 -0.05733898 0.08953439
000040 72 76 15 3d 5e 24 1b 3d da 14 c6 3d ac e3 09 3a
       0.03648991 0.03787648 0.09671946 0.0005260061
000050 11 f0 84 bd d3 45 94 bd 8e aa c4 3d a2 a5 e9 bc
       -0.064911015 -0.072398804 0.09602843 -0.028521363
000060 1d 73 17 3b b5 c0 2a 3e 30 27 3b 3e 90 a1 8c bc
       0.0023109384 0.16675074 0.18276668 -0.017166883
000070 7d 2c 81 bb d8 55 01 bd 20 8b c3 bd 21 13 23 3e
       -0.003942071 -0.031576008 -0.0954802 0.15925266
000080 4b 35 46 3d 79 83 05 3e 69 d7 5e bd 36 d1 0c 3d
       0.048390668 0.13038434 -0.05440465 0.034379207
000090 ef 4d 2c 3d 49 08 95 bc f5 bb 80 bc cd 5f 1c be
       0.04206651 -0.018192427 -0.015714625 -0.1527092
0000a0 c2 31 52 3c b7 35 1d 3d d4 56 9f bc 28 fd ae bc
       0.012829246 0.038381305 -0.019450583 -0.021360949
0000b0 51 b3 80 bd f7 c3 5b 3e 2d ce ce bd 9e 85 3b 3d
       -0.06284202 0.21461473 -0.10097919 0.045781724
0000c0 12 cf 8c bd 9b 43 28 bc e6 bd 01 be 62 9f 8f bd
       -0.06875433 -0.010270025 -0.12670097 -0.07012822
0000d0 ea fe c4 bb 11 97 56 bb f6 5c 05 bc 39 10 95 3c
       -0.0060118334 -0.0032743851 -0.008139839 0.018196212
0000e0 42 e6 dd 3c ea d1 b7 bc a9 33 63 3d 69 e0 0e 3d
       0.027087335 -0.022438962 0.05546919 0.034881983
0000f0 df 62 0d bd b4 05 9e bd ef 65 1b 3d 75 b4 2a bd
       -0.03451812 -0.077159315 0.03793901 -0.041676003
000100 12 cc 63 bc eb 44 57 3d 05 c8 dd 3d 64 37 a9 3d
       -0.013903635 0.05255596 0.10829166 0.08262518
000110 6c b3 78 3c 5c ca 68 3d 84 9d 83 bc a8 2a 20 be
       0.015179496 0.05683361 -0.01606632 -0.15641272
000120 2a ec 50 bd c2 5b 2a 3d a7 69 43 3d 99 13 40 bd
       -0.051006474 0.041591413 0.04770818 -0.04689369
000130 fc b3 59 3d 42 41 32 be a8 14 40 3e bf 40 0b 3e
       0.053150162 -0.17407706 0.1875788 0.13598917
000140 84 70 34 3e dc 13 8b 3d 98 e8 d5 bd 1c 97 ae 3d
       0.17621046 0.06790897 -0.10444754 0.085249156
000150 2f 79 4c bd 24 ab c8 bc 98 03 2d 3d ce 60 b8 bc
       -0.049920257 -0.024495669 0.042239755 -0.022507098
000160 e0 c1 36 be 17 ae 1e be 9f d4 46 3c f8 4d 91 3d
       -0.17847395 -0.15496098 0.012135654 0.070949495
000170 2f 2e 33 be c1 18 be bd 85 bf 3e bd 8d 9a d4 bd
       -0.17498086 -0.09282065 -0.046569366 -0.10381041
000180 1a a2 d6 3d 39 74 4d be 14 9d e8 bb 0b 96 c2 3d
       0.10480137 -0.20063867 -0.0070988033 0.09501275
000190 79 e2 1f 3b 40 33 02 3e 61 a0 a9 3d 38 1a 29 3c
       0.0024396463 0.12714863 0.08282543 0.010321192
0001a0 6e f7 14 bd 2b 58 cd 3d 36 59 90 3c 65 75 d7 3d
       -0.03636878 0.10026582 0.017620664 0.10520438
0001b0 9b 40 e1 bd 49 08 29 3d f8 be 35 bd 93 11 6e bd
       -0.10998651 0.041267667 -0.044371575 -0.05812223
0001c0 65 c7 3f 3e 36 cf 1b bc 7e ac a2 bd 08 50 d6 3d
       0.18728407 -0.009509852 -0.079430565 0.104644835
0001d0 c2 61 c3 bd 8e 93 ab 3d c7 f8 09 be 6d 91 0e be
       -0.0954013 0.08377753 -0.13473807 -0.13922663
0001e0 2a 2f c6 bd 60 01 0c 3c a8 d1 30 3e 2b 6b 95 3c
       -0.096769646 0.00854525 0.17267478 0.018239578
0001f0 0b bd c0 3d 6f a5 f1 3d cc 25 6b bd ff 9e 17 bd
       0.09411057 0.11799132 -0.057409093 -0.037016865
000200 7e f8 ad 3d dd cd b2 bc 8a 0c 54 bd 88 1b de 3d
       0.08494662 -0.021826679 -0.05176977 0.10845095
000210 cf fb 46 bd 77 58 e8 3c c5 12 55 bd f2 cc fb bc
       -0.048579987 0.028362496 -0.052019853 -0.030737374
000220 ab 7a 3d bc fc 40 5f 3e cf 48 a6 bd 30 c7 b5 3b
       -0.011564891 0.21802133 -0.08119356 0.0055474266
000230 7a 24 51 3d bf 4d c9 3d 5c b3 97 bd e1 43 6b bd
       0.051060177 0.09829282 -0.07407257 -0.05743778
000240 9f 38 8a 3d a3 25 9a bb 3b 23 6b 3d bf 74 cd 3d
       0.06749081 -0.0047041937 0.057406645 0.10032033
000250 bd 9c 70 bd ca 7d fd 3d ca 4d 29 bd 15 e8 b1 bd
       -0.058743227 0.12377508 -0.04133395 -0.08686844
000260 2d 53 31 bd 8e d0 e1 3d 83 55 18 bb 6a 00 db bd
       -0.043292213 0.11026107 -0.0023244328 -0.10693438
000270 84 71 e4 3d 65 40 2a 3e fd 45 58 bd d8 3a c3 3d
       0.11154464 0.16626127 -0.05280112 0.09532708
000280 c5 08 dd bd c5 ed f2 3c 06 42 2c be dd 12 54 bd
       -0.10792688 0.029654393 -0.16822061 -0.051775802
000290 53 35 87 3d 9c e8 01 be 56 e5 b2 bb 14 23 a2 3d
       0.06601968 -0.1268639 -0.005459468 0.07916847
0002a0 81 93 83 3d e0 d7 df 3d 5a 67 38 3c ca 11 eb bd
       0.064246185 0.10929847 0.01125511 -0.11478002
0002b0 46 5f ac bd 13 61 88 bc 48 d0 80 bc 9c da 50 3c
       -0.084166095 -0.016647851 -0.015724316 0.012747433
0002c0 36 31 43 3d 5a 2b f1 bc f1 a9 3d 3e 87 7f fd 3c
       0.047654353 -0.029439617 0.18521859 0.030944599
0002d0 2b b9 83 3d 3a 2e 78 bb 23 49 3c 3c 2b ee 2f be
       0.06431802 -0.003786935 0.0114920465 -0.17180698
0002e0 89 6e 32 3e f9 3e bf bc ad 07 90 bd 66 bc 84 bd
       0.17424978 -0.023345457 -0.07032714 -0.06481247
0002f0 29 ff 8b 3d 3c 7e e6 3d 95 49 af 3d 61 90 69 bc
       0.06835777 0.11254546 0.085589565 -0.014255614
000300 b6 48 ea bc 03 25 21 bd fd b3 7e bc 3d 79 42 3d
       -0.028599124 -0.039341938 -0.015545842 0.047478903
000310 34 2d 86 3c 3e 2a 8b bd d3 ed e3 3d e6 5d 65 be
       0.016378976 -0.067951664 0.11129346 -0.223991
000320 52 63 ab b8 3f b6 d8 bc ae b1 d8 3d 0b 1e 74 bd
       -8.172415e-05 -0.02645409 0.10580765 -0.059598964
000330 60 78 ad bd 8c be 1b bd 3c 5c a8 bd 04 7f 9c 3c
       -0.08470225 -0.038023517 -0.08220717 0.019103535
000340 09 74 bc 3c d1 31 50 3d 29 b6 bf 3d 36 c9 24 3c
       0.023004549 0.05082876 0.09360916 0.010057738
000350 d5 95 c0 bc 9f d6 64 bd e4 ea 61 bd 4a b5 b7 3d
       -0.023508945 -0.05586874 -0.05515565 0.08970125
000360 33 43 b1 3d 19 0e 35 3d 82 db 5b bc 8a 16 d9 bd
       0.08655395 0.044202898 -0.013419034 -0.10600002
000370 f3 86 0e be ac dc 0f bd 58 53 85 bd 1d b8 a8 3d
       -0.13918667 -0.03512256 -0.06510037 0.08238242
000380 c3 3a d8 3d 18 0d 6e 3d 30 8f b7 3c 2a a1 76 3d
       0.10558083 0.058117956 0.022407144 0.06021229
000390 73 63 95 3d 4a dd ba bc 42 d3 41 3e c1 3d df 3c
       0.07294359 -0.022810597 0.18928245 0.027251126
0003a0 5d f6 a8 bd c2 11 d2 3d 8a 25 bb 3c 7c 34 d3 3d
       -0.08250115 0.10257293 0.022845048 0.10312745
0003b0 f2 3a b0 bd bf 75 34 bc f7 5e f7 bc 01 de 67 bd
       -0.08604993 -0.011014401 -0.03019665 -0.056608204
0003c0 9c 54 ba b8 fa cb a7 3c 22 d4 89 bb 3e 37 84 3d
       -8.884931e-05 0.020483006 -0.0042061964 0.06455849
0003d0 3f 3c 91 bd 03 58 0a be d5 d0 f3 bc 0e d8 b5 bd
       -0.07091569 -0.13510136 -0.029762665 -0.088791
0003e0 68 98 12 bd 62 38 c2 bd c1 ca 96 3d c5 51 01 be
       -0.035789877 -0.094834104 0.07362891 -0.12628849
0003f0 36 56 13 bd cb d3 5a be 6d de d1 3d b1 a5 8d bd
       -0.03597089 -0.21369855 0.102475025 -0.06916369

network_body._body_endoder.seq_layers.2.bias f4 [128]
000000 16 b6 9c 3c fd e3 52 3c e2 78 64 3c 5b 01 f4 3b
       0.019129794 0.012871739 0.013944836 0.0074464506
000010 98 4e 23 3b 4b c5 b8 ba 96 59 56 3b 66 75 7f 3c
       0.0024918672 -0.0014096884 0.0032707206 0.015591955
000020 26 90 49 bb 4d 62 3b 3c 82 18 c5 3c 87 34 2a bc
       -0.0030756085 0.011437011 0.024059538 -0.0103885
000030 b6 d6 61 3b 49 d0 d5 bc e0 e9 c4 3b 34 cf d9 bb
       0.0034460253 -0.026100295 0.0060093254 -0.006647015
000040 ca 77 23 3d 72 32 61 3c 00 ed b9 bb 1c 69 b4 ba
       0.03990916 0.013744937 -0.0056740046 -0.0013764235
000050 17 71 41 bc c0 7d 85 bc d4 ef 90 bc ba 29 bf bc
       -0.011806748 -0.016295314 -0.017692484 -0.023335326
000060 09 0c 86 3b e3 0d ad bc f8 78 55 bb 0f b1 a6 3b
       0.00409079 -0.021124786 -0.0032573324 0.005087025
000070 38 57 7e bc e3 cb 53 3c 72 a3 e0 bb 74 ea 2b 3c
       -0.015523724 0.012927028 -0.0068554217 0.01049291
000080 d1 72 78 bc bd 27 0f bc 31 ab a0 bc 35 e8 39 bb
       -0.015164093 -0.008737502 -0.01961288 -0.0028367166
000090 b6 f9 76 3b a8 23 31 bc 28 3b 77 3a c1 d8 09 bc
       0.003768546 -0.010811724 0.0009431117 -0.008413495
0000a0 6f 6d a5 bc 82 d9 a3 3b 01 75 30 bc c0 8a 6c 3c
       -0.020193784 0.005000294 -0.010770083 0.014437377
0000b0 3c e1 81 3b ed 62 e4 bc 38 e5 6f 3c 91 db 09 3c
       0.0039636176 -0.027879203 0.014642052 0.008414165
0000c0 06 1a e5 3c 80 f5 0a bc 8d 0a 75 bb c9 c8 b0 3c
       0.02796651 -0.008481383 -0.0037390322 0.021580117
0000d0 c7 5c 98 bc dc a2 84 bc 04 1e ff bc 4f 19 b5 3c
       -0.018598927 -0.016190939 -0.031142242 0.022106795
0000e0 81 4f 8e bc 9e c8 c8 bb 5d 31 68 bb a2 c9 87 bc
       -0.017371895 -0.006127431 -0.0035429813 -0.016575638
0000f0 4f b7 15 bc 1b 14 c8 bb 5c a0 cb ba d5 66 70 bc
       -0.009137942 -0.0061059124 -0.0015535462 -0.014672955
000100 33 08 21 3c d0 7b 27 3c 88 ea 25 bc d4 3e 27 38
       0.009828615 0.01022239 -0.010126717 3.9874416e-05
000110 8b 55 d3 3c fd be 4b bc b8 d9 7e bc 8e 53 d2 3c
       0.025797626 -0.012435672 -0.015554838 0.025674608
000120 c0 eb bc bc a3 c8 64 bb ba dd 0b bc 35 73 cf 3c
       -0.023061633 -0.0034909628 -0.00853675 0.02532349
000130 2f 60 10 3d 1f 6d 84 bc 88 2c 29 3c 91 a6 d4 3c
       0.035247978 -0.016165314 0.0103255585 0.025958331
000140 2d e8 05 b8 80 05 23 ba af 93 13 bc 5c ed 2f 3b
       -3.19259e-05 -0.0006218776 -0.0090073785 0.0026844358
000150 26 86 f7 ba a0 5e 9c bc 0c 6c 00 bb e6 67 d3 3c
       -0.0018884584 -0.01908809 -0.001959565 0.025806379
000160 fb 34 10 bc c8 f1 39 3b be e9 08 bc 1c f4 d3 3c
       -0.008801694 0.0028372873 -0.00835651 0.025873236
000170 a8 f3 e9 3c 7b 8d f7 bb 7d 83 72 3c f7 14 02 3c
       0.028558567 -0.0075547076 0.014801857 0.007939569
000180 28 93 4e bc 4f 60 bf ba 35 02 ae 3c 7e 10 67 bc
       -0.012608327 -0.0014600846 0.021241287 -0.014103053
000190 ef b7 d4 bc b3 2d 6f 3c 9f a9 91 bc cf 1f 01 3d
       -0.025966613 0.014598298 -0.017781077 0.031524476
0001a0 7f 7a 86 bb 05 f5 f9 3b 6f a0 00 bb 49 d8 ce 3b
       -0.004103958 0.0076280856 -0.0019626876 0.0063124043
0001b0 52 7a ac bc f0 a9 24 3c 08 1e 24 bc 44 6b 4e bc
       -0.02105442 0.010050282 -0.010016926 -0.012598816
0001c0 d0 8d 34 3c 91 16 67 bc df 83 27 3b aa 17 81 bc
       0.011020139 -0.014104501 0.002556078 -0.015758354
0001d0 44 fe ac 3b aa 22 2e bc 97 ba 5f bc 92 3c 43 bb
       0.0052793343 -0.010628382 -0.013655326 -0.0029790741
0001e0 37 6d 5b bc 55 ba 56 bc 7a 67 0d bc 30 1a a6 3b
       -0.013392738 -0.013105948 -0.008630628 0.0050690398
0001f0 f4 92 cf bb aa d8 93 3c dd ed ae 3b 51 03 4a bb
       -0.006334657 0.01804765 0.005338414 -0.003082473

action_model._discrete_distribution.branches.0.weight f4 [2, 128]
000000 60 23 3b 3d 1f 07 a6 3a c9 fa 4d bc ab 6e b3 3a
       0.045688033 0.0012666917 -0.012571999 0.0013689598
000010 17 a8 1a bd 8f f8 6e bc 8a 9e 10 bc 46 54 d2 bc
       -0.03775796 -0.014585628 -0.008826861 -0.02567495
000020 a7 6b a3 3c d6 99 8c 3c 36 d6 9c bc 5a 12 36 bc
       0.019948794 0.017163198 -0.019145112 -0.011112774
000030 29 52 bf bc b0 6c d1 3a 34 dc f7 3c a6 80 47 bc
       -0.023354607 0.0015977826 0.030256368 -0.012176668
000040 1c 37 fd 3c 9e 1a 05 3d a3 c0 fa bb 46 2e c3 3b
       0.030910067 0.032496087 -0.0076523586 0.005956444
000050 c9 6d 6e bc 8a 96 95 bc 06 90 a8 3b 6a 5c 95 bb
       -0.014552542 -0.01826026 0.005144122 -0.0045581358
000060 5d 29 54 3b 1e 43 f7 bc 6f 31 60 bc 0a 29 3d 3c
       0.0032373287 -0.030183371 -0.013683661 0.011545429
000070 4d d0 dc 3b fd 30 d1 3c c3 dd 84 3b 08 1b 08 39
       0.0067386986 0.025536055 0.0040547564 0.0001298004
000080 23 b1 f2 3b 51 4d 16 bc 08 04 99 bb cc 57 41 3c
       0.0074063702 -0.009173707 -0.00466967 0.011800718
000090 97 e0 f8 3b 6a ef dc bc fa c4 24 3c a8 6d ee bb
       0.0075951326 -0.02696963 0.0100567285 -0.0072762556
0000a0 6d df b7 bc 98 d4 65 bc b8 99 09 bc 69 3b cd 3b
       -0.022445405 -0.014027737 -0.008398466 0.0062631858
0000b0 ef 42 d7 3b 8a 6e 52 3c 89 a9 02 bd 74 1d 0d 3d
       0.0065692584 0.012843737 -0.031899963 0.034451917
0000c0 33 a8 9d 3c bf cb 17 bd fe be b5 bc 14 6b 73 3d
       0.019245243 -0.03705954 -0.022185799 0.05942829
0000d0 70 e2 d6 bc 49 26 87 bc 33 6a cb bb 3f 19 0a 3d
       -0.02623102 -0.016497748 -0.0062077283 0.033715483
0000e0 22 49 05 bd 7d d0 13 bd ed fa 3c 3b 66 a4 d8 bc
       -0.032540448 -0.0360875 0.0028836087 -0.026445579
0000f0 0b 02 f0 3c e2 d2 f8 ba fb 24 5f bc 92 b2 59 bc
       0.02929785 -0.0018983746 -0.013619657 -0.013287203
000100 51 b4 35 3c 1e 36 05 bc 06 0f 5f 3c aa f4 89 39
       0.011090354 -0.008130578 0.013614422 0.00026312965
000110 94 9b 3c bc 76 d8 fa bc 64 82 b6 bb 76 63 bc 3c
       -0.011511702 -0.030620795 -0.005569743 0.022996645
000120 11 2d ee bc dc bf c3 3a c4 1c cb ba f0 a6 25 3d
       -0.029074224 0.0014934498 -0.0015496244 0.040442407
000130 07 a6 4a 3d b9 91 8d bc 42 6d bd 3c b2 f4 d4 3c
       0.049474742 -0.0172814 0.023123387 0.025995586
000140 88 42 06 bc 11 4b 0c bd 13 14 69 3c 12 88 75 3b
       -0.008194573 -0.034251276 0.0142259775 0.0037465137
000150 20 e7 84 bc 2b 1e 3b bc c1 d8 cb 3b f9 73 02 3a
       -0.01622349 -0.011420767 0.0062209074 0.0004976388
000160 e4 8f 46 3b ec 80 2d bc 3f e8 ba bc 21 04 0a 3c
       0.0030298168 -0.010589819 -0.022815822 0.008423836
000170 99 5a 4a 3d bc b5 eb bb 19 ff 2d bd fb 97 d9 3c
       0.049402807 -0.0071932953 -0.04247961 0.026561728
000180 be 4d 0e bd 2c de 82 bc 2b 7b 38 3c c4 eb 90 bb
       -0.03474211 -0.01597508 0.011259834 -0.0044226367
000190 ba e2 57 bc 6a 17 48 3d 08 6a 28 3c 80 a8 41 3c
       -0.013176614 0.048850454 0.010279186 0.011819959
0001a0 56 67 6a 3b d2 b7 81 3c 05 de c0 b9 4b db ac bc
       0.003576716 0.015834723 -0.0003678651 -0.02110066
0001b0 f0 52 49 bc a3 de 00 3d b2 16 de bc dc f9 86 3b
       -0.01228784 0.031462323 -0.027110431 0.004119141
0001c0 90 2e 7e 3c b9 82 45 bd 83 1e 1d bc 49 6a 24 3b
       0.015514031 -0.04822037 -0.009589794 0.0025087765
0001d0 ef bc 94 3b 21 51 87 ba a2 f2 15 bd bc 32 72 bd
       0.004539124 -0.0010323861 -0.036608346 -0.059130415
0001e0 72 7a 3e bc 04 d7 e4 3b 30 fe 89 bc d9 c1 a2 bc
       -0.011625873 0.0069836397 -0.016844839 -0.019867824
0001f0 d2 6d 33 3c ab ff 19 bc 23 27 95 3c 67 a5 d0 bc
       0.010951476 -0.009399335 0.018207138 -0.025469495
000200 5d 40 d4 bc 1e ff 49 bc b3 97 96 ba d0 05 b8 3c
       -0.025909597 -0.012328891 -0.0011489302 0.02246371
000210 7b e4 17 3d b6 b7 bf 3a 6f fb 86 3c 2e 71 b5 3c
       0.03708313 0.0014626894 0.016477315 0.022148695
000220 6f 71 a9 bc af b8 88 bc 32 96 08 3d 10 9b e1 3c
       -0.020683972 -0.016689627 0.033346362 0.02753976
000230 71 67 17 3d 1d 52 1e 3c 36 3f b4 bc 83 d6 a0 3c
       0.036963884 0.009663132 -0.022002798 0.019633537
000240 7b 87 61 bc c1 c3 e2 bc 71 57 8e 3c 82 79 82 3b
       -0.013765211 -0.027681233 0.01737568 0.00398177
000250 f8 3c c8 bb 94 7a dd 3b ca 7c 4c bb 1e 98 14 3c
       -0.0061107837 0.006758997 -0.003120231 0.009069471
000260 8a 05 d9 b9 c0 9d d6 3c f0 90 00 3d 74 d6 ba 3a
       -0.00041393592 0.026198268 0.031388223 0.0014254586
000270 e3 4a 48 bb bc 6b 0e bd c8 c9 a3 bc 00 0a 4a bc
       -0.0030562214 -0.034770712 -0.019993678 -0.012331486
000280 f1 3f 95 3c 2c 14 5f 3c ba 92 a3 3c 93 87 4a bc
       0.018218966 0.013615649 0.019967426 -0.012361425
000290 d5 f8 dd bc 79 d1 fe 3c 43 d3 a4 3b d8 db e5 bb
       -0.027096191 0.031105744 0.005030067 -0.007014733
0002a0 0f 96 31 3c 31 c0 80 ba ff 00 85 3b 6c fb 80 bb
       0.010838999 -0.0009822903 0.0040589566 -0.003936222
0002b0 16 1b 9b 3c 01 3c cd ba f1 cc a1 3c 6e f5 aa bc
       0.018933814 -0.0015658141 0.019751044 -0.020868983
0002c0 d7 b4 a6 bb 8c 2c 4f 3d ff 80 14 3d 47 42 3b bd
       -0.0050874758 0.050579593 0.036255833 -0.045717504
0002d0 be 95 60 3c 5d f5 0a 3d b3 20 ae 3c f3 0b 32 bd
       0.013707576 0.033925403 0.021255827 -0.043468427
0002e0 e7 c3 03 3d 23 03 0c 3d e1 54 94 bb 5a 16 b5 3c
       0.03216925 0.03418268 -0.00452672 0.022105385
0002f0 6e 82 0d bd fe 8d ee bc 21 f1 ce 3c 75 45 ef 39
       -0.034548216 -0.029120442 0.025261464 0.00045637382
000300 88 a7 82 bc 9f fc fe 3b 72 1c f0 bc c8 c8 71 bc
       -0.015949026 0.0077815796 -0.029310439 -0.014757343
000310 b9 67 83 3b c1 a8 c5 3c 9d ab e2 3a da 5a cb bb
       0.0040101674 0.02412832 0.0017293576 -0.0062058987
000320 55 3e 58 3c 2a 48 e0 b7 f9 c6 bb 3c 33 8e a7 bc
       0.013198455 -2.6736485e-05 0.022922026 -0.020453548
000330 58 a1 81 bd 73 5b f0 3c 14 56 bc bc ba 74 b7 bc
       -0.06329602 0.029340481 -0.022990264 -0.022394527
000340 63 c4 a1 3b 57 02 f8 3c 72 26 22 bc d8 c4 08 bc
       0.004936741 0.030274553 -0.009896861 -0.008347712
000350 43 cf 59 bc 76 a0 fd 3b 3e fb 54 ba de f9 b7 bc
       -0.013294044 0.0077400757 -0.0008124596 -0.022458013
000360 0d 3a 7e 3a 07 d4 c8 3b ec d0 d7 bb 4a 53 5a bb
       0.00096979813 0.0061287913 -0.0065861847 -0.0033313804
000370 fb 61 53 bd f9 01 09 3c 4e 3c 67 3d e8 4f 0e bd
       -0.051607113 0.008362287 0.056453995 -0.034744173
000380 ce 5f 16 3d cf 1b 2e 3b 71 36 48 3c 08 6b 71 3c
       0.03671246 0.0026566868 0.012220011 0.014734991
000390 2e 44 f0 3b 22 ef 39 bd ae 1f c1 3b ac a6 cd bc
       0.0073323464 -0.04539407 0.005893669 -0.02510389
0003a0 08 d5 6a 3c 8a e2 fe bc cb d2 aa bc 94 35 0d 3d
       0.014333017 -0.031113882 -0.020852467 0.034474924
0003b0 a4 fd 43 3c ea 0e 16 bc 82 8b e3 3c 79 48 27 bc
       0.011962328 -0.009158829 0.027776483 -0.01021015
0003c0 d8 c4 b7 bb 23 ea 00 3d 2c d3 dd 3b 88 33 03 bc
       -0.0056081824 0.03147329 0.0067695584 -0.0080078915
0003d0 36 c4 1a 3c ef 82 3a 3c 3b e6 04 3d de 5a 79 3d
       0.009446194 0.011383756 0.032446127 0.060877673
0003e0 d5 b2 12 3d e5 64 f4 bb df fb 81 3c bb 8f ae 3c
       0.03581508 -0.0074583166 0.015867172 0.02130877
0003f0 1c 61 71 bc bd 59 e8 3c 17 9a fc bc f0 c5 46 3c
       -0.014732625 0.028363103 -0.030835195 0.012132153

action_model._discrete_distribution.branches.0.bias f4 [2]
000000 8b 30 71 3c 87 30 71 bc
       0.014721046 -0.0147210425

action_model._discrete_distribution.branches.1.weight f4 [3, 128]
000000 dd ca 5b bc 51 c5 ed bb e9 76 84 bd fe 7f 3e 3c
       -0.013415066 -0.007256188 -0.06467993 0.011627195
000010 04 22 03 3d 82 e0 8a 3c a6 be b5 bb 70 98 a2 3c
       0.03201486 0.016952757 -0.0055464087 0.019848078
000020 36 26 be 3c 26 9e b9 bc 94 de 65 bc d5 95 81 3c
       0.02321158 -0.022658419 -0.014030118 0.015818516
000030 ed b3 fa 3c 46 13 10 3c 7a ba dc bc 15 1b 13 bd
       0.030603373 0.008793658 -0.026944388 -0.0359145
000040 6c ea 9a 3c d1 f7 22 bc fb 7c aa bb c1 c9 af bc
       0.01891061 -0.009946779 -0.005202887 -0.021458508
000050 d0 52 68 3b 41 87 8e bc 5d f9 f6 3b 27 49 99 bc
       0.003544975 -0.017398478 0.0075370506 -0.01871164
000060 0d e1 d6 bc 51 47 42 bc 01 7c 3e 3d 9d 18 7e 3a
       -0.02623036 -0.0118578235 0.046504978 0.0009692999
000070 77 95 cc 3c 3f 85 fa 39 de be ad bc 3f 31 0d bd
       0.024973614 0.00047782992 -0.021209177 -0.034470793
000080 f8 00 b6 3c cb fc cb 3c 03 2a f6 bc e4 82 fe bb
       0.022217259 0.024900815 -0.03004933 -0.007767068
000090 0d 65 88 3c 18 65 38 bc 7b c5 4b 3d 54 6f a6 bc
       0.016649747 -0.011254571 0.04974888 -0.020316757
0000a0 55 df a0 3c 7b 7e 40 3d af 59 17 3c 5d 3d 6c bd
       0.019637743 0.04699562 0.009237691 -0.057675708
0000b0 33 ca 0e bd c0 2c c7 3b f2 2e 27 bd ea d3 3f 3c
       -0.0348608 0.0060783327 -0.040816255 0.011708239
0000c0 b7 30 c7 3c 85 6f 90 bc 5f d9 7a 3c 1a 0d 81 3c
       0.024315221 -0.017631302 0.015310614 0.015753318
0000d0 4a 75 b6 3b d9 66 54 bc c0 51 1f 3c f2 59 2d bd
       0.005568181 -0.012963974 0.009724081 -0.042322107
0000e0 bc ec d7 3b d4 85 27 bd 0c b5 e5 3c 30 00 0e 3d
       0.0065895002 -0.040899113 0.028040431 0.034668148
0000f0 6c 58 47 3c 6f 08 1c 3c d3 23 75 3c 95 c9 9d 3c
       0.0121670775 0.009523495 0.014962154 0.01926116
000100 a1 d3 b5 bc 4a e7 ed bc 8c 23 b6 3c f5 4d cf 3c
       -0.02219564 -0.029040951 0.022233747 0.025305727
000110 88 bf 14 bc 0b 15 09 3d ca bc ac 3c 6a a9 4a 3c
       -0.009078868 0.033467334 0.021086115 0.012369493
000120 96 4c 86 3c b1 f4 b0 bb 6f e2 22 3d ec d5 ed 3c
       0.01639394 -0.0054002632 0.039766725 0.02903267
000130 37 6f bb 3c bb 0a fe bc 82 d8 2b 3c 42 86 96 bd
       0.02288018 -0.031010976 0.010488631 -0.073498264
000140 be 61 7e bd 99 6a 07 3b 4e 41 41 bc 4b 9f ef bc
       -0.062104933 0.0020662902 -0.011795355 -0.029250761
000150 b6 6f 38 3d 36 3a 24 3c 4a f8 80 3c cf 5c 78 3b
       0.04502841 0.010023644 0.015743393 0.0037897115
000160 e1 b6 39 bc fe 7d 3c 3d 82 fb c6 3c 4a 32 71 ba
       -0.011335106 0.046018593 0.02428985 -0.0009200914
000170 7f ff 29 3c 68 29 2f 3d 68 8f d5 bc 55 5f a1 bc
       0.010375856 0.042764097 -0.026069358 -0.019698778
000180 92 e4 30 3c c0 cc 4b bd 0b 3a 1f 3b 41 4d fe 3c
       0.010796683 -0.04975581 0.002429607 0.031042697
000190 04 d4 b7 3b 4a fa f4 bb ef 65 0f bc 05 91 13 3d
       0.005609991 -0.007476126 -0.00875233 0.036026973
0001a0 39 57 7a bc 1c 70 d2 3c 4e d4 f4 bb 7d 92 8b bc
       -0.015279585 0.025688224 -0.0074715978 -0.017037624
0001b0 2e d5 61 3c 05 d7 27 3c 1f 8c 8c bb 67 fa 4e bc
       0.013783736 0.010244136 -0.0042891647 -0.012632943
0001c0 b3 8c a4 38 b7 32 b1 3b e1 97 e0 3c 15 cb 2b 3d
       7.846337e-05 0.005407657 0.027416172 0.04194172
0001d0 db f9 4f bc 6c 20 5e 3b 10 7b 23 bc 07 b3 4a bc
       -0.0126938475 0.0033893837 -0.009978071 -0.012371785
0001e0 85 e3 0f 3c 86 d9 31 3d 44 70 b5 3c 3e f7 ed bc
       0.008782272 0.043420337 0.022148259 -0.029048558
0001f0 ff ff 24 3c 1b e0 1e 3a 06 eb 6b 3c 01 4a b1 bb
       0.0100708 0.0006060616 0.014399296 -0.0054104333
000200 92 2e 62 3c c2 e8 38 bc a3 0b db 3c 4e ae 1f bd
       0.013805049 -0.011285963 0.026738947 -0.03898459
000210 a2 e4 18 bd 71 61 db bc e2 3c e9 bc 69 78 18 bd
       -0.037327416 -0.026779862 -0.028471414 -0.037224207
000220 77 b7 bd bb 46 5b 8f 3a f0 16 fc bc d5 85 e5 bc
       -0.005789693 0.0010937236 -0.030772656 -0.028017918
000230 af e5 b4 bc 93 c8 86 3c cd 4f dd 3c 52 53 a0 3c
       -0.022082178 0.016453063 0.027015591 0.01957098
000240 76 cf 61 bd 06 9d 52 bc 64 7a d3 ba b5 63 c4 3c
       -0.05512949 -0.01285482 -0.0016134498 0.023973325
000250 62 76 e1 3c 12 ac e9 3b 42 6f 15 3c 5f 07 53 3c
       0.02752227 0.007131108 0.009120764 0.012880175
000260 0c c8 6f 3d dd 5f ac 3c e1 e9 05 bd b9 06 1c bd
       0.05854039 0.021041805 -0.032693747 -0.03809235
000270 46 4b a7 3b d7 44 c1 3c 21 85 cd bb 72 8a 57 3c
       0.005105409 0.023592396 -0.0062719737 0.0131555665
000280 82 a2 58 bc 05 d3 25 3d 36 04 40 bc 6a 75 06 3d
       -0.013222339 0.040484447 -0.011719754 0.03282682
000290 3f 2d a6 3b ba c0 0a bb 9a 16 42 bd 3b 5d 9e bc
       0.0050713117 -0.0021172003 -0.047384836 -0.019331565
0002a0 e5 c2 f9 ba 9e 61 a9 bc be d0 88 bc 90 5e 0a 3d
       -0.0019055275 -0.02067643 -0.016701099 0.033781588
0002b0 30 61 42 bc 58 f1 ba 3b b6 6e 8c 3c 96 d8 09 bd
       -0.011863992 0.00570504 0.017142635 -0.033653818
0002c0 09 28 14 bd ed 1d e6 3b 49 35 e6 3b 0a 6d df bc
       -0.036170993 0.0070226104 0.007025395 -0.027273674
0002d0 bf ba 6a 3c f0 9c 07 3c 05 df 0f bc 4c 3a 05 3c
       0.01432675 0.008277163 -0.008781199 0.008131575
0002e0 f1 d0 52 bc e1 c2 55 3d bc bd 10 bc 30 2a 92 bc
       -0.012867198 0.052187804 -0.008834299 -0.017842382
0002f0 6a 55 39 bb a2 de 17 3c 20 42 a5 bc be a9 b9 3b
       -0.002827967 0.009269388 -0.020173132 0.005665987
000300 05 90 08 bc 57 20 9f ba bf e8 71 3c e4 22 07 bd
       -0.008335118 -0.0012140375 0.014764964 -0.03299226
000310 9a 3b 07 bd 5c cb a5 ba fe 30 5f 3c 0b c2 05 bd
       -0.033015825 -0.0012649107 0.0136225205 -0.032655757
000320 69 c8 53 3c 5d fa e5 bb cc fe 81 bc c2 44 45 bd
       0.0129261995 -0.007018371 -0.015868567 -0.048161276
000330 17 36 2f 3c 05 18 ae 3c 39 a8 de bc 02 65 d7 3c
       0.010694048 0.021251688 -0.027179824 0.026293281
000340 39 8d 63 3c 79 7d 11 bd d5 5b ba 3c 22 c0 90 3c
       0.013888651 -0.03552005 0.022748867 0.017669741
000350 f5 82 0c bd 9a f5 33 3b d3 b4 c2 3c 2b 04 18 bd
       -0.034304578 0.0027459622 0.023767864 -0.03711335
000360 93 4e 45 3d 20 01 47 3d 46 8e ee ba 84 85 f1 bc
       0.048170637 0.048585057 -0.001820036 -0.02948261
000370 57 3e 2f bd 49 74 d8 3b 65 e6 98 bc f1 dc e9 3b
       -0.04278406 0.006605659 -0.018664548 0.007136934
000380 5b 79 0b 3d 2c 24 f4 3c e6 cc 8d bd e2 31 45 3c
       0.03405128 0.029802404 -0.06923847 0.012035819
000390 bb 53 9f bb d0 95 71 3d 00 b5 b3 3c 16 22 c8 bc
       -0.0048622764 0.058980763 0.021936893 -0.024430316
0003a0 ff 53 38 3d 26 5e c6 bc 7c a8 02 3c e6 52 93 bb
       0.04500198 -0.024214815 0.00797474 -0.0044959662
0003b0 b8 fc 81 bc f0 4c 1f bd d3 e6 00 bd 33 c8 60 3c
       -0.015867576 -0.038891733 -0.03147013 0.013719606
0003c0 c7 f4 c4 3c 2d 30 19 bb 6a e6 05 3d 9e 6f 7c 3c
       0.0240425 -0.0023374662 0.032690443 0.015407471
0003d0 b4 62 78 3c b0 2c 21 3d 38 7f 85 bb e7 ff 9c 3c
       0.015160251 0.039349258 -0.0040740035 0.019164992
0003e0 28 f6 80 3c 0c 59 de bc 59 ae 9d bc e3 7a 8b bc
       0.015742376 -0.02714207 -0.019248175 -0.01702637
0003f0 d7 a1 13 3d 5f ad 35 bd 2a 8f ec 3c 3b b0 06 3d
       0.036043014 -0.044354793 0.02887686 0.03288291

action_model._discrete_distribution.branches.1.bias f4 [3]
000000 a2 a1 bc bb fb b4 2a bc 0b 3f 8e 3c
       -0.005756573 -0.010419126 0.017364046

action_model._discrete_distribution.branches.2.weight f4 [1, 128]
000000 fd 55 0f bc db 20 be bb 39 7d 1c 3b ef d5 ad 3c
       -0.008748529 -0.0058022565 0.002387835 0.021220176
000010 61 13 05 3c c5 8a 76 38 28 71 69 3b 98 88 52 3c
       0.008122296 5.878021e-05 0.0035620425 0.012849949
000020 34 f3 a2 3c 97 14 17 bc 23 a9 5a bc c6 db 95 b9
       0.019891359 -0.009221218 -0.013345989 -0.0002858324
000030 08 66 34 3a d3 28 00 bb f2 fb 5b 3c a2 4a 50 3b
       0.0006881659 -0.0019555583 0.013426768 0.0031782766
000040 58 ca b7 bb 85 35 06 bc b8 f9 a4 3b 74 72 8f b9
       -0.005608838 -0.008191471 0.0050346516 -0.0002736036
000050 7d 70 3a bc 82 e9 36 3c 76 b3 a6 bb 4b b7 f0 39
       -0.011379358 0.011164071 -0.0050873114 0.0004591293
000060 a7 d6 96 3b 67 4f 8c bc c9 b8 0f bc c3 a7 de 39
       0.0046032253 -0.017127706 -0.008772084 0.00042468132
000070 ef a0 a5 3b a6 9f 34 bb 45 04 40 bc 82 87 70 bc
       0.005054585 -0.0027560978 -0.011719768 -0.014680745
000080 d4 19 05 3c 79 52 15 3b f2 8a ac bb 40 34 e8 ba
       0.008123834 0.0022784753 -0.005265587 -0.0017715767
000090 f5 fe 15 ba c1 03 c9 3c 6c 5d 83 3c 46 b2 2c 3b
       -0.00057218905 0.024537923 0.016035758 0.0026351376
0000a0 33 eb 8f bb 82 1e 47 3b e4 3e b8 3b 73 c4 f3 bb
       -0.0043920516 0.0030383174 0.0056227315 -0.00743919
0000b0 01 89 be 3b de 0c 29 ba c5 ed d7 ba 77 91 12 bc
       0.005814672 -0.0006448756 -0.0016474059 -0.008945814
0000c0 38 46 e3 bb fd 02 3a bc 04 a2 87 bb 83 01 e7 bb
       -0.006935861 -0.0113532515 -0.004139187 -0.0070497408
0000d0 68 79 f7 bb 4a 40 57 bc 74 95 82 bc 7d 9c b5 ba
       -0.0075523145 -0.013137886 -0.015940405 -0.0013855841
0000e0 ef 5c 42 bb 89 16 c3 bb c7 52 ce 3a c2 78 2b bb
       -0.0029657444 -0.005953614 0.0015741222 -0.0026164507
0000f0 c1 f1 9b bb 41 cc 92 3c 52 71 09 3a ab 69 9b 3b
       -0.004759044 0.017919661 0.00052430213 0.004742821
000100 e3 a6 85 bb 0f 6c 1c 3c e8 d0 9a bb 68 d1 14 3c
       -0.0040787323 0.009547248 -0.0047246106 0.009083129
000110 ae f2 03 bc f0 da af bb e5 29 18 3b cd 21 8e ba
       -0.008053465 -0.0053666756 0.002321833 -0.0010843814
000120 a2 ae 18 bc aa 8d e4 3b c4 b0 89 bc 2b 00 f8 bb
       -0.009318979 0.0069748955 -0.016807921 -0.0075683794
000130 4b 1b 71 bc 06 3e b3 3a 66 91 33 bc 0b 46 c1 bb
       -0.01471598 0.0013675101 -0.010959959 -0.0058982424
000140 40 9d c5 3b 3d 20 16 3c 5b 95 04 bb 58 01 e8 bb
       0.0060307086 0.00916296 -0.0020230624 -0.0070802383
000150 03 24 08 bc 4b a4 09 bb a8 1f 6e bb 65 c9 cd ba
       -0.008309367 -0.0021002467 -0.0036334787 -0.0015700279
000160 13 8e ca 3b 0d cd 6a bc ed b6 c4 3b 2d c7 67 3c
       0.0061814873 -0.0143311145 0.0060032518 0.014146608
000170 73 ea 43 bc 1b 59 70 bc e5 bd d2 bc 73 ce 87 3b
       -0.0119577525 -0.014669682 -0.025725314 0.0041444837
000180 39 00 48 bb ec e5 a4 3b a7 3a 54 bc 52 e9 5c ba
       -0.003051771 0.0050322916 -0.012953437 -0.00084271014
000190 6e 7e 47 3c b4 c6 8a 3b 89 48 89 3c 5b ef ad bb
       0.012176139 0.004235113 0.01675822 -0.0053080744
0001a0 df a6 b8 bb 2a 19 e6 3b 3a 75 7b ba d5 83 f1 ba
       -0.005635127 0.0070220428 -0.0009592358 -0.001842613
0001b0 17 a3 e5 3b 80 36 e3 ba ab cd 08 bb df dc ca bb
       0.007007967 -0.0017334968 -0.002087454 -0.0061908807
0001c0 a0 01 d9 3b 7e 51 22 3c e8 18 64 3c 8d ac 6d 3c
       0.006622508 0.009907125 0.013921954 0.014506471
0001d0 69 36 27 bc 8a 90 ec 3a 15 25 54 3b 0a bc 4a bc
       -0.0102058435 0.0018048447 0.0032370735 -0.012373934
0001e0 82 0f 51 3c 6f 32 86 3b 1a 97 6e bc 0f 22 81 3b
       0.012760045 0.0040953676 -0.014562393 0.0039408277
0001f0 2f a8 79 3c a0 db 50 3b 5d 2a ea 3b 91 19 01 bb
       0.015237852 0.0031869188 0.0071461634 -0.0019699077
