Assets/ZooheimTest/Models/run1/RabbitFBehavior.onnx (onnx, 406669 bytes, 14 tensors)

discrete_act_size_vector f4 [1, 3]
000000 00 00 00 40 00 00 40 40 00 00 80 3f
       2.0 3.0 1.0

network_body.observation_encoder.processors.0.normalizer.running_mean f4 [630]
000000 fe a0 f0 3c b8 7b 12 3f d7 82 bc 3d d3 3e 52 3b
       0.029373642 0.5722003 0.09204643 0.0032080903
000010 a6 62 0c 3b df dd e8 3a fd 88 b0 3a 8a d9 b9 3a
       0.0021421104 0.0017766318 0.001346856 0.0014179212
000020 d4 b4 8a 3e 83 dd 05 3f a5 ce ea 3c df 13 13 3f
       0.27091086 0.52291125 0.028662989 0.57452196
000030 f4 66 bb 3d df 1f 57 3b 06 0e 0b 3b 0f 07 d0 3a
       0.09150496 0.0032825393 0.0021218075 0.0015871244
000040 cc 80 c0 3a 3e 93 9c 3a 77 a8 89 3e 6d 6f 05 3f
       0.0014686822 0.0011945737 0.2688634 0.5212315
000050 2e 60 03 3d 31 d7 11 3f 28 88 bc 3d 35 88 69 3b
       0.032074146 0.5696898 0.09205657 0.0035634164
000060 7c 7c 11 3b 4d 8b e3 3a f4 ca 9e 3a 5b 15 b4 3a
       0.0022199443 0.001736024 0.0012114928 0.0013739275
000070 c7 fc 89 3e 02 71 05 3f 86 9f e5 3c 3c e8 12 3f
       0.26950666 0.5212556 0.028030168 0.5738561
000080 9e 3a bb 3d d7 fc 63 3b 86 f0 fb 3a 2f c9 d9 3a
       0.0914204 0.0034788155 0.0019221462 0.0016615744
000090 80 f8 b4 3a 89 3c 9f 3a 80 12 8a 3e 6d da 05 3f
       0.0013806969 0.0012148778 0.2696724 0.52286416
0000a0 62 74 0c 3d 34 3c 10 3f 83 a3 be 3d 5c 4c 6f 3b
       0.03429068 0.5634186 0.09308531 0.003651402
0000b0 1e 13 01 3b bc 1b df 3a 1f 6e ad 3a bb 02 a1 3a
       0.0019695233 0.0017021815 0.0013231671 0.0012284139
0000c0 4e 03 8c 3e 8b b2 05 3f 1c 35 e5 3c 1d ed 11 3f
       0.2734627 0.5222556 0.027979426 0.5700243
0000d0 e4 06 bf 3d d2 1f 57 3b 53 b8 0b 3b 7b 51 e5 3a
       0.09327486 0.0032825363 0.0021319583 0.0017495597
0000e0 01 89 b0 3a 6d 38 a7 3a 55 4e 8b 3e 11 2c 06 3f
       0.0013468565 0.0012757905 0.272082 0.5241099
0000f0 b1 1e 14 3d f1 90 10 3f 8f 92 c0 3d ca 1c 5d 3b
       0.036162082 0.56471163 0.09402954 0.0033739083
000100 51 da 00 3b 04 a2 ee 3a 18 4b ba 3a 87 5d 96 3a
       0.0019661377 0.0018206243 0.0014213054 0.0011471965
000110 99 1d 8a 3e 95 e5 05 3f cd 42 e6 3c 02 e3 10 3f
       0.26975706 0.5230344 0.028108025 0.56596386
000120 f3 8d c9 3d 98 fd 2a 3b cc 47 09 3b 88 32 ea 3a
       0.09841528 0.0026091095 0.0020947335 0.0017867843
000130 f9 67 b9 3a 80 19 ac 3a 1c 05 8b 3e 80 f8 06 3f
       0.0014145366 0.0013130158 0.27152336 0.5272293
000140 4f e1 1c 3d 0f 09 0f 3f da ad c9 3d f4 65 3d 3b
       0.03830081 0.558732 0.09847613 0.002889988
000150 ef 2c 06 3b 68 bb 05 3b 5b f2 c0 3a c3 7e c4 3a
       0.002047356 0.0020405892 0.0014720665 0.0014991391
000160 94 12 89 3e 62 0f 06 3f 96 a5 e7 3c fc cd 0f 3f
       0.26771986 0.5236722 0.0282772 0.5617368
000170 c1 94 cd 3d 20 6e 2d 3b a1 82 05 3b ba 19 e3 3a
       0.10038138 0.0026463345 0.002037205 0.0017326393
000180 77 93 d3 3a a5 bc ba 3a be 36 8c 3e 78 f8 07 3f
       0.001614197 0.0014246894 0.27385515 0.5311351
000190 eb 0f 23 3d 61 fe 0c 3f b2 6c cf 3d 5c 34 2f 3b
       0.039810102 0.5507565 0.10128154 0.002673409
0001a0 37 f6 01 3b d8 ba f5 3a 0f 07 d0 3a 4f ae d6 3a
       0.0019830593 0.00187477 0.0015871244 0.0016378852
0001b0 63 c8 8a 3e 57 0f 07 3f 06 7e ef 3c 5a 06 0d 3f
       0.27106008 0.5275778 0.029234897 0.55087817
0001c0 cf ac d2 3d 3e 2f 39 3b 62 ba 07 3b da 40 ce 3a
       0.10286867 0.0028256918 0.0020710458 0.001573588
0001d0 90 97 cb 3a 99 ba be 3a 9d 15 90 3e 66 ad 09 3f
       0.001553284 0.001455146 0.2814149 0.5378021
0001e0 f6 f0 27 3d 6f 9a 0a 3f 17 33 d4 3d ab 9c 41 3b
       0.041001283 0.54141897 0.10361307 0.0029542844
0001f0 3d b5 11 3b 91 a0 02 3b 38 47 f9 3a e1 1f d7 3a
       0.002223327 0.001993213 0.0019018417 0.0016412699
000200 54 da 8d 3e da 02 09 3f 2d ad f4 3c 68 eb 0a 3f
       0.27705634 0.53519976 0.029867733 0.5426545
000210 bf 5e d2 3d 45 10 3e 3b 55 b9 09 3b 54 f2 c0 3a
       0.10271978 0.0029001397 0.0021015008 0.0014720657
000220 bc 3a da 3a 71 f6 b8 3a 8e e4 93 3e d8 a9 0b 3f
       0.0016649584 0.0014111531 0.2888531 0.54556036
000230 e0 e9 27 3d 40 68 08 3f a4 10 e0 3d bb 9f 3b 3b
       0.040994525 0.5328407 0.10940674 0.0028629142
000240 b0 63 0a 3b 20 f1 0b 3b 58 2c f6 3a e3 63 c1 3a
       0.0021116547 0.0021353438 0.0018781526 0.00147545
000250 df 2f 8f 3e 7b 90 0a 3f 46 22 06 3d be 74 07 3f
       0.2796621 0.5412671 0.03274753 0.5291251
000260 15 d7 d6 3d 09 6a 35 3b 06 ee 11 3b a7 38 de 3a
       0.104902424 0.002768161 0.0022267117 0.001695414
000270 32 0d c4 3a 4e 8d df 3a b7 1f 98 3e 41 7c 0e 3f
       0.0014957546 0.0017055662 0.29711697 0.55658346
000280 77 f4 2e 3d 8b 6d 05 3f 72 62 e3 3d e1 ff 5d 3b
       0.04271361 0.52120274 0.11102761 0.003387444
000290 e4 2a 0a 3b f2 0b 0f 3b 97 34 e6 3a 16 09 cc 3a
       0.0021082694 0.0021827188 0.001756328 0.0015566673
0002a0 08 ce 92 3e 60 27 0d 3f c0 6f 15 3d 23 74 03 3f
       0.28672814 0.55138206 0.036483526 0.51349086
0002b0 27 db dc 3d 11 8c 2a 3b b3 65 06 3b 3d cb d5 3a
       0.107839875 0.0026023427 0.0020507395 0.001631118
0002c0 1b e8 d4 3a 2c a8 e2 3a 07 c8 9c 3e 9d 21 11 3f
       0.0016243489 0.0017292551 0.3062136 0.56691915
0002d0 30 2c 38 3d e0 6e 02 3f ce 9e e3 3d 34 0c 46 3b
       0.044964015 0.5095043 0.11114274 0.0030219676
0002e0 a6 62 0c 3b b2 42 13 3b ff 02 d8 3a 6a 70 e0 3a
       0.0021421104 0.0022470173 0.0016480385 0.0017123346
0002f0 a4 6b 97 3e 6f 22 10 3f 0a d2 25 3d 37 30 ff 3e
       0.2957431 0.5630254 0.040483512 0.49841473
000300 4f 6a e5 3d 92 da 37 3b b7 64 08 3b a0 78 d0 3a
       0.112019174 0.0028053862 0.0020811984 0.001590509
000310 dd 82 bc 3a 4d ae d6 3a 90 67 9f 3e 02 b8 13 3f
       0.0014382262 0.001637885 0.311337 0.5770265
000320 50 c8 38 3d e1 42 fe 3e ce d9 e2 3d 43 cc 53 3b
       0.045112908 0.496604 0.11076699 0.0032317794
000330 0e ee 11 3b 19 a6 e6 3a 0d 07 d0 3a df fe df 3a
       0.0022267136 0.0017597108 0.0015871242 0.0017089507
000340 5f b0 9e 3e 78 47 13 3f b8 67 f1 3c b9 c4 12 3f
       0.30993935 0.5753093 0.029468402 0.57331425
000350 30 f6 bc 3d 94 77 52 3b 81 7e 0d 3b fc c0 e9 3a
       0.09226644 0.003211473 0.0021590295 0.0017834003
000360 35 4f b2 3a 8a d9 b9 3a 99 f9 8a 3e da 20 06 3f
       0.0013603928 0.0014179212 0.27143553 0.5239388
000370 e1 71 eb 3c a3 5c 13 3f 6f d1 bb 3d df 1f 57 3b
       0.028740825 0.5756323 0.09170806 0.0032825393
000380 9f 62 0c 3b 9c 78 d0 3a 01 47 c2 3a cd 04 9d 3a
       0.0021421087 0.0015905085 0.0014822186 0.001197958
000390 c9 f0 89 3e 42 b5 05 3f 23 ce 03 3d ce 1a 12 3f
       0.26941517 0.522297 0.03217901 0.5707215
0003a0 cc 00 bd 3d f8 c0 69 3b 1f d1 12 3b d3 fc e3 3a
       0.092286676 0.0035667997 0.0022402478 0.0017394073
0003b0 24 91 a0 3a 78 f8 b4 3a 2e 48 8a 3e 84 b6 05 3f
       0.0012250287 0.001380696 0.27008194 0.5223162
0003c0 a0 3b e6 3c 09 2e 13 3f 64 aa bb 3d 94 35 64 3b
       0.028104603 0.5749212 0.09163359 0.0034821974
0003d0 b6 b6 fd 3a 45 ac da 3a 38 30 b7 3a 88 3c 9f 3a
       0.001935682 0.001668342 0.0013976162 0.0012148777
0003e0 e7 5d 8a 3e 0e 22 06 3f 4b db 0c 3d fa 7e 10 3f
       0.27024767 0.52395713 0.03438882 0.5644375
0003f0 9f 18 bf 3d 1e 85 6f 3b fc 2e 02 3b 4d 8d df 3a
       0.09330868 0.003654785 0.001986443 0.0017055661

network_body.observation_encoder.processors.1.normalizer.running_mean f4 [9]
000000 00 6a 42 42 35 eb fc 42 78 51 04 3f 32 a6 42 42
       48.603516 126.45939 0.5168681 48.6623
000010 9c 66 fd 42 8e b8 04 3f 34 e2 42 42 66 e1 fd 42
       126.70041 0.5184411 48.7209 126.94023
000020 b8 1f 05 3f
       0.52001524

network_body._body_endoder.seq_layers.0.weight f4 [128, 639]
000000 2e da 3d bb 30 e6 2e 3d 41 35 ba bd d3 d0 8a bd
       -0.0028969157 0.042699993 -0.090921886 -0.06778111
000010 6f 8a 0e 3d 11 d6 16 3d 0c e8 44 bd 1e 98 45 3c
       0.03479999 0.036825243 -0.04807286 0.012060193
000020 14 11 58 bc 3f c6 13 3d 33 d7 52 3d 84 95 24 3d
       -0.0131876655 0.036077734 0.05147476 0.04018165
000030 ea cc ed 3c 17 d1 cf 3c 8e 42 13 bd 1b 94 29 bd
       0.029028375 0.025368256 -0.035952143 -0.04140101
000040 ad 0f 04 bd a8 9a 61 3c f4 6f 17 bd 5c 26 b5 3d
       -0.032241512 0.013769783 -0.036972 0.08845207
000050 e4 5c 86 3d 42 16 21 3c e2 08 e7 3c e9 44 cc 3a
       0.06560686 0.009831967 0.028202478 0.0015584502
000060 12 22 3d bd 64 90 5d 3d a4 dd 08 bb 24 fd 90 3a
       -0.04617507 0.05409278 -0.0020884061 0.001106177
000070 3d fb ca bc 72 79 2e 3d ba a2 1f 3c b9 1a 1f 3d
       -0.024778003 0.042596288 0.009743387 0.038843844
000080 ba 1b 46 bc 86 42 18 bd d7 83 06 bd e5 6c f6 bc
       -0.012091571 -0.037172817 -0.032840576 -0.030081222
000090 b6 46 b0 3d c5 0b 16 3d e3 83 8e bd f0 e7 c4 bd
       0.08607237 0.036632318 -0.06958749 -0.09614551
0000a0 02 b6 f7 bc af 71 83 bd d4 92 ee bc 1b d2 78 3d
       -0.030238155 -0.06418168 -0.029122747 0.060747247
0000b0 b1 4e 98 bc 2e b8 e2 3d 47 4f 8b bc 9b 77 8a bd
       -0.01859221 0.11070286 -0.017005576 -0.06761094
0000c0 e4 34 81 bc 3d 44 b8 3c 3f 88 fd bc 25 ec 79 3c
       -0.01577229 0.022493476 -0.030948756 0.015254055
0000d0 17 1f c0 bb 47 ed c9 bc 5a e5 c8 3c 91 ba 47 bd
       -0.005863081 -0.024649275 0.024523426 -0.048761908
0000e0 a9 9c 86 bc 47 d6 17 bd 3b 15 53 bc 0c ac 7f bc
       -0.016432123 -0.037069585 -0.01288348 -0.015604984
0000f0 c3 87 52 3d 9c 6e d5 3c 20 ab 63 bc 84 1e af 3d
       0.051399004 0.02605372 -0.01389578 0.08550742
000100 9d 75 9e bb b9 f7 6b 3d de c4 84 3d 3c 9c d9 bb
       -0.004835798 0.057609294 0.06482862 -0.006640939
000110 a4 37 29 bd ab a5 8e bb a8 8f 5b 3c a7 45 74 3b
       -0.04131283 -0.0043532453 0.01340095 0.0037272961
000120 fb f0 00 bd 1c dc e1 bc 72 77 6a 3d 7e 24 07 3d
       -0.031479817 -0.027570777 0.05724282 0.032993786
000130 ef 76 9c 3d 6c 9c 55 3d 02 9f 8d 3d d1 64 cc bc
       0.07639872 0.05215113 0.06915094 -0.024950417
000140 a2 e7 9a 3c 80 70 a6 bd 71 4c 0a 3c 1d 85 bb 3b
       0.01890928 -0.081269264 0.008441077 0.0057226554
000150 3d 86 ec 3c f3 06 18 3c cb 8c a5 3c 5c 4f 5e bc
       0.028872604 0.009279001 0.020208737 -0.013568725
000160 96 3c db 3a b0 b6 ac bd ae d9 a5 3c 49 a1 06 3e
       0.001672643 -0.084332824 0.0202454 0.13147463
000170 86 68 8a bd ed b0 b1 bb af e2 36 bd dd b6 55 3c
       -0.067582175 -0.0054227025 -0.044649776 0.013044086
000180 82 83 19 3e 22 ee 35 bc 2e 0f df bd 74 a9 6c bd
       0.14991572 -0.011104139 -0.10891567 -0.05777879
000190 a7 9d 4c 3d bb e1 ee bc 8c bc 11 3d 72 9e 84 bc
       0.049955036 -0.029160371 0.035580203 -0.016188834
0001a0 1e c4 41 3a 4a 97 06 bd 9c 5c 71 bc 53 c6 cf 3c
       0.00073915895 -0.032859124 -0.014731552 0.025363123
0001b0 37 25 64 3b 6a 25 6e bd 62 5a 56 bd b9 a1 ea 3c
       0.003481222 -0.05814115 -0.05233229 0.028641568
0001c0 32 a6 6a bd 9d 76 3f 3d 6d 9b 6b bd 4e 1d d0 bc
       -0.057287402 0.046743978 -0.057521272 -0.025404599
0001d0 95 1b 41 bc 9f 13 43 3d e9 5d b3 bd eb 28 a5 3c
       -0.011786361 0.047626134 -0.08758146 0.020161113
0001e0 01 23 98 3d 65 a7 00 bd 9c 66 91 3b cb 61 c1 3c
       0.074285515 -0.03140964 0.004437281 0.023606202
0001f0 62 02 28 bd 86 63 bb 3c d1 bb bd 3c 57 84 e8 3c
       -0.041017897 0.022874605 0.023160847 0.028383417
000200 33 85 8d bd 75 63 aa bd fc 4c 54 3d 2a d8 80 3d
       -0.06910171 -0.08319751 0.05183123 0.0629123
000210 08 23 43 3c ce 24 61 bd 0e 1d fc 3d 6e f5 fc 3b
       0.011910208 -0.05496674 0.12310229 0.007719687
000220 be a7 b3 3c 3e a2 5f 3d 93 60 fe bd f2 db ec bc
       0.021930572 0.054598086 -0.12420764 -0.028913472
000230 b2 35 e8 3d 62 96 80 bd ff 84 ef 3d 59 03 26 3d
       0.113383666 -0.06278683 0.11695289 0.040530536
000240 0d d3 37 3d ff 90 12 bd 8d fb 0c 3c 40 8a 46 bd
       0.044879008 -0.03578281 0.008604896 -0.04847169
000250 df 1e 1d 3c 5a 7b 23 bb 8a b8 b4 bd 29 a9 2f 3d
       0.00958988 -0.002494535 -0.088242605 0.042885933
000260 18 e0 0f 3d 2b be 6f bc 38 94 7c bb f3 a7 6f 3c
       0.03512582 -0.014632742 -0.0038540494 0.014627445
000270 33 7f 8c 3c 5d 75 9a 3c d4 40 8e 3d 98 23 80 bd
       0.017150497 0.018854791 0.06945959 -0.06256789
000280 fc 57 c7 3d 0c 0e d0 bd 83 80 7f bb 73 0e 4d 3d
       0.097335786 -0.10158929 -0.003898651 0.050062608
000290 ae 81 30 3d 48 d3 23 bd 56 be 82 3d cf fc e5 bd
       0.043092422 -0.039996415 0.0638396 -0.1122986
0002a0 43 77 e1 bc c2 fe f5 3b ed 15 9f bd 58 5f d8 3c
       -0.027522689 0.007507176 -0.07767854 0.026412651
0002b0 8a 09 54 3d e1 93 98 bd 64 68 5e 3c 5a 98 95 3d
       0.05176691 -0.07450081 0.013574693 0.073044494
0002c0 af 8f 1a 3d 96 21 22 3d de 06 f2 bc 8e d4 01 bd
       0.037734684 0.03958281 -0.02954429 -0.03169685
0002d0 d6 c8 7d 3d bb af 96 bd 89 3b 29 3d c0 ae 9c 3d
       0.06195911 -0.07357737 0.041316543 0.076505184
0002e0 e4 0a 2b bd be 33 b2 3c 9e 6e d1 3d e5 47 8a bc
       -0.041758433 0.021753188 0.10226177 -0.016879985
0002f0 3f 09 bf 3a cf ca 9e 3c 7d 8e 1e bd 35 db 5f bd
       0.0014574899 0.019383816 -0.038710106 -0.05465241
000300 51 b5 cc 3d b6 d5 d4 3c 42 81 58 3d d3 fb 09 3c
       0.09995521 0.025980812 0.052857645 0.008421856
000310 17 4c 68 bd b9 83 46 bd d4 90 3e bd c7 d3 15 bd
       -0.05671319 -0.048465464 -0.046524838 -0.03657892
000320 fb 81 ca 3c d9 a3 7a bd f8 80 28 bd 7e 6b 6a 3c
       0.024720183 -0.061191414 -0.04113862 0.014307855
000330 1a 98 29 bd 96 6a 7d bd 51 b6 3c 3d 0e c7 18 3d
       -0.04140482 -0.061869226 0.046072308 0.03729921
000340 36 4e 8c bc dc d1 2c bd 03 80 1d bd 1e ef 0b 3c
       -0.017127138 -0.042192325 -0.03845216 0.008540897
000350 52 1d c0 bd 01 3b 44 3d b5 94 0b 3c 8b 94 cb 3c
       -0.093805924 0.047907833 0.008519341 0.024851104
000360 06 dc c8 3d de 6e 8d 3d fa ec 43 bd fe 2d 52 3d
       0.09807591 0.06905912 -0.04783342 0.051313393
000370 45 bd 2f bd ab 91 5b bd d5 1a bb 3c 24 b7 d1 3d
       -0.04290511 -0.053605717 0.022839943 0.102400094
000380 f8 45 e8 3c b3 21 13 bd a7 8b d6 3d 87 cc 02 3d
       0.028353676 -0.03592081 0.10475855 0.031933334
000390 b5 fd 1a 3b af 12 ac bb 33 2e 6d 3c e9 a9 3e 3b
       0.0023649756 -0.0052512507 0.014476347 0.0029092974
0003a0 33 bc 46 3d c2 f2 67 bd 17 28 81 3d 0f 7f d5 bd
       0.048519325 -0.056627996 0.06306475 -0.10424625
0003b0 ff 35 fa 38 de d7 92 3c 86 3a 05 3c f7 46 7f bd
       0.000119309865 0.0179252 0.008131629 -0.062323537
0003c0 d1 db 40 3c 5c 9c f8 3c e1 38 cc 3d 43 0c cf 3d
       0.011771158 0.030347995 0.09971786 0.101097606
0003d0 9e b5 83 3d 8a 24 54 bd 6e 2d 13 bd f2 fa bf bc
       0.06431125 -0.05179266 -0.035931997 -0.02343509
0003e0 b7 e4 2c 3c 30 c4 21 3d 27 46 04 3d 34 de 18 bd
       0.010552577 0.03949374 0.032293465 -0.037321284
0003f0 44 e8 06 bd d2 ca 22 3d 27 3f a0 3d 92 36 dd bc
       -0.03293635 0.039744206 0.07824545 -0.02700356

network_body._body_endoder.seq_layers.0.bias f4 [128]
000000 c0 fd e6 bc 71 ff b0 bc 79 c9 b9 3b 44 d8 0e bd
       -0.02819717 -0.021606179 0.0056697694 -0.034874216
000010 9a d5 05 bc 5d a2 73 3b 68 72 0c 3c 47 65 17 bd
       -0.008168602 0.0037175633 0.008572198 -0.03696182
000020 00 68 2e 3c 99 ab c8 bc a8 02 de bc e8 aa d4 3a
       0.010644913 -0.024495887 -0.027100876 0.001622525
000030 73 e8 32 bd 0b 40 e8 bb 96 d3 62 3b 34 f9 d4 bc
       -0.043678712 -0.0070877126 0.0034610978 -0.025997736
000040 f8 5c c5 bb c9 c4 b3 bc f4 6b 9d bc 61 90 33 3b
       -0.0060230456 -0.02194442 -0.019216515 0.002739929
000050 41 b7 16 bd 2b 92 30 bc f4 bc 5f bd fa 19 10 3c
       -0.03679586 -0.010777037 -0.05462356 0.008795256
000060 d3 26 23 bc 6c 4d 4c bc 8e e2 88 3c 33 4e 9d bc
       -0.009957987 -0.012469631 0.016709592 -0.019202327
000070 8e fe 93 bb 3c d4 ed bc 23 6f 01 bd 18 ec dd 3b
       -0.0045164293 -0.029031865 -0.03160013 0.0067725293
000080 68 bd 13 bc b4 86 a1 3b 69 22 0a bc d1 74 84 bc
       -0.009017326 0.004929388 -0.008431056 -0.016168984
000090 83 b2 a7 3c d5 7f ed bc b6 6c 0e bd d8 ca 27 bd
       0.020470863 -0.02899162 -0.034771644 -0.04096493
0000a0 9e d2 10 3a 7b 0e 71 bc a3 58 d2 bc 7b bc 76 bc
       0.00055245485 -0.014712925 -0.02567703 -0.015059586
0000b0 80 bf 5d bc 31 38 be bb 33 97 b1 bc ba cb 8c bc
       -0.013534427 -0.0058050384 -0.021678543 -0.017186988
0000c0 91 d4 e9 bc 18 26 3d bd ca ad a5 3a 48 71 92 bc
       -0.028543742 -0.046178907 0.0012640294 -0.017876282
0000d0 2e 01 39 bd 85 ae 15 bd 61 6e a6 bc 7c 17 b2 bc
       -0.04516714 -0.036543388 -0.020316305 -0.021739714
0000e0 99 a4 fd bb 08 74 b0 bc 92 2e 0a bd fb 67 c0 bc
       -0.007740569 -0.021539703 -0.03373582 -0.023487082
0000f0 ec 0a f3 bc 06 a0 eb 3b ee e1 bb 3b 47 fe 8c bc
       -0.029668294 0.007190707 0.00573372 -0.017211093
000100 44 a2 71 bc 67 07 d6 bc 1f ed 83 bb 19 da f5 bc
       -0.01474816 -0.026126577 -0.00402607 -0.030011224
000110 a3 2a 02 3c 48 a6 28 bc 2c 29 a5 bc 32 04 74 bc
       0.007944736 -0.010293551 -0.020161234 -0.014893578
000120 23 a5 6e bb 2d 0f ba bb 80 e0 27 bd bf e8 de bc
       -0.0036414347 -0.0056780786 -0.040985584 -0.027210591
000130 5a f7 92 3c a2 89 0c 3b 27 1c c1 bc e9 a3 16 bd
       0.017940212 0.002144434 -0.023572994 -0.03677741
000140 48 e0 03 bd ec aa 58 bc ff fd bb bc 3f db a2 bc
       -0.032196313 -0.013224345 -0.022948263 -0.019879935
000150 7a 53 08 bc 85 77 9d bc ca 32 92 bc 21 2d 78 bc
       -0.008320684 -0.01922203 -0.017846484 -0.015147478
000160 5c db 58 b9 56 75 92 bc 66 6c 5e 3c 6a bd 9a bc
       -0.00020681083 -0.017878216 0.013575649 -0.018889148
000170 60 99 61 bc 5f 7e 8e bc 4f 7f 9e ba 33 7e 47 bc
       -0.013769478 -0.017394243 -0.0012092384 -0.012176084
000180 7b 40 a4 bc 2f d6 16 bd 1d e2 8f ba 01 d8 f7 ba
       -0.020050278 -0.036825355 -0.0010977421 -0.0018908979
000190 f7 47 9d bb c1 fb 2e 3c ff 31 56 bc d6 35 18 3c
       -0.0047998386 0.01068014 -0.013073443 0.009290179
0001a0 de da 95 bc 5c 77 3d bc cb d6 9c 3c b1 f4 d8 bc
       -0.01829284 -0.011564102 0.01914539 -0.026483865
0001b0 ae b1 4a bc 39 11 a0 bc a7 a6 5f 3c 4c 04 fe bc
       -0.012371464 -0.019539462 0.013650573 -0.031007908
0001c0 02 72 55 ba 5a f4 bd bc f3 c8 04 bc 9a f5 09 bd
       -0.00081422937 -0.023187805 -0.008104551 -0.03368149
0001d0 18 a8 ee bc 70 7e 5f 3c b3 52 8e bc 56 8b 93 bd
       -0.029132888 0.013640985 -0.017373418 -0.072043106
0001e0 84 83 85 3b 69 b8 68 bb 96 57 14 bd ad df 92 bc
       0.004074516 -0.0035510308 -0.03621634 -0.017928923
0001f0 b1 35 16 bc 4d 7e 63 bc e4 56 8d 3b c4 4a a9 bc
       -0.0091680745 -0.013885093 0.0043133367 -0.020665534

network_body._body_endoder.seq_layers.2.weight f4 [128, 128]
000000 7f 80 f0 bc 1d 28 44 3d f9 29 ac 3c ac 7e 18 bd
       -0.029358147 0.047889818 0.021016108 -0.03723018
000010 66 4a c6 3c f1 1f 8c 3d e3 57 52 3d b7 f5 2e be
       0.024205398 0.0684203 0.051353347 -0.1708592
000020 3c 93 f5 3c ce 8e f4 3c 9d b0 27 be 8a 53 88 bd
       0.029977433 0.02985325 -0.16375966 -0.06656559
000030 3a 12 b0 3d fe b1 bc bd 66 14 bf 3d 60 a4 ad 3d
       0.085972264 -0.09213637 0.093300626 0.08478618
000040 1a d9 c9 bd d0 41 5d 3d fc 17 cd bc f6 69 33 3e
       -0.09855862 0.05401784 -0.02503585 0.1752089
000050 16 6d 04 be d7 6e d8 3b 99 32 c9 3d ef 30 4a bd
       -0.12932238 0.00660501 0.09824104 -0.049363073
000060 65 45 aa 3d f6 2d 4e bc 92 f5 d7 bd f1 a5 7d 3d
       0.08314017 -0.0125842 -0.10544886 0.061925832
000070 6b fe 45 bd 8e 59 24 be 85 b0 07 3d 1f f6 6f be
       -0.048338335 -0.16049787 0.033127327 -0.23433731
000080 da a2 e9 3d 0f b3 d4 bb 76 37 03 be c8 d7 df bc
       0.114080146 -0.006491072 -0.12814125 -0.027324572
000090 80 de 85 be 47 81 23 3c bd f7 96 bd 06 4a 60 bd
       -0.26146317 0.009979553 -0.07371471 -0.054758094
0000a0 27 bf cb bd 69 af b3 3d 67 92 84 3e 42 03 c4 3d
       -0.09948569 0.08773691 0.25892946 0.09570934
0000b0 c1 a8 a0 3d 9d ad 24 bd a2 23 a7 3d 61 1a 56 bd
       0.07844687 -0.040204633 0.08161093 -0.05227125
0000c0 3c 0d 63 be 27 3a bd 3d dc 2d e4 3d 93 62 ef bd
       -0.22173017 0.09239607 0.111415595 -0.116887234
0000d0 ed 73 46 bc bc 9f d2 bd 6e c9 23 3e 12 b0 34 3d
       -0.0121126 -0.10284373 0.15994808 0.044113226
0000e0 42 fd e0 bc 1d f6 be 3c 7b 6f c7 bd c2 83 7c bd
       -0.027464513 0.023310715 -0.0973806 -0.06164909
0000f0 1c 3e 38 3b 6c 01 45 3d 71 14 13 be 71 d9 ed bd
       0.0028113192 0.04809706 -0.14363267 -0.11613739
000100 8c f8 4e bb e2 b2 f5 bb b4 1d 2f 3d 21 a4 0d 3c
       -0.003158125 -0.007498131 0.042752936 0.008645088
000110 4e 04 b6 3d c2 2c 93 bc 5d e4 25 be b0 dc f5 bc
       0.0888754 -0.017965678 -0.16200395 -0.030012459
000120 91 26 37 be eb c8 19 3d d8 49 25 3d 9e da 92 bd
       -0.17885806 0.037545126 0.040353626 -0.07170604
000130 8c 9f 0f be 55 a4 46 be 8a 75 27 bd e3 ba e0 3d
       -0.14025706 -0.19398625 -0.04088358 0.10973146
000140 81 d6 fe bd 21 21 1a 3e bb e0 9d 3d 93 29 8f 3b
       -0.12443257 0.150517 0.077088796 0.0043689697
000150 bb 2f c6 3c 9f 6f 89 bd 93 e1 f9 3c d4 29 86 3d
       0.024192682 -0.06710743 0.03050307 0.06550947
000160 93 8f ae bd b0 a4 db 3b 71 d2 95 3d 8a 52 cb bc
       -0.08523478 0.006702982 0.07315529 -0.024819631
000170 bd db e1 bd 0e 4f fc bd b7 a5 b2 bc 29 0b e1 3d
       -0.1102824 -0.12319766 -0.021807535 0.10988457
000180 b4 1a b0 bd f6 32 87 3d 7a 99 85 3d c3 fc 02 be
       -0.08598843 0.06601517 0.06523414 -0.12791733
000190 f2 d2 70 3d ff f6 28 bd 9e 3b 0b bc 57 01 0b 3e
       0.058794923 -0.04125118 -0.008498101 0.1357473
0001a0 b3 e4 84 3d bf b1 09 be 2d fc 10 be 7b 7a c7 3d
       0.064889334 -0.13446711 -0.14158697 0.09740158
0001b0 39 28 90 bd 55 80 8e 3c 11 10 23 3c b6 15 70 3d
       -0.07038922 0.017395178 0.009952561 0.058614455
0001c0 84 7e 36 bd 22 15 54 bb ef fc 7a bd ef 71 3b 3e
       -0.04455425 -0.003236123 -0.061276373 0.18305181
0001d0 44 29 aa bc 07 74 09 bd fa 1d 2d be 57 67 fc 3c
       -0.02077163 -0.033557918 -0.16905966 0.030810995
0001e0 0c a0 e8 3d 2b 09 47 3d 9f 00 9a bd 41 37 e5 3d
       0.113586515 0.048592728 -0.0751965 0.111921795
0001f0 6c 23 3b bd ea 35 e1 bc 17 6e 9d bd 8c 2f 3c 3d
       -0.045688078 -0.027491529 -0.076870136 0.04594378
000200 44 81 cd bc aa 35 35 be 12 78 44 bd c2 6c 42 bd
       -0.025086053 -0.17696252 -0.04796607 -0.047467
000210 ed 8d 20 bd 26 31 0e 3d 71 00 69 be 1c 9e 8f 3d
       -0.03919785 0.03471484 -0.22754075 0.07012579
000220 97 6e 30 be c1 f5 1a be b4 65 05 bc 3d b9 80 bd
       -0.17229687 -0.1513281 -0.008141924 -0.062853314
000230 ce 0f 16 3d 77 80 38 3c 48 3f ea bd fc d7 83 bd
       0.036636166 0.011261097 -0.11437851 -0.0643768
000240 1d 0b 15 bd 1e ea 96 3d 6d 64 8f bd 99 b8 37 3e
       -0.03638755 0.07368873 -0.070015766 0.17941512
000250 94 9b 07 3d d5 45 8a 3d ac 38 8d bd 0e e7 a1 bc
       0.033107355 0.06751601 -0.06895575 -0.019763496
000260 7d 0a 48 bd 6c f1 55 bc d7 88 ea bd 55 9b b1 bc
       -0.048838127 -0.013058048 -0.114518814 -0.021680513
000270 1f 59 e6 3c e9 ef 25 bd 13 70 84 3d ab cd 45 bc
       0.028118668 -0.040512 0.06466689 -0.012072961
000280 6d df 24 bd f6 cb b4 bd f4 17 17 bc e0 d8 c3 bc
       -0.040252138 -0.08827965 -0.009222019 -0.023907125
000290 ac 77 60 3c 60 7f 78 3d 93 ca 78 3b c0 59 5e bd
       0.013700407 0.06066835 0.003796254 -0.05428481
0002a0 91 3a ee 3d 46 10 03 3c 5a 55 d0 3d 69 ad e4 bd
       0.116322644 0.007999485 0.101725295 -0.11165888
0002b0 8a d1 26 be ef 97 61 bc 01 df dd 3d 44 88 3a 3e
       -0.1629087 -0.013769134 0.1083355 0.18216044
0002c0 2c 9f 39 be b5 95 36 3d d9 30 a8 3d 91 59 07 bd
       -0.18127126 0.044576366 0.08212442 -0.0330444
0002d0 cf 12 50 3c 2b 7f d6 bd 3f a5 ff 3d 08 56 38 bd
       0.012699797 -0.10473474 0.1248269 -0.04500392
0002e0 c4 13 70 be b4 ce f2 bd 1b f9 4b 3d 6f 92 33 3e
       -0.2344504 -0.11855832 0.049798112 0.17536329
0002f0 37 57 88 bb 8b 75 56 bd de 23 10 3d 17 17 8a 3d
       -0.0041607874 -0.05235819 0.035190456 0.06742685
000300 c5 14 47 be 6d 13 96 bc c0 8b ac bb 2e 27 ae 3d
       -0.19441517 -0.01831981 -0.005265683 0.08503567
000310 83 0c d5 3d ce d2 a1 bd 85 2f 55 3d 31 da 4f be
       0.10402777 -0.07901536 0.05204727 -0.20298077
000320 63 9d 98 3b c8 0c 14 bd af 3d 50 3c 11 b8 ee bd
       0.004657434 -0.036145 0.012710019 -0.11656202
000330 be 24 9c 3d 84 87 39 bd 5a 34 94 3d 42 47 ac bd
       0.076241955 -0.045295253 0.07236548 -0.08412029
000340 e6 2b b8 bd 07 3b ff bc cd af 3a 3d 41 bb 53 3d
       -0.08992748 -0.031156076 0.045577813 0.05169225
000350 58 e8 9d bd 9a 61 f7 bb e7 cb 30 bd 75 c5 ce 3c
       -0.07710332 -0.007549477 -0.043163206 0.02524064
000360 91 aa 7e 3d a1 9f 9c bd e2 d2 20 be 66 dc 37 be
       0.062174384 -0.07647634 -0.15705445 -0.17955169
000370 7b ed 3d bd 3e ec fc bd 42 09 19 3d 27 4c b3 bd
       -0.046369057 -0.12349747 0.037362345 -0.08754759
000380 7d 3b fe bd bc c5 b0 bd 8b 9e 34 3c f2 92 1b 3e
       -0.1241369 -0.08631465 0.011024128 0.15192774
000390 21 1d 82 3d b2 5e b7 bd 1f ff 83 bd 69 97 dc bd
       0.06353212 -0.089536086 -0.06445145 -0.10771067
0003a0 2c b8 e7 3d 6f 6b 93 bd cf 7b ef bd 3e 70 ed 3c
       0.11314425 -0.07198226 -0.116935365 0.028984185
0003b0 52 3c e2 bd ff f4 e8 3d 69 f1 06 3d a8 b2 32 3d
       -0.110466614 0.11374854 0.03294507 0.04362741
0003c0 e7 85 18 3d 38 cc e3 3d 90 34 5f bd cf 9c b3 3d
       0.037237074 0.11122936 -0.054493487 0.08770143
0003d0 ab 7d 98 bb ae 5a 20 3d 97 f3 bc 3d cd be f4 3c
       -0.0046536527 0.03914898 0.092261486 0.029876137
0003e0 08 36 06 3d 18 3c 74 3d fc 6c f4 bd 1c fa 43 3d
       0.032766372 0.059627622 -0.119348496 0.047845945
0003f0 37 14 a2 3d 3c 35 ac bb 1a 32 ba bd 9f be 21 3d
       0.07914012 -0.0052553695 -0.09091587 0.03948843

network_body._body_endoder.seq_layers.2.bias f4 [128]
000000 62 2b bf bc 17 15 da bc 7f 26 2c bc 37 c3 ab bb
       -0.023336116 -0.026621385 -0.010507225 -0.0052417773
000010 cd f6 65 3b b7 59 de bc a7 0e aa bc 71 71 17 bc
       0.0035089732 -0.027142389 -0.02075894 -0.009243355
000020 9e 65 96 bc 69 2d 41 bc b3 aa 84 ba d7 a9 f8 bb
       -0.018359002 -0.011790612 -0.0010121673 -0.007588606
000030 f6 d4 f3 bb 85 a9 69 bc 66 60 99 3a 15 b5 fe bc
       -0.0074411584 -0.014261608 0.0011701703 -0.031092206
000040 84 d6 26 3c 30 3d 11 3c cd 55 13 3c 73 fb 1c 3b
       0.01018298 0.008864686 0.0089926245 0.0023953586
000050 16 51 a8 ba 53 87 21 b9 76 b0 76 ba 7d d4 98 bb
       -0.0012841548 -0.00015404569 -0.000941045 -0.0046640025
000060 fd 00 bf bb 18 bf e1 bc f5 f7 4f bb 8e 98 c9 bc
       -0.0058289752 -0.02755694 -0.0031733487 -0.024608877
000070 39 37 13 3b 5c ec 85 3c a0 9f 06 bd e5 2e 2c bc
       0.0022463335 0.016348056 -0.032867074 -0.010509227
000080 5b a9 9b 3b 9c b7 68 bb 1b 6f dc bb ba 7c c6 3a
       0.0047504134 -0.003550983 -0.006727112 0.0015143373
000090 75 e1 1b bc 1a d7 65 3b 54 0c 24 3c e3 24 0b bd
       -0.009514202 0.0035070837 0.010012705 -0.033970725
0000a0 4f b7 0c bc 52 9c 4e bc ba 9c a5 3b aa 35 82 3c
       -0.008588626 -0.012610512 0.0050540837 0.01589473
0000b0 a0 06 c4 bc 94 83 26 ba 35 b9 2e 3c 65 e3 d8 bc
       -0.02392894 -0.0006352004 0.010664274 -0.026475618
0000c0 39 b3 9c bc 25 d0 51 bb 5b 29 57 3b 55 92 a2 bc
       -0.019128429 -0.0032014933 0.0032831046 -0.019845167
0000d0 d9 79 25 bc 24 d5 e3 ba 06 0b c4 bb 18 f4 0b bd
       -0.0100998515 -0.0017382246 -0.0059827594 -0.034168333
0000e0 ad c1 b3 bc a2 e5 9a bc 51 23 c5 bc 21 ed d1 3c
       -0.021942938 -0.018908326 -0.024064692 0.025625767
0000f0 ca ff eb bc ea 80 47 bc 96 a2 99 3c 51 42 0d bd
       -0.028808493 -0.012176732 0.018754285 -0.034487072
000100 93 bf 1d bd ea 1b 20 bd bb 5e 47 3c b3 b9 0b bd
       -0.038512778 -0.03908912 0.012168582 -0.034112643
000110 00 0e d4 3b e8 04 46 bc c0 ca 78 3c 3b 74 25 bc
       0.0064713955 -0.012086131 0.015185058 -0.010098512
000120 4c a9 a5 bc 25 d4 b2 bc 03 6a f8 3c b8 96 e2 bc
       -0.020222329 -0.021829674 0.030323988 -0.027659759
000130 63 1e 45 bc 97 61 e5 bb 9f 97 2b bc 69 95 94 bc
       -0.012031171 -0.007000159 -0.010473161 -0.01813765
000140 10 e9 02 3b e4 b9 dd 3b af 70 e1 3c ba 58 f2 bc
       0.0019975342 0.0067665447 0.027519552 -0.029583324
000150 0b 14 23 3c 71 e8 70 3a c8 a1 61 bc c6 82 be bc
       0.009953509 0.000918991 -0.013771482 -0.023255717
000160 5d 28 1d bc a7 7f bc 3c d6 db ba bc 7f b8 0c bc
       -0.009592143 0.023010088 -0.022809904 -0.008588909
000170 25 8b f7 3b e1 9c 39 3a 7f 03 6b 3c 0c 0a 8a bc
       0.007554429 0.0007080567 0.014344095 -0.016850494
000180 e6 ca dd bb a3 ea c2 3c 02 4e 0c bc 0b 9c b1 bc
       -0.006768572 0.023793524 -0.00856352 -0.021680852
000190 20 fa 94 3c b5 c4 1e 3c 2f 67 64 3b 36 14 9f 3c
       0.018185675 0.009690453 0.0034851541 0.019418817
0001a0 b3 92 65 3b 12 94 be bc 3b 04 0f 3a 5d e1 9d bc
       0.0035030067 -0.023263965 0.00054556475 -0.0192725
0001b0 f8 e6 6c 3a 95 9f b2 3c e2 12 24 3a b5 b2 fb bb
       0.00090371026 0.02180461 0.0006258917 -0.0076812156
0001c0 e6 2d 10 bc b5 5c 5c 3b ce ff a2 bc ce 9f f2 bb
       -0.008800006 0.0033624594 -0.019897368 -0.007404304
0001d0 84 73 3e bb 39 d1 53 3c ff 0a aa b8 28 49 51 bd
       -0.0029060552 0.012928301 -8.10828e-05 -0.051095158
0001e0 3b 8f 7f 3c d0 c6 0a bc d1 86 83 bc 33 9f 37 3a
       0.015598114 -0.008470252 -0.016055496 0.00070046185
0001f0 e5 a7 91 3c 7c a2 95 3c db 77 c6 3a 8e 26 d8 bc
       0.017780254 0.018265955 0.0015141921 -0.026385572

action_model._discrete_distribution.branches.0.weight f4 [2, 128]
000000 58 8a 81 3d 37 b2 83 bc 60 43 37 bc 09 1a 8d bc
       0.06325215 -0.01607619 -0.011185497 -0.017224329
000010 af 73 6c bc ae 6e 32 3c fa 66 c6 bc b3 04 04 bc
       -0.014431878 0.010890646 -0.024219025 -0.008057761
000020 66 96 11 3c 91 cf 05 3d 35 ab c6 bc 1e b0 02 bc
       0.008885955 0.032668654 -0.02425156 -0.00797656
000030 5d a1 28 bc 7d 05 12 3d 55 c2 c2 bb 1e 77 d3 3a
       -0.010292378 0.035649765 -0.0059435763 0.0016133522
000040 c6 10 82 bc d2 8f c6 bb 3c 74 a9 3b 10 08 ed bc
       -0.015877139 -0.006059625 0.005171327 -0.028934509
000050 20 60 a9 bc f2 eb f2 bc 40 ad a2 3c 1e 49 14 3d
       -0.020675719 -0.029653523 0.019858003 0.036202542
000060 4c d8 dd 3c 9f bc 97 bc 19 12 c2 3a 05 a0 6d 3c
       0.027080677 -0.018522559 0.0014806419 0.014503484
000070 90 20 3c bd 19 88 04 bc ae 70 45 3b 2f 66 f6 bc
       -0.04592949 -0.008089089 0.0030126977 -0.030078022
000080 f3 ab 09 bd 18 40 fc 3a 21 9b 46 bd 3a cc 09 bd
       -0.03361125 0.0019245176 -0.048487786 -0.03364203
000090 c2 55 33 bb 2c db 99 bb af a8 f4 bc df 06 29 3c
       -0.0027364348 -0.004695317 -0.02986559 0.01031658
0000a0 36 8a d5 bc 89 b4 83 3c 0b 2f 6e bd 44 61 42 bd
       -0.02606688 0.016077297 -0.058150332 -0.04745604
0000b0 ce 5a 3d 3d b1 d1 24 bc 13 4f 08 bd 72 ff 68 bb
       0.046229176 -0.01005976 -0.033278536 -0.0035552648
0000c0 ef 16 cf bb b5 98 1a bd 13 68 b8 bc b8 35 84 bc
       -0.0063198726 -0.03774329 -0.022510564 -0.016138896
0000d0 e8 fc 17 bc 65 d1 4e bc 72 f2 9a bc ce a1 39 3b
       -0.009276606 -0.012623166 -0.018914435 0.0028325203
0000e0 e2 bd d7 3c 02 cf 9c 3c 26 b8 20 3c 83 bb 98 bd
       0.02633566 0.019141678 0.009809529 -0.0745764
0000f0 b6 d6 98 3b 47 b0 27 3c 54 17 cb bb a1 fa e9 3c
       0.0046642674 0.010234899 -0.0061978493 0.028561892
000100 60 aa 16 3c fd 86 1e 3c d4 3e 8b bc 1e 60 c4 3a
       0.009195894 0.009675738 -0.016997732 0.0014982258
000110 b9 26 01 bd bd 2c 06 3d ba 94 ac b9 6c e5 bc bc
       -0.03153107 0.03275751 -0.00032917206 -0.023058616
000120 ab 27 0a bc bc 4a bb bc 34 d0 9b bd 30 ec 88 ba
       -0.008432309 -0.022862785 -0.07608071 -0.0010446366
000130 85 81 a4 3c df 80 c4 3c 48 e3 bc 3c 97 02 a0 3b
       0.020081291 0.023987232 0.023057595 0.0048831212
000140 c4 18 85 3c 6b f7 4b 3d 82 0c 14 3d 8d 6f 9d 3c
       0.01624716 0.049796503 0.03614474 0.01921823
000150 6a 02 f8 bb b2 9b 5e 3d 9e 12 7b bc 96 d1 95 3b
       -0.007568647 0.0543477 -0.015324263 0.0045721037
000160 19 13 b6 bc 58 7e 45 bd 57 9d 40 3c 18 25 04 bd
       -0.022225903 -0.048216194 0.011756263 -0.032261938
000170 c4 c1 c5 3c 99 79 6e bc 22 7e 8f 3d 90 41 4f 3d
       0.024140246 -0.014555358 0.0700648 0.050599635
000180 8d c7 aa bc 7a 1b 59 bd 4d 9b 2e ba f1 ad 5b 3c
       -0.020847106 -0.05300472 -0.0006660715 0.01340817
000190 65 4e df 3c 26 41 53 bd 85 62 32 bd 5e d6 5c 3d
       0.027259061 -0.051575802 -0.043550987 0.053915374
0001a0 4e 3b 84 bd e0 8c bf 3b da 43 ba bc 39 b9 a6 3a
       -0.06456624 0.005845651 -0.022737432 0.0012719996
0001b0 b8 56 09 bd 26 c2 6f bd 79 2b 69 3d b5 7d 98 bc
       -0.033529967 -0.058534764 0.056926224 -0.01861463
0001c0 1e 2f c9 3b be 6c b4 bc 82 5f b7 3b 8f ac e6 bc
       0.00613965 -0.022024509 0.005596102 -0.028158454
0001d0 43 47 87 3c 99 61 6f bb 6e b6 53 bd fa 5d 05 3c
       0.016513472 -0.0036526679 -0.05168765 0.008140082
0001e0 d6 9b 5a bd ab fe d8 bb ee c7 ca bc 52 19 11 3d
       -0.053371273 -0.0066221557 -0.024753537 0.035424538
0001f0 e0 fb 6c bb 4b a8 6d bd 3e bf 3e bc 46 a2 78 3d
       -0.0036160871 -0.058021825 -0.011642275 0.06070163
000200 54 e7 7e bd 0f a6 b0 3c 42 aa 45 3c 1e 56 a9 3c
       -0.06223233 0.021563558 0.012064518 0.020670947
000210 74 2c b1 3c 9a fa 30 3c 55 b5 02 3d 15 ed 8a bc
       0.021627642 0.010801936 0.031911213 -0.016958753
000220 fe 94 7f 3c 09 70 0e bd fd 24 b0 3c 15 3a 17 bc
       0.015599487 -0.034774814 0.021502012 -0.009230156
000230 69 ca 4f bb aa 98 06 bd 46 1b cd 3c bb 1c 5d 3c
       -0.003170634 -0.032860436 0.025037419 0.013495619
000240 25 68 10 3c 2b c9 99 3a dd 92 d1 ba 1a 6e fe 3c
       0.0088138925 0.0011732926 -0.0015989203 0.03105836
000250 69 8a aa 3c ed 73 f2 3c 8e 36 bb bc a2 0f 47 bd
       0.020817952 0.029596293 -0.022853162 -0.048598893
000260 de 3d 14 bd 04 c4 30 3c d8 25 49 bc 2c 41 5e bc
       -0.036191814 0.010788921 -0.012277089 -0.013565343
000270 06 3e f7 3c b7 61 21 3d c8 4d 31 bb 44 91 1c 3c
       0.030180942 0.03939983 -0.0027054418 0.009556118
000280 c4 29 52 3d eb 45 da 3b bb 8a f6 3c 49 3d 1f 3d
       0.051309362 0.006661167 0.030095449 0.038876805
000290 ee fa ba 3c ef 0d ba 3c e0 07 c3 3c cd 57 1d bb
       0.02282473 0.022711722 0.023807466 -0.0024008632
0002a0 6c 80 19 3d f6 8a f0 bb 43 b0 45 3d 56 c1 4b 3d
       0.03747599 -0.007340784 0.0482638 0.049744926
0002b0 d1 90 03 bd a8 9b 5e 3c 25 77 15 3c f1 94 8b bc
       -0.03212053 0.013586916 0.009122645 -0.017038794
0002c0 10 8e c5 bc 94 ee 07 3d 1a b5 c6 3c a9 1d 4a 3c
       -0.024115592 0.03318651 0.024256278 0.012336173
0002d0 d4 38 46 39 0c e9 95 3c 61 85 0b 3d 3e e5 55 3c
       0.00018903922 0.018299602 0.034062747 0.013055144
0002e0 f9 42 d6 bc 82 e8 9e bc da c0 67 3b e5 3f 78 3d
       -0.026154982 -0.019397978 0.0035362751 0.06060781
0002f0 d1 4b 35 3c b6 04 d1 bc b3 ff b3 bb 9e b6 ac bc
       0.011065439 -0.025514942 -0.005493128 -0.021083172
000300 ef f2 d7 bb 17 b2 44 bc 2e e5 ab 3c e0 f9 e1 3b
       -0.0065902392 -0.012005351 0.020983305 0.0068962425
000310 93 d6 4c 3d bd a7 1e bd 18 a2 60 bb 0b 21 12 3d
       0.05000932 -0.038734186 -0.0034276303 0.035676043
000320 26 24 9a bc 56 32 a5 3c 2f 33 93 3d 70 74 ec bb
       -0.018816065 0.020165604 0.07187497 -0.007216029
000330 39 67 5a bc 12 1f ce bc ab 84 1e bc f8 1b 52 bc
       -0.013330274 -0.0251613 -0.009675185 -0.012824051
000340 7e 7e 63 bc 3d be 5e bd 33 d2 08 bd 1f d8 2d bc
       -0.013885139 -0.054380644 -0.033403587 -0.010610609
000350 62 ea 29 bc 62 f7 60 bd cb 91 bb 3c c8 d2 16 3c
       -0.010370823 -0.054923423 0.022896668 0.009205528
000360 bd 6e d4 3c a0 68 84 3d 23 9d ce 3b 29 b0 8b 3b
       0.02593171 0.06465268 0.0063053533 0.0042629433
000370 bf c1 a9 bc e3 95 48 3c ea 7f 62 bd 0a 1c 3b bd
       -0.020722268 0.012242767 -0.05529777 -0.045681037
000380 46 e2 1f 3c 57 22 5b 3d 92 04 58 bc da 19 13 bd
       0.009758538 0.053499546 -0.013184683 -0.035913326
000390 aa 32 af bc 09 24 28 3d ff e8 59 3d de 7d 5f bd
       -0.021386463 0.04104999 0.053200718 -0.054563396
0003a0 f0 97 98 3d fe e9 04 bc d4 1a 79 3c a3 67 11 3d
       0.07450855 -0.008112429 0.01520415 0.035499226
0003b0 4e 9f 1a 3d da 3c 7e 3d b6 c3 80 bd 03 41 2e 3d
       0.03774958 0.06206975 -0.06287329 0.04254247
0003c0 55 b5 a8 bc 7b c5 69 3c 71 65 50 3c 72 77 74 3b
       -0.020594278 0.014268274 0.012719498 0.003730264
0003d0 47 42 96 3a 20 7a 51 3c 94 ed 1c 3d 97 0b 58 3b
       0.0011463844 0.0127854645 0.03831251 0.0032965892
0003e0 ed 1f 7a 3d d4 85 88 bb a9 d4 58 3c e7 95 16 bd
       0.061065603 -0.004166344 0.013234296 -0.03676405
0003f0 a0 38 4f bb 0f 40 d0 3c 65 34 62 3c 1f d8 55 bd
       -0.0031619444 0.02542117 0.013806437 -0.052208062

action_model._discrete_distribution.branches.0.bias f4 [2]
000000 db 76 84 bc dc 76 84 3c
       -0.016169956 0.016169958

action_model._discrete_distribution.branches.1.weight f4 [3, 128]
000000 2c 26 8a bb a2 d5 41 bc ff 25 0b bd f6 ed 1d 3a
       -0.004215976 -0.011830719 -0.033971783 0.00060245336
000010 b2 81 41 3d 5d 2d 02 3c e8 9c 90 bc fe da 12 bd
       0.047242828 0.007945386 -0.017652944 -0.03585338
000020 d2 69 0e 3d 55 ac e1 3c a7 bc e9 bb c2 04 7c bc
       0.034768887 0.027547995 -0.007133085 -0.015381994
000030 2c e0 4b 3d 8d d7 52 bc 29 0c d4 3c e8 d8 06 3c
       0.049774334 -0.012868774 0.025884705 0.008230425
000040 7c 84 af 3c f1 60 00 3d 0c 68 5b 3d 10 e9 bd bc
       0.021425478 0.03134245 0.053566024 -0.023182422
000050 fe 93 13 bd ce c4 1e bd 3e 05 a9 b9 91 69 9b 3c
       -0.03602981 -0.038761906 -0.00032238098 0.018971236
000060 45 51 c4 bc 68 b0 2f bc ba 94 49 bd 65 69 39 bc
       -0.023964534 -0.010723211 -0.049214102 -0.011316632
000070 69 66 d7 bb 38 41 2b 3d 4b 58 b5 bc 03 21 d7 bc
       -0.0065734875 0.041810244 -0.022136828 -0.026260858
000080 93 9f bd 3c a5 26 c1 3c 24 a4 bd 3c 79 16 c1 bc
       0.02314738 0.023577997 0.023149557 -0.023570286
000090 51 90 67 3c f7 31 cc bd c9 d1 48 3d 15 ab 3c bb
       0.014133529 -0.099704675 0.04902819 -0.0028788496
0000a0 76 9e 85 3b 89 39 41 bc 60 6a 94 3c 8e 87 1f bc
       0.004077728 -0.011793503 0.01811713 -0.009736909
0000b0 d2 03 0d bb fb bd 55 3d 85 58 fa 3c 9e ef 13 3c
       -0.002151717 0.052183133 0.030559788 0.009029297
0000c0 e7 22 36 bc dd 3d 09 3d a2 b8 2f 3c d1 e9 1a bd
       -0.01111672 0.033506263 0.010725172 -0.03782064
0000d0 7b 3b 90 bc 9b 5d 0e bd b0 cf 93 bc bb 43 49 3c
       -0.017606487 -0.034757238 -0.018043369 0.012284215
0000e0 7d 7e ac bc 51 28 ed 3c 6a 4b b7 bb e6 f9 66 bd
       -0.021056408 0.028949888 -0.005593707 -0.056390665
0000f0 a4 89 07 bc ca 88 12 bd 1e b1 17 3d b4 45 b5 bb
       -0.008272562 -0.035774983 0.037034146 -0.005531991
000100 f8 4c a9 3b a6 eb 83 bc b2 2d 03 bd f8 42 6d bc
       0.005166646 -0.016103577 -0.032026 -0.014481299
000110 80 82 e4 3c d4 21 ea bc 89 83 8e 3d e5 6c 34 bd
       0.027894258 -0.028580584 0.06958682 -0.044049162
000120 95 f3 2d bd bd 14 91 bc cc 3c 9e bc 98 39 d6 bc
       -0.042468626 -0.017710084 -0.0193161 -0.02615051
000130 c8 e7 99 3a 0a a9 1c bb 90 70 89 bc 7b cc fd bb
       0.001174205 -0.0023904466 -0.016777307 -0.0077453232
000140 bc 1a c1 3c f0 b1 0a 3c c4 70 af 3d cb 65 3b bd
       0.023572318 0.008465275 0.0856643 -0.045751374
000150 bc 81 d1 bc 9d 39 99 bc a5 ea 4a bd 88 fb 04 bd
       -0.025574557 -0.01870423 -0.04954018 -0.03246644
000160 26 86 1d bc 41 a3 00 3d fa d7 14 bd 74 8a 35 bd
       -0.009614503 0.03140569 -0.036338784 -0.044321492
000170 18 9d 59 bd be f5 17 bd af 38 6f bd 58 27 0e bc
       -0.053128332 -0.037099592 -0.058403667 -0.0086763725
000180 bb 8d a3 3c 5a dd 08 3d f5 e6 d9 3c 2e 9b ac 39
       0.019965043 0.033414222 0.026599387 0.00032922014
000190 7f 88 8a bd e1 f4 fa bb e9 c9 b4 bb 74 98 8e ba
       -0.06764316 -0.0076585864 -0.0055172336 -0.0010879175
0001a0 95 a8 f9 bc 85 8f 95 bc 81 ef a9 bc 2b 03 01 bd
       -0.030475894 -0.018256912 -0.020744087 -0.03149716
0001b0 f9 06 80 bb 76 0c 11 3d 33 76 3e 3d f5 77 16 3c
       -0.003907081 0.035412274 0.046499442 0.009183873
0001c0 d4 0d 59 bd 8a 4e 86 bc 72 03 5a bd 75 c9 82 bd
       -0.052991703 -0.016394872 -0.053225942 -0.06386081
0001d0 28 3c 7a 3c 6b 86 a1 3c 79 a6 70 3c a2 79 ee bc
       0.015273131 0.019717416 0.014688128 -0.029110733
0001e0 d4 06 50 bc 86 68 2d bb 1d 81 65 bd b7 b9 8e bb
       -0.01269694 -0.0026460006 -0.056031335 -0.004355635
0001f0 78 c1 f3 bc c5 60 08 bb 26 4c 0d 3d 65 27 9a bc
       -0.029755339 -0.0020809632 0.03449645 -0.018817613
000200 07 a7 12 3d 99 88 06 3c 17 7d e9 ba 6e 4b 46 3b
       0.03580382 0.008211278 -0.0017813769 0.0030257362
000210 b8 72 ce bc 10 ed ae 3b 4d 83 1c 3c aa c2 37 bc
       -0.025201187 0.0053383186 0.009552789 -0.011215845
000220 00 ab 34 bd 53 e4 db bc e0 01 83 bd c2 08 21 3d
       -0.04410839 -0.026842272 -0.06396842 0.039314993
000230 fa 3b 43 bd 45 01 84 3d 32 76 ee 3c f6 3a e2 ba
       -0.04766462 0.06445555 0.029109094 -0.0017260003
000240 e8 2b 2c bd b1 11 6e 3b 05 35 ae bb c1 d0 c7 3c
       -0.04203406 0.0036326463 -0.005316379 0.024391534
000250 4f 57 69 3d 51 8d 07 bb b5 15 8d bd 8b 2a 34 3d
       0.05696803 -0.0020683596 -0.06888906 0.043985885
000260 7f db 4d bd 55 e6 33 ba fb 75 8f 3d 6d d8 0e 3c
       -0.050258156 -0.000686263 0.07004925 0.008718592
000270 f3 d1 0e bd fd 1b 0a 3c 67 3c 0b 3d d7 aa bc 3b
       -0.034868192 0.0084295245 0.03399315 0.0057576704
000280 ef 6a de bc 08 82 a5 3c d2 31 bd 3a 2c ee fe 3c
       -0.0271506 0.020203605 0.0014434403 0.031119429
000290 1b 4c a7 3b 33 fb 26 3d a4 5e 9c bc 47 c1 ea 3c
       0.005105508 0.040766906 -0.019088097 0.028656615
0002a0 f5 af a8 bc 9c 51 48 bc 83 88 9f 3b 6c 82 0b 3d
       -0.020591715 -0.012226488 0.0048685684 0.034059927
0002b0 4b 81 f4 bc 56 a1 18 bd 72 b8 02 bc c0 4e e7 bc
       -0.029846808 -0.037263237 -0.0079785455 -0.028235793
0002c0 b9 1d df 3c 3d 9f 71 bb f2 e6 34 bd bf 85 98 3b
       0.027235853 -0.0036868595 -0.04416556 0.0046546157
0002d0 18 a2 4a 3d 0f bc 02 bd ac 0d 04 bd 2c 36 99 bb
       0.04947099 -0.031917628 -0.0322396 -0.0046756472
0002e0 22 08 8f 3c 65 d3 9a bc 66 91 87 bc a6 16 b3 3c
       0.017459933 -0.018899629 -0.016548824 0.021861386
0002f0 44 9e 92 3c 97 c1 88 3d e2 29 45 bb 19 47 9d b9
       0.017897733 0.06677549 -0.0030084779 -0.00029998345
000300 42 a4 0b bb 46 85 af ba dc 9b dc 3c 6b a6 21 3c
       -0.0021307622 -0.0013391159 0.026929788 0.009866337
000310 16 a1 b1 bc ab 95 7b 3c 27 51 73 bd 28 5b ce 3c
       -0.021683257 0.015355508 -0.059403565 0.025189951
000320 f1 d4 ac 3b 88 e1 97 3c ee b9 0f 3d 16 20 1e 3c
       0.005274408 0.018540159 0.035089426 0.009651205
000330 46 05 dd bb 4a cc 7c 3c 94 e7 58 bd 0b 3b 4d 3b
       -0.0067450134 0.015429566 -0.052955225 0.003131571
000340 fe 7d 7b 3c 76 bf 6d 3d f5 aa 96 bd b3 59 24 3d
       0.015349863 0.05804392 -0.07356826 0.040124606
000350 13 13 6c bd 50 09 88 bd d0 db 27 3d dd 54 2b bc
       -0.057635378 -0.06642401 0.040981114 -0.010457245
000360 f7 64 7c 3d c4 11 ab 3b b7 dc f5 39 fe 7c 37 3d
       0.061619725 0.0052206237 0.00046894487 0.044796936
000370 ec 8a 82 3d 07 d9 af 3c f4 07 ab 3c 85 bd 0a 3d
       0.063741535 0.021465791 0.020877816 0.033872146
000380 4f 74 34 bb c8 c0 8a bc fa e8 46 bd c9 74 30 3d
       -0.0027535146 -0.016937628 -0.048562028 0.043080125
000390 04 c5 ee bc f9 96 84 bc 75 55 50 3c f5 ee 09 3d
       -0.029146679 -0.01618527 0.012715687 0.033675153
0003a0 cf 78 c9 3c e8 98 c9 3b b0 f8 4f bd 8a 85 ba bc
       0.024593739 0.006152261 -0.050774276 -0.022768755
0003b0 5e df a9 bc a2 1b 70 bb 97 b3 cd bc ee 4b 4e bb
       -0.020736393 -0.0036637564 -0.02511005 -0.0031478363
0003c0 b9 99 ae 3c 59 fe 24 3d 71 cc 2c 3c 42 2e 20 3d
       0.021313535 0.040281627 0.0105467895 0.039106615
0003d0 82 69 2c bc 04 0c ae 3c e0 cd 6c bb fa 1b e7 3c
       -0.010523202 0.021245964 -0.0036133453 0.028211582
0003e0 e6 a3 15 bd b7 60 1f 3d 66 8b 18 3d 85 ac ec 3c
       -0.03653326 0.038910594 0.037242316 0.028890857
0003f0 9d 9c 0a 3d 06 08 4b 3a ed fe 5e bc f2 c4 88 bc
       0.033840764 0.0007745031 -0.013610584 -0.016695473

action_model._discrete_distribution.branches.1.bias f4 [3]
000000 b9 20 28 3c 0a fe 69 3a 23 d8 38 bc
       0.010261708 0.00089260994 -0.011282

action_model._discrete_distribution.branches.2.weight f4 [1, 128]
000000 af 7d 40 3c c5 e0 1c 3c 20 38 79 3c fa d3 8e ba
       0.011748715 0.009575074 0.015211135 -0.0010896914
000010 cf 72 22 3c 8a 2e ff 3b ea 62 e9 39 9f 60 85 ba
       0.009915068 0.0077875303 0.0004451492 -0.001017589
000020 eb 73 02 bb 77 c8 b6 ba 48 05 35 3c ed 9f c3 bb
       -0.0019905518 -0.0013945241 0.011048622 -0.0059699924
000030 4d 73 92 bb 94 0b 04 bb 72 12 f7 3a a4 eb 14 3b
       -0.0044693113 -0.0020148503 0.0018850102 0.002272346
000040 8a 78 64 3c 17 32 1a 3a c7 1e 06 3c 0b b9 f4 bb
       0.013944754 0.0005882098 0.008186049 -0.007468348
000050 f0 f9 ce ba ba 8d e5 3a 30 7c 08 bc f0 e3 66 3c
       -0.001579104 0.0017513551 -0.00833039 0.0140924305
000060 db 10 b3 3b d7 f3 b7 3a 62 1d 74 39 72 ce 67 bc
       0.005464656 0.0014034462 0.00023280599 -0.0141483415
000070 8f 26 fd bb 29 08 be bb 8f c1 23 bc 84 f4 28 3c
       -0.007725544 -0.0057993126 -0.009994878 0.010312203
000080 c5 ec ba bb d0 7b a1 3b fc 26 b2 3b 5e 3a a5 3a
       -0.0057044947 0.0049280897 0.005436776 0.0012605896
000090 82 f4 19 3c 7b 12 58 38 63 ba 15 3b 35 d3 9c 3b
       0.009396674 5.1515624e-05 0.002284669 0.00478592
0000a0 33 87 c1 3b 0e 3d 87 b9 e7 b9 24 3b bf 34 53 3c
       0.0059060096 -0.00025794696 0.002513522 0.012890994
0000b0 63 1a a7 bc 27 46 b9 3b cf af 08 3c 29 01 a9 3c
       -0.020398324 0.0056541148 0.008342697 0.020630436
0000c0 00 3f c7 3b df b5 64 ba 5b ea 6d bc 19 e6 24 bc
       0.006080508 -0.00087246107 -0.014521207 -0.010064625
0000d0 15 88 4e 3b c7 d9 c5 b8 03 08 98 bc 25 ad 56 bb
       0.0031514217 -9.434256e-05 -0.018558508 -0.003275701
0000e0 6b a2 99 3b 2d 79 1f 3b 2c 1b 33 bc b0 f6 66 ba
       0.004688551 0.00243337 -0.010931771 -0.0008810563
0000f0 d2 45 ec b9 e0 0a 75 3b 70 c2 6c bb cb 64 9d 3c
       -0.00045065448 0.0037390515 -0.0036126636 0.0192131
000100 a2 1a 5d 3a 63 9a 3b 3b 57 55 a7 3c 5a 0b 9f bb
       0.00084344496 0.0028625957 0.020426435 -0.004853648
000110 14 53 82 bc bb 4b 15 bc 0e 24 39 3c 4a 95 f6 bb
       -0.015908755 -0.009112294 0.0113001 -0.007525121
000120 2a 32 b0 bb b3 b5 b5 bb 6b cf ae bb 3f e1 ee bc
       -0.005377074 -0.005545342 -0.0053347847 -0.02916014
000130 73 eb be b9 a2 51 00 3c a6 fd 30 bc b8 23 dc 3b
       -0.00036415047 0.007831963 -0.010802662 0.006718125
000140 cf a2 b5 3a dd 84 6a 3b 3d 02 c2 3b 6b 13 eb 3b
       0.0013857725 0.003578476 0.005920677 0.0071739457
000150 f0 8f 6c 3b c9 41 a8 3b 45 5a 7f 3b a5 70 73 bb
       0.0036096536 0.0051347953 0.0038963717 -0.0037145999
000160 cc 2f 23 3c 4f 0d 1b 3c d7 ef 0b 3c 1a 4f 64 bb
       0.009960126 0.009463622 0.008541069 -0.0034837187
000170 69 90 b8 3b 17 a1 b7 3b 12 68 ab bb 91 83 09 bc
       0.0056324494 0.00560392 -0.005230912 -0.008393184
000180 57 58 18 3b 87 e1 fb bb fa d8 7d bb e8 46 87 bb
       0.0023246014 -0.007686797 -0.0038734064 -0.0041283257
000190 45 29 3d bc 8f cb 7e 3b 6a de e2 3a ad ff c8 ba
       -0.011545484 0.0038878655 0.0017308716 -0.0015334986
0001a0 9b f7 d1 3a de 46 a3 bb 0c 46 91 38 62 dc 18 3b
       0.0016019227 -0.0049828133 6.927186e-05 0.0023324718
0001b0 bb 7c 20 bc 80 41 5c bb c7 18 3b 3c 66 21 1f 3b
       -0.009795363 -0.0033608377 0.011419482 0.0024281382
0001c0 6b d3 62 3c b8 33 92 39 ae 78 8c bc 24 6b 92 3c
       0.013844351 0.00027885824 -0.017147388 0.017873354
0001d0 7f 9f f7 3b bf 51 9d 3c 41 1d 92 bb 85 9c a4 bc
       0.007556855 0.019204019 -0.0044590537 -0.020094166
0001e0 ce 30 8f 3c a3 f5 b1 3a ee ea b5 3b f7 09 2a bc
       0.017479327 0.0013577234 0.0055516874 -0.010378352
0001f0 e8 d9 da 3a 05 ea a6 bb 53 c5 82 b9 c1 12 34 bc
       0.0016697021 -0.0050938153 -0.0002494255 -0.010990799
