Assets/ZooheimTest/Models/run3/DeerBehavior/checkpoint.pt (torch, 916956 bytes, 59 tensors)

discrete_act_size_vector f4 [1, 3]
2.0 3.0 1.0
00000000: 0000 0040 0000 4040 0000 803f

network_body.observation_encoder.processors.0.normalizer.running_mean f4 [150]
0.088789344 0.7142364 0.14257443 0.008036689 0.003829036 0.0023288538 0.003364693 0.0024217232
0.005000608 0.16030036 0.08628904 0.71012896 0.14719647 0.0073008873 0.0046505635 0.0024074358
0.0037504565 0.0023645724 0.00395048 0.15481062 0.087039165 0.7094506 0.14650348 0.007779517
0.0033361195 0.002771765 0.002636033 0.00247173 0.00565783 0.16433465 0.085074596 0.70967853
0.14733218 0.0067793974 0.004750577 0.0025145921 0.0036933038 0.0021645483 0.005129192 0.15791152
0.08328154 0.71139354 0.14895378 0.0073794643 0.0031861025 0.0029289268 0.0027860522 0.002650322
0.005414942 0.16745445 0.081038415 0.7001777 0.16055517 0.0068079694 0.0050291843 0.002500303
0.003521857 0.0025003038 0.0053292187 0.16133845 0.083352976 0.7097787 0.14828233 0.006486504
0.004179079 0.0028574895 0.0027860515 0.0021931229 0.0075437753 0.1746553 0.07575208 0.7023426
0.16619872 0.0063936324 0.004650564 0.0026431784 0.002500303 0.002686041 0.004822015 0.1655727
0.07535917 0.7106646 0.15439019 0.006129315 0.0040647793 0.0030789461 0.0023074225 0.0015859068
0.0087796375 0.17858104 0.06999425 0.70615727 0.16637015 0.005836424 0.0050434647 0.003100377
0.0022788479 0.0029575024 0.0069079823 0.17242786 0.072815984 0.71063626 0.15896215 0.006236472
0.00464342 0.003593293 0.002150261 0.002200269 0.007708078 0.18615519 0.069822736 0.7066356
0.16582727 0.006379346 0.004850587 0.0033789808 0.0022931339 0.0026003153 0.0065936577 0.18615463
0.06772254 0.723995 0.14939675 0.0068151136 0.00567926 0.0035647198 0.002371717 0.0019073738
0.007943823 0.19107921 0.06969415 0.71750164 0.15501884 0.0064293537 0.0048720213 0.0030432257
0.0024931598 0.00230028 0.008265289 0.20444521 0.066600986 0.7250448 0.15146132 0.0057435534
0.005300646 0.0039933403 0.0021359732 0.0017573558 0.008701056 0.20547265
00000000: 30d7 b53d 32d8 363f 08ff 113e 51ac 033c
00000010: 90f0 7a3b af9f 183b 2e82 5c3b c6b5 1e3b
00000020: 24dc a33b c725 243e 4fb8 b03d 03cb 353f
00000030: acba 163e 483c ef3b c163 983b 12c6 1d3b
00000040: 38ca 753b f1f6 1a3b 0773 813b ad86 1e3e
00000050: 9741 b23d 8e9e 353f 0205 163e 52eb fe3b
00000060: cca2 5a3b 80a6 353b 4cc1 2c3b c0fc 213b
00000070: 5165 b93b 5847 283e 973b ae3d 7ead 353f
00000080: 3fde 163e b525 de3b baaa 9b3b dbcb 243b
00000090: 5b0b 723b 18db 0d3b c812 a83b 8fb3 213e
000000a0: 838f aa3d e31d 363f 5787 183e 6fcf f13b
000000b0: eecd 503b 3df3 3f3b 3396 363b 06b1 2d3b
000000c0: d36f b13b 2e79 2b3e 78f7 a53d d93e 333f
000000d0: 9368 243e 6315 df3b dbcb a43b 20dc 233b
000000e0: f5ce 663b 23dc 233b baa0 ae3b e835 253e
000000f0: f7b4 aa3d 0fb4 353f 53d7 173e bd8c d43b
00000100: a8f0 883b b844 3b3b 3096 363b 7fba 0f3b
00000110: c631 f73b d7d8 323e e823 9b3d bacc 333f
00000120: ff2f 2a3e ad81 d13b c263 983b 2d39 2d3b
00000130: 20dc 233b 4a08 303b fe01 9e3b e48b 293e
00000140: e955 9a3d 1dee 353f 7618 1e3e 6cd8 c83b
00000150: d731 853b 25c8 493b 2038 173b 34de cf3a
00000160: 78d8 0f3c f3dd 363e 2559 8f3d b9c6 343f
00000170: f05c 2a3e 793f bf3b a643 a53b b22f 4b3b
00000180: b958 153b a8d2 413b 5b5c e23b ee90 303e
00000190: 8c20 953d 42ec 353f f9c6 223e 525b cc3b
000001a0: d527 983b 747d 6b3b 65eb 0c3b 6332 103b
000001b0: 0b94 fc3b 779f 3e3e 39ff 8e3d 12e6 343f
000001c0: a0ce 293e d509 d13b acf1 9e3b e471 5d3b
000001d0: 6748 163b 0d6a 2a3b 9c0f d83b 529f 3e3e
000001e0: 1db2 8a3d bc57 393f 76fb 183e 5151 df3b
000001f0: 1619 ba3b 139e 693b cf6e 1b3b d800 fa3a
00000200: cf26 023c 45aa 433e cebb 8e3d 30ae 373f
00000210: 42bd 1e3e 54ad d23b 7aa5 9f3b db70 473b
00000220: 4864 233b 4bc0 163b 226b 073c 165a 513e
00000230: 1966 883d 899c 393f ad18 1b3e 6b34 bc3b
00000240: 0bb1 ad3b 91da 823b affb 0b3b 1357 e63a
00000250: e08e 0e3c 6c67 523e

network_body.observation_encoder.processors.0.normalizer.running_variance f4 [150]
11326.441 28571.9 17113.51 1116.9589 534.94775 326.24078 470.41522 339.1791
697.4996 4223.842 11037.713 28815.9 17573.014 1015.53845 648.97266 337.18857
524.031 331.2173 551.8155 3956.9512 11124.517 28855.771 17504.504 1081.5277
466.44202 387.92462 369.02716 346.1448 788.5189 4441.3022 10896.846 28842.37
17586.42 943.5661 662.8409 352.11502 516.0905 303.34415 715.31744 4252.839
10688.102 28741.3 17746.172 1026.3771 445.57895 409.79913 389.9135 371.0166
754.89557 4622.2866 10425.702 29387.467 18867.525 947.51184 701.4595 350.12482
492.26367 350.12485 743.02454 4411.621 10696.433 28836.486 17680.107 903.1104
583.55524 399.85703 389.9135 307.3265 1049.0336 5123.859 9801.723 29265.502
19399.387 890.2775 648.9726 370.02203 350.12494 375.99008 672.7454 4549.5586
9755.04 28784.344 18276.32 853.74097 567.6872 430.67307 323.25458 222.6479
1219.2095 5336.0786 9113.195 29047.363 19415.408 813.2317 703.43933 433.65445
319.27322 413.77563 961.3204 4766.0557 9451.789 28786.04 18715.773 868.555
647.98175 502.1926 301.35275 308.32245 1071.6827 5456.3374 9092.551 29019.701
19364.652 888.3031 676.70654 472.40167 321.26395 364.05347 917.9138 5128.4336
8838.989 27973.275 17789.664 948.49866 791.4852 498.22125 332.2126 267.49072
1104.166 5339.181 9077.0625 28374.596 18337.092 895.21344 679.67737 425.70355
349.12985 322.25925 1148.4369 5669.6987 8703.079 27907.258 17991.725 800.3821
739.0668 557.7679 299.3614 246.56763 1208.4021 5646.658
00000000: c4f9 3046 cd37 df46 05b3 8546 af9e 8b44
00000010: a8bc 0544 d21e a343 2635 eb43 ed96 a943
00000020: f95f 2e44 bcfe 8345 da76 2c46 cd1f e146
00000030: 074a 8946 76e2 7d44 403e 2244 2398 a843
00000040: fc01 0344 d09b a543 31f4 0944 384f 7745
00000050: 11d2 2d46 8b6f e146 02c1 8846 e330 8744
00000060: 9438 e943 5af6 c143 7a83 b843 8912 ad43
00000070: 3621 4544 6bca 8a45 6243 2a46 bd54 e146
00000080: d764 8946 3be4 6b44 d1b5 2544 b90e b043
00000090: cb05 0144 0dac 9743 51d4 3244 b6e6 8445
000000a0: 6800 2746 9a8a e046 58a4 8a46 114c 8044
000000b0: 1bca de43 4ae6 cc43 eef4 c243 2082 b943
000000c0: 51b9 3c44 4b72 9045 cfe6 2246 ef96 e546
000000d0: 0d67 9346 c2e0 6c44 685d 2f44 fa0f af43
000000e0: c021 f643 fb0f af43 92c1 3944 f8dc 8945
000000f0: bb21 2746 f948 e146 3720 8a46 11c7 6144
00000100: 89e3 1144 b3ed c743 eef4 c243 cba9 9943
00000110: 1321 8344 df1e a045 e426 1946 01a3 e446
00000120: c68e 9746 c391 5e44 3f3e 2244 d202 b943
00000130: fe0f af43 bbfe bb43 b52f 2844 782c 8e45
00000140: 296c 1846 b0e0 e046 a4c8 8e46 6c6f 5544
00000150: fbeb 0d44 2756 d743 96a0 a143 dda5 5e43
00000160: b466 9844 a1c0 a645 c864 0e46 baee e246
00000170: d1ae 9746 d44e 4b44 1edc 2f44 c5d3 d843
00000180: f9a2 9f43 48e3 ce43 8154 7044 72f0 9445
00000190: 28af 1346 14e4 e046 8c37 9246 8523 5944
000001a0: d5fe 2144 a718 fb43 27ad 9643 4629 9a43
000001b0: d9f5 8544 b382 aa45 3412 0e46 67b7 e246
000001c0: 4e49 9746 6613 5e44 382d 2944 6a33 ec43
000001d0: c9a1 a043 d806 b643 7c7a 6544 7843 a045
000001e0: f51b 0a46 8d8a da46 54fb 8a46 ea1f 6d44
000001f0: 0edf 4544 521c f943 361b a643 d0be 8543
00000200: 5005 8a44 73d9 a645 40d4 0d46 31ad dd46
00000210: 2f42 8f46 a9cd 5f44 5aeb 2944 0eda d443
00000220: 9f90 ae43 2f21 a143 fb8d 8f44 972d b145
00000230: 51fc 0746 8406 da46 738f 8c46 7418 4844
00000240: 46c4 3844 2571 0b44 42ae 9543 5091 7643
00000250: de0c 9744 4475 b045

network_body.observation_encoder.processors.1.normalizer.running_mean f4 [6]
95.74546 171.48413 95.86284 171.81815 95.979324 172.15111
00000000: ad7d bf42 f07b 2b43 c6b9 bf42 72d1 2b43
00000010: 6af5 bf42 af26 2c43

network_body.observation_encoder.processors.1.normalizer.running_variance f4 [6]
4.0143784e+07 8.472042e+07 3.932478e+07 7.646968e+07 3.8550516e+07 6.819476e+07
00000000: ea22 194c 6497 a14c 1b03 164c b6da 914c
00000010: fd0e 134c 3912 824c

network_body.processors.0.normalizer.running_mean f4 [150]
0.088789344 0.7142364 0.14257443 0.008036689 0.003829036 0.0023288538 0.003364693 0.0024217232
0.005000608 0.16030036 0.08628904 0.71012896 0.14719647 0.0073008873 0.0046505635 0.0024074358
0.0037504565 0.0023645724 0.00395048 0.15481062 0.087039165 0.7094506 0.14650348 0.007779517
0.0033361195 0.002771765 0.002636033 0.00247173 0.00565783 0.16433465 0.085074596 0.70967853
0.14733218 0.0067793974 0.004750577 0.0025145921 0.0036933038 0.0021645483 0.005129192 0.15791152
0.08328154 0.71139354 0.14895378 0.0073794643 0.0031861025 0.0029289268 0.0027860522 0.002650322
0.005414942 0.16745445 0.081038415 0.7001777 0.16055517 0.0068079694 0.0050291843 0.002500303
0.003521857 0.0025003038 0.0053292187 0.16133845 0.083352976 0.7097787 0.14828233 0.006486504
0.004179079 0.0028574895 0.0027860515 0.0021931229 0.0075437753 0.1746553 0.07575208 0.7023426
0.16619872 0.0063936324 0.004650564 0.0026431784 0.002500303 0.002686041 0.004822015 0.1655727
0.07535917 0.7106646 0.15439019 0.006129315 0.0040647793 0.0030789461 0.0023074225 0.0015859068
0.0087796375 0.17858104 0.06999425 0.70615727 0.16637015 0.005836424 0.0050434647 0.003100377
0.0022788479 0.0029575024 0.0069079823 0.17242786 0.072815984 0.71063626 0.15896215 0.006236472
0.00464342 0.003593293 0.002150261 0.002200269 0.007708078 0.18615519 0.069822736 0.7066356
0.16582727 0.006379346 0.004850587 0.0033789808 0.0022931339 0.0026003153 0.0065936577 0.18615463
0.06772254 0.723995 0.14939675 0.0068151136 0.00567926 0.0035647198 0.002371717 0.0019073738
0.007943823 0.19107921 0.06969415 0.71750164 0.15501884 0.0064293537 0.0048720213 0.0030432257
0.0024931598 0.00230028 0.008265289 0.20444521 0.066600986 0.7250448 0.15146132 0.0057435534
0.005300646 0.0039933403 0.0021359732 0.0017573558 0.008701056 0.20547265
00000000: 30d7 b53d 32d8 363f 08ff 113e 51ac 033c
00000010: 90f0 7a3b af9f 183b 2e82 5c3b c6b5 1e3b
00000020: 24dc a33b c725 243e 4fb8 b03d 03cb 353f
00000030: acba 163e 483c ef3b c163 983b 12c6 1d3b
00000040: 38ca 753b f1f6 1a3b 0773 813b ad86 1e3e
00000050: 9741 b23d 8e9e 353f 0205 163e 52eb fe3b
00000060: cca2 5a3b 80a6 353b 4cc1 2c3b c0fc 213b
00000070: 5165 b93b 5847 283e 973b ae3d 7ead 353f
00000080: 3fde 163e b525 de3b baaa 9b3b dbcb 243b
00000090: 5b0b 723b 18db 0d3b c812 a83b 8fb3 213e
000000a0: 838f aa3d e31d 363f 5787 183e 6fcf f13b
000000b0: eecd 503b 3df3 3f3b 3396 363b 06b1 2d3b
000000c0: d36f b13b 2e79 2b3e 78f7 a53d d93e 333f
000000d0: 9368 243e 6315 df3b dbcb a43b 20dc 233b
000000e0: f5ce 663b 23dc 233b baa0 ae3b e835 253e
000000f0: f7b4 aa3d 0fb4 353f 53d7 173e bd8c d43b
00000100: a8f0 883b b844 3b3b 3096 363b 7fba 0f3b
00000110: c631 f73b d7d8 323e e823 9b3d bacc 333f
00000120: ff2f 2a3e ad81 d13b c263 983b 2d39 2d3b
00000130: 20dc 233b 4a08 303b fe01 9e3b e48b 293e
00000140: e955 9a3d 1dee 353f 7618 1e3e 6cd8 c83b
00000150: d731 853b 25c8 493b 2038 173b 34de cf3a
00000160: 78d8 0f3c f3dd 363e 2559 8f3d b9c6 343f
00000170: f05c 2a3e 793f bf3b a643 a53b b22f 4b3b
00000180: b958 153b a8d2 413b 5b5c e23b ee90 303e
00000190: 8c20 953d 42ec 353f f9c6 223e 525b cc3b
000001a0: d527 983b 747d 6b3b 65eb 0c3b 6332 103b
000001b0: 0b94 fc3b 779f 3e3e 39ff 8e3d 12e6 343f
000001c0: a0ce 293e d509 d13b acf1 9e3b e471 5d3b
000001d0: 6748 163b 0d6a 2a3b 9c0f d83b 529f 3e3e
000001e0: 1db2 8a3d bc57 393f 76fb 183e 5151 df3b
000001f0: 1619 ba3b 139e 693b cf6e 1b3b d800 fa3a
00000200: cf26 023c 45aa 433e cebb 8e3d 30ae 373f
00000210: 42bd 1e3e 54ad d23b 7aa5 9f3b db70 473b
00000220: 4864 233b 4bc0 163b 226b 073c 165a 513e
00000230: 1966 883d 899c 393f ad18 1b3e 6b34 bc3b
00000240: 0bb1 ad3b 91da 823b affb 0b3b 1357 e63a
00000250: e08e 0e3c 6c67 523e

network_body.processors.0.normalizer.running_variance f4 [150]
11326.441 28571.9 17113.51 1116.9589 534.94775 326.24078 470.41522 339.1791
697.4996 4223.842 11037.713 28815.9 17573.014 1015.53845 648.97266 337.18857
524.031 331.2173 551.8155 3956.9512 11124.517 28855.771 17504.504 1081.5277
466.44202 387.92462 369.02716 346.1448 788.5189 4441.3022 10896.846 28842.37
17586.42 943.5661 662.8409 352.11502 516.0905 303.34415 715.31744 4252.839
10688.102 28741.3 17746.172 1026.3771 445.57895 409.79913 389.9135 371.0166
754.89557 4622.2866 10425.702 29387.467 18867.525 947.51184 701.4595 350.12482
492.26367 350.12485 743.02454 4411.621 10696.433 28836.486 17680.107 903.1104
583.55524 399.85703 389.9135 307.3265 1049.0336 5123.859 9801.723 29265.502
19399.387 890.2775 648.9726 370.02203 350.12494 375.99008 672.7454 4549.5586
9755.04 28784.344 18276.32 853.74097 567.6872 430.67307 323.25458 222.6479
1219.2095 5336.0786 9113.195 29047.363 19415.408 813.2317 703.43933 433.65445
319.27322 413.77563 961.3204 4766.0557 9451.789 28786.04 18715.773 868.555
647.98175 502.1926 301.35275 308.32245 1071.6827 5456.3374 9092.551 29019.701
19364.652 888.3031 676.70654 472.40167 321.26395 364.05347 917.9138 5128.4336
8838.989 27973.275 17789.664 948.49866 791.4852 498.22125 332.2126 267.49072
1104.166 5339.181 9077.0625 28374.596 18337.092 895.21344 679.67737 425.70355
349.12985 322.25925 1148.4369 5669.6987 8703.079 27907.258 17991.725 800.3821
739.0668 557.7679 299.3614 246.56763 1208.4021 5646.658
00000000: c4f9 3046 cd37 df46 05b3 8546 af9e 8b44
00000010: a8bc 0544 d21e a343 2635 eb43 ed96 a943
00000020: f95f 2e44 bcfe 8345 da76 2c46 cd1f e146
00000030: 074a 8946 76e2 7d44 403e 2244 2398 a843
00000040: fc01 0344 d09b a543 31f4 0944 384f 7745
00000050: 11d2 2d46 8b6f e146 02c1 8846 e330 8744
00000060: 9438 e943 5af6 c143 7a83 b843 8912 ad43
00000070: 3621 4544 6bca 8a45 6243 2a46 bd54 e146
00000080: d764 8946 3be4 6b44 d1b5 2544 b90e b043
00000090: cb05 0144 0dac 9743 51d4 3244 b6e6 8445
000000a0: 6800 2746 9a8a e046 58a4 8a46 114c 8044
000000b0: 1bca de43 4ae6 cc43 eef4 c243 2082 b943
000000c0: 51b9 3c44 4b72 9045 cfe6 2246 ef96 e546
000000d0: 0d67 9346 c2e0 6c44 685d 2f44 fa0f af43
000000e0: c021 f643 fb0f af43 92c1 3944 f8dc 8945
000000f0: bb21 2746 f948 e146 3720 8a46 11c7 6144
00000100: 89e3 1144 b3ed c743 eef4 c243 cba9 9943
00000110: 1321 8344 df1e a045 e426 1946 01a3 e446
00000120: c68e 9746 c391 5e44 3f3e 2244 d202 b943
00000130: fe0f af43 bbfe bb43 b52f 2844 782c 8e45
00000140: 296c 1846 b0e0 e046 a4c8 8e46 6c6f 5544
00000150: fbeb 0d44 2756 d743 96a0 a143 dda5 5e43
00000160: b466 9844 a1c0 a645 c864 0e46 baee e246
00000170: d1ae 9746 d44e 4b44 1edc 2f44 c5d3 d843
00000180: f9a2 9f43 48e3 ce43 8154 7044 72f0 9445
00000190: 28af 1346 14e4 e046 8c37 9246 8523 5944
000001a0: d5fe 2144 a718 fb43 27ad 9643 4629 9a43
000001b0: d9f5 8544 b382 aa45 3412 0e46 67b7 e246
000001c0: 4e49 9746 6613 5e44 382d 2944 6a33 ec43
000001d0: c9a1 a043 d806 b643 7c7a 6544 7843 a045
000001e0: f51b 0a46 8d8a da46 54fb 8a46 ea1f 6d44
000001f0: 0edf 4544 521c f943 361b a643 d0be 8543
00000200: 5005 8a44 73d9 a645 40d4 0d46 31ad dd46
00000210: 2f42 8f46 a9cd 5f44 5aeb 2944 0eda d443
00000220: 9f90 ae43 2f21 a143 fb8d 8f44 972d b145
00000230: 51fc 0746 8406 da46 738f 8c46 7418 4844
00000240: 46c4 3844 2571 0b44 42ae 9543 5091 7643
00000250: de0c 9744 4475 b045

network_body.processors.1.normalizer.running_mean f4 [6]
95.74546 171.48413 95.86284 171.81815 95.979324 172.15111
00000000: ad7d bf42 f07b 2b43 c6b9 bf42 72d1 2b43
00000010: 6af5 bf42 af26 2c43

network_body.processors.1.normalizer.running_variance f4 [6]
4.0143784e+07 8.472042e+07 3.932478e+07 7.646968e+07 3.8550516e+07 6.819476e+07
00000000: ea22 194c 6497 a14c 1b03 164c b6da 914c
00000010: fd0e 134c 3912 824c

network_body._body_endoder.seq_layers.0.weight f4 [128, 156]
-0.024276134 -0.04636261 -0.090698406 0.17710978 -0.06913178 -0.082144566 0.13674676 0.0032839344
0.23478946 0.030738687 0.10830246 -0.013736865 -0.0297025 -0.010598377 -0.08130951 0.00546147
0.06063226 0.07172328 -0.090303935 0.034103937 -0.0033011013 -0.10016159 0.032231815 -0.04490826
0.042199507 0.026199467 -0.12584 -0.059217412 0.1220632 0.011677313 -0.0336625 0.08477309
-0.060558394 -0.15648207 0.14690113 -0.009112858 0.091821276 0.050641682 0.060676828 -0.1038704
-0.031022085 0.058292627 0.04733504 0.15948091 -0.021157088 0.031398065 -0.034315992 0.06989553
0.1008814 0.0326802 0.022825437 -0.02459983 0.023607528 0.119936846 -0.12659782 0.052255392
-0.046643082 0.01808399 -0.0011162204 -0.05321278 -0.10592543 0.003634156 -0.0067652287 -0.026082832
0.05801659 -0.0880671 0.00060194905 0.14019391 -0.050491225 0.0225525 -0.005486514 -0.15858988
0.09484746 -0.026309172 0.005774761 0.027977675 -0.06442328 0.018974442 -0.08097227 0.007379713
-0.057198916 0.03417448 -0.14540005 0.008413297 -0.030083619 0.04975219 -0.09077371 0.067446165
0.021315578 -0.019540504 -0.054648675 0.14667645 -0.119099654 0.026999874 -0.15116678 -0.054100372
0.071255974 0.09363441 0.109877326 -0.110780485 -0.005673656 -0.14755821 -0.013539141 -0.06196803
-0.0024671531 0.08604 -0.011397578 -0.028173506 0.14504929 -0.061178625 0.07048027 -0.07741698
-0.0035300907 0.023877028 -0.02439811 -0.07374141 -0.024462102 0.0640666 0.13065301 0.07796453
0.06618875 -0.17928417 -0.1192865 -0.08440857 0.15913112 0.051141247 -0.101577416 0.05535144
0.012423665 0.013383642 -0.010843094 0.010209397 0.051789217 -0.033017397 0.079969764 0.032196634
0.057747092 -0.0043630106 0.0386441 -0.05616542 -0.018811893 -0.05366791 0.08813283 -0.107030794
0.0064049177 0.07759828 -0.095790066 0.06327832 0.06427518 0.034168556 0.014540864 -0.024554364
-0.034837812 -0.025304984 0.09537208 -0.12797819 0.06026894 0.10779259 -0.08833399 -0.025419647
-0.08866237 0.10838198 0.020733217 -0.08588832 0.006813341 0.1556963 0.015845984 -0.0056538507
0.03867899 -0.06893883 -0.09966549 -0.19367224 -0.005390227 -0.11876107 -0.16455081 0.09600748
0.1768241 0.0059354412 -0.31461293 0.014701378 0.0732568 -0.06539273 -0.072916664 0.018754525
-0.17386264 -0.033999402 -0.036718 0.011194706 0.09676458 0.17752017 -0.0009995971 -0.113158196
-0.030943789 -0.123430885 -0.24312383 0.05296071 0.02431525 -0.02981216 0.061809238 0.107828766
0.05829607 -0.006259561 -0.0058384486 0.013124671 0.073340885 -0.18414749 -0.001963904 -0.0810448
-0.06702482 0.12630047 0.12689638 -0.011314882 0.035853826 0.005372529 0.05107487 -0.10479089
-0.14348954 0.07883336 -0.07351623 -0.02639881 -0.057479877 -0.12648419 -0.045531202 0.06580947
-0.056921594 0.08809764 -0.051818617 0.018818157 0.11830407 0.08427307 -0.008970649 -0.056809366
-0.033826083 -0.06193516 0.00926527 0.02058787 -0.14679825 -0.060745515 0.08883135 0.07953103
-0.065366864 -0.0733349 0.007968884 0.122747354 -0.1512948 0.14325233 0.12163476 -0.069558725
0.039235745 0.13328889 0.121481195 0.004585429 -0.024537984 0.02890948 -0.038319986 -0.08618309
00000000: bede c6bc b8e6 3dbd 16c0 b9bd 445c 353e
00000010: f694 8dbd 693b a8bd 5807 0c3e 4737 573b
00000020: a66c 703e b3cf fb3c aecd dd3d 9610 61bc
00000030: a852 f3bc d1a4 2dbc 9a85 a6bd 22f6 b23b
00000040: 8859 783d a8e3 923d 45f1 b8bd 92b0 0b3d
00000050: 4a57 58bb 8521 cdbd 8205 043d b9f1 37bd
00000060: 64d9 2c3d 44a0 d63c 33dc 00be f58d 72bd
00000070: 45fc f93d 3352 3f3c b1e1 09bd 849d ad3d
00000080: 140c 78bd d63c 20be 406d 163e 194e 15bc
00000090: cb0c bc3d a76d 4f3d 4488 783d 01ba d4bd
000000a0: 0722 febc 40c4 6e3d 63e2 413d f74e 233e
000000b0: a151 adbc 429b 003d ed8e 0cbd 6325 8f3d
000000c0: e89a ce3d acdb 053d 69fc ba3c 9585 c9bc
000000d0: 9364 c13c 73a1 f53d dca2 01be c009 563d
000000e0: d10c 3fbd e024 943c 244e 92ba a5f5 59bd
000000f0: 6fef d8bd 052b 6e3b daae ddbb aaab d5bc
00000100: cea2 6d3d 865c b4bd 1ecc 1d3a fe8e 0f3e
00000110: e3cf 4ebd 05c0 b83c 37c8 b3bb 6365 22be
00000120: 633f c23d 5586 d7bc 353a bd3b 7031 e53c
00000130: 5af0 83bd 4a70 9b3c cad4 a5bd 85d1 f13b
00000140: 6949 6abd 8afa 0b3d c0e3 14be edd7 093c
00000150: ec71 f6bc f4c8 4b3d 91e7 b9bd 3721 8a3d
00000160: 029e ae3c 6813 a0bc 4ad7 5fbd 5a32 163e
00000170: 85ea f3bd d72e dd3c 77cb 1abe 5a98 5dbd
00000180: a7ee 913d 66c3 bf3d 5d07 e13d e1e0 e2bd
00000190: 13ea b9bb 8019 17be 46d3 5dbc 30d2 7dbd
000001a0: f6af 21bb bd35 b03d e8bc 3abc 20cc e6bc
000001b0: cd87 143e 7096 7abd f657 903d cb8c 9ebd
000001c0: 1859 67bb c299 c33c 8cde c7bc bd05 97bd
000001d0: bf64 c8bc 5935 833d e7c9 053e deab 9f3d
000001e0: f88d 873d 4596 37be 7b4c f4bd 66de acbd
000001f0: 45f3 223e 7c79 513d d207 d0bd 31b8 623d
00000200: a18c 4b3c 1047 5b3c 3ca7 31bc 5145 273c
00000210: ee20 543d 403d 07bd 30c7 a33d 9ee0 033d
00000220: 3788 6c3d 96f7 8ebb 4749 1e3d b60d 66bd
00000230: 661b 9abc e2d2 5bbd fc7e b43d f632 dbbd
00000240: 58e0 d13b d9eb 9e3d 952d c4bd 1098 813d
00000250: b5a2 833d 54f4 0b3d ce3c 6e3c 3c26 c9bc
00000260: 18b2 0ebd 664c cfbc 7052 c33d b70c 03be
00000270: 90dc 763d 5dc2 dc3d 73e8 b4bd dd3c d0bc
00000280: 9e94 b5bd 5ff7 dd3d b5d8 a93c 37e6 afbd
00000290: 7242 df3b da6e 1f3e 70cf 813c f043 b9bb
000002a0: dc6d 1e3d cd2f 8dbd 6c1d ccbd 0452 46be
000002b0: 80a0 b0bb 0139 f3bd 0280 28be 929f c43d
000002c0: 6011 353e 177e c23b f214 a1be 0cde 703c
000002d0: a907 963d a0ec 85bd 5555 95bd 17a3 993c
000002e0: 0c09 32be f542 0bbd 9d65 16bd 006a 373c
000002f0: 822c c63d d9c7 353e ea04 83ba 7cbf e7bd
00000300: d47d fdbc 55c9 fcbd 74f5 78be 54ed 583d
00000310: c630 c73c a238 f4bc af2b 7d3d 54d5 dc3d
00000320: dcc7 6e3d 011d cdbb 7550 bfbb dc08 573c
00000330: bf33 963d 2991 3cbe d7b4 00bb d1fa a5bd
00000340: 4f44 89bd e954 013e 20f1 013e 0e62 39bc
00000350: 76db 123d 0a0c b03b e233 513d 9b9c d6bd
00000360: ecee 12be 6273 a13d ad8f 96bd 5142 d8bc
00000370: 0570 6bbd 1285 01be ed7e 3abd 1ec7 863d
00000380: 9e26 69bd 896c b43d c23f 54bd 8928 9a3c
00000390: 6749 f23d 5c97 ac3d a1f9 12bc f0b0 68bd
000003a0: 388d 0abd b9af 7dbd 5ccd 173c e5a7 a83c
000003b0: 4852 16be 4ad0 78bd 36ed b53d 2ae1 a23d
000003c0: 10df 85bd 9c30 96bd ec8f 023c f762 fb3d
000003d0: 06ed 1abe bdb0 123e a51b f93d ce74 8ebd
000003e0: a9b5 203d e27c 083e 22cb f83d 5e41 963b
000003f0: e203 c9bc 93d3 ec3c 6bf5 1cbd c380 b0bd

network_body._body_endoder.seq_layers.0.bias f4 [128]
-0.0070150993 -0.004583985 0.024513653 -0.008290822 0.04320229 -0.0051044626 -0.009203712 0.00055812544
-0.015267759 0.0060378755 -0.00041815155 -0.014609485 0.014213545 -0.005806651 0.0016705631 -0.005242315
-0.014731726 0.009823861 -0.007978535 0.0317748 -0.03856024 -0.0390122 -0.0011706766 -0.008576715
0.011969573 -0.0046348115 -0.017068036 -0.020324163 0.01100479 0.031284284 -0.003972935 -0.0012983044
0.0040183067 -0.0065796426 -0.020744797 -0.009597795 -0.012921016 -0.0105219055 0.012602816 -0.009466684
0.04221075 0.028662166 0.016425664 0.01137323 -0.029489364 -0.008467861 -0.006491261 0.0046135164
-0.05466475 0.0008233897 0.012407684 -0.00545444 0.00972665 -0.0152974995 0.008374284 -0.03519146
0.0025268933 0.02881263 -0.013175883 -0.0138823055 0.0005213257 0.01078941 0.012611798 -0.0058417516
-0.0072708162 -0.03178568 -0.009182056 -0.025731884 0.030278776 0.030047314 0.00035855916 -0.014215397
-0.007991755 0.0022468553 0.01643347 0.010103617 -0.012989176 -0.0184299 0.035738785 -0.0034827907
0.020682693 -0.008681784 0.02075108 0.03305063 0.0095122075 0.01571096 0.006616795 -0.0056140143
-0.0017200549 0.014256686 0.0020068074 0.029536622 -0.013198081 0.016596828 -0.019010786 -0.012167283
0.0071202656 -0.016156057 -0.016420593 -0.0018337588 -0.018616328 0.016566096 -0.047469612 -0.0066751847
-0.022434173 -0.0041892454 0.022557065 0.008539478 0.028272746 -0.0074487813 0.04008476 -0.017862158
-0.030235652 0.032687314 0.0032278423 0.019593975 0.013715082 0.0063030105 0.015979065 0.016765272
0.0030171801 0.0078668175 0.033265598 0.0071901497 -0.00073107734 -0.0063794125 0.008145657 0.013277514
00000000: ebde e5bb 4135 96bb dbd0 c83c 3ad6 07bc
00000010: e2f4 303d 5643 a7bb 2bcb 16bc 2a4f 123a
00000020: 9f25 7abc 5fd9 c53b 5a3b dbb9 9f5c 6fbc
00000030: eedf 683c b845 bebb ccf6 da3a bac7 abbb
00000040: 565d 71bc 42f4 203c 67b8 02bc 4b26 023d
00000050: 58f1 1dbd 42cb 1fbd 6371 99ba 5a85 0cbc
00000060: 071c 443c 9edf 97bb 44d2 8bbc dc7e a6bc
00000070: 6f4d 343c f323 003d 652f 82bb de2b aaba
00000080: 00ac 833b 0b9a d7bb fef0 a9bc 1240 1dbc
00000090: abb2 53bc 1264 2cbc 0b7c 4e3c 271a 1bbc
000000a0: 2ee5 2c3d ebcc ea3c 1d8f 863c c956 3a3c
000000b0: ae93 f1bc c9bc 0abc a5b4 d4bb fb2c 973b
000000c0: 25e8 5fbd bfd8 573a 9949 4b3c 29bb b2bb
000000d0: 875c 1f3c 5da2 7abc 4b34 093c ec24 10bd
000000e0: 3c9a 253b 7708 ec3c a9df 57bc 9c72 63bc
000000f0: 93a9 083a 11c6 303c b7a1 4e3c 2a6c bfbb
00000100: 0740 eebb b431 02bd 5670 16bc accb d2bc
00000110: 320b f83c c925 f63c fffc bb39 b2e7 68bc
00000120: daef 02bc fa3f 133b 7c9f 863c a489 253c
00000130: 8ed0 54bc 4dfa 96bc d562 123d 883f 64bb
00000140: c06e a93c 0b3e 0ebc 2bfe a93c 1960 073d
00000150: 17d9 1b3c 45b4 803c b3d1 d83b c4f5 b7bb
00000160: 7773 e1ba e094 693c a484 033b c9f6 f13c
00000170: c43c 58bc 12f6 873c 82bc 9bbc 4959 47bc
00000180: 1e51 e93b b559 84bc 7b84 86bc bc5a f0ba
00000190: 4581 98bc 9fb5 873c 7f6f 42bd 82bb dabb
000001a0: dfc7 b7bc f045 89bb 98c9 b83c 2be9 0b3c
000001b0: 3f9c e73c e814 f4bb eb2f 243d a953 92bc
000001c0: c2b0 f7bc 22e3 053d 358a 533b 8b83 a03c
000001d0: 39b5 603c 7c89 ce3b 87e6 823c 5357 893c
000001e0: e2bb 453b d3e3 003c 8241 083d 599b eb3b
000001f0: c5a5 3fba 640a d1bb 5d75 053c ee89 593c

network_body._body_endoder.seq_layers.2.weight f4 [128, 128]
0.00090804364 0.00016283503 -0.021827517 -0.06241939 -0.09027167 -0.08708606 0.05805797 0.14375208
0.06951576 0.033209775 0.076402985 -0.059774183 0.00028768295 -0.0027826002 0.019540725 -0.039052848
0.06155033 0.007921094 -0.06514803 0.045283902 0.050722796 -0.024175953 0.016484115 0.024235789
0.03862749 -0.09130496 0.16591376 0.026098263 -0.045079313 0.07589629 0.0047862725 -0.08582505
-0.090115964 0.09934616 -0.038113434 0.006839376 -0.026002198 -0.063000776 0.00011044739 0.17984118
-0.036016595 -0.12371494 0.011214434 0.1440757 0.09806753 0.14338909 0.018750565 -0.19389369
0.015030225 0.0082887905 0.05907682 0.10131448 0.002187425 -0.16939151 0.15075836 -0.05651072
-0.08024247 -0.15593457 0.07028745 0.09927114 0.04711736 -0.041637246 0.0194418 0.04120827
0.039636284 -0.07562797 -0.1100181 0.033758316 -0.1335834 0.017449144 0.03826324 -0.16450672
-0.09122544 -0.122473836 -0.053071473 -0.06499935 -0.09371943 0.021169223 -0.1524299 0.13724948
-0.06128302 -0.05890968 0.04735143 0.09097805 0.008234042 0.0306972 -0.1090419 -0.035669748
-0.08133134 0.084186584 0.09551288 -0.008649865 -0.0003875748 0.12554623 -0.097931154 -0.071982466
-0.31418154 -0.21008588 0.21535757 -0.013096372 -0.049484603 -0.109347515 0.08528784 0.06994389
0.01807861 -0.04596527 0.16088815 -0.019034998 -0.24448322 0.053043943 0.17778406 0.016311118
0.13049787 -0.13518427 -0.19708648 -0.007961028 -0.058267035 0.07897838 -0.07499412 0.16556056
-0.1304178 -0.00050052133 -0.010179672 0.14490877 -0.05199509 0.09240658 -0.05363685 -0.021015259
-0.026748043 -0.047765084 0.10734281 -0.021830417 -0.19570833 0.12833527 -0.11121303 0.03391911
-0.027722267 0.047550637 -0.06229966 0.016994638 -0.043174814 0.093020126 -0.120223776 0.044621687
0.011444064 -0.024566064 0.028982779 -0.050182093 0.105312705 0.15370755 -0.074272715 -0.102390856
0.09096055 0.05974231 0.10926534 -0.021405526 -0.022306187 -0.15204728 0.07895597 -0.054253038
0.010776869 -0.14784543 0.062901795 0.16205674 0.05778196 0.05822993 0.018634282 0.004491517
-0.07135847 -0.020319872 -0.033816658 0.022200834 -0.04184446 -0.10605651 -0.0024679091 0.032848094
-0.0065509933 0.09286366 0.011029206 -0.1982369 0.05653261 -0.21253614 -0.035289798 -0.03053837
-0.020070346 -0.01742664 -0.049348 0.07262548 -0.026110295 -0.050053533 0.012386748 -0.016766585
0.068830155 0.106766686 -0.032614257 0.14449611 0.028295245 0.047476754 0.18261683 0.09925119
-0.064021856 0.029910963 -0.051948454 -0.01637287 0.054393824 -0.058010064 0.051974054 -0.10045711
0.024869885 -0.006260326 -0.31359774 -0.0191237 0.09985988 0.007422992 0.03544 -0.06588117
-0.082174 -0.09263947 -0.016967718 0.0810523 0.05950939 -0.037007708 0.031264413 -0.012466165
0.0046281544 0.011861797 0.069903925 -0.027946198 0.10133685 0.010329782 0.02408504 -0.051936604
0.08738541 0.10002939 -0.09143028 0.10610415 -0.016397327 0.06436768 -0.08817774 0.07267889
-0.06641718 -0.02023694 -0.025104463 0.030000154 0.014018248 0.02588068 0.1027212 0.04631663
-0.097710356 -0.116144516 -0.06902808 0.037312802 -0.09152838 -0.027028274 0.029746132 -0.05978122
00000000: c709 6e3a b2be 2a39 9fcf b2bc 79ab 7fbd
00000010: 5ae0 b8bd 2d5a b2bd 32ce 6d3d bf33 133e
00000020: 475e 8e3d f906 083d 2b79 9c3d c6d5 74bd
00000030: 27d4 9639 495c 36bb df13 a03c e1f5 1fbd
00000040: 331c 7c3d 7ac7 013c 556c 85bd 9d7b 393d
00000050: b5c2 4f3d a60c c6bc b209 873c 228a c63c
00000060: dc37 1e3d 18fe babd 4ce5 293e 06cc d53c
00000070: 16a5 38bd 846f 9b3d 2ad6 9c3b 0bc5 afbd
00000080: b88e b8bd 0076 cb3d d51c 1cbd d81c e03b
00000090: 9002 d5bc 8d06 81bd fe9f e738 4928 383e
000000a0: 2386 13bd 425e fdbd bfbc 373c 9588 133e
000000b0: a1d7 c83d 97d4 123e c99a 993c 118c 46be
000000c0: 5541 763c b5cd 073c 89fa 713d f77d cf3d
000000d0: e75a 0f3b f874 2dbe 6660 1a3e c977 67bd
000000e0: 2a56 a4bd 50ad 1fbe def2 8f3d ab4e cb3d
000000f0: 22fe 403d d18b 2abd 6944 9f3c 01ca 283d
00000100: a859 223d d6e2 9abd 2b51 e1bd 2946 0a3d
00000110: 16ca 08be 82f1 8e3c eab9 1c3d 7374 28be
00000120: 67d4 babd 90d3 fabd 7961 59bd 611e 85bd
00000130: f9ef bfbd 146b ad3c 9516 1cbe 218b 0c3e
00000140: e703 7bbd 474b 71bd 93f3 413d b352 ba3d
00000150: 13e8 063c b278 fb3c 5c51 dfbd 711a 12bd
00000160: 0c91 a6bd 046a ac3d 429c c33d 2ab8 0dbc
00000170: 6933 cbb9 318f 003e 2190 c8bd 8b6b 93bd
00000180: 67dc a0be c120 57be b286 5c3e 2a92 56bc
00000190: 5eb0 4abd 97f1 dfbd 64ab ae3d be3e 8f3d
000001a0: 9819 943c 1446 3cbd ddbf 243e 49ef 9bbc
000001b0: cf59 7abe 9b44 593d 060d 363e e59e 853c
000001c0: 3ca1 053e bf6d 0abe 0ad1 49be f96e 02bc
000001d0: 6aa9 6ebd 6bbf a13d 8496 99bd b588 293e
000001e0: 3e8c 05be 6b35 03ba a4c8 26bc f762 143e
000001f0: cef8 54bd a93f bd3d 50b2 5bbd 3128 acbc
00000200: b61e dbbc 52a5 43bd 8cd6 db3d b4d5 b2bc
00000210: c467 48be 526a 033e a8c3 e3bd c4ee 0a3d
00000220: cf19 e3bc 75c4 423d ee2d 7fbd 5738 8b3c
00000230: 13d8 30bd 5681 be3d e237 f6bd 3bc5 363d
00000240: e27f 3b3c c53e c9bc 4b6d ed3c bd8b 4dbd
00000250: 30ae d73d 8365 1d3e 4b1c 98bd 4cb2 d1bd
00000260: 8649 ba3d 5ab4 743d 82c6 df3d a45a afbc
00000270: 77bb b6bc 48b2 1bbe abb3 a13d 6f38 5ebd
00000280: 7791 303c cb64 17be a8d2 803d 34f2 253e
00000290: c7ac 6c3d 8282 6e3d eca6 983c 932d 933b
000002a0: 6424 92bd dc75 a6bc 5683 0abd 86de b53c
000002b0: 1965 2bbd 2834 d9bd a5bc 21bb b98b 063d
000002c0: b7a9 d6bb 4d2f be3d d8b3 343c 9dfe 4abe
000002d0: bd8e 673d 13a3 59be 098c 10bd 9b2b fabc
000002e0: 916a a4bc 50c2 8ebc 2121 4abd abbc 943d
000002f0: 42e5 d5bc ef04 4dbd c9f1 4a3c 145a 89bc
00000300: d3f6 8c3d 7ea8 da3d 8796 05bd caf6 133e
00000310: 6ecb e73c fc76 423d e8ff 3a3e 3544 cb3d
00000320: e41d 83bd d607 f53c e7c7 54bd 6620 86bc
00000330: 0fcc 5e3d f69b 6dbd bfe2 543d 75bc cdbd
00000340: eebb cb3c 6c23 cdbb e28f a0be 4ea9 9cbc
00000350: 5683 cc3d 923c f33b 8929 113d b5ec 86bd
00000360: d84a a8bd c3b9 bdbd e2ff 8abc c0fe a53d
00000370: 1ec0 733d 6595 17bd 1d0f 003d e33e 4cbc
00000380: c6a7 973b fc57 423c ca29 8f3d 6def e4bc
00000390: b289 cf3d 3f3e 293c fd4d c53c 7abb 54bd
000003a0: 1ff7 b23d 35dc cc3d cc3f bbbd 224d d93d
000003b0: b053 86bc 34d3 833d 8896 b4bd abd8 943d
000003c0: bb05 88bd f0c7 a5bc e0a7 cdbc e2c2 f53c
000003d0: cbac 653c b803 d43c 7e5f d23d 82b6 3d3d
000003e0: 5e1c c8bd 2ddd edbd 985e 8dbd 4fd5 183d
000003f0: 3b73 bbbd 666a ddbc 29ae f33c 27dd 74bd

network_body._body_endoder.seq_layers.2.bias f4 [128]
-0.010855509 -0.0028928097 -0.015578987 -0.029387979 -0.019472277 -0.0052834116 -0.0020986446 -0.011654191
-0.0010182166 0.012403045 0.009079615 0.011507752 0.021967199 0.014394593 -0.021046132 0.002602215
0.030188562 -0.0015107166 -0.004159061 -0.033948693 0.026198024 0.008363761 -0.00040047348 -0.019883825
0.009666445 0.021268312 0.03321704 -0.01892445 -0.032413594 0.00089910836 0.027476279 0.0036816355
-0.03760015 -0.002943882 0.003977919 0.014288041 0.03110035 0.0035596841 0.014938714 -0.025091048
-0.0016190965 0.001799213 -0.009087852 -0.016624609 -0.0014365575 0.0001543808 -0.00022837057 0.010267139
0.017802376 0.016350845 -0.020713272 -0.009055624 0.010345555 0.003828523 -0.004879972 -0.019097151
0.002189938 0.0207182 0.013080115 -0.011895664 -0.018310301 0.009786968 0.005664003 0.018466415
0.011191127 -0.026890907 0.0031145883 0.021261059 0.0049886405 0.035659928 -0.0059573594 0.0023315276
0.017594116 0.01097203 -0.019753922 -0.022912 -0.015715197 0.013463953 0.009184637 -0.0012004443
0.0130997 0.017396264 0.01412767 -0.00094747456 0.004761912 0.034532424 -0.00865858 -0.015375839
-0.029477824 0.0067098606 0.008549906 -0.012536253 -0.007024325 0.012665122 -0.009726985 0.011734937
0.00313614 0.000831932 0.03571839 -0.019060502 0.009554105 -0.021758923 0.004621789 0.001673546
0.024728592 -0.00494281 -0.011940727 0.00020044953 -0.016007701 -3.2090767e-05 -0.010528169 0.018420149
0.007097209 0.008691463 -0.011000335 -0.009321397 0.016262144 0.021087533 -0.017363966 -0.018803898
-0.0115292985 0.009973835 -0.0030957093 -0.0049385442 -0.0079224175 0.016026586 0.0061379336 -0.008940777
00000000: 4edb 31bc 4b95 3dbb 023f 7fbc 0fbf f0bc
00000010: 5384 9fbc 7820 adbb 6a89 09bb 38f1 3ebc
00000020: ae75 85ba 2436 4b3c aac2 143c 038b 3c3c
00000030: 8ef4 b33c 4dd7 6b3c f068 acbc ec89 2a3b
00000040: 014e f73c 3d03 c6ba bb48 88bb c90d 0bbd
00000050: 3d9d d63c 2808 093c a4f6 d1b9 67e3 a2bc
00000060: 0260 1e3c e23a ae3c 970e 083d 7307 9bbc
00000070: 1ec4 04bd 24b2 6b3a ef15 e13c 9847 713b
00000080: 9d02 1abd 25ee 40bb 3459 823b 6318 6a3c
00000090: 29c6 fe3c 9749 693b 82c1 743c be8b cdbc
000000a0: dd37 d4ba 92d3 eb3a 37e5 14bc 5530 88bc
000000b0: df4a bcba 48e1 2139 c276 6fb9 8137 283c
000000c0: 4ad6 913c 35f2 853c e1ae a9bc 0a5e 14bc
000000d0: 6780 293c f5e7 7a3b 2ce8 9fbb a171 9cbc
000000e0: 1085 0f3b 37b9 a93c fb4d 563c 08e6 42bc
000000f0: 7cff 95bc 8559 203c 1a99 b93b e146 973c
00000100: fd5a 373c 524a dcbc 1f1e 4c3b ac2b ae3c
00000110: c077 a33b 2510 123d f435 c3bb 8bcc 183b
00000120: 8921 903c 08c4 333c fad2 a1bc f2b1 bbbc
00000130: 28bd 80bc e997 5c3c 297b 163c 3a58 9dba
00000140: 20a0 563c 9c82 8e3c be77 673c f15f 78ba
00000150: d009 9c3b df71 0d3d b7dc 0dbc f1ea 7bbc
00000160: 7a7b f1bc 64de db3b e814 0c3c db64 4dbc
00000170: 4f2c e6bb 5f81 4f3c ef5d 1fbc e543 403c
00000180: b387 4d3b 0316 5a3a 724d 123d c524 9cbc
00000190: d288 1c3c c53f b2bc 6072 973b e35a db3a
000001a0: 9e93 ca3c 4cf7 a1bb 0aa3 43bc c32f 5239
000001b0: 9522 83bc 3399 06b8 577e 2cbc dae5 963c
000001c0: b48f e83b a366 0e3c c03a 34bc c6b8 18bc
000001d0: 3038 853c c3bf ac3c e03e 8ebc a20a 9abc
000001e0: 62e5 3cbc 4c69 233c 62e1 4abb 83d3 a1bb
000001f0: 07cd 01bc 304a 833c b820 c93b 567c 12bc

action_model._discrete_distribution.branches.0.weight f4 [2, 128]
0.025926264 0.005779687 0.043640874 -0.007517032 -0.0037140106 -0.0006963425 0.0442526 0.018935835
-0.014788492 -0.0068957508 -0.0074777934 0.020266296 -0.03388467 -0.035368633 0.0015566396 -0.0122278705
-0.007920003 0.01601316 0.00061090745 0.013932007 -0.030172968 -0.026160855 0.035896976 0.002902514
0.010079633 0.003079124 -0.048660476 0.017002733 0.011268534 -0.042048424 -0.029219244 0.034691766
-0.0021647885 -0.00634763 -0.0071514356 -0.0125938505 -0.024480391 -0.031623222 -0.024945691 0.0019526696
0.029948978 -0.009798602 0.014343927 -0.000108911896 -0.024202583 0.01572495 0.020421714 -0.029387847
-0.017183272 -0.017522583 0.037123043 0.01493461 0.00332165 -0.031949934 -0.011736639 -0.015778463
-0.0101170605 -0.022719864 -0.015989214 -0.013789102 0.018338986 0.019142421 0.014333268 -0.030008469
-0.008627745 -0.014163568 0.04317608 -0.010575357 -0.0002806354 -0.029768847 0.0069278535 -0.03308046
-0.004408966 0.021940064 0.013277758 0.018099122 0.00831742 -0.021311386 -0.0014609128 0.04289512
-0.022121014 -0.0017302621 0.011125553 -0.002098225 0.013679335 -0.0065415096 0.036871612 0.00258891
-0.005667013 -0.041080598 -0.027145846 0.049045485 0.0066025266 -0.029334813 0.0002474031 -0.0045327814
-0.0055058566 -0.010358048 -0.012997605 0.008277426 0.001599012 0.027117923 0.058936026 -0.014972318
-0.02404057 -0.0032203896 0.019557687 0.0092791105 0.044633154 0.04957229 0.033038683 0.019730337
-0.027618814 0.025813993 -0.009218997 9.7962584e-05 -0.0031183884 -0.01937635 0.005667093 0.02615994
0.034013808 -0.0032081937 0.04137889 0.026713079 0.0072195423 -0.021003233 -0.008818409 0.036265794
-0.027946843 -0.031107394 -0.034608535 0.009402969 0.009683706 -0.0108121885 -0.047006838 -0.010404959
0.008779931 -0.010204118 0.001412415 -0.0108754495 0.038141146 0.0318248 -0.014426573 0.021126801
0.009224021 -0.01946385 0.028278233 -0.01287277 0.024949377 0.020226583 -0.011049741 -0.0008636858
-0.007781298 0.008086038 0.051777404 -0.030486925 -0.006674536 0.011472032 0.03226427 -0.022400817
-0.0066149044 0.019773034 -0.00823102 -0.01593662 0.02228819 0.01830199 0.021370381 -0.017127078
-0.039997328 0.02298944 -0.0113049485 -0.008335569 0.0051806965 -0.015629385 -0.020144576 0.033253215
0.023284024 0.0050187684 -0.023023697 -0.013799229 0.008277805 0.025629895 0.0036483004 0.0059801927
0.0025252455 -0.0022345034 0.022791708 0.009593565 -0.022450794 -0.02166816 0.009727923 0.028908161
0.002160705 0.0053298553 -0.04752433 0.015901914 0.015572356 0.02630253 0.008602991 0.010449267
-0.00029936244 -0.020942137 -0.024289446 -0.027766552 0.016254434 0.012774497 -0.004617347 -0.03236434
0.025349027 -0.0051237545 -0.01641006 -0.00052867574 -0.004685436 0.0045942357 -0.04726555 0.0027461566
0.0013336004 0.021764712 0.03992096 -0.033985335 -0.012561931 0.033520292 0.010389581 -0.0115817385
0.019176433 0.0036516215 0.010642805 -0.006479431 -0.0058264206 -0.04789804 -0.050422933 0.0039319145
0.018342316 -0.0020394772 -0.04121534 0.0079680225 -0.035462007 -0.043954365 -0.057206023 -0.0035955554
0.0043364353 -0.035608944 -0.0123799145 0.0025039404 0.0022656873 0.03419445 -0.003661408 -0.03944408
-0.048389293 -0.0043493146 -0.049287163 -0.019448085 0.00019473486 0.031496283 0.018907204 -0.030064974
00000000: 5163 d43c 8763 bd3b c6c0 323d 6f51 f6bb
00000010: c266 73bb c18a 36ba 3742 353d 531f 9b3c
00000020: 6e4b 72bc c0f5 e1bb 4708 f5bb 8105 a63c
00000030: a7ca 0abd b3de 10bd 2808 cc3a 6857 48bc
00000040: e6c2 01bc 082e 833c 4e25 203a 1343 643c
00000050: 4d2d f7bc 4a4f d6bc b508 133d 1b38 3e3b
00000060: 0c25 253c 21cb 493b 3550 47bd 5149 8b3c
00000070: a89f 383c f83a 2cbd 325d efbc f418 0e3d
00000080: 20df 0dbb c8ff cfbb 9756 eabb 7056 4ebc
00000090: 1a8b c8bc 5a87 01bd e85a ccbc b8f0 ff3a
000000a0: 8f57 f53c 518a 20bc ca02 6b3c a167 e4b8
000000b0: 7f44 c6bc 9cd1 803c 704b a73c c8be f0bc
000000c0: efc3 8cbc 858b 8fbc 550e 183d 4bb0 743c
000000d0: 0ab0 593b efdd 02bd 084b 40bc d641 81bc
000000e0: 07c2 25bc 021f babc d0fb 82bc b0eb 61bc
000000f0: a43b 963c 91d0 9c3c 15d6 6a3c 52d4 f5bc
00000100: 635b 0dbc 4f0e 68bc 67d9 303d 4344 2dbc
00000110: 3f22 93b9 ccdd f3bc 0c03 e33b 607f 07bd
00000120: 1679 90bb a6bb b33c f48a 593c 9c44 943c
00000130: ca45 083c 3795 aebc 197c bfba cbb2 2f3d
00000140: 2137 b5bc f6c9 e2ba f447 363c 6082 09bb
00000150: 4a1f 603c 295a d6bb b006 173d b4aa 293b
00000160: 5ab2 b9bb 2144 28bd f760 debc ebe3 483d
00000170: 025a d83b 904f f0bc e2b5 8139 ba87 94bb
00000180: 796a b4bb cdb4 29bc e8f3 54bc 0a9e 073c
00000190: f095 d13a 6826 de3c e766 713d 744e 75bc
000001a0: bbf0 c4bc 2c0d 53bb 7137 a03c 6907 183c
000001b0: 41d1 363d 500c 4b3d 9253 073d 84a1 a13c
000001c0: da40 e2bc de77 d33c 470b 17bc 4371 cd38
000001d0: e05d 4cbb 27bb 9ebc 06b3 b93b 5f4d d63c
000001e0: 1052 0b3d 8f40 52bb e97c 293d 63d5 da3c
000001f0: e991 ec3b f90e acbc 177b 10bc 718b 143d
00000200: c7f0 e4bc efd4 febc aec1 0dbd e90e 1a3c
00000210: 68a8 1e3c 9b25 31bc 3e8a 40bd 9079 2abc
00000220: b3d9 0f3c 2c2f 27bc c820 b93a f12e 32bc
00000230: e439 1c3d b95a 023d 6f5d 6cbc 1d12 ad3c
00000240: 5920 173c a772 9fbc c1a7 e73c 50e8 52bc
00000250: a362 cc3c 38b2 a53c f909 35bc f968 62ba
00000260: 42fa febb 4d7b 043c 8b14 543d b7bf f9bc
00000270: 11b6 dabb 31f5 3b3c 8a27 043d eb81 b7bc
00000280: d7c1 d8bb 0ffb a13c 66db 06bc 848d 82bc
00000290: b995 b63c 0eee 953c f010 af3c 164e 8cbc
000002a0: 3dd4 23bd 5a54 bc3c 6438 39bc e991 08bc
000002b0: d5c2 a93b 3209 80bc 3d06 a5bc 8634 083d
000002c0: 23be be3c 7b74 a43b 319c bcbc 2916 62bc
000002d0: a19f 073c c9f5 d13c 5318 6f3b 7ef5 c33b
000002e0: 977e 253b bf70 12bb adb5 ba3c 542e 1d3c
000002f0: baea b7bc 6d81 b1bc de61 1f3c cfd0 ec3c
00000300: 9d9a 0d3b 11a6 ae3b dfa8 42bd bb44 823c
00000310: 3223 7f3c 6778 d73c 8ff3 0c3c 6733 2b3c
00000320: bff3 9cb9 d88e abbc a9fa c6bc ae76 e3bc
00000330: 0528 853c 204c 513c 1d4d 97bb 7890 04bd
00000340: c3a8 cf3c 2be5 a7bb 646e 86bc d496 0aba
00000350: 4988 99bb 3e8b 963b 8599 41bd ddf8 333b
00000360: 34cc ae3a e94b b23c 2984 233d 3534 0bbd
00000370: 8fd0 4dbc 934c 093d 1039 2a3c 55c1 3dbc
00000380: e517 9d3c 0b50 6f3b 295f 2e3c 6851 d4bb
00000390: 8feb bebb bc30 44bd 4788 4ebd 4ad7 803b
000003a0: a042 963c c0a8 05bb 6bd1 28bd 4f8c 023c
000003b0: 9c40 11bd 7e09 34bd dd50 6abd 69a3 6bbb
000003c0: a818 8e3b afda 11bd 20d5 4abc 2619 243b
000003d0: ed7b 143b 7b0f 0c3d 3cf4 6fbb 1e90 21bd
000003e0: da33 46bd b284 8ebb 56e1 49bd 9751 9fbc
000003f0: be31 4c39 3f02 013d 48e3 9a3c d24a f6bc

action_model._discrete_distribution.branches.0.bias f4 [2]
-0.019892544 0.019892557
00000000: b0f5 a2bc b7f5 a23c

action_model._discrete_distribution.branches.1.weight f4 [3, 128]
-0.022635335 0.047741443 -0.020458406 0.01646349 0.0276928 0.028200245 -0.008872636 -0.015564225
-0.03607554 0.04803026 0.022884358 -0.03153853 0.0017553746 0.007658928 0.005681549 -0.03198369
-0.027921755 -0.014911835 0.01407822 0.015512461 -0.02304784 0.016272772 0.0013276888 -0.02139181
-0.05295542 -0.03393781 0.016870245 -0.0052187503 -0.02040824 -0.04302278 0.036670323 0.050364435
-0.0013126249 -0.016515415 0.011051694 0.0018012692 0.015516631 -0.021865148 -0.0059393174 -0.034876525
-0.033317402 0.0019603795 -0.015359116 -0.01607993 -0.012482826 0.025321864 -0.0025309327 -0.00940673
-0.01008488 0.021106632 0.0004087911 0.005030001 -0.01058775 0.006331038 -0.025125463 0.019905016
-0.016721582 0.03520691 -0.027414769 0.008030562 -0.028234776 0.045526195 -0.036621295 0.026047502
0.009653758 0.008050633 -0.024390368 0.017701915 0.020620564 0.051836852 0.018343478 1.3539993e-05
0.03839788 -0.009734251 -0.023827111 0.013777954 -0.018529547 -0.006738041 0.006632533 0.047039576
0.008721359 -0.0022898205 0.053260066 -0.06670347 0.045775045 -0.012242769 0.033650056 -0.006347465
0.00878092 0.0066594193 -0.030870812 -0.014058927 0.0054473653 0.0074008834 0.011600324 0.036105942
0.023367317 -0.048177633 0.07430678 0.017262418 0.01049616 -0.01850059 -0.024378153 0.012692341
-0.028205238 -0.018920375 0.022048466 0.01564854 0.027588235 -0.02584416 -0.017406996 0.045999758
0.0032517477 -0.012017885 0.03019332 -0.0419258 0.054021854 0.021847125 -0.0070546763 -8.5728556e-05
0.0010439641 0.036287565 -0.025017707 0.011904454 -0.034256425 -0.011825628 0.005667685 -0.019483637
0.018146614 -0.041083224 -0.026600244 0.00286255 -0.013236346 0.0111119095 0.04542977 0.010329977
-0.00023856554 -0.025276162 -0.0016409555 -0.020029873 -0.036625072 0.0060167443 -0.006739407 0.006579371
0.052409355 -0.012336598 -0.019628625 -0.020001862 -0.04122667 0.01370028 0.020538567 -0.008396961
0.04629623 0.053092666 -0.0141883455 0.019540543 0.0138697345 -0.0045248126 -0.043073624 -0.053101394
0.011787968 -0.0052956184 -0.008011881 0.04505934 0.040584903 0.024398895 -0.023911368 0.007379746
-0.030064061 0.008540553 -0.0041351705 0.016895164 0.02072374 0.006868489 0.04471221 -0.017605828
0.026640812 0.03648895 -0.019837214 -0.0075837104 0.034847345 -0.021664126 -0.015327369 0.00080062123
0.0104071405 -0.07268934 0.042561997 -0.023325464 0.0077575785 -0.0229109 0.06489652 0.050872914
-0.052391496 0.015091872 0.0120337345 -0.001606034 -0.026649226 -0.019136442 -0.04198248 -0.00075446256
0.011963726 -0.0064232177 -0.020544836 -0.0066317706 -0.025461938 0.023571301 -0.0013666762 -0.015239622
-0.0042555328 0.025083924 0.010429881 0.021104265 -0.0054993 0.05740235 -0.0044042883 0.023921452
-0.031788204 -0.022885267 -0.0012242194 -0.010541631 -0.035070024 0.022473117 0.006148399 0.021987798
-0.028490579 0.002062975 -0.023676096 -0.025367517 0.046021484 -0.013781393 -0.023254644 0.029351193
0.066717654 -0.046047818 0.011155051 -0.040224493 -0.046202403 0.021624278 -0.01075559 -0.019332742
-0.05609433 0.02321503 0.014472806 0.008161125 -0.033609506 0.029332891 3.968735e-05 -0.0030178963
0.01853406 -0.03526208 0.0015038659 0.01209085 0.0267721 0.034187935 -0.017856492 -0.029573234
00000000: bd6d b9bc 888c 433d 6398 a7bc 71de 863c
00000010: 03dc e23c 3304 e73c 885e 11bc 1701 7fbc
00000020: f2c3 13bd 61bb 443d fa77 bb3c 8c2e 01bd
00000030: 9914 e63a bff7 fa3b 4a2c ba3b 5401 03bd
00000040: 2abc e4bc c550 74bc 56a8 663c fa27 7e3c
00000050: d3ce bcbc 7a4e 853c d805 ae3a e13d afbc
00000060: c8e7 58bd 6002 0bbd 7833 8a3c 0d02 abbb
00000070: 2e2f a7bc a838 30bd 9f33 163d f04a 4e3d
00000080: 620c acba 564b 87bc 2a12 353c 9118 ec3a
00000090: 7839 7e3c 8a1e b3bc 9b9e c2bb b0da 0ebd
000000a0: d477 08bd b679 003b cda4 7bbc 0fba 83bc
000000b0: c484 4cbc cc6f cf3c 01de 25bb af1e 1abc
000000c0: 0d3b 25bc d1e7 ac3c 0353 d639 b5d2 a43b
000000d0: 3e78 2dbc 9974 cf3b ead3 cdbc d80f a33c
000000e0: b3fb 88bc 1f35 103d f094 e0bc 9e92 033c
000000f0: 9e4c e7bc ad79 3a3d 3600 16bd 9261 d53c
00000100: cc2a 1e3c cde6 033c 4fce c7bc 9b03 913c
00000110: 75ec a83c e152 543d 1045 963c d429 6337
00000120: 1847 1d3d 687c 1fbc 1331 c3bc edbc 613c
00000130: 47cb 97bc c9ca dcbb b855 d93b 92ac 403d
00000140: 08e4 0e3c d010 16bb 3a27 5a3d d49b 88bd
00000150: 9d7e 3b3d e595 48bc a4d4 093d 65fe cfbb
00000160: d9dd 0f3c 4237 da3b c9e4 fcbc 6a57 66bc
00000170: d07f b23b 1c83 f23b 490f 3e3c d3e3 133d
00000180: d16c bf3c e955 45bd 272e 983d ea69 8d3c
00000190: 16f8 2b3c 8d8e 97bc b1b4 c7bc 89f3 4f3c
000001a0: ac0e e7bc e7fe 9abc fc9e b43c 5e31 803c
000001b0: b900 e23c 22b7 d3bc 1e99 8ebc 3e6a 3c3d
000001c0: 461b 553b aae6 44bc fb57 f73c 63ba 2bbd
000001d0: 0546 5d3d bef8 b23c ea2a e7bb 2bc9 b3b8
000001e0: 9fd5 883a 45a2 143d eff1 ccbc e60a 433c
000001f0: 7750 0cbd 47c0 41bc fdb7 b93b 269c 9fbc
00000200: 35a8 943c e246 28bd c1e8 d9bc 9f99 3b3b
00000210: 42dd 58bc ba0e 363c 9114 3a3d 103f 293c
00000220: 7327 7ab9 f40f cfbc 5415 d7ba b015 a4bc
00000230: 2c04 16bd 1c28 c53b 3ed6 dcbb c497 d73b
00000240: 31ab 563d 711f 4abc 36cc a0bc f2da a3bc
00000250: 4cdd 28bd 2477 603c 7f40 a83c 6893 09bc
00000260: 1ea1 3d3d b277 593d 3c76 68bc 7d13 a03c
00000270: e23d 633c e144 94bb f86d 30bd d980 59bd
00000280: 5222 413c de86 adbb 4444 03bc 2490 383d
00000290: 5b3c 263d 31e0 c73c c6e1 c3bc ccd1 f13b
000002a0: e848 f6bc aded 0b3c 5380 87bb ba67 8a3c
000002b0: d5c4 a93c 1011 e13b 2624 373d 193a 90bc
000002c0: d53d da3c 7075 153d a781 a2bc c680 f8bb
000002d0: 17bc 0e3d f778 b1bc a51f 7bbc c8e0 513a
000002e0: b682 2a3c 26de 94bd 7d55 2e3d 0b15 bfbc
000002f0: 4933 fe3b a4af bbbc 77e8 843d 1e60 503d
00000300: 7798 56bd e643 773c 2429 453c 8f81 d2ba
00000310: 7a4f dabc 07c4 9cbc d2f5 2bbd 20c7 45ba
00000320: 8103 443c db79 d2bb a54d a8bc 534f d9bb
00000330: 8e95 d0bc 9a18 c13c 0b22 b3ba 9caf 79bc
00000340: ff71 8bbb cd7c cd3c 17e2 2a3c dae2 ac3c
00000350: 7933 b4bb ba1e 6b3d d951 90bb ecf6 c33c
00000360: 5934 02bd e279 bbbc fd75 a0ba ceb6 2cbc
00000370: 96a5 0fbd 8b19 b83c 8278 c93b c11f b43c
00000380: 1365 e9bc fa32 073b 5ff4 c1bc 8acf cfbc
00000390: 0681 3c3d 5acb 61bc 8680 bebc ea71 f03c
000003a0: 44a3 883d a39c 3cbd adc3 363c 70c2 24bd
000003b0: bb3e 3dbd 6625 b13c 3738 30bc b35f 9ebc
000003c0: 2bc3 65bd 722d be3c 591f 6d3c 3db6 053c
000003d0: 1faa 09bd 884b f03c f875 2638 e6c7 45bb
000003e0: bed4 973c f96e 10bd 5e1d c53a b318 463c
000003f0: 2a51 db3c a608 0c3d c747 92bc 9143 f2bc

action_model._discrete_distribution.branches.1.bias f4 [3]
0.0056634466 0.00017805755 -0.0046324814
00000000: 6f94 b93b f6b4 3a39 12cc 97bb

action_model._discrete_distribution.branches.2.weight f4 [1, 128]
0.020464486 0.0012798854 -0.009886468 -0.0007650912 -0.007816437 0.0058570043 -0.0014492987 0.0036892977
-0.011835768 -0.010321009 0.0067620636 -0.008327219 0.00096497446 0.0032420985 0.0021248374 0.00201569
0.0057993694 -0.014976564 0.001423078 0.00067275384 0.009358912 -0.004403788 -0.013729105 -0.0048268684
0.005158897 0.0010674067 -0.0015796969 -0.008624848 0.0034890745 0.02384034 0.015747963 -0.0010190312
-0.011148813 0.009698209 0.0018586798 0.018384365 0.009393878 0.012584331 -0.00071354554 -0.00017592008
0.0015971999 0.0030200747 -0.0099130925 -0.0070983577 0.008461851 0.0046151215 0.002535005 0.0046040923
-0.0113253435 -0.0002004012 0.023018192 0.009687511 -0.008642635 -0.005669926 0.00033805807 0.0077111186
0.013220832 0.02287856 0.0031211001 0.0032208578 -0.008556679 0.0025406338 -0.006469817 0.0015744718
-0.0080688195 -0.00035566709 0.005803524 0.0019937223 0.0066684796 -0.0026344154 -0.0035630248 -0.005659299
0.0039733998 -0.005023567 -0.0047504376 -0.00993726 -0.010413795 -0.011277707 0.0026913164 -0.004404877
0.0030269087 -0.016740529 -0.0076354593 0.009783926 -0.005150502 0.001739008 -0.008789112 -0.006166932
0.009354603 0.0137782395 -0.006014149 0.004553705 -0.004056752 0.0063258777 0.0067881676 0.0069483602
-0.010249772 0.00092658337 0.0036893056 -0.0026916226 -0.0018947938 -0.0005698385 0.013261467 -0.0071357684
0.016389944 -0.0013112569 0.014242703 0.006643388 -0.005602732 0.027251089 0.008532819 0.0022461312
-0.009094487 0.004343828 -0.0072494387 -0.0045924126 -0.0056384876 0.0022576833 0.007293511 -0.0039859344
0.016573695 0.0067166844 -0.008623573 -0.0072112055 0.008007011 0.013943284 0.011138526 0.0025375604
00000000: 23a5 a73c d4c1 a73a dafa 21bc 6790 48ba
00000010: 8310 00bc 1dec bf3b 65f6 bdba 25c8 713b
00000020: cfea 41bc 7319 29bc 4d94 dd3b e36e 08bc
00000030: 57f6 7c3a 6379 543b db40 0b3b ab19 043b
00000040: a308 be3b 4360 75bc 9386 ba3a bf5b 303a
00000050: 1f56 193c a74d 90bb 0af0 60bc b52a 9ebb
00000060: f70b a93b 3ae8 8b3a d50d cfba 3c4f 0dbc
00000070: f5a8 643b d14c c33c df01 813c 0391 85ba
00000080: 83a9 36bc 3de5 1e3c f29e f33a cf9a 963c
00000090: c8e8 193c 832e 4e3c 3b0d 3bba 3077 38b9
000000a0: 2359 d13a 72ec 453b 866a 22bc 5799 e8bb
000000b0: 93a3 0a3c 723a 973b 5422 263b eddd 963b
000000c0: ef8d 39bc ca22 52b9 a690 bc3c 5eb8 1e3c
000000d0: d799 0dbc c9ca b9bb 633d b139 8dad fc3b
000000e0: 309c 583c d16b bb3c 5f8b 4c3b 0715 533b
000000f0: 5031 0cbc c380 263b c200 d4bb 825e ce3a
00000100: 1533 04bc d478 bab9 7d2b be3b 1ca9 023b
00000110: 4383 da3b 28a6 2cbb a381 69bb a471 b9bb
00000120: 4b33 823b bc9c a4bb 8fa9 9bbb e4cf 22bc
00000130: 9f9e 2abc 22c6 38bc cc60 303b c956 90bb
00000140: 1a5f 463b 6f23 89bc e032 fabb c34c 203c
00000150: 8bc5 a8bb 6def e33a 3500 10bc fa13 cabb
00000160: 0c44 193c 20be 613c 5712 c5bb 3f37 953b
00000170: 81ee 84bb 4f49 cf3b 476f de3b 12af e33b
00000180: a9ee 27bc f5e5 723a 47c8 713b ef65 30bb
00000190: bb5a f8ba 3761 15ba a046 593c 2ad3 e9bb
000001a0: 3444 863c 7bde abba 3a5a 693c c7b0 d93b
000001b0: 1f97 b7bb ad3d df3c 3dcd 0b3c d433 133b
000001c0: 0b01 15bc ac56 8e3b b38c edbb f37b 96bb
000001d0: 10c3 b8bb a4f5 133b 68fe ee3b 719c 82bb
000001e0: 8fc5 873c a217 dc3b e349 0dbc fa4b ecbb
000001f0: d72f 033c 5f72 643c 5d7e 363c 334d 263b
