Assets/ZooheimTest/Models/run3/GiraffeBehavior.onnx (onnx, 311509 bytes, 14 tensors)

discrete_act_size_vector f4 [1, 3]
2.0 3.0 1.0
00000000: 0000 0040 0000 4040 0000 803f

network_body.observation_encoder.processors.0.normalizer.running_mean f4 [450]
0.06500823 0.743578 0.1361962 0.0020356728 0.0027748158 0.001999321 0.001647926 0.0018781507
0.008506202 0.19398385 0.067165084 0.7349869 0.13617201 0.002205312 0.0036230127 0.002374951
0.0011753585 0.002811167 0.008069989 0.19206685 0.058537725 0.742548 0.14041296 0.0016721601
0.0027021137 0.0025082394 0.0022053125 0.001635808 0.010178361 0.19391218 0.07014588 0.71078897
0.15019143 0.002617294 0.0045196773 0.0035866625 0.0016721594 0.0030535085 0.007694358 0.19214843
0.05459963 0.7464618 0.14286062 0.0022174292 0.0026778793 0.002677879 0.0027990497 0.0018660339
0.008906072 0.19311778 0.07161207 0.69616365 0.15953374 0.0032352651 0.004228869 0.003768418
0.0016721595 0.0036472469 0.007936699 0.1925621 0.053908985 0.73711926 0.14860408 0.0026415272
0.0025688247 0.003235266 0.003320086 0.0023022485 0.009414989 0.19312957 0.07019435 0.7009137
0.15209384 0.0026536444 0.0047256676 0.0033443193 0.0021083753 0.0033685537 0.00897877 0.19957267
0.053472754 0.7452137 0.14230318 0.0034049046 0.0028717527 0.0031989138 0.003780535 0.0028475178
0.008082108 0.19144177 0.06932192 0.7081475 0.14930688 0.0021447267 0.0045681465 0.0032352651
0.0021931953 0.0029323378 0.007742828 0.20878862 0.051909644 0.7454441 0.140207 0.00447121
0.0032958512 0.0032231484 0.0030777436 0.00288387 0.009717913 0.19618651 0.068631254 0.72323346
0.13651127 0.0016236911 0.004689318 0.0038168863 0.0019993216 0.0029808069 0.00872431 0.21946418
0.056901883 0.7520719 0.12645407 0.004289453 0.002544591 0.0032231489 0.0027263472 0.0024476536
0.00936652 0.20449324 0.06970966 0.7303459 0.12682968 0.0020356728 0.004519679 0.0034654906
0.0018296823 0.0021931948 0.009584625 0.22783543 0.05828325 0.7611114 0.115221515 0.004446976
0.002689996 0.0025445917 0.002689996 0.002193195 0.009475572 0.21658339 0.06506881 0.7447895
0.13643856 0.00204779 0.002774816 0.0020114393 0.001647926 0.0018902672 0.008554671 0.19438271
0.06724989 0.73615015 0.13646282 0.0022295464 0.0036230127 0.002374951 0.0011753585 0.0028111667
0.008130574 0.1924598 0.05867102 0.74375975 0.14061894 0.0016963939 0.0027021137 0.0025082394
0.0022053125 0.0016600428 0.010226833 0.19433554 0.07019434 0.7119401 0.15050642 0.002617294
0.0045196773 0.0035866625 0.0016721594 0.0030535085 0.0077670594 0.1925977 0.054696597 0.74754006
0.14318775 0.0022537801 0.0026778793 0.002677879 0.0027990497 0.0018902674 0.008966658 0.19353466
0.07168476 0.69731474 0.15988514 0.0032352651 0.004240984 0.003768418 0.0016721595 0.0036472469
0.00798517 0.19297598 0.053981673 0.73830706 0.14883438 0.0026778788 0.0025688247 0.003235266
0.003320086 0.0023264831 0.009451335 0.19351281 0.07027919 0.7020648 0.15237252 0.0026657619
0.0047377865 0.0033443193 0.0021083753 0.0033685542 0.00903935 0.1999798 0.053533345 0.74635273
0.14261827 0.0034170223 0.00288387 0.0031989138 0.0037926526 0.0028475178 0.008118459 0.19187088
0.069418855 0.70932287 0.14958559 0.002156844 0.004580263 0.0032352651 0.0021931953 0.0029444546
0.00777918 0.20920558 0.05203082 0.74661946 0.14050989 0.00447121 0.0032958512 0.0032231484
00000000: 0923 853d 215b 3e3f 0477 0b3e ec68 053b
00000010: afd9 353b 0a07 033b 39ff d73a 482c f63a
00000020: 995d 0b3c b4a3 463e d98d 893d 1a28 3c3f
00000030: ad70 0b3e ff86 103b 1170 6d3b 11a5 1b3b
00000040: 7d0e 9a3a 8e3b 383b fd37 043c 2cad 443e
00000050: 41c5 6f3d a017 3e3f 6ac8 0f3e 622c db3a
00000060: f215 313b 4661 243b 0187 103b 9c68 d63a
00000070: 24c3 263c ea90 463e a5a8 8f3d 44f6 353f
00000080: c8cb 193e e886 2b3b cd19 943b 360e 6b3b
00000090: 5c2c db3a 5f1d 483b f420 fc3b 8fc2 443e
000000a0: dda3 5f3d 1f18 3f3f 0e4a 123e 4a52 113b
000000b0: 5c7f 2f3b 5b7f 2f3b 4370 373b b595 f43a
000000c0: c6ea 113c abc0 453e 59a9 923d c837 323f
000000d0: d05c 233e be06 543b 5392 8a3b 90f7 763b
000000e0: 5d2c db3a a606 6f3b ee08 023c 002f 453e
000000f0: abcf 5c3d d9b3 3c3f ab2b 183e 791d 2d3b
00000100: ba59 283b c206 543b cd95 593b 52e1 163b
00000110: 5341 1a3c c2c3 453e 0ec2 8f3d 156f 333f
00000120: 7dbe 1b3e c4e8 2d3b c6d9 9a3b 5e2c 5b3b
00000130: ab2c 0a3b f4c2 5c3b b11b 133c c75c 4c3e
00000140: 3f06 5b3d 53c6 3e3f edb7 113e d224 5f3b
00000150: 0434 3c3b dea4 513b dac2 773b 6c9d 3a3b
00000160: d16a 043c 5009 443e a7f8 8d3d 2849 353f
00000170: e7e3 183e 8b8e 0c3b 64b0 953b be06 543b
00000180: b6bb 0f3b 772c 403b 8db7 fd3b afcc 553e
00000190: 359f 543d 6dd5 3e3f 6c92 0f3e 3a83 923b
000001a0: 35ff 573b 753b 533b f8b3 493b 4fff 3c3b
000001b0: e237 1f3c 1ee5 483e 8b8e 8c3d d425 393f
000001c0: 9cc9 0b3e 08d2 d43a daa8 993b ba24 7a3b
000001d0: 0d07 033b a459 433b 69f0 0e3c 38bb 603e
000001e0: f311 693d c987 403f 2d7d 013e 8a8e 8c3b
000001f0: 27c3 263b 773b 533b 84ac 323b d068 203b
00000200: 0876 193c ad66 513e f0c3 8e3d f3f7 3a3f
00000210: a4df 013e ec68 053b d119 943b 491d 633b
00000220: f3d1 ef3a b4bb 0f3b d508 1d3c b14d 693e
00000230: 6bba 6e3d 32d8 423f 42f9 eb3d f0b7 913b
00000240: a54a 303b 2ac3 263b a54a 303b b5bb 0f3b
00000250: 6e3f 1b3c 09c8 5d3e cc42 853d 86aa 3e3f
00000260: 8db6 0b3e 3734 063b b0d9 353b 5ad2 033b
00000270: 39ff d73a d8c2 f73a e428 0c3c 430c 473e
00000280: 4fba 893d 5674 3c3f e9bc 0b3e 951d 123b
00000290: 1170 6d3b 11a5 1b3b 7d0e 9a3a 8d3b 383b
000002a0: 1936 053c 2f14 453e 0651 703d 0a67 3e3f
000002b0: 69fe 0f3e 8959 de3a f215 313b 4661 243b
000002c0: 0187 103b cb95 d93a 728e 273c e5ff 463e
000002d0: 0dc2 8f3d b541 363f 5b1e 1a3e e886 2b3b
000002e0: cd19 943b 360e 6b3b 5c2c db3a 5f1d 483b
000002f0: d182 fe3b 5538 453e 8a09 603d c95e 3f3f
00000300: cf9f 123e 28b4 133b 5c7f 2f3b 5b7f 2f3b
00000310: 4370 373b d9c2 f73a e4e8 123c f32d 463e
00000320: 76cf 923d 3883 323f eeb8 233e be06 543b
00000330: f4f7 8a3b 90f7 763b 5d2c db3a a606 6f3b
00000340: 3bd4 023c 7f9b 453e e31b 5d3d b101 3d3f
00000350: 0a68 183e 5a7f 2f3b ba59 283b c206 543b
00000360: cd95 593b e977 183b c6d9 1a3c 3928 463e
00000370: 89ee 8f3d 85ba 333f 8b07 1c3e 10b4 2e3b
00000380: 6f3f 9b3b 5e2c 5b3b ab2c 0a3b f6c2 5c3b
00000390: c819 143c 81c7 4c3e c845 5b3d f910 3f3f
000003a0: 860a 123e 1ff0 5f3b 4fff 3c3b dea4 513b
000003b0: 278e 783b 6c9d 3a3b 4903 053c cd79 443e
000003c0: 792b 8e3d 2f96 353f f72c 193e d659 0d3b
000003d0: 0816 963b be06 543b b6bb 0f3b c0f7 403b
000003e0: 7ee8 fe3b fd39 563e 451e 553d 7422 3f3f
000003f0: d3e1 0f3e 3a83 923b 35ff 573b 753b 533b

network_body.observation_encoder.processors.1.normalizer.running_mean f4 [6]
462.53864 387.51324 463.3152 388.1674 464.09103 388.8234
00000000: f244 e743 b2c1 c143 58a8 e743 6d15 c243
00000010: a70b e843 6569 c243

network_body._body_endoder.seq_layers.0.weight f4 [128, 456]
-0.013660648 0.08600754 -0.06049774 0.0038906157 0.00067576993 0.003920614 -0.0012114386 0.019756183
0.055900343 -0.070179544 0.026372781 -0.05374839 -0.02067164 -0.022244526 -0.016060494 -0.0008943111
-0.055495314 0.048039824 -0.015790205 -0.092535645 0.073477745 0.008450756 -0.080761276 0.021985231
0.016871728 -0.044920687 -0.09410327 -0.052847344 -0.039200872 -0.08239257 -0.10290768 0.029831272
-0.043878317 0.07813204 -0.022901319 -0.027224103 0.09301272 -0.04919565 -0.10537162 0.02243418
-0.0094764875 0.048458267 -0.0049988874 -0.044685576 0.05089629 -0.02957892 0.04990355 -0.007881144
0.07164834 -0.044928905 0.031482335 -0.025381658 0.075464934 -0.030085836 0.031998225 -0.0024763653
0.03418804 0.04698054 0.028236335 0.03838831 -0.06613316 -0.00026419104 -0.05381708 -0.002795408
-0.009378281 0.057529528 -0.032892566 -0.05127482 -0.050391283 -0.0906704 0.086002275 0.020172948
-0.019544913 -0.035963133 -0.0122477645 0.023665324 0.023696778 0.08561829 -0.0631553 0.019953646
0.027658748 -0.024939436 -0.039588407 -0.009353905 0.027897274 0.006087606 -0.022019878 -0.13569151
-0.014165272 -0.012390271 -0.08691951 0.03664348 0.09386248 0.0064196386 0.040822558 -0.022999952
0.05702966 -0.031502023 0.06266057 0.013662878 0.09632705 0.028755696 0.054071426 0.0014408332
0.0151545415 -0.07677094 -0.03383638 0.02636098 -0.006198326 -0.034959413 0.047294587 0.03543934
0.059545174 -0.024969267 -0.08002632 -0.008161425 0.042256784 -0.022271462 0.08037735 0.0024243826
-0.051110845 0.033752676 0.03470844 0.056923904 0.0030840712 0.043802533 -0.025583409 0.0906932
0.026477775 0.067958035 0.024807949 -0.022794202 0.023477657 -0.002304007 0.047064874 -0.023508659
0.022343824 0.02991235 0.04017323 0.0168509 -0.0013415203 0.106933974 0.050190188 0.035451245
-0.025033198 0.01825612 -0.0462785 0.0059084087 -0.009756996 0.013116208 0.021166371 0.0070033083
-0.032639343 0.032247648 0.051030386 0.006063363 0.027953502 0.106809616 -0.047064297 -0.111228295
-0.049785484 -0.04398802 0.018155318 -0.06750263 -0.019492602 0.0016601246 -0.06030289 0.07522978
0.038879488 -0.075046785 -0.018321186 0.034249973 0.07288917 -0.049576994 0.01256528 0.00011893064
-0.012250486 -0.049624678 -0.055296928 -0.035338696 -0.029766038 0.05569229 -0.049933415 -0.039240494
0.01983276 0.037185945 -0.018282322 0.07440657 -0.032235757 -0.08899699 -0.0031506459 0.12703873
-0.067238696 -8.3267965e-05 0.034476995 0.010518746 0.025796928 -0.006446834 0.04437406 0.0038903544
-0.035503153 0.008356691 -0.008503499 0.0006026173 0.06459767 0.04325745 -0.048612006 -0.0045867614
0.0034601868 -0.0376226 -0.020120634 0.08437158 -0.053660713 -0.06868595 0.077151686 0.004620631
0.009271705 0.046305817 0.06537171 0.07690184 0.003812134 -0.026653392 -0.015182159 -0.042570524
-0.0067912717 -0.07492986 0.06626489 0.053279847 -0.045747418 0.02852358 -0.011727092 -0.05959734
-0.014545947 -0.09404189 0.0033556416 0.055342898 -0.060490757 -0.074066095 -0.08764907 0.016348006
-0.10731655 -0.03510518 0.17134942 -0.074390076 -0.039363142 -0.044706292 0.04738019 0.036392063
0.06703114 0.028245436 -0.007518959 0.03436902 0.1340833 -0.050623663 -0.044209305 -0.057803385
00000000: e9d0 5fbc b924 b03d 7acc 77bd b3f9 7e3b
00000010: 2726 313a 7e78 803b 22c9 9eba b8d7 a13c
00000020: c2f7 643d 4bba 8fbd bb0b d83c 4627 5cbd
00000030: 9257 a9bc 273a b6bc 4c91 83bc 3470 6aba
00000040: 0e4f 63bd 68c5 443d 765a 81bc 5483 bdbd
00000050: 807b 963d 0a75 0a3c 2b66 a5bd 5f1a b43c
00000060: 9436 8a3c c1fe 37bd 37b9 c0bd 7576 58bd
00000070: 1891 20bd 70bd a8bd 43c1 d2bd b660 f43c
00000080: c0b9 33bd b103 a03d 8c9b bbbc 1505 dfbc
00000090: 747d be3d 6181 49bd 13cd d7bd e3c7 b73c
000000a0: 4543 1bbc 2d7c 463d b5cd a3bb 3908 37bd
000000b0: a178 503d 7e4f f2bc aa67 4c3d ea1f 01bc
000000c0: 5dbc 923d 5f07 38bd 9ff3 003d 32ed cfbc
000000d0: 5c8d 9a3d 9276 f6bc 9210 033d 844a 22bb
000000e0: c208 0c3d ab6e 403d e34f e73c 0f3d 1d3d
000000f0: d270 87bd 1f83 8ab9 4c6f 5cbd 2a33 37bb
00000100: 5da7 19bc 15a4 6b3d 5bba 06bd 8c05 52bd
00000110: 1767 4ebd 67b1 b9bd f621 b03d bd41 a53c
00000120: a71c a0bc 144e 13bd d9aa 48bc c8dd c13c
00000130: bf1f c23c a458 af3d 9157 81bd d475 a33c
00000140: 9994 e23c ca4d ccbc 7427 22bd 1f41 19bc
00000150: d388 e43c 8a7a c73b 0863 b4bc b7f2 0abe
00000160: 7515 68bc 9000 4bbc db02 b2bd 7917 163d
00000170: f93a c03d d55b d23b 8e35 273d 656a bcbc
00000180: ef97 693d 4408 01bd 2f54 803d 44da 5f3c
00000190: 1e47 c53d 1191 eb3c 007a 5d3d 57da bc3a
000001a0: c14a 783c 153a 9dbd 0498 0abd fbf2 d73c
000001b0: 541b cbbb 9a31 0fbd f8b7 413d d728 113d
000001c0: a4e5 733d 598c ccbc d7e4 a3bd 7fb7 05bc
000001d0: 7315 2d3d a472 b6bc e19c a43d 64e2 1e3b
000001e0: 9b59 51bd 3f40 0a3d 702a 0e3d 0a29 693d
000001f0: 211e 4a3b 496a 333d 4c94 d1bc 5bbd b93d
00000200: ebe7 d83c 952d 8b3d 0a3a cb3c e8ba babc
00000210: 3754 c03c d3fe 16bb 19c7 403d 3b95 c0bc
00000220: 650a b73c bf0a f53c af8c 243d e60a 8a3c
00000230: f4d5 afba 3300 db3d 3a94 4d3d 5335 113d
00000240: 6c12 cdbc dc8d 953c 868e 3dbd 539b c13b
00000250: cfdb 1fbc 5de5 563c 1965 ad3c 027c e53b
00000260: d5b0 05bd 1c16 043d 3d05 513d 2daf c63b
00000270: befe e43c 00bf da3d 7ec6 40bd a9cb e3bd
00000280: ddeb 4bbd c82c 34bd 76ba 943c d23e 8abd
00000290: f3ae 9fbc 8a98 d93a 2a00 77bd 1212 9a3d
000002a0: 1940 1f3d 21b2 99bd 5016 96bc b349 0c3d
000002b0: eb46 953d 3f11 4bbd 9bde 4d3c 676a f938
000002c0: 43b6 48bc 3f43 4bbd 087f 62bd 4fbf 10bd
000002d0: e8d7 f3bc 991d 643d fb86 4cbd a4ba 20bd
000002e0: 5078 a23c 4a50 183d cfc4 95bc 7962 983d
000002f0: a409 04bd 0e44 b6bd 117b 4ebb 7116 023e
00000300: 71b4 89bd 26a0 aeb8 c037 0d3d d256 2c3c
00000310: 1454 d33c f73f d3bb 93c1 353d 51f5 7e3b
00000320: c16b 11bd 81ea 083c 4352 0bbc f6f8 1d3a
00000330: c94b 843d b92e 313d 621d 47bd 8b4c 96bb
00000340: 4dc4 623b 281a 1abd 07d4 a4bc 02cb ac3d
00000350: 56cb 5bbd 38ab 8cbd b401 9e3d aa68 973b
00000360: 59e8 173c 2bab 3d3d 9ae1 853d b67e 9d3d
00000370: ffd4 793b 3758 dabc 97be 78bc 6e5e 2ebd
00000380: 5189 debb d474 99bd e3b5 873d f83b 5a3d
00000390: a561 3bbd 48aa e93c fd22 40bc 571c 74bd
000003a0: 2052 6ebc 0999 c0bd 53ea 5b3b 3caf 623d
000003b0: 28c5 77bd f7af 97bd 5b81 b3bd 41ec 853c
000003c0: c8c8 dbbd 73ca 0fbd 3976 2f3e d359 98bd
000003d0: 3f3b 21bd f21d 37bd bb11 423d d80f 153d
000003e0: 9f47 893d f962 e73c 9a61 f6bb 88c6 0c3d
000003f0: 224d 093e c25a 4fbd d114 35bd 3ec3 6cbd

network_body._body_endoder.seq_layers.0.bias f4 [128]
-0.020000761 -0.011014211 -0.020030145 -0.014572257 0.016712865 0.005014623 -0.001569601 -0.017814465
-0.0039398354 -0.019680569 0.010009894 -0.011033869 -0.02275658 0.008583213 -0.00058983744 -0.010407523
-0.024146667 0.0041035744 0.004407792 -0.005838495 0.007789727 0.00036621958 0.009000054 -0.008086122
-0.005013122 -0.0022026103 -0.01575894 0.0012489343 0.0051581967 -0.030713921 0.0027503152 -0.014805231
0.015682572 -0.027288781 -0.00093106617 -0.0010697029 0.014011821 -0.011051457 0.0160795 0.019065158
-0.011919588 0.00757478 -0.0011218721 -0.012238451 -0.003255859 -0.007489354 -0.007013163 0.014128179
-0.0041547427 -0.010546726 -0.018766789 -0.01053594 -0.007127639 -0.0061519695 -0.042732343 -0.015163112
-0.005114254 0.0059832637 0.0065725488 0.0058353413 0.011487524 -9.3955925e-05 -0.013924729 0.005932884
0.0061909463 0.0052581774 -0.002509266 0.009333757 0.013103728 -0.004845931 0.0074063907 -0.0007232305
-0.00039590648 0.010245896 0.010656101 -0.00088917924 0.0016580132 -8.933921e-05 -2.8426368e-06 -0.0057696723
-0.002941321 0.00943985 -0.0041345563 0.0020098353 0.005780747 -0.011309237 0.0018506495 -0.0077209403
0.0013376165 -0.012375914 0.002992189 -0.011002802 0.012931029 0.014125041 0.007836412 0.020189302
0.003978273 -0.010315883 -0.01686209 0.010847491 -0.013389653 0.008859464 -0.0153641105 -0.0068533444
-0.010505689 0.024279507 -0.026947552 -0.004023299 -0.0028952647 0.007819523 -0.004504482 -0.0059462017
0.0028014774 -0.0018533821 -0.014235393 -0.00070047186 0.026372954 0.01708857 0.013688396 -0.012373192
0.00881155 -0.0028603575 0.007326476 -0.015534285 0.00035590937 -0.020371899 0.005335398 -0.011764485
00000000: a3d8 a3bc f374 34bc 4216 a4bc 7ac0 6ebc
00000010: 6be9 883c b551 a43b 12bb cdba a4ef 91bc
00000020: bc19 81bb 2539 a1bc 8a00 243c 67c7 34bc
00000030: 026c babc 9ba0 0c3c 529f 1aba 5184 2abc
00000040: 3bcf c5bc 4777 863b 3d6f 903b d950 bfbb
00000050: f740 ff3b 2901 c039 f674 133c a77b 04bc
00000060: 1e45 a4bb ab59 10bb e418 81bc 48b3 a33a
00000070: 1706 a93b c39b fbbc a23e 343b a491 72bc
00000080: bd78 803c b98c dfbc cb12 74ba 4635 8cba
00000090: d691 653c 2c11 35bc 28b9 833c 892e 9c3c
000000a0: 604a 43bc dc35 f83b c80b 93ba c983 48bc
000000b0: 4060 55bb 4169 f5bb adce e5bb e179 673c
000000c0: 8224 88bb 2dcc 2cbc cfbc 99bc ef9e 2cbc
000000d0: f88e e9bb 7696 c9bb 1c08 2fbd b46e 78bc
000000e0: 7995 a7bb 410f c43b 895e d73b 6436 bf3b
000000f0: 2b36 3c3c 340a c5b8 8c24 64bc a368 c23b
00000100: 6cdd ca3b ca4c ac3b 7f72 24bb 9dec 183c
00000110: 05b1 563c 9eca 9ebb 4fb1 f23b 2d97 3dba
00000120: ab91 cfb9 67de 273c ed96 2e3c cf17 69ba
00000130: b151 d93a a05b bbb8 21c4 3eb6 850f bdbb
00000140: 2ec3 40bb 9aa9 1a3c 2c7b 87bb 71b7 033b
00000150: 6c6c bd3b 614a 39bc 7e91 f23a f1ff fcbb
00000160: f652 af3a 58c4 4abc 9a18 443b 1945 34bc
00000170: abdc 533c b76c 673c 4b64 003c 0964 a53c
00000180: 2c5c 823b f303 29bc 5e22 8abc adb9 313c
00000190: 4660 5bbc 4927 113c c0b9 7bbc 0592 e0bb
000001a0: 0e20 2cbc d1e5 c63c 1dc1 dcbc e1d5 83bb
000001b0: 7bbe 3dbb 751d 003c 559a 93bb 5bd8 c2bb
000001c0: fe98 373b 2fed f2ba 913b 69bc df9f 37ba
000001d0: 180c d83c 54fd 8b3c 4b45 603c eeb8 4abc
000001e0: 525e 103c d674 3bbb ef12 f03b 8483 7ebc
000001f0: 5999 ba39 f8e2 a6bc 90d4 ae3b d4bf 40bc

network_body._body_endoder.seq_layers.2.weight f4 [128, 128]
0.12306592 0.06411482 -0.047426857 -0.059346694 -0.069321245 0.055312034 -0.1484747 -0.024248857
0.08447542 0.08147699 0.08560465 0.00080323 0.09044511 0.018232755 0.0043791197 0.04900525
-0.12595652 -0.108252 -0.28560734 0.083309844 0.021107972 -0.16025136 -0.019248657 0.010431666
0.06870561 0.10846074 0.050395835 -0.00043176446 -0.050399065 -0.0038467594 -0.1966883 0.02516307
0.0025159908 0.093708396 0.055814255 -0.10981456 0.23370768 -0.21955283 -0.15584159 -0.035328094
-0.06217285 0.05172761 -0.054645024 -0.11078453 0.04919518 0.21044715 -0.09757181 0.052201193
-0.0022041271 -0.057785034 -0.04120733 -0.06946741 -0.02707726 -0.036948357 0.0038942406 -0.10186066
-0.09902972 0.0019071281 -0.121708915 -0.042028572 -0.160551 -0.07084805 -0.08185411 -0.10381198
-0.016396655 -0.0074693263 0.009342977 0.0051506213 -0.15710263 -0.10769583 0.10327156 0.05354147
-0.086981095 -0.04462405 0.05991339 0.058555137 0.07763433 -0.0030019989 -0.05005743 0.0677938
-0.07507772 -0.01533732 -0.051166054 -0.06341544 -0.13421926 -0.048934393 -0.03396489 0.1661787
0.017178437 -0.034362655 -0.0632411 -0.029601067 0.114596546 -0.075505264 -0.12250907 0.11715727
-0.08056782 0.13105576 0.03093832 0.033498216 -0.04429498 -0.1491738 0.122511834 -0.016924562
-0.080581255 0.02601082 -0.057926856 0.052517615 0.18289539 0.0117021 0.02316647 0.095153034
-0.0729419 0.060951944 -0.13248548 0.025008542 -0.122565396 -0.036128737 -0.07932539 -0.14128493
0.20752661 0.08780152 -0.027103126 -0.12082509 -0.023330826 0.026717601 0.033977833 0.054986317
0.101582386 0.07001692 -0.14283752 0.038221724 -0.05196185 0.0433384 -0.07077891 -0.09026355
0.10490868 0.0003037725 0.07507985 0.045786697 -0.01315188 -0.028100606 0.054318924 -0.051605243
0.07292606 0.23835132 0.022115791 0.043694764 0.029006451 0.03875512 0.11894594 -0.017449921
-0.04007097 0.14526981 0.008583365 0.06159151 0.1031884 0.15876496 0.0554601 -0.00011346679
0.07342699 0.0071128253 -0.037033062 -0.029765762 -0.16680028 -0.072467156 -0.011144458 -0.113953665
-0.1162095 -0.048709758 0.043441936 -0.055595115 -0.07923176 -0.08406782 0.024548396 -0.07352594
-0.102244414 -0.03718873 0.037954506 0.15190695 0.06503862 0.05898427 0.13971786 -0.22011396
-0.14131632 0.13690038 0.026143638 -0.16866018 0.084918186 0.13920632 -0.017475193 0.15852205
0.056220654 -0.027918044 -0.11072684 0.15884578 -0.03876652 0.09130528 -0.03767756 -0.13080394
-0.070339516 -0.0047392235 0.07474381 0.103077784 0.17407538 -0.082937635 -0.15388265 0.037508402
0.08529649 -0.07238563 -0.06318709 -0.11929322 -0.116294384 -0.1587475 0.082638614 -0.03876043
0.08301576 0.021862444 -0.043875072 0.2932429 -0.13647643 -0.044908043 0.06897425 0.042795524
-0.20755124 -0.046668854 0.028370386 -0.05886741 0.098222405 0.119417354 -0.09669451 -0.02242531
0.16218933 -0.059106767 0.0020180887 0.08585815 0.023800056 -0.07160426 -0.049039453 0.03932369
-0.032760102 -0.035110567 -0.035842862 0.04089253 0.006209767 0.15132639 0.04171009 -0.1089453
-0.28894538 0.061203796 -0.12820508 -0.054370414 -0.044381116 0.07977974 -0.11808402 -0.008176308
00000000: fc09 fc3d a14e 833d aa42 42bd 8515 73bd
00000010: 4cf8 8dbd df8e 623d c009 18be 8aa5 c6bc
00000020: 7301 ad3d 68dd a63d 7e51 af3d da8f 523a
00000030: 493b b93d dc5c 953c b87e 8f3b bbb9 483d
00000040: bffa 00be 39b3 ddbd 203b 92be 5a9e aa3d
00000050: a0ea ac3c ef18 24be 5caf 9dbc 94e9 2a3c
00000060: 87b5 8c3d aa20 de3d dd6b 4e3d 725e e2b9
00000070: 406f 4ebd ea19 7cbb a868 49be c822 ce3c
00000080: 52e3 243b 30ea bf3d 7d9d 643d 75e6 e0bd
00000090: 1151 6f3e 75d2 60be f094 1fbe 31b4 10bd
000000a0: f5a8 7ebd 55e0 533d 76d3 5fbd 00e3 e2bd
000000b0: e380 493d 757f 573e bbd3 c7bd ebd0 553d
000000c0: 1e73 10bb 00b0 6cbd 04c9 28bd ee44 8ebd
000000d0: 21d1 ddbc 2957 17bd 8436 7f3b 529c d0bd
000000e0: 18d0 cabd 9af8 f93a 8642 f9bd 2726 2cbd
000000f0: 7b67 24be c818 91bd 21a3 a7bd 609b d4bd
00000100: 4752 86bc 40c1 f4bb 4913 193c 8bc6 a83b
00000110: 83df 20be a28f dcbd 0a80 d33d 4d4e 5b3d
00000120: 2523 b2bd b5c7 36bd be67 753d 83d7 6f3d
00000130: bffe 9e3d 2fbd 44bb 0509 4dbd 7ad7 8a3d
00000140: 59c2 99bd 6249 7bbc 7f93 51bd f4df 81bd
00000150: c670 09be 6e6f 48bd c51e 0bbd c02a 2a3e
00000160: cbb9 8c3c dbbf 0cbd 8d84 81bd f07d f2bc
00000170: 98b1 ea3d 81a2 9abd 09e6 fabd 27f0 ef3d
00000180: be00 a5bd 7b33 063e 5c72 fd3c 6d35 093d
00000190: a76e 35bd 04c1 18be 7ce7 fa3d 61a5 8abc
000001a0: c907 a5bd a514 d53c b644 6dbd b61c 573d
000001b0: ee48 3b3e 2aba 3f3c 9cc7 bd3c 98df c23d
000001c0: 9062 95bd bfa8 793d 46aa 07be b7de cc3c
000001d0: 9103 fbbd bafb 13bd 5a75 a2bd ffac 10be
000001e0: db81 543e 49d1 b33d 6007 debc 2573 f7bd
000001f0: 4a20 bfbc dfde da3c 572c 0b3d 5539 613d
00000200: 6d0a d03d 0865 8f3d 0044 12be 628e 1c3d
00000210: f3d5 54bd 9b83 313d 88f4 90bd 19dc b8bd
00000220: 5dda d63d a843 9f39 77c3 993d d58a 3b3d
00000230: fc7a 57bc 3e33 e6bc 857d 5e3d 0560 53bd
00000240: 425a 953d 5e12 743e 2d2c b53c 48f9 323d
00000250: f09e ed3c b0bd 1e3d ee99 f33d 23f3 8ebc
00000260: 7521 24bd 9cc1 143e 3ea1 0c3c 6147 7c3d
00000270: 7154 d33d 4893 223e 212a 633d 05f5 edb8
00000280: e460 963d b412 e93b fbaf 17bd 54d7 f3bc
00000290: b1cd 2abe a969 94bd 3f97 36bc 8a60 e9bd
000002a0: 3fff edbd e283 47bd 2cf0 313d b4b7 63bd
000002b0: 4344 a2bd c02b acbd b819 c93c c594 96bd
000002c0: 8565 d1bd 3653 18bd 2f76 1b3d 7f8d 1b3e
000002d0: f832 853d 7d99 713d 3312 0f3e 8e65 61be
000002e0: 3ab5 10be 9d2f 0c3e 2f2b d63c 41b5 2cbe
000002f0: 96e9 ad3d 1a8c 0e3e 2328 8fbc 9b53 223e
00000300: a147 663d 62b4 e4bc c1c4 e2bd 78a8 223e
00000310: a4c9 1ebd 43fe ba3d c953 1abd 78f1 05be
00000320: 2a0e 90bd 7d4b 9bbb 4813 993d 721a d33d
00000330: d140 323e 35db a9bd 6a93 1dbe 69a2 193d
00000340: edaf ae3d eb3e 94bd 3c68 81bd 0150 f4bd
00000350: c02b eebd b48e 22be 6f3e a93d 42c3 1ebd
00000360: 2b04 aa3d de18 b33c 59b6 33bd ef23 963e
00000370: 7ac0 0bbe 7ff1 37bd 5f42 8d3d 5c4a 2f3d
00000380: 5088 54be d727 3fbd 0369 e83c f41e 71bd
00000390: d428 c93d 1691 f43d c507 c6bd 49b5 b7bc
000003a0: f614 263e f019 72bd e941 043b 66d6 af3d
000003b0: 56f8 c23c 41a5 92bd 98dd 48bd e111 213d
000003c0: 752f 06bd 19d0 0fbd f7cf 12bd ed7e 273d
000003d0: 4d7b cb3b 4ef5 1a3e 33d8 2a3d b71e dfbd
000003e0: a6f0 93be d5b0 7a3d 3148 03be 83b3 5ebd
000003f0: f9c8 35bd 8f63 a33d 09d6 f1bd ecf5 05bc

network_body._body_endoder.seq_layers.2.bias f4 [128]
-0.009130846 0.003277256 -0.00050410116 0.0015362363 0.008854575 0.0010245164 -0.00444585 -0.00091705495
-0.0022371714 0.0003092394 0.00041028863 -0.0053022155 0.011435395 0.018100392 0.013417671 -0.012333988
0.0081727505 0.0036067895 -0.019658703 -0.017079214 -1.4854998e-05 -0.0031275284 -0.012552729 -0.014610941
0.0013437766 0.004254176 -0.0028572828 0.00818451 -0.004763694 -0.010878869 0.0036854423 0.010378876
-0.0012243621 0.014778385 0.0041642813 0.0054792995 -0.015165947 -0.0010710775 -0.001941426 -0.009930891
0.0017719538 -0.0028860485 0.0120316055 -0.010045832 0.015308533 -0.021648645 0.0070035188 -0.010813723
0.018071853 0.010956792 -0.019558242 0.003970722 -0.0013304155 -0.02190381 -0.0021017597 -0.0121917995
0.0016811045 -0.019382741 -0.001446791 -0.0094735315 0.0040288325 0.009994265 -0.012140517 0.007950004
0.011515952 0.005988473 0.0013103416 0.00305594 -0.014715885 0.011196691 -0.008999239 -0.0142413555
0.011394132 0.01709998 -0.009786483 0.0047639012 -0.008525432 -0.02447593 0.0075322334 -0.019967584
0.005185444 0.007596141 -0.01237523 -0.010251724 0.000854384 0.012184342 -0.01051864 -0.0010054535
-0.0036609322 0.024356846 0.0051575312 -0.008153611 -0.017278247 0.0049398695 0.014186728 0.0042222347
-0.008558961 0.0094190575 0.0043772864 -0.00075131055 0.010205325 0.016058069 -0.016622482 -0.00095998
0.0002431187 -0.009956824 0.011626446 0.014693173 0.005855346 -0.010179812 -0.015173989 -0.01872631
0.001617916 0.004935667 0.003437912 -0.0017074937 0.011864465 -0.0015171258 0.002452089 -0.006805199
-0.004790064 -0.0056487713 -0.025437608 0.001964284 0.028335132 -0.0031060784 0.0074898843 0.003113387
00000000: 8b99 15bc 3bc7 563b a825 04ba 895b c93a
00000010: c812 113c 1149 863a 7eae 91bb 8466 70ba
00000020: 829d 12bb 6921 a239 021c d739 35be adbb
00000030: 865b 3b3c 4647 943c cbd5 5b3c 7f14 4abc
00000040: 00e7 053c e35f 6c3b 4a0b a1bc b5e9 8bbc
00000050: bb39 79b7 38f7 4cbb f6a9 4dbc ba62 6fbc
00000060: a921 b03a 9d66 8b3b 4041 3bbb 5318 063c
00000070: c318 9cbb 493d 32bc 7687 713b 290c 2a3c
00000080: c67a a0ba 0a21 723c 8674 883b b28b b33b
00000090: 987a 78bc 6663 8cba 7277 feba 2db5 22bc
000000a0: e740 e83a dc23 3dbb 3620 453c 4697 24bc
000000b0: a4d0 7a3c 8058 b1bc c67d e53b 0b2c 31bc
000000c0: 6c0b 943c 1e84 333c 9b38 a0bc d51c 823b
000000d0: 5661 aeba 9e6f b3bc adbd 09bb 1dc0 47bc
000000e0: 8258 dc3a 8ec8 9ebc 40a2 bdba df36 1bbc
000000f0: 4c04 843b fcbe 233c 05e9 46bc bc40 023c
00000100: 67ad 3c3c f43a c43b c5bf ab3a 2a46 483b
00000110: e51a 71bc 5372 373c 8b71 13bc 9354 69bc
00000120: 74ae 3a3c 4215 8c3c 7c57 20bc 801a 9c3b
00000130: 41ae 0bbc bf81 c8bc f4d0 f63b 0f93 a3bc
00000140: a8ea a93b 0de9 f83b 7ac1 4abc d9f6 27bc
00000150: bdf8 5f3a d6a0 473c 6056 2cbc 6cc9 83ba
00000160: 40ec 6fbb 0288 c73c 8200 a93b b996 05bc
00000170: 1c8b 8dbc a1de a13b 736f 683c ac5a 8a3b
00000180: e23a 0cbc 6452 1a3c 576f 8f3b 99f3 44ba
00000190: 3c34 273c 368c 833c df2b 88bc 2ba7 7bba
000001a0: aeed 7e39 f221 23bc d97c 3e3c a2bb 703c
000001b0: 34de bf3b 3ac9 26bc 539c 78bc eb67 99bc
000001c0: 4110 d43a 60bb a13b 984e 613b fbcd dfba
000001d0: 2c63 423c 4bda c6ba 3ab3 203b 26fe debb
000001e0: f8f5 9cbb 5419 b9bb 8862 d0bc 38bb 003b
000001f0: 141f e83c 598f 4bbb b46d f53b f709 4c3b

action_model._discrete_distribution.branches.0.weight f4 [2, 128]
-0.0024408964 0.0016039478 0.01882561 -0.0037433703 -0.019878114 0.03982511 -0.010284523 -0.0060812626
0.012935923 0.021133503 -0.008812496 0.019879688 -0.010928472 -0.047907725 0.01859136 -0.0006933395
-0.01678369 -0.0019201897 0.0011533153 0.007856337 -0.010973924 0.021461274 0.0029745456 0.0019441531
0.0060999277 -0.019454634 -0.014509707 -0.035170365 -0.008786831 0.030133033 -0.008358863 -0.027597971
-0.024351325 -0.03477324 -0.00802008 -0.0013279358 0.016362201 0.008768892 -0.0076477225 -0.016763093
0.04655974 0.013623864 -0.022367753 -0.0086395005 -0.011398619 0.010047819 -0.018054958 0.021335157
-0.01648607 -0.0012050475 -0.004155325 -0.029936824 -0.008487347 -0.0010923049 0.009077476 -0.0027456742
0.028255666 -0.016288666 0.024465675 0.0132228155 -0.0047085052 -0.012609176 0.009946483 -0.02261171
-0.016322097 -0.041249648 0.0044639595 -0.0027335698 0.014724268 -0.017086364 -0.005080938 0.013780772
-0.021998957 0.016909668 0.008765729 -0.015862986 0.01896013 0.01600915 -0.01726787 0.016460722
-0.013022793 -0.03763848 0.030624686 0.007212455 -0.018138908 0.06370217 0.024621239 0.009556367
0.00028722864 -0.04206541 -0.0028848276 -0.020208102 -0.013657538 -0.013854173 -0.026516033 -0.0037623793
0.0008631668 0.020568205 -0.018924307 0.032270525 -0.0318185 0.038979247 0.025453646 -0.0012591828
-0.0005599877 0.014195135 -0.0042053326 -0.018241163 -0.0012212594 0.036223307 0.016448354 -0.008817811
0.005749552 0.048470993 -0.0154151665 -0.022549123 -0.0059229224 0.008009104 0.062014088 -0.006402322
0.040071618 -0.0010680157 -0.0014509994 0.006243366 -0.015766883 -0.015157334 -0.025278531 -0.006336808
0.007982756 -0.007283549 -0.01539007 -0.011891934 0.00018620728 -0.0431075 -0.000566019 -7.125368e-05
-0.018057546 -0.018835517 0.017194333 -0.0042709797 0.01325586 0.04168836 -0.025800597 0.009767833
0.023914415 0.0067152907 0.006193447 -0.012427453 -0.008364298 -0.026710426 -0.00543881 -0.015304462
-0.0019564219 0.032391243 0.02346119 0.048181202 0.012813787 -0.005306515 0.03106521 0.019662812
0.017347354 0.046844978 -0.0024493171 0.0075740106 -0.009852521 -0.009351348 0.0015202061 -0.0038543174
-0.06764816 -0.009013578 0.04212156 0.016895339 9.517415e-05 -0.005234069 0.035808966 -0.028437018
0.003270958 -0.0033383837 0.0015979643 0.030571207 0.020083483 -0.0035995084 -0.004129896 -0.009481163
-0.03361148 0.012726462 -0.023210363 -0.00933267 0.008849294 0.016210878 -0.014942699 0.011809713
0.014487977 0.01961364 -0.0023306946 0.0043154648 -0.009003915 0.03062519 -0.001667513 -0.0073779
0.036483157 -0.02586627 0.002137981 -0.006014053 -0.036078345 -0.0060884436 0.019548904 -0.0051027895
0.023287684 0.026543148 -0.04611982 0.0043510846 0.0076959017 -0.070143595 -0.012004443 -0.024471698
0.00447782 0.041938197 0.0021789756 0.010853353 0.0046445495 0.027279925 0.020264452 0.021050423
0.018742975 -0.010814893 0.01202712 -0.0138336485 0.03324454 -0.040229175 -0.028115045 0.013810335
0.0076978724 -0.006906138 0.007158471 0.008952942 0.0013859851 -0.027195346 -0.016932 -0.0033030482
0.009335146 -0.045120794 -0.0076747905 0.013778338 0.008707758 -0.018025389 -0.06048725 -0.0068593193
-0.05935538 -0.00091373024 -0.0056196256 -0.01598317 0.00986251 -7.224315e-06 0.0050273607 0.015230548
00000000: 72f7 1fbb 8f3b d23a 2a38 9a3c 5553 75bb
00000010: 6dd7 a2bc a81f 233d 6a80 28bc 5445 c7bb
00000020: 32f1 533c 2b20 ad3c 4a62 10bc bada a23c
00000030: 550d 33bc e43a 44bd e84c 983c 3ac1 35ba
00000040: f37d 89bc e0ae fbba d72a 973a deb7 003c
00000050: f9cb 33bc 8ecf af3c 98f0 423b f4d2 fe3a
00000060: e7e1 c73b 535f 9fbc 1fba 6dbc cd0e 10bd
00000070: a4f6 0fbc 8dd9 f63c 9df3 08bc 2415 e2bc
00000080: 6e7c c7bc 636e 0ebd a766 03bc 220e aeba
00000090: 060a 863c 66ab 0f3c bf99 fabb c152 89bc
000000a0: 6db5 3e3d a136 5f3c 943c b7bc b18c 0dbc
000000b0: 46c1 3abc 9c9f 243c fee7 93bc 11c7 ae3c
000000c0: cb0d 87bc aff2 9dba 6429 88bb 123e f5bc
000000d0: 830e 0bbc ac2b 8fba b2b9 143c c5f0 33bb
000000e0: 6d78 e73c cf6f 85bc 3d6c c83c 82a4 583c
000000f0: ce49 9abb b896 4ebc 93f6 223c 313c b9bc
00000100: ebb5 85bc 64f5 28bd 6846 923b b125 33bb
00000110: 0e3e 713c b4f8 8bbc ff7d a6bb bfc8 613c
00000120: 2837 b4bc 2586 8a3c 229e 0f3c 18f3 81bc
00000130: 4652 9b3c 9f25 833c 5975 8dbc a3d8 863c
00000140: 8e5d 55bc cf2a 1abd 9fe0 fa3c 7556 ec3b
00000150: 0c98 94bc 4976 823d 7bb2 c93c 4f92 1c3c
00000160: 2d97 9639 c84c 2cbd 600f 3dbb 768b a5bc
00000170: dec3 5fbc 9dfc 62bc 2738 d9bc 4092 76bb
00000180: 2546 623a a77e a83c 2607 9bbc 192e 043d
00000190: 1e54 02bd b4a8 1f3d 2a84 d03c 2a0b a5ba
000001a0: 23cc 12ba b692 683c e3cc 89bb 7e6e 95bc
000001b0: aa12 a0ba e45e 143d b3be 863c 9478 10bc
000001c0: bd66 bc3b 8589 463d e58f 7cbc f0b8 b8bc
000001d0: 1315 c2bb 9e38 033c 7c02 7e3d 92ca d1bb
000001e0: 2322 243d a9fc 8bba 762f beba 2695 cc3b
000001f0: 8d29 81bc 7756 78bc ec14 cfbc 00a5 cfbb
00000200: 1bca 023c d6aa eebb a226 7cbc 63d6 42bc
00000210: a340 4339 7d91 30bd e460 14ba 076e 95b8
00000220: 6bed 93bc f14c 9abc 21db 8c3c 93f3 8bbb
00000230: 1b2f 593c 6ac1 2a3d c65b d3bc 4309 203c
00000240: 2ae8 c33c f10b dc3b 66f2 ca3b 849c 4bbc
00000250: 690a 09bc d3cf dabc 0c38 b2bb 91bf 7abc
00000260: 5037 00bb aeac 043d ae31 c03c a759 453d
00000270: ebf0 513c 46e2 adbb 787c fe3c e813 a13c
00000280: 0a1c 8e3c 85e0 3f3d b984 20bb 682f f83b
00000290: 786c 21bc 6536 19bc a741 c73a b798 7cbb
000002a0: 1e8b 8abd b0ad 13bc a887 2c3d 1868 8a3c
000002b0: 3c98 c738 8e82 abbb 6cac 123d c0f4 e8bc
000002c0: 925d 563b c9c8 5abb c972 d13a 7870 fa3c
000002d0: 1e86 a43c bbe5 6bbb 1454 87bb e156 1bbc
000002e0: 31ac 09bd a782 503c a923 bebc 0ee8 18bc
000002f0: a1fc 103c adcc 843c 39d2 74bc 877d 413c
00000300: fb5e 6d3c c9ac a03c 91be 18bb be68 8d3b
00000310: 2885 13bc aee1 fa3c 7490 daba 50c2 f1bb
00000320: 5d6f 153d 80e5 d3bc 5e1d 0c3b 8811 c5bb
00000330: e3c6 13bd 9181 c7bb 0625 a03c 4d35 a7bb
00000340: d0c5 be3c 0471 d93c 23e8 3cbd 8b93 8e3b
00000350: e72d fc3b 72a7 8fbd 49ae 44bc df78 c8bc
00000360: adba 923b 63c7 2b3d 25cd 0e3b 43d2 313c
00000370: 4e31 983b 267a df3c a301 a63c f071 ac3c
00000380: de8a 993c f330 31bc 660d 453c 87a6 62bc
00000390: 6d2b 083d 59c7 24bd 8651 e6bc be44 623c
000003a0: 6f3e fc3b e24c e2bb 9b91 ea3b 5caf 123c
000003b0: f1a9 b53a c6c8 debc fab4 8abc f477 58bb
000003c0: 71f2 183c 95d0 38bd cf7c fbbb 8abe 613c
000003d0: fcaa 0e3c fba9 93bc 7bc1 77bd 24c4 e0bb
000003e0: a01e 73bd 6687 6fba d624 b8bb 23ef 82bc
000003f0: 5d96 213c 6568 f2b6 8fbc a43b 8c89 793c

action_model._discrete_distribution.branches.0.bias f4 [2]
-0.012331682 0.012331677
00000000: d30a 4abc cd0a 4a3c

action_model._discrete_distribution.branches.1.weight f4 [3, 128]
-0.022533068 -0.038592603 -0.004430944 0.01352508 0.034716193 -0.01619731 0.009959902 -0.0117601175
-0.017905092 0.023071632 0.01793571 -0.03339789 -0.025162078 0.0022338931 0.036832865 -0.022226783
0.028697 -0.06677635 0.0054742275 0.0022173158 0.0034267479 0.030648371 -0.008983588 -0.013943432
9.676674e-05 0.011378226 -0.025641773 -0.011882557 -0.042728286 -0.036600024 0.003107311 -0.04010803
0.019849917 0.041644275 0.031098945 0.026683494 -0.030902183 -0.015024547 0.0047818357 -0.011705477
-0.021122588 0.00024419883 0.0061025033 -0.012981984 -0.046517476 -0.0024098163 0.025475034 -0.0060185334
0.014006873 0.04523166 -0.011299608 -0.011517655 -0.022258418 0.0018177007 0.01239513 -0.041738838
0.00962085 -0.008753932 -0.012662106 0.0008696174 -0.03681347 -0.05051067 -0.026086576 -0.04124486
-0.0064991657 0.0016697216 -0.015094091 -0.033511516 0.0063182507 -0.001329432 -0.029771235 -0.02755751
0.014891734 0.0251758 0.004774301 -0.021593887 -0.01744676 -0.0010352688 -0.0194407 -0.019889686
-0.0030859313 -0.001931691 -0.005073769 0.008758878 -0.011837939 0.003000548 -0.0072470643 0.008980389
-0.012854026 0.014974135 -0.003813961 -0.013025269 0.009602047 -0.027276756 -0.03485695 -0.006251164
-0.016539747 -0.010260719 0.027612155 -0.012304637 -0.022540374 0.038235314 -0.021579333 0.024664676
-0.04502345 -0.04559163 0.023830866 0.013667061 0.006655651 -0.02143534 -0.026795302 -0.012450105
0.02591912 0.032483798 -0.04748204 0.017658882 -0.008373521 -0.035168376 -0.0556868 -0.02547198
-0.0017768806 -0.0078050788 -0.0066230693 0.028909031 0.037471537 0.0070203827 -0.033715032 0.009974653
0.01762201 0.05391441 -0.019628864 -0.025769446 0.010322907 0.025509939 -0.01552333 0.040262647
0.0008412553 0.05618069 0.026953967 -0.020458572 0.02482225 0.038244724 -0.028899223 0.0102464445
0.00677558 0.035367258 0.007444409 0.0028179097 -0.03126537 -0.03886138 0.003909657 0.020274177
-0.025808442 -0.017409204 0.011782505 -0.004573417 0.009500432 0.028925613 -0.016489118 -0.015992207
0.014623146 -0.0038564105 -0.0058646873 -0.023815766 0.003987369 -0.0020536347 0.0019204576 -0.00628841
0.043084767 -0.02299543 -0.029533194 -0.0055215745 0.051851902 -0.0008638315 -0.009441094 -0.0064064073
-0.048670907 0.015114704 0.016127251 0.018559413 0.016042009 0.008892852 -0.027582867 0.020185925
-0.0074600424 0.0050637797 -0.02899671 -0.01217342 -0.033304173 0.011984196 0.03173998 -0.014695955
0.023169868 0.0034329 -0.036025085 0.021014675 0.009305554 -0.020226147 0.012312845 0.02561947
-0.005555704 -0.009680224 0.0017283685 -0.011126294 -0.00030171897 0.011349558 0.040394153 0.017106589
-0.011260807 -0.00052443286 0.015253603 0.005736749 0.032461025 -0.009145094 -0.0026357265 -0.02405954
-0.02342996 -0.005176125 0.052389417 -0.005197953 -0.0068730856 -0.0036628344 -0.028237974 -0.022938835
0.011895376 0.06914354 -0.008324076 -0.010850278 0.010352311 -0.005253665 0.020745777 -0.018764501
0.03668893 -0.009753963 -0.031299915 -0.007528443 -0.025142984 -0.007334453 0.017598493 -0.020654555
-0.02608608 -0.0009202863 0.03905058 -0.01279369 0.061597887 0.024628663 0.02698069 0.021508677
-0.011561196 0.038040005 0.009222344 -0.03285284 -0.07654797 0.029145598 0.008870977 -0.018509679
00000000: 4597 b8bc 4713 1ebd 7431 91bb 4c98 5d3c
00000010: 9132 0e3d 39b0 84bc db2e 233c 82ad 40bc
00000020: b3ad 92bc b800 bd3c e9ed 923c 3acc 08bd
00000030: b420 cebc 8266 123b 0fde 163d f114 b6bc
00000040: f915 eb3c 0ac2 88bd 2661 b33b 6350 113b
00000050: 4a93 603b 4b12 fb3c e62f 13bc fe72 64bc
00000060: 3fef ca38 bd6b 3a3c b20e d2bc 0eaf 42bc
00000070: db03 2fbd e8e9 15bd 07a4 4b3b 5148 24bd
00000080: 4b9c a23c 3093 2a3d 37c3 fe3c 5897 da3c
00000090: 9326 fdbc 8529 76bc f2b0 9c3b 54c8 3fbc
000000a0: 4709 adbc d007 8039 82f7 c73b 63b2 54bc
000000b0: 1c89 3ebd 02ee 1dbb 05b1 d03c 1e37 c5bb
000000c0: 157d 653c d544 393d fe21 39bc 8cb4 3cbc
000000d0: 4957 b6bc ea3f ee3a f114 4b3c 58f6 2abd
000000e0: c5a0 1d3c a76c 0fbc b974 4fbc 09f7 633a
000000f0: b9c9 16bd 47e4 4ebd 84b3 d5bc 5ff0 28bd
00000100: f4f6 d4bb 8fda da3a 354d 77bc 5f43 09bd
00000110: 5409 cf3b 5640 aeba cee2 f3bc 4ac0 e1bc
00000120: 76fc 733c 7b3d ce3c bd71 9c3b aae5 b0bc
00000130: 82ec 8ebc dbb1 87ba 1a42 9fbc b2ef a2bc
00000140: 563d 4abb cb30 fdba dc41 a6bb 6681 0f3c
00000150: eaf3 41bc d8a4 443b c878 edbb 7b22 133c
00000160: b199 52bc 1356 753c a6f3 79bb f067 55bc
00000170: e751 1d3c 8173 dfbc 29c6 0ebd 90d6 ccbb
00000180: 5d7e 87bc 931c 28bc e332 e23c 6399 49bc
00000190: 97a6 b8bc a29c 1c3d 24c7 b0bc 930d ca3c
000001a0: 826a 38bd 4abe 3abd f338 c33c cfeb 5f3c
000001b0: a617 da3b 2b99 afbc d281 dbbc 86fb 4bbc
000001c0: 5654 d43c bb0d 053d 877c 42bd 5ca9 903c
000001d0: 1831 09bc b70c 10bd d817 64bd 9daa d0bc
000001e0: 38e6 e8ba bfc1 ffbb 5506 d9bb a2d2 ec3c
000001f0: c17b 193d 3d0b e63b c618 0abd ba6c 233c
00000200: 095c 903c 5bd5 5c3d b6cc a0bc 721a d3bc
00000210: 6921 293c 38fa d03c 9155 7ebc 72ea 243d
00000220: b087 5c3a b91d 663d 91ce dc3c bc98 a7bc
00000230: 0858 cb3c 80a6 1c3d 10be ecbc b4e0 273c
00000240: af05 de3b 42dd 103d 3bf0 f33b aeac 383b
00000250: 1e10 00bd 1c2d 1fbd 941c 803b 0816 a63c
00000260: 3a6c d3bc bf9d 8ebc 680b 413c 9adc 95bb
00000270: b3a7 1b3c 68f5 ec3c 3014 87bc 1702 83bc
00000280: eb95 6f3c d5bb 7cbb 902c c0bb 4819 c3bc
00000290: 7aa8 823b 4696 06bb ddb7 fb3a 020f cebb
000002a0: a779 303d e960 bcbc 99ef f1bc 53ee b4bb
000002b0: a962 543d c072 62ba d1ae 1abc d7ec d1bb
000002c0: 255b 47bd aaa3 773c 4c1d 843c e909 983c
000002d0: 886a 833c 53b3 113c 77f5 e1bc f45c a53c
000002e0: 5f73 f4bb 10ee a53b 828a edbc 0673 47bc
000002f0: f569 08bd 5c59 443c c801 023d 4ec7 70bc
00000300: bcce bd3c 81fa 603b 0a8f 13bd f826 ac3c
00000310: 5376 183c 4eb1 a5bc d1bb 493c ecdf d13c
00000320: 9f0c b6bb cd99 1ebc 6c8a e23a 0f4b 36bc
00000330: 0930 9eb9 7ff3 393c 5774 253d 1e23 8c3c
00000340: 3f7f 38bc 187a 09ba 40ea 793c 57fb bb3b
00000350: daf5 043d 4ed5 15bc 27bc 2cbb 8318 c5bc
00000360: 30f0 bfbc 7c9c a9bb 4996 563d 9753 aabb
00000370: 9f37 e1bb 2a0c 70bb 5353 e7bc 39ea bbbc
00000380: d3e4 423c 219b 8d3d b561 08bc 5dc5 31bc
00000390: bd9c 293c f026 acbb 0cf3 a93c 03b8 99bc
000003a0: 2247 163d 16cf 1fbc 5734 00bd 28b1 f6bb
000003b0: a9f8 cdbc da55 f0bb b72a 903c be33 a9bc
000003c0: 7ab2 d5bc 5e3f 71ba 80f3 1f3d a09c 51bc
000003d0: 114e 7c3d 0dc2 c93c 9c06 dd3c f732 b03c
000003e0: 2c6b 3dbc d6cf 1b3d 5019 173c b390 06bd
000003f0: 2fc5 9cbd c0c2 ee3c 9357 113c 9ca1 97bc

action_model._discrete_distribution.branches.1.bias f4 [3]
0.003965233 -0.005112353 0.0017593957
00000000: c9ee 813b 8685 a7bb 869b e63a

action_model._discrete_distribution.branches.2.weight f4 [1, 128]
0.019197434 -0.005161141 -0.019626467 -0.002742824 0.007332932 0.009915529 -0.011009633 -0.007492836
0.0019233142 0.0024281985 -0.008458207 0.0064979917 0.005787399 0.014690526 -0.011016793 -0.0013174991
-0.010343765 -0.010184364 -0.006000742 0.0033369788 -0.016361697 -0.0022452923 -0.014560789 -0.0031853393
-0.010898012 0.010317978 0.012949437 0.0050961985 0.01051263 -0.008728145 -0.0057672486 -0.0005160874
0.0027555565 0.009906187 0.0014452655 -0.0075267456 0.0035256967 0.0038201448 0.0066541745 0.0107445745
-0.0017648336 -0.007856526 -0.0034802647 0.0062367967 0.017509842 0.008445871 0.009110188 -0.0029417814
-0.0068365866 0.0048336876 -0.011638047 0.0036737956 0.00893647 0.01398799 -0.004100094 0.012454854
0.005050776 0.0040841526 -0.0012052715 0.009789929 -0.0018585075 0.010605383 -0.0007419467 0.021909393
-0.0023545825 0.015745647 0.010462927 -0.014650727 0.004380758 -0.014785829 0.0022891825 0.009586531
0.0014027506 -0.0051740063 -0.010508908 -0.011117501 -0.010548401 -0.0001804146 -0.0031959843 0.010431098
-0.0055275867 0.011301448 0.01932056 -0.0119257495 -0.0095130205 0.008870343 0.0068986765 -0.012739889
-0.009169246 -0.0032626379 -0.0049610618 0.014260259 -0.013646637 -0.014868863 0.01809506 -0.002300351
0.00041614898 -0.020646859 -0.009506151 -0.013802093 0.007243947 0.0027849928 0.0017331444 0.0031282865
-0.014318808 -0.0121941 0.008075167 0.012233622 -0.0020300734 -0.0009675164 -0.016492946 -0.0076613235
0.0070060636 0.0011134924 0.00015224847 0.00163001 -0.00015498302 0.009781136 -0.014777903 -0.016771689
0.0150055615 -0.016430736 0.015317777 -0.0144674955 -0.007344579 0.016069176 0.0010215504 0.00407161
00000000: f043 9d3c ca1e a9bb afc7 a0bc f3c0 33bb
00000010: 1849 f03b be74 223c bf61 34bc 7786 f5bb
00000020: b717 fc3a 6922 1f3b 4b94 0abc 1bed d43b
00000030: 39a4 bd3b 88b0 703c c77f 34bc efaf acba
00000040: e578 29bc 52dc 26bc dfa1 c4bb 37b1 5a3b
00000050: f708 86bc c125 13bb 6090 6ebc 20c1 50bb
00000060: 938d 32bc bd0c 293c e029 543c 03fe a63b
00000070: 2b3d 2c3c 7e00 0fbc 30fb bcbb 0a4a 07ba
00000080: 9196 343b 8f4d 223c 106f bd3a eba2 f6bb
00000090: 600f 673b 655b 7a3b 430b da3b 030a 303c
000000a0: fd51 e7ba a9b8 00bc 2715 64bb 0b5e cc3b
000000b0: cd70 8f3c 8d60 0a3c e642 153c e7ca 40bb
000000c0: 7205 e0bb e963 9e3b 82ad 3ebc 10c4 703b
000000d0: 466a 123c e22d 653c 155a 86bb 720f 4c3c
000000e0: fb80 a53b 5bd4 853b 33fa 9dba f065 203c
000000f0: 2a99 f3ba 33c2 2d3c 337f 42ba 547b b33c
00000100: 574f 1abb 04fd 803c b26c 2b3c 9a09 70bc
00000110: 768c 8f3b 4340 72bc 1c06 163b d310 1d3c
00000120: 80dc b73a b68a a9bb 8e2d 2cbc 2e26 36bc
00000130: 33d3 2cbc ad2d 3db9 b873 51bb 32e7 2a3c
00000140: c220 b5bb b529 393c 2746 9e3c 3864 43bc
00000150: 80dc 1bbc ea54 113c 4b0e e23b f8ba 50bc
00000160: 9b3a 16bc fbd1 55bb 6790 a2bb dda3 693c
00000170: 2596 5fbc 889c 73bc 173c 943c 7cc1 16bb
00000180: 922e da39 9a23 a9bc b0bf 1bbc 2d22 62bc
00000190: a25e ed3b 6d84 363b ad2a e33a f003 4d3b
000001a0: 6f99 6abc c3c9 47bc b54d 043c 886f 483c
000001b0: fb0a 05bb eda0 7dba 371c 87bc d70b fbbb
000001c0: 1f93 e53b 9bf2 913a e3a4 1f39 0fa6 d53a
000001d0: f082 22b9 0f41 203c 051f 72bc c864 89bc
000001e0: e3d9 753c c099 86bc 6af7 7a3c 1309 6dbc
000001f0: cbaa f0bb 81a3 833c 8be5 853a 246b 853b

94 f4 [450]
0.24656497 0.4366714 0.34301442 0.045206703 0.052718434 0.044804476 0.040710278 0.043436628
0.09190195 0.18976669 0.25033188 0.44135392 0.34298876 0.047037918 0.06018308 0.048799872
0.034439716 0.053060178 0.08953758 0.18808809 0.23478322 0.4372443 0.3474324 0.04100586
0.052028153 0.050140455 0.047037918 0.04056168 0.100433476 0.19099401 0.25541648 0.45340943
0.35727593 0.051210936 0.067166716 0.059882507 0.04100587 0.055283826 0.087448694 0.19150355
0.22722375 0.4350502 0.34994793 0.047165975 0.05179599 0.05179599 0.052946497 0.04329745
0.09401526 0.19224542 0.25786802 0.45992595 0.36618963 0.056893893 0.0649854 0.061370462
0.04100586 0.060382627 0.08880218 0.19365236 0.22586483 0.44021183 0.35571483 0.051445764
0.050737984 0.056893893 0.05762968 0.04805274 0.096635714 0.19579038 0.255498 0.45787093
0.3591287 0.051562782 0.06866917 0.05783816 0.046000518 0.058045875 0.094394214 0.19714709
0.22500119 0.43575487 0.34937817 0.058356058 0.05362483 0.056575596 0.061468363 0.0533997
0.08960414 0.19301642 0.25402468 0.4546281 0.35640767 0.046392284 0.0675233 0.05689389
0.046909507 0.05418355 0.0877211 0.20039973 0.22187194 0.43562526 0.34721908 0.0668082
0.057420425 0.056788 0.055501245 0.053737048 0.098161034 0.19626944 0.25285 0.44741368
0.34334823 0.040412523 0.06840646 0.061761115 0.04480448 0.05462635 0.09306081 0.20476793
0.23168121 0.43182385 0.3323786 0.06544594 0.05049983 0.056787994 0.05225927 0.049535654
0.096389346 0.19960421 0.25468093 0.44379368 0.33280033 0.045206707 0.06716672 0.05886932
0.04287717 0.04690951 0.09749296 0.20813067 0.2343041 0.42641878 0.31930804 0.0666282
0.05191221 0.050499834 0.051912207 0.046909507 0.09694278 0.20391534 0.24667186 0.43599328
0.34327126 0.045339976 0.05271844 0.044938963 0.040710278 0.04357536 0.09216078 0.18983807
0.2504785 0.4407326 0.343297 0.04729368 0.06018308 0.048799872 0.034439716 0.053060178
0.08986981 0.18816495 0.23503363 0.43656996 0.3476455 0.041299306 0.052028153 0.050140455
0.047037918 0.040858336 0.100669585 0.19107246 0.25549796 0.45287246 0.35758418 0.051210936
0.067166716 0.059882507 0.04100587 0.055283826 0.08785698 0.1916431 0.22741367 0.43443748
0.35028154 0.047548063 0.05179599 0.05179599 0.052946497 0.04357536 0.09433118 0.19233061
0.2579887 0.4594333 0.366516 0.056893893 0.06507776 0.061370462 0.04100586 0.060382627
0.08907034 0.1937224 0.22600839 0.43957007 0.3559421 0.051795997 0.050737984 0.056893893
0.05762968 0.048303083 0.09682009 0.1958564 0.25564063 0.4573641 0.35939845 0.051679526
0.068756506 0.05783816 0.046000518 0.058045875 0.09470884 0.19723383 0.22512133 0.43511203
0.34970048 0.058459077 0.05373704 0.056575596 0.061566103 0.0533997 0.08980348 0.19313267
0.2541889 0.4540882 0.35668167 0.046522133 0.06761214 0.05689389 0.046909507 0.054294594
0.08792486 0.20047316 0.22211652 0.43496096 0.34753272 0.0668082 0.057420425 0.056788
00000000: 877b 7c3e 6593 df3e 969f af3e aa2a 393d
00000010: 49ef 573d e684 373d d2bf 263d 9bea 313d
00000020: 1737 bc3d 3352 423e 802b 803e 24f9 e13e
00000030: 399c af3e d5aa 403d 8982 763d 60e2 473d
00000040: a910 0d3d a155 593d 7b5f b73d 2a9a 403e
00000050: 036b 703e 7cde df3e a9e2 b13e c3f5 273d
00000060: 791b 553d 1460 4d3d d5aa 403d 0124 263d
00000070: 11b0 cd3d ef93 433e f3c5 823e 4825 e83e
00000080: dfec b63e 8fc2 513d b48e 893d 5c47 753d
00000090: c5f5 273d 4b71 623d 4d18 b33d 8219 443e
000000a0: 58ad 683e e6be de3e 602c b33e 1c31 413d
000000b0: 0828 543d 0828 543d 6dde 583d ab58 313d
000000c0: 138b c03d fcdb 443e 4707 843e 6a7b eb3e
000000d0: 357d bb3e 9209 693d 1117 853d 985f 7b3d
000000e0: c3f5 273d c653 773d ebdd b53d ce4c 463e
000000f0: 1c49 673e 7263 e13e 4120 b63e cbb8 523d
00000100: a2d2 4f3d 9209 693d 190d 6c3d f3d2 443d
00000110: f2e8 c53d 467d 483e a2d0 823e 0f6e ea3e
00000120: b8df b73e 7f33 533d 6ca2 8c3d b5e7 6c3d
00000130: 0a6b 3c3d 83c1 6d3d c151 c13d ede0 493e
00000140: b666 663e 431b df3e b2e1 b23e c306 6f3d
00000150: b6a5 5b3d d0bb 673d 40c6 7b3d a5b9 5a3d
00000160: 6082 b73d 19a6 453e 860f 823e 04c5 e83e
00000170: 117b b63e d605 3e3d a849 8a3d 9109 693d
00000180: 2f24 403d 92ef 5d3d 1fa7 b33d 9635 4d3e
00000190: 6632 633e 460a df3e b3c6 b13e bdd2 883d
000001a0: ae31 6b3d 899a 683d 4655 633d 611b 5c3d
000001b0: a708 c93d dbfa 483e 8e75 813e 6813 e53e
000001c0: 57cb af3e 9a87 253d b018 8c3d 39f9 7c3d
000001d0: e784 373d e1bf 5f3d aa96 be3d afae 513e
000001e0: d73d 6d3e 0418 dd3e 872d aa3e 8508 863d
000001f0: e9d8 4e3d 879a 683d d10d 563d e6e5 4a3d
00000200: c767 c53d 0c65 4c3e 8a65 823e ed38 e33e
00000210: ce64 aa3e ab2a 393d b58e 893d f520 713d
00000220: f99f 2f3d 3024 403d 64aa c73d 3520 553e
00000230: 6aed 6f3e 9053 da3e 587c a33e 5e74 883d
00000240: e6a1 543d ead8 4e3d e5a1 543d 2f24 403d
00000250: f089 c63d 2fcf 503e 8c97 7c3e 833a df3e
00000260: 40c1 af3e 69b6 393d 4aef 573d eb11 383d
00000270: d2bf 263d 147c 323d cbbe bc3d e964 423e
00000280: b83e 803e b4a7 e13e a0c4 af3e 05b7 413d
00000290: 8982 763d 60e2 473d a910 0d3d a155 593d
000002a0: aa0d b83d 50ae 403e a8ac 703e 1986 df3e
000002b0: 97fe b13e 7629 293d 791b 553d 1460 4d3d
000002c0: d5aa 403d 125b 273d db2b ce3d 80a8 433e
000002d0: a1d0 823e e6de e73e 4615 b73e 8fc2 513d
000002e0: b48e 893d 5c47 753d c5f5 273d 4b71 623d
000002f0: 5cee b33d 173e 443e 21df 683e 976e de3e
00000300: 1a58 b33e c2c1 423d 0828 543d 0828 543d
00000310: 6dde 583d 147c 323d b530 c13d 51f2 443e
00000320: 1817 843e d73a eb3e fca7 bb3e 9209 693d
00000330: 7d47 853d 985f 7b3d c3f5 273d c653 773d
00000340: 836a b63d 2a5f 463e be6e 673e 540f e13e
00000350: 0b3e b63e 0a28 543d a2d2 4f3d 9209 693d
00000360: 190d 6c3d 74d9 453d 9d49 c63d 958e 483e
00000370: 54e3 823e a12b ea3e 1303 b83e e9ad 533d
00000380: 36d0 8c3d b5e7 6c3d 0a6b 3c3d 83c1 6d3d
00000390: b5f6 c13d aaf7 493e 3586 663e 01c7 de3e
000003a0: f10b b33e c972 6f3d 5f1b 5c3d d0bb 673d
000003b0: bd2c 7c3d a5b9 5a3d e3ea b73d 92c4 453e
000003c0: 0c25 823e 407e e83e fb9e b63e fe8d 3e3d
000003d0: 3c78 8a3d 9109 693d 2f24 403d 0264 5e3d
000003e0: f311 b43d d648 4d3e 8372 633e 34b3 de3e
000003f0: cfef b13e bdd2 883d ae31 6b3d 899a 683d

97 f4 [6]
80.49597 53.899498 78.26264 51.49832 75.95666 48.96042
00000000: f0fd a042 1699 5742 7986 9c42 48fe 4d42
00000010: cfe9 9742 78d7 4342
