Assets/ZooheimTest/Models/run3/LionFBehavior.onnx (onnx, 188269 bytes, 14 tensors)

discrete_act_size_vector f4 [1, 3]
000000 00 00 00 40 00 00 40 40 00 00 80 3f
       2.0 3.0 1.0

network_body.observation_encoder.processors.0.normalizer.running_mean f4 [210]
000000 ce be 91 3e 51 36 57 3e 73 fd 89 3c 28 77 12 3c
       0.28465885 0.21016814 0.016844487 0.008939542
000010 6c fa a8 3b 39 9b 87 3b 17 ce 2e 3b b1 a5 cf 3b
       0.0051568057 0.004138377 0.0026673132 0.0063368906
000020 af 2a be 3b d8 93 3c 3b fa 60 95 3b 7f f6 8d 3b
       0.005803428 0.0028774645 0.0045586796 0.004332363
000030 4f b5 9f 3c 9d 83 2c 3e 39 be 95 3e 4d 23 4c 3e
       0.019495634 0.16847081 0.2924669 0.19935341
000040 a2 84 3b 3c 2d 1d 15 3c 88 67 c2 3b 00 22 6a 3b
       0.011445196 0.009101194 0.005932752 0.0035725832
000050 07 82 29 3b c4 a1 b4 3b 44 87 cd 3b df 93 3c 3b
       0.0025864856 0.005512448 0.0062722284 0.0028774661
000060 3a 9b 87 3b b8 05 8f 3b 3b c3 97 3c f3 5f 2e 3e
       0.0041383775 0.0043646954 0.01852571 0.17028789
000070 1d 4f 8d 3e 9d 63 4e 3e 8b c7 81 3c 17 a6 1e 3c
       0.2759942 0.20155187 0.01584222 0.009683154
000080 21 f9 9f 3b 79 cb 9c 3b a9 4f 6d 3b 1d 3f e3 3b
       0.0048819934 0.004784998 0.0036210811 0.006935014
000090 b5 55 af 3b 66 15 7b 3b e8 e9 9e 3b 41 41 8a 3b
       0.0053507932 0.0038312315 0.004849661 0.0042192047
0000a0 29 06 ac 3c f1 0f 34 3e 3c 7f 91 3e a5 93 41 3e
       0.020999031 0.17584206 0.28417385 0.18903978
0000b0 73 78 1b 3c 94 7e f9 3b 00 57 b8 3b 01 57 38 3b
       0.009489167 0.0076139662 0.0056256056 0.002812803
0000c0 96 6d 04 3b 30 45 a5 3b ed 0a b3 3b a8 7a 5e 3b
       0.002020692 0.005043648 0.005463949 0.003394762
0000d0 67 15 7b 3b 81 f6 8d 3b f6 f6 aa 3c a7 92 37 3e
       0.0038312317 0.004332364 0.020869713 0.17927037
0000e0 d8 12 85 3e f4 80 42 3e 70 93 6d 3c 92 95 14 3c
       0.2599094 0.18994504 0.014500484 0.0090688635
0000f0 82 8c 71 3b bf f1 54 3b 56 b8 80 3b 29 60 f7 3b
       0.003685743 0.0032492725 0.0039282246 0.007549305
000100 10 28 ac 3b c1 ab 91 3b 82 f6 8d 3b bd 30 80 3b
       0.0052537993 0.0044455235 0.0043323645 0.00391206
000110 f8 d8 c5 3c d8 82 41 3e c7 df 89 3e 92 24 2e 3e
       0.02415131 0.18897569 0.2692854 0.17006138
000120 8b c7 01 3c b8 c6 e3 3b 73 a0 ab 3b 54 08 21 3b
       0.00792111 0.0069511794 0.005237633 0.0024571614
000130 35 31 eb 3a 59 33 92 3b e6 e9 9e 3b ab af 2c 3b
       0.0017943742 0.0044616875 0.00484966 0.0026349823
000140 da 5e 6e 3b 81 f6 8d 3b 5d 15 ad 3c ed 62 42 3e
       0.0036372454 0.004332364 0.02112835 0.1898305
000150 29 5c 72 3e 59 1f 31 3e 10 a3 3d 3c 5f 5e 03 3c
       0.23667969 0.17297114 0.011574522 0.008018105
000160 70 40 6c 3b 95 6d 84 3b 3d 41 8a 3b 20 ba f4 3b
       0.003604915 0.0040413835 0.004219203 0.007468477
000170 12 28 ac 3b 6f 25 9a 3b 53 d3 52 3b a5 4f 6d 3b
       0.0052538 0.0047041695 0.0032169416 0.0036210802
000180 4b 41 d8 3c 2d a5 53 3e ef a9 76 3e 8c 21 26 3e
       0.026398322 0.20668478 0.24088262 0.16223735
000190 72 a0 ab 3b bd f1 d4 3b 90 42 93 3b 25 1a 34 3b
       0.0052376324 0.006498544 0.004494019 0.0027481404
0001a0 f2 3f 01 3b 19 7e 8e 3b dc 5e 6e 3b 5f 29 35 3b
       0.0019721952 0.004348528 0.0036372459 0.0027643067
0001b0 0e 78 4c 3b 5e 5e 83 3b 92 0d c5 3c bd 19 53 3e
       0.0031199488 0.004009052 0.024054322 0.20615287
0001c0 92 21 4d 3e ee a8 2b 3e 77 78 1b 3c 49 7d f0 3b
       0.20032337 0.1676366 0.00948917 0.007339154
0001d0 b7 9b 72 3b b3 9b 72 3b 8f d8 76 3b bf f1 d4 3b
       0.0037019083 0.0037019073 0.00376657 0.006498545
0001e0 f1 0a b3 3b b0 da 9d 3b f4 35 24 3b 57 c9 75 3b
       0.005463951 0.0048173293 0.0025056573 0.003750404
0001f0 66 01 f3 3c 27 0c 66 3e 3a dc 48 3e 16 ce 2e 3e
       0.029663753 0.22465573 0.1961526 0.17070803
000200 d8 18 ab 3b 0d 78 cc 3b d5 33 7d 3b a1 4f 6d 3b
       0.0052214675 0.006239897 0.003863563 0.0036210793
000210 d0 72 28 3b 30 06 7a 3b a2 84 3b 3b c3 26 23 3b
       0.00257032 0.003815066 0.002861299 0.002489493
000220 fb 2b 47 3b 4b e7 8c 3b ad 66 d6 3c 85 fc 60 3e
       0.0030391205 0.004300033 0.026172007 0.21971329
000230 92 fd 1a 3e 24 1a 34 3e 6d 6b dd 3b bc c6 e3 3b
       0.15135792 0.17588097 0.006757191 0.006951181
000240 2d ca 93 3b ce 12 69 3b ec aa 73 3b 7e c1 bf 3b
       0.004510185 0.0035564187 0.0037180735 0.0058519235
000250 9b de b8 3b 12 d8 8b 3b 2c 45 25 3b 7d f6 8d 3b
       0.005641771 0.004267701 0.0025218232 0.004332362
000260 3b 84 ec 3c dd ad 75 3e 78 cb 1c 3e ac bd 35 3e
       0.028871646 0.23992105 0.15311992 0.17748135
000270 3c 91 aa 3b 44 37 ad 3b c2 e7 77 3b 56 c9 75 3b
       0.0052053016 0.005286129 0.0037827347 0.0037504039
000280 fc 60 15 3b 10 6e 6f 3b d4 72 28 3b 90 0d 45 3b
       0.0022793403 0.0036534108 0.0025703209 0.0030067898
000290 9f 59 4a 3b 2f ca 93 3b ad 34 e9 3c 84 78 71 3e
       0.0030876172 0.004510186 0.0284675 0.2358113
0002a0 4a b2 e5 3d 97 7c 31 3e 69 c5 da 3b 4b dd af 3b
       0.112156466 0.17332684 0.006676365 0.0053669563
0002b0 3f 16 99 3b 81 b7 62 3b e5 b4 50 3b 48 b2 be 3b
       0.0046718414 0.003459424 0.0031846103 0.0058195926
0002c0 6b 7f 97 3b 31 f5 84 3b 3a 66 39 3b 9b 63 a7 3b
       0.0046233437 0.0040575494 0.0028289692 0.0051083094
0002d0 06 f3 0f 3d 57 04 82 3e 89 9e ff 3d d6 8a 35 3e
       0.035143875 0.25393936 0.1248141 0.17728743
0002e0 3d 91 aa 3b 84 71 9f 3b 6b 75 3a 3b 8e d8 76 3b
       0.005205302 0.004865827 0.0028451334 0.0037665698
0002f0 c9 12 e9 3a ab 7a 5e 3b 21 24 11 3b 5f f4 66 3b
       0.0017782088 0.0033947628 0.0022146779 0.0035240871
000300 03 22 6a 3b 57 33 92 3b 61 c2 f9 3c 37 21 80 3e
       0.003572584 0.0044616866 0.030488195 0.2502534
000310 f3 6c ba 3d 6b 09 2f 3e 1c c4 d1 3b 8c 92 b3 3b
       0.09102812 0.17093436 0.006401552 0.0054801162
000320 d8 18 ab 3b 7c 96 4e 3b 8f 0d 45 3b db 0e ce 3b
       0.0052214675 0.00315228 0.0030067896 0.006288392
000330 e5 6e 8d 3b 95 2e 59 3b 6e 75 3a 3b 6a 7f 97 3b
       0.004316198 0.0033139337 0.0028451341 0.0046233432
000340 ad 73 14 3d 91 92 85 3e
       0.03624313 0.26088384

network_body.observation_encoder.processors.1.normalizer.running_mean f4 [9]
000000 5b ec 89 42 ac 17 a5 42 df 27 d8 3d de ef 89 42
       68.96163 82.546234 0.1055448 68.96849
000010 37 3a a5 42 9e 81 da 3d 53 f2 89 42 5d 5c a5 42
       82.6137 0.10669254 68.97329 82.6804
000020 5c db dc 3d
       0.10784027

network_body._body_endoder.seq_layers.0.weight f4 [128, 219]
000000 97 65 fa 3d 2a f4 63 bc 80 51 d4 bd 85 4e f2 3c
       0.12226408 -0.013913194 -0.103671074 0.029578457
000010 68 68 cc bd 0d 8e 07 bd f4 f9 9a bd 86 49 40 3c
       -0.099808514 -0.033094455 -0.07567206 0.011736279
000020 92 b3 05 bc 6a fe 2e be 44 01 17 be 67 8f 2b be
       -0.008160489 -0.17089239 -0.14746577 -0.16753922
000030 de e0 a4 bd 53 5c 32 3c d3 c7 a3 3c 75 b7 1c bd
       -0.080507025 0.01088627 0.019992745 -0.038260896
000040 49 18 09 be 0f 34 27 bd 9a bf 77 bb 87 aa e0 bd
       -0.1338817 -0.04082113 -0.0037803412 -0.109700255
000050 31 13 aa bd 46 16 a1 bd 0e 45 9d 3d 3f 69 ad bd
       -0.08304442 -0.078655764 0.07679187 -0.0846734
000060 20 be a1 bd d5 c9 1d 3e b5 1b 3b be b2 84 b9 bd
       -0.078975916 0.15409024 -0.18272288 -0.09058513
000070 1c 7a 02 3d eb c5 88 bd 70 16 31 bd 0c a8 0b 3d
       0.031854734 -0.06678375 -0.04323429 0.03409581
000080 b4 b9 37 3d 9b 63 1f bd c2 c5 04 bd 07 6a 1c bd
       0.044854835 -0.03891335 -0.03241516 -0.038187053
000090 01 42 b2 3c 6f 08 0a be 46 9f 15 3d 5e 74 38 3d
       0.021759989 -0.1347978 0.036528848 0.04503285
0000a0 98 1d 2a 3e c9 35 e5 3c 23 31 a3 bd 6c 2a 21 bd
       0.16612852 0.027979748 -0.079683565 -0.039347097
0000b0 3f a6 df bd 8e 50 9d bd 63 4e b2 bd 30 9a c8 bc
       -0.10920381 -0.0768138 -0.08706357 -0.024487585
0000c0 29 52 63 bd 47 53 0f bd bd 6d 43 bd 26 16 04 be
       -0.055498276 -0.03499153 -0.047712076 -0.12899074
0000d0 4a 26 1d 3e 6c 52 f3 3d e0 4b ce 3d b6 9d 07 bc
       0.15346637 0.11880955 0.10073066 -0.008277347
0000e0 74 ec ed bd 1b 40 bf bd 1d 9a 96 bc 87 9c 9c 3d
       -0.116173655 -0.09338399 -0.018384034 0.07647043
0000f0 67 72 5c 3d 08 48 55 3c 0e c6 95 bd b6 a3 5c 3c
       0.05382004 0.013017662 -0.073131666 0.013466766
000100 fc 89 3f 3c a7 7b d6 bc fa 83 dc bc 3e af c3 bd
       0.011690613 -0.026182009 -0.0269184 -0.09554909
000110 6b 03 60 3d 96 d7 c6 3d 9f 93 13 be dc 8f f7 3d
       0.05469076 0.097090885 -0.14411782 0.12087986
000120 3f 9b 9c 3d 21 0d b9 3d bc 56 8d 3d 16 fa f3 bd
       0.07646798 0.09035707 0.06901309 -0.119129345
000130 ff cb 2f 3d 73 9f 25 3d 9f 2b 55 bc 69 60 c6 3c
       0.042919155 0.040435266 -0.013010888 0.024215894
000140 5f 35 a1 bd 61 18 7c bd e1 cf 94 b9 11 7c 0f bd
       -0.07871508 -0.061546687 -0.00028383642 -0.03503043
000150 bb 05 95 3d 08 69 f5 bc 7c db 1f be 7a 55 43 bc
       0.072764836 -0.02995731 -0.1561107 -0.011922235
000160 03 99 e3 bd 8d 9f 85 bd 58 eb b4 bd 0d c9 94 3d
       -0.11113169 -0.065245725 -0.08833951 0.0726491
000170 10 d5 03 3e 54 e3 51 bd 2d 06 b3 3d f0 2e 67 3d
       0.12874246 -0.051242188 0.08741412 0.056441247
000180 32 da 5a 3d 90 1f d6 3d 8c ba da bd 00 e9 9d bd
       0.053430744 0.10455239 -0.10680112 -0.07710457
000190 4e 66 4f be 2f 70 01 be 21 bf c2 bc e2 44 5f be
       -0.2025387 -0.12640451 -0.023772778 -0.2180362
0001a0 01 4a eb 3d ef c5 af 3d 0a f2 b6 3b e9 d8 19 bc
       0.114887245 0.08582675 0.0055830525 -0.009390094
0001b0 e6 5f 15 be 1c ec 81 3d ef e2 5b be 54 c1 98 3d
       -0.14587364 0.063438624 -0.21473287 0.074587494
0001c0 83 61 a9 3c 7a db bf bd 63 45 9a bd 96 19 da 3a
       0.02067638 -0.09368034 -0.07532766 0.0016639705
0001d0 25 5d b8 3b 2e 41 4e bd 52 02 91 bd 62 56 2a 3d
       0.005626338 -0.05035513 -0.07080521 0.041586287
0001e0 7e 1e af 3d da 92 b0 3d 25 9f 52 3c 59 27 dc bd
       0.08550738 0.0862176 0.012855326 -0.107496925
0001f0 d5 58 2e 3d cd 3c 01 3e cb 2a a7 bd 39 f7 04 be
       0.042565186 0.1262085 -0.08162459 -0.12984933
000200 e4 de 98 bd 32 ed 0f be e4 3b 9a bc 92 4e b3 bb
       -0.07464388 -0.14055327 -0.018827386 -0.005472013
000210 b3 1e ff bd ad 5a e9 3b bc e5 14 bd 88 e8 10 3c
       -0.12457027 0.007121405 -0.036351904 0.008844502
000220 e6 c1 94 bc 66 e0 18 3e 89 d9 6a bd d7 a8 82 3c
       -0.018158864 0.14929351 -0.057336364 0.01594965
000230 54 5b 77 3b 92 1e 1f bd 6b 30 ff bd 44 e8 a8 bc
       0.0037743645 -0.038847513 -0.12460407 -0.020618565
000240 9e 47 a3 3d 1c 38 9d bd ec 7e d7 3b 82 a1 28 3d
       0.07972644 -0.07676718 0.0065764096 0.04116965
000250 50 4b df 3d 7c 74 31 3c d3 68 4c bd 01 a6 a3 bd
       0.109030366 0.010830995 -0.049904656 -0.07990647
000260 3f 0b 99 bc 91 ad 75 bd 42 9d 60 be 1f 4a c6 bc
       -0.01868212 -0.05997998 -0.21934989 -0.024205266
000270 65 d6 a7 bc a4 0c 05 3c 30 8c 40 3e 9e 9f 70 3d
       -0.020487973 0.00812069 0.18803477 0.058745973
000280 18 b8 b8 3c 91 44 d3 bd 79 c0 7c bc c3 63 7c bd
       0.02254872 -0.103158124 -0.015426748 -0.061618578
000290 c9 a0 93 bd f2 a3 e0 3d dd 99 99 bd 97 ee 85 bd
       -0.07208402 0.1096877 -0.0750005 -0.06539648
0002a0 c8 58 e7 3d 42 b0 63 bd aa ce 30 3d d3 16 61 3d
       0.112962306 -0.055588014 0.04316584 0.054953407
0002b0 a1 53 30 be b9 8f e9 bb a9 1b 10 be 70 60 8d bc
       -0.17219402 -0.007127729 -0.14073052 -0.017257899
0002c0 8b c4 a8 bd 23 d3 06 be e5 0f 1f 3e 89 52 a6 3d
       -0.082406126 -0.1316648 0.15533407 0.08121211
0002d0 55 b2 96 bc 6f 9a bb bd c2 1b 24 be c6 2e bb bc
       -0.018395582 -0.09160315 -0.16026214 -0.022849452
0002e0 c8 be 54 3c 1c de 13 bc 33 42 8a bd 79 37 cf 3c
       0.012984939 -0.009025123 -0.06750908 0.025295006
0002f0 e5 82 44 3d 11 8b 81 3b 2d da 3d be 52 d2 96 bd
       0.047976393 0.0039533456 -0.18540259 -0.07364334
000300 d9 df 98 3c e4 29 a1 bd be e4 fe 3b 2a d6 99 bc
       0.018661426 -0.07869318 0.007778733 -0.01877888
000310 29 6b a3 bd bb ff 02 3e 63 d3 30 3d a5 ae 67 3d
       -0.079794236 0.12792866 0.043170344 0.05656304
000320 9c 92 aa bd 6a 5e 3d 3d 8a 64 c7 bd c2 a7 03 bd
       -0.08328745 0.04623262 -0.09735973 -0.03214241
000330 82 cb 2f bd de cd 2c be 16 f1 a3 3c 05 16 a8 bd
       -0.04291869 -0.16875407 0.02001242 -0.08207325
000340 f7 fd dc bd 7f 55 36 3d 29 25 0d 3e 70 bd 0f 3e
       -0.107906274 0.04451513 0.13783707 0.14037108
000350 85 fc df ba 76 90 85 3d 33 e7 29 be 80 79 65 bd
       -0.0017088806 0.06521694 -0.16592102 -0.056024075
000360 29 89 c7 3d 35 b9 b8 bc af 3b 9f 3d ae 25 43 3d
       0.09742958 -0.022549251 0.077750556 0.047643356
000370 51 87 11 3d 1d c3 04 3e d8 05 88 bd c3 35 5e bc
       0.03552944 0.12965055 -0.066417396 -0.0135626225
000380 6f 49 02 3d ed 86 c8 bd 6c 43 97 bd 53 9d d8 bd
       0.031808313 -0.0979136 -0.073859066 -0.10576882
000390 e1 aa fa bb 58 e1 e5 bc 43 06 d8 3d ca 69 0c bd
       -0.007649765 -0.028061554 0.10548069 -0.034280576
0003a0 a4 44 fa bb 86 20 e6 bc 8d 87 82 bb c9 e9 a0 3c
       -0.007637577 -0.02809168 -0.003983444 0.019642727
0003b0 4c ea be 3d 7e f8 b6 bd b1 3f 0a 3d 88 de 7f 3d
       0.09322032 -0.08934115 0.033752147 0.06246808
0003c0 79 9e 25 bd 56 31 21 3e 62 26 66 bd 11 e3 b6 3c
       -0.040434334 0.15741476 -0.05618895 0.02232507
0003d0 42 7d 3d bb 7b d1 2d bd 1d f3 e7 3d 69 a5 e5 3d
       -0.002891377 -0.042436104 0.11325667 0.1121319
0003e0 5e 02 dc bd 2b a1 7a bd fd 1e e7 bc f0 2f 1a 3e
       -0.10742639 -0.061188858 -0.028213019 0.15057349
0003f0 17 69 07 bd 09 0e 2d 3d 8f 11 59 3d 6d 7c 17 be
       -0.033059206 0.042249713 0.05299526 -0.14793558

network_body._body_endoder.seq_layers.0.bias f4 [128]
000000 33 a2 c0 3c 93 6b d7 bc 3b d8 47 3c 74 d1 67 3b
       0.023514843 -0.026296413 0.012197549 0.0035372647
000010 2d ff 92 3c f2 b2 29 bc 81 07 12 3c 6d bb 1c bb
       0.017943943 -0.010357605 0.008912922 -0.0023915425
000020 27 7f 0c 3b b6 ee 0f 3b bd 9b 3b b9 c8 78 6d bc
       0.0021438093 0.0021962351 -0.00017891727 -0.0144941285
000030 cf 3f f4 3b ae 43 28 bb ac 48 75 3c eb a1 9f bc
       0.0074538956 -0.0025675106 0.01497094 -0.019486388
000040 fc 31 b9 bc eb ed 40 bc 88 ab 3c 3c 7f 9b 83 bc
       -0.022606842 -0.011775474 0.011515506 -0.016065357
000050 5f 5e c4 3b 34 ec 0e ba fb 5d ce 3b 9a 92 c1 ba
       0.005992695 -0.0005452067 0.0062978244 -0.0014768422
000060 bd be d2 bc 93 34 1b bc 05 24 3b bb a0 ec c5 3c
       -0.025725717 -0.009472984 -0.0028555405 0.024160683
000070 5c 78 d4 3b d7 50 a5 3b ce a8 44 bb 15 f0 a4 ba
       0.0064840745 0.0050450373 -0.0030007842 -0.0012583757
000080 75 31 0f 3d 17 69 3f bb 3c 8c 10 bc e5 8e 29 bc
       0.034959275 -0.0029206926 -0.008822497 -0.01034901
000090 f3 f9 4b 3c 5d b1 e1 3b d6 d8 a4 3b 99 e3 f3 3b
       0.012449729 0.0068875984 0.0050307317 0.0074429032
0000a0 19 95 e0 3c f7 92 8e bb 3b 93 10 bc 99 d1 74 3c
       0.027414845 -0.0043510157 -0.008824165 0.01494255
0000b0 13 4d bc ba 3d 2b a8 3c 95 b7 a2 3c ab 5b 38 3b
       -0.0014366232 0.02052843 0.01986293 0.002813081
0000c0 c8 3d 7d bb 51 cb 91 bc bf 43 d5 3a ad 93 80 3a
       -0.003864156 -0.017797144 0.00162708 0.0009809636
0000d0 d1 21 f1 3b 2b c2 05 3b 6a f0 f1 3b 81 8e be ba
       0.0073587676 0.0020409923 0.007383396 -0.0014538319
0000e0 8f 58 bd 3a 56 38 7b 3c f8 3a 0d bc 2c ea e2 bb
       0.0014445948 0.015333256 -0.008620016 -0.006924888
0000f0 3e ce 00 3c c0 b2 a0 3c 2b a4 a8 3a 86 3b df 3c
       0.007861672 0.019616485 0.0012866309 0.027250063
000100 f2 7e 92 bc 57 25 81 bc 9a 8b b0 3c f0 4a 90 bc
       -0.017882798 -0.015764875 0.021550942 -0.017613858
000110 db 1d 3d 3b 1d 06 db bb 3f 97 a7 ba c8 73 ac bc
       0.0028856907 -0.0066840784 -0.0012786164 -0.021051303
000120 21 cd 99 3c 10 bc 1c bb 30 07 78 3a 81 f4 cf bb
       0.01877457 -0.0023915805 0.000946152 -0.006346286
000130 22 55 4d 3c 11 02 81 bb ba 9a ba bc 77 5c 65 3c
       0.012532504 -0.003937014 -0.022778857 0.013999096
000140 6f 86 1d bb 1e 15 7f 3c be 1f 99 bb 00 2c a8 3c
       -0.0024036427 0.015569 -0.0046729734 0.020528793
000150 71 33 c0 38 fa 73 36 ba e6 32 84 3c f1 a9 1f b9
       9.164855e-05 -0.0006960031 0.016137552 -0.0001522673
000160 2d 69 51 3c ad d1 97 bc 24 a8 2d bc 06 49 ea bb
       0.0127814235 -0.018532598 -0.01059917 -0.0071498184
000170 d6 83 1b bc dc ea c9 3c bb cc 3b bc cd 78 ec bc
       -0.009491881 0.024648122 -0.011462386 -0.028866196
000180 00 16 9b bc dc e0 df 3b b5 3e 93 3a d1 63 f5 3b
       -0.018931389 0.0068322252 0.0011233898 0.0074887057
000190 24 f5 af bb f5 af b4 3b 27 53 8f 3c 5a 08 3b bb
       -0.005369799 0.00551414 0.017495705 -0.0028538913
0001a0 93 c2 3b 3c 84 8b 8f bc 63 f6 7f bb 85 c1 c9 ba
       0.011459964 -0.01752258 -0.003905677 -0.0015392756
0001b0 b1 9a 34 3b 1b 2c 1c 3b 81 3f fa 3c 97 12 3b bc
       0.0027558024 0.002383 0.03054786 -0.011418006
0001c0 54 5a 3d bc af bd 5e ba 1c ab 94 bb 04 e1 ad 3b
       -0.01155718 -0.0008496893 -0.0045369994 0.005306365
0001d0 72 11 93 bb 31 e1 0a bd 82 ae 48 bc 76 9f 7b bc
       -0.0044881636 -0.033906166 -0.012248637 -0.015357843
0001e0 90 da 23 3c 14 f8 e3 ba 0a e2 e3 bc a0 ec 41 bb
       0.01000084 -0.0017392659 -0.027817745 -0.0029590502
0001f0 41 14 99 3b f4 81 47 3c 57 82 eb ba 8d 9f e4 3b
       0.004671604 0.012176979 -0.0017967921 0.0069770277

network_body._body_endoder.seq_layers.2.weight f4 [128, 128]
000000 d9 9e a4 bd ae ee 64 3c 42 a6 8b bd 9c 7d d1 3d
       -0.0803811 0.013972921 -0.068188205 0.10229036
000010 a5 2c be ba da ee 40 3d aa 84 1c be 2a bb 46 3d
       -0.0014509155 0.047102787 -0.15284982 0.048518337
000020 29 6b f8 3d 15 18 ec 3c ef 3a 0b 3e 95 76 ee bb
       0.12129814 0.028820077 0.135967 -0.0072773197
000030 bc 19 53 3d f4 30 98 3d 5a d3 a6 3d e9 0e 1d 3c
       0.051538214 0.07431212 0.08145781 0.009586074
000040 a0 0c 84 bd 85 51 51 3d 33 39 6e bd 03 98 bd 3c
       -0.064477205 0.051103134 -0.05816002 0.023143774
000050 21 c6 04 3b 62 0d 3d 3d 4c 40 c8 3d d9 f8 9d 3c
       0.0020259696 0.04615534 0.09777889 0.019283699
000060 0a bd f4 bd 9b 39 15 bc b3 fb 8d bd 10 b8 4a 3d
       -0.11950119 -0.0091079725 -0.069327734 0.049491942
000070 17 39 b3 3d 9b 5c 36 bd 53 1d fa ba 03 9b 18 3e
       0.087511234 -0.04452191 -0.0019082226 0.14902882
000080 5c 22 22 3e b9 ae 82 3d c6 a1 13 bd f9 1b 0b bd
       0.1583342 0.06380982 -0.03604295 -0.033962224
000090 b9 fb 2f bd a4 1a e4 3d cb b3 04 3e c5 bf 3e 3e
       -0.04296467 0.11137894 0.1295921 0.18627842
0000a0 df 28 18 3e 59 df ea 3b bf a5 85 3c a4 c8 89 3d
       0.14859341 0.0071677384 0.016314385 0.06727722
0000b0 68 a6 f2 3c 65 7b 31 3e 2c a8 4a 3d 77 62 b0 bc
       0.029620364 0.17332228 0.049476787 -0.021531327
0000c0 5c b0 17 3d 49 ac 50 3c 67 2f ea 3c 7e 64 1c 3d
       0.037033424 0.0127363885 0.028587056 0.038181774
0000d0 0e 76 74 b9 43 d1 6a 3b 71 40 08 bd d7 78 a2 bc
       -0.00023313632 0.0035830296 -0.03326458 -0.019833012
0000e0 b8 fe a7 bc 40 d0 ee 3d fc 8c c6 3d 7f d9 a7 3b
       -0.020507202 0.11660814 0.096948594 0.005122363
0000f0 5e a9 85 3d 9c 5d 3b be 0f 36 56 bd 50 59 71 3c
       0.06526445 -0.18297428 -0.052297648 0.014730766
000100 9c af 9d 3d 79 6e ca bd 4d f9 f2 3b 58 93 03 be
       0.076995105 -0.09884352 0.007414973 -0.12849176
000110 dd ee 06 3d 3a 6c 8d bd 49 82 a9 bc c3 d9 11 bd
       0.03294264 -0.06905408 -0.020692008 -0.035608064
000120 8b 27 3f bd a4 ed e5 bc ec 95 e6 3d 46 65 9f 3d
       -0.04666857 -0.028067417 0.11259064 0.07782988
000130 5a c2 62 bd c1 c2 0e be 86 c0 a3 3d 5a 2a d4 bc
       -0.05536113 -0.1394148 0.07995705 -0.025899101
000140 c1 66 9a bc 29 75 5c bd c3 0b 84 bd d2 65 8d 3d
       -0.018847825 -0.05382267 -0.06447556 0.06904186
000150 22 df aa 3a b2 2a 0a bd 13 8c 0b 3d 63 e1 f1 3b
       0.001303647 -0.033732124 0.034069132 0.0073816045
000160 14 af 37 3d 22 0d ad 3b ee 70 16 bd 18 37 a6 bd
       0.044844702 0.0052811066 -0.036728792 -0.08115977
000170 30 83 d5 bd 70 d6 ff bc fc 78 a4 bc 7c 32 46 bc
       -0.10425413 -0.031230181 -0.020077221 -0.012096997
000180 57 65 8e bc f2 28 b5 3c 84 5b 0a bc 5a e8 2a bd
       -0.017382307 0.02211425 -0.008444671 -0.041725494
000190 ac 75 7c 3d 11 d1 6e bd 52 ea c3 3d f4 8e bf 3c
       0.06163566 -0.05830485 0.095661774 0.023383595
0001a0 89 b0 0c bd 1b fe 72 bc 9e c0 48 3d 6b fa 61 be
       -0.034348045 -0.014831091 0.04901182 -0.22068183
0001b0 ac c7 cf bc f5 45 48 bd bb 7a 13 3e 2f c4 0d bd
       -0.025363766 -0.04889484 0.14402287 -0.034610923
0001c0 90 8d 10 3e 4c a9 96 3d 85 1e f9 3c 7f 26 d1 bd
       0.14116502 0.073565096 0.03041006 -0.10212421
0001d0 4d 5d 7f bd 96 00 d8 3c 50 0e 03 be 66 ef f0 bc
       -0.062344838 0.026367467 -0.12798429 -0.02941103
0001e0 a7 e3 b3 b9 19 21 eb bd 5f bd 7d 3c e4 8b 52 3d
       -0.00034311155 -0.11480922 0.015487044 0.05140294
0001f0 bd ab e3 3d 1b 17 6d bd 5f b5 c7 3d 13 02 fa 3c
       0.11116741 -0.057883363 0.09751391 0.030518567
000200 92 95 b8 bd 16 43 dc bd 30 8f 8b 3c 73 44 4f bd
       -0.09012903 -0.10754983 0.01703605 -0.050602388
000210 16 a9 f7 bd 14 30 e8 3d 27 70 aa bc 90 71 e6 3d
       -0.120927975 0.11337295 -0.020805432 0.11252129
000220 e9 93 51 3d 5f 8c 18 3e d0 7d 28 3d d5 7a 9b 3d
       0.05116645 0.14897297 0.04113561 0.07591788
000230 bd 83 ce 3d 0c 2d ab 3d 96 c9 13 bd ed 91 0e be
       0.10083721 0.083582014 -0.03608092 -0.13922854
000240 01 fa ec bc e4 af d7 3c 8f b3 2e bc 6c db 21 be
       -0.028927805 0.026328988 -0.010662927 -0.15806359
000250 64 ee 63 be a0 4a d7 bc 2d a2 31 3d 14 73 57 3e
       -0.22258908 -0.026280701 0.043367554 0.21039993
000260 3e 62 00 bd 3f 77 0c 3d 91 71 19 3e 65 68 af 3c
       -0.03134369 0.03429341 0.14984728 0.021412084
000270 1a fd 16 bd 62 22 d0 bd 05 d2 fd bc 70 40 83 3d
       -0.03686247 -0.10162808 -0.030983934 0.06408775
000280 2f 7c c8 bc c5 89 1c bd 7c 5c 17 bd 76 00 81 bd
       -0.024473278 -0.038217325 -0.036953434 -0.06298916
000290 4f 7a 04 3e cb 85 38 bd b9 8b da 3d 81 8e 07 3d
       0.12937282 -0.04504947 0.10671181 0.033094887
0002a0 8b 22 8a 3b d7 2f 39 be a9 c9 e4 bc 24 e2 dc 3c
       0.0042155436 -0.18084656 -0.02792819 0.026963301
0002b0 0e d0 ab 3c 1f d4 b5 3d f2 3e c0 3d cd 9c b5 bd
       0.020973232 0.088783495 0.09387006 -0.08867798
0002c0 d2 a5 87 3d 7d 6c 3b 3b 87 ff f0 3c 87 e6 6b bd
       0.066234246 0.00285986 0.02941872 -0.057592895
0002d0 1e 15 a1 3c a5 54 89 3a 49 b5 82 bc 7a aa c5 3d
       0.01966339 0.0010477497 -0.015955584 0.096516564
0002e0 6e 3c f9 3d 5a 53 fb bd ae 03 a6 bb 39 f7 88 bb
       0.12169729 -0.122717574 -0.0050663566 -0.004179862
0002f0 93 c4 40 3d d6 2e aa bd 4e 20 73 3d b8 f6 c3 bd
       0.047062468 -0.083097145 0.05935698 -0.09568542
000300 dd ae 93 3d f7 2f cb 3b 5b 15 fe 3d 94 31 0b bd
       0.07211087 0.006200786 0.12406417 -0.03398283
000310 7a d1 8d 3d 70 ab 66 3d aa 0a 3c bd 82 88 30 be
       0.0692472 0.05631584 -0.045908608 -0.17239574
000320 c7 5a 97 bd 66 9f c7 3d fc c5 d6 bb 1a d2 56 3d
       -0.07390361 0.097472 -0.0065543633 0.052446462
000330 69 c7 3e 3e 3f 5e 1a 3c c7 7f aa bd df c0 80 bc
       0.18630756 0.009421884 -0.08325153 -0.015716968
000340 81 4f a7 3c b9 1f e9 bd 42 c7 e1 bd 52 63 c5 3d
       0.020423653 -0.11383004 -0.110243335 0.096380845
000350 df 65 2d be 5e 0b 85 bd fa 2b 88 bc 13 03 1c 3d
       -0.16933392 -0.06496309 -0.016622532 0.03808887
000360 a2 a7 22 3e 21 37 2e bd 72 5c 74 bd 35 8b a5 3d
       0.1588426 -0.042533044 -0.059658475 0.08083192
000370 04 48 86 bd fa 98 56 3c 4b 35 a5 bc c5 d0 8c 3d
       -0.06556705 0.013097996 -0.020167014 0.06875757
000380 8e 78 3f 3d 2d fa 1d 3d e0 6e 19 bd 9f 98 0d bd
       0.04674583 0.038568664 -0.037459254 -0.03456938
000390 21 0d f8 3c 9e 7a bf 3d 21 9c 08 3e d6 30 98 3d
       0.030279698 0.09349559 0.13340808 0.0743119
0003a0 0f fc 5b 37 64 d2 84 bd 33 e3 9d bc 8f 14 f2 3d
       1.3112104e-05 -0.06485441 -0.019273376 0.118203275
0003b0 b4 67 10 3e f4 5e 10 3d 54 38 c3 3d 7e e3 bf 3a
       0.1410206 0.035246804 0.09532228 0.0014639942
0003c0 13 d5 2e be 8f d8 b9 3d 85 5b 03 be c5 e5 8c bd
       -0.17073469 0.090745084 -0.1282788 -0.068797626
0003d0 41 f3 b1 3e b9 81 bb bd 41 71 2c 3c 9b be 3e bd
       0.347559 -0.09155602 0.010525049 -0.046568494
0003e0 29 3a 2a 3e de 69 26 3e 39 e8 03 bd 1d 1d 05 bd
       0.16623749 0.16251323 -0.032203887 -0.032498468
0003f0 1c 2f 90 bd 6b d0 1c bd 64 e5 14 3e d6 1b 9b 3d
       -0.070402354 -0.0382847 0.1454063 0.07573669

network_body._body_endoder.seq_layers.2.bias f4 [128]
000000 5c f4 f0 3c 76 bd 6a 3c 35 63 f8 39 5c 3d 8b 3c
       0.029413395 0.014327398 0.0004737616 0.016997032
000010 73 e1 b6 bb 69 8c 9b bb 43 4b ea 3c 2a 29 8b bc
       -0.005581075 -0.004746963 0.02860034 -0.016987402
000020 8d 1d 98 bc 1e a5 c4 bb a8 d8 a1 bc bd c2 37 bc
       -0.018568778 -0.006001129 -0.01975663 -0.011215863
000030 a9 a9 12 bb 6c 36 2c bb b7 14 8f 3c 4a b5 97 3c
       -0.0022378957 -0.0026277555 0.017465932 0.018519063
000040 bc 2c 01 3c 02 10 4f b9 ed eb 00 3c ad 31 c2 3c
       0.007884201 -0.00019747022 0.007868749 0.023705328
000050 ee 9d 2d bc 5e a9 86 3a 7a e9 c6 bb 0c e4 26 bc
       -0.010596735 0.0010273864 -0.006070313 -0.010186207
000060 d7 c1 02 bc aa b8 40 3c db d7 63 bc 8c bc a8 bc
       -0.007980785 0.011762777 -0.013906444 -0.020597719
000070 5c 28 85 bc 95 b2 ea 3c 07 08 00 bc f1 64 8f 3c
       -0.016254596 0.028649608 -0.007814414 0.017504187
000080 bf cd d8 bb 8e 7c cd bc 05 f0 a3 bc 08 21 6f bb
       -0.0066163237 -0.025083806 -0.020011911 -0.0036488194
000090 09 12 a4 bb 4b 8c 53 bc 03 14 53 3c 0b 7d 41 bc
       -0.005007033 -0.012911866 0.012883189 -0.011809598
0000a0 ff 63 8e bc 85 c6 42 bb 9d 4a a3 3c eb 1d 94 3b
       -0.017381666 -0.0029720378 0.01993304 0.004520168
0000b0 bc 3c d6 bc f5 2f b0 3b 6e 9c 88 3c c9 e4 e4 3b
       -0.026152007 0.0053768107 0.016676154 0.006985281
0000c0 4a 38 69 bc 33 58 2d bc de ca 6b bc 8c 42 66 bc
       -0.014234612 -0.01058011 -0.014391629 -0.014053952
0000d0 9b 69 85 bb 9d b0 dc 3c 85 bf 0e bb 5d 6c 97 b9
       -0.004071427 0.026939685 -0.0021781635 -0.000288817
0000e0 03 fe 26 bb 02 50 92 3a 15 78 96 bc 26 4c be bb
       -0.0025480993 0.001116276 -0.018367806 -0.0058074174
0000f0 32 3c 5a bc e2 41 13 bb fd 65 1c bc df 96 9d 3a
       -0.013320016 -0.002246969 -0.0095458 0.0012023113
000100 cd cf b9 ba 97 27 49 3c ef 01 b2 bb 3b 01 dc bc
       -0.0014176309 0.012277505 -0.0054323594 -0.026856055
000110 fb f6 45 bc 52 f6 59 3b 0e 28 c2 3c df 62 7a 3c
       -0.0120828105 0.003325839 0.02370074 0.015282362
000120 0d 91 f1 3c 05 e6 8a bb 1e c3 fc 3b 29 b2 53 bc
       0.02948811 -0.0042388462 0.0077136895 -0.012920895
000130 85 6f cf ba ba 0f 9d bb ec 21 4d 3c 0c e4 60 bc
       -0.0015826082 -0.0047931345 0.012520295 -0.013726246
000140 46 9f 5d 3c 0b ce 7e ba 44 06 1f bc 27 a5 0a ba
       0.013526743 -0.0009720034 -0.009706084 -0.0005288892
000150 34 f4 67 bc fe fe 26 bc 59 cc 38 3c 58 d8 87 3c
       -0.014157344 -0.010192631 0.011279189 0.016582653
000160 02 8d 71 bc 58 16 06 3c 5f bf 12 bb 50 01 bf 3b
       -0.014743092 0.008184038 -0.0022391898 0.005829014
000170 e8 f4 70 3c ea ab c3 bb c6 05 90 ba cb 8d f5 3b
       0.014706828 -0.0059714215 -0.0010988049 0.0074937097
000180 16 4c 07 3d 34 2e b0 ba 7d 11 a4 3b 9f ae 8d bc
       0.033031546 -0.0013441504 0.0050069676 -0.01729518
000190 cb c4 90 bc a9 0a 20 bc ed f2 e0 3b ab e4 39 3c
       -0.017671963 -0.009768167 0.0068648965 0.011346023
0001a0 46 7c 44 bc dc ca 08 3d 33 01 f3 ba b8 26 9e 3c
       -0.01199252 0.033396587 -0.0018539786 0.019305572
0001b0 75 ed 24 3c 5e 7b d4 3b 92 f7 46 3c da a3 48 bb
       0.01006638 0.006484433 0.012143986 -0.0030615241
0001c0 c5 d8 52 3c 68 c1 7a 3c 09 e0 03 3c 71 48 65 bb
       0.012869065 0.015304901 0.00804902 -0.0034985805
0001d0 cb f5 d2 3b a2 8a 0f 3c eb 92 69 bc 88 ca 21 bc
       0.006437992 0.00876108 -0.014256219 -0.009874947
0001e0 a6 da a0 3c ca a6 f1 ba 9a ad 16 3c 7f 32 9d bc
       0.01963551 -0.0018436548 0.009196663 -0.019189117
0001f0 ef a8 c7 3b 20 e1 11 bb a2 c5 b7 3b bf 2e 53 bb
       0.0060931365 -0.002225943 0.0056082765 -0.0032223908

action_model._discrete_distribution.branches.0.weight f4 [2, 128]
000000 ee 4b b4 3c 20 f4 5b 3b 15 5f 86 bc 9f 2e b0 3c
       0.022008862 0.0033562258 -0.01640276 0.021506606
000010 47 66 1f 3a 88 14 1e bd 89 a7 59 bc 40 70 34 bb
       0.0006080609 -0.0385938 -0.013284572 -0.0027532727
000020 b1 ec 1d bd b1 8f 43 bc 7c c1 f5 bc 59 db 36 bb
       -0.038555805 -0.011936114 -0.029999487 -0.0027901737
000030 21 5e 31 bb ea 6a 5f 3b d8 d0 bb 3c 64 f7 fd 3c
       -0.0027064162 0.0034090825 0.022926733 0.031001754
000040 61 a5 61 bc 24 bb 22 bc 47 cb 88 3b 2d a8 b4 bb
       -0.01377234 -0.009932313 0.004174623 -0.005513212
000050 73 9c 16 bc fd dc ef 3c 03 d6 65 3c 25 d3 02 bc
       -0.009192574 0.02928018 0.014028075 -0.007984911
000060 0b 8c 93 bc a2 8f 92 bb 70 94 60 bc 8e 52 7f bc
       -0.018011114 -0.004472689 -0.013707265 -0.015583647
000070 bd 61 ef 3a 35 7d e7 3c d7 91 85 bc c5 96 c0 3c
       0.0018263381 0.028257946 -0.016304893 0.023509393
000080 53 46 c1 bb b2 4b 8f bc 8a 0d 60 bc 34 b1 9e 3b
       -0.005898276 -0.017492149 -0.013675103 0.0048429016
000090 2e 12 8f 3b 88 52 ac bc 43 6d 70 bb c6 5b 10 bd
       0.004366181 -0.021035448 -0.0036686219 -0.035243772
0000a0 c0 42 9c bc 79 05 02 bd 02 dd a5 3c 79 49 96 bb
       -0.019074798 -0.0317435 0.020246986 -0.0045863953
0000b0 40 b6 9d bc 91 e9 66 3c 76 c5 1b 3c 8b 57 a5 3c
       -0.019251943 0.0140937725 0.009507528 0.020183345
0000c0 5d ea ce 3c dd 1f d6 bc b4 22 31 bd 0e 1f 85 bc
       0.025258237 -0.02613824 -0.043245986 -0.01625016
0000d0 9b 3f 77 3c be 30 ed 3c a0 23 fc 3b c6 9b 0b bc
       0.015090848 0.028953906 0.0076946765 -0.008521026
0000e0 96 e1 45 3c 10 29 03 bd 82 70 ac bb 22 12 bd 3b
       0.01207771 -0.032021582 -0.0052624354 0.005769984
0000f0 c9 e7 82 ba 25 b1 50 3b c2 30 56 bc 4d 74 03 bc
       -0.000998729 0.0031843868 -0.013073148 -0.008023334
000100 fe 3f 2c bd fd 7e 85 bb 68 37 17 ba ec ad 44 ba
       -0.042053215 -0.004073976 -0.0005768449 -0.0007502723
000110 70 48 05 bc c6 8e 00 3c 38 04 ac 3c cb cb 73 bb
       -0.008134946 0.00784654 0.020998105 -0.0037200327
000120 b1 3f 11 3d a0 f5 97 bc f1 28 bf 3c bf ac 16 3b
       0.03546113 -0.01854974 0.023334952 0.0022991148
000130 40 91 4a 3c f3 25 3d bc d0 17 cb 3b 4f fe 5e 3b
       0.012363732 -0.011544692 0.006197907 0.0034026091
000140 ac 90 a4 3b d1 9a af bc 7a fe 95 3c 98 a0 af bc
       0.005022129 -0.021436127 0.01830982 -0.021438882
000150 8a 01 b9 bb 2b 48 c7 bb 6c d4 15 bb aa 24 8f ba
       -0.0056459354 -0.006081601 -0.002286221 -0.0010920961
000160 20 b2 61 bc 91 bc a1 3b 5d 71 56 3c 4c 3a 1a bc
       -0.013775378 0.004935809 0.013088551 -0.009413313
000170 10 7c 1b bd fe 3c ca 3b 88 33 f7 bb 94 4e a1 3c
       -0.037960112 0.0061718216 -0.007543985 0.01969079
000180 85 42 00 3d a8 e4 0e 3c 5f f2 37 3c 18 46 a3 bc
       0.031313438 0.008721508 0.011227219 -0.019930884
000190 dd 49 a7 bc 16 b4 03 bc 85 5d 6a 3c ba 22 9b 3c
       -0.020420963 -0.008038541 0.014304523 0.018937457
0001a0 af d3 51 bc c8 12 11 3d e8 a0 af 3b 17 c8 ec 3c
       -0.012806817 0.0354183 0.0053597577 0.028904004
0001b0 b9 de 91 3b 2a c0 ae bc 86 5d aa 3c d6 8d a9 3c
       0.0044515994 -0.021331865 0.020796549 0.020697515
0001c0 db 7d 53 bb 91 7b c0 3c 6b 8f 80 3c 5d d8 49 bb
       -0.003227106 0.023496421 0.015693387 -0.0030799129
0001d0 24 ed bc bb 9a 9d 9c 3a e8 fd 98 3b 56 20 95 3b
       -0.005765574 0.0011948824 0.00466894 0.004550974
0001e0 b6 67 25 3d ef d9 fd bb 50 26 10 ba 00 7c a6 b9
       0.04038211 -0.007746927 -0.0005498873 -0.00031754375
0001f0 c9 41 0d 3b a9 a9 8b 3c a7 c7 66 3c b7 9a 97 bc
       0.0021554104 0.017048674 0.014085687 -0.018506391
000200 be df f8 bc 2d a1 8d bc 37 f9 49 bc 1e ce 23 bc
       -0.030380126 -0.017288769 -0.012327484 -0.009997873
000210 c9 c9 a8 3c 99 27 5c 3d 49 6d b0 3b 10 07 00 bd
       0.020604031 0.0537487 0.0053841216 -0.031256735
000220 ee 71 d2 3c 8c 2a f1 3b 07 b0 fe 3c cb d0 b3 bb
       0.025689092 0.0073598083 0.031089796 -0.0054875365
000230 af b3 9b bb 5d 55 df bc fe 3a 6f bc 40 e7 8b bb
       -0.0047516446 -0.027262384 -0.014601467 -0.0042695105
000240 11 1a d7 3b 82 ab ab 3c 4b d6 c9 ba 96 f3 20 3c
       0.0065643867 0.020955805 -0.0015398947 0.0098237
000250 fe 5a b6 ba 4e df 81 bc 46 cc 81 bc ee 47 b7 3c
       -0.0013912616 -0.01585355 -0.015844475 0.022373166
000260 40 22 95 3c b5 ae 2c bb 4c e8 1d 3c 8f 66 c7 bb
       0.018204808 -0.002634925 0.009637903 -0.006085224
000270 d7 78 b6 bb 3d 9f 02 bd 67 c1 e8 3a 38 63 0e bd
       -0.0055686045 -0.031890143 0.0017757834 -0.03476259
000280 4b c6 f0 bb 2b 79 74 3c 2b 9c 81 3c 9f 2b 8a bc
       -0.007347857 0.014921467 0.015821537 -0.016866503
000290 bf ec 82 bc 7b 50 aa 3c 35 d7 89 bb ab 72 43 3d
       -0.01598203 0.02079033 -0.004206563 0.047716778
0002a0 f6 5a 91 3c 0a 0c 6a 3c eb 87 79 bc ef ef 58 3c
       0.017743569 0.014285097 -0.015230159 0.013240798
0002b0 4b 39 4b 3c 63 2c 57 bb 59 88 38 3c 54 90 d3 bc
       0.012403796 -0.0032832853 0.011262977 -0.025825657
0002c0 65 17 77 bc ee 63 a9 3c 57 61 17 3d 21 ab cd 3c
       -0.015081261 0.020677533 0.036958065 0.025106015
0002d0 59 2e 95 bc 7f e5 ee bc 18 1d 89 ba 04 f9 60 bc
       -0.018210577 -0.029162167 -0.0010460941 -0.013731245
0002e0 9a ac 83 bb 5a 81 a7 3c b9 91 20 3a 6a 92 74 bc
       -0.0040183784 0.020447422 0.000612523 -0.014927486
0002f0 fc 98 bf 3b 81 ae 6c ba 10 8d 11 3d f0 03 2e 3b
       0.0058470946 -0.00090286887 0.03553492 0.002655264
000300 06 6f bb 3c bf 9c 61 3c 88 2d eb b9 e9 5d a5 bc
       0.022880089 0.013770281 -0.00044856616 -0.020186381
000310 66 4b 2f 3c d9 21 e9 bc 2a 24 9e bc e8 88 2c bc
       0.010699129 -0.028458523 -0.019304354 -0.010530688
000320 e4 fd c5 bc ac 86 6b bb 44 a7 b5 3a 19 1d 97 3b
       -0.024168916 -0.0035938425 0.0013859053 0.004611623
000330 43 dc bd bc 27 05 29 3b 59 29 b7 bc 92 82 c4 bb
       -0.023176318 0.0025790425 -0.022358583 -0.0059970105
000340 1e 74 a4 ba b4 1b 5d b8 e2 0f 5a bc 74 f5 8c 3c
       -0.0012546813 -5.2716307e-05 -0.013309451 0.017206885
000350 47 e0 30 3c 37 34 3b bb c8 94 83 38 21 5e 99 bc
       0.010795659 -0.0028565058 6.2742794e-05 -0.018721642
000360 71 5e 34 3d ac e8 6e bc ff 2f 9a bc 92 71 e4 bb
       0.04403538 -0.0145818405 -0.018821714 -0.0069715464
000370 90 3a 94 3c f2 76 0e bc 8f a7 8f 3c 27 ef 12 bc
       0.018094331 -0.008695351 0.017535953 -0.008968151
000380 7a 0e e8 bc 60 ba e0 ba e9 07 ad bb d6 af a3 3c
       -0.028327215 -0.0017145388 -0.005280484 0.019981306
000390 ee 57 49 3c 22 41 51 3c 87 83 e9 bc 76 4d ba bc
       0.0122890305 0.0127718765 -0.0285051 -0.022742014
0003a0 ce 6c 26 3c aa 49 1e bd 5e 2a b9 ba d8 1b 0d bd
       0.010157777 -0.03864447 -0.0014127006 -0.034450382
0003b0 1f 1f 1a bc 93 2c a7 3c af 8d a2 bc 1b 98 5b bc
       -0.009406834 0.020406997 -0.01984295 -0.013402964
0003c0 33 a6 4a 3b 28 6e ee bc 34 cb 81 bc ba e4 24 3c
       0.0030921816 -0.029105261 -0.015843965 0.010064298
0003d0 5e 48 25 bc 9a c3 95 bb a9 16 52 3c 0f ff 83 bb
       -0.010088054 -0.0045704367 0.012822785 -0.004028208
0003e0 b4 4a 17 bd cb a7 ee 3c e0 a5 c2 bc 9b c5 4e 3c
       -0.036936477 0.029132744 -0.023760736 0.012620355
0003f0 2e 95 00 bc 7c 82 55 bc 4c da a6 bc aa dd af 3c
       -0.007848067 -0.013031598 -0.020367764 0.021468002

action_model._discrete_distribution.branches.0.bias f4 [2]
000000 7e 65 6d 3c 87 65 6d bc
       0.01448953 -0.014489538

action_model._discrete_distribution.branches.1.weight f4 [3, 128]
000000 2f 5c 95 bc e1 52 3b bd 7a 81 b4 bc 5f 56 43 bc
       -0.018232433 -0.045733336 -0.022034395 -0.011922448
000010 1e 6e 70 3c 42 17 80 bc 8e 67 4e bd 0f ec a0 3b
       0.0146746915 -0.01563609 -0.050391726 0.004910953
000020 19 94 e7 3b 19 5d 75 bc 3b 45 8d bb 24 25 f9 3c
       0.007067215 -0.0149758095 -0.0043112314 0.030413218
000030 b1 fc 1a 3c 3b b6 23 3d 14 0d e0 bb dc 2d 98 bc
       0.00945966 0.03996871 -0.0068374965 -0.018576555
000040 62 6f 03 bd cb 6f 74 3d d1 cc 89 bc 41 fe 03 bd
       -0.032088645 0.059676927 -0.016821297 -0.032224897
000050 af d0 19 3d c8 c9 bd bb f6 75 21 3d 70 5e 43 bc
       0.03755253 -0.0057918765 0.039419137 -0.011924371
000060 61 d0 38 3d 35 09 98 bc 1a 87 3a bc a0 71 88 bb
       0.0451206 -0.018559078 -0.01138475 -0.004163936
000070 0d ea f8 3c 35 3b 2a bc 78 d3 35 3c 77 97 4f bc
       0.030385042 -0.010390093 0.011097781 -0.012670389
000080 ce 93 1c 3d e9 8e d9 3c 31 91 f1 3c b6 c3 0a 3c
       0.038226895 0.026557403 0.029488178 0.008469513
000090 aa 96 92 3c fc 84 27 3c e0 07 0b bc c9 e3 25 3c
       0.017894108 0.010224577 -0.008485764 0.010125109
0000a0 02 e0 06 3d 1b c2 1c bc 16 14 ca 3b ae 00 ad bc
       0.032928474 -0.009567763 0.006166945 -0.021118488
0000b0 c7 5a 89 3b f3 80 15 bc d2 54 57 bd 62 44 3f 3c
       0.0041917297 -0.009124982 -0.052571125 0.011674019
0000c0 33 b1 0c 3c 4d 53 9e 3b b6 d9 08 3c d1 62 3a bb
       0.008587169 0.0048317076 0.008352688 -0.0028440247
0000d0 0f 74 25 3d b0 52 2a bc b9 26 38 3b 45 80 30 3d
       0.040393885 -0.010395691 0.0028099252 0.043091077
0000e0 be 1b 39 3c 11 57 a5 bc 61 c7 95 3c b8 b5 e0 3a
       0.011298118 -0.020183118 0.018283548 0.0017144
0000f0 97 95 97 bc 06 d7 31 ba 02 4b 8f 3c 62 c5 f6 bb
       -0.018503947 -0.0006784055 0.017491821 -0.007530854
000100 dd 82 c7 3c 31 e5 98 bc a8 92 42 bb 65 ba ce 3c
       0.024354393 -0.018663974 -0.0029689465 0.025235364
000110 f0 1d 96 3c c0 57 b4 3b 0a 51 49 bc 2f ca 61 bc
       0.018324822 0.0055036247 -0.012287388 -0.0137811145
000120 12 f0 87 bc 06 be 81 3c 25 c4 1e 3c cf 2e 19 3d
       -0.016593967 0.01583768 0.009690319 0.037398156
000130 bc a9 ba 3c 3a 82 14 bb 64 e8 aa bc 02 20 7b 3c
       0.022786014 -0.002266063 -0.020862766 0.0153274555
000140 32 45 d4 bc 9b 97 ca bb 7f a2 0e 3d 16 a7 9a bc
       -0.025911901 -0.0061826236 0.034822937 -0.0188785
000150 2a f6 93 3a ae b5 5a 3c a4 fd 17 3a 77 ea 0f bc
       0.0011288573 0.01334898 0.0005797988 -0.008783928
000160 7b e2 22 3d 98 2d bb 3b e1 4a c9 3c 3c a9 21 bb
       0.03976677 0.0057122223 0.024571838 -0.0024667522
000170 fc 34 36 bd ac 5b 86 bc e2 ea 58 bc 8c aa 0b bc
       -0.044484124 -0.016401134 -0.013239594 -0.008524548
000180 60 c7 06 bc 35 88 1b bc 64 f5 84 bc 95 9b f8 3c
       -0.008226246 -0.0094929235 -0.016230293 0.030347625
000190 90 22 02 3c 07 29 7f bc fc 51 27 3d d2 ff e8 bb
       0.007942811 -0.0155737465 0.04084967 -0.0071105743
0001a0 bc 93 40 3c bd 71 d3 bc f1 e3 cb 39 95 52 06 3c
       0.011753973 -0.02581107 0.00038889007 0.0081984
0001b0 72 6c 51 bb 2c ad f8 bc a6 2d 90 bc 59 d3 e3 3c
       -0.0031955508 -0.030356012 -0.017599892 0.02781074
0001c0 b7 79 5c bb 1b 44 c3 3b bf 24 41 bc 7a 6f e2 bb
       -0.0033641884 0.0059590465 -0.011788546 -0.0069102617
0001d0 28 9f ca 3c d7 1f 65 bc 1f 2a d5 3b fe 6b 28 3d
       0.024734095 -0.013984642 0.0065052654 0.041118614
0001e0 9b 55 cc 3c 74 13 92 bc 7e 70 c8 bc 38 ed ad bb
       0.024943164 -0.017831542 -0.024467703 -0.0053078197
0001f0 59 2c 24 bc 2f 66 14 3d d9 c8 5d bc 60 86 25 bc
       -0.010020339 0.036230262 -0.013536655 -0.010102838
000200 fc 0c 11 3b 7e c4 07 bd b0 b1 ce ba 93 30 d9 bc
       0.0022132983 -0.033146374 -0.0015769508 -0.02651242
000210 ae 96 02 3d fd db 9a bc 7c 0b 31 3d e7 61 4c 3a
       0.03188198 -0.018903727 0.043223843 0.0007796571
000220 76 dc 85 3c ef 2b 54 bc bd e0 d1 39 a2 15 2d bd
       0.016340476 -0.012949928 0.0004003103 -0.04225696
000230 98 4e 86 3c 18 dd c5 bb 4f 0b 0b 3d b7 85 ed 3c
       0.016394898 -0.0060383193 0.03394633 0.028994424
000240 43 0d 6f 3b f9 be 25 bd 00 0f 7b 3b 81 46 95 3b
       0.003647641 -0.04046533 0.0038308501 0.004555524
000250 5c ba aa 3b 1e 54 4b bc ce 16 3b bd 2f 1c 27 bc
       0.005210204 -0.012410192 -0.045676045 -0.010199591
000260 76 d2 6b bc ed 26 e3 3c ca 4d 00 bc 59 13 c0 bb
       -0.0143934395 0.027728522 -0.007831046 -0.0058616814
000270 d7 af e5 bc 3c 15 44 3d 72 78 04 bd 54 95 e8 bb
       -0.028037949 0.047871813 -0.032341428 -0.0070978794
000280 c9 f9 4e bd 39 1a d9 bb 3f f4 82 bc d0 47 3a bc
       -0.050531182 -0.0066254404 -0.015985606 -0.0113696605
000290 40 be 37 3c 27 1f e7 bc 99 31 bc 3c 52 17 15 3c
       0.011214793 -0.028213097 0.022972869 0.009099798
0002a0 ed b9 11 bd b6 73 a8 bc f3 1f 0a 3d 42 b6 2c bd
       -0.035577703 -0.020562988 0.033721875 -0.042166002
0002b0 9f 33 06 bd 18 51 c0 3c 1a d0 13 bc 57 dd 65 bc
       -0.032764073 0.023476169 -0.009021783 -0.014029822
0002c0 88 37 e1 bb bd 12 22 3d 43 11 2e bc bc cd 4d 3b
       -0.006873075 0.03956865 -0.010624233 0.0031403145
0002d0 d3 d1 f1 bc 1a ff e1 3a 2b d5 20 bd f6 2d d1 bc
       -0.029518997 0.0017242164 -0.039265793 -0.025534611
0002e0 41 b3 09 3d 42 5b a6 ba ef e8 95 bc 8f a9 ca ba
       0.033618215 -0.0012691992 -0.018299548 -0.0015461909
0002f0 77 c7 7d bb d2 52 00 bc 94 02 6d 3c 07 ad 8b 3c
       -0.0038723627 -0.007832246 0.014465947 0.01705028
000300 cf 25 19 bd 27 1e c6 bb bc 61 94 bc 9a da 12 bc
       -0.037389573 -0.006046075 -0.01811301 -0.0089632515
000310 5a 42 69 bc 7e 6d 88 bc 0f fb 0a 3d 86 99 9f ba
       -0.014237011 -0.016653772 0.033930834 -0.0012176491
000320 98 51 91 3b 24 9b 49 3c f8 e9 c8 bb e7 fb fe bb
       0.0044347756 0.012305055 -0.006131407 -0.007781494
000330 35 1d 3b bd c3 0e 22 3a 0d e0 c7 bb aa fb 12 bc
       -0.04568215 0.0006182009 -0.006099707 -0.008971134
000340 a5 c3 46 3d 3c b1 29 3c a1 64 74 bc 4a 42 bf 3c
       0.048526425 0.010357197 -0.01491657 0.023347039
000350 d0 0d 4a bc b1 ff 24 bd 53 62 14 3d 34 e4 2a 3d
       -0.012332395 -0.04028291 0.03622658 0.041721538
000360 c2 ae 9c bc 00 da 0c bd 1c 2a 15 bc f7 12 cb bc
       -0.0191263 -0.03438759 -0.009104278 -0.024789317
000370 26 e9 f2 3c a0 95 8c bb e9 a9 15 3c 13 ea 7f 3c
       0.02965219 -0.0042902976 0.009134748 0.0156197725
000380 90 6f 66 bb 88 25 84 3c 93 f4 1c 3c 1d 25 92 bc
       -0.0035161711 0.016131178 0.009579795 -0.017839963
000390 f9 2c f5 ba e5 c7 f0 3b f6 49 89 bc 16 7f d4 3c
       -0.001870542 0.007348048 -0.0167589 0.025939506
0003a0 e1 97 69 3c 26 d7 03 bc 9c 36 f9 3c b5 75 bc bb
       0.014257402 -0.008046901 0.030421548 -0.0057513365
0003b0 1c 11 39 3c 1d 26 1d 3b 55 36 82 bc 7a bc 77 3c
       0.011295583 0.0023979016 -0.015895048 0.01512062
0003c0 e6 b9 f1 3b 4c 98 fd 3c 3c b5 85 bc 8d a7 8d 3b
       0.007376897 0.03095641 -0.01632177 0.004322952
0003d0 33 17 03 3d 01 98 09 3d 6d eb 80 bc 0a dc b3 bc
       0.032004546 0.033592228 -0.01573726 -0.021955509
0003e0 b0 a6 b1 bc ca 5c 0d 3c 5b 46 7f bb f1 87 96 ba
       -0.021685928 0.00862808 -0.0038951847 -0.0011484605
0003f0 45 c4 4b bc 78 86 03 bc 2d fb d6 3b 06 50 7a 3c
       -0.012436931 -0.008027665 0.006560704 0.015277868

action_model._discrete_distribution.branches.1.bias f4 [3]
000000 a3 b2 9e bc 31 59 25 3c cc d6 10 3c
       -0.01937229 0.010092066 0.008840274

action_model._discrete_distribution.branches.2.weight f4 [1, 128]
000000 48 09 d0 3b 7b 05 51 bc d2 5d 1c 3c e7 c3 00 3b
       0.0063487627 -0.012757654 0.009543853 0.0019648017
000010 c9 28 3c bc ff 4c aa 3c 06 b2 84 3c 36 d7 9e ba
       -0.011484333 0.020788668 0.01619817 -0.0012118581
000020 92 c1 88 3a 91 bd 87 3c 35 6c 0e bc 17 e7 80 3a
       0.0010433665 0.016569884 -0.008692791 0.0009834495
000030 0f 91 a7 bb 07 04 2d bc 8c be 07 3c 47 95 af 3b
       -0.005113728 -0.010560042 0.008285176 0.0053583714
000040 4c 87 bf 3b 61 90 07 ba b8 20 17 bc 03 e9 42 bc
       0.005844986 -0.00051713554 -0.009224109 -0.011896375
000050 25 43 1a 3c 97 16 01 bc 2a 8c 74 bb 83 1c 36 3a
       0.009415423 -0.007878921 -0.003731499 0.00069469976
000060 b7 bc aa bb 4d cb 6f 3b 11 11 4b 3c ea 71 ed 3a
       -0.005210485 0.0036589683 0.012394206 0.0018115614
000070 03 f5 0d bb 0f 2c 35 bc 59 34 9f ba 65 b0 88 bc
       -0.002166093 -0.011057868 -0.0012146338 -0.016685674
000080 54 be 09 bc 10 76 ce 3a ef 45 a2 bb 35 e2 e0 3b
       -0.008407194 0.0015751738 -0.0049521844 0.0068629035
000090 ab 21 67 3c b4 f4 13 3b 82 d1 5d bb e8 43 4f 3b
       0.014107148 0.0022576274 -0.00338468 0.0031626169
0000a0 62 1f fb 3b f9 d1 42 3c b9 01 22 bc 27 e3 7a bc
       0.007663653 0.011890882 -0.009888106 -0.015312946
0000b0 da 4a 7d bb 0c a7 0e 3b 4a 74 bf bb bf ff d5 bb
       -0.0038649351 0.0021767048 -0.00584272 -0.0065307315
0000c0 81 35 c2 3b 1e 3f 2d bc 84 3b 9f 3b 1a bd 65 3c
       0.0059267883 -0.01057413 0.0048593897 0.014022136
0000d0 fd f8 cf 3b a1 a3 35 bc 3b b4 96 bb f7 dd 8a bb
       0.0063468204 -0.011086375 -0.004599122 -0.004237886
0000e0 df 77 27 3c 83 41 fe bb 83 0b 54 bb eb cb a5 bb
       0.010221451 -0.0077592744 -0.0032355494 -0.0050597093
0000f0 e0 4f 4a bb fb 33 44 bb 0d 60 ef bb 92 33 96 3b
       -0.0030870363 -0.002993821 -0.0073051513 0.0045837844
000100 6d 55 0b 3a a8 66 8e bc 87 68 9e 3c 85 01 42 3c
       0.00053151586 -0.017382935 0.019336952 0.011841183
000110 26 9b 96 bb bc d6 b6 bb 5a 78 d2 3b e8 e3 dc bb
       -0.004596132 -0.0055797976 0.0064230384 -0.0067410357
000120 95 9c 18 3c 1f cf 48 bb ed 2e cf bb aa 10 a7 bb
       0.009314676 -0.0030641032 -0.0063227327 -0.005098422
000130 ff e9 b2 bb ec 05 20 3c af 8c 06 b9 d2 7c 80 bb
       -0.0054600234 0.009767037 -0.00012831645 -0.0039211297
000140 86 6e 43 3c f8 57 5b 3b fd 85 ae 3c 37 26 7f bc
       0.011928206 0.0033469182 0.021304125 -0.015573076
000150 ac 82 80 3b e4 78 31 3b a5 9d 58 3a 27 96 8c bb
       0.0039218273 0.0027080113 0.0008263237 -0.0042903605
000160 d3 aa 1c bc 06 56 bc ba cf 10 11 3b d2 03 10 bc
       -0.009562212 -0.0014368899 0.0022135263 -0.008789973
000170 a2 b7 e2 ba 3d 97 5b 3b e8 9a d4 bb ba 78 aa bb
       -0.0017297158 0.0033506893 -0.006488193 -0.00520238
000180 af ec a1 3b d8 84 e1 39 af 6f a6 ba f6 28 16 3c
       0.004941545 0.0004301432 -0.0012698079 0.009165039
000190 02 d2 03 bc f2 2f 9e bc 85 6f 4f bc fb 5b 37 bb
       -0.008045675 -0.019309971 -0.012660866 -0.0027978409
0001a0 74 a5 36 bc f3 ed e9 3b 7b 5e 48 3b 93 0f 81 bb
       -0.011147846 0.0071389615 0.0030573893 -0.003938624
0001b0 62 44 4a 3b b7 57 aa bb e3 0f 41 3c 23 a9 ff bb
       0.0030863513 -0.0051984447 0.011783573 -0.007802145
0001c0 16 76 84 bb 67 ea 08 3b 73 c3 1d bc 3f f2 05 3c
       -0.0040423973 0.0020891668 -0.009629118 0.008175432
0001d0 e7 cc 43 bc 5c a3 15 3c cf b3 c6 3b 83 18 50 bc
       -0.011950708 0.009133186 0.0060639153 -0.012701157
0001e0 85 b7 11 3b e3 46 51 bb 45 64 89 3a 82 97 11 b8
       0.002223463 -0.003193312 0.0010482153 -3.4711797e-05
0001f0 e7 17 3c 3b 83 f8 13 bc 9c a5 bd bb cf 69 80 bc
       0.002870077 -0.009031418 -0.0057875644 -0.015675453
