Assets/ZooheimTest/Models/run3/LionBehavior.onnx (onnx, 186709 bytes, 14 tensors)

discrete_act_size_vector f4 [1, 3]
2.0 3.0 1.0
00000000: 0000 0040 0000 4040 0000 803f

network_body.observation_encoder.processors.0.normalizer.running_mean f4 [210]
0.26017398 0.2156873 0.021091128 0.009334867 0.006612896 0.007047074 0.003490139 0.004692482
0.0028889666 0.0029891622 0.003440041 0.003323146 0.0053103543 0.11375044 0.26334682 0.21059404
0.017016515 0.009919339 0.005126665 0.00718067 0.003941018 0.0049930704 0.0033565452 0.003924319
0.0047091814 0.0038742225 0.0050264676 0.11617104 0.25240883 0.20558423 0.017500792 0.008683597
0.008165922 0.007564751 0.004308401 0.0043918965 0.003974417 0.0040579117 0.0029724631 0.0030726579
0.0045588897 0.11743257 0.26202765 0.20416473 0.011438973 0.008049029 0.0042249057 0.0056610387
0.0026050794 0.0044586943 0.0029891618 0.003941019 0.004191506 0.0042416044 0.0053103557 0.12292873
0.24063593 0.19205782 0.015830869 0.0073309606 0.008399712 0.0065794983 0.0032730494 0.004742581
0.0045922883 0.0044753933 0.0027887712 0.0026718779 0.0050765653 0.12443933 0.24774982 0.18689777
0.0076315473 0.007898735 0.0029557638 0.0049596704 0.002855569 0.003991117 0.0036070335 0.0040412145
0.0043251007 0.004091312 0.0059449254 0.13281612 0.21645543 0.17834774 0.011990043 0.0068800836
0.0074812537 0.0055107446 0.0030893574 0.005043168 0.0045254915 0.0042750025 0.0021208024 0.0023545914
0.0055274446 0.13740775 0.21705659 0.1823389 0.0068800827 0.007431158 0.0026551774 0.0043918965
0.0032229512 0.0044419956 0.0042917025 0.0038575223 0.0034734393 0.004575589 0.0056944382 0.14165494
0.18270631 0.1726366 0.0067631872 0.006212112 0.0058614286 0.0044753947 0.003306448 0.0050264667
0.0049429727 0.004224906 0.0019538098 0.002521585 0.0065961964 0.15010844 0.17806388 0.1847102
0.005794631 0.0066128937 0.0023044934 0.0032396507 0.0032229514 0.0039577167 0.0042416058 0.004341801
0.0035402363 0.004876174 0.0066629946 0.15334642 0.14117526 0.1786818 0.005844731 0.004842777
0.0054105497 0.00455889 0.003556936 0.0053771515 0.005093266 0.0035235381 0.0020373065 0.0026217797
0.0065126996 0.16169295 0.13616554 0.19123964 0.0053938525 0.005777933 0.0022209978 0.0037406273
0.0036571315 0.0032563498 0.0037573264 0.004191507 0.0032730498 0.0050765644 0.007130572 0.16160147
0.105906524 0.18210512 0.0051934603 0.0048260787 0.004742583 0.004775979 0.004391896 0.004709184
0.004492093 0.0027887712 0.0018536143 0.0027553728 0.0074645556 0.16979884 0.11223555 0.19073865
0.006245513 0.006028422 0.0024547863 0.0033398457 0.003323147 0.0033064473 0.0035068388 0.0034066422
0.0037072296 0.004709183 0.0075647533 0.16638455 0.082377315 0.18036841 0.006880083 0.0043251007
0.0052936566 0.0046590855 0.00412471 0.0036237328 0.0043584984 0.0026551776 0.0014361342 0.0035903351
0.007831938 0.17707223
00000000: 8635 853e 22dd 5c3e 4dc7 ac3c 45f1 183c
00000010: feb0 d83b 24eb e63b d1ba 643b 64c3 993b
00000020: d154 3d3b d2e5 433b 5072 613b 23c9 593b
00000030: 7b02 ae3b fef5 e83d 65d5 863e f7a5 573e
00000040: 3866 8b3c b984 223c 95fd a73b d34b eb3b
00000050: a823 813b e99c a33b 7cf9 5b3b 9397 803b
00000060: 7a4f 9a3b abe6 7d3b 11b5 a43b 15eb ed3d
00000070: bb3b 813e ac84 523e d25d 8f3c a545 0e3c
00000080: 5cca 053c bbe1 f73b 7d2d 8d3b e6e9 8f3b
00000090: d43b 823b 3bf8 843b a8cd 423b a55e 493b
000000a0: bd62 953b 7d80 f03d 7d28 863e 8f10 513e
000000b0: 886a 3b3c 13e0 033c 1471 8a3b 3c80 b93b
000000c0: fbb9 2a3b 3d1a 923b d0e5 433b aa23 813b
000000d0: e758 893b 28fd 8a3b 7e02 ae3b 0fc2 fb3d
000000e0: 4469 763e ceaa 443e bdaf 813c 8e38 f03b
000000f0: f29e 093c d598 d73b a880 563b a767 9b3b
00000100: e87a 963b 52a6 923b d1c3 363b ac1a 2f3b
00000110: 5159 a63b 0cda fe3d 21b2 7d3e 2162 3f3e
00000120: 0f12 fa3b b269 013c 7db5 413b bb84 a23b
00000130: 7f24 3b3b eac7 823b fb63 6c3b 2a6c 843b
00000140: 93b9 8d3b 6a10 863b a6cd c23b f300 083e
00000150: 7ea6 5d3e caa0 363e e371 443c 5372 e13b
00000160: 4e25 f53b 7a93 b43b d176 4a3b 2941 a53b
00000170: 934a 943b 5215 8c3b 29fd 0a3b 7d4f 1a3b
00000180: 911f b53b 9eb4 0c3e 1544 5e3e 0cb7 3a3e
00000190: 5172 e13b 1281 f33b 7c02 2e3b e6e9 8f3b
000001a0: 2638 533b 298e 913b 69a1 8c3b 7cce 7c3b
000001b0: a4a2 633b d3ee 953b 6998 ba3b fe0d 113e
000001c0: 5d17 3b3e a6c7 303e ba9d dd3b f98e cb3b
000001d0: 3a11 c03b 55a6 923b feb0 583b 0fb5 a43b
000001e0: a9f8 a13b 1571 8a3b 7d0b 003b 2d41 253b
000001f0: e824 d83b 07b6 193e 6156 363e ac24 3d3e
00000200: e3e0 bd3b f9b0 d83b fc06 173b 5250 543b
00000210: 2738 533b bcaf 813b 2bfd 8a3b ab45 8e3b
00000220: 4f03 683b 50c8 9f3b 4055 da3b d806 1d3e
00000230: 3f90 103e 5df8 363e 2885 bf3b 28b0 9e3b
00000240: fb4a b13b be62 953b 7c1b 693b d132 b03b
00000250: 69e5 a63b 29eb 663b 5584 053b 2ad2 2b3b
00000260: 7c68 d53b d692 253e fb6e 0b3e 53d4 433e
00000270: eabe b03b d154 bd3b 298e 113b 5025 753b
00000280: 7cac 6f3b 7c68 553b 7a3d 763b e958 893b
00000290: aa80 563b 4f59 a63b 93a7 e93b db7a 253e
000002a0: 85e5 d83d c479 3a3e e72d aa3b 1524 9e3b
000002b0: ab67 9b3b d17f 9c3b e5e9 8f3b 804f 9a3b
000002c0: 6832 933b d1c3 363b faf4 f23a 7c93 343b
000002d0: 3b99 f43b bfdf 2d3e c1db e53d fe50 433e
000002e0: 29a7 cc3b 128a c53b 7be0 203b 50e1 5a3b
000002f0: 28c9 593b fbb0 583b fed2 653b f941 5f3b
00000300: fef4 723b 7d4f 9a3b c0e1 f73b b660 2a3e
00000310: 70b5 a83d 7fb2 383e 5272 e13b 93b9 8d3b
00000320: 6976 ad3b 3eab 983b 9328 873b 267c 6d3b
00000330: bcd1 8e3b 7d02 2e3b ab3c bc3a d44b 6b3b
00000340: 8751 003c 6c52 353e

network_body.observation_encoder.processors.1.normalizer.running_mean f4 [6]
67.61168 84.86663 67.62034 84.96436 67.627594 85.06117
00000000: 2e39 8742 b7bb a942 9d3d 8742 c1ed a942
00000010: 5441 8742 521f aa42

network_body._body_endoder.seq_layers.0.weight f4 [128, 216]
-0.064887896 0.15017487 0.027849415 0.036935832 0.13773961 -0.022492416 0.05623094 -0.0607456
-0.069926605 0.011660236 0.013989888 -0.053174328 -0.13767613 -0.008441983 -0.011436039 0.050572723
0.034578826 0.057991613 -0.019869309 0.0039704526 0.025853364 0.033083927 -0.0495168 -0.22518644
0.029968321 0.07499042 -0.07362638 -0.008440737 0.03629331 -0.087016635 -0.08317942 0.017207876
-0.00198174 0.040976297 -0.003702125 0.08731245 0.14157516 -0.0022329025 0.0146959415 -0.09341082
-0.12112488 0.012065961 -0.039260995 0.027032653 0.1130377 -0.00061784236 -0.07479372 0.022740113
0.052730266 0.021516101 0.024374748 -0.03661473 -0.0037476623 0.1023364 0.04967215 -0.037324347
-0.034953896 -0.0027593097 0.009600992 0.03738813 0.08562863 -0.07578727 0.117497206 -0.023364037
-0.107299194 0.029296488 0.092599615 -0.026179284 -0.038936358 -0.09131389 0.0948461 -0.051720448
-0.03664247 -0.001832985 -0.05860697 -0.0049495217 5.741948e-05 -0.12339264 0.07155644 -0.03952572
0.009779431 -0.11735082 0.127498 -0.0077273855 0.000753027 0.11435566 0.021467287 0.0034059805
0.10529203 0.14332289 -0.027439201 0.0019023451 0.12398801 -0.09040545 0.025622955 0.028825684
0.113152735 -0.029363098 0.012616606 -0.053076778 0.04644063 -0.087161995 0.055931844 0.0037852847
-0.057713237 0.01692967 -0.09741533 0.18468723 0.12814888 0.013098851 -0.13238883 -0.0330946
0.043163195 0.01990999 -0.015950732 -0.01839217 -0.02736966 0.046861373 0.17185342 -0.060572937
0.095725216 0.03289918 0.0038020907 -0.022130607 0.07604835 -0.043446332 0.100806355 0.099779904
-0.020208132 -0.09844325 0.055828277 -0.0041030683 -0.065213405 -0.0170067 -0.067450635 0.03357798
0.17873143 -0.004979489 0.043965247 0.073307864 0.015391842 0.028842833 0.13205208 0.1555068
0.020186586 0.01926747 -0.008052017 0.086461484 -0.02385232 0.0076387487 0.02937766 -0.0069738016
-0.004870304 0.16282937 0.076297134 -0.080423735 0.08171593 0.12689082 -0.014201692 0.0731692
0.06509666 0.019012986 -0.028453108 0.015944725 0.049699266 0.024186471 0.09055961 -0.06976905
-0.04943883 0.05117536 -0.07351573 -0.08348723 0.07508766 0.09843236 -0.030193973 -0.014116258
-0.041328315 0.02834835 -0.07282977 -0.020427305 0.0030289714 -0.008919967 -0.034140933 -0.11610074
-0.05489604 0.0829341 -0.051255696 0.05177296 -0.15959685 0.19414297 -0.003483753 -0.02934735
0.055487633 0.05364581 0.09326516 0.087855324 0.021244302 0.05271157 -0.05938292 0.13269193
0.01964461 0.05640001 -0.012416342 0.15064937 -0.06400002 -0.062901646 0.05510714 0.037628684
0.010503067 0.041474853 -0.009946552 -0.045297906 0.07226067 -0.08673096 -0.042033132 0.05916535
0.07979836 0.032642595 -0.004874906 0.09452027 0.0484627 0.04935675 -0.047356423 -0.101612754
0.06756771 -0.08163523 -0.08545117 0.0061976053 0.0064559025 0.10178619 -0.025697518 -0.026070168
-0.003909275 -0.0573147 0.08574253 -0.027368955 -0.05599319 0.079904586 0.14126842 -0.053742405
-0.07765885 0.10874239 0.03809284 0.016856985 -0.025455825 0.05319652 -0.021517217 0.021942515
-0.037486143 0.037845418 0.061391015 -0.026662707 -0.02672783 0.071150705 -0.18989499 -0.048685145
00000000: f2e3 84bd 71c7 193e 7524 e43c 074a 173d
00000010: 9d0b 0d3e 0442 b8bc 6a52 663d 61d0 78bd
00000020: ae35 8fbd 930a 3f3c d835 653c 53cd 59bd
00000030: f9fa 0cbe 3e50 0abc 395e 3bbc 5825 4f3d
00000040: 87a2 0d3d 9d88 6d3d f6c4 a2bc 921a 823b
00000050: 6fca d33c 0383 073d 21d2 4abd 4697 66be
00000060: 2080 f53c 9494 993d 6dc9 96bd 044b 0abc
00000070: 4ba8 143d c735 b2bd f959 aabd 88f7 8c3c
00000080: 14e0 01bb c3d6 273d 5a9f 72bb dfd0 b23d
00000090: 14f9 103e e355 12bb 3fc7 703c 2c4e bfbd
000000a0: 5210 f8bd 4fb0 453c 23d0 20bd 9573 dd3c
000000b0: 4f80 e73d b3f6 21ba 732d 99bd 7949 ba3c
000000c0: b1fb 573d 8942 b03c 8dad c73c 54f9 15bd
000000d0: 579b 75bb bf95 d13d 0675 4b3d 6ae1 18bd
000000e0: d12b 0fbd 89d5 34bb 7b4d 1d3c 4c24 193d
000000f0: 105e af3d 5b36 9bbd 60a2 f03d f065 bfbc
00000100: aebf dbbd 30ff ef3c dea4 bd3d f075 d6bc
00000110: bb7b 1fbd c702 bbbd ac3e c23d d2d8 53bd
00000120: 6a16 16bd c540 f0ba dd0d 70bd 992f a2bb
00000130: b2d5 7038 48b5 fcbd 2f8c 923d b9e5 21bd
00000140: e839 203c a055 f0bd d68e 023e 0236 fdbb
00000150: c966 453a 4d33 ea3d 2adc af3c df36 5f3b
00000160: 59a3 d73d 3cc3 123e 2dc8 e0bc 1c58 f93a
00000170: 6ded fd3d 7e26 b9bd 3be7 d13c d723 ec3c
00000180: 9fbc e73d e18a f0bc e2b5 4e3c 0967 59bd
00000190: 8838 3e3d fd81 b2bd ca18 653d 8a12 783b
000001a0: b764 6cbd 17b0 8a3c b081 c7bd a61e 3d3e
000001b0: 7639 033e 909c 563c f090 07be 348e 07bd
000001c0: e4cb 303d 461a a33c 1cab 82bc 2dab 96bc
000001d0: 5636 e0bc b6f1 3f3d 58fa 2f3e 541b 78bd
000001e0: 950b c43d 4ac1 063d 7f2c 793b 3f4b b5bc
000001f0: 3dbf 9b3d c8f4 31bd 9073 ce3d 6859 cc3d
00000200: 868b a5bc 9d9c c9bd 31ac 643d 0873 86bb
00000210: 9b8e 85bd a351 8bbc 8f23 8abd 1089 093d
00000220: 5f05 373e fb2a a3bb e714 343d 6f22 963d
00000230: 112e 7c3c ce47 ec3c a938 073e 2d3d 1f3e
00000240: 575e a53c d0d6 9d3c 9bec 03bc b812 b13d
00000250: f165 c3bc 784e fa3b 6ba9 f03c 7d84 e4bb
00000260: 1297 9fbb bebc 263e ac41 9c3d 33b5 a4bd
00000270: ae5a a73d abef 013e 37ae 68bc bcd9 953d
00000280: 6651 853d 1fc1 9b3c 7e16 e9bc 839e 823c
00000290: 7591 4b3d b522 c63c 5177 b93d 13e3 8ebd
000002a0: 5f80 4abd 419d 513d 6a8f 96bd 5afb aabd
000002b0: 8fc7 993d e896 c93d 5a59 f7bc e147 67bc
000002c0: e147 29bd cd3a e83c c627 95bd 2a57 a7bc
000002d0: b581 463b 0e25 12bc 5dd7 0bbd 3ac6 edbd
000002e0: acda 60bd 5ad9 a93d 7ef1 51bd e20f 543d
000002f0: 5b6d 23be 6acd 463e ad4f 64bb db69 f0bc
00000300: 0047 633d b5bb 5b3d ce01 bf3d 7eed b33d
00000310: 8808 ae3c 16e8 573d 813b 73bd 65e0 073e
00000320: bced a03c b203 673d ea6d 4bbc d443 1a3e
00000330: 7112 83bd 94d2 80bd 06b8 613d 8920 1a3d
00000340: 0e15 2c3c 89e1 293d ddf6 22bc 4c8a 39bd
00000350: 67fd 933d 00a0 b1bd ef2a 2cbd 5e57 723d
00000360: 536d a33d 3eb4 053d adbd 9fbb d893 c13d
00000370: d380 463d 4e2a 4a3d cff8 41bd 591a d0bd
00000380: f160 8a3d 5f30 a7bd 0601 afbd 4815 cb3b
00000390: 098c d33b 4775 d03d 9a83 d2bc 1b91 d5bc
000003a0: 6019 80bb d2c2 6abd c899 af3d dc34 e0bc
000003b0: 1d59 65bd 04a5 a33d aba8 103e ff20 5cbd
000003c0: 9a0b 9fbd 55b4 de3d 3d07 1c3d a917 8a3c
000003d0: bc88 d0bc 98e4 593d e044 b0bc cac0 b33c
000003e0: 128b 19bd cc03 1b3d 2575 7b3d c06b dabc
000003f0: 52f4 dabc 76b7 913d d573 42be 136a 47bd

network_body._body_endoder.seq_layers.0.bias f4 [128]
-0.0146703655 -0.00087784155 -0.015142462 0.010194256 0.024779141 0.006444992 -0.0014856717 0.010830252
0.013969184 -0.013857494 0.010864318 -0.00737098 -0.005080204 -0.0016895066 -0.0013221635 0.0017597289
-0.016135132 0.0031930506 -0.0027231476 6.7935166e-06 0.015662642 -0.005165676 -0.009976779 0.019520516
-0.0040675392 -0.012585883 0.0024118957 -0.0004933695 0.005454127 0.003219661 0.01422302 0.00088662613
-0.006533239 0.020712832 0.0051721437 0.0051003494 0.0058734207 0.0009732679 -0.0018573877 0.0020522494
-0.020344928 0.008506116 0.005204406 0.000359735 0.002900135 -0.008500768 0.003836169 0.015486553
0.000816054 0.0012876301 0.0058399336 -0.00086367107 0.017960578 0.01927875 -0.0154923955 0.010996654
-0.0057131364 0.007050422 0.0155681595 -0.0008092837 0.007962808 -0.03458885 0.020292928 0.017547032
-0.026910301 0.013581216 0.0043458613 -0.0019726718 -0.01001668 0.0002881117 0.023317127 0.031397082
-0.029983839 0.0074695502 -0.012046577 0.0038650245 0.013580635 -0.0043952214 0.021674309 0.005256489
-0.018687272 -0.023559675 0.019236144 -0.010535084 0.022385448 -0.03574454 0.011925412 0.0042221555
0.0022325485 -0.008150858 0.011066436 0.0066644563 0.012769869 0.00015403253 0.003035603 -0.011117478
-0.029381856 -0.011660771 -0.0054994617 0.013314864 -0.0026557029 0.00092517247 0.0015107233 -0.006129915
0.007615345 -0.00050724414 -0.011515142 -0.0050033755 -0.018746683 -0.009480484 -0.016314495 -0.018687852
0.018419666 -0.0046447553 -0.007990268 0.011928811 0.0371396 -0.016815847 0.02420794 0.01497261
-0.015031643 -0.039480656 0.0044882707 -0.0017623313 0.006903467 0.010268108 -0.010182212 0.009244543
00000000: f95b 70bc f31e 66ba 1718 78bc cf05 273c
00000010: a0fd ca3c 8330 d33b dfba c2ba 5f71 313c
00000020: 01df 643c 8b0a 63bc 4100 323c 4388 f1bb
00000030: d777 a6bb 6f72 ddba 724c adba b4a6 e63a
00000040: d32d 84bc 8042 513b d676 32bb ddf3 e336
00000050: f14e 803c d544 a9bb a575 23bc 7de9 9f3c
00000060: fe48 85bb 0535 4ebc e510 1e3b 7755 01ba
00000070: 89b8 b23b f300 533b ab07 693c 796c 683a
00000080: c814 d6bb f5ad a93c 167b a93b d520 a73b
00000090: d375 c03b e722 7f3a 9773 f3ba 087f 063b
000000a0: 68aa a6bc 3d5d 0b3c b989 aa3b d09a bc39
000000b0: 3110 3e3b ce46 0bbc 3c68 7b3b 50bb 7d3c
000000c0: 75ec 553a b2c5 a83a ea5c bf3b fc67 62ba
000000d0: 1022 933c 78ee 9d3c d1d3 7dbc 4f2b 343c
000000e0: 4335 bbbb 3a07 e73b 9811 7f3c 1c26 54ba
000000f0: 7076 023c 0aad 0dbd 5b3d a63c cbbe 8f3c
00000100: fe72 dcbc c083 5e3c ba67 8e3b f147 01bb
00000110: 001d 24bc b30d 9739 8f03 bf3c 3a9a 003d
00000120: aba0 f5bc 21c3 f43b 025f 45bc 5a4c 7d3b
00000130: 5081 5e3c ca05 90bb 528e b13c a03e ac3b
00000140: 0d16 99bc 3800 c1bc 1e95 9d3c 589b 2cbc
00000150: b061 b73c de68 12bd ce62 433c 025a 8a3b
00000160: f34f 123b 2d8b 05bc ff4f 353c 8361 da3b
00000170: b638 513c cb83 2139 f8f0 463b 1526 36bc
00000180: 38b2 f0bc d20c 3fbc d434 b4bb 9626 5a3c
00000190: 4d0b 2ebb 4687 723a 7603 c63a 74dd c8bb
000001a0: 258a f93b 94f8 04ba 02aa 3cbc 5bf3 a3bb
000001b0: a592 99bc 0854 1bbc faa5 85bc 4417 99bc
000001c0: d7e4 963c 0833 98bb 9de9 02bc 0f71 433c
000001d0: b11f 183d 63c1 89bc bb4f c63c ae4f 753c
000001e0: 4847 76bc 78b6 21bd 5812 933b 07fe e6ba
000001f0: 7a36 e23b 913b 283c 4bd3 26bc 6c76 173c

network_body._body_endoder.seq_layers.2.weight f4 [128, 128]
0.09610981 0.09996339 -0.036820993 0.12620224 0.03467148 -0.07225117 0.003065736 0.04858621
0.08665899 -0.066006206 0.0324581 0.19752927 0.0025032465 -0.077729024 -0.02696596 -0.043782625
-0.0448215 -0.044868015 -0.095218085 0.04286996 -0.07316965 0.0126733165 -0.25508675 0.2809098
-0.2102197 -0.09753739 -0.05980847 0.031415064 0.0094801085 0.016420428 0.18327078 -0.029854426
0.07977088 0.05954832 0.0019446735 0.0067694443 0.016006809 -0.06317359 -0.114863686 0.0029156841
0.00011424133 0.09309328 -0.0013025395 0.0518833 -0.028092945 0.043045968 -0.099028796 0.051100243
-0.12878977 0.09027568 -0.011260755 0.053820193 0.121294715 -0.08596912 0.07600072 -0.24988993
-0.041713595 -0.0084418515 0.10172494 0.15673377 0.09520438 -0.1868513 0.1366273 0.17943761
-0.19913277 0.25943875 0.005678949 0.050646514 0.06957239 0.07826756 0.05075281 -0.04306481
-0.13893074 0.15798861 0.2136988 0.025603237 0.1403127 -0.042567667 -0.017298372 -0.007395561
-0.050977983 -0.20827502 -0.1111311 -0.04303552 0.20913948 -0.16422352 -0.115174994 -0.10474584
-0.08059683 0.013859233 -0.28889427 -0.14130075 -0.14259017 0.047101866 0.18056017 -0.16710126
0.048141904 -0.07067758 -0.065699 -0.0488768 0.044150636 0.060869824 -0.01210626 0.025626874
0.047481652 -0.088891976 -0.104819976 0.105394 -0.1559977 -0.017281573 0.15545349 -0.05266161
0.07342271 -0.096635684 -0.08205863 -0.080613166 0.19250673 0.11477174 0.07423329 -0.006369511
-0.12294511 -0.045765422 -0.027827108 0.0048416643 0.120180584 0.0025875058 0.07785295 0.07435833
0.04034321 0.052371364 -0.19340822 -0.10437993 -0.0063969367 0.13987958 -0.17830797 0.10000595
0.015812175 -0.012394988 0.010830157 -0.053132612 0.06949297 0.09062626 0.019933501 -0.013552581
0.16556522 0.1528058 -0.059589263 -0.06296732 0.04406877 -0.077154815 -0.014204851 0.10119151
-0.037572283 0.008332718 -0.1045429 -0.09357167 -0.16344976 -0.12570967 -0.031548318 0.06331411
-0.034744084 -0.010449861 0.061868794 -0.09073011 0.009017685 -0.0037162018 0.07341295 -0.045950234
0.08607126 0.072960116 -0.0431379 0.12339883 -0.016466979 0.04797432 -0.0021491384 -0.05940723
-0.095473416 -0.02574987 0.07122973 -0.02987283 -0.06678099 0.061327364 -0.022618897 -0.051397417
-0.018923547 0.07825948 0.043655153 -0.014156366 -0.14409223 0.0038850321 0.07849457 0.0488009
1.1694302e-05 -0.0676115 -0.026529184 0.03838798 -0.057434857 -0.13803148 0.109039366 -0.11619125
-0.10540589 0.025927309 -0.05210046 -0.019934628 -0.050933745 0.0760717 0.11186679 -0.0045335265
0.026207022 -0.016567316 0.078339584 0.02497076 -0.08659149 0.056734838 -0.1764439 0.020053608
-0.037328847 -0.030014098 0.03093558 -0.11972781 0.04333151 -0.038109057 0.30416036 0.14251558
0.015037648 -0.062223226 -0.1373519 0.08865601 0.12269889 -0.010160243 -0.10938907 -0.11838924
0.032559298 0.22423582 -0.0074257073 0.049098257 0.0012679745 -0.08903919 -0.050033547 0.060483295
0.037832927 -0.119869225 0.057485875 -0.043348312 -0.028240945 0.0054005226 0.17038238 0.069989234
0.091112055 -0.0475427 0.011428237 -0.107598335 0.12618649 0.022175025 -0.092752844 0.03775673
00000000: 38d5 c43d 9bb9 cc3d 9cd1 16bd 293b 013e
00000010: af03 0e3d 6cf8 93bd 84ea 483b 5502 473d
00000020: 457a b13d 432e 87bd c9f2 043d 1d45 4a3e
00000030: 820d 243b 6530 9fbd b8e7 dcbc 6955 33bd
00000040: c096 37bd 86c7 37bd b301 c3bd 6998 2f3d
00000050: f8d9 95bd bea3 4f3c bb9a 82be 69d3 8f3e
00000060: d543 57be afc1 c7bd baf9 74bd 15ad 003d
00000070: 7552 1b3c 2284 863c 56ab 3b3e 4591 f4bc
00000080: ea5e a33d f0e8 733d 6ae4 fe3a 37d2 dd3b
00000090: b620 833c 2861 81bd a73d ebbd 1015 3f3b
000000a0: d994 ef38 b1a7 be3d f9b9 aaba 9583 543d
000000b0: 2d23 e6bc f850 303d 9ccf cabd 7d4e 513d
000000c0: 77e1 03be 75e2 b83d 087f 38bc 9072 5c3d
000000d0: 5d69 f83d 9410 b0bd 44a6 9b3d 25e3 7fbe
000000e0: e0db 2abd b14f 0abc 2a55 d03d d17e 203e
000000f0: 84fa c23d f255 3fbe 07e8 0b3e 7ebe 373e
00000100: 76e9 4bbe 28d5 843e 7a16 ba3b b872 4f3d
00000110: f87b 8e3d be4a a03d 2ee2 4f3d ba64 30bd
00000120: dc43 0ebe c4c7 213e dcd3 5a3e e1bd d13c
00000130: 22ae 0f3e 6f5b 2ebd 51b5 8dbc 7656 f2bb
00000140: 4ace 50bd 0c46 55be b498 e3bd 0346 30bd
00000150: a928 563e 362a 28be dee0 ebbd fd84 d6bd
00000160: f30f a5bd d611 633c f3e9 93be 25b1 10be
00000170: 2803 12be e3ed 403d c4e4 383e 981c 2bbe
00000180: 7230 453d 68bf 90bd 338d 86bd 0a33 48bd
00000190: 4cd7 343d a352 793d 5659 46bc 73ef d13c
000001a0: 1f7c 423d ff0c b6bd dbab d6bd cfd8 d73d
000001b0: dcbd 1fbe 1692 8dbc 332f 1f3e b3b3 57bd
000001c0: a55e 963d eee8 c5bd 5b0e a8bd 8418 a5bd
000001d0: 7c20 453e 720d eb3d a007 983d 55b7 d0bb
000001e0: a5ca fbbd 8674 3bbd adf5 e3bc d3a6 9e3b
000001f0: 3d21 f63d 2593 293b 5e71 9f3d 2e49 983d
00000200: ec3e 253d 5b83 563d ce0c 46be 25c5 d5bd
00000210: 659d d1bb 983c 0f3e 5d96 36be ebcf cc3d
00000220: 8988 813c 5914 4bbc f970 313c 95a1 59bd
00000230: 5552 8e3d 439a b93d 954b a33c a50b 5ebc
00000240: ee89 293e 2079 1c3e df13 74bd 03f5 80bd
00000250: 7481 343d 5803 9ebd 77bb 68bc 7f3d cf3d
00000260: 65e5 19bd f485 083c 971a d6bd 81a2 bfbd
00000270: 605f 27be 09ba 00be cf38 01bd d4aa 813d
00000280: d04f 0ebd e535 2bbc 226a 7d3d b5d0 b9bd
00000290: eabe 133c 858b 73bb 8759 963d 5036 3cbd
000002a0: 2146 b03d 1d6c 953d 5eb1 30bd 87b8 fc3d
000002b0: c2e5 86bc b880 443d 8fd8 0cbb ff54 73bd
000002c0: 9187 c3bd 64f1 d2bc e5e0 913d ddb7 f4bc
000002d0: 79c4 88bd 6732 7b3d 444b b9bc 1986 52bd
000002e0: 8e05 9bbc 8246 a03d bfcf 323d 1af0 67bc
000002f0: ea8c 13be 069c 7e3b c3c1 a03d 74e3 473d
00000300: a532 4437 e677 8abd bb53 d9bc b73c 1d3d
00000310: d040 6bbd 2058 0dbe 0850 df3d aef5 edbd
00000320: 0bdf d7bd 8265 d43c 4b67 55bd f24d a3bc
00000330: e79f 50bd 7bcb 9b3d 6a1a e53d fa8d 94bb
00000340: 1cb0 d63c 2eb8 87bc 8170 a03d 7b8f cc3c
00000350: e156 b1bd ca62 683d b6ad 34be 7747 a43c
00000360: 22e6 18bd 20e0 f5bc 9d6c fd3c db33 f5bd
00000370: 627c 313d 3e18 1cbd e8ba 9b3e 9bef 113e
00000380: 7860 763c c8dd 7ebd faa5 0cbe 4891 b53d
00000390: 8e49 fb3d 2677 26bc 6007 e0bd 0f76 f2bd
000003a0: e65c 053d 139e 653e 5953 f3bb 411b 493d
000003b0: 2a32 a63a 2e5a b6bd faef 4cbd 55bd 773d
000003c0: b3f6 1a3d ff7d f5bd 4f76 6b3d 008e 31bd
000003d0: 8e59 e7bc def6 b03b b878 2e3e 8456 8f3d
000003e0: f598 ba3d 22bc 42bd 803d 3b3c 845c dcbd
000003f0: 0837 013e 66a8 b53c 34f5 bdbd cda6 1a3d

network_body._body_endoder.seq_layers.2.bias f4 [128]
0.030725626 0.009191169 0.0059323856 0.026677677 0.011101402 0.008796542 0.022950452 0.0051165824
0.01850373 0.0042005004 -0.0055055167 -0.0011435703 -0.010751124 0.0065620653 0.003866709 -0.021152798
0.0001798552 0.009952797 -0.011505299 -0.0028242448 -0.0076000197 0.0098931575 0.003298057 0.0085397335
0.0017419541 -0.00238307 0.014943934 0.0042167916 0.011977177 0.013857168 0.0142776575 0.014618752
0.002953398 -0.009183046 0.0022222204 -0.008570353 -0.0035395052 0.0029762455 0.012644356 0.024474444
0.003180971 0.019517021 -0.028862258 -0.00893876 0.005199974 -0.0074233534 -0.007184671 0.011926924
-0.006565735 0.010022796 0.0012448641 0.001186139 -0.007993072 -0.015970156 -0.0003393036 0.010465231
-0.0050731585 -0.0015279831 0.012458986 0.0048079565 0.020166315 -0.008096386 0.012829899 0.0037836551
0.011880294 -0.011035625 -0.000207523 0.0070818723 0.024275012 0.0054395334 0.0059742904 0.014249173
-0.0049877884 -0.00073384127 0.0054002204 0.01893856 -0.0016135171 0.0069358484 -0.01033201 0.007824154
-0.010314465 -0.0014434243 0.011339178 -0.0026451885 -0.017886922 0.0021039364 -0.0006892425 0.0055521913
0.008570948 0.008656617 0.0028795165 0.006431732 0.016998209 0.0017453319 -0.0055266335 0.01914449
0.0056954864 -0.011161606 0.0066837682 0.012846019 0.008474027 0.001291075 0.004883344 -0.0034791902
-0.018649096 -0.00388007 -0.012838091 0.010528818 -0.00090882165 0.00073148706 0.015751202 0.010960342
-3.2844226e-05 -0.011077727 0.012845351 0.010789487 0.009541494 0.018739816 -0.012872486 -0.020557748
-0.002008963 0.005822109 0.0029700692 -0.013523147 0.0053549362 -0.017354283 0.0030649675 -0.006529153
00000000: 4fb4 fb3c 8f96 163c 7564 c23b 258b da3c
00000010: a8e2 353c 5f1f 103c 9602 bc3c 01a9 a73b
00000020: 2295 973c 5aa4 893b 9f67 b4bb dae3 95ba
00000030: 7b25 30bc 9806 d73b 9d68 7d3b a248 adbc
00000040: 8397 3c39 0e11 233c b980 3cbc f716 39bb
00000050: 9609 f9bb e916 223c 3724 583b 3dea 0b3c
00000060: 4852 e43a 482d 1cbb 67d7 743c 032d 8a3b
00000070: ec3b 443c 2d09 633c d6ec 693c 7d83 6f3c
00000080: cc8d 413b 7d74 16bc aca2 113b aa6a 0cbc
00000090: 0bf7 67bb 1d0d 433b 462a 4f3c a17e c83c
000000a0: d677 503b 29e2 9f3c 8b70 ecbc e073 12bc
000000b0: 8b64 aa3b 9a3f f3bb 636d ebbb 2569 433c
000000c0: 6125 d7bb a736 243c b52a a33a 3878 9b3a
000000d0: 60f5 02bc d8d3 82bc 8fe4 b1b9 5c76 2b3c
000000e0: bd3c a6bb 9b46 c8ba c620 4c3c 108c 9d3b
000000f0: d433 a53c b4a6 04bc 7f34 523c 33f7 773b
00000100: 91a5 423c c4ce 34bc 889a 59b9 0d0f e83b
00000110: 64dc c63c 1d3e b23b fbc3 c33b 5d75 693c
00000120: 9a70 a3bb 415f 40ba 55f4 b03b 0a25 9b3c
00000130: a67c d3ba 1d46 e33b 9747 29bc e130 003c
00000140: 00fe 28bc 4831 bdba f6c7 393c e65a 2dbb
00000150: 9887 92bc 32e2 093b 48ae 34ba 28ef b53b
00000160: 296d 0c3c 7cd4 0d3c 45b6 3c3b 47c1 d23b
00000170: d43f 8b3c 9fc3 e43a c318 b5bb e8d4 9c3c
00000180: 34a1 ba3b 2bdf 36bc 8303 db3b 1c78 523c
00000190: a5d6 0a3c 4a39 a93a 7504 a03b 2003 64bb
000001a0: fdc5 98bc c648 7ebb db56 52bc 1081 2c3c
000001b0: fd3d 6eba 44c1 3f3a aa08 813c 0293 333c
000001c0: 38c2 09b8 5b7f 35bc 4f75 523c 63c6 303c
000001d0: ed53 1c3c 3e84 993c 1fe7 52bc b968 a8bc
000001e0: cea8 03bb 64c7 be3b 7ea5 423b 3190 5dbc
000001f0: 7678 af3b 922a 8ebc 9fdd 483b 81f2 d5bb

action_model._discrete_distribution.branches.0.weight f4 [2, 128]
0.017707603 0.01281889 -0.00548522 0.013056103 0.028565835 0.012263703 0.022642678 0.02462233
-0.045946896 -0.018276254 -0.0045431163 -0.0021721364 0.0074525173 0.035991795 -0.027955992 -0.01754252
0.012232202 -0.00077374314 -0.01112116 -0.0073491298 -0.009348901 0.0028484936 0.009265875 0.004129406
-0.023292532 -0.0060781226 0.029889526 0.020203168 -0.05499042 -0.010907469 -0.025537133 0.03877245
-0.0056822365 -0.019110663 0.0095624225 -0.0045390553 -0.018539673 -0.023350723 0.013387546 -0.0024864366
-0.018034592 -0.025113186 0.015420155 -0.012018821 -0.0025108678 -0.016501382 -0.0018460939 0.0170241
0.0063124504 0.031220116 -0.0149817495 0.0028620553 -0.013892684 -0.0067249266 0.014480955 -0.006233717
-0.004114432 0.00035173938 -0.017117795 0.02272872 0.031430095 -0.005828103 -0.0038410465 -0.016444342
0.009232699 -0.018436352 -0.03754344 0.010616303 0.036731724 -0.023617068 0.01422105 0.0004646241
0.009580656 0.014657567 -0.012964675 0.0027613684 -0.009557834 -0.0098669985 0.017245183 -0.011797427
-0.011227794 0.0044116434 0.037328187 -0.025740843 -0.0009939502 -0.008040747 -0.0046398453 0.015835183
-0.0089803925 0.014067441 0.005361659 -0.022592574 0.029013785 0.0043128813 -0.017798344 -0.030409573
0.015012117 0.0055888793 -0.0030211115 -0.0158601 0.0018978146 0.017543666 -0.0017263314 -0.01806263
0.0009377658 0.003537397 -0.010215065 0.013706106 0.026498223 0.0069163777 0.02199097 -0.01974657
0.006248357 0.010552857 0.016582733 -0.014599635 -0.01708803 0.03828753 0.002633088 0.0010468367
-0.0006181273 0.044168513 -0.0046021836 0.016334696 0.0021194362 -0.00022770547 -0.0413947 -0.029908983
0.004943402 -0.022608481 -0.007812156 -0.020296346 -0.025109187 -0.0021070575 -0.023230357 -0.024090305
0.04300594 0.020050865 -0.009091135 -0.026033193 -0.018778153 -0.023812477 0.021728745 0.0030892834
-0.0121811945 0.014450709 0.002076394 0.010640251 0.0064854976 -0.020399444 -0.0033080194 -0.008147735
0.023836825 -0.0021597357 -0.019142706 -0.012809589 0.021302313 0.024190923 0.010228245 -0.013939649
0.0019410194 0.018546637 -0.01781196 0.001198476 -0.0018778236 0.027282126 -0.00448886 -0.0073614446
-0.014838085 0.020862611 -0.0011292549 0.0266426 -0.02690402 0.019546699 0.0016505135 -0.0043900367
-0.012118048 -0.037197467 0.017996643 -0.0037942952 -0.0043724603 -0.0008672062 0.0007904198 -0.0061658546
0.0013921931 -0.0025112226 0.01250246 -0.012428542 -0.024235079 0.018302355 0.01768816 0.023381636
-0.009235352 0.0031619791 0.009917248 0.0067506777 -0.04360228 0.041917693 -0.022552742 -0.011483247
-0.010967981 -0.019047253 0.008941518 0.0045629903 0.0012319953 -0.0042308597 -0.009785625 0.016077781
0.016921565 0.0005228934 -0.03394171 0.039468475 0.016213521 0.013789178 0.005332696 -0.003176249
0.019134091 -0.0056532295 -0.0009620544 -0.004321468 -0.024173114 -0.015085602 0.01535723 0.01173615
-0.03505181 -0.0035918502 -0.003916238 0.01627085 0.0067715724 -0.028832974 -0.011411826 0.042801224
0.0072586644 -0.0076149455 -0.00019856918 -0.02403693 -0.016211677 -0.03718759 -0.031300005 0.017842589
0.0014736798 1.4978829e-05 -0.017861234 -0.008970859 0.015765648 -0.023692759 -0.0012357166 -0.011597053
-0.002369355 -0.04376604 0.004102543 0.009558111 -0.00016450479 0.002978992 0.035822805 0.031409588
00000000: 890f 913c 5206 523c 5cbd b3bb 44e9 553c
00000010: e602 ea3c b3ed 483c 237d b93c c5b4 c93c
00000020: d032 3cbd 15b8 95bc 6cde 94bb 675a 0ebb
00000030: 3f34 f43b 226c 133d f703 e5bc 55b5 8fbc
00000040: 9369 483c 06d5 4aba 8735 36bc f8d0 f0bb
00000050: 222c 19bc cbad 3a3b e6cf 173c f84f 873b
00000060: fbcf bebc fd2a c7bb e1da f43c 1d81 a53c
00000070: a23d 61bd 3eb5 32bc 4033 d1bc dccf 1e3d
00000080: 0e32 babb f78d 9cbc b5ab 1c3c 5bbc 94bb
00000090: 83e0 97bc 044a bfbc 7057 5b3c 7cf3 22bb
000000a0: 48bd 93bc 2bba cdbc d1a4 7c3c 97ea 44bc
000000b0: 5f8d 24bb e82d 87bc a2f8 f1ba 2076 8b3c
000000c0: acd8 ce3b 54c1 ff3c 0376 75bc 5291 3b3b
000000d0: 249e 63bc c65c dcbb 8741 6d3c 3544 ccbb
000000e0: 5bd2 86bb a969 b839 9e3a 8cbc 9531 ba3c
000000f0: d8bc 003d acf9 bebb 11ba 7bbb 49b6 86bc
00000100: bf44 173c d507 97bc 26c7 19bd 01f0 2d3c
00000110: 0174 163d 9578 c1bc 68ff 683c cb98 f339
00000120: 2ff8 1c3c 4b26 703c ca69 54bc 13f8 343b
00000130: 7698 1cbc 31a9 21bc c545 8d3c ff49 41bc
00000140: c8f4 37bc 8c8f 903b 71e5 183d 76de d2bc
00000150: 6f47 82ba 56bd 03bc d809 98bb c9b8 813c
00000160: 7f22 13bc 207b 663c dbb0 af3b 1014 b9bc
00000170: 51ae ed3c 1253 8d3b d5cd 91bc 7f1d f9bc
00000180: 62f5 753c eb22 b73b d7fd 45bb 0aed 81bc
00000190: 17c0 f83a bcb7 8f3c 1246 e2ba 15f8 93bc
000001a0: 66d4 753a acd3 673b 175d 27bc 938f 603c
000001b0: cd12 d93c c8a2 e23b 6826 b43c 8fc3 a1bc
000001c0: 04bf cc3b e4e5 2c3c 83d8 873c 4f33 6fbc
000001d0: 32fc 8bbc 63d3 1c3d e38f 2c3b 0336 893a
000001e0: d209 22ba 0bea 343d eacd 96bb 57d0 853c
000001f0: 3de6 0a3b 39c4 6eb9 7d8d 29bd af03 f5bc
00000200: 43fc a13b 6c35 b9bc 1dfd ffbb 8644 a6bc
00000210: c8b1 cdbc 8f16 0abb 974d bebc 0859 c5bc
00000220: ff26 303d b641 a43c fcf2 14bc 9043 d5bc
00000230: a4d4 99bc 6212 c3bc 7b00 b23c 9375 4a3b
00000240: a293 47bc abc2 6c3c 1c14 083b 7354 2e3c
00000250: 4c84 d43b bc1c a7bc 5bcb 58bb 147e 05bc
00000260: 7245 c33c 5a8a 0dbb 2ad1 9cbc 4fdf 51bc
00000270: 3082 ae3c 0b2c c63c 5e94 273c 2063 64bc
00000280: ce69 fe3a 1eef 973c 63ea 91bc 2e16 9d3a
00000290: 4e21 f6ba c47e df3c 4917 93bb 4638 f1bb
000002a0: 701b 73bc 11e8 aa3c 8203 94ba 9541 da3c
000002b0: d265 dcbc 6620 a03c 0b56 d83a 4cda 8fbb
000002c0: c78a 46bc 5f5c 18bd b26d 933c b6a9 78bb
000002d0: db46 8fbb 3955 63ba 2d34 4f3a f00a cabb
000002e0: 407a b63a 5393 24bb 1ed7 4c3c 15a1 4bbc
000002f0: a588 c6bc d2ee 953c c3e6 903c d88a bf3c
00000300: e04f 17bc 3539 4f3b f47b 223c ca34 dd3b
00000310: 4e98 32bd e3b1 2b3d 87c0 b8bc 3b24 3cbc
00000320: 0cb3 33bc fc08 9cbc 727f 123c 2385 953b
00000330: e77a a13a 06a3 8abb e353 20bc 8db5 833c
00000340: 189f 8a3c c812 093a 7606 0bbd b2a9 213d
00000350: 38d2 843c 01ec 613c e5bd ae3b 9e28 50bb
00000360: 19bf 9c3c ba3e b9bb 6132 7cba 1a9b 8dbb
00000370: b206 c6bc 9a29 77bc e49c 7b3c fb48 403c
00000380: 7d92 0fbd 3f65 6bbb c953 80bb 724a 853c
00000390: 11e4 dd3b 2133 ecbc abf8 3abc 5650 2f3d
000003a0: 17da ed3b cb86 f9bb 0237 50b9 19e9 c4bc
000003b0: 5ace 84bc 0452 18bd 6f34 00bd 9f2a 923c
000003c0: 7d28 c13a 954d 7b37 b951 92bc 83fa 12bc
000003d0: f626 813c 5117 c2bc c5f7 a1ba 9101 3ebc
000003e0: 2e47 1bbb 0544 33bd a06e 863b a099 1c3c
000003f0: eb7e 2cb9 313b 433b efba 123d 57a7 003d

action_model._discrete_distribution.branches.0.bias f4 [2]
0.004324701 -0.0043247016
00000000: 39b6 8d3b 3ab6 8dbb

action_model._discrete_distribution.branches.1.weight f4 [3, 128]
0.055720925 -0.008517178 0.007828083 0.040903818 -0.005615601 -0.0075880163 -0.06513126 -0.013834127
-0.021934306 -0.018804703 -0.0069280257 0.011393273 -0.016293537 0.034155767 -0.011473823 -0.0062061027
-0.010424744 -0.014763329 -0.01345039 -0.03919325 -0.013248114 -0.014418522 -0.0035848257 -0.025902042
0.0038347363 -0.019280287 -0.007437158 0.0308289 0.021258127 0.007910132 -0.035296798 0.00023554226
0.019408498 -0.009591382 0.0047210366 -0.009199281 0.006724792 -0.01579596 -0.0016179171 -0.011095568
-0.03148233 0.0060043493 0.0015972566 0.014842179 -0.007205371 0.0059206868 -0.031476684 0.0012205155
0.02209865 0.00067708775 0.0047350465 -0.0075235604 0.007432889 0.012910182 -0.023863701 0.017617615
0.0018746034 -0.033404365 0.029272977 -0.0016523876 -0.042463522 0.0019195133 0.01744725 0.0052256556
0.011072726 0.0059426455 0.01597304 -0.012997835 0.014900726 -0.012088922 0.025731971 -0.002969198
0.017269509 0.018839644 -0.0075818235 0.009933858 0.018802298 0.0120007275 0.0008686982 0.00033982433
-0.047395762 -0.0022379903 -0.0035357967 0.0206189 -0.004740455 0.013179785 -0.020439846 0.012629281
0.021827875 0.009625287 0.010857073 -0.01419592 0.004442188 -0.043124925 -0.011778146 0.016951667
-0.0042019156 -0.01207975 0.00043246333 -0.033952642 -0.00039060734 -0.016981492 0.026603064 0.021893127
-0.017437544 0.008775348 -0.00035121938 0.006204346 0.010639086 -0.026400235 -0.013983901 0.013114258
0.0313263 0.0013258067 -0.03636095 0.008113577 0.019186564 -0.04580969 -0.008026928 -0.00028703976
0.034763448 -0.005405164 0.008956689 -0.018501509 0.0046644267 0.009756723 -0.040605742 0.011525318
-0.06614856 -0.013161445 -0.022310914 -0.08320399 -0.0033502674 -0.00909997 0.042516977 -0.015583842
0.001654272 0.0008643622 0.002150051 -0.01560051 0.0001361872 -0.02920903 -0.012582933 0.0010905842
0.046986237 -0.024796924 0.028744027 0.020474117 0.005058991 -0.009736908 -0.0063427547 -0.013558141
-0.007266264 -0.0013652003 -0.017099336 0.004325946 -0.009896448 -0.019221276 -0.007088689 -0.0258625
-0.0154944295 0.022578143 0.047690567 0.004452921 -0.0051567485 0.012733244 -0.015897185 -0.043917507
0.022646068 -0.036581382 0.0038986644 0.0043781474 -0.017814172 0.00020829655 0.030112896 -0.026708733
-0.008695663 0.0049795466 0.0017246712 0.0031890215 0.025372002 0.009172011 0.017380469 -0.04250337
-0.0030646273 0.03150608 -0.029652223 -0.002301468 0.05501958 0.0050701206 -0.025251785 -0.022712396
-0.02976376 -0.015631171 -0.0091003515 -0.016414678 -0.021035487 0.0041140607 -0.026674815 -0.010451814
0.015216389 0.016594442 -0.039385416 -0.03772194 0.011659904 -0.028796762 0.0052937553 -3.963454e-05
0.013232913 -0.0019039505 -0.015187643 0.02105994 0.018436369 -0.020639444 0.008070673 -0.025198333
-0.01780265 -0.028044462 -0.023688318 -0.010526148 -0.019532278 0.020004164 0.027295519 -0.056721397
0.02880555 0.002846606 -0.015393704 0.0023145908 -0.03211802 0.022745062 0.016170079 0.008703444
-0.019338023 0.01346947 -0.011097428 0.009352748 0.0037639828 -0.005900049 0.002786888 -0.018305521
0.002960704 0.005277986 0.0011036402 -0.028529808 -0.026358005 0.012276245 0.011459765 0.0041240286
0.007652857 0.04232235 -0.014919722 0.009424075 -0.021829905 -0.0053979103 0.003907693 -0.015045923
00000000: a03b 643d a28b 0bbc 5c41 003c c38a 273d
00000010: 1303 b8bb e5a4 f8bb 8a63 85bd 89a8 62bc
00000020: 93af b3bc 520c 9abc 7e04 e3bb daaa 3a3c
00000030: 067a 85bc ebe6 0b3d b4fc 3bbc 905c cbbb
00000040: 8ccc 2abc e4e1 71bc 065f 5cbc 1a89 20bd
00000050: 9e0e 59bc aa3b 6cbc 65ef 6abb 8530 d4bc
00000060: 3350 7b3b b1f1 9dbc 67b3 f3bb e48c fc3c
00000070: 8625 ae3c 8099 013c 6093 10bd e5fb 7639
00000080: 92fe 9e3c 2c25 1dbc edb2 9a3b 95b8 16bc
00000090: a55b dc3b 8766 81bc 4a10 d4ba 2fca 35bc
000000a0: 9ef3 00bd 22c0 c43b 0a5b d13a 9c2c 733c
000000b0: 081b ecbb 5202 c23b b2ed 00bd b4f9 9f3a
000000c0: 3a08 b53c 977e 313a 7328 9b3b 3388 f6bb
000000d0: 988f f33b 3a85 533c cf7d c3bc d152 903c
000000e0: 41b5 f53a 04d3 08bd e2cd ef3c ed94 d8ba
000000f0: 3bee 2dbd 2e98 fb3a 89ed 8e3c fa3b ab3b
00000100: 616a 353c 86ba c23b e5d9 823c dff4 54bc
00000110: 2d22 743c 9d10 46bc dbcb d23c e096 42bb
00000120: c978 8d3c 9955 9a3c f270 f8bb 9fc1 223c
00000130: 4707 9a3c b39e 443c 59b9 633a 732a b239
00000140: 0f22 42bd 3fab 12bb d3b8 67bb f8e8 a83c
00000150: d255 9bbb 06f0 573c 7771 a7bc 0beb 4e3c
00000160: 5fd0 b23c 61b3 1d3c dde1 313c 0196 68bc
00000170: c68f 913b c3a3 30bd 20f9 40bc 39de 8a3c
00000180: 39b0 89bb 25ea 45bc 3fbc e239 ed11 0bbd
00000190: 6eca ccb9 c51c 8bbc abee d93c 3759 b33c
000001a0: 2ed9 8ebc 7ac6 0f3c de23 b8b9 d44d cb3b
000001b0: 904f 2e3c 4e45 d8bc bb1c 65bc 2fdd 563c
000001c0: 0250 003d b1c6 ad3a 38ef 14bd cfee 043c
000001d0: 242d 9d3c f1a2 3bbd 6083 03bc d37d 96b9
000001e0: 1e64 0e3d cd1d b1bb 14bf 123c 7a90 97bc
000001f0: 0cd8 983b aada 1f3c 3552 26bd b0d4 3c3c
00000200: e578 87bd 1aa3 57bc 61c5 b6bc da66 aabd
00000210: 2990 5bbb 0a18 15bc 4826 2e3d 5f53 7fbc
00000220: 28d4 d83a 5e96 623a dfe7 0c3b 4899 7fbc
00000230: 79cd 0e39 c747 efbc a528 4ebc eff1 8e3a
00000240: a474 403d eb22 cbbc 9878 eb3c 56b9 a73c
00000250: e4c5 a53b 8d87 1fbc e2d6 cfbb f722 5ebc
00000260: d719 eebb 85f0 b2ba e813 8cbc aac0 8d3b
00000270: b624 22bc f075 9dbc 3c48 e8bb 98dd d3bc
00000280: 59dc 7dbc ccf5 b83c 2f57 433d cfe9 913b
00000290: f1f9 a8bb 199f 503c d03a 82bc d8e2 33bd
000002a0: 3f84 b93c 5cd6 15bd bc80 7f3b 9076 8f3b
000002b0: 07ef 91bc 2e6a 5a39 52af f63c 46cc dabc
000002c0: 4178 0ebc 772b a33b 5d0e e23a e7fe 503b
000002d0: f2d8 cf3c 3446 163c 7c61 8e3c 0418 2ebd
000002e0: ead7 48bb 850c 013d 38e9 f2bc 3ad4 16bb
000002f0: 365c 613d 4123 a63b d5dc cebc 590f babc
00000300: 21d3 f3bc f10c 80bc a419 15bc 1378 86bc
00000310: 9d52 acbc 3ecf 863b 2485 dabc 163e 2bbc
00000320: 294e 793c 11f1 873c 9a52 21bd 5282 1abd
00000330: 2f09 3f3c 30e7 ebbc 3d77 ad3b 433d 26b8
00000340: dcce 583c fa8d f9ba 97d5 78bc e585 ac3c
00000350: de07 973c 0d14 a9bc db3a 043c bc6c cebc
00000360: ddd6 91bc 80bd e5bc 010e c2bc dd75 2cbc
00000370: 2802 a0bc c6df a33c da9a df3c b254 68bd
00000380: 9ef9 eb3c 208e 3a3b e035 7cbc 64b0 173b
00000390: 2f8e 03bd da53 ba3c 1d77 843c e498 0e3c
000003a0: c66a 9ebc 0daf 5c3c fdd1 35bc 453c 193c
000003b0: 27ad 763b 3355 c1bb 39a4 363b 76f5 95bc
000003c0: 5f08 423b f5f2 ac3b 05a8 903a 58b7 e9bc
000003d0: beec d7bc 4e22 493c bdc1 3b3c dc22 873b
000003e0: d1c4 fa3b 335a 2d3d da71 74bc 6f67 1a3c
000003f0: a1d4 b2bc f4e0 b0bb 1b0c 803b 2d83 76bc

action_model._discrete_distribution.branches.1.bias f4 [3]
-0.00010488813 -0.010835762 0.010273117
00000000: 63f7 dbb8 7b88 31bc 9350 283c

action_model._discrete_distribution.branches.2.weight f4 [1, 128]
0.0058230567 -0.003840606 -0.0005629651 0.0006895861 -0.005759575 -0.005452537 -0.0038080586 0.008353491
0.005197533 0.005607774 -0.011319997 0.007070349 -0.0078056813 0.019791162 0.0074954084 -0.009813348
0.0004945005 0.0026796428 0.0035324977 0.015771944 0.0019428103 -0.02057254 0.0043275827 -0.009932141
-0.007843891 -0.0026566756 0.012406382 -0.005053334 -0.0021668607 0.00051617745 0.00040081987 0.016438413
-0.00981464 -0.0037682026 0.005004912 0.02412371 0.007056677 0.004364789 -0.0018379139 -0.006306251
0.005463618 0.00027751218 -0.016683139 0.0036932789 0.002897401 0.014057179 -0.0006532815 -0.005480477
-0.006030703 0.007732513 0.00056098035 -0.0047912607 0.008437478 -0.0013790972 -0.006340219 -0.02713691
-0.008831584 -0.010514587 -0.0009361221 0.012683711 0.013586062 0.016468516 -0.020324273 -0.008727896
-0.016114209 -0.009098238 -0.012941912 0.0021241466 -0.008614621 -0.007820868 0.006018306 -0.009205983
0.0070835263 0.0038054634 -0.0125524765 -0.013113714 0.0025486676 0.003994172 0.010558519 0.009619682
-0.01765841 0.011113073 0.0042200484 0.013168575 -0.005669754 -0.0062266695 0.004414893 0.008246078
0.024877144 0.0005762931 -0.0009902362 -0.0036421195 0.0042879353 -0.0043902593 -0.0033617343 0.00022004991
-0.015771909 0.0018162093 0.0056781597 -0.006078137 -0.0009353391 -0.004939693 0.015483518 -0.00463501
0.003358664 0.008365482 0.001548662 0.019649956 -0.0047527626 0.002539398 -0.0033076133 0.01120036
0.001983552 -0.0020548105 0.008218753 -0.010981858 -0.0074247993 0.011213582 0.011983261 0.011229145
0.02087337 0.0042726444 0.00041329727 0.007320773 -0.015471828 -0.014389318 -0.00456619 -0.013087411
00000000: 57cf be3b adb2 7bbb f393 13ba 57c5 343a
00000010: d1ba bcbb 32ab b2bb 9f90 79bb 15dd 083c
00000020: 1150 aa3b 6bc1 b73b 8277 39bc 63ae e73b
00000030: cdc6 ffbb 1321 a23c 0b9c f53b 2ac8 20bc
00000040: 5ea1 013a f29c 2f3b 7a81 673b 2a34 813c
00000050: e5a5 fe3a be87 a8bc 65ce 8d3b 6bba 22bc
00000060: aa83 00bc 9f1b 2ebb 2344 4b3c 7096 a5bb
00000070: e401 0ebb 1550 073a 2225 d239 daa9 863c
00000080: 95cd 20bc f3f3 76bb 3f00 a43b 169f c53c
00000090: b23b e73b 8106 8f3b 28e6 f0ba aba4 cebb
000000a0: 2608 b33b 0e7f 9139 14ab 88bc f00a 723b
000000b0: 53e2 3d3b 1550 663c fb40 2bba 9395 b3bb
000000c0: 349d c5bb 0561 fd3b c10e 133a 0200 9dbb
000000d0: 593d 0a3c d3c2 b4ba 9dc1 cfbb 3a4e debc
000000e0: 59b2 10bc 6045 2cbc 1766 75ba 57cf 4f3c
000000f0: 1398 5e3c fbe8 863c 177f a6bc 73ff 0ebc
00000100: f201 84bc c710 15bc 500a 54bc 4435 0b3b
00000110: 5724 0dbc 1923 00bc 3635 c53b b1d4 16bc
00000120: ed1c e83b 1565 793b e7a8 4dbc e7da 56bc
00000130: 8c07 273b 8be1 823b a3fd 2c3c df9b 1d3c
00000140: 5fa8 90bc 9b13 363c 5548 8a3b 02c1 573c
00000150: 58c9 b9bb 1709 ccbb cfaa 903b 8f1a 073c
00000160: 27cb cb3c 6012 173a d0ca 81ba a0b0 6ebb
00000170: cf81 8c3b 2adc 8fbb 8b50 5cbb 33bd 6639
00000180: 1734 81bc df0d ee3a db0f ba3b 1c2b c7bb
00000190: 8b31 75ba 26dd a1bb 95ae 7d3c 48e1 97bb
000001a0: 081d 5c3b 600f 093c 79fc ca3a f2f8 a03c
000001b0: 10bd 9bbb 076c 263b 8bc4 58bb b781 373c
000001c0: 7bfe 013b 00aa 06bb f3a7 063c 40ed 33bc
000001d0: bb4b f3bb 2cb9 373c 7155 443c 73fa 373c
000001e0: a1fe aa3c 8a01 8c3b d2af d839 18e3 ef3b
000001f0: 8d7d 7dbc 2dc1 6bbc fa9f 95bb 956c 56bc

94 f4 [210]
0.43874842 0.41131854 0.14374627 0.09625191 0.08115335 0.08375029 0.059115622 0.06846286
0.053826764 0.054744188 0.05869334 0.057695776 0.07279323 0.15989272 0.4404679 0.40775096
0.12939726 0.09918492 0.07153378 0.08453288 0.06278683 0.07060338 0.057982575 0.062654756
0.06858357 0.06225682 0.07083716 0.16285323 0.43441388 0.40414855 0.13119152 0.09287032
0.09008851 0.0867423 0.065624215 0.066251844 0.06305014 0.06370357 0.05459236 0.055496994
0.0674893 0.16128884 0.43975657 0.40311065 0.10641816 0.089447975 0.064990416 0.07513782
0.051137 0.066749625 0.05474419 0.06278684 0.06473513 0.06511768 0.07279324 0.1666455
0.42748907 0.39393947 0.124887764 0.08540443 0.09135566 0.08095002 0.057262868 0.068824336
0.06773402 0.0668735 0.05289323 0.0517826 0.07118633 0.1649599 0.4317251 0.38985085
0.08712063 0.08861741 0.054440115 0.070368834 0.05351741 0.06318138 0.06008928 0.063573435
0.06575024 0.06396305 0.07698235 0.17376526 0.41184852 0.38282704 0.10891733 0.08276138
0.08626694 0.07414228 0.05564632 0.070953734 0.067243665 0.06537145 0.046184447 0.048638932
0.07425357 0.17304148 0.41226172 0.3861452 0.08276138 0.08598043 0.051621962 0.06625185
0.056826606 0.06662555 0.065497965 0.062123593 0.0589752 0.06761178 0.07535723 0.17566982
0.38644716 0.3779549 0.082061835 0.07867796 0.07644457 0.06687349 0.05755185 0.070837155
0.070251256 0.064990416 0.044347398 0.050318234 0.08105174 0.179344 0.38258836 0.38808388
0.07601154 0.081153326 0.048123617 0.056972403 0.056826614 0.062918626 0.06511769 0.065876
0.059534892 0.06977892 0.081457324 0.18468446 0.34822625 0.38310745 0.07633655 0.06954153
0.07347093 0.0674893 0.059673976 0.07324572 0.07130233 0.05939547 0.045275323 0.05129917
0.08054183 0.1838424 0.34298855 0.39329845 0.07335841 0.07590287 0.047252133 0.061182793
0.060501695 0.057117827 0.06131809 0.06473513 0.057262868 0.07118632 0.08424028 0.18689318
0.30774513 0.38595277 0.07199437 0.06942251 0.06882432 0.06906424 0.06625186 0.06858357
0.06699712 0.052893233 0.04320738 0.05257833 0.086171545 0.18828343 0.31568247 0.39290467
0.07888729 0.07751631 0.0496534 0.057839353 0.05769577 0.05755185 0.05925571 0.05841007
0.060911287 0.06858357 0.08674229 0.18798392 0.27496907 0.38451573 0.0827614 0.065750234
0.07267966 0.06822079 0.06422146 0.060227077 0.066001534 0.051621947 0.03808899 0.059951175
0.08824567 0.19282527
00000000: a2a3 e03e 5898 d23e 3932 133e b91f c53d
00000010: ba33 a63d 4685 ab3d 3923 723d 4236 8c3d
00000020: 7479 5c3d 713b 603d 6d68 703d 6852 6c3d
00000030: 9e14 953d ebba 233e 0285 e13e bcc4 d03e
00000040: b780 043e 7721 cb3d 4d80 923d 931f ad3d
00000050: 6296 803d 8198 903d 237f 6d3d 2351 803d
00000060: 8b75 8c3d 0201 7f3d 1313 913d ffc2 263e
00000070: 7f6b de3e 8fec ce3e 1257 063e cb32 be3d
00000080: 5380 b83d f2a5 b13d fd65 863d 0caf 873d
00000090: 6f20 813d 0477 823d 3d9c 5f3d d150 633d
000000a0: d537 8a3d e728 253e c627 e13e 8564 ce3e
000000b0: c4f1 d93d 8030 b73d b219 853d dbe1 993d
000000c0: 0875 513d 07b4 883d 723b 603d 6396 803d
000000d0: da93 843d 6b5c 853d 9f14 953d 1ea5 2a3e
000000e0: d9df da3e 6fb2 c93e 28c5 ff3d 85e8 ae3d
000000f0: ad18 bb3d 20c9 a53d 788c 6a3d c6f3 8c3d
00000100: 22b8 8a3d f9f4 883d 92a6 583d fe19 543d
00000110: 23ca 913d 3feb 283e 130b dd3e 889a c73e
00000120: 4d6c b23d 0b7d b53d 99fc 5e3d 891d 903d
00000130: 1235 5b3d 3d65 813d 2d20 763d ca32 823d
00000140: 10a8 863d 0fff 823d eca8 9d3d 85ef 313e
00000150: cfdd d23e e801 c43e 0d10 df3d cc7e a93d
00000160: b9ac b03d e8d7 973d 65ed 633d 3150 913d
00000170: 0cb7 893d 77e1 853d e72b 3d3d 9e39 473d
00000180: 4112 983d c931 313e f813 d33e d3b4 c53e
00000190: cc7e a93d 8216 b03d 8d71 533d 0daf 873d
000001a0: 04c3 683d fa72 883d cc23 863d 4f75 7e3d
000001b0: fb8f 713d 0b78 8a3d e454 9a3d cae2 333e
000001c0: 67dc c53e 4e83 c13e 0910 a83d e921 a13d
000001d0: f98e 9c3d f8f4 883d 7dbb 6b3d 1213 913d
000001e0: e4df 8f3d b219 853d 9ea5 353d 7e1a 4e3d
000001f0: 74fe a53d f4a5 373e 9fe2 c33e eeb2 c63e
00000200: f0ab 9b3d b733 a63d 451d 453d e55b 693d
00000210: 06c3 683d 7bdb 803d 6c5c 853d ffe9 863d
00000220: dcda 733d 40e8 8e3d 19d3 a63d ec1d 3d3e
00000230: b64a b23e a926 c43e 5656 9c3d ca6b 8e3d
00000240: ed77 963d d537 8a3d b36c 743d da01 963d
00000250: f506 923d aa48 733d 9e72 393d 141f 523d
00000260: 1df3 a43d 2f41 3c3e 329c af3e 6a5e c93e
00000270: ef3c 963d f772 9b3d 748b 413d cf9a 7a3d
00000280: a0d0 773d 62f4 693d ad28 7b3d da93 843d
00000290: 788c 6a3d 22ca 913d 2b86 ac3d ed60 3f3e
000002a0: c590 9d3e 9a9b c53e c971 933d 642d 8e3d
000002b0: c4f3 8c3d 8d71 8d3d 0eaf 873d 8b75 8c3d
000002c0: c935 893d 93a6 583d 39fa 303d 605c 573d
000002d0: b57a b03d 5fcd 403e 22a1 a13e cd2a c93e
000002e0: a98f a13d dfc0 9e3d 5d61 4b3d f5e8 6c3d
000002f0: 6652 6c3d 7dbb 6b3d 1eb6 723d 663f 6f3d
00000300: 1d7e 793d 8b75 8c3d f1a5 b13d db7e 403e
00000310: bfc8 8c3e 3fdf c43e cf7e a93d 0fa8 863d
00000320: 13d9 943d 57b7 8b3d 8a86 833d abb0 763d
00000330: d02b 873d 8971 533d 3303 1c3d 5d8f 753d
00000340: 25ba b43d fd73 453e

97 f4 [6]
31.800468 100.018486 31.86479 100.03528 31.93571 100.0515
00000000: 5c67 fe41 7709 c842 17eb fe41 1012 c842
00000010: 567c ff41 5e1a c842
