Assets/ZooheimTest/Models/run3/WolfBehavior.onnx (onnx, 405109 bytes, 14 tensors)

discrete_act_size_vector f4 [1, 3]
000000 00 00 00 40 00 00 40 40 00 00 80 3f
       2.0 3.0 1.0

network_body.observation_encoder.processors.0.normalizer.running_mean f4 [630]
000000 19 a4 22 3e 8e 33 46 3e e6 a3 fb 3b 9a 53 64 3c
       0.15882911 0.19355604 0.0076794503 0.013935948
000010 27 3a 2a 3c 96 f0 77 3b d8 a8 b8 3b 5e eb b7 3b
       0.010389841 0.003783261 0.005635362 0.0056127748
000020 98 b3 86 3b 58 5e b2 3b 26 64 43 3b 0a 5a 46 3b
       0.0041107647 0.0054433756 0.0029814332 0.003026607
000030 b2 f2 ed 3b 09 86 0e 3e ad 15 1e 3e 2d ba 45 3e
       0.0072615976 0.13918318 0.15437956 0.19309302
000040 bd c6 05 3c 66 0d 4a 3c e8 98 2a 3c cf 5c 8d 3b
       0.008165059 0.012332296 0.010412432 0.004314042
000050 4a 44 a7 3b d8 13 ac 3b 12 71 87 3b 37 5c bc 3b
       0.0051045762 0.005251389 0.004133352 0.0057482976
000060 73 fd 3b 3b d5 da 58 3b ab 49 0e 3c bb c5 12 3e
       0.0028685003 0.0033089418 0.008684556 0.1433324
000070 6d be 1e 3e 5a 49 41 3e b4 5d e1 3b 1f 01 57 3c
       0.15502329 0.18875638 0.0068776254 0.013122826
000080 f6 88 1c 3c 74 bc 61 3b 65 e3 b0 3b 51 fb c5 3b
       0.009554138 0.0034444602 0.0053982013 0.006041922
000090 be 4a 89 3b 52 3c a0 3b 0d ef 52 3b 76 68 2f 3b
       0.004189818 0.0048900032 0.0032185942 0.0026765144
0000a0 5a 0a 00 3c ef e9 12 3e 94 16 17 3e 3f 0c 3c 3e
       0.007814968 0.14347051 0.14754707 0.18364047
0000b0 eb 0e ef 3b 17 a4 22 3c 8f bb 0d 3c 9e 40 8c 3b
       0.0072954795 0.009926817 0.0086506745 0.004280164
0000c0 ca cf 87 3b 35 08 8a 3b 48 1a 8e 3b e6 2d b7 3b
       0.0041446434 0.004212404 0.004336629 0.0055901883
0000d0 df a0 31 3b 92 31 52 3b a3 43 56 3c 14 b9 1c 3e
       0.0027103943 0.0032073003 0.013077649 0.15304977
0000e0 6d 16 15 3e f3 55 38 3e e1 81 e9 3b 65 fc 40 3c
       0.14559336 0.18001537 0.0071260785 0.011778926
0000f0 1c 7a 09 3c fc d4 47 3b 51 3c a0 3b 40 76 c7 3b
       0.00839093 0.0030491939 0.004890003 0.0060870945
000100 d4 5c 8d 3b a5 cd 91 3b 37 7e 4e 3b 55 c9 25 3b
       0.0043140445 0.0044495636 0.0031508335 0.0025297005
000110 79 4f 1f 3c 82 93 1b 3e 36 b7 0e 3e 13 35 34 3e
       0.009723538 0.15192989 0.13937077 0.17598371
000120 e5 c2 c3 3b 8b 3f 11 3c 32 f7 00 3c 64 61 7c 3b
       0.005974161 0.0088652475 0.007871436 0.0038510198
000130 73 bc 61 3b ef 66 8a 3b 27 83 8b 3b 2e c7 af 3b
       0.00344446 0.0042236964 0.004257578 0.0053643202
000140 01 81 15 3b ae a6 42 3b 8b ce 65 3c d0 ba 25 3e
       0.0022812488 0.00297014 0.014026294 0.16184545
000150 55 68 09 3e a8 4d 2d 3e 60 eb b7 3b db 8f 28 3c
       0.13418706 0.16924155 0.0056127757 0.010288204
000160 7f d6 ec 3b 42 d9 33 3b c7 d7 8e 3b 57 f3 be 3b
       0.0072277184 0.0027442728 0.0043592188 0.005827348
000170 64 97 85 3b 1c f6 85 3b 92 9c 45 3b 0f 06 14 3b
       0.004076885 0.0040881764 0.0030153138 0.002258662
000180 f4 a1 2c 3c 01 9c 21 3e d8 fe 03 3e 03 14 2e 3e
       0.0105366595 0.15782167 0.12890184 0.16999821
000190 87 2e 88 3b 31 f7 00 3c a6 43 d6 3b e7 0e 6f 3b
       0.004155937 0.007871435 0.006538826 0.0036477388
0001a0 bd ea 66 3b 5e 2c 92 3b 59 9f 8c 3b b7 e7 9c 3b
       0.003523513 0.0044608554 0.0042914567 0.0047883647
0001b0 c4 d7 0e 3b 7c d3 22 3b 1b af 73 3c ac ad 2a 3e
       0.0021796087 0.0024845293 0.014873291 0.16667813
0001c0 16 52 f6 3d 28 93 2c 3e 25 83 8b 3b 48 33 1e 3c
       0.120273754 0.1685301 0.004257577 0.009655781
0001d0 5a 0a 00 3c 2e a5 1d 3b 81 6b 79 3b 64 e3 b0 3b
       0.007814968 0.0024054754 0.0038058462 0.005398201
0001e0 9f e0 69 3b d7 c7 80 3b 3b 95 0f 3b 19 09 de 3a
       0.0035686863 0.0039300728 0.0021909017 0.0016939967
0001f0 cf 0a 2a 3c 23 2f 28 3e d0 be ec 3d 79 e4 2b 3e
       0.0103785535 0.16424231 0.11559832 0.16786374
000200 62 cc 6f 3b d9 f4 e3 3b 87 39 d9 3b 34 13 5b 3b
       0.0036590328 0.0069566783 0.0066291722 0.0033428194
000210 db 5f 57 3b 14 71 87 3b 75 1c 84 3b 54 a7 93 3b
       0.003286353 0.004133353 0.0040317127 0.004506031
000220 d6 c7 00 3b e3 76 18 3b fe 20 73 3c 11 78 2e 3e
       0.0019650362 0.0023264221 0.014839409 0.17037989
000230 a5 62 d5 3d fb 9e 2c 3e 73 bc 61 3b 77 a9 09 3c
       0.104192056 0.16857521 0.00344446 0.00840222
000240 18 9e ea 3b 56 5e 32 3b c9 42 82 3b ae ef a3 3b
       0.0071599595 0.0027216873 0.0039752466 0.0050029373
000250 54 1d 58 3b 96 75 76 3b 89 2e 08 3b 36 e9 c1 3a
       0.0032976465 0.0037606708 0.002077969 0.0014794234
000260 6d 05 43 3c b9 88 2e 3e 7a 3e cd 3d 5f 4f 30 3e
       0.011903149 0.17044343 0.10021682 0.17217778
000270 84 ac 53 3b 8b 0f c0 3b 5d 15 d1 3b 35 13 5b 3b
       0.0032298872 0.005861228 0.0063807205 0.0033428196
000280 18 74 51 3b ce 99 7e 3b e1 f4 63 3b 57 9f 8c 3b
       0.0031960066 0.0038849 0.003478341 0.0042914557
000290 1b f6 05 3b f8 28 fa 3a f6 17 71 3c e9 dd 30 3e
       0.002044088 0.0019085696 0.014715185 0.17272152
0002a0 74 de bc 3d 89 05 32 3e a4 8c 37 3b 48 c2 f2 3b
       0.09222117 0.17384924 0.0028007412 0.007408414
0002b0 b0 f2 ed 3b 91 9c 45 3b 94 c6 5e 3b 0a 0e 9b 3b
       0.0072615966 0.0030153135 0.0033992874 0.004731898
0002c0 ee ba 3c 3b 46 c2 72 3b da 1e fd 3a b6 e7 9c 3a
       0.0028797942 0.0037042066 0.0019311563 0.0011970911
0002d0 ae 2a 46 3c 82 cd 33 3e 6e 51 b7 3d c6 ff 33 3e
       0.012095137 0.17558864 0.08951078 0.17578039
0002e0 5f 37 63 3b 72 fd bb 3b d7 a8 b8 3b ae d0 5b 3b
       0.0034670455 0.005737 0.0056353617 0.003354113
0002f0 a5 8c 37 3b 8d 5b 6b 3b ef ba 3c 3b 5f 61 7c 3b
       0.0028007415 0.0035912723 0.0028797945 0.0038510186
000300 65 a2 d6 3a cd 45 cc 3a e7 92 72 3c 28 7e 34 3e
       0.0016375302 0.0015584767 0.014805532 0.1762625
000310 ba 17 a5 3d 79 61 34 3e 88 c3 14 3b 70 27 d5 3b
       0.08061166 0.17615308 0.0022699554 0.0065049455
000320 9f e0 e9 3b 19 74 51 3b 36 13 5b 3b d3 7e 9f 3b
       0.0071373726 0.0031960069 0.0033428199 0.0048674135
000330 fd 3f 3b 3b 43 c2 72 3b c6 42 02 3b 7c d6 6c 3a
       0.0028572076 0.0037042059 0.0019876226 0.0009034646
000340 76 fd 3b 3c ea 7c 37 3e f4 f9 22 3e 2c 9b 46 3e
       0.011474004 0.17918745 0.15915662 0.19395131
000350 86 f8 fe 3b 51 b2 64 3c e4 98 2a 3c 96 f0 77 3b
       0.007781091 0.01395853 0.0104124285 0.003783261
000360 91 07 b9 3b 83 82 ba 3b fd eb 88 3b ce 1b b3 3b
       0.005646654 0.0056918277 0.0041785226 0.005465961
000370 dc ca 4a 3b 46 03 4d 3b a6 6d ef 3b 34 d7 0e 3e
       0.0030943668 0.0031282469 0.0073067723 0.13949281
000380 8b 68 1e 3e e7 18 46 3e b7 41 07 3c c4 3c 4a 3c
       0.15469567 0.19345437 0.008255414 0.012343589
000390 a5 f7 2a 3c 8b bb 8d 3b 4a 44 a7 3b bb 09 af 3b
       0.01043502 0.0043253354 0.0051045762 0.005341736
0003a0 34 08 8a 3b a5 19 bd 3b b0 a6 42 3b 99 c6 5e 3b
       0.0042124037 0.0057708793 0.0029701404 0.0033992885
0003b0 67 a8 0e 3c a0 13 13 3e 5c 0e 1f 3e 33 9f 41 3e
       0.008707142 0.14362955 0.15532821 0.18908386
0003c0 9a 53 e4 3b da 5f 57 3c af e7 1c 3c 74 bc 61 3b
       0.006967974 0.013145411 0.009576722 0.0034444602
0003d0 df a0 b1 3b 74 92 c8 3b 27 83 8b 3b 86 58 a1 3b
       0.0054207887 0.006120974 0.004257578 0.004923883
0003e0 bb 55 5a 3b b2 11 36 3b 36 f7 00 3c cd 4c 13 3e
       0.003331526 0.0027781543 0.00787144 0.14384766
0003f0 a8 5d 17 3e d1 76 3c 3e 22 2b f0 3b 17 a4 22 3c
       0.14781821 0.184047 0.0073293606 0.009926817

network_body.observation_encoder.processors.1.normalizer.running_mean f4 [6]
000000 eb 89 90 42 28 2c 6b 42 b1 82 90 42 f7 73 6b 42
       72.26937 58.79312 72.25526 58.863247
000010 94 78 90 42 b4 ba 6b 42
       72.235504 58.932327

network_body._body_endoder.seq_layers.0.weight f4 [128, 636]
000000 c5 ff 5e bd 8a 57 ae 3d dd 51 e6 3b c6 a6 30 3b
       -0.05444314 0.085127905 0.007028802 0.0026954873
000010 63 59 5b 3d 5b ae 22 3d 9d b7 15 3c 5b f1 17 bd
       0.053552043 0.03971706 0.009138015 -0.03709541
000020 c6 d2 fd bd c1 2f a3 3c d3 36 c9 bd f6 a2 a3 bc
       -0.123937175 0.019920232 -0.0982491 -0.019975167
000030 27 9f df bc b7 98 8b 3d f5 b8 ae 3d e6 e0 18 bd
       -0.02729757 0.068162374 0.085313715 -0.037323855
000040 0f 8c fe 3c 50 62 a7 bc b7 ca 84 bb c8 ae 98 bc
       0.031072645 -0.020432621 -0.004052486 -0.01863803
000050 c3 29 7a bd 59 8b b8 bc e8 0e bb bd f7 97 b4 3c
       -0.061074983 -0.022527384 -0.091337025 0.022045119
000060 a6 24 73 bd 68 13 cc 3a f2 75 0b bd 46 63 ed bc
       -0.059361123 0.0015569748 -0.03404803 -0.028978001
000070 32 74 db 3b d8 eb 22 bd b7 ab 47 3d e5 8d 30 3d
       0.006697201 -0.0397757 0.048747744 0.04310407
000080 94 67 23 3d 77 29 ce 3a b0 7a 42 3c f1 fe 3a 3b
       0.0398937 0.001572891 0.011870071 0.0028533305
000090 8a d9 0b 3d db 8c d8 bc d4 2a 27 3d 54 a6 d4 bc
       0.03414301 -0.026434353 0.04081233 -0.025958218
0000a0 74 a6 53 bc 3d df 80 3d 8e 5e 6a bc 3f 4c 58 3c
       -0.0129181035 0.06292579 -0.01430477 0.013201772
0000b0 36 b8 d7 bd 39 28 93 3c 9a 8c 40 3c 48 de 83 bd
       -0.10533182 0.017963516 0.011752272 -0.06438881
0000c0 e3 d8 1b bd 90 36 8d 3d 87 ba 9a bc 04 26 03 3b
       -0.038048636 0.068951726 -0.018887771 0.0020011673
0000d0 6d 52 0c bc 22 bb c2 3d 71 80 10 bd 5c fa ff 3c
       -0.008564574 0.09508349 -0.03527874 0.03124731
0000e0 9c 3c dd 3c 93 fd 08 bd ee f0 47 bc f1 f2 24 3d
       0.02700644 -0.033444952 -0.012203438 0.04027075
0000f0 a4 fa 05 be f4 d7 34 3c 48 21 31 3d 34 18 4c bb
       -0.13083893 0.011037815 0.04324463 -0.0031142356
000100 b5 6a ad bc 8d 1a c4 3b df 27 db bd a6 18 4f 3c
       -0.021169046 0.0059846104 -0.10700964 0.012640154
000110 93 26 49 bd 62 d8 c7 bc 9a ec b5 bb aa 73 86 3b
       -0.049109053 -0.024395172 -0.0055518867 0.0041031437
000120 92 39 a7 3c 8b 0d ae bc 0f 67 e7 3c 04 4f 6a bd
       0.020413194 -0.021246692 0.028247384 -0.05720426
000130 a0 f4 a7 bc f2 27 4b 3b 58 59 8e bc cd 69 9f bb
       -0.020502388 0.003099915 -0.017376587 -0.0048649074
000140 7f 44 8b ba 6f 7b c0 bb ad 0c 03 3d ed 18 3d 3d
       -0.0010625272 -0.0058740894 0.03199451 0.04616635
000150 c8 24 6c bc 49 08 b8 3d b1 5e 59 3b f9 b3 08 bd
       -0.014413066 0.08985955 0.0033168013 -0.03337476
000160 4a f2 87 bc a2 11 5b bc 0c f4 c7 3c 42 99 e4 bc
       -0.016595025 -0.013370903 0.024408363 -0.02790511
000170 5e b5 2b bd 02 82 5e bc a6 be f2 bc ea 1c 10 3c
       -0.041921012 -0.013580801 -0.029631924 0.008795956
000180 01 2d d5 3c d4 68 9e 3c 0c d1 08 3d f5 d0 da 3a
       0.026022436 0.019337095 0.033402488 0.0016694354
000190 93 d6 a1 3c 74 d6 d2 bb fc ee 40 3c d6 93 05 bd
       0.019755637 -0.006434256 0.011775728 -0.03261169
0001a0 93 27 1e 3d 16 8d 26 3d 31 c2 7a bc f6 43 9e bd
       0.03861196 0.040661894 -0.015305088 -0.07727806
0001b0 46 91 9d bb 8d fb 66 bd 2d d6 63 bc 1b 8d 78 bc
       -0.0048085777 -0.05639224 -0.013906044 -0.015170361
0001c0 f5 df 89 3d 9a 24 0d bd 6f ac 87 3d 17 bb 22 3d
       0.067321695 -0.034458734 0.06624686 0.039729204
0001d0 c8 34 67 b9 b0 f3 ad 3d 6a 81 94 bd 15 b1 8c 3c
       -0.00022049539 0.08493745 -0.07251246 0.017174283
0001e0 ff ea f3 bd cb 71 1b bd 09 c0 2f 3c 9a 89 7f 3d
       -0.11910056 -0.03795032 0.010726937 0.062387086
0001f0 c9 0e ff bc 4f 5a 47 bd a2 b0 64 3c 54 2a 28 bd
       -0.03113498 -0.04867011 0.013958128 -0.041055992
000200 4e 79 ca bc 67 fb 93 36 2e c3 99 bd ec 57 da 3c
       -0.024716046 4.4102085e-06 -0.07507931 0.026653253
000210 69 cc 8f bd 8a 47 b3 bd 3e b5 d1 bc 26 cc 7a 3d
       -0.0702141 -0.08753879 -0.025599118 0.061229847
000220 51 11 85 bc f6 65 91 bd 65 35 87 3d 90 93 ae bb
       -0.016243609 -0.07099526 0.06601981 -0.0053276494
000230 4b ed 19 3d 1e 07 eb bc b7 46 88 bd 2b a5 fa bb
       0.037579816 -0.028689917 -0.06654113 -0.007649084
000240 62 ef be bd 75 0d 88 bd fa 11 e0 bc 50 82 a7 bd
       -0.093230024 -0.06643192 -0.027352322 -0.08179152
000250 67 16 55 bd bc 48 df 3d 75 f0 c9 bc 6b f5 94 bc
       -0.052023318 0.10902545 -0.024650792 -0.01818343
000260 1d 52 db b8 8a 61 64 bd 86 50 cc bc c9 7e 86 bd
       -0.000104580286 -0.055757083 -0.02494074 -0.06567151
000270 79 d8 16 bc eb 41 b0 bc 5a 02 97 bd 4c 14 20 bd
       -0.009206885 -0.021515807 -0.073734954 -0.039081857
000280 27 15 48 3d 1a bd 3d 3d 9e d8 96 bd 43 b7 85 3d
       0.048848297 0.04632292 -0.07365535 0.06529095
000290 a5 32 43 bd ee a4 22 3d 42 18 37 3c 4a e8 72 3d
       -0.04765572 0.03970807 0.011175217 0.05930356
0002a0 aa 87 a8 3d 63 55 ac bc 88 24 87 bc 75 55 80 3d
       0.08229001 -0.02103681 -0.016496912 0.062663
0002b0 3f 97 5e bd 70 77 95 bd 85 f5 a4 3d 43 64 bb 3d
       -0.05434346 -0.072981715 0.08054642 0.09149983
0002c0 62 a7 49 bc 19 65 12 bd 78 61 55 bc af 8f 13 bd
       -0.012307974 -0.035740945 -0.013023727 -0.0360257
0002d0 f3 95 d2 3c 32 97 bc 3b 07 bd 92 3d ba e6 77 3d
       0.025706267 0.0057553286 0.0716496 0.060522772
0002e0 df ab 86 3c 8c 97 d3 bc c9 cd b9 ba 04 e4 81 3d
       0.016439376 -0.0258291 -0.0014175709 0.06342319
0002f0 66 ce 97 3d 81 73 ee 3c 54 1e 6d bd b9 c7 28 bd
       0.07412414 0.02910781 -0.05789025 -0.041206095
000300 6e bf f3 3c aa f0 22 bd 03 81 ce bc 7f b6 e3 3a
       0.029754367 -0.039780296 -0.025208002 0.0017373114
000310 bb cf e8 bc 55 7d cd 3d 7d 8b 15 3c 8f 8b 90 3c
       -0.028419366 0.10033671 0.009127495 0.017644672
000320 ee ed 8c bd 7e 3f 73 3c eb 9b 44 3d 6b 71 7b 3c
       -0.06881319 0.014846681 0.048000257 0.015346865
000330 06 cb d5 3c ff d6 71 bd 1e 78 3c 39 8c a8 5e 3d
       0.026097786 -0.059042927 0.00017973824 0.054359958
000340 d6 05 20 3d 75 42 f4 bc e1 dd 8c bc 20 da 0f 3d
       0.039068066 -0.029816845 -0.017195644 0.03512013
000350 db 67 1b bd 44 a9 13 bd 6d dc 8e bc e6 f2 56 bd
       -0.03794084 -0.036050096 -0.017439092 -0.05247774
000360 92 0d 68 bd 70 9f ec bc f7 da 68 3d 4a c4 b2 bc
       -0.056653567 -0.02888462 0.056849446 -0.021822114
000370 25 88 7b 3b 21 e9 cb bd a7 98 45 bd df 9a 8a 3d
       0.003838071 -0.09956575 -0.048241284 0.067678206
000380 88 36 cc bc 73 4a 91 3c a8 81 cc 3c 73 72 dd 3a
       -0.024928346 0.017735695 0.024964169 0.001689507
000390 9e 4e 73 3d 28 f8 ef bd 61 3e 73 bd 5d 3e c2 bd
       0.059401147 -0.11717254 -0.05938566 -0.09484551
0003a0 2a 50 4b bc 16 a8 22 bd 1c 81 41 ba 7f b6 b7 38
       -0.012409249 -0.03971108 -0.00073816045 8.7601125e-05
0003b0 29 af c9 bb ca c8 6d 3c 78 f4 df bc e8 f2 34 3c
       -0.006154914 0.014513204 -0.027338251 0.0110442415
0003c0 b3 c5 b5 bd 07 67 b4 3d cf 14 62 3d f7 66 a4 bc
       -0.08875599 0.088087134 0.055195626 -0.020068629
0003d0 1d 86 31 3d b2 9d a9 3c 7a 17 4d bc da 27 1d 3c
       0.04334079 0.020705078 -0.012517804 0.009592021
0003e0 d7 37 af bd 76 ea 9d 3c 9e 5d 33 bd a8 bd 12 3c
       -0.085555725 0.019276839 -0.043790452 0.00895635
0003f0 e6 aa 04 bd 22 86 b1 bc 12 2a bb bd 41 02 a2 3c
       -0.032389544 -0.021670405 -0.09138884 0.019776465

network_body._body_endoder.seq_layers.0.bias f4 [128]
000000 d4 a9 e5 bb ae 6f 82 bc c3 de f8 bb a4 ea a3 3b
       -0.0070087705 -0.015922394 -0.0075949146 0.0050023366
000010 69 41 1c bc f3 3c 66 bb 69 a6 2e 3c 47 4c 91 ba
       -0.009537079 -0.0035131543 0.010659792 -0.0011085354
000020 a3 51 9d 3b b5 7c 24 3c b1 a5 06 bc 59 df 95 3b
       0.0048009916 0.010039498 -0.008218215 0.0045737443
000030 dc d9 a8 bc 4d ca 1a bc ad e8 82 bc 7a 00 50 bb
       -0.020611696 -0.009447646 -0.01598009 -0.0031738565
000040 b0 93 4d ba 72 5a f6 ba 46 fa 36 3c 35 89 ee 3b
       -0.00078421365 -0.0018795265 0.011168068 0.00727954
000050 bd 0b a3 3b 81 bb de 3b 3d f1 55 bc 04 64 83 bb
       0.0049757645 0.0067972546 -0.013058004 -0.0040097255
000060 a2 03 23 bb 01 71 a9 bc e8 ed 97 bb c8 bf ba bc
       -0.0024873991 -0.020683767 -0.004636515 -0.022796527
000070 d7 3b 96 bb bd 23 08 3c 75 7a 9e bc ff 65 32 bc
       -0.00458477 0.008309302 -0.019345501 -0.010888576
000080 52 8c 6a 3c 43 36 18 bb 6d fc 25 bb 99 a4 b6 3b
       0.0143156815 -0.0023225702 -0.002532746 0.005573821
000090 53 bc 36 3c dc 02 96 bc ae 5a d6 bb b0 45 0b 3b
       0.011153298 -0.01831191 -0.0065415716 0.0021251254
0000a0 a7 0d 0f bc 06 03 2e bc df 24 d0 bb 49 ee bc bb
       -0.008731282 -0.010620838 -0.0063520516 -0.0057657105
0000b0 3f a7 8f bb 17 02 87 bc 57 86 8d bc 33 44 b8 bc
       -0.004383951 -0.016480489 -0.017275972 -0.022493457
0000c0 18 17 83 bb b8 a2 08 bb 8f bc 1c 3c a6 d5 e0 3b
       -0.0040005557 -0.002084894 0.00956644 0.0068614064
0000d0 93 2c 9e ba 00 7f d5 bc 8c ce 67 3c 5f 73 40 3b
       -0.0012067728 -0.026061535 0.014148366 0.0029365642
0000e0 f1 a0 ce bc 32 8c 68 3c e1 dd a7 bc 26 6e f6 ba
       -0.025223227 0.014193581 -0.020491542 -0.0018801137
0000f0 3b 49 22 bb af e8 d5 bb 9d 47 f5 bb a1 09 80 3c
       -0.0024762887 -0.006527982 -0.0074853436 0.015629591
000100 c9 b8 0f 3c 2b 23 79 bc f9 d5 5e bc 46 06 a7 bc
       0.008772084 -0.015206139 -0.01360082 -0.020388734
000110 d9 bf 4a 3b a8 34 c2 bc de 48 7d bc de 40 d0 bb
       0.0030937104 -0.02370675 -0.015459267 -0.006355389
000120 fe 7a 10 3c 87 d3 05 bc a3 d2 9f bb a6 1c 87 3c
       0.008818386 -0.008168108 -0.004877405 0.016493153
000130 b0 64 8c 3c 3a db ab 3c 9e d1 2e bc 3f bb 2f bc
       0.017137855 0.020978559 -0.010670094 -0.010725795
000140 1d 5d 79 3c d5 10 0d 3c 53 0b b7 ba 08 d4 20 3c
       0.015219954 0.00860997 -0.0013965167 0.009816177
000150 a2 32 88 bb 6b c7 23 3c 84 80 11 bd 6c 31 5d bb
       -0.0041564265 0.009996275 -0.035522953 -0.0033751382
000160 62 e4 0b bc a6 e3 d2 bb 21 c8 36 3b 69 05 2d 3c
       -0.008538337 -0.006435829 0.0027890282 0.010560372
000170 3c ec 29 bb 0f 6c 9e 3b d8 b4 08 bc 77 30 09 3c
       -0.002592816 0.004834659 -0.008343898 0.008373371
000180 b6 20 0c bc 2a ab b7 3b 48 be 7b 3b 18 fb 64 3c
       -0.008552721 0.005605121 0.0038412977 0.013975881
000190 d6 3b 48 3c 44 44 4d bc b5 e9 7f bc c4 e0 8c 3c
       0.012221297 -0.012528483 -0.015619685 0.01719702
0001a0 4a 37 ba 3a 00 02 5d 3b e3 06 99 3c 4a 7b 81 bc
       0.0014207151 0.0033723116 0.018680042 -0.01580586
0001b0 fc 63 4b bc 01 84 35 bc b5 e4 9a 3a 6d be 84 3c
       -0.012413975 -0.011078835 0.0011817428 0.016204083
0001c0 34 96 b7 bc 4b 83 1f bc b2 1b 6e bc a9 6a 10 bc
       -0.02241049 -0.0097358925 -0.01453297 -0.008814492
0001d0 33 50 b0 3c c6 3a 8a 3c f5 a7 a0 3b f7 e8 c6 3a
       0.021522617 0.016873728 0.0049028345 0.001517563
0001e0 ad 54 8f bc 3a 85 78 3a f4 f7 ab 3b cb cf b9 bb
       -0.017496431 0.00094803015 0.005248064 -0.005670523
0001f0 61 c4 6b ba 9d f0 33 ba 7a 0d 67 3b 67 c0 8e 3c
       -0.00089938013 -0.0006864162 0.0035255835 0.017425729

network_body._body_endoder.seq_layers.2.weight f4 [128, 128]
000000 69 68 41 bc 5c 4c 76 bd 92 be 88 3d 63 7c 94 bc
       -0.0118046785 -0.060131416 0.066769734 -0.018125718
000010 83 b3 ff bb d1 41 ab bc 59 11 13 bd 23 c6 78 bc
       -0.007803382 -0.020905407 -0.035905216 -0.015183958
000020 6c 8b 3c 3d e2 f7 62 bd 64 b2 da bd c8 5b c6 bd
       0.0460314 -0.05541218 -0.106785566 -0.09685475
000030 f7 66 81 bd ea 6c 1e bd eb 34 0e be 12 cc a6 3c
       -0.06318467 -0.038678087 -0.13887374 0.02036098
000040 4a 94 57 bd 03 d6 3b bc c9 28 7b 3d f6 4d 7f bd
       -0.052631654 -0.011464599 0.061318193 -0.06233021
000050 dd 3c 89 ba ca 1f be 3c 4a b3 82 bd 4d c7 c1 3d
       -0.0010470409 0.023208518 -0.06381853 0.09461842
000060 93 4a 0a 3e fb f4 5f 3d 37 a1 26 bc ba 15 3b 3e
       0.1350501 0.05467699 -0.010170273 0.18270007
000070 38 6a d5 bd d6 ca 86 3d c6 01 26 3d e3 f4 66 bb
       -0.1042065 0.06581657 0.040529035 -0.0035241179
000080 77 dc fa 3d 26 67 5c bd 64 cd 0d 3c 46 11 8f bc
       0.122490816 -0.053809308 0.008654926 -0.017464291
000090 37 41 df 3a 32 c9 1f be 69 69 54 3d 0c ab 8b bc
       0.0017032985 -0.15604094 0.05185834 -0.017049335
0000a0 95 2e 29 be cd cb b0 bd 63 4a 21 3c f5 43 36 be
       -0.16521676 -0.08632622 0.009844395 -0.17799361
0000b0 fb 9f a9 3d 6f c8 9c 3c 53 9b af 3d dd 2e d4 3c
       0.08282467 0.019138543 0.085745476 0.025901252
0000c0 cc 1b 94 bd cc 17 45 bc 5f 96 26 3c 95 68 cf 3c
       -0.07231864 -0.012029599 0.010167687 0.025318423
0000d0 0e 9f 15 bd 34 41 1e be 37 0f 4d 3e 6d 91 8a 3b
       -0.03652864 -0.1545456 0.20025335 0.004228762
0000e0 47 c6 51 bd a4 05 98 bd c2 2d 88 b9 49 8a 40 3d
       -0.051214483 -0.07422951 -0.00025974034 0.04700688
0000f0 be 06 a5 bd 7f d0 db bd 1e d2 6c 3d ac 4e b0 bd
       -0.080579266 -0.10733127 0.05781757 -0.086087555
000100 c6 59 c4 bd 67 1c ff bd 90 23 49 be 6e 5f be bc
       -0.095874354 -0.12456589 -0.19642472 -0.023238864
000110 b0 63 03 3e 8a 8e 5c bc 54 3d ea bd da 5a c3 bc
       0.12830997 -0.013461718 -0.11437479 -0.023847032
000120 de e0 ed bb 23 93 ca 3c f1 ee b8 bd 34 df 3f 3e
       -0.0072594723 0.024728363 -0.090299495 0.18737489
000130 ac d8 1f 3e 3f 74 29 3d bf 5c a2 bb 23 b8 8f be
       0.15609998 0.041370627 -0.004954904 -0.28070173
000140 26 58 cb bd 8b c4 a0 3d 69 19 8b 3d 4d 2f 1a be
       -0.09928922 0.078499876 0.06791956 -0.15057106
000150 23 dc d4 3c f9 28 f4 bd 95 12 38 3e 3b b7 b2 3c
       0.025983876 -0.119218774 0.17975838 0.021815887
000160 82 58 2b 3e 08 eb 5e 3c 6f 70 33 be af ac 34 be
       0.16732982 0.0136058405 -0.17523359 -0.17643999
000170 2c 6c e3 3b 4b bb 1c 3e 05 50 eb bc da 48 21 3d
       0.0069403853 0.15305822 -0.02872468 0.039376117
000180 5b 71 8e 3d 18 2e b8 bb 2c df b3 3c a0 64 43 3e
       0.069552146 -0.005620729 0.021957003 0.19081354
000190 5a c1 e1 3d 48 ca 5a 3d f3 41 23 bd b7 89 b6 3d
       0.11023207 0.053415567 -0.039857816 0.08912986
0001a0 03 8a c2 3d 6b 30 9f 3d b3 b6 01 3d 6c b7 16 3c
       0.0949898 0.07772907 0.031668376 0.009199005
0001b0 ca e0 ca bd 12 7f 34 be 68 e5 5c bd bb 50 12 3d
       -0.09906156 -0.17626598 -0.053929716 0.03572152
0001c0 dd 88 8a 3d 74 6d 5a bd 3c f6 2d 3d 24 59 c0 3d
       0.06764386 -0.05332704 0.042471156 0.09392002
0001d0 d8 f5 a2 3d b0 45 1b 3c 50 5e 12 3d 23 b4 5f 3e
       0.07957047 0.009477064 0.035734475 0.2184606
0001e0 09 3b 1d be db 50 12 3d 03 a8 b1 bc b6 a4 85 bd
       -0.15354551 0.03572164 -0.02168656 -0.06525557
0001f0 57 ab a2 bd a5 c9 60 3d 88 e0 f0 3d 23 71 ea 3b
       -0.07942837 0.054879803 0.11761576 0.0071546
000200 43 c9 49 3d eb 01 b0 3d 48 ad d4 3d c2 42 47 3c
       0.049264204 0.08594116 0.10384613 0.012161912
000210 97 a0 ec 3d e8 87 18 be ab f2 5d 3e 84 32 38 be
       0.115540676 -0.14895594 0.21674602 -0.1798802
000220 1b cd 92 3d 3a 61 b8 3d 6a f4 26 3d 22 6f fb bc
       0.07168027 0.090029195 0.040760435 -0.03069264
000230 c3 23 cb bd e2 d2 95 bd a9 4f e4 bc 29 4d 29 3e
       -0.099189304 -0.07315613 -0.027870016 0.1653334
000240 fb 62 33 3c 71 d8 0c 3d ba 05 01 be 78 8d 39 3e
       0.010948892 0.034386102 -0.12599841 0.18120372
000250 a4 78 e8 bd 32 62 5e 3d 38 e8 7d 3d f8 6f bc 3d
       -0.113511354 0.054292865 0.06198904 0.09201044
000260 1d 62 dc bd 30 cb 07 bc 3d fc f1 bd ab 39 81 bd
       -0.10760901 -0.00828819 -0.11815689 -0.063098274
000270 b9 f2 48 be 4f fc 9f 3b 30 a9 94 bd 7d 67 94 bd
       -0.19623841 0.0048823725 -0.072588325 -0.07246301
000280 4d f4 09 3e 06 ae ad 3d 23 55 98 be 71 1c 95 3d
       0.134721 0.08480458 -0.29752454 0.072808154
000290 9c a7 8b bb 54 a1 f7 3c 4a 7c 4c be 7c 77 a5 bd
       -0.004261924 0.030228294 -0.19969288 -0.080794305
0002a0 db cf e6 bd 01 15 d5 3d d1 b8 17 3e 58 4c 14 3d
       -0.11270114 0.10404397 0.14816596 0.03620562
0002b0 04 2a ef 39 6a dc 29 be b9 e7 4e 3e 37 dd cf bd
       0.00045616936 -0.16587988 0.20205583 -0.10149615
0002c0 a6 f6 0e 3e 69 89 33 3d 31 78 ec bb 9e 2c 72 bc
       0.13961276 0.043832216 -0.0072164764 -0.014781145
0002d0 61 81 08 be 74 50 f1 bc cc f4 b8 3d 1c b2 e7 bc
       -0.13330604 -0.029457308 0.09031066 -0.028283171
0002e0 45 b5 da 3d 98 cb 39 bd 03 08 6d 3e ac 4b b8 bb
       0.10679106 -0.045360178 0.23147587 -0.005624255
0002f0 23 65 69 3d be ca f1 bc 07 a2 a1 3d 66 4d 5b 3c
       0.056981217 -0.02951562 0.078922324 0.013385152
000300 e7 e8 dd bd 42 7f 9e 3d a0 45 a0 bd 3e 0e d1 bd
       -0.10835438 0.07739116 -0.0782578 -0.102077946
000310 03 1f 0e be a9 74 80 3d 97 14 35 3e 8d fd fb 3d
       -0.13879018 0.06272251 0.17683636 0.1230422
000320 a2 ad e7 bd 59 67 b7 bd e5 d0 5f bd 9f 1a fe 3b
       -0.11312415 -0.08955259 -0.054642577 0.0077546383
000330 c0 64 d6 bd 13 d2 32 be 16 ca 92 bd 94 08 e5 bd
       -0.10468435 -0.1746295 -0.07167451 -0.11183277
000340 f1 f3 9c bd 2c 48 3b 3e c9 38 50 bd 16 da f2 bc
       -0.07663716 0.1828925 -0.050835405 -0.029645007
000350 69 23 f2 bd 99 b7 6f 3d a9 89 90 bb 91 0c 2d be
       -0.1182316 0.0585247 -0.0044109416 -0.16899325
000360 6d a4 5a bd c4 f6 09 3e 67 00 88 3d 31 95 a8 3d
       -0.053379465 0.1347304 0.06640702 0.08231581
000370 fb 0b be bd ec 7e d3 3c 5b 68 bb bc 35 08 fd 3c
       -0.09279629 0.025817357 -0.022876909 0.030887702
000380 bc 97 09 bd f5 91 bd bd 41 e5 98 3b 81 24 69 bd
       -0.03359197 -0.09256355 0.004666001 -0.05691958
000390 e9 f6 16 3d 6f 63 b3 bd 3a 16 26 bd 17 74 34 3c
       0.036856566 -0.087592 -0.04054854 0.011014006
0003a0 79 bb 02 be 91 da a7 bd 10 e9 b6 3d 1e 53 ba 3c
       -0.12766828 -0.08195985 0.08931172 0.022744711
0003b0 02 47 58 3c 92 29 b0 3d f4 02 0a 3e d6 2c e4 bd
       0.013200523 0.08601679 0.13477689 -0.11141364
0003c0 8a 44 44 3d dc dd e9 3d a4 8f 6b bd 69 0b 52 bc
       0.047916926 0.114192694 -0.057510033 -0.012820103
0003d0 a7 b1 7e bd 10 4b b5 3d 20 1f b9 bd e2 59 37 bc
       -0.06218114 0.08852208 -0.0903914 -0.011190863
0003e0 bf 0c 29 bd ff 0c a4 3d 81 4f 3f 3e de b9 f9 bb
       -0.04127192 0.08010291 0.18682672 -0.007621034
0003f0 71 f2 98 bd ba 99 e5 3a b8 1e 4e bd d1 32 b6 3d
       -0.07468117 0.0017517128 -0.050322264 0.08896411

network_body._body_endoder.seq_layers.2.bias f4 [128]
000000 43 52 8c 3c fd 8b ee bb a4 b9 5d bc 1a 71 3d bb
       0.01712907 -0.0072798715 -0.01353303 -0.0028906525
000010 68 be 76 3c 09 a4 74 bb d6 51 cb bb 05 48 a8 b9
       0.015060045 -0.0037329218 -0.006204824 -0.00032097116
000020 b3 ce b3 3c 20 5e 39 3a 7b 19 84 3b 3d 9d 9b 3b
       0.021949148 0.00070712157 0.004031358 0.004748969
000030 9c 7b 41 3c 30 d1 74 3c a4 6e 33 39 35 40 6d 3c
       0.011809256 0.014942452 0.00017111987 0.01448064
000040 5f 48 cb ba 68 3e 76 bb 07 03 23 bc 3a 84 89 3c
       -0.0015509239 -0.0037573818 -0.009949452 0.016786683
000050 7e da 92 bb 8a 89 82 bc 41 24 1f bc be bb 00 3b
       -0.0044816127 -0.015934724 -0.009713233 0.0019643153
000060 ab d1 9b 3b 66 4d 9a 3b 5b 00 98 b9 83 79 09 bc
       0.004755219 0.0047089336 -0.00028991964 -0.008390787
000070 1e fa 01 bb e5 b8 7c 3c 44 53 35 bc fa f3 dd bb
       -0.001983292 0.015424942 -0.011067215 -0.006773469
000080 d0 8a 06 3c d2 b7 5b bc bb 17 65 3c dd e0 ba bc
       0.008211806 -0.013410525 0.013982709 -0.022812301
000090 0a 7c 53 bc e6 e3 c2 3b 3b 02 cf bb 7d 38 8f 3c
       -0.012907991 0.0059475778 -0.0063174046 0.01748299
0000a0 24 05 1d 3c ae ac 70 b6 ba 9c 9e ba 40 74 a5 bb
       0.009583745 -3.58633e-06 -0.0012101152 -0.0050492585
0000b0 5b 8e eb 3a 0e ba 57 bb 99 1c cd bb df fc 03 bc
       0.0017971502 -0.0032917294 -0.0062595126 -0.008055895
0000c0 72 77 43 3c c3 7a db bb e4 47 3e 3c 10 c4 d2 bc
       0.011930333 -0.006697984 0.01161382 -0.025728256
0000d0 9e 16 05 b9 83 44 2f 3b 68 c3 c2 ba e4 78 c5 3b
       -0.00012692294 0.0026743717 -0.0014859261 0.006026374
0000e0 f0 f6 9a bc 2a 02 0e 3c 1e 69 33 bc 9c d7 f0 3b
       -0.018916577 0.008667508 -0.010950355 0.0073499214
0000f0 e3 95 38 bb fd ab a7 3b c5 b9 a3 bb 29 48 27 3c
       -0.0028165511 0.005116938 -0.0049965107 0.010210075
000100 2f 71 79 3c 24 66 d4 3b 95 2f 6a 3c a7 a6 1a bc
       0.015224739 0.0064819027 0.014293571 -0.009439147
000110 07 f6 83 bc 9e bd ae b9 0e 9a a9 bb 8a aa 9f bc
       -0.016108526 -0.00033329142 -0.0051758355 -0.019490499
000120 46 58 aa bc 13 90 d7 bb 7e bc 05 3c ee 83 a8 ba
       -0.020794045 -0.0065784543 0.008162616 -0.0012856701
000130 c5 81 54 3c 5c be c7 3a a7 6a 19 bc 52 6b eb 3c
       0.012970393 0.0015239227 -0.009363807 0.028737698
000140 e9 16 45 3c 9c 8e 0e bc f0 8b e5 ba bf 0c 24 ba
       0.012029388 -0.008700993 -0.0017513018 -0.0006258003
000150 1f 33 82 3c 97 62 30 bc 9f 2f b4 bb 3e fc b8 bc
       0.015893517 -0.010765693 -0.005498841 -0.022581216
000160 a2 aa fa 3b 8b 0e b3 3c 52 7d 2d bc 3e 94 b7 3a
       0.0076497355 0.02185752 -0.010588961 0.0014005972
000170 38 cf 2d 3c bf 6e 5d bc 47 fd 47 3c 4a a9 3c 3c
       0.010608487 -0.013515173 0.012206382 0.011514971
000180 ef 95 a8 3a 7f 05 95 bc 43 86 bb bb a4 bf 09 3c
       0.0012862067 -0.018191097 -0.0057227924 0.008407507
000190 bc 10 af 3b 6c f5 cf 39 60 28 87 bc 74 ae ea ba
       0.005342571 0.0003966497 -0.016498744 -0.0017904774
0001a0 16 93 ac b9 41 8d 87 3c f4 5c 83 ba 84 25 3d 3c
       -0.00032915984 0.016546847 -0.0010022209 0.011544589
0001b0 cd e3 38 bb c7 81 67 3b d2 c3 56 3c 67 6b bf 38
       -0.0028211952 0.0035325156 0.013108211 9.127595e-05
0001c0 70 e8 2e bc 7e f1 d5 3a 3f 94 19 bc 32 d5 fb ba
       -0.010675535 0.0016322581 -0.0093737235 -0.0019213317
0001d0 02 ed 00 bb b0 c4 f0 3b 8a 9a a0 3b bd 3f 4f bb
       -0.0019672518 0.0073476657 0.004901235 -0.0031623684
0001e0 b1 80 fa bb 58 70 fe 3b f7 84 df 3c 02 71 75 bc
       -0.0076447357 0.0077648573 0.027285082 -0.014980556
0001f0 ff 47 0f 3c 84 d8 40 bc 93 84 fe 3b a3 2b 9e 3c
       0.008745193 -0.011770371 0.007767269 0.019307917

action_model._discrete_distribution.branches.0.weight f4 [2, 128]
000000 c4 e3 01 bc fa e5 8e bc a3 53 f5 3b 05 a7 2b bc
       -0.007927839 -0.017443646 0.007486777 -0.010476832
000010 5e 26 43 bc cd 83 9a bb 4f da cb bc 4e 2e 80 3c
       -0.011911003 -0.004715419 -0.024884371 0.01564708
000020 a4 8b 3c 3d 73 3e 89 bc ef 60 bc 3c 23 f2 8f 3c
       0.04603161 -0.01675341 0.02299544 0.017571514
000030 68 9d 1c 3d 79 b8 ec 3b ec 83 99 3a ac 1c fb bb
       0.03823605 0.0072241393 0.0011712289 -0.00766333
000040 38 e1 40 3b 5b 2b c7 3c 43 47 e6 bc e5 01 47 3d
       0.0029431116 0.024312666 -0.028110152 0.04858579
000050 e3 81 90 3b 5b 52 09 bc 33 52 bb bc 06 42 12 bc
       0.004410015 -0.0083814515 -0.022866344 -0.008926874
000060 fe 7d 01 bd b2 58 72 3c e9 ce e5 ba 7b 30 b9 3b
       -0.031614296 0.014791654 -0.0017532978 0.0056515313
000070 aa 02 03 bd 40 75 3c 3d 40 f4 64 bc f6 07 a7 3c
       -0.031984963 0.046010256 -0.013974249 0.020389538
000080 ac 7e 4b 3c 33 a6 50 3c 37 e6 80 bb 36 65 d2 3b
       0.012420338 0.0127349375 -0.0039336937 0.0064207567
000090 9f 0a 6f bc 5d 31 11 bc c4 b2 93 3c 3f 47 57 3d
       -0.014589935 -0.008861867 0.018029578 0.05255818
0000a0 9c df 1c 3d 88 06 10 3c 57 14 89 bc cc 0e b4 bc
       0.038299188 0.00879062 -0.016733332 -0.021979712
0000b0 0f f2 58 bb 48 9b 98 3b 5d 39 c9 bb 70 5d aa 3b
       -0.0033103263 0.004657183 -0.0061408714 0.005199127
0000c0 3b cf d2 3c 38 26 dd bc 80 92 ca 3c 7d b2 09 3c
       0.02573358 -0.026995763 0.02472806 0.008404371
0000d0 36 6d 60 bc c9 7b fd bc 1f 4c 7e 3b 5d 55 c9 3c
       -0.013697913 -0.030942814 0.0038802696 0.024576837
0000e0 d1 b6 9f ba 75 8d d3 bb e4 07 4d 3c 6f 1c 55 bd
       -0.0012185221 -0.006456072 0.012514088 -0.05202907
0000f0 85 f8 b1 bc 6c 7f 8a bc 4f c7 db bc 2e 2a 07 bc
       -0.021724949 -0.016906463 -0.026828436 -0.0082498025
000100 d3 84 0f bd d8 2a bb 3b 24 b8 25 3d f2 f7 71 bc
       -0.03503878 0.0057118945 0.040458813 -0.014768587
000110 34 df 2b 3c 0f 14 b0 3c ed 03 53 3c 1a c2 ed 3b
       0.0104902275 0.02149394 0.012879354 0.0072558047
000120 37 bf 77 bc e5 27 1a 3c d6 e7 7c bd 5b df b9 3c
       -0.015121273 0.009408926 -0.061744533 0.022689512
000130 70 f3 40 bd f2 15 af ba ba 8a 51 3c 95 73 15 3c
       -0.04710716 -0.0013357981 0.012789423 0.009121795
000140 3b 5c 62 3c 2b e0 bd bb 01 1c 22 3c 9f cc aa bc
       0.013815935 -0.005794545 0.009894372 -0.020849524
000150 0f 86 c3 3c 04 fe ff 3b 6a 9e e9 ba 00 2b 7b 3b
       0.023867635 0.0078122634 -0.00178237 0.003832519
000160 8d c5 fd bb 26 b4 51 3c b5 f8 ea bb 8d 36 85 3c
       -0.007744497 0.012799298 -0.0071707615 0.016261363
000170 33 dc 27 3d 02 17 17 3c fb 99 1a 3c 90 91 5e 3c
       0.040981483 0.009221794 0.009436126 0.0135845095
000180 17 2d 5a 3c 64 7d f1 3a be 00 e7 bc 8d bf 6e bc
       0.013316414 0.001842421 -0.028198596 -0.014572036
000190 cc 43 09 bc ce 39 bf bb b8 8a 92 3c 03 41 d4 3a
       -0.00837798 -0.0058357483 0.017888412 0.0016193691
0001a0 16 92 43 3d ab ba 73 3d e5 fb 05 bd 21 86 bc bb
       0.04774674 0.059504192 -0.03271093 -0.005753294
0001b0 fe 5d 28 bd fd 06 bc bb 2f 66 05 3d 50 82 22 3c
       -0.041105263 -0.0057381378 0.032568153 0.009918764
0001c0 c7 2d eb bc ad 78 a6 ba 84 f9 1c bc 00 20 24 3c
       -0.028708352 -0.0012700759 -0.009580974 0.010017395
0001d0 ec 9b 06 bc 7b db 3b 3d da d8 d0 bc 7f 66 17 bc
       -0.008215886 0.04586361 -0.025494028 -0.009240746
0001e0 cb 21 7c bc 70 c5 6a bb 13 39 6a 3d 2a fe f0 bb
       -0.015388916 -0.0035823248 0.057183336 -0.0073545175
0001f0 37 15 e2 3c af 7a 64 bc bd cd 71 bb 73 fd 00 3d
       0.027598007 -0.013945266 -0.0036896311 0.031491708
000200 b8 60 44 3a 53 c9 df 3a 5e 5a 19 3b 78 e6 d8 ba
       0.0007491219 0.0017073549 0.002339981 -0.0016548177
000210 39 2e 0d 3c 35 ca 0e bb c5 51 a7 3c aa 4c 6f bc
       0.008616977 -0.0021788005 0.020424733 -0.0146056805
000220 a8 40 ac bc f8 d1 b5 3c 70 51 9f bc cc f3 f1 bb
       -0.021026924 0.022194847 -0.019448012 -0.007383799
000230 d7 9b 99 bc e2 c1 96 bc 7d ee 28 bc 1d bd df bb
       -0.018751068 -0.018402997 -0.010310766 -0.006827964
000240 1e 91 25 3b bd 31 bb bc db 30 0d 3c d5 cf 11 bd
       0.0025263499 -0.022850865 0.008617605 -0.035598595
000250 4e e3 a5 bb c2 e5 b2 3c 19 15 92 3c 8d 1e 44 3b
       -0.005062497 0.021838073 0.017832326 0.0029925436
000260 99 6c 13 3d 63 f1 85 bc f4 66 22 3b 8b a1 db 39
       0.03599224 -0.016350454 0.0024780603 0.00041891294
000270 94 6e ab 3c 5a 97 04 bd a1 59 0f b9 54 3b c5 3b
       0.020926751 -0.032370903 -0.00013670932 0.0060190354
000280 a2 ba f6 bc 0a b8 b0 3b 3b 65 92 3c d3 9a 9d 3c
       -0.03011829 0.005393033 0.017870536 0.019238865
000290 ff 2d 8a bb 02 e5 25 bc d9 db c3 bb 61 9d 25 bd
       -0.004216909 -0.0101254005 -0.0059771356 -0.04043329
0002a0 79 42 16 bd 8a c9 4b bc 83 c9 4f 3c 19 79 97 3b
       -0.036684487 -0.012438187 0.0126823215 0.0046225903
0002b0 e3 7a c9 3a a0 c0 07 bc 22 9c 64 3b 4c 69 8f bc
       0.0015371706 -0.0082856715 0.0034883101 -0.017506264
0002c0 3c 57 9a bc 0d 1c 46 3c 7c 04 c8 bc 0d d7 44 bc
       -0.018840425 0.012091649 -0.0244162 -0.012014163
0002d0 92 95 e4 3c 3e 0e 9d 3c 41 66 c6 bb ff e6 dc bb
       0.027903352 0.01917183 -0.00605467 -0.006741404
0002e0 6d 85 cf 3b c0 ae 13 3c b4 36 9b bc bf ee 3d 3d
       0.0063330443 0.009013832 -0.018946983 0.046370264
0002f0 db 58 d2 3c 60 98 3e 3c 3b bb 4b bb 76 21 8b 3b
       0.025677135 0.011633009 -0.003108694 0.004245932
000300 6b 3a 29 3d 9e 0f 84 3c e3 ec fd bc d4 e1 ac 3c
       0.041315477 0.016120728 -0.030996745 0.021103777
000310 ec ee f0 bb 2d 6d ba bc ee 4e eb 38 f4 02 a3 bc
       -0.0073527005 -0.022757137 0.00011220375 -0.01989887
000320 2e 3b 77 3b 38 7c 11 bb dc 1b 2b 3d 86 d7 bb bc
       0.0037724483 -0.0022199284 0.041774616 -0.022929918
000330 55 a7 49 3c 42 e6 96 3c 2c 0c e3 b9 75 f0 c7 bb
       0.0123079615 0.018420342 -0.00043305883 -0.0061016628
000340 31 c2 83 bc c6 6c 90 3c 0b 0e ef bb 4b 98 4b 3c
       -0.016083809 0.017629992 -0.007295375 0.012426446
000350 52 ae 01 bd 26 0e f9 3a 60 c6 db 3b b5 1e 9a bb
       -0.031660385 0.0019001409 0.0067069978 -0.0047033676
000360 de 27 64 3c 8a 45 75 bc 8d 17 86 3c 84 2a 90 bc
       0.013925521 -0.014970193 0.016368652 -0.017598398
000370 bc 05 10 bd 08 70 11 3c 22 80 65 3b ee 32 f6 bc
       -0.03516172 0.008876808 0.0035019 -0.030053582
000380 4f 3f 54 bc b8 96 b2 3b 1a dc c4 3c 99 1e 35 3c
       -0.012954547 0.005450096 0.024030734 0.011054658
000390 e1 46 b0 3c 59 d2 8b 3a df 92 da bb ac dc 5e bb
       0.021518173 0.0010667547 -0.0066703404 -0.0034006042
0003a0 4d cf 0e bd 1e 8b 1f bd f3 fd a5 3c 58 e0 b2 bb
       -0.034865666 -0.038951032 0.020262694 -0.0054588728
0003b0 e2 de 73 3c 2f 82 a5 3c a2 29 e9 bc be b3 d7 bc
       0.014884682 0.020203678 -0.028462235 -0.026330825
0003c0 d4 b1 ec 3a 5c 9c 12 3c 4b bb 1f 3c a0 6a 8a 3a
       0.0018058368 0.008948412 0.009749244 0.0010560341
0003d0 8f 6e b6 3c cc c3 80 bc c5 30 8d 3c 74 9b 94 bc
       0.022269515 -0.015718363 0.01723517 -0.018140532
0003e0 09 9e 45 3c 75 38 1c 3b 56 1a 58 bd 8f 74 3f 3c
       0.012061604 0.0023837362 -0.05275949 0.011685505
0003f0 11 87 f2 bc a5 68 08 39 f7 2b 73 3c c8 5b ee bc
       -0.02960542 0.00013008954 0.014842025 -0.0290965

action_model._discrete_distribution.branches.0.bias f4 [2]
000000 34 80 30 3c 44 80 30 bc
       0.0107727535 -0.010772768

action_model._discrete_distribution.branches.1.weight f4 [3, 128]
000000 fc 5f 01 bd a3 69 a2 3c 31 d4 00 3d b1 de 0c bd
       -0.03158568 0.019825762 0.03145236 -0.034392063
000010 ba 2c 7c 3c 29 e0 06 bd c5 9b 60 bc ff 0d 9f bc
       0.015391523 -0.03292862 -0.013709013 -0.019415854
000020 ae 74 25 3d 27 0b d3 3c 47 a4 02 bd 94 28 d4 bc
       0.040394478 0.025762154 -0.03189495 -0.025898255
000030 6e 47 52 3c 39 35 45 3d 39 f2 52 bc ad 48 4b bd
       0.012834413 0.04814646 -0.012875133 -0.049629856
000040 ed 94 c9 bc d4 2a 89 3b 2b bd 92 bb 26 a7 d8 bc
       -0.024607146 0.0041860137 -0.004478117 -0.02644689
000050 97 b2 80 bc 83 40 98 bc e6 0e 80 3c 90 4c ee bc
       -0.015710158 -0.01858545 0.015632104 -0.029089242
000060 b1 c8 07 3c db 93 90 3c 9d 33 15 3d 28 2f 52 bc
       0.008287595 0.017648628 0.036426175 -0.012828626
000070 9e a5 7c 3c 09 d6 fd bb e5 e6 0c bb c3 50 53 3c
       0.015420346 -0.0077464622 -0.0021499929 0.012897673
000080 96 95 be bc 10 c8 ab 39 fa 32 b1 bc cf f7 25 bb
       -0.023264688 0.0003276472 -0.021630753 -0.0025324707
000090 00 eb 9b 3b 88 2f 7b 3c 24 6e 31 3c b2 a2 9e bc
       0.004758239 0.015331157 0.010829482 -0.019364689
0000a0 ba 45 fc 3c 8a e7 2c bd a0 55 c2 bc 4f 22 b6 bc
       0.030794967 -0.042213 -0.02372247 -0.022233156
0000b0 9c 4b 83 3b 07 5d 80 bc 84 2a 30 3c 96 e7 02 3d
       0.004006816 -0.015669359 0.010752324 0.03195914
0000c0 2c fe f8 bc 2b 5c a4 b9 f3 55 4e 3d 6c bb 86 bc
       -0.030394636 -0.00031349188 0.050374936 -0.016446792
0000d0 25 3b 6c bc db f9 17 3c 98 15 ba 3c 85 ab a4 bc
       -0.014418398 0.009275879 0.022715375 -0.020101318
0000e0 22 4e 20 3c c3 10 c3 bb 29 04 0a 3c 19 24 da bc
       0.009784253 -0.005952926 0.008423843 -0.02662854
0000f0 fc ea d0 bc 9e a9 fc 3c 0c d1 06 bd 43 87 5a bd
       -0.025502674 0.030842599 -0.032914206 -0.053351652
000100 ab 9d 22 bc f3 2d 95 3c 74 e9 f9 3c e9 6a 49 bb
       -0.009925286 0.018210387 0.030506827 -0.003073389
000110 9b 5b ce 3b 78 3a 91 3b ab 78 22 3d 37 d4 c3 3c
       0.0062975413 0.004432019 0.03966586 0.023904903
000120 2f 38 37 3c 87 96 65 3d c5 30 fd bb ed 41 24 3c
       0.011182829 0.056051757 -0.007726761 0.010025484
000130 f0 5a 36 bd 51 4f 1a b9 ec 81 2f bc 76 8c c1 bc
       -0.04452032 -0.00014716132 -0.010712128 -0.023626547
000140 e1 77 07 3d 68 68 f8 bc 7e 1f b9 bb fd 15 0a bd
       0.03307331 -0.030323222 -0.005649506 -0.033712376
000150 7b 6b c2 bc 3c 1a da 3b 68 ad 0a bc 33 f3 b2 3b
       -0.023732891 0.0066559594 -0.008464195 0.0054611205
000160 c6 1b 6a 3c 00 98 9a bd 07 f0 72 3c 7a 4f b0 3c
       0.014288848 -0.07548523 0.014827735 0.021522272
000170 51 bc 95 bc e1 0a bd 3c 6c e3 ee 3c 25 3b 0c bd
       -0.018278273 0.023076477 0.029161178 -0.034236092
000180 7c 3b b8 3c 43 73 53 bb 5f c0 4a 3b 7d eb f4 3c
       0.022489302 -0.0032264746 0.0030937416 0.029897446
000190 5e 15 8b bc d2 a7 ac ba 70 8a 0f bc 63 d0 d1 bb
       -0.016977962 -0.0013172573 -0.008761033 -0.0064030155
0001a0 f9 71 e5 3c 9e 39 bd bc 13 3e 91 bc 24 61 69 bc
       0.028008448 -0.023098763 -0.017729795 -0.014244352
0001b0 20 dd e8 bc 1d ca a1 3b 48 06 53 3d 6a 16 df bc
       -0.028425753 0.004937424 0.051519662 -0.027232368
0001c0 b4 3a 32 bc 8c a0 9a ba 3a 26 79 bc 5b 28 30 3c
       -0.010878254 -0.0011797114 -0.015206868 0.010751809
0001d0 8d 04 1a 3c 0b ab a9 3c c1 97 34 3c 6d fe dc bb
       0.009400499 0.020711442 0.011022509 -0.006744197
0001e0 bd d7 c9 3a 69 04 f6 3b 40 5e dd bc bc 26 87 b9
       0.0015399378 0.00750785 -0.027022481 -0.00025778066
0001f0 60 47 12 3c ed 84 26 3d c7 40 88 3b 77 7e 32 3d
       0.00892815 0.04065411 0.0041581127 0.043577638
000200 9b c2 49 bc e5 87 a9 3a 39 f8 89 3b 3f 08 0f ba
       -0.012314464 0.0012934176 0.0042104986 -0.0005456246
000210 6d 01 2a bd 2d 44 bc 3c a8 89 12 3c d0 5f 2c 3d
       -0.041505266 0.022981727 0.008943953 0.04208356
000220 a2 ca 24 bd 4f 1d 92 bc 22 28 e8 3c e4 90 73 bc
       -0.04023231 -0.017836241 0.02833945 -0.014866088
000230 e3 dd f8 3a 71 58 46 ba 89 0b fd bc 0a a8 22 3d
       0.0018987026 -0.00075662794 -0.03088929 0.039711036
000240 a5 54 8a 3a 70 f6 54 bb 33 eb 40 bc ad 56 f3 3b
       0.001055379 -0.003249552 -0.011774826 0.007426104
000250 3b 54 c6 3c 1b d4 d6 3b 98 49 2f bc d0 85 d3 3c
       0.024210086 0.0065560467 -0.010698698 0.025820643
000260 68 89 1f bc b6 04 4c 3d 99 8e 78 bb 8e bb 0d 3d
       -0.00973735 0.04980918 -0.0037926792 0.034602694
000270 ab 93 c3 bc 93 ba 0a 3d fa 94 56 3c 50 d9 73 bc
       -0.023874125 0.033869337 0.013097042 -0.014883354
000280 cd 6a 49 3c fd 65 ae 3c 38 17 f2 3c 62 69 4d bb
       0.01229353 0.021288866 0.029552087 -0.003134333
000290 b9 52 53 3c 39 90 e8 bc 9b 6f 56 3c 29 2d 04 bd
       0.012898141 -0.028389083 0.013088132 -0.03226963
0002a0 a4 54 17 bd 70 c9 66 3c b3 b5 7e 3c 8c 8b d5 3c
       -0.036945954 0.014086112 0.01554625 0.026067518
0002b0 21 e2 dd bb 63 13 a1 3c bb 20 82 bb 30 ae 64 bc
       -0.0067713414 0.019662565 -0.003971187 -0.013957545
0002c0 85 40 04 3d d9 72 d4 3c d6 ae 84 bc cd 56 1c 3c
       0.032288093 0.02593367 -0.01619665 0.009542179
0002d0 d8 04 67 3b 98 64 9f 3c bf 01 ac bc 23 0a a5 bc
       0.003525069 0.019457147 -0.020996926 -0.020146435
0002e0 6a 77 45 3c 31 a8 12 bd 57 6f 01 bb 83 dc e5 3c
       0.012052396 -0.03580493 -0.0019750202 0.02805925
0002f0 3e ef 16 3d d8 05 01 bd 29 71 5f 3b 45 12 ef 3c
       0.036849253 -0.031499714 0.0034094548 0.029183516
000300 68 7d 7e 3b cd 8d 1f bd 35 ea d9 3a 3f ae fe 3b
       0.0038832072 -0.03895359 0.0016625585 0.0077722366
000310 a9 d8 7b 3b 96 93 a5 ba 06 8d 41 bc 1e 5c 09 bc
       0.00384287 -0.0012632485 -0.011813408 -0.008383779
000320 04 76 7b 3c 10 c4 69 bc 4c e7 0c 3c 47 0c 30 3c
       0.015347961 -0.014267936 0.008600067 0.010745115
000330 80 93 4f 3d 54 0b af 3a e1 ab 2e ba 0a 9d 35 bd
       0.050677776 0.0013354816 -0.0006663185 -0.044339217
000340 c8 9e bb bc 15 c7 93 3b 8d f2 ad bc 8d 64 7f 3c
       -0.022902861 0.0045098164 -0.021233821 0.015587938
000350 45 a6 88 bc 9a 0e 97 bb 6d 42 60 3c 21 35 84 bb
       -0.016680846 -0.004609895 0.013687712 -0.004034654
000360 f3 db e6 bc 61 82 65 3d b9 84 a5 bc 99 07 cd 3a
       -0.028181052 0.056032542 -0.020204889 0.0015642523
000370 40 cf 20 3c 37 42 e5 bb e8 88 09 bd 0a ef 31 3d
       0.009815037 -0.006996419 -0.03357783 0.043440856
000380 26 f4 d9 ba 70 89 cc 3b a9 c2 71 3c f4 ca 30 3b
       -0.0016628548 0.0062419698 0.014755883 0.0026976438
000390 03 4c f3 3c 3d cf 18 3d a5 28 23 bc db 99 26 bc
       0.029699331 0.037307013 -0.009958421 -0.010168518
0003a0 0b 0b 2f bc 0a 49 50 ba e8 aa e5 3c 4e a4 4c 3d
       -0.010683785 -0.0007945454 0.028035596 0.04996138
0003b0 4c 7a 75 3c e0 cb 3f bc 14 57 4b bc 3d 82 11 3c
       0.014982771 -0.011706322 -0.012410898 0.008881149
0003c0 4e 90 a4 3b 4a 24 b5 3c 5d 5f 51 3c df 38 61 bc
       0.0050220853 0.02211203 0.012779084 -0.013746469
0003d0 8d 8d 79 bc a9 d0 48 bc eb 4d 4a 3c f2 2b cd 3c
       -0.015231502 -0.01225678 0.012347679 0.025045369
0003e0 ce 73 06 3d 6a c5 17 3b ce f4 c0 bc 46 31 0b bc
       0.032825284 0.002315844 -0.023554232 -0.008495634
0003f0 73 4f 8b bb d7 a7 5c bc 2b 62 86 bd 1e 09 77 bd
       -0.0042514144 -0.0134677505 -0.06561693 -0.06031143

action_model._discrete_distribution.branches.1.bias f4 [3]
000000 20 69 a3 bb bf e7 c1 ba 74 43 c5 3b
       -0.004986897 -0.0014793797 0.006020004

action_model._discrete_distribution.branches.2.weight f4 [1, 128]
000000 08 ec 3f bb 65 54 2e bc 3f f7 b4 ba ef f4 ee ba
       -0.0029284973 -0.010640238 -0.0013806595 -0.0018230955
000010 a3 ee 7a 39 32 1d 61 bc 99 d8 48 3c fc 81 a8 3b
       0.00023930757 -0.013739871 0.012258672 0.0051424485
000020 aa 00 6e 3c 78 8e 16 bc af 7b 08 3c 90 77 dd 3a
       0.0145265255 -0.009189241 0.00833027 0.0016896594
000030 f0 77 e8 3b 97 58 1b bc 3f e9 96 3a dc da 82 bb
       0.007094376 -0.009481571 0.0011513605 -0.003993375
000040 4b 55 16 bc af 7d c5 bb 6b 5f 60 3a 43 08 48 3b
       -0.009175609 -0.0060269455 0.000855914 0.0030522502
000050 75 b2 6b 3a 85 90 a9 b7 5e 83 92 ba 8b fd 21 b8
       0.0008991131 -2.0213667e-05 -0.0011178066 -3.862152e-05
000060 9b d4 b0 3a 45 b1 fa bb 97 ca 93 39 7a f2 5d 3c
       0.0013491096 -0.0076505267 0.00028188966 0.01354658
000070 2d c6 f7 3b 2a 6a ff 3a ef 89 05 bb b8 f5 e6 3b
       0.007561466 0.0019486595 -0.0020376404 0.007048335
000080 21 20 b4 bb 6a ba 84 3c 12 0e 07 bc 33 f3 3b bc
       -0.005496994 0.01620217 -0.008243101 -0.011471557
000090 2d 81 23 3c 27 80 b7 bb 9b 89 b5 3b 5b 77 39 3c
       0.009979528 -0.0055999937 0.0055400855 0.0113199605
0000a0 4b ed 8d bc 2f 28 ee 3b 42 31 6a ba 61 14 04 bc
       -0.017325064 0.007267974 -0.00089337316 -0.008061499
0000b0 63 eb 96 3c 85 03 ce 39 75 f3 a0 3c ad d7 9a bb
       0.018422788 0.00039294004 0.01964734 -0.0047254176
0000c0 51 09 91 3b 88 44 77 3b a3 45 53 3c 05 78 7c bc
       0.0044261594 0.0037730057 0.012895021 -0.015409474
0000d0 a8 7b e0 3b f5 52 3c 3c b3 d3 db bb 56 45 3c bc
       0.0068506785 0.011494388 -0.006708586 -0.01149114
0000e0 20 67 c6 3b ad 18 24 bc e6 a1 a3 3c 10 a3 02 bc
       0.006054774 -0.010015649 0.01997466 -0.007973447
0000f0 80 32 0e 3c 01 8d 18 3c 8c e8 9f 3b 75 57 77 3a
       0.008679032 0.009310962 0.0048800167 0.00094353344
000100 a2 8a 3d 3c ba e8 40 3a 32 73 63 3c 66 0c 0b bb
       0.011568697 0.0007358898 0.013882445 -0.0021217107
000110 05 a5 db bb bc f7 3f ba 98 1d 60 3c 3f 24 95 bc
       -0.0067030215 -0.0007322987 0.013678931 -0.01820576
000120 87 a1 5d 3c 9f 19 21 3c 2f 9d 69 bb 72 ea 01 bc
       0.013527281 0.009832769 -0.0035646667 -0.007929431
000130 77 c2 e2 b8 d4 b1 c9 3c 0c a1 0d bb 51 85 11 3c
       -0.00010812742 0.024620928 -0.0021610884 0.008881883
000140 22 5c b4 bb e8 8d 58 bb 2a 00 55 3c bf d2 e8 3a
       -0.005504147 -0.0033043567 0.013000527 0.0017763003
000150 e8 19 e9 3b fb 25 de bb 1f 27 b2 3b 33 1b 30 bb
       0.007113684 -0.00677943 0.0054367925 -0.002687168
000160 0f 34 23 3c 64 5b 3c bc d1 d0 3c 3c 9f ea ad 3b
       0.009961142 -0.011496399 0.011524395 0.00530751
000170 54 9f 89 bb a6 e2 1c 39 37 01 97 bc a7 c4 ac ba
       -0.0041999016 0.00014961752 -0.018433196 -0.0013181166
000180 b8 46 e2 3b 50 b8 58 3b c2 e5 f6 bb ae 77 af 3b
       0.006905403 0.0033068843 -0.0075347135 0.005354843
000190 53 bb 83 bb 53 ec 88 3b 03 92 34 3a 58 95 53 bc
       -0.0040201335 0.0041785627 0.00068882125 -0.012914024
0001a0 bb 44 61 3c cd c8 cf 3a 43 7c 94 bb e3 78 0e 3b
       0.013749297 0.001585269 -0.0045314147 0.0021739535
0001b0 06 94 31 bc bf c6 dd 3b 9d 89 66 38 ef dd a2 3a
       -0.010838514 0.006768077 5.4964436e-05 0.001242576
0001c0 a9 94 2a 3c a8 25 6e 3c ab bf 37 bc 8f 79 26 3c
       0.01041142 0.014535345 -0.011215131 0.010160818
0001d0 08 5d 02 ba 8b 01 c1 bb a2 e8 6c 3c f8 c5 ea 3b
       -0.0004972969 -0.0058900765 0.014459761 0.007164713
0001e0 0d 4d c7 bb 83 c4 5d bc 63 2d 5b bb 00 6a a9 ba
       -0.006082183 -0.013535622 -0.00334438 -0.0012925267
0001f0 5a c1 93 bb b9 37 3c bc 3f 08 ac 3a 76 1b c9 3b
       -0.0045091333 -0.011487895 0.0013125016 0.006137307
