Assets/ZooheimTest/Models/run3/WolfFBehavior/WolfFBehavior-87418.onnx (onnx, 406669 bytes, 14 tensors)

discrete_act_size_vector f4 [1, 3]
2.0 3.0 1.0
00000000: 0000 0040 0000 4040 0000 803f

network_body.observation_encoder.processors.0.normalizer.running_mean f4 [630]
0.14872055 0.19578126 0.007000766 0.0107299285 0.007881582 0.0044383947 0.0038664376 0.007538407
0.006200025 0.005696703 0.003626215 0.0031915256 0.03295622 0.22459784 0.14980729 0.1904277
0.007080839 0.010524028 0.007904458 0.0040265843 0.0031686472 0.0067948597 0.006371612 0.005525114
0.0033287967 0.003363114 0.032544408 0.22670212 0.14558613 0.19628452 0.0068177413 0.01021517
0.0069893287 0.004209612 0.0043926393 0.008213315 0.0060856305 0.0059140436 0.003420309 0.0028254718
0.03332228 0.22502716 0.14588365 0.17712402 0.0065317596 0.00926572 0.007206672 0.0039007538
0.003031378 0.005410722 0.005639507 0.0051933783 0.0029398657 0.0031572077 0.035518583 0.23558629
0.13900872 0.18754503 0.0064745634 0.00917421 0.006097074 0.003466067 0.003591896 0.008190436
0.0061199516 0.0062572206 0.0032715993 0.0028254727 0.033013403 0.23112029 0.13819647 0.16625671
0.0050217914 0.008304829 0.0065546394 0.003683409 0.0026424455 0.0042896857 0.00533065 0.0048273243
0.0025966887 0.0031000124 0.037863623 0.2455538 0.13028066 0.17579708 0.0049188407 0.0077214316
0.0058339713 0.0029169866 0.0031572084 0.0076299203 0.005239136 0.006131392 0.0029627427 0.0025166152
0.034157317 0.238644 0.1285876 0.1592789 0.004140976 0.008087489 0.006371611 0.003168647
0.0029398643 0.0038549975 0.0056967023 0.0046442994 0.0023907844 0.0031000127 0.039659567 0.25469193
0.11991671 0.16973425 0.0046786168 0.0073096235 0.0054107234 0.0032487223 0.003202966 0.007229551
0.004644299 0.0062343427 0.0028597899 0.0020704884 0.03559866 0.24579133 0.11677094 0.15926744
0.0032830392 0.0073553794 0.0059826816 0.0033173566 0.002745399 0.003603335 0.005982682 0.004552786
0.002127684 0.0025966899 0.04087212 0.2609822 0.11033065 0.16465525 0.003248722 0.0070007667
0.004781569 0.0032944786 0.0029284263 0.0075155287 0.0042896857 0.0061085126 0.0022878323 0.0015099694
0.039636683 0.2554804 0.10485138 0.1593475 0.0026767636 0.006897815 0.0059026037 0.00299706
0.0022992706 0.00354614 0.0055022375 0.0043011256 0.0019332184 0.0025394938 0.041375436 0.26630732
0.09835394 0.16853319 0.0031686467 0.0061542657 0.0044612717 0.0030885735 0.0032716 0.0067491042
0.004186734 0.0059369234 0.0018188268 0.0015442873 0.03848134 0.2616488 0.09421291 0.15959914
0.0024594194 0.0059140483 0.0055937488 0.0028369122 0.0025966899 0.0032716007 0.004964595 0.0043354416
0.0016929954 0.0024022234 0.039350726 0.2676692 0.088081546 0.16839592 0.0033059176 0.0055479934
0.004701497 0.0039007536 0.003077135 0.005982681 0.0036719711 0.005776775 0.0018302657 0.0014870908
0.03999131 0.26552272 0.1489608 0.19620447 0.0070122075 0.0107642505 0.007904456 0.004461271
0.0038778756 0.007664239 0.0063029774 0.005708142 0.0038092402 0.0033287955 0.03308203 0.22509281
0.15011615 0.19089667 0.007092281 0.010558343 0.0079159 0.004049463 0.0031915265 0.0068863756
0.0064860047 0.0055365534 0.003500382 0.0034889437 0.032635923 0.22724994 0.14582649 0.1967307
0.0068291794 0.010226611 0.0069893287 0.004209612 0.0044155153 0.008362028 0.006188587 0.0059254845
0.003591896 0.0029741812 0.033402327 0.22547269 0.14621532 0.17749003 0.0065546385 0.009300034
00000000: 334a 183e e27a 483e af66 e53b 95cc 2f3c
00000010: c021 013c f46f 913b 0f64 7d3b be04 f73b
00000020: 9429 cb3b 69ab ba3b cba5 6d3b ea28 513b
00000030: 1afd 063d fafc 653e 1567 193e 7bff 423e
00000040: 6206 e83b f96c 2c3c b381 013c 70f1 833b
00000050: 14a9 4f3b 6aa7 de3b f5c8 d03b 040c b53b
00000060: f127 5a3b b167 5c3b 494d 053d 9a24 683e
00000070: 8814 153e cffe 483e 5c67 df3b 875d 273c
00000080: bd06 e53b c9f0 893b 21f0 8f3b 2491 063c
00000090: f869 c73b 98ca c13b 4327 603b 8d2b 393b
000000a0: f17c 083d 856d 663e 8662 153e 0060 353e
000000b0: 5f08 d63b 3fcf 173c f225 ec3b caa3 7f3b
000000c0: 15aa 463b 6d4c b13b 9dcb b83b 372d aa3b
000000d0: c3aa 403b 28e9 4e3b ef7b 113d 883d 713e
000000e0: 4d58 0e3e ce0b 403e 9328 d43b 6d4f 163c
000000f0: f7c9 c73b f426 633b 0466 6b3b 2e31 063c
00000100: e089 c83b 5f09 cd3b 5468 563b 912b 393b
00000110: 1039 073d ccaa 6c3e 6083 0d3e 333f 2a3e
00000120: d78d a43b fa10 083c 4dc8 d63b 5965 713b
00000130: e12c 2d3b 7e90 8c3b bcac ae3b 882e 9e3b
00000140: 352d 2a3b 9429 4b3b e316 1b3d 7572 7b3e
00000150: 4b68 053e 2604 343e 3a2e a13b 1004 fd3b
00000160: e62a bf3b ea2a 3f3b 2be9 4e3b 6904 fa3b
00000170: 0fad ab3b d8e9 c83b 932a 423b cced 243b
00000180: 8be8 0b3d 185f 743e 78ac 033e 021a 233e
00000190: 06b1 873b 6381 043c f2c8 d03b 13a9 4f3b
000001a0: bdaa 403b 20a4 7c3b 67ab ba3b 352f 983b
000001b0: b5ae 1c3b 9529 4b3b 1272 223d fb66 823e
000001c0: e496 f53d d1ce 2d3e 154f 993b 9185 ef3b
000001d0: 704c b13b 84e8 543b dae8 513b dfe5 ec3b
000001e0: 342f 983b 7549 cc3b 506b 3b3b 08b1 073b
000001f0: e7cf 113d b9b0 7b3e 9a25 ef3d 0117 233e
00000200: 4228 573b 6505 f13b 5f0a c43b 0268 593b
00000210: 27ec 333b ee25 6c3b 600a c43b 892f 953b
00000220: 9d70 0b3b 3a2d 2a3b 8669 273d 759f 853e
00000230: 09f5 e13d 639b 283e 83e8 543b b066 e53b
00000240: b5ae 9c3b 2ee8 573b d7ea 3f3b d344 f63b
00000250: 7e90 8c3b eb29 c83b 75ef 153b 2aea c53a
00000260: 135a 223d 54ce 823e 52bc d63d fe2b 233e
00000270: a46c 2f3b 1107 e23b a16a c13b 536a 443b
00000280: 5caf 163b 5b66 683b 1d4c b43b 75f0 8c3b
00000290: 0c64 fd3a a36d 263b 4a79 293d 6f59 883e
000002a0: ca6d c93d f793 2c3e 12a9 4f3b b9a9 c93b
000002b0: dc2f 923b aa69 4a3b 5768 563b 9727 dd3b
000002c0: df30 893b 868a c23b b365 ee3a af69 ca3a
000002d0: 9c9e 1d3d d5f6 853e b3f2 c03d f56d 233e
000002e0: 362e 213b a2ca c13b c44b b73b 7deb 393b
000002f0: 3a2d 2a3b 5a68 563b 0bae a23b 5210 8e3b
00000300: 80e7 dd3a 9f6e 1d3b 3a2e 213d f00b 893e
00000310: 1964 b43d fb6f 2c3e 18a8 583b f1cb b53b
00000320: 040f 9a3b c9a3 7f3b c2a9 493b 5e0a c43b
00000330: 74a5 703b 1a4b bd3b 87e5 ef3a 7dea c23a
00000340: eecd 233d 98f2 873e 2e89 183e d3e9 483e
00000350: a9c6 e53b 8a5c 303c b181 013c db2f 923b
00000360: f523 7e3b 4c24 fb3b 3589 ce3b 5e0b bb3b
00000370: 72a4 793b ec27 5a3b 0681 073d bb7e 663e
00000380: 0cb8 193e 6b7a 433e 5d66 e83b e6fc 2c3c
00000390: b1b1 013c 5cb1 843b ee28 513b 1ba7 e13b
000003a0: 8d88 d43b fa6b b53b aa66 653b c3a6 643b
000003b0: 3fad 053d 35b4 683e 8a53 153e c673 493e
000003c0: 4fc7 df3b 848d 273c bd06 e53b c9f0 893b
000003d0: 07b0 903b e300 093c a1c9 ca3b 912a c23b
000003e0: 0466 6b3b 7bea 423b e1d0 083d 50e2 663e
000003f0: 78b9 153e f2bf 353e 4bc8 d63b 2b5f 183c

network_body.observation_encoder.processors.1.normalizer.running_mean f4 [9]
74.24268 58.282703 0.22535144 74.23252 58.3554 0.22662127 74.22048 58.42727
0.22789092
00000000: 417c 9442 7d21 6942 87c2 663e 0d77 9442
00000010: ee6b 6942 680f 683e e370 9442 86b5 6942
00000020: 3d5c 693e

network_body._body_endoder.seq_layers.0.weight f4 [128, 639]
0.06600895 -0.02005372 -0.06337547 0.02012316 -0.06258546 -0.014091614 0.023362402 -0.021753186
0.052563272 0.063011214 -0.030052712 -0.00076137483 0.033338815 -0.056183014 0.042785086 -0.057743013
0.06401624 0.010837461 -0.015905267 -0.008224266 -0.03509875 -0.0315481 0.017340403 0.008271201
-0.029872008 0.10665402 0.014929602 -0.021318384 -0.021962414 -0.014127915 -0.03661264 -0.023081407
-0.008895518 -0.013171297 -0.0558315 0.028757803 -0.06543793 0.042523973 0.016603949 0.00040446437
0.06480004 0.0075087557 -0.056149602 0.002527215 0.030974487 0.017923275 -0.07333817 -0.055662412
0.041198984 -0.062983766 0.01600835 -0.02217366 0.09366955 -0.021977894 -0.022917058 0.020652896
-0.010119947 0.008357897 -0.01926777 -0.055066667 0.07476363 0.056604274 0.0293578 0.027482774
-0.07657687 -0.044005867 0.0345682 -0.023861036 0.02450541 0.017397998 0.015411866 -0.05069592
-0.024550518 -0.051112656 0.01908717 -0.021262726 -0.05759098 0.031523533 -0.025929946 -0.0069796895
0.08475618 0.07446924 0.06878617 0.013566244 0.054655258 0.03100467 0.032433633 -0.05424119
0.011263005 -0.034803674 -0.0280033 -0.019840369 0.02660144 0.018049406 0.015809346 -0.039400995
-0.05035764 -0.060629427 -0.019239806 -0.08678045 0.041239828 0.012660241 -0.020210681 0.002349506
-0.06715081 -0.018882155 -0.010738308 0.06407489 0.022599453 0.023246996 -0.03501441 0.088604376
-0.025885675 -0.0120599205 -0.05077349 0.028878791 0.07296358 -0.02422167 0.017665656 0.031369157
-0.011498013 -0.038257115 -0.023011578 0.035223927 0.0036594379 0.029467817 0.00817259 0.027889779
-0.097491845 -0.08231087 0.009092581 0.036099553 -0.059211288 0.022752196 0.023070049 -0.038317498
0.018686332 0.00018965235 -0.05183173 -0.08937732 -0.007225976 0.0030762043 -0.052759655 0.050566655
0.0027201786 -0.029190928 0.07671875 0.05217932 0.09240824 -0.042357624 0.056886673 -0.061886277
-0.043852855 -0.047725316 -0.03314773 -0.010111205 -0.092799805 0.028873602 -0.02545325 -0.0027407017
0.02106982 0.06044611 0.027314356 -0.10322449 0.007804462 -0.013197743 -0.06496142 -0.024205498
0.07975861 -0.049076267 0.073090635 0.029069519 -0.025738932 0.020594062 -0.061513014 -0.035813093
0.005402263 -0.036017705 0.03087101 0.0008546277 -0.009410304 0.059371445 0.008675654 0.0093760155
0.043675456 -0.027310587 0.009683535 0.07983625 0.0054967697 -0.0051239063 0.07794018 0.055306274
0.021644223 0.035878256 0.06718173 -0.00097312033 -0.045423508 -0.021243127 -0.10033633 0.026636306
0.06382797 -0.032401413 -0.078676514 0.065334894 -0.007949968 -0.025941174 -0.045469254 0.02656315
0.046656713 0.015635187 0.013145298 0.038954508 -0.02356573 -0.0006341981 -0.07401764 -0.04493555
-0.13455014 0.010186137 -0.0134537425 0.067197405 -0.07284158 -0.031492952 0.071855195 0.018741382
-0.008807264 0.0020014786 -0.024904381 -0.012901907 -0.022510374 -0.017524865 -0.041667704 -0.0013541731
-0.014553028 -0.009826984 0.010602816 0.08555858 -0.05728681 -0.031801205 0.061909527 -0.05189424
0.0010872728 0.06655065 -0.040168718 0.0056734695 0.119246654 -0.019838627 0.06084388 -0.022092463
0.009907067 0.0662939 0.0817647 -0.018474467 -0.0034465287 0.017748408 -0.013804856 0.015336627
00000000: b32f 873d b347 a4bc 00cb 81bd 53d9 a43c
00000010: ce2c 80bd 83e0 66bc 8262 bf3c bd33 b2bc
00000020: 964c 573d 060c 813d 1b31 f6bc 0097 47ba
00000030: 488e 083d 2920 66bd 6a3f 2f3d f083 6cbd
00000040: f21a 833d 9b8f 313c c34b 82bc 12bf 06bc
00000050: b5c3 0fbd 9538 01bd 760d 8e3c ee83 073c
00000060: 24b6 f4bc 6c6d da3d 4a9b 743c e4a3 aebc
00000070: 85ea b3bc c578 67bc 23f7 15bd 3815 bdbc
00000080: 82be 11bc 6ccc 57bc 92af 64bd 7c95 eb3c
00000090: 5204 86bd 9e2d 2e3d 0105 883c 4a0e d439
000000a0: e2b5 843d 020c f63b 20fd 65bd a29f 253b
000000b0: 35be fd3c d5d3 923c 5332 96bd 45fe 63bd
000000c0: 44c0 283d a2fd 80bd f123 833c 89a5 b5bc
000000d0: d2d5 bf3d fc0a b4bc 8ebc bbbc 4330 a93c
000000e0: 22ce 25bc 90ef 083c 71d7 9dbc 968d 61bd
000000f0: ad1d 993d e2d9 673d c57f f03c 8e23 e13c
00000100: 56d4 9cbd 7f3f 34bd 6397 0d3d 3878 c3bc
00000110: 92bf c83c 3f86 8e3c 0d82 7c3c 86a6 4fbd
00000120: 2b1e c9bc 815b 51bd b25c 9c3c 2b2f aebc
00000130: 85e4 6bbd d21e 013d 0a6b d4bc e1b5 e4bb
00000140: a694 ad3d 5483 983d c3df 8c3d f444 5e3c
00000150: 31de 5f3d 81fd fd3c 21d9 043d 032c 5ebd
00000160: 7888 383c 4c8e 0ebd 2d67 e5bc 4588 a2bc
00000170: 43eb d93c 59dc 933c 9a82 813c f062 21bd
00000180: d043 4ebd 9056 78bd cc9c 9dbc f3b9 b1bd
00000190: 18eb 283d e66c 4f3c df90 a5bc 2bfa 193b
000001a0: 5d86 89bd c0ae 9abc baef 2fbc b239 833d
000001b0: 7d22 b93c 7c70 be3c 456b 0fbd 3676 b53d
000001c0: 320e d4bc f996 45bc ddf7 4fbd 3793 ec3c
000001d0: ee6d 953d 866c c6bc 91b7 903c f27c 003d
000001e0: 2962 3cbc 7eb3 1cbd c782 bcbc f746 103d
000001f0: 2ed3 6f3b 7e66 f13c 54e6 053c 1b79 e43c
00000200: cea9 c7bd 9a92 a8bd 0df9 143c 20dd 133d
00000210: 8987 72bd d062 ba3c 66fd bc3c cff2 1cbd
00000220: 1414 993c 6add 4639 824d 54bd 750b b7bd
00000230: e1c7 ecbb 259a 493b 821a 58bd fb1e 4f3d
00000240: 0645 323b d021 efbc b81e 9d3d fcb9 553d
00000250: 8840 bd3d 307f 2dbd 0002 693d 777c 7dbd
00000260: 0d9f 33bd 9f7b 43bd eac5 07bd 78a9 25bc
00000270: d30d bebd 5588 ec3c 5683 d0bc 589d 33bb
00000280: 9d9a ac3c 5796 773d 5bc2 df3c 5d67 d3bd
00000290: 93bc ff3b 593b 58bc 7e0a 85bd 9c4a c6bc
000002a0: 7b58 a33d 3204 49bd 8bb0 953d 3323 ee3c
000002b0: 74da d2bc e1b4 a83c 12f5 7bbd c0b0 12bd
000002c0: 7705 b13b 4d87 13bd 33e5 fc3c 1809 603a
000002d0: ad2d 1abc 792f 733d 5524 0e3c dc9d 193c
000002e0: 09e5 323d 74ba dfbc b1a7 1e3c 3081 a33d
000002f0: 3f1e b43b 71e6 a7bb 1a9f 9f3d d588 623d
00000300: 3a4f b13c 14f5 123d 9396 893d 0019 7fba
00000310: 000e 3abd 1106 aebc 227d cdbd 6234 da3c
00000320: 3db8 823d 58b7 04bd 2721 a1bd 4dce 853d
00000330: 9540 02bc 9682 d4bc f83d 3abd f79a d93c
00000340: 1c1b 3f3d 5d15 803c 605f 573c c38e 1f3d
00000350: eb0c c1bc 5040 26ba 8f96 97bd 570e 38bd
00000360: 83c7 09be c1e3 263c 166d 5cbc cb9e 893d
00000370: f72d 95bd c1fe 00bd d128 933d 8787 993c
00000380: 584c 10bc 3d2b 033b 4604 ccbc 8562 53bc
00000390: ad67 b8bc 4e90 8fbc c1ab 2abd 827e b1ba
000003a0: d36f 6ebc 5c01 21bc 6fb7 2d3c 5639 af3d
000003b0: 93a5 6abd fb41 02bd d894 7d3d 0e8f 54bd
000003c0: d282 8e3a b54b 883d f487 24bd 83e8 b93b
000003d0: 9737 f43d 9e84 a2bc 6f37 793d 41fb b4bc
000003e0: 4051 223c 19c5 873d 4074 a73d c457 97bc
000003f0: 28df 61bb 1c65 913c c32d 62bc 7a46 7b3c

network_body._body_endoder.seq_layers.0.bias f4 [128]
-0.0057328073 -0.0007168332 0.0006805346 -0.009076435 0.0054093683 0.0067993677 -0.005485246 -0.0038614806
-0.008662036 0.017848924 -0.0066760383 0.000540765 -0.0151686445 0.009537428 -0.0009015778 0.011224149
0.002601973 -0.0063702613 -0.02545757 0.0010082971 0.01705844 -0.019441212 -0.013758527 0.007900827
0.0020445597 0.007564043 -0.007409387 0.0019348908 0.002773032 0.0009633742 -0.018612318 -0.030050278
0.009662171 0.004323341 -0.021367934 -0.013689355 0.0033332645 0.0016038776 0.015823884 -0.0036325592
0.011551997 0.008381148 -0.0027727946 -0.009952373 0.007393772 0.02046768 0.002221194 0.0014000962
0.0019695929 0.01739356 0.0026928291 -0.013251868 0.015369554 -0.010528076 0.0052149645 -0.0033857948
0.0050894744 0.00663163 -0.00032654917 -0.0115105845 -0.04839731 0.0018215853 -0.013541327 -0.0036100287
-0.021083102 -0.016518682 0.002243728 -0.015127596 -0.0036167859 -0.019679729 -0.003045246 -0.019470206
-0.0018555673 0.004470067 0.0019098495 -0.018238906 -0.010827993 -0.010016594 0.005775352 -0.00063895097
0.012689349 0.0069793276 -0.016812796 0.023496127 0.01862065 0.009767198 -0.0006881718 -0.011471939
0.008597113 -0.008851493 0.014537058 0.0154557815 -0.006468345 0.007143369 0.0049554715 -0.01396527
-0.0021339909 0.03010091 0.0006242534 -0.0013519846 -0.00029536808 -0.010818395 -0.0057118414 -0.032235872
-0.012787628 0.0010352137 -0.016780142 0.024184631 -0.0035710367 0.029182557 -0.00959775 -0.0025352903
-0.0004244783 -0.01737723 -0.024657186 -0.018156542 0.0018854907 -0.0072447606 0.008218669 0.011093077
5.4300275e-05 0.0075338227 0.005932036 -0.010422792 0.01038107 -0.00792476 0.0048268586 0.012984602
00000000: 46da bbbb dde9 3bba e765 323a 54b5 14bc
00000010: 1241 b13b 3bcd de3b 94bd b3bb e510 7dbb
00000020: 36eb 0dbc e837 923c abc2 dabb 20c2 0d3a
00000030: e885 78bc df42 1c3c dd57 6cba 7ee5 373c
00000040: dd85 2a3b a0bd d0bb 658c d0bc d628 843a
00000050: 24be 8b3c 2d43 9fbc 726b 61bc 7872 013c
00000060: 05fe 053b cbdb f73b 71ca f2bb 299c fd3a
00000070: c2bb 353b f38a 7c3a dc78 98bc 002c f6bc
00000080: 154e 1e3c d0aa 8d3b ce0b afbc 5149 60bc
00000090: e672 5a3b 3439 d23a 17a1 813c 3b10 6ebb
000000a0: 9644 3d3c 1551 093c c6b7 35bb 470f 23bc
000000b0: 7447 f23b d6ab a73c 7491 113b 6f83 b73a
000000c0: 4914 013b f07c 8e3c 2d7a 303b 5d1e 59bc
000000d0: 95d0 7b3c f47d 2cbc 4be2 aa3b 36e4 5dbb
000000e0: 9bc5 a63b 254e d93b b034 abb9 e496 3cbc
000000f0: 423c 46bd 43c2 ee3a 71dc 5dbc 3b96 6cbb
00000100: 78b6 acbc 3052 87bc 820b 133b bdd9 77bc
00000110: 9907 6dbb 6237 a1bc c092 47bb fb7f 9fbc
00000120: 8236 f3ba a479 923b ea53 fa3a c269 95bc
00000130: e567 31bc a41c 24bc 2a3f bd3b 467f 27ba
00000140: fde6 4f3c d8b2 e43b fdba 89bc f37a c03c
00000150: 558a 983c 9906 203c 6e66 34ba cdf4 3bbc
00000160: e8da 0c3c da05 11bc d72c 6e3c 3f3a 7d3c
00000170: 69f4 d3bb ec12 ea3b 8261 a23b 96ce 64bc
00000180: 6dda 0bbb 2f96 f63c f0a4 233a 1335 b1ba
00000190: a2db 9ab9 a33f 31bc 662a bbbb c309 04bd
000001a0: 3383 51bc 02b0 873a 8276 89bc d91e c63c
000001b0: 0e08 6abb 4210 ef3c e23f 1dbc 1d27 26bb
000001c0: 838c deb9 b15a 8ebc defd c9bc 07bd 94bc
000001d0: 9222 f73a 7565 edbb 99a7 063c bdbf 353c
000001e0: 7ac0 6338 49de f63b 8661 c23b 5cc4 2abc
000001f0: 5d15 2a3c dad6 01bc a02a 9e3b 5ebd 543c

network_body._body_endoder.seq_layers.2.weight f4 [128, 128]
0.0048653814 -0.06572508 0.041659974 -0.04468635 0.11908675 0.07027856 0.027824916 -0.09416633
-0.022775242 -0.18370087 -0.10556602 0.019901276 0.064771004 0.06881415 0.00931112 0.052084167
0.24573416 0.040747687 0.06807049 -0.039029114 -0.054327723 0.14620529 -0.0948556 0.1957589
-0.0112715755 -0.20605311 -0.29268885 0.0988452 0.08680058 0.009204372 0.017944526 -0.13110071
0.012823292 0.054851465 -0.06506372 -0.050092738 0.05824682 0.3507416 -0.118116155 0.1455763
-0.06167091 -0.0053654844 0.08161889 -0.07618799 0.11937058 0.11492685 0.01973809 0.024803756
-0.07121885 -0.14866358 0.23123735 -0.032135062 0.08465806 -0.07053315 -0.10314527 -0.0061986805
0.096892886 -0.024606002 -0.001674928 -0.06575477 -0.106649086 -0.12382661 -0.10055654 -0.011566313
-0.030408975 0.072742835 -0.08162021 0.040617503 -0.14564507 -0.09715898 -0.10419308 0.0046948614
-0.096404076 -0.059369154 -0.068334915 0.008648179 -0.07341757 -0.0014149107 0.06831988 0.044793874
-0.009933505 0.006502046 0.0924651 -0.035369232 0.108783394 0.030308727 -0.061527926 -0.04835616
-0.062894754 0.18389988 -0.013082725 -0.15037215 -0.123067096 -0.019903397 -0.17436334 0.008331517
-0.16985868 -0.054909457 0.017113915 0.004266067 -0.04499387 -0.03782875 0.08789508 0.026410142
-0.12540199 -0.022844238 -0.08036759 -0.022990055 0.029255372 -0.060323536 -0.11853602 0.11903653
-0.09163917 -0.05058116 0.023525773 0.10972201 -0.0138627095 0.12758486 0.010634648 -0.019870566
-0.1470741 0.057481296 -0.029714046 0.052148852 -0.11734987 -0.04857318 -0.028323328 -0.017075792
-0.05042154 0.016025754 0.06449863 -0.09130846 -0.07013879 -0.027858324 0.048990555 0.0738195
-0.11989297 -0.03960741 0.012962055 -0.02217689 -0.024811212 0.098112814 0.12189518 -0.08987919
0.050954856 -0.04079573 0.020774921 0.105954036 -0.11319818 0.059653062 0.058203988 0.010786854
0.12575097 0.05765432 0.025289979 0.042604648 -0.08270394 -0.12044719 -0.10494298 -0.00735075
-0.1274318 -0.084873304 0.15743771 0.057862286 0.048575465 0.017006524 -0.06760355 -0.085621774
0.17086548 0.15848054 0.12538248 -0.031734332 -0.10425554 -0.056821093 0.13079448 -0.07713242
0.017092811 -0.06865112 -0.15212633 0.0629798 -0.057397425 0.06639117 -0.15532295 0.18941018
0.08243207 0.14574105 0.01896913 -0.12784854 -0.03473423 -0.085235216 0.115655415 -0.050963826
0.016982868 -0.04621963 0.03785098 -0.21867841 -0.090095475 0.06306673 0.04884193 0.03795569
-0.06138329 0.07275876 -0.14963332 0.021298936 0.032070905 -0.05465073 0.055828355 0.16337606
-0.04651058 0.1015987 -0.07327141 0.07630521 -0.048889697 -0.11131488 0.16089462 -0.1153111
0.09964044 -0.1311998 0.12094858 0.08288856 0.050527316 -0.07751816 0.18299614 -0.017456973
-0.018629087 -0.007939344 0.07832351 -0.06977872 -0.07994798 -0.050308168 -0.05027924 -0.028211068
0.08510783 0.0773051 -0.23954497 0.0471644 -0.009399985 0.076722115 0.129742 -0.1214107
-0.009099326 -0.061887063 -0.09729332 -0.034516502 -0.06319525 -0.053519774 -0.019355072 0.09520287
-0.10727365 0.012018716 0.051365677 -0.03742807 0.12048812 0.035419907 0.03908721 0.08444629
00000000: c76d 9f3b df9a 86bd a6a3 2a3d 0909 37bd
00000010: c1e3 f33d 35ee 8f3d 14f1 e33c 47da c0bd
00000020: 2593 babc 151c 3cbe ff32 d8bd 0008 a33c
00000030: a9a6 843d 6fee 8c3d ab8d 183c 3556 553d
00000040: bca1 7b3e 0ce7 263d 8b68 8b3d fedc 1fbd
00000050: bf86 5ebd d7b6 153e a743 c2bd 0575 483e
00000060: 6aac 38bc 96ff 52be 50db 95be 5a6f ca3d
00000070: 81c4 b13d efcd 163c 6600 933c 443f 06be
00000080: c918 523c eeab 603d 2140 85bd 0b2e 4dbd
00000090: 3894 6e3d 6794 b33e e2e6 f1bd f411 153e
000000a0: a39a 7cbd f2d0 afbb ce27 a73d 7308 9cbd
000000b0: 9078 f43d c55e eb3d c6b1 a13c 3f31 cb3c
000000c0: 30db 91bd 443b 18be 7cc9 6c3e 0ea0 03bd
000000d0: 3461 ad3d af73 90bd d43d d3bd 4d1e cbbb
000000e0: c76f c63d 8792 c9bc 4289 dbba 70aa 86bd
000000f0: d66a dabd ce98 fdbd 96f0 cdbd a280 3dbc
00000100: 3e1c f9bc 32fa 943d 7f28 a7bd 8a5e 263d
00000110: fb23 15be 4afb c6bd 2e63 d5bd 5ad7 993b
00000120: 806f c5bd 122d 73bd 2df3 8bbd 17b1 0d3c
00000130: f35b 96bd 8674 b9ba 4beb 8b3d c879 373d
00000140: 24c0 22bc 1d0f d53b 585e bd3d 54df 10bd
00000150: d4c9 de3d 024a f83c b504 7cbd 1c11 46bd
00000160: f7ce 80bd 4050 3c3e ed58 56bc 28fb 19be
00000170: 9a0a fcbd 730c a3bc 4e8c 32be ea80 083c
00000180: 6fef 2dbe bde8 60bd 7b32 8c3c 5dca 8b3b
00000190: 7e4b 38bd 52f2 1abd 5602 b43d 155a d83c
000001a0: 6169 00be d723 bbbc c397 a4bd a455 bcbc
000001b0: f6a8 ef3c d015 77bd 03c3 f2bd 6dc9 f33d
000001c0: 51ad bbbd 312e 4fbd 1fb9 c03c efb5 e03d
000001d0: 6b20 63bc 9ba5 023e f23c 2e3c 99c7 a2bc
000001e0: 989a 16be 8271 6b3d df6a f3bc 099a 553d
000001f0: 2155 f0bd acf4 46bd 5306 e8bc 88e2 8bbc
00000200: d186 4ebd 7148 833c dc17 843d eeff babd
00000210: eda4 8fbd 2437 e4bc 52aa 483d ae2e 973d
00000220: 728a f5bd 613b 22bd cd5e 543c 4fac b5bc
00000230: e240 cbbc 5fef c83d 2ea4 f93d 9512 b8bd
00000240: 0ab6 503d 6c19 27bd 2b30 aa3c 6efe d83d
00000250: 73d4 e7bd c556 743d 4e67 6e3d 58bb 303c
00000260: ddc4 003e f026 6c3d ee2c cf3c 3682 2e3d
00000270: af60 a9bd 04ad f6bd 58ec d6bd 8fde f0bb
00000280: 7b7d 02be 0ed2 adbd 5a37 213e 0101 6d3d
00000290: 11f7 463d 4451 8b3c bb73 8abd 785a afbd
000002a0: 5cf7 2e3e b948 223e 4464 003e dcfb 01bd
000002b0: ee83 d5bd 3cbd 68bd fdee 053e 9af7 9dbd
000002c0: 3906 8c3c f598 8cbd 01c7 1bbe 8efb 803d
000002d0: 9019 6bbd 18f8 873d fb0c 1fbe bef4 413e
000002e0: 25d2 a83d 243d 153e 2665 9b3c baea 02be
000002f0: 7b45 0ebd cd8f aebd bfdc ec3d 72bf 50bd
00000300: a81f 8b3c cb50 3dbd a109 1b3d 3ced 5fbe
00000310: fa83 b8bd 2129 813d 7a0e 483d 6d77 1b3d
00000320: 0b6d 7bbd 8b02 953d 7a39 19be 1b7b ae3c
00000330: c85c 033d 72d9 5fbd 46ac 643d 0e4c 273e
00000340: e181 3ebd fb12 d03d 520f 96bd e845 9c3d
00000350: 9040 48bd 0ef9 e3bd 8fc1 243e 3a28 ecbd
00000360: 4910 cc3d 3e59 06be e4b3 f73d 7ac1 a93d
00000370: bbf5 4e3d d7c1 9ebd 5763 3b3e ed01 8fbc
00000380: 079c 98bc 0614 02bc 1468 a03d 25e8 8ebd
00000390: c4bb a3bd f00f 4ebd 9bf1 4dbd e61a e7bc
000003a0: 044d ae3d 2352 9e3d 474b 75be 752f 413d
000003b0: 6502 1abc 7c20 9d3d 16db 043e 2ca6 f8bd
000003c0: 5715 15bc 4a7d 7dbd b841 c7bd 2d61 0dbd
000003d0: 836c 81bd 8d37 5bbd 878e 9ebc b9f9 c23d
000003e0: 4ab2 dbbd 26ea 443c d164 523d 2d4e 19bd
000003f0: 7ac2 f63d 7714 113d e919 203d 2df2 ac3d

network_body._body_endoder.seq_layers.2.bias f4 [128]
0.0045658667 0.02013581 0.007167105 0.0005126457 0.009816718 -0.022351405 -0.002488721 0.013535926
0.004372617 -0.008094948 0.0036687963 -0.0009591158 -0.0027304061 0.006084774 0.010545031 -0.0143109
-0.013670072 -0.0010273855 0.0041585634 -0.0053398004 -0.007212992 -0.022514867 -0.0022167575 0.026747467
0.011276516 0.012490453 0.0013118231 0.0062592165 0.01773518 -0.001394284 0.011505611 0.024838362
-0.0046670106 -0.015610466 0.00638811 0.004169302 -0.0027256967 0.004944431 0.0120929675 0.014289631
-0.011943411 0.0047943834 0.024230497 -0.0106147025 0.012371641 -0.0005687658 0.012298377 -0.0038855467
0.021773338 0.0018147908 -0.017518828 0.0325762 -0.011467099 0.0070742103 -0.016124124 -0.014776816
0.019007027 -0.014646973 0.017495457 -0.0016846135 -0.007025173 -0.002887118 -0.010016285 0.014469693
0.013852074 -0.010565456 0.0037764215 -0.002025859 -0.017436694 -0.002855887 -0.013279419 -0.0016643996
0.011550039 -0.012390343 0.0053050616 -0.022218108 0.00891445 -0.0036685017 -0.019517906 0.0054198713
0.0022085803 0.008914273 0.00054775446 -0.002289389 0.013801711 -0.008888379 -0.002598043 0.015704373
-0.0014539834 0.005871391 0.01631857 0.0015393135 0.00016682183 -0.011567936 -0.0019756428 0.010692092
0.007887356 0.0052750334 -0.0050496925 -0.0072501376 -0.0030549022 -0.00206495 0.0010795495 -0.0069251037
-0.00333305 -0.014068473 0.0035044858 -0.008089061 0.0059166527 -0.0057611596 0.010445669 -0.0013296369
0.011783132 -0.0051023383 0.0066639553 -0.0033526188 -0.008932372 -0.019364366 0.011886812 0.009893851
-0.017676184 0.014726491 -0.008763011 -0.0061297673 0.018784225 -0.0101768775 -0.018370207 0.0079335645
00000000: 449d 953b dbf3 a43c 09da ea3b 1263 063a
00000010: 4dd6 203c 4b1a b7bc cf19 23bb cac5 5d3c
00000020: 2c48 8f3b aca0 04bc 3070 703b 2c6d 7bba
00000030: 9df0 32bb c962 c73b 11c5 2c3c 4478 6abc
00000040: 70f8 5fbc 56a9 86ba 8f44 883b 7ef9 aebb
00000050: f65a ecbb 1971 b8bc 0547 11bb 811d db3c
00000060: 23c1 383c c2a4 4c3c 7bf1 ab3a 1d1a cd3b
00000070: 5e49 913c 68c0 b6ba 0882 3c3c d279 cb3c
00000080: b9ed 98bb 0ac3 7fbc 5a53 d13b a49e 883b
00000090: 9aa1 32bb e504 a23b 9521 463c 0e1f 6a3c
000000a0: 4cae 43bc 341a 9d3b 097f c63c 4ae9 2dbc
000000b0: 6cb2 4a3c 3a19 15ba 227f 493c a8a4 7ebb
000000c0: 005e b23c 46de ed3a a583 8fbc 9f6e 053d
000000d0: 80e0 3bbc c7ce e73b bd16 84bc 751a 72bc
000000e0: a0b4 9b3c dcf9 6fbc a252 8f3c 40ce dcba
000000f0: 6c33 e6bb cd35 3dbb 581b 24bc 4b12 6d3c
00000100: cff3 623c bc1a 2dbc d77d 773b 46c4 04bb
00000110: 66d7 8ebc d529 3bbb ec91 59bc fc27 daba
00000120: 603c 3d3c dd00 4bbc 15d6 ad3b c002 b6bc
00000130: ea0d 123c 3f6b 70bb 04e4 9fbc 2d99 b13b
00000140: d4bd 103b 2c0d 123c 2e97 0f3a 9309 16bb
00000150: 9220 623c 90a0 11bc ee43 2abb 75a6 803c
00000160: 9693 beba cc64 c03b 86ae 853c cac2 c93a
00000170: e5ec 2e39 7187 3dbc c979 01bb e22d 2f3c
00000180: f839 013c 30da ac3b e477 a5bb 9092 edbb
00000190: c134 48bb 1d54 07bb ac7f 8d3a fbeb e2bb
000001a0: 4d6f 5abb 747f 66bc 84ab 653b fb87 04bc
000001b0: 7be0 c13b 1cc8 bcbb 5024 2b3c 3647 aeba
000001c0: 0a0e 413c 8431 a7bb 4f5d da3b 9cb7 5bbb
000001d0: 1559 12bc 05a2 9ebc e7c0 423c d219 223c
000001e0: a5cd 90bc 6147 713c bb92 0fbc 37dc c8bb
000001f0: 60e1 993c ebbc 26bc 1e7d 96bc c8fb 013c

action_model._discrete_distribution.branches.0.weight f4 [2, 128]
-0.027545985 0.017913628 -0.003425312 0.021535387 0.021562072 -0.0035525656 -0.034053635 -0.013701143
0.009701053 -0.005614824 0.0023768467 -0.010873326 -0.010969043 0.0037956208 -0.00759527 -0.011256971
-0.010939718 -0.016974272 0.024584804 -0.004241873 -0.03167799 0.015182706 -0.031395018 0.012038328
-0.01840913 0.0075365114 0.009386466 -0.021143714 0.023834504 0.015756465 -0.031246807 -0.016347032
0.024318708 -0.017606892 -0.040107902 -0.04631778 0.00070734986 -0.040603902 0.035436437 0.020628538
0.010942563 -0.024169087 -0.02102543 0.035161354 0.034958724 -0.003963935 0.023948662 0.023558252
0.042154774 -0.01837273 -0.0007015965 0.03199323 -0.007685322 0.026840582 0.008747786 0.00959444
0.057528228 0.00486118 0.02728547 0.0020268115 -0.017521325 0.01933134 0.0023263432 0.041769363
0.027920984 0.0014559412 -0.023832763 0.022362724 1.9954847e-05 0.0023874003 -0.019320564 -0.005353693
0.0035350749 -0.00081047916 0.009329163 -0.006263668 -0.017371207 -0.01186408 0.006221412 0.014858978
0.010686812 0.016071536 0.015201849 0.005313357 -0.019298347 0.0077044647 0.012881433 -0.027898218
-0.0079406155 -0.018523516 0.0013611207 0.007847431 0.004045414 0.017421314 0.015606604 0.031076556
0.03947623 -0.0063226824 -0.02159536 -0.03033518 0.01615075 0.0018578285 -0.030494744 -0.03607655
-0.022070345 0.0035386365 -0.032309026 0.004527508 0.0038748987 0.004380788 0.013805034 -0.00031102932
-0.0096102115 -0.010190574 -0.019105533 -0.026986523 0.009593759 0.014034639 -0.02416435 -0.0012964063
0.014007529 -0.009988605 -0.0074259345 0.0075962534 0.0023961554 0.0008875626 0.012800811 0.025194392
0.036151927 -0.022456862 -0.0068585817 -0.012373535 -0.026663937 0.0049379496 0.02665654 0.005383196
-0.019735295 0.01964912 0.009670401 0.0076531093 0.024608595 -0.011785675 -0.00618158 0.022227779
0.028902085 0.01761522 -0.018896006 0.009776899 0.02528667 0.013189758 0.024208128 -0.028818253
-0.02092103 0.00926878 -0.029888637 0.013449028 -0.025242934 -0.03745389 0.045175303 0.030664377
-0.017567601 0.00025483212 0.06273623 0.040089134 -0.0038939496 0.047441613 -0.03517551 -0.03040344
0.0016067947 0.02209671 0.014654003 -0.02312084 -0.036280848 0.008363314 -0.036857333 -0.024104314
-0.04170514 0.012104163 -0.011819681 -0.03715952 0.0008800997 -0.028282361 -0.012956239 -0.0052667577
-0.047079027 -0.0073363567 -0.033923417 0.013275124 0.032372393 -0.008268727 -0.009235443 -0.034111712
-0.01668945 0.008453651 0.02291292 -0.024099018 0.004884361 0.01463001 0.003141896 -0.013056596
-0.030364282 -0.008605337 -0.011781015 -0.007813617 0.011133503 -0.011004561 -0.0026833275 -0.028534217
-0.0036220937 -0.0035442684 -0.0077616046 -0.010012019 0.019732129 -0.019852582 -0.017032698 0.00326387
0.03397419 0.0125835035 -0.003951751 -0.007705582 0.0025367665 -0.00626121 -0.017145399 -0.04743542
-0.0326854 0.0016146352 0.020566478 0.02045973 -0.01709584 -0.03331995 0.017504567 0.011974755
0.019714681 -0.019178728 0.04553632 0.0056889364 -0.019395528 0.0045972676 0.0075337896 0.018934002
0.012665479 -0.009872858 0.017858785 0.019368757 -0.00063629233 -0.013192532 0.049782738 0.0019134888
-0.004450198 -0.00017875423 -0.017629273 -0.0020508969 0.013102175 -0.0028197502 0.01273803 -0.009624925
00000000: 1ea8 e1bc 9abf 923c 337b 60bb fb6a b03c
00000010: f1a2 b03c 29d2 68bb d37b 0bbd c27a 60bc
00000020: 2af1 1e3c 8ffc b7bb dfc4 1b3b 0926 32bc
00000030: 80b7 33bc f3bf 783b bee1 f8bb 296f 38bc
00000040: 813c 33bc a10d 8bbc 1266 c93c 69ff 8abb
00000050: c8c0 01bd e2c0 783c 1098 00bd 683c 453c
00000060: bece 96bc d7f4 f63b b1c9 193c 9535 adbc
00000070: 9440 c33c b413 813c 4ef9 ffbc 36ea 85bc
00000080: 0738 c73c 543c 90bc 2f48 24bd b6b7 3dbd
00000090: 726d 393a 4750 26bd cc25 113d 2efd a83c
000000a0: 7048 333c 40fe c5bc 863d acbc 5a05 103d
000000b0: e130 0f3d e6e3 81bb fc2f c43c 3cfd c03c
000000c0: 7caa 2c3d 6882 96bc 58eb 37ba 550b 033d
000000d0: 27d5 fbbb c8e0 db3c e052 0f3c 0032 1d3c
000000e0: b8a2 6b3d 894a 9f3b c785 df3c 41d4 043b
000000f0: e288 8fbc c25c 9e3c 9075 183b 5a16 2b3d
00000100: 8cba e43c 48d5 be3a ed3c c3bc 0832 b73c
00000110: b564 a737 ee75 1c3b 2946 9ebc 086e afbb
00000120: b7ac 673b 5676 54ba 58d9 183c 753f cdbb
00000130: 104e 8ebc 8f61 42bc fddc cb3b 1273 733c
00000140: bd17 2f3c 74a8 833c 2d11 793c ab1b ae3b
00000150: 9117 9ebc bc75 fc3b a50c 533c ce8a e4bc
00000160: 5b19 02bc a1be 97bc a267 b23a 8392 003c
00000170: 648f 843b 25b7 8e3c d7b2 7f3c 4394 fe3c
00000180: d4b1 213d 812e cfbb c1e8 b0bc 7c81 f8bc
00000190: 944e 843c 6182 f33a 1dd0 f9bc 01c5 13bd
000001a0: decc b4bc 78e8 673b 7856 04bd 7d5b 943b
000001b0: 03f2 7d3b b78c 8f3b 822e 623c a611 a3b9
000001c0: 2674 1dbc 5ef6 26bc 3583 9cbc d712 ddbc
000001d0: 242f 1d3c 8bf1 653c 51f4 c5bc 2dec a9ba
000001e0: d67f 653c 3fa7 23bc 4155 f3bb fee9 f83b
000001f0: d108 1d3b 51ab 683a 7eba 513c 7864 ce3c
00000200: 0b14 143d 74f7 b7bc f4bd e0bb 5eba 4abc
00000210: 546e dabc 86ce a13b d15e da3c 8565 b03b
00000220: eaab a1bc 31f7 a03c 9a70 1e3c efc6 fa3b
00000230: f797 c93c b418 41bc da8e cabb 0817 b63c
00000240: 11c4 ec3c cb4d 903c cccb 9abc 492f 203c
00000250: fe25 cf3c db19 583c 2050 c63c 4214 ecbc
00000260: 9462 abbc 15dc 173c 04d9 f4bc 5059 5c3c
00000270: 45ca cebc 4069 19bd bd09 393d dc33 fb3c
00000280: eee9 8fbc fd9a 8539 da7b 803d 8134 243d
00000290: a231 7fbb 2352 423d 3214 10bd a310 f9bc
000002a0: 159b d23a 2904 b53c 5817 703c ea67 bdbc
000002b0: 3a9b 14bd 4806 093c b7f7 16bd 6976 c5bc
000002c0: 02d3 2abd 8a50 463c 56a7 41bc 9534 18bd
000002d0: 7eb6 663a 69b0 e7bc 6846 54bc c494 acbb
000002e0: f0d5 40bd d265 f0bb 48f3 0abd e87f 593c
000002f0: ea98 043d 8e79 07bc 4150 17bc b9b8 0bbd
00000300: 50b8 88bc 2f81 0a3c e0b3 bb3c 4e6b c5bc
00000310: fd0c a03b b6b2 6f3c 45e8 4d3b 55eb 55bc
00000320: 84be f8bc 66fd 0cbc 2905 41bc af04 00bc
00000330: 4c69 363c 794c 34bc c4da 2fbb 97c0 e9bc
00000340: a660 6dbb f546 68bb 0f55 febb 7409 24bc
00000350: 46a5 a13c e2a1 a2bc 2888 8bbc a7e6 553b
00000360: 8528 0b3d 0a2b 4e3c b17d 81bb 1b7f fcbb
00000370: e13f 263b d62a cdbb 8274 8cbc a54b 42bd
00000380: 20e1 05bd 2ba2 d33a 087b a83c 2a9b a73c
00000390: 930c 8cbc 807a 08bd bd65 8f3c c331 443c
000003a0: af80 a13c b51c 9dbc 4b84 3a3d 426a ba3b
000003b0: 5fe3 9ebc ada4 963b 02de f63b 7b1b 9b3c
000003c0: df82 4f3c c5c1 21bc 964c 923c 3aab 9e3c
000003d0: dbcc 26ba 7d25 58bc fce8 4b3d 08ce fa3a
000003e0: f7d2 91bb f96f 3bb9 446b 90bc 5768 06bb
000003f0: 81aa 563c 8fcb 38bb 2cb3 503c ddb1 1dbc

action_model._discrete_distribution.branches.0.bias f4 [2]
0.00787156 -0.007871558
00000000: b7f7 003c b5f7 00bc

action_model._discrete_distribution.branches.1.weight f4 [3, 128]
0.007977654 0.010277905 0.012417216 0.014695704 0.03660013 -0.0064601516 0.0156863 0.0076946425
-0.0060169194 0.00044458068 0.014264819 0.012412385 0.016876316 -0.04142945 -0.01000356 -0.018492933
-0.0047686803 0.025399856 -0.016592713 -0.028205143 -0.025646856 0.007158141 -0.016718829 0.035112247
0.016275495 -0.051586267 0.014741366 0.0047252793 0.020882687 -0.02617525 0.012532416 0.053588744
0.004234013 -0.026980845 -0.012275623 0.0012544474 0.015901735 0.027562685 0.007112764 0.038861398
-0.034042668 -0.013618808 0.008222405 0.0086825155 0.0292969 -0.034017365 0.031648096 0.0023591677
-0.044013858 0.012777677 -0.014636676 0.010346402 -0.028145855 -0.028178487 -0.020151313 -0.0050264597
-0.006061181 -0.011887884 -0.031138532 0.01635104 -0.018417895 -0.015595134 -0.016231416 -0.014095031
0.034215443 -0.0048029493 -0.013095309 -0.03169187 -0.017568592 -0.030073045 -0.018975336 0.013454616
0.006986612 0.0012445775 0.0005388733 -0.01692914 -0.0571253 -0.029841594 -0.00062108587 -0.0148541415
0.013340485 0.012128763 -0.015817069 0.0003531301 0.039037578 -0.016489897 0.020852918 0.035245188
0.015641076 -0.017904855 -0.0018136797 -0.020080484 -0.061120104 -0.005806727 0.0040222686 -0.047378454
-0.036634773 -0.010762069 -0.027346639 -0.037424985 -0.045120806 -0.011101485 0.02224878 -0.006558384
-0.024997164 0.0087941475 -0.007471967 -0.053067077 -0.022464946 -0.0049740323 0.0027423254 -0.048452783
0.020610254 -0.003966487 -0.022527913 -0.008257622 0.015169891 -0.004381404 -0.037904426 -0.0009559983
-0.018842883 0.017524598 -0.04513884 -0.009431006 0.026052874 -0.017506812 0.009989138 0.009074782
0.018644782 -0.0336074 -0.022229258 -0.017011348 -0.00089500716 0.003607948 -0.0061216876 -0.035177086
-0.00041689817 0.028214546 -0.022362962 -0.0046024667 -0.00341619 -0.002495251 -0.032397095 0.009800718
-0.0113040935 -0.0004551174 -0.0035411129 0.021629218 0.0059041 0.013928191 -0.015745413 -0.052111086
0.00054925407 -0.025514172 0.023660533 0.02200096 -0.024038555 0.026505286 -0.028831063 -0.02192358
-2.6908156e-05 0.014349022 0.035129733 -0.011872056 0.031024968 0.018477576 0.03499813 0.0068678707
0.025527429 0.023952156 -0.044537865 -0.02240043 -0.018352536 0.0016634654 0.005000265 0.015629675
-0.023408638 -0.032403428 0.02496774 -0.07108107 0.01842126 0.0024547074 0.0077104224 -0.016433021
-0.012524749 0.009608449 -0.034294914 -0.014284465 0.009148105 0.026476756 0.001898343 -0.011847574
-0.017964773 0.0061162473 0.0010531265 0.019638093 0.033485558 0.0029228784 0.017418845 0.029628428
-0.03252202 0.0064483476 -0.028575249 -0.0036984885 0.028228527 0.047142904 0.009883157 -0.0016084838
-0.018188708 -0.018038413 -0.021497063 0.0005469485 -0.038019724 0.0017779984 0.008511631 -0.014407964
6.839445e-05 0.04823838 0.069793254 0.050798126 0.008810551 0.004800787 0.019305363 0.04874139
0.014014199 -0.038198475 0.035043564 0.025096059 0.023589738 0.042573385 0.011240671 0.0088290945
0.012272807 -0.0014009842 -0.014842719 0.020350784 -0.030182045 -0.0059776604 -0.018854642 0.0473185
0.018557658 0.04849841 0.0627796 0.03859311 0.0078059183 0.012691495 0.011008526 -0.026178965
0.01561452 -0.031892173 0.03555284 -0.007821214 -0.032979995 -0.004044762 -0.0037723756 0.0029703835
00000000: b5b4 023c a864 283c 9471 4b3c 40c6 703c
00000010: 05ea 153d aeaf d3bb 8e80 803c 5723 fc3b
00000020: 9429 c5bb 9c16 e939 fdb6 693c 515d 4b3c
00000030: 3340 8a3c edb1 29bd f9e5 23bc 7e7e 97bc
00000040: 9742 9cbb 5c13 d03c 71ed 87bc 790e e7bc
00000050: 5b19 d2bc d78e ea3b edf5 88bc dcd1 0f3d
00000060: 3054 853c 1f4c 53bd c585 713c 84d6 9a3b
00000070: 2b12 ab3c 7a6d d6bc c354 4d3c df7f 5b3d
00000080: 7abd 8a3b ef06 ddbc b21f 49bc 456c a43a
00000090: 5b44 823c 24cb e13c 3012 e93b 212d 1f3d
000000a0: 5370 0bbd 6c21 5fbc 44b7 063c 1c41 0e3c
000000b0: 0d00 f03c cb55 0bbd 6fa1 013d 449c 1a3b
000000c0: e047 34bd 7659 513c abce 6fbc f583 293c
000000d0: 2392 e6bc 92d6 e6bc 5e14 a5bc 00b5 a4bb
000000e0: df9c c6bb 66c5 42bc 3c16 ffbc 9ef2 853c
000000f0: 20e1 96bc bc82 7fbc bff7 84bc d8ee 66bc
00000100: 7e25 0c3d 0f62 9dbb b58d 56bc 56cf 01bd
00000110: 02ec 8fbc bf5b f6bc 2a72 9bbc c070 5c3c
00000120: f3ef e43b 1721 a33a 2d43 0d3a fbae 8abc
00000130: 38fc 69bd 5c76 f4bc 5ed0 22ba c95e 73bc
00000140: 0d92 5a3c b8b7 463c cc92 81bc 5224 b939
00000150: dee5 1f3d d215 87bc bdd3 aa3c 425d 103d
00000160: b721 803c 34ad 92bc feb8 edba d47f a4bc
00000170: 1359 7abd 5b46 bebb 3ccd 833b e90f 42bd
00000180: 580e 16bd 6453 30bc 0f06 e0bc f14a 19bd
00000190: 98d0 38bd 01e3 35bc 1343 b63c b6e7 d6bb
000001a0: dac6 ccbc 5415 103c 67d7 f4bb dd5c 59bd
000001b0: 6808 b8bc 35fd a2bb 96b8 333b 6d76 46bd
000001c0: d6d6 a83c 4ef9 81bb 758c b8bc fa4a 07bc
000001d0: 228b 783c e191 8fbb ac41 1bbd f69b 7aba
000001e0: 645c 9abc bf8f 8f3c 81e3 38bd 8284 1abc
000001f0: d66c d53c 726a 8fbc 7ba9 233c 65ae 143c
00000200: f1bc 983c eaa7 09bd 221a b6bc 625b 8bbc
00000210: ea9e 6aba 5373 6c3b 7098 c8bb d915 10bd
00000220: 2093 dab9 3122 e73c 8832 b7bc 4ad0 96bb
00000230: 28e2 5fbb 5d87 23bb d1b2 04bd 3193 203c
00000240: ce34 39bc d39c eeb9 0412 68bb c22f b13c
00000250: 2e77 c13b 1133 643c 86fc 80bc 6f72 55bd
00000260: d1fb 0f3a 1903 d1bc bcd3 c13c 5b3b b43c
00000270: 81ec c4bc 9d21 d93c 1f2f ecbc 1499 b3bc
00000280: d3b8 e1b7 2918 6b3c 32e4 0f3d 0383 42bc
00000290: 1328 fe3c 495e 973c 335a 0f3d e00b e13b
000002a0: e61e d13c 5037 c43c 566d 36bd 1b81 b7bc
000002b0: 0f58 96bc a308 da3a 43d9 a33b ce09 803c
000002c0: 79c3 bfbc 75b9 04bd 2589 cc3c f492 91bd
000002d0: 2fe8 963c 28df 203b b6a7 fc3b 8b9e 86bc
000002e0: 9b34 4dbc c26c 1d3c d378 0cbd 6409 6abc
000002f0: efe1 153c c8e5 d83c d2d1 f83a 541c 42bc
00000300: dc2a 93bc cd6a c83b 1009 8a3a 11e0 a03c
00000310: 2728 093d c38d 3f3b f7b1 8e3c 51b7 f23c
00000320: cf35 05bd a94c d33b a416 eabc 5762 72bb
00000330: 833f e73c eb18 413d f7ec 213c c3d3 d2ba
00000340: 7c00 95bc 4bc5 93bc 9c1a b0bc 1861 0f3a
00000350: 92ba 1bbd ba0b e93a 5e74 0b3c 620f 6cbc
00000360: fe6e 8f38 9c95 453d c4ef 8e3d b211 503d
00000370: 215a 103c ec4f 9d3b 4826 9e3c 0da5 473d
00000380: d09b 653c 0176 1cbd d789 0f3d 4096 cd3c
00000390: 443f c13c 6e61 2e3d cb2a 383c e8a7 103c
000003a0: e213 493c 3ba1 b7ba e02e 73bc b0b6 a63c
000003b0: 5640 f7bc 40e0 c3bb 0d75 9abc 0bd1 413d
000003c0: 3b06 983c 45a6 463d 9792 803d cf13 1e3d
000003d0: cac8 ff3b fdef 4f3c 1b5d 343c 4575 d6bc
000003e0: 0bd4 7f3c 5ea1 02bd db9f 113d 8d24 00bc
000003f0: 0816 07bd ec89 84bb f639 77bb c4aa 423b

action_model._discrete_distribution.branches.1.bias f4 [3]
0.008948896 -0.010709464 0.0022223915
00000000: 649e 123c bf76 2fbc 8ba5 113b

action_model._discrete_distribution.branches.2.weight f4 [1, 128]
0.016410489 0.008269585 -0.0055658924 0.009782922 0.007426418 -0.017546272 0.010261013 0.002849087
0.004584204 0.014403743 -0.013543944 -9.4977e-05 0.0088668065 0.0042199376 -0.0036920656 -0.003981019
-0.006926202 0.012805402 -0.012750082 0.0054405862 0.022306709 -0.0072164894 -0.026372625 -0.0044198367
-0.020757897 -0.0031986819 0.011094872 0.009174475 -0.005807137 -0.0028173667 0.006711583 -0.007968751
-0.010259301 0.0050318777 0.0037439093 -0.00694688 -0.0024464445 0.0005712265 -0.015239832 0.002088324
0.017363574 -0.012731439 -0.0018037402 0.0005658716 0.0046274774 -0.0015814189 0.0034261711 0.006707206
0.00033571565 -0.004337289 0.004916355 0.002504886 -0.009300107 -0.022530345 -0.0009440416 0.01558836
0.006541531 0.009144445 -0.007549774 0.0072917165 -0.00071930717 -0.018394284 0.0026329958 -0.0028021715
0.010009698 -0.010759814 0.0010811291 -0.0024876 0.0055316887 -0.00045452476 0.0148486495 0.0055597858
-0.0053747534 -0.009773629 0.008468033 -0.007564028 0.010935668 0.0034485217 0.009626199 0.014464641
-0.010994231 -0.0048198295 0.0025078761 -0.010881957 0.0042784284 -0.0026017388 0.0018060338 -0.0022186611
0.011328121 -0.0080100745 0.00600025 -0.016413262 -0.0058400054 -0.010611298 -0.004003285 -0.0051715393
-0.018005121 0.011052332 -0.0093438765 -0.009205051 -0.0002623371 -0.007941612 -0.0014407107 -0.004200832
-0.0024297184 0.004002807 0.011546097 0.0048421263 0.0102084605 -0.013985348 -0.0060157813 0.0037671148
-0.01369189 -0.010531087 0.013031833 -4.9385195e-05 0.005183499 0.0113978945 -0.0041308715 0.00696901
0.0010467732 0.011325168 -0.0074695027 -0.0047181696 -0.0026443272 -0.0023071177 -0.002996929 0.006362028
00000000: 4a6f 863c 277d 073c 1762 b6bb 8d48 203c
00000010: 4f59 f33b 33bd 8fbc cf1d 283c bfb7 3a3b
00000020: 1737 963b adfd 6b3c 6be7 5dbc 632e c7b8
00000030: 1546 113c 6747 8a3b 95f6 71bb 3573 82bb
00000040: 32f5 e2bb c0cd 513c b8e5 50bc f246 b23b
00000050: 8fbc b63c 4d78 ecbb 670b d8bc 47d4 90bb
00000060: 770c aabc faa0 51bb 44c7 353c 8a50 163c
00000070: cc49 bebb 92a3 38bb d7ec db3b 5d8f 02bc
00000080: a116 28bc 73e2 a43b 605c 753b a7a2 e3bb
00000090: 8754 20bb 5dbe 153a 7db0 79bc 43dc 083b
000000a0: 0e3e 8e3c 8797 50bc 7a6b ecba 0057 143a
000000b0: 18a2 973b 9d47 cfba 9d89 603b 1fc8 db3b
000000c0: fe02 b039 d11f 8ebb 6019 a13b 0329 243b
000000d0: 7a5f 18bc 8f91 b8bc 8f79 77ba 5266 7f3c
000000e0: 575a d63b 95d2 153c 1864 f7bb 5aef ee3b
000000f0: e38f 3cba 9caf 96bc 578e 2c3b a3a4 37bb
00000100: b7ff 233c ee49 30bc acb4 8d3a 0107 23bb
00000110: 2b43 b53b 484d eeb9 c047 733c dd2e b63b
00000120: b31e b0bb 9221 20bc 81bd 0a3c aadb f7bb
00000130: 842b 333c 9800 623b 34b7 1d3c 1afd 6c3c
00000140: 2621 34bc a9ef 9dbb 2e5b 243b 3c4a 32bc
00000150: 0f32 8c3b ef81 2abb 70b8 ec3a f566 11bb
00000160: 9599 393c b03c 03bc bf9d c43b 1b75 86bc
00000170: 845d bfbb 02db 2dbc fd2d 83bb 0476 a9bb
00000180: 7a7f 93bc d714 353c 0f17 19bc c8d0 16bc
00000190: 4a8a 89b9 891d 02bc 3bd6 bcba 22a7 89bb
000001a0: e93b 1fbb fb29 833b d72b 3d3c b3aa 9e3b
000001b0: 6341 273c cd22 65bc 0820 c5bb b3e1 763b
000001c0: f353 60bc 958a 2cbc 7883 553c f322 4fb8
000001d0: 57da a93b 3cbe 3a3c 435c 87bb 4b5c e43b
000001e0: e133 893a 338d 393c bbc2 f4bb e09a 9abb
000001f0: 734c 2dbb 0333 17bb 2068 44bb 8f78 d03b

94 f4 [630]
0.35582888 0.39681533 0.083445765 0.10308367 0.088492386 0.066559255 0.062152438 0.086562224
0.07856859 0.075337164 0.060203858 0.05650469 0.17855406 0.2628499 0.35689843 0.3926531
0.08391747 0.10210149 0.088619515 0.06341774 0.056303166 0.08222001 0.07963952 0.07420262
0.057698816 0.05799346 0.17747314 0.26253137 0.3527071 0.39720058 0.08235712 0.10060945
0.08337815 0.06483308 0.06621769 0.09031778 0.07784625 0.076749645 0.058481187 0.053187672
0.17950861 0.26196575 0.3530057 0.3817885 0.08062589 0.09587131 0.084653266 0.062425774
0.05507838 0.073436275 0.074960925 0.07195725 0.054246295 0.056202143 0.18511741 0.26442954
0.34597215 0.39036313 0.08027505 0.09540169 0.0779188 0.058868427 0.059920233 0.09019309
0.07806367 0.078927234 0.057204325 0.05318767 0.17870359 0.26183888 0.3451226 0.37232637
0.070767306 0.090814635 0.080765806 0.06067357 0.05144805 0.06544251 0.07289492 0.06939353
0.051003795 0.055694178 0.19089635 0.26707894 0.33662894 0.38066244 0.07004344 0.08759711
0.07623238 0.05403625 0.056202132 0.08708123 0.072271205 0.078136 0.05445552 0.050216746
0.18166469 0.26166794 0.33475998 0.3659516 0.06430605 0.089629896 0.079639524 0.056303155
0.05424629 0.06206106 0.07533717 0.06807474 0.048954144 0.055694174 0.1951874 0.26889777
0.3248817 0.37541434 0.06832399 0.085250415 0.073436275 0.05700532 0.05660517 0.08478633
0.06807474 0.078783974 0.05350748 0.04558114 0.18531823 0.26263112 0.32116494 0.36594087
0.05730357 0.08551442 0.077190205 0.057600256 0.052433766 0.060014926 0.077190205 0.06740546
0.04620168 0.051003784 0.19802281 0.27007934 0.31331983 0.37088454 0.05700532 0.083445765
0.069066234 0.057402648 0.05414138 0.08643195 0.065442525 0.07799127 0.04789611 0.038975995
0.19513346 0.26690876 0.3063805 0.36601546 0.051778726 0.08283522 0.07667599 0.054767843
0.048014823 0.059539936 0.07404997 0.06552911 0.044055868 0.050442874 0.19918574 0.27106538
0.29781178 0.37435433 0.05630316 0.07828048 0.06672937 0.05559203 0.057204336 0.081945054
0.06465791 0.07689679 0.04274293 0.039412443 0.19238493 0.26651478 0.2921443 0.3662495
0.049646858 0.07674967 0.07465855 0.053294495 0.051003784 0.057204336 0.0703661 0.06578819
0.041250076 0.049070284 0.19445738 0.26848078 0.28343365 0.37423274 0.05750155 0.07435491
0.068489626 0.062425766 0.05548968 0.07719021 0.06057991 0.07586068 0.042876046 0.03868227
0.19596796 0.26764792 0.35606572 0.39713943 0.08351332 0.103246406 0.08861954 0.06672937
0.062243685 0.087275065 0.07921294 0.075412184 0.06169416 0.05769882 0.17888282 0.2629773
0.3572012 0.39302236 0.08398463 0.10226587 0.08868304 0.06359642 0.056504678 0.082767084
0.08034533 0.0742788 0.059157155 0.05906108 0.17771398 0.26266623 0.35294834 0.39754146
0.08242561 0.100665115 0.08337815 0.06483308 0.06638869 0.09112379 0.07849666 0.07682326
0.059920236 0.05455983 0.17971666 0.26203704 0.3533381 0.38209787 0.080765784 0.09604679
00000000: 342f b63e 612b cb3e 9de5 aa3d 881d d33d
00000010: 7f3b b53d 3850 883d 8e93 7e3d 8947 b13d
00000020: 92e8 a03d 5f4a 9a3d 5298 763d 7671 673d
00000030: e0d6 363e 4394 863e 64bb b63e d409 c93e
00000040: ecdc ab3d 961a d13d 267e b53d 29e1 813d
00000050: 269e 663d f762 a83d 0b1a a33d 8bf7 973d
00000060: 9855 6c3d 8d8a 6d3d 85bb 353e 836a 863e
00000070: 0696 b43e e05d cb3e daaa a83d 540c ce3d
00000080: 2ac2 aa3d 35c7 843d 249d 873d 87f8 b83d
00000090: db6d 9f3d eb2e 9d3d f889 6f3d 51db 593d
000000a0: 1bd1 373e 6020 863e 2abd b43e c879 c33e
000000b0: 301f a53d 2d58 c43d b15e ad3d 2bb2 7f3d
000000c0: de99 613d c265 963d 1d85 993d 535e 933d
000000d0: 5d31 5e3d 3834 663d 6b8f 3d3e 4f63 873e
000000e0: 4323 b13e addd c73e 3f67 a43d f661 c33d
000000f0: e493 9f3d 0520 713d eb6e 753d 28b7 b83d
00000100: d8df 9f3d 9aa4 a13d 154f 6a3d 50db 593d
00000110: 13fe 363e bf0f 863e e9b3 b03e 90a1 be3e
00000120: 73ee 903d 06fd b93d 8b68 a53d d984 783d
00000130: 31bb 523d b906 863d ef49 953d 321e 8e3d
00000140: 5be9 503d 941f 643d 557a 433e 92be 883e
00000150: a15a ac3e 30e6 c23e ef72 8f3d 1d66 b33d
00000160: b91f 9c3d 1d55 5d3d 3534 663d a557 b23d
00000170: ed02 943d c405 a03d c00c 5f3d 13b0 4d3d
00000180: 4f06 3a3e 57f9 853e a965 ab3e 025e bb3e
00000190: e4b2 833d e18f b73d 0c1a a33d 239e 663d
000001a0: 5c31 5e3d bd33 7e3d 604a 9a3d c56a 8b3d
000001b0: 2484 483d 931f 643d 35df 473e f8ac 893e
000001c0: e556 a63e 4f36 c03e 73ed 8b3d c597 ae3d
000001d0: c265 963d 697e 693d d3da 673d 75a4 ad3d
000001e0: c56a 8b3d 7e59 a13d a92a 5b3d 4ab3 3a3d
000001f0: 10c4 3d3e 9677 863e bb6f a43e 9a5c bb3e
00000200: 26b7 6a3d 2f22 af3d e615 9e3d 3fee 6b3d
00000210: cac4 563d 36d2 753d e615 9e3d e00b 8a3d
00000220: f93d 3d3d 58e9 503d 7ec6 4a3e d747 8a3e
00000230: 756b a03e 94e4 bd3e 697e 693d 9de5 aa3d
00000240: 9972 8d3d 0a1f 6b3d 5ac3 5d3d 3c03 b13d
00000250: bb06 863d e3b9 9f3d b62e 443d 4ba5 1f3d
00000260: 11d1 473e 44a8 883e e8dd 9c3e 6166 bb3e
00000270: ee15 543d 83a5 a93d 4d08 9d3d 3f54 603d
00000280: 31ab 443d 26e0 733d 83a7 973d 2034 863d
00000290: ed73 343d 309d 4e3d 59f7 4b3e 15c9 8a3e
000002a0: c97a 983e 5fab bf3e 249e 663d 8451 a03d
000002b0: 68a9 883d 78b4 633d 184f 6a3d cfd2 a73d
000002c0: 5e6b 843d 107c 9d3d 3613 2f3d f16e 213d
000002d0: 8e00 453e a074 883e f093 953e 0e85 bb3e
000002e0: 815a 4b3d ee2e 9d3d 95e6 983d 544b 5a3d
000002f0: 58e9 503d 184f 6a3d 1a1c 903d f5bb 863d
00000300: d7f5 283d ecfd 483d d61f 473e 5076 893e
00000310: 371e 913e 6f9b bf3e bf86 6b3d 6347 983d
00000320: 4a44 8c3d 29b2 7f3d 2649 633d e715 9e3d
00000330: a422 783d d85c 9b3d cb9e 2f3d 4d71 1e3d
00000340: d3ab 483e 2609 893e 3f4e b63e dc55 cb3e
00000350: 0809 ab3d da72 d33d 297e b53d 68a9 883d
00000360: 3cf3 7e3d 45bd b23d 653a a23d b471 9a3d
00000370: 04b3 7c3d 9955 6c3d 0f2d 373e f6a4 863e
00000380: 13e3 b63e 3a3a c93e 2200 ac3d c570 d13d
00000390: 749f b53d d73e 823d 7371 673d ca81 a93d
000003a0: 188c a43d 7c1f 983d c64e 723d 08ea 713d
000003b0: a7fa 353e 307c 863e a5b5 b43e 8e8a cb3e
000003c0: c2ce a83d 8329 ce3d 2ac2 aa3d 35c7 843d
000003d0: cbf6 873d 1c9f ba3d dbc2 a03d 8355 9d3d
000003e0: ec6e 753d 217a 5f3d a507 383e b829 863e
000003f0: bbe8 b43e 55a2 c33e 8868 a53d 2eb4 c43d

97 f4 [9]
29.62745 80.74611 0.4178273 29.780367 80.764175 0.41865912 29.938648 80.78162
0.41948554
00000000: 0505 ed41 027e a142 76ed d53e 313e ee41
00000010: 4287 a142 7d5a d63e 5a82 ef41 3090 a142
00000020: cfc6 d63e
