Assets/ZooheimTest/Models/run1/WolfBehavior/WolfBehavior-144060.onnx (onnx, 405109 bytes, 14 tensors)

discrete_act_size_vector f4 [1, 3]
2.0 3.0 1.0
00000000: 0000 0040 0000 4040 0000 803f

network_body.observation_encoder.processors.0.normalizer.running_mean f4 [630]
0.10104046 0.23161714 0.008496398 0.010800982 0.012182334 0.007066451 0.006684666 0.003963602
0.0048382287 0.0033666291 0.0038525346 0.0026794213 0.0078091924 0.16040882 0.100332506 0.23045102
0.0085102795 0.010925922 0.01136324 0.0064278333 0.0060529904 0.0037622957 0.004720221 0.003422162
0.0037206449 0.0027627184 0.009232198 0.16326033 0.10037415 0.21806738 0.008218743 0.010384489
0.011259119 0.0069137407 0.0061918222 0.004595278 0.0043592644 0.0035054602 0.0037414704 0.002471174
0.0078508435 0.16273278 0.09823619 0.21621399 0.0064764232 0.010363667 0.00953763 0.005344958
0.0050672935 0.0035193423 0.0042690253 0.0032555652 0.0034776928 0.0026377714 0.011252179 0.17037623
0.09718798 0.20493388 0.008010492 0.0096070375 0.009718102 0.0059280437 0.0048312843 0.004865996
0.0043384368 0.0031722675 0.003352747 0.0020338607 0.009836115 0.16983886 0.09389778 0.20267797
0.0052130683 0.009239143 0.0074482327 0.0041787857 0.004387032 0.0032694498 0.004310674 0.003151443
0.0035054588 0.0027349528 0.012952846 0.17721812 0.09214153 0.19173136 0.006289004 0.009364087
0.008093793 0.004789638 0.0044286787 0.0042273747 0.0040607797 0.0026655388 0.0029570812 0.0021588083
0.010981457 0.1755999 0.08853891 0.19541724 0.0039219484 0.008211803 0.0064347745 0.0038941833
0.0040677222 0.0029848462 0.004109368 0.0028599007 0.003082029 0.0028807246 0.013369334 0.18077871
0.08722006 0.18313077 0.0049007013 0.00876018 0.0074274084 0.003935834 0.0034776926 0.004157961
0.0032694482 0.0027141275 0.0026516549 0.0021032768 0.010578853 0.1788464 0.08195833 0.19586146
0.002825192 0.0074343537 0.0059280447 0.003921949 0.004262083 0.0027766007 0.003977483 0.002866841
0.0026863625 0.002554473 0.013209679 0.18285245 0.07891798 0.18063182 0.0040816045 0.0077953096
0.0066499608 0.0039150077 0.0035262841 0.0038594755 0.0031445017 0.0025752974 0.0022490474 0.0018186742
0.011189702 0.18175475 0.07448233 0.1962156 0.003033437 0.0066221957 0.006039108 0.0032902732
0.004442563 0.002367053 0.0037275879 0.002748835 0.0024572925 0.0023601116 0.013029205 0.18535388
0.07222638 0.17937538 0.004088547 0.007892491 0.0062612393 0.0037553527 0.0030959114 0.003387455
0.0026447133 0.0024989415 0.0020685683 0.0017076088 0.011203591 0.18426968 0.06840156 0.19870047
0.0033874533 0.006420891 0.005789214 0.0032069755 0.0040399544 0.0021588078 0.0031028532 0.0026863622
0.0021935147 0.0020755099 0.012952842 0.18715599 0.06663846 0.17827167 0.0040052463 0.0073163435
0.0066569005 0.0034985177 0.0029154299 0.0030056702 0.0026655365 0.0025197654 0.0023254028 0.001450774
0.011474309 0.18485062 0.1012488 0.23207524 0.008517228 0.010842629 0.012223989 0.0070733926
0.00669855 0.0040399553 0.004949292 0.0033666291 0.0040191305 0.0028043669 0.007850844 0.16075459
0.1005616 0.2308813 0.008531111 0.01094675 0.01139101 0.0064347745 0.006066872 0.0038178263
0.00481046 0.0034360448 0.0038733582 0.0028737825 0.009301616 0.1636416 0.100561574 0.21857405
0.008232619 0.010419197 0.011293828 0.0069206776 0.0062057045 0.004664692 0.0044286796 0.0035054602
0.0039011245 0.0025891808 0.007899433 0.16310638 0.09848598 0.21660958 0.006497246 0.010391432
00000000: 4dee ce3d 0b2d 6d3e 7a34 0b3c 9af6 303c
00000010: 6a98 473c b08d e73b 0b0b db3b 1ae1 813b
00000020: 018a 9e3b aaa2 5c3b ce7a 7c3b 3b99 2f3b
00000030: 41e4 ff3b 3642 243e 217b cd3d 5afb 6b3e
00000040: b36e 0b3c a302 333c e22c 3a3c 93a0 d23b
00000050: 2a58 c63b d990 763b 15ac 9a3b 5a46 603b
00000060: 10d6 733b b90e 353b a542 173c b72d 273e
00000070: f690 cd3d 0e4d 5f3e e8a7 063c b423 2a3c
00000080: 2b78 383c a98c e23b c5e4 ca3b fc93 963b
00000090: 29d8 8e3b ddbb 653b 7533 753b 6cf3 213b
000000a0: d3a0 003c 6ca3 263e 0e30 c93d 3367 5d3e
000000b0: 2d38 d43b 5fcc 293c b843 1c3c c224 af3b
000000c0: 8a0b a63b c4a4 663b 2ee3 8b3b 525b 553b
000000d0: 01ea 633b 76de 2c3b 0f5b 383c 1b77 2e3e
000000e0: 7e0a c73d 30da 513e 703e 033c d666 1d3c
000000f0: ad38 1f3c 0940 c23b c04f 9e3b ef72 9f3b
00000100: 7229 8e3b d1e5 4f3b c3b9 5b3b 854a 053b
00000110: a827 213c 3dea 2d3e 7b4d c03d d08a 4f3e
00000120: 63d2 aa3b c65f 173c 4e10 f43b 32ee 883b
00000130: 17c1 8f3b 4444 563b 8e40 8d3b 7188 4e3b
00000140: d7bb 653b e53c 333b 2c38 543c ab78 353e
00000150: b3b4 bc3d 3a55 443e fd13 ce3b d46b 193c
00000160: d49b 043c 65f2 9c3b 731e 913b ca85 8a3b
00000170: 4a10 853b 52b0 2e3b 97cb 413b cb7a 0d3b
00000180: 92eb 333c 76d0 333e e353 b53d 751b 483e
00000190: b083 803b cc8a 063c cdda d23b 8e35 7f3b
000001a0: 874a 853b 699d 433b e1a7 863b 2c6d 3b3b
000001b0: defb 493b 8aca 3c3b 0d0b 5b3c 0e1e 393e
000001c0: 6ea0 b23d a286 3b3e 1096 a03b dc86 0f3c
000001d0: 9e61 f33b 2bf8 803b 00ea 633b 813f 883b
000001e0: 3d44 563b 81df 313b 63c7 2d3b 21d7 093b
000001f0: ed52 2d3c 8323 373e c5d9 a73d e88f 483e
00000200: db26 393b e19b f33b 0b40 c23b b183 803b
00000210: f2a8 8b3b a1f7 353b 8c55 823b 9ce1 3b3b
00000220: af0d 303b f268 273b 696d 583c ac3d 3b3e
00000230: c09f a13d 8cf7 383e fbbe 853b cc6f ff3b
00000240: eae7 d93b 7749 803b 3b19 673b 41ef 7c3b
00000250: fc13 4e3b 52c6 283b c164 133b 9460 ee3a
00000260: 0355 373c eb1d 3a3e 318a 983d beec 483e
00000270: a1cc 463b 01ff d83b b6e3 c53b a0a1 573b
00000280: eb92 913b 8f20 1b3b 8c4a 743b cc25 343b
00000290: 870a 213b 1aac 1a3b 7278 553c 68cd 3d3e
000002a0: 6deb 933d 2eae 373e 38f9 853b 824f 013c
000002b0: 152b cd3b 5d1c 763b c6e4 4a3b 1000 5e3b
000002c0: ed52 2d3b 48c5 233b d190 073b d8d1 df3a
000002d0: 448f 373c 31b1 3c3e 1e16 8c3d 2378 4b3e
000002e0: 0900 5e3b 5666 d23b 72b3 bd3b 1f2c 523b
000002f0: 9861 843b c97a 0d3b 3d59 4b3b ae0d 303b
00000300: 12c1 0f3b 4705 083b 2838 543c d2a5 3f3e
00000310: bf79 883d d98c 363e 713e 833b f0bd ef3b
00000320: 2122 da3b 6347 653b cc10 3f3b c7fa 443b
00000330: 48b0 2e3b a622 253b c965 183b e627 be3a
00000340: bdfe 3b3c 7b49 3d3e 885b cf3d 22a5 6d3e
00000350: d88b 0b3c 48a5 313c 2047 483c ebc7 e73b
00000360: 837f db3b 9a61 843b ac2d a23b aaa2 5c3b
00000370: e9b2 833b 78c9 373b d4a0 003c da9c 243e
00000380: 3df3 cd3d 266c 6c3e 13c6 0b3c ff59 333c
00000390: 5ca1 3a3c cdda d23b 9ccc c63b 7f34 7a3b
000003a0: 10a1 9d3b 442f 613b 2bd8 7d3b 1256 3c3b
000003b0: ce65 183c aa91 273e 3af3 cd3d e0d1 5f3e
000003c0: 1be2 063c 48b5 2a3c bf09 393c dac6 e23b
000003d0: 3959 cb3b 46da 983b 751e 913b ddbb 653b
000003e0: 02aa 7f3b 3faf 293b a06c 013c 5c05 273e
000003f0: 04b3 c93d e7ce 5d3e dae6 d43b d340 2a3c

network_body.observation_encoder.processors.1.normalizer.running_mean f4 [6]
72.829575 58.054333 72.80947 58.129673 72.78662 58.204285
00000000: bea8 9142 a337 6842 739e 9142 c984 6842
00000010: c092 9142 30d1 6842

network_body._body_endoder.seq_layers.0.weight f4 [128, 636]
0.10458577 0.035327673 0.102565505 -0.07130896 0.0049794517 -0.020503972 0.022978848 -0.031981245
0.013850601 -0.03212653 -0.02473927 0.02430881 0.046008714 0.015422702 0.0056937495 -0.004746486
-0.016015455 -0.022324624 -0.029402392 -0.040286984 0.02798133 -0.015879305 -0.008135165 -0.04073494
0.063637905 0.0017728526 0.0022443717 0.009180757 0.02848793 -0.019892303 0.041664597 -0.010293067
0.07124538 -0.047233883 -0.047780745 -0.028434388 -0.0020791152 -0.041303728 0.084899954 -0.021798572
0.03627075 0.021277655 0.009590864 -0.0014310044 0.027595516 -0.023792818 -0.026874874 0.03632064
-0.105349444 -0.09003189 0.0059257112 -0.06324424 -0.04312055 0.011255076 -0.04940878 0.047835022
-0.0009573339 0.04915186 -0.006865119 0.08716133 0.06076616 -0.016245596 -0.015519417 -0.056561366
0.033520747 -0.03331827 -0.09032664 -0.01183274 0.02654576 0.01750982 0.0019990508 -0.050123576
0.04178752 -0.03431303 -0.026459865 -0.05962125 -0.011815642 0.014984372 0.019641213 0.027161228
-0.07492006 -0.031995524 -0.022833383 -0.0902127 0.022415524 0.009458186 0.035681054 0.016261715
0.020005403 -0.051830497 0.071611635 -0.04366642 0.042858336 0.0048422473 -0.015143101 0.044715434
0.029740632 -0.059552755 0.034270495 0.09005966 -0.0084502855 -0.050303534 -0.04780771 -0.08386206
0.017813068 -0.06768084 -0.03754623 -0.01643532 0.012148896 -0.045210544 0.0028506457 -0.038200863
0.107191145 -0.03984915 -0.0879908 0.01578009 0.038428046 -0.024062013 0.033565678 0.07121115
-0.033767298 -0.04973991 0.03601498 -0.08939016 0.018273424 0.06290277 -0.08671314 0.055904634
-0.022740297 -0.09542986 -0.11464374 -0.07895459 -0.021692108 -0.08724333 0.054222994 -0.05282254
-0.019461911 0.033521276 -0.06409831 -0.06874411 -0.007729352 -0.054901052 0.006776588 0.0451884
-0.0016434122 -0.11089645 0.08343514 -0.06696732 0.09576706 0.13951124 -0.00044856695 -0.028525878
-0.05546143 0.07334256 -0.007873491 -0.014959768 -0.04516265 0.0503615 -0.05653699 0.055035938
0.05799046 -0.08452762 -0.014087664 0.06259074 -0.09590558 -0.016914561 0.01456439 0.031915326
-0.026968962 -0.04533592 -0.0262828 0.004774196 0.06554715 -0.04327116 0.045369983 -0.021513188
-0.025965706 0.0029988487 -0.010244927 -0.085558504 -0.0696919 -0.05202802 0.028309595 -0.0064739115
0.009964509 0.005703243 0.025117526 0.047026277 0.034111682 -0.00804884 -0.023381555 0.09429028
0.03086093 0.010695305 0.009638099 -0.021975227 -0.0060618836 -0.07928342 -0.050054174 0.13722016
-0.041913707 0.008619368 -0.02071514 0.012391485 -0.00594191 0.02753392 -0.13945462 0.026815243
-0.053565223 0.03944977 0.06488257 -0.06730723 0.11158429 -0.0800949 -0.027825337 -0.039602928
-0.0035498396 -0.026094697 0.010506589 -0.048974354 0.032846253 -0.018535608 0.01174126 0.07136875
0.026827913 -0.07185941 0.05138739 -0.037933204 -0.035352238 0.05852877 -0.04808147 -0.0033568975
0.036302723 -0.039050072 -0.027205735 -0.04893612 -0.034738053 0.040895574 -0.08445225 0.014086817
-0.06325145 -0.011634994 0.07804997 0.009126184 0.029830806 -0.005757169 -0.006086 -0.078833364
-0.04563638 -0.017900137 0.028338876 0.005475232 -0.0154152 -0.03250638 -0.07503085 0.034164153
00000000: 1031 d63d c0b3 103d dd0d d23d 6f0a 92bd
00000010: ab2a a33b f2f7 a7bc 233e bc3c c4fe 02bd
00000020: a2ed 623c 1c97 03bd 02aa cabc 4523 c73c
00000030: a273 3c3d 80af 7c3c a292 ba3b 6988 9bbb
00000040: d832 83bc 21e2 b6bc 49dd f0bc f703 25bd
00000050: 1a39 e53c 5115 82bc 5b49 05bc aed9 26bd
00000060: 9754 823d 105f e83a 4f16 133b e36a 163c
00000070: 855f e93c 2ff5 a2bc 7fa8 2a3d 41a4 28bc
00000080: 19e9 913d 5178 41bd beb5 43bd 3cef e8bc
00000090: c441 08bb 192e 29bd 07e0 ad3d eb92 b2bc
000000a0: a390 143d 7a4e ae3c 0023 1d3c 8a90 bbba
000000b0: fe0f e23c 28e9 c2bc b228 dcbc f4c4 143d
000000c0: 73c1 d7bd a462 b8bd 782c c23b 3286 81bd
000000d0: 2d9f 30bd 3667 383c dc60 4abd a8ee 433d
000000e0: 97f5 7aba 7653 493d cbf4 e0bb a481 b23d
000000f0: f0e5 783d 7c15 85bc 2745 7ebc e4ac 67bd
00000100: 0d4d 093d bd78 08bd 2cfd b8bd 1cde 41bc
00000110: 7e76 d93c c170 8f3c 8202 033b 614e 4dbd
00000120: 6429 2b3d d28b 0cbd 5cc2 d8bc 6935 74bd
00000130: 6596 41bc 0381 753c 9ce6 a03c 3981 de3c
00000140: b06f 99bd bd0d 03bd 130d bbbc 70c1 b8bd
00000150: c3a0 b73c 82f6 1a3c 4c26 123d 4a37 853c
00000160: 5fe2 a33c 374c 54bd 1fa9 923d 8fdb 32bd
00000170: 398c 2f3d b7ab 9e3b c51a 78bc 8827 373d
00000180: a0a2 f33c 97ed 73bd 385f 0c3d 3371 b83d
00000190: 1173 0abc 140b 4ebd 04d2 43bd dfbf abbd
000001a0: b6ec 913c 419c 8abd 13ca 19bd 5da3 86bc
000001b0: 2a0c 473c b12e 39bd e6d1 3a3b 8278 1cbd
000001c0: 0887 db3d dd38 23bd 8534 b4bd 3f45 813c
000001d0: ba66 1d3d b31d c5bc 2a7c 093d 27d7 913d
000001e0: 944f 0abd 13bc 4bbd 7284 133d 3012 b7bd
000001f0: 26b2 953c 2bd3 803d a996 b1bd 42fc 643d
00000200: dc49 babc bb70 c3bd 56ca eabd f2b2 a1bd
00000210: a6b3 b1bc a2ac b2bd ee18 5e3d 735c 58bd
00000220: 966e 9fbc 9b4d 093d fa45 83bd b6c9 8cbd
00000230: 8146 fdbb eddf 60bd 240e de3b 7917 393d
00000240: c367 d7ba ae1d e3bd 0be0 aa3d 2a26 89bd
00000250: 8521 c43d 09dc 0e3e a32d ebb9 1aaf e9bc
00000260: 862b 63bd a034 963d d1ff 00bc d119 75bc
00000270: 79fc 38bd dc47 4e3d 5593 67bd 5d6d 613d
00000280: 6887 6d3d d11c adbd f2cf 66bc 932f 803d
00000290: 256a c4bd 6890 8abc 7b9f 6e3c a5b9 023d
000002a0: 03ee dcbc 28b2 39bd 074f d7bc dc70 9c3b
000002b0: 963d 863d 1a3d 31bd e0d5 393d 6d3c b0bc
000002c0: 08b6 d4bc 5588 443b 57da 27bc 4c39 afbd
000002d0: a0ba 8ebd 551b 55bd 86e9 e73c 1b23 d4bb
000002e0: 2e42 233c 45e2 ba3b 45c3 cd3c a09e 403d
000002f0: b1b8 0b3d 48df 03bc ad8a bfbc 431b c13d
00000300: 10d0 fc3c 5c3b 2f3c 1ee9 1d3c 6405 b4bc
00000310: c4a2 c6bb 595f a2bd 9b05 4dbd 7183 0c3e
00000320: b5ad 2bbd 4038 0d3c ccb2 a9bc a805 4b3c
00000330: 5bb4 c2bb d18e e13c 31cd 0ebe a4ab db3c
00000340: 3567 5bbd 1596 213d 27e1 843d 5fd8 89bd
00000350: 4e86 e43d cc08 a4bd f6f1 e3bc ae36 22bd
00000360: 6da4 68bb 8cc4 d5bc d423 2c3c 5599 48bd
00000370: cb89 063d fdd7 97bc 6a5e 403c c729 923d
00000380: 36c6 db3c 072b 93bd 957b 523d d95f 1bbd
00000390: 82cd 10bd ddbb 6f3d 13f1 44bd 65ff 5bbb
000003a0: 2ab2 143d f8f2 1fbd 90de debc 3e71 48bd
000003b0: 7d49 0ebd 1e82 273d 4df5 acbd 65cc 663c
000003c0: fa89 81bd b4a0 3ebc aad8 9f3d fd85 153c
000003d0: bc5f f43c a2a6 bcbb 116d c7bb 6373 a1bd
000003e0: 36ed 3abd 4fa3 92bc ee26 e83c 9369 b33b
000003f0: 0990 7cbc 6925 05bd c6a9 99bd b6ef 0b3d

network_body._body_endoder.seq_layers.0.bias f4 [128]
-0.0058020535 -0.023096455 -0.008100385 -0.020331418 -0.018705554 0.0044788583 0.02549861 -0.00113327
-0.005567035 0.0061717005 -0.009090885 -0.022513887 0.013817737 -0.02341365 -0.012068618 0.0025620447
-0.032020476 -0.0059415274 0.01373221 0.0027734558 -0.018900948 0.006004684 -0.0016327775 0.03227723
-0.011790947 -0.0049260203 0.0053970586 -0.02920076 -0.0110635515 -0.015575473 0.0018515529 -0.0034684753
0.028482283 -0.008039259 -0.021048356 -0.021940252 -0.017550644 0.013400903 -0.0003401604 0.0066523976
-0.00679651 -0.012234948 0.008177941 -0.0077888747 -0.008685458 -0.016538484 0.012159147 0.01801384
0.014821147 -0.010756949 -0.0019411806 -0.018016392 0.0021825593 -0.010263582 -0.022968216 -0.01690438
-0.0082386825 -0.011931683 0.004511449 -0.025165454 0.0051056994 -0.005907571 0.005368735 -0.02691087
0.0020096817 -0.007395623 0.009558553 -0.031471223 -0.014854043 -0.008154267 0.010691098 0.0009408106
0.0039925324 -0.0127040045 0.031679474 -0.018302307 -0.0060135014 0.009211144 0.015075491 -0.017126365
-0.0003157993 -0.003362652 0.0052449005 -0.0028605359 -0.0060876603 0.009695878 -0.016153378 0.012448158
-0.0062680873 -0.010264177 0.021835905 -0.0071652955 -0.026385305 -0.022555526 0.021786606 -0.0037165012
0.011393411 -0.010911043 -0.032051526 -0.0035380365 -0.0019060929 -0.012869051 -0.007619361 -0.012226684
-0.039140835 0.008665205 0.011288647 -0.015915476 -0.014027502 -0.0017155891 -0.003039731 -0.015475856
0.0083097555 -0.0011126873 -0.025098838 0.02320001 -0.023000533 0.009606354 -0.012420458 0.011329238
-0.01926216 -0.007734731 0.003117249 0.008115418 -0.0094688805 -0.0101668965 0.010768266 -0.011103014
00000000: 271f bebb c734 bdbc 7ab7 04bc 138e a6bc
00000010: 643c 99bc 63c3 923b 76e2 d03c 3b8a 94ba
00000020: ad6b b6bb fa3b ca3b eff1 14bc 0b6f b8bc
00000030: ca63 623c fccd bfbc 74bb 45bc fae7 273b
00000040: e727 03bd 25b1 c2bb 10fd 603c dec2 353b
00000050: 29d6 9abc f1c2 c43b ec02 d6ba 2135 043d
00000060: d12e 41bc 746a a1bb cfd9 b03b 6f36 efbc
00000070: e643 35bc 4530 7fbc ceaf f23a 5c4f 63bb
00000080: ad53 e93c 19b7 03bc 9a6d acbc 0bbc b3bc
00000090: 5ec6 8fbc 768f 5b3c 8e57 b2b9 5bfc d93b
000000a0: 42b5 debb 1775 48bc c5fc 053c d139 ffbb
000000b0: 744d 0ebc b77b 87bc 2937 473c c391 933c
000000c0: 65d4 723c ea3d 30bc 366f feba 1d97 93bc
000000d0: 4509 0f3b 9528 28bc d727 bcbc 0e7b 8abc
000000e0: 8afb 06bc 1b7d 43bc c7d4 933b c827 cebc
000000f0: b64d a73b 4c94 c1bb 37ec af3b 2f74 dcbc
00000100: ddb4 033b fb56 f2bb 7a9b 1c3c f8e7 00bd
00000110: 5f5e 73bc 7a99 05bc b729 2f3c bba0 763a
00000120: cad3 823b 7524 50bc 56c2 013d b8ee 95bc
00000130: e80c c5bb 57ea 163c 31ff 763c 974c 8cbc
00000140: dd91 a5b9 f05f 5cbb 6add ab3b d477 3bbb
00000150: ff7a c7bb 76db 1e3c 1754 84bc 5cf3 4b3c
00000160: 8764 cdbb 142b 28bc 36e1 b23c dbca eabb
00000170: ff25 d8bc 5ec6 b8bc d379 b23c 8b90 73bb
00000180: 6eab 3a3c 3bc4 32bc 7648 03bd 67de 67bb
00000190: ddd5 f9ba b6d8 52bc d5ab f9bb 6e52 48bc
000001a0: 2452 20bd 81f8 0d3c 04f4 383c 2c61 82bc
000001b0: 9cd3 65bc 9edd e0ba 3936 47bb 728e 7dbc
000001c0: a425 083c 97d7 91ba 149c cdbc f30d be3c
000001d0: 9d6b bcbc f863 1d3c 2d7f 4bbc 459e 393c
000001e0: adcb 9dbc a073 fdbb c34a 4c3b 88f6 043c
000001f0: 5d23 1bbc 0e93 26bc 626d 303c 6be9 35bc

network_body._body_endoder.seq_layers.2.weight f4 [128, 128]
0.15379985 -0.044930525 -0.034627534 -0.034831405 0.080600426 0.10281209 0.11981575 0.04964055
0.19527198 0.0333278 -0.052272532 -0.09563846 -0.01481644 -0.14787042 -0.21132827 -0.027535334
0.11386628 -0.07336574 0.11731987 -0.06245115 0.070612036 0.057626676 0.04962138 0.12865178
-0.09607201 -0.12444178 -0.09839039 -0.025034899 -0.19513606 -0.059799157 -0.05385002 0.07385037
0.120498516 0.049218632 -0.13852666 0.05324468 -0.040504914 -0.15043522 -0.16258842 0.023635352
0.07737848 0.04952468 -0.18374667 0.062663674 -0.03541117 -0.03768058 0.096812606 -0.18978389
-0.02178435 -0.12295799 0.040019523 0.053670254 0.061901096 -0.04906011 -0.05477447 -0.2030494
-0.14057152 -0.20809422 0.08489134 -0.06696286 -0.030936018 -0.024273425 -0.08783594 -0.06349812
-0.050927088 -0.026412752 -0.08018169 0.037539236 -0.056965996 0.004653656 0.05226265 -0.08743726
-0.17771907 0.09945762 -0.036573 0.052352477 0.006655516 0.17626286 -0.17144752 0.14637327
-0.07481084 -0.027592 0.13365683 -0.07011933 -0.0418674 -0.04751195 0.042386103 0.04479476
0.027765738 -0.05840525 0.061092295 -0.0059059937 0.011637755 0.03415123 0.21375304 0.11165505
0.11826627 0.13222748 -0.06417849 0.084559865 0.16318496 -0.15688229 -0.00628533 -0.16171008
0.037661504 0.044190988 -0.030398859 -0.04896154 0.1191534 0.03576455 -0.0476084 0.16389729
-0.011521623 -0.17129496 -0.068140835 -0.039031364 -0.018338596 -0.11402121 -0.10343065 0.04412164
-0.14092475 -0.034123063 -0.12981148 -0.015605295 -0.17270808 -0.18202047 0.13230826 0.015976451
-0.14296255 0.01324639 -0.097343825 0.17696999 -0.0653938 -0.009735708 -0.045298293 -0.061948806
0.06703612 0.12513618 0.009076711 0.055967446 0.013913181 0.061115604 0.14521806 -0.049961157
-0.06389621 0.008733263 0.2026928 -0.0038263977 0.04909577 -0.051805094 -0.110807806 -0.00717021
-0.100584805 -0.12152631 -0.20912164 0.04486149 0.012411822 0.13779657 0.041761305 0.039968647
-0.018722044 -0.13158774 -0.02102881 -0.07297067 -0.05267639 -0.07567708 0.11065351 0.03190716
-0.090901755 0.058649357 -0.015400008 -0.013932714 0.105864875 -0.006908519 -0.04703647 -0.12025845
-0.042279143 0.04611831 -0.12532715 0.07455674 -0.02604735 -0.17077693 -0.00482313 0.016683806
-0.021372858 -0.0071333577 0.0007685548 -0.054538567 -0.13885283 -0.07526204 -0.08732249 -0.021195203
-0.033451423 0.041242935 0.11591525 0.050041683 -0.011615479 0.13455345 -0.050131038 -0.036375754
-0.019018492 -0.051928867 -0.086467065 -0.06440372 0.15180187 -0.061960164 -0.01361135 -0.16765119
-0.08385827 0.026095856 -0.03583215 -0.0022856419 -0.018187793 -0.024428805 -0.04802037 -0.15269504
0.0536093 0.021741474 -0.07868714 -0.11017075 0.094595216 0.07941079 -0.0974436 0.039991215
-0.09432121 0.16574678 -0.083684094 0.07005284 -0.08280054 0.05744493 -0.036204923 -0.06648957
0.097493 0.08286402 -0.10912898 0.118193895 -0.066323645 -0.014764847 0.12679015 0.1441
0.03632261 -0.10145361 0.09717743 -0.103215985 -0.054758586 -0.029378004 0.009747454 0.0026652878
0.015256601 -0.005906434 -0.023540003 -0.24823722 -0.07426429 0.018870747 0.037527047 -0.054009765
00000000: b57d 1d3e 1209 38bd 9ad5 0dbd 60ab 0ebd
00000010: d611 a53d 258f d23d f661 f53d e453 4b3d
00000020: 61f5 473e bb82 083d b91b 56bd 19de c3bd
00000030: a7c0 72bc 586b 17be 7066 58be c891 e1bc
00000040: b932 e93d c740 96bd 6645 f03d c7cc 7fbd
00000050: 0b9d 903d f309 6c3d ca3f 4b3d 4bbd 033e
00000060: 67c1 c4bd 55db febd e780 c9bd fd15 cdbc
00000070: bfd1 47be f6ef 74bd d791 5cbd dd3e 973d
00000080: edc7 f63d 7a99 493d efd9 0dbe 1817 5a3d
00000090: 7be8 25bd b10b 1abe 947d 26be ed9e c13c
000000a0: 9c78 9e3d 64da 4a3d 1628 3cbe d055 803d
000000b0: 4e0b 11bd f456 1abd b045 c63d b556 42be
000000c0: 1875 b2bc 66d1 fbbd 83eb 233d 57d5 5b3d
000000d0: 018c 7d3d 41f3 48bd 325b 60bd 2fec 4fbe
000000e0: fbf1 0fbe a716 55be 83db ad3d d323 89bd
000000f0: 886d fdbc 10d9 c6bc 54e3 b3bd 4d0b 82bd
00000100: ec98 50bd 8e5f d8bc 4c36 a4bd bec2 193d
00000110: 2d55 69bd b27d 983b 5c11 563d 4e12 b3bd
00000120: fdfb 35be 70b0 cb3d 92cd 15bd 8d6f 563d
00000130: 8416 da3b 407e 343e f08f 2fbe e0e2 153e
00000140: 6d36 99bd 9e08 e2bc 56dd 083e b99a 8fbd
00000150: 277d 2bbd e49b 42bd 0d9d 2d3d b67a 373d
00000160: f974 e33c 583a 6fbd ea3b 7a3d 1187 c1bb
00000170: 48ac 3e3c 29e2 0b3d 14e2 5a3e 67ab e43d
00000180: 9635 f23d a466 073e 0370 83bd b92d ad3d
00000190: f519 273e c0a5 20be 2bf5 cdbb 5497 25be
000001a0: f342 1a3d 9c01 353d 0707 f9bc e58b 48bd
000001b0: b306 f43d d97d 123d 0701 43bd b1d4 273e
000001c0: 30c5 3cbc f267 2fbe 6c8d 8bbd 5adf 1fbd
000001d0: d33a 96bc f483 e9bd 73d3 d3bd e5b8 343d
000001e0: 944e 10be a0c4 0bbd 4ded 04be 5aad 7fbc
000001f0: 63da 30be 9363 3abe d17b 073e 0ce1 823c
00000200: c664 12be 6307 593c 335c c7bd 9f37 353e
00000210: 2fed 85bd 8582 1fbc b48a 39bd 08be 7dbd
00000220: 3c4a 893d b323 003e 7cb6 143c 1f3e 653d
00000230: 1cf4 633c 5b54 7a3d 0bb4 143e 12a4 4cbd
00000240: 04dc 82bd f615 0f3c b48e 4f3e 4dc4 7abb
00000250: a518 493d 9431 54bd 34ef e2bd 15f4 eabb
00000260: 68ff cdbd c9e2 f8bd fc23 56be afc0 373d
00000270: f45a 4b3c 8b1a 0d3e e70d 2b3d 2ab6 233d
00000280: f95e 99bc f0be 06be 9c44 acbc a671 95bd
00000290: 33c3 57bd 96fc 9abd 4f9e e23d 15b1 023d
000002a0: b32a babd 4f3a 703d 5150 7cbc 0a46 64bc
000002b0: afcf d83d dc60 e2bb 50a9 40bd 104a f6bd
000002c0: e52c 2dbd 8ee6 3c3d c355 00be 34b1 983d
000002d0: 4161 d5bc 26e0 2ebe 590b 9ebb 7aac 883c
000002e0: 2216 afbc f1be e9bb d778 493a d563 5fbd
000002f0: 702f 0ebe fc22 9abd 22d6 b2bd 90a1 adbc
00000300: 5c04 09bd 5aee 283d f964 ed3d 82f8 4c3d
00000310: da4e 3ebc 61c8 093e 3456 4dbd befe 14bd
00000320: abcc 9bbc 5db3 54bd a515 b1bd 19e6 83bd
00000330: f371 1b3e f1c9 7dbd 2402 5fbc c1ac 2bbe
00000340: e2bd abbd fac6 d53c bcc4 12bd b5ca 15bb
00000350: 91fe 94bc eb1e c8bc 02b1 44bd 175c 1cbe
00000360: 6d95 5b3d 2d1b b23c b926 a1bd 34a1 e1bd
00000370: 23bb c13d 20a2 a23d 8390 c7bd d4cd 233d
00000380: 7b2b c1bd 86b9 293e 9162 abbd dd77 8f3d
00000390: 5493 a9bd 604b 6b3d 9d4b 14bd af2b 88bd
000003a0: 69aa c73d 9cb4 a93d 047f dfbd a40f f23d
000003b0: b1d4 87bd 42e8 71bc 47d5 013e f38e 133e
000003c0: 04c7 143d e9c6 cfbd f604 c73d e762 d3bd
000003d0: 8a4a 60bd 24aa f0bc c9b3 1f3c 1cac 2e3b
000003e0: d3f6 793c c28a c1bb f7d6 c0bc e631 7ebe
000003f0: e017 98bd d396 9a3c f6b5 193d 5839 5dbd

network_body._body_endoder.seq_layers.2.bias f4 [128]
0.010943467 -0.008845124 0.0034291584 -0.03318918 -0.0025332135 -0.00011204296 -0.0069192713 -0.00012711466
-0.008435869 0.008665051 0.008179839 -0.013860558 -0.016020507 0.015869085 -0.021448245 -0.029748853
0.006509684 -0.00817846 0.015012904 0.012802645 -0.015092299 -0.021350577 0.016863815 -0.0033525715
0.0041109 0.0123600615 -0.00320312 0.004286813 -0.017888064 0.008844748 -0.012551523 -0.011582125
0.006013256 -0.002238636 -0.0045399806 -0.011434487 0.0008075412 0.005100471 -0.0036890123 -0.014970922
-0.0077406624 0.008132941 0.0013453818 -0.005792649 -0.030910334 0.019873368 -0.0014766977 0.020330755
-0.013783237 -0.015806938 -0.022372419 0.009331448 0.012766822 0.0026760313 0.011249353 0.006014208
-0.004237537 0.028718663 0.010086223 -0.014329412 -0.0019131413 0.016178887 0.005681914 -0.0105779255
0.0040179295 -0.017359817 0.01616364 -0.006564236 -0.0013417501 0.00020891403 0.007933957 -0.0005535302
-0.021048343 -0.006222513 -0.0017999469 -0.007332071 0.0069435607 0.014977368 0.020918274 0.0017967277
0.005263464 -0.0014306819 -0.009998493 0.0009492911 -0.0005443885 0.024534216 0.009715982 -0.00875062
0.009179727 -0.013560631 0.03927441 0.010275032 -0.0067351293 -0.005522041 -0.0014697443 0.0073793405
0.00435811 0.016185483 -0.013053358 -0.009048289 -0.024299903 0.0011747793 0.00038632043 -0.004858315
0.0022770136 -0.025079897 -0.008507841 0.012801744 0.01564369 0.005363491 -0.0046518315 0.013334737
-0.0023620657 0.012072434 -0.018813344 -0.0020091163 0.012719826 -0.001514948 -0.01278582 0.0029875857
-0.028685823 0.013254653 -0.014387434 -0.0023984201 0.015803764 0.0030308508 -0.012364116 -0.01092087
00000000: 3a4c 333c 24eb 10bc bbbb 603b 61f1 07bd
00000010: 4504 26bb 9bf8 eab8 0ebb e2bb 154a 05b9
00000020: 9936 0abc dcf7 0d3c bb04 063c 6517 63bc
00000030: 703d 83bc e2ff 813c 3bb4 afbc deb3 f3bc
00000040: 304f d53b f3fe 05bc aff8 753c 2fc2 513c
00000050: b145 77bc 68e7 aebc fc25 8a3c d1b6 5bbb
00000060: bbb4 863b db81 4a3c 70eb 51bb 6578 8c3b
00000070: fd89 92bc 90e9 103c e7a4 4dbc f4c2 3dbc
00000080: d90a c53b 14b6 12bb 1ec4 94bb b757 3bbc
00000090: 2cb1 533a da21 a73b 5bc3 71bb 9948 75bc
000000a0: 62a5 fdbb 0740 053c 8657 b03a 43d0 bdbb
000000b0: ab37 fdbc 79cd a23c c18d c1ba af8c a63c
000000c0: 16d3 61bc 8d7d 81bc 5d46 b7bc eee2 183c
000000d0: ef2b 513c 5b60 2f3b 354f 383c d512 c53b
000000e0: 09db 8abb 6743 eb3c af40 253c e9c5 6abc
000000f0: 5fc2 faba 9689 843c 592f ba3b 094f 2dbc
00000100: d6a8 833b 2d36 8ebc 9c69 843c cd18 d7bb
00000110: aadd afba ef0f 5b39 6dfd 013c c81a 11ba
00000120: 936d acbc 39e6 cbbb 32ec ebba df41 f0bb
00000130: cf86 e33b a263 753c cd5c ab3c 2d80 eb3a
00000140: 2379 ac3b b885 bbba b8d0 23bc d9d9 783a
00000150: 4bb5 0eba fbfb c83c c82f 1f3c c35e 0fbc
00000160: 9166 163c 692d 5ebc 34de 203d 9c58 283c
00000170: 5cb2 dcbb 3df2 b4bb 6fa4 c0ba 65ce f13b
00000180: 7ace 8e3b 6b97 843c c0dd 55bc 463f 14bc
00000190: 9710 c7bc 0dfb 993a 0d8b ca39 8032 9fbb
000001a0: f339 153b 5b74 cdbc 7964 0bbc 68be 513c
000001b0: 3227 803c 39c0 af3b 646e 98bb f179 5a3c
000001c0: e3cc 1abb 75cb 453c 711e 9abc 61ab 03bb
000001d0: d166 503c 3891 c6ba 9e7b 51bc 5fcb 433b
000001e0: 88fe eabc 0b2a 593c 46b9 6bbc d02e 1dbb
000001f0: e576 813c 3da1 463b dc92 4abc 73ed 32bc

action_model._discrete_distribution.branches.0.weight f4 [2, 128]
-0.06563137 -0.0076676053 0.032327227 0.0037576822 -0.0034116888 -0.0070401644 0.014261519 0.014568154
0.02930637 0.0027845793 -0.025098387 0.002738748 0.006987159 -0.01829943 -0.0033299143 0.008458349
0.01477446 0.005736224 0.008227594 0.012994165 -0.0011863862 -0.0017990539 0.02271421 -0.04072433
-0.06477038 0.015830295 -0.013560815 0.03339205 0.0033648626 -0.020076487 -0.03151015 0.0015557923
0.012242974 -0.012498026 -0.037209056 -0.00069905474 -0.011155635 0.04286596 0.009137294 -0.034001492
-0.015197501 0.011901002 0.007090173 0.02128053 -0.014505715 -0.017691525 0.010686079 0.054295763
0.016614618 -0.005464699 -0.0023998888 -0.0296843 0.034437798 0.02144451 0.009929887 -0.05767877
0.003795237 0.04044377 -0.0034773399 -0.010171328 -0.03614582 0.009960542 0.011129419 -0.014029785
-0.049011033 0.014164581 0.023244826 0.026604611 -0.007785501 -0.017655266 -0.045908228 0.0028386237
-0.015575994 -0.027320895 -0.02293523 0.009184468 0.042307258 0.008264644 -0.018087465 -0.01346269
0.017079221 -0.018692553 0.01760352 0.027884163 -0.02203517 0.0010125062 -0.0350643 -0.04806545
0.006091961 -0.011660714 0.02512063 0.023240775 0.0038909023 -0.0008717167 -0.029923016 -0.045196835
-0.002697738 0.023657981 -0.014372587 0.014867923 -0.001375063 0.029882738 0.025144016 -0.016414193
-0.018871611 -0.010166104 0.01440727 0.009109293 0.026655586 0.040256195 0.011990547 -0.06984474
0.016244018 0.043379847 -0.0038330138 0.00044323553 0.03796575 0.0014577849 0.011866017 0.031058574
-0.0152335325 -0.011450907 -0.0117468955 0.028405955 0.007527453 -0.02264252 0.007313935 -0.010567796
0.05308863 -0.00011996277 -0.03903044 0.0136018265 0.01616815 0.010266082 -0.01038732 -0.013269033
-0.024657654 -0.017436404 0.011535434 0.0035002283 0.005856599 0.02328056 0.0042300746 -0.0064849337
-0.004863104 -0.011430825 8.167861e-05 0.007550255 -0.00043744186 0.013143145 -0.016137293 0.040243857
0.051251292 -0.016853344 0.017645616 -0.047603644 0.006203741 0.03457036 0.042758256 0.014780646
-0.022520738 -0.008825004 0.010817095 -2.4937777e-05 0.016767204 -0.043366022 0.008468473 0.020904854
0.024268381 -0.029881438 0.008119273 -0.04002819 -0.0003035678 0.03670518 0.010878816 -0.046656117
0.0026328822 0.0142496675 0.010573776 0.02721966 -0.026729867 -0.0070157545 -0.0040765624 0.04006324
-0.0024479784 -0.03311666 0.010493548 -0.001976279 0.035595566 -0.047671914 -0.0024207344 0.015916707
0.02727048 -0.029704299 -0.0059282845 -0.02786707 0.0067031886 0.012090084 0.032847784 -0.0014835643
0.018621592 -0.0010241829 0.04171242 -0.017195089 -0.05178641 -0.016978448 0.012572693 0.022135723
-0.006300821 -0.003174705 -0.01321813 -0.012524621 0.01530921 -0.009909629 0.038341887 0.044826914
-0.015313361 0.00073840906 -0.01042668 -0.029583354 -0.011176077 -0.010736446 0.014548343 0.035810385
0.011479598 -0.028238952 0.036772255 0.0031114132 -0.0050720754 -0.017507326 -0.02042 0.008854084
0.005846542 -0.001899656 -0.012621018 0.0057261973 -0.027562145 -0.02861004 -0.0027587202 0.06265635
-0.014477676 -0.045783434 -0.00038954185 -0.014935012 -0.05417783 -0.018903088 -0.012695651 -0.02228144
0.006748082 0.008330137 0.019766886 -0.019688575 -0.028578728 0.013388662 0.0019663966 0.0042639743
00000000: bd69 86bd 8940 fbbb 8e69 043d 7243 763b
00000010: a496 5fbb 2eb1 e6bb 25a9 693c 44af 6e3c
00000020: ea13 f03c 7d7d 363b 229b cdbc 917c 333b
00000030: 8af4 e43b b0e8 95bc b13a 5abb e394 0a3c
00000040: 9410 723c eff6 bb3b 08cd 063c 7ae5 543c
00000050: 8480 9bba 3bce ebba 2713 ba3c 8ece 26bd
00000060: 55a6 84bd 89ae 813c 2e2e 5ebc 1ac6 083d
00000070: 0785 5c3b 7277 a4bc c910 01bd baeb cb3a
00000080: c196 483c 85c4 4cbc 8668 18bd c540 37ba
00000090: 20c6 36bc 3894 2f3d 97b4 153c 2645 0bbd
000000a0: f0fe 78bc 6cfc 423c af54 e83b 8254 ae3c
000000b0: 61a9 6dbc d1ed 90bc aa14 2f3c 3c65 5e3d
000000c0: 611b 883c 3811 b3bb 7447 1dbb 7d2c f3bc
000000d0: a60e 0d3d 66ac af3c f7b0 223c 9340 6cbd
000000e0: 83b9 783b 5ea8 253d 15e4 63bb a4a5 26bc
000000f0: a40d 14bd 8b31 233c 2b58 363c 2fdd 65bc
00000100: cbbf 48bd 8f12 683c ef6b be3c eaf1 d93c
00000110: 841d ffbb c7a1 90bc 440a 3cbd 3408 3a3b
00000120: 7432 7fbc 12d0 dfbc aae2 bbbc 737a 163c
00000130: 604a 2d3d 6e68 073c 2a2c 94bc 9d92 5cbc
00000140: b9e9 8b3c 2021 99bc 4235 903c 546d e43c
00000150: 1a83 b4bc 12b6 843a 959f 0fbd 47e0 44bd
00000160: 139f c73b 940c 3fbc c8c9 cd3c 7063 be3c
00000170: 82fe 7e3b eb83 64ba 1d21 f5bc 5120 39bd
00000180: 88cc 30bb 62ce c13c 007b 6bbc 9798 733c
00000190: 753b b4ba a5cc f43c d3fa cd3c 0f77 86bc
000001a0: a398 9abc bb8f 26bc 780c 6c3c 253f 153c
000001b0: d15c da3c aee3 243d 0074 443c c20a 8fbd
000001c0: 2d12 853c 11af 313d 4d33 7bbb 1162 e839
000001d0: f981 1b3d 2513 bf3a af69 423c 8d6e fe3c
000001e0: 1196 79bc 969c 3bbc 0d76 40bc 9bb3 e83c
000001f0: daa8 f63b ce7c b9bc bca9 ef3b 8d24 2dbc
00000200: 7773 593d 8694 fbb8 62de 1fbd 32da 5e3c
00000210: 1173 843c 1233 283c 942f 2abc 5c66 59bc
00000220: d9fe c9bc cad6 8ebc 1eff 3c3c 1664 653b
00000230: b7e8 bf3b dfb6 be3c 709c 8a3b 917f d4bb
00000240: ac5a 9fbb 5b48 3bbc df4a ab38 2168 f73b
00000250: 7458 e5b9 5856 573c 5b32 84bc bed6 243d
00000260: e0ec 513d 0610 8abc 8a8d 903c 0afc 42bd
00000270: c048 cb3b a699 0d3d 4823 2f3d 862a 723c
00000280: 697d b8bc c096 10bc 2f3a 313c 7831 d1b7
00000290: 605b 893c 92a0 31bd 5abf 0a3c a840 ab3c
000002a0: 7cce c63c ebc9 f4bc b306 053c 99f4 23bd
000002b0: 2e28 9fb9 2c58 163d 103d 323c 7c1a 3fbd
000002c0: 6f8c 2c3b 7077 693c a23d 2d3c c4fb de3c
000002d0: 98f8 dabc 6ae4 e5bb af94 85bb 5a19 243d
000002e0: 436e 20bb 56a5 07bd 21ed 2b3c 7684 01bb
000002f0: a8cc 113d a043 43bd 2fa5 1ebb c163 823c
00000300: 5766 df3c 6e56 f3bc 0e42 c2bb 7b49 e4bc
00000310: 6ca6 db3b 7d15 463c 668b 063d 2874 c2ba
00000320: 4f8c 983c e03d 86ba a4da 2a3d b7dc 8cbc
00000330: fd1d 54bd 6316 8bbc b2fd 4d3c fa55 b53c
00000340: 1e77 cebb b60e 50bb db90 58bc 1134 4dbc
00000350: 7bd3 7a3c ff5b 22bc 620c 1d3d 6d9c 373d
00000360: e4e4 7abc cb91 413a aad4 2abc ca58 f2bc
00000370: dd1b 37bc ebe7 2fbc 2c5c 6e3c e9ad 123d
00000380: ec14 3c3c 6055 e7bc 819e 163d dae8 4b3b
00000390: a733 a6bb 866b 8fbc d847 a7bc b810 113c
000003a0: 5994 bf3b e1fd f8ba 63c8 4ebc d3a2 bb3b
000003b0: 02ca e1bc 9a5f eabc a5cb 34bb f951 803d
000003c0: c633 6dbc 6987 3bbd 6c3b ccb9 fbb1 74bc
000003d0: 93e9 5dbd a6da 9abc 6b01 50bc 9187 b6bc
000003e0: 041f dd3b 207b 083c 2aee a13c ef49 a1bc
000003f0: f01d eabc 1e5c 5b3c a9de 003b cfb8 8b3b

action_model._discrete_distribution.branches.0.bias f4 [2]
0.008021637 -0.0080216415
00000000: 2f6d 033c 346d 03bc

action_model._discrete_distribution.branches.1.weight f4 [3, 128]
-0.009447749 -0.033125706 0.018244134 0.010353751 -0.0045061074 -0.03702941 0.00988853 -0.04228103
-0.003195447 0.0021038672 -0.013541455 -0.011231593 0.02476944 -0.039796446 -0.007855572 0.004862066
-0.029235797 0.04240352 -0.05295112 -0.003803474 0.033443417 0.008202419 0.0019112518 -0.023275973
-0.009375923 -0.018136209 0.030648885 -0.013891744 -0.00013624977 0.038796533 -0.031978663 -0.01570637
0.0349554 -0.03783891 -0.03207676 0.02241104 0.009938907 0.039149873 -0.036029205 0.008997433
0.012477737 0.052864477 -0.007031487 0.004659459 -0.0023115 -0.046773765 -0.032532223 -0.05517521
-0.005597954 0.004854024 -0.010660322 -0.018855557 -0.039279085 -0.0247626 -0.004713543 0.0076743723
0.016407726 -0.060650043 -0.042553693 0.009247679 -0.019722633 0.06684236 0.055074923 -0.022104088
-0.007994077 -0.014537152 -0.0323439 -0.007910021 0.007685701 -0.025386212 0.031194996 -0.021324012
-0.004848224 -0.00989836 0.0116872415 0.033529226 -0.012714524 -0.024052821 0.0056020464 -0.056054864
-0.07016723 -0.009430074 -0.009595742 -0.0014112478 0.048732445 -0.011003501 -0.029968014 0.014594326
0.03237275 -0.03198135 -0.008124545 0.006141283 0.037811518 0.02762817 -0.047034185 -0.037998002
0.04932127 0.0013451773 0.015422731 -0.012304806 0.007461722 0.04162218 0.0010237132 0.01604308
0.01500794 0.022168899 0.007667674 0.010571529 0.0375392 -0.05199374 -0.026777241 0.03834989
-0.027135888 0.0058994037 -0.015550455 -0.014794139 0.0118573755 -0.015766265 -0.038598645 0.0071313325
-0.020022715 0.047189575 0.018916205 -0.022620266 -0.05109015 0.017686175 -0.012976129 0.015524278
0.018096548 -0.010256374 -0.0060790344 -0.025078148 0.03737804 0.009154491 -0.03224182 0.021314522
0.0037604119 0.03211633 -0.07146489 -0.021630902 -0.017986864 0.06049004 -0.00030652946 -0.012667598
0.021967057 -0.025134249 0.04273704 -0.07599516 -0.013285544 0.006642509 0.0009867798 0.0067985314
-0.044731278 -0.034123387 -0.004616624 0.002424239 0.0049597877 -0.02555892 -0.0009580936 0.008328457
-0.050117802 0.011180884 -0.021376958 -0.03239652 0.036954526 -0.052263465 -0.005034182 0.012547853
-0.061825357 -0.035148907 0.024053466 -0.023519736 0.003912849 0.06397454 -0.016799651 -0.0026843988
0.021647207 -0.012916638 -0.0109875705 -0.072502665 0.026843537 0.021183379 0.029545521 -0.021038482
-0.05308284 0.042863254 0.024877395 -0.006877891 0.01194596 -0.010300122 -0.03845765 -0.0081553515
-0.015059165 0.0027194219 0.033122554 0.0020413194 0.039522823 0.024613848 -0.021284442 0.03496508
-0.012696764 -0.026628805 0.020033795 -0.0072785676 -0.0013353565 0.025812637 0.039757658 0.007560377
0.0046808077 0.018335788 -0.00047852352 0.016380807 -0.04330476 0.06142313 0.033993088 0.015207947
0.02060769 -0.013779274 0.06666757 -0.040094778 -0.07008167 -0.013200756 -0.03324007 0.04378598
-0.030802613 0.021803573 -0.025417468 0.003837032 -0.01871124 -0.015216593 0.011752028 -0.048282646
-0.053479128 0.0009066333 -0.041158617 -0.001497795 -0.04084777 -0.0056034094 0.00097318704 -0.0016950447
-0.013575432 0.007992877 0.015483971 -0.050888855 -0.040005643 -0.004186619 -0.013370574 -0.0041539827
-0.01302545 -0.0011785479 -0.032433115 -0.022649717 0.015781056 -0.07554313 0.01708182 -0.005140951
00000000: bbca 1abc d2ae 07bd b974 953c c7a2 293c
00000010: f8a7 93bb 27ac 17bd 8003 223c e02e 2dbd
00000020: b46a 51bb 09e1 093b fbdc 5dbc b704 38bc
00000030: 48e9 ca3c 9901 23bd a8b4 00bc f751 9f3b
00000040: e97f efbc 50af 2d3d 46e3 58bd b443 79bb
00000050: f7fb 083d 7063 063c f882 fa3a 41ad bebc
00000060: 799d 19bc 6392 94bc 5f13 fb3c 339a 63bc
00000070: 45de 0eb9 1de9 1e3d 0ffc 02bd a5aa 80bc
00000080: 652d 0f3d f9fc 1abd ec62 03bd 5b97 b73c
00000090: ccd6 223c 9e5b 203d 5c93 13bd f869 133c
000000a0: 6c6f 4c3c 6c88 583d 6368 e6bb 60ae 983b
000000b0: 897c 17bb d995 3fbd 8240 05bd 67ff 61bd
000000c0: 0b6f b7bb 810e 9f3b a2a8 2ebc f876 9abc
000000d0: 1be3 20bd f0da cabc 1174 9abb 4d79 fb3b
000000e0: 7f69 863c 2e6c 78bd c84c 2ebd 9483 173c
000000f0: 5c91 a1bc a6e4 883d 3e96 613d a213 b5bc
00000100: 97f9 02bc 3c2d 6ebc 0a7b 04bd 0899 01bc
00000110: 55d8 fb3b bff6 cfbc a68c ff3c b2af aebc
00000120: dadd 9ebb bb2c 22bc d87b 3f3c f155 093d
00000130: 9450 50bc 6c0a c5bc 5f91 b73b c999 65bd
00000140: d6b3 8fbd 9980 1abc 7637 1dbc 9ef9 b8ba
00000150: ac9b 473d 0748 34bc 7b7f f5bc 0a1d 6f3c
00000160: 4a99 043d e0fe 02bd d01c 05bc d13c c93b
00000170: 40e0 1a3d 7954 e23c eba6 40bd cba3 1bbd
00000180: 1a05 4a3d a950 b03a 9faf 7c3c 199a 49bc
00000190: 7681 f43b 057c 2a3d 1d2e 863a c76c 833c
000001a0: dde3 753c 8d9b b53c 1d41 fb3b 3534 2d3c
000001b0: b4c2 193d 63f7 54bd f25b dbbc c614 1d3d
000001c0: 154c debc c94f c13b 56c7 7ebc 1e63 72bc
000001d0: 7045 423c 4128 81bc 9d19 1ebd f4ad e93b
000001e0: ad06 a4bc db49 413d 28f6 9a3c 234e b9bc
000001f0: e843 51bd 99e2 903c d499 54bc 8b59 7e3c
00000200: 363f 943c 5a0a 28bc a332 c7bb b070 cdbc
00000210: b719 193d b8fc 153c 0010 04bd cb9b ae3c
00000220: 3e71 763b 6a8c 033d 2f5c 92bd 4a33 b1bc
00000230: 3059 93bc 67c4 773d b0b5 a0b9 c28b 4fbc
00000240: 42f4 b33c 57e6 cdbc 090d 2f3d 5aa3 9bbd
00000250: 9cab 59bc 67a9 d93b d656 813a 37c6 de3b
00000260: 2538 37bd f7c4 0bbd 0d47 97bb fbdf 1e3b
00000270: b785 a23b f160 d1bc 9328 7bba 1574 083c
00000280: 5348 4dbd 0730 373c bb1e afbc 37b2 04bd
00000290: a15d 173d 3712 56bd c8f5 a4bb 8395 4d3c
000002a0: 963c 7dbd 4df8 0fbd c60b c53c 76ac c0bc
000002b0: 5b37 803b 1505 833d 6c9f 89bc bdec 2fbb
000002c0: 7c55 b13c 4ea0 53bc 3605 34bc 477c 94bd
000002d0: fae6 db3c c488 ad3c 7309 f23c e558 acbc
000002e0: 646d 59bd 6191 2f3d aecb cb3c ee5f e1bb
000002f0: fdb8 433c d8c1 28bc c585 1dbd 069e 05bc
00000300: b7ba 76bc 5438 323b 84ab 073d a8c7 053b
00000310: afe2 213d fba2 c93c b65c aebc 8b37 0f3d
00000320: 1706 50bc a724 dabc ea1d a43c 0d81 eebb
00000330: 2107 afba 0675 d33c edd8 223d 0abd f73b
00000340: 7661 993b ef34 963c 57e2 fab9 0b31 863c
00000350: 5560 31bd d296 7b3d 563c 0b3d c12a 793c
00000360: 75d1 a83c 77c2 61bc 0289 883d 6c3a 24bd
00000370: fb86 8fbd fc47 58bc bd26 08bd ee58 333d
00000380: c355 fcbc 689d b23c 4b38 d0bc b776 7b3b
00000390: 5048 99bc 044f 79bc 948b 403c 06c4 45bd
000003a0: ee0c 5bbd 21ab 6d3a f095 28bd a951 c4ba
000003b0: fe4f 27bd ce9c b7bb 7a1d 7f3a 432c deba
000003c0: 7d6b 5ebc 8ef4 023c 7bb0 7d3c d570 50bd
000003d0: f5dc 23bd e82f 89bb 4110 5bbc 221e 88bb
000003e0: b268 55bc 8179 9aba 96d8 04bd e68b b9bc
000003f0: 4647 813c 5bb6 9abd 2cef 8b3c 6c75 a8bb

action_model._discrete_distribution.branches.1.bias f4 [3]
-0.0025724403 0.010304218 -0.007392066
00000000: 6396 28bb 06d3 283c 2539 f2bb

action_model._discrete_distribution.branches.2.weight f4 [1, 128]
-0.008800435 0.013888967 -0.011729523 -0.0066154534 -0.00037830518 0.0054087737 0.0011328323 -0.0030015009
-0.005143358 0.0019021159 -0.0074016615 0.0020290285 -0.016297812 0.0045951777 -0.010239377 -0.0067844125
-0.008684958 0.0009551455 -0.004159722 -0.00393516 0.0014540189 0.010381284 0.0037097912 -0.0001179332
0.019242316 -0.026151096 -0.0011658906 0.0016913259 -0.0019239588 0.014207522 0.0046061403 -0.00592937
0.006001039 0.0021103641 0.0038633996 -0.004971418 0.005716781 -0.0009254093 0.010769169 0.0071498374
-0.0029479812 -0.0065736882 0.0006650774 -0.00558464 -0.0015470898 0.0011819912 -0.016386306 -0.010766125
0.0037021623 6.246113e-08 0.012737435 0.0036861901 0.0048535457 0.0064849034 0.0014180614 0.0076307715
-0.009955837 0.008287223 0.0026313015 0.007357202 0.011991715 -0.0075774114 -0.010346564 -0.008047613
0.0076235393 -0.0028955475 0.0011960418 0.0019013511 -0.009453355 -0.008433334 -0.016712701 -0.009380155
0.016355714 0.009409296 0.0033330123 0.0022474523 -0.0026732415 -0.008661709 6.410153e-05 -0.004483667
0.00027019146 0.0027687189 -0.008343511 0.005241757 -0.0021363904 0.005775079 -0.0024368933 -0.005763116
-0.0038749147 -0.004330305 0.0143950945 -0.0022491247 -0.005177329 0.0027475206 0.0037640438 -0.0050907065
-0.008949932 -0.006195366 0.007479865 -0.0003716325 0.0011417981 -0.0065695443 -0.003242891 -0.005319118
0.018540226 0.013294289 -8.218653e-05 0.0045280037 0.00058042724 0.002860164 -0.0074431854 0.006532395
0.005062982 0.005420003 0.0026964254 0.008483428 0.0036740762 -0.0101314215 0.0059466218 -0.0048345868
0.01157116 -0.017740853 0.0058080303 -0.017107697 0.0038454223 -0.004288399 0.002771582 -0.01115269
00000000: b32f 10bc 8d8e 633c 2f2d 40bc 72c6 d8bb
00000010: 4357 c6b9 153c b13b 8b7b 943a d4b4 44bb
00000020: 9d89 a8bb 6b50 f93a a389 f2bb 73f9 043b
00000030: fd82 85bc 2593 963b 0fc3 27bc c74f debb
00000040: 5b4b 0ebc bb62 7a3a 474e 88bb 84f2 80bb
00000050: c794 be3a 4316 2a3c f81f 733b e852 f7b8
00000060: 10a2 9d3c d33a d6bc ccd0 98ba 7baf dd3a
00000070: 582d fcba abc6 683c 1bef 963b 294b c2bb
00000080: 5da4 c43b 094e 0a3b 1731 7d3b 47e7 a2bb
00000090: d653 bb3b 2b97 72ba 2b71 303c 2f49 ea3b
000000a0: eb32 41bb 1868 d7bb 9758 2e3a 5bff b6bb
000000b0: b8c7 caba 0bed 9a3a 933c 86bc 6764 30bc
000000c0: fa9f 723b 5f22 8633 adb0 503c 0294 713b
000000d0: 7e0a 9f3b 507f d43b 3fde b93a 8d0b fa3b
000000e0: cf1d 23bc 22c7 073c ea71 2c3b af14 f13b
000000f0: e678 443c ef4b f8bb a384 29bc 23da 03bc
00000100: e2ce f93b 3ac3 3dbb 81c4 9c3a c236 f93a
00000110: 3fe2 1abc f72b 0abc 13e9 88bc 39af 19bc
00000120: 6bfc 853c 7329 1a3c ab6e 5a3b fe49 133b
00000130: 8d31 2fbb d7e9 0dbc 3f6e 8638 baeb 92bb
00000140: 7ca8 8d39 6573 353b 39b3 08bc 0bc3 ab3b
00000150: af02 0cbb e03c bd3b 49b4 1fbb 85d8 bcbb
00000160: 48f2 7dbb 3be5 8dbb 67d9 6b3c 0d66 13bb
00000170: 95a6 a9bb bf0f 343b 2dae 763b f1cf a6bb
00000180: bca2 12bc 7f02 cbbb a819 f53b abd7 c2b9
00000190: 63a8 953a 5545 d7bb af86 54bb ff4b aebb
000001a0: ace1 973c 4ad0 593c 8f5b acb8 a65f 943b
000001b0: d027 183a 9771 3b3b f7e5 f3bb b30d d63b
000001c0: 5fe7 a53b 489a b13b 83b6 303b 13fe 0a3c
000001d0: c5c8 703b 43fe 25bc e1db c23b 746b 9ebb
000001e0: f694 3d3c 4455 91bc 4a51 be3b 7125 8cbc
000001f0: 7b03 7c3b b385 8cbb 6ea3 353b c6b9 36bc

94 f4 [630]
0.3013939 0.42187387 0.09182132 0.10339854 0.10973092 0.083806075 0.081528656 0.062887445
0.069438905 0.057984807 0.062005114 0.05176082 0.088063344 0.19196567 0.30045432 0.42112976
0.091895595 0.103987955 0.10602388 0.0799591 0.077609874 0.061278727 0.06859215 0.058458462
0.060940504 0.052554995 0.09567605 0.19453534 0.30050975 0.41294175 0.09032238 0.10140805
0.10554285 0.08290282 0.07848838 0.06768384 0.0659333 0.05916176 0.061109856 0.04971931
0.08829578 0.19257572 0.29764527 0.41167027 0.08025847 0.10130748 0.09722967 0.07296116
0.07105324 0.059278138 0.06525137 0.05702551 0.05892826 0.05135907 0.10551069 0.19953576
0.29622525 0.40366197 0.089181095 0.09757914 0.09813565 0.07681048 0.06938939 0.06963662
0.0657766 0.056295164 0.057865765 0.045129422 0.09872336 0.19665806 0.29169825 0.4020033
0.07206132 0.09571167 0.08602148 0.06456209 0.06614171 0.057146322 0.06556703 0.056111075
0.059161745 0.052291624 0.11310178 0.20359813 0.2892376 0.39367154 0.07909737 0.09635009
0.08963942 0.06909152 0.06645304 0.06493417 0.063649304 0.05162726 0.054362465 0.046487518
0.10424879 0.19876188 0.28408915 0.39653042 0.06255804 0.09028459 0.08000192 0.062337458
0.06370335 0.05461573 0.064026766 0.053466458 0.055492975 0.053659726 0.114880525 0.20382814
0.2821695 0.38678268 0.06988293 0.0932222 0.085902184 0.06266803 0.058928266 0.06440197
0.05714631 0.05209321 0.051493343 0.04588893 0.102342 0.1983593 0.27431393 0.39687103
0.053142738 0.08594197 0.07681047 0.06255804 0.06519861 0.052686173 0.06299685 0.05353095
0.051827464 0.050545897 0.11420215 0.20350124 0.26962358 0.38472188 0.06381133 0.087985694
0.081318386 0.06250298 0.05933625 0.062060636 0.05604958 0.05075044 0.04744398 0.0426885
0.10522087 0.1992209 0.26256737 0.3971423 0.055056114 0.081149735 0.07752147 0.05732705
0.06655651 0.04866612 0.060997 0.05242348 0.04958018 0.048595086 0.11343008 0.20328958
0.2588757 0.38367543 0.06386527 0.08852763 0.07892388 0.06122247 0.05561715 0.05816287
0.051426258 0.049996383 0.045510776 0.041371904 0.10528535 0.1998913 0.25244752 0.39903083
0.058162894 0.079916224 0.07591204 0.05660063 0.06348684 0.04648751 0.05567912 0.051827475
0.046857715 0.04558665 0.113101795 0.20346305 0.24940868 0.38275036 0.06321509 0.08526287
0.081360504 0.05910347 0.053980302 0.054804914 0.051627256 0.05020317 0.04823834 0.038152467
0.10653445 0.19902949 0.30166927 0.42216492 0.09193272 0.10359538 0.10991591 0.0838469
0.08161264 0.06348683 0.07022634 0.057984807 0.06332392 0.052947562 0.08829579 0.19206305
0.30075887 0.42140484 0.09200693 0.104085855 0.10615176 0.080001935 0.0776982 0.061726775
0.06924062 0.058576282 0.062171523 0.053595386 0.09603144 0.19467191 0.30075884 0.4132873
0.09039795 0.10157547 0.10570344 0.08294411 0.07857567 0.06818998 0.06645305 0.05916176
0.062392704 0.050886333 0.08856622 0.19268534 0.29798236 0.4119428 0.080386415 0.101441555
00000000: 4d50 9a3e daff d73e d10c bc3d 9dc2 d33d
00000010: 9bba e03d 85a2 ab3d 7ff8 a63d 22cb 803d
00000020: fc35 8e3d 7a81 6d3d 13f9 7d3d 2703 543d
00000030: 8e5a b43d a692 443e 26d5 993e 529e d73e
00000040: c233 bc3d a3f7 d43d 0c23 d93d 99c1 a33d
00000050: edf1 9e3d 67ff 7a3d 0b7a 8c3d 2472 6f3d
00000060: c09c 793d e843 573d cef1 c33d 4634 473e
00000070: 6adc 993e 1a6d d33e f1fa b83d 06af cf3d
00000080: da26 d83d f4c8 a93d 84be a03d d39d 8a3d
00000090: 0a08 873d 9a53 723d 544e 7a3d 7aa6 4b3d
000000a0: 6bd4 b43d 9232 453e f664 983e 72c6 d23e
000000b0: 8d5e a43d 4c7a cf3d 5920 c73d a96c 953d
000000c0: 5c84 913d a2cd 723d 83a2 853d 9593 693d
000000d0: c25e 713d e35d 523d fd15 d83d 1a53 4c3e
000000e0: d6aa 973e c8ac ce3e 94a4 b63d 92d7 c73d
000000f0: 58fb c83d d04e 9d3d 061c 8e3d a59d 8e3d
00000100: e2b5 863d c295 663d a704 6d3d a1d9 383d
00000110: 792f ca3d bb60 493e 7959 953e 60d3 cd3e
00000120: e394 933d 7b04 c43d 082c b03d 2139 843d
00000130: 4e75 873d 4312 6a3d 0248 863d bad4 653d
00000140: 9653 723d be2f 563d e8a1 e73d 077c 503e
00000150: f316 943e 518f c93e cdfd a13d 3253 c53d
00000160: df94 b73d db7f 8d3d 8818 883d 35fc 843d
00000170: 915a 823d 1b77 533d 2dab 5e3d b269 3e3d
00000180: 6480 d53d 3c88 4b3e 2274 913e 0906 cb3e
00000190: 6e1e 803d 21e7 b83d 0cd8 a33d 9055 7f3d
000001a0: e776 823d beb4 5f3d 7720 833d a5ff 5a3d
000001b0: 9a4c 633d 4dca 5b3d 7b46 eb3d 53b8 503e
000001c0: 8578 903e 6108 c63e c81e 8f3d 48eb be3d
000001d0: 7ced af3d 1958 803d c45e 713d 2ee5 833d
000001e0: 4012 6a3d b15f 553d afea 523d 08f6 3b3d
000001f0: af98 d13d b31e 4b3e e072 8c3e ae32 cb3e
00000200: 33ac 593d 5802 b03d cf4e 9d3d 6e1e 803d
00000210: d986 853d 75cd 573d 7e04 813d 4543 5b3d
00000220: 0949 543d 3709 4f3d d1e2 e93d a162 503e
00000230: 1a0c 8a3e 44fa c43e 84af 823d d831 b43d
00000240: 418a a63d 9001 803d 910a 733d 4b33 7e3d
00000250: 3f94 653d b2df 4f3d 9e54 423d 23da 2e3d
00000260: 0a7e d73d 9000 4c3e 3b6f 863e 3c56 cb3e
00000270: 8582 613d d531 a63d 94c3 9e3d c5cf 6a3d
00000280: c84e 883d 2056 473d fed7 793d 01ba 563d
00000290: 9614 4b3d a40b 473d 084e e83d 252b 503e
000002a0: 5b8b 843e 1b71 c43e cbcb 823d f94d b53d
000002b0: d8a2 a13d 6ac4 7a3d cfce 633d 313c 6e3d
000002c0: 57a4 523d 02c9 4c3d 8269 3a3d 9675 293d
000002d0: d89f d73d 4eb0 4c3e cd40 813e c54d cc3e
000002e0: 373c 6e3d 1eab a33d c677 9b3d 10d6 673d
000002f0: 6305 823d b069 3e3d ca0f 643d 0c49 543d
00000300: e0ed 3f3d 11b9 3a3d eaa1 e73d 9e58 503e
00000310: fd64 7f3e dbf7 c33e ea76 813d 4d9e ae3d
00000320: 56a0 a63d 7b16 723d 731a 5d3d 1e7b 603d
00000330: 1a77 533d d7a1 4d3d 9195 453d c345 1c3d
00000340: bc2e da3d 63ce 4b3e 6574 9a3e 0026 d83e
00000350: 3947 bc3d d129 d43d 981b e13d ecb7 ab3d
00000360: 8724 a73d 6205 823d d4d2 8f3d 7a81 6d3d
00000370: f9af 813d 8bdf 583d 6cd4 b43d 2dac 443e
00000380: 11fd 993e 60c2 d73e 216e bc3d f72a d53d
00000390: 1866 d93d 0ed8 a33d 3c20 9f3d 37d5 7c3d
000003a0: 07ce 8d3d afed 6f3d 91a7 7e3d d686 5b3d
000003b0: 22ac c43d 1358 473e 10fd 993e 659a d33e
000003c0: 8f22 b93d cd06 d03d 0c7b d83d 9ade a93d
000003d0: 48ec a03d 30a7 8b3d 8918 883d 9a53 723d
000003e0: 7e8f 7f3d 306e 503d 3562 b53d 4e4f 453e
000003f0: 2591 983e 2bea d23e a2a1 a43d 97c0 cf3d

97 f4 [6]
29.577684 80.47715 29.750437 80.49805 29.937164 80.51822
00000000: 199f ec41 4df4 a042 e500 ee41 00ff a042
00000010: 507f ef41 5409 a142
