Assets/ZooheimTest/Models/run2/LionFBehavior.onnx (onnx, 188269 bytes, 14 tensors)

discrete_act_size_vector f4 [1, 3]
0	0x40000000	2.0
1	0x40400000	3.0
2	0x3f800000	1.0

network_body.observation_encoder.processors.0.normalizer.running_mean f4 [210]
0	0x3ec3ca62	0.38240343
1	0x3e2872c5	0.16450031
2	0x3c82166a	0.015879828
3	0x3baac575	0.005211527
4	0x3bd9fc0b	0.0066523603
5	0x3bd4f63d	0.0064990805
6	0x3b32cebf	0.0027283875
7	0x3bdbfe5e	0.0067136725
8	0x3bf41a40	0.0074494183
9	0x3b4aeaa0	0.0030962601
10	0x3ae508d2	0.0017473942
11	0x3b0296ff	0.0019926426
12	0x3cb5d23c	0.022194974
13	0x3e20bfc7	0.15698157
14	0x3ec5f0de	0.3866033
15	0x3e2781b0	0.16358066
16	0x3c4e6eaf	0.012599631
17	0x3bb8d5bb	0.005640713
18	0x3bd1f2c1	0.0064071123
19	0x3be3067e	0.006928264
20	0x3b751b67	0.0037400366
21	0x3bed121e	0.0072348258
22	0x3bdf01d9	0.00680564
23	0x3b859a7a	0.004077253
24	0x3b7d24b5	0.0038626615
25	0x3b30cc6c	0.0026977314
26	0x3ca2fc75	0.019895772
27	0x3e21c12d	0.15796347
28	0x3ebcc647	0.36870024
29	0x3e272947	0.1632434
30	0x3c881d63	0.016615575
31	0x3bb8d5b8	0.0056407116
32	0x3c12a994	0.008951563
33	0x3bbbd932	0.005732679
34	0x3b56f88c	0.0032801954
35	0x3b92a995	0.004475782
36	0x3be508d1	0.0069895764
37	0x3b36d363	0.0027896992
38	0x3b14abe7	0.002268547
39	0x3af92008	0.0019006738
40	0x3ca3bd53	0.019987738
41	0x3e24bc62	0.16087487
42	0x3ec0caeb	0.37654814
43	0x3e211a45	0.15732677
44	0x3c3cda5e	0.011526672
45	0x3bc6e5f7	0.0060698944
46	0x3bc2e156	0.0059472723
47	0x3b98b08e	0.004659719
48	0x3b54f63e	0.0032495405
49	0x3bd1f2c0	0.006407112
50	0x3bbddb85	0.005793991
51	0x3b7b2260	0.003832005
52	0x3b839828	0.004015941
53	0x3b30cc6f	0.002697732
54	0x3cb91602	0.022593502
55	0x3e295dd7	0.16539703
56	0x3eb666e7	0.35625383
57	0x3e22338d	0.15839978
58	0x3c781ee6	0.0151440855
59	0x3ba7c1f8	0.0051195584
60	0x3be508d2	0.006989577
61	0x3b9eb784	0.004843654
62	0x3b3ad80c	0.0028510122
63	0x3b56f88d	0.0032801956
64	0x3bb2cec0	0.0054567754
65	0x3b2ac573	0.002605763
66	0x3b40df03	0.00294298
67	0x3accecf7	0.0015634586
68	0x3caf0a65	0.021367261
69	0x3e2e657e	0.17030904
70	0x3eb4b8f7	0.35297367
71	0x3e1d25b6	0.15346417
72	0x3c162da5	0.009166156
73	0x3ba8c322	0.005150215
74	0x3bbbd934	0.0057326797
75	0x3b48e84a	0.0030656033
76	0x3b26c0cf	0.0025444513
77	0x3bc2e156	0.0059472723
78	0x3badc8f0	0.0053034946
79	0x3b6f146f	0.0036480685
80	0x3ba0b9d7	0.0049049663
81	0x3b2cc7c9	0.0026364198
82	0x3cc3e27e	0.02391171
83	0x3e39c281	0.18140604
84	0x3ea7c9ff	0.32771298
85	0x3e19d9e2	0.15024522
86	0x3c3c59c7	0.011496014
87	0x3baac574	0.0052115265
88	0x3bc7e725	0.0061005526
89	0x3b52f3eb	0.0032188843
90	0x3b36d365	0.0027896997
91	0x3b48e84f	0.0030656045
92	0x3b9eb787	0.0048436555
93	0x3af9200d	0.0019006744
94	0x3b849950	0.0040465966
95	0x3a9cb531	0.0011955855
96	0x3cc9e973	0.02464745
97	0x3e41f7b4	0.18942147
98	0x3e9c0c6e	0.30478233
99	0x3e1c7cee	0.15282032
100	0x3bd1f2c1	0.0064071123
101	0x3b99b1b6	0.0046903742
102	0x3b94abe7	0.004537094
103	0x3b44e3a7	0.0030042918
104	0x3b3edcae	0.0029123235
105	0x3bbad80c	0.0057020243
106	0x3b869ba6	0.00410791
107	0x3b36d364	0.0027896995
108	0x3b839828	0.004015941
109	0x3b30cc6c	0.0026977314
110	0x3ccd2d3c	0.025045983
111	0x3e4b3a61	0.19846489
112	0x3e8c6655	0.27421823
113	0x3e1fa899	0.15591659
114	0x3c51f2c1	0.012814225
115	0x3b92a990	0.00447578
116	0x3bb0cc6a	0.005395462
117	0x3b48e848	0.0030656029
118	0x3b3ad808	0.0028510112
119	0x3b2eca18	0.002667075
120	0x3b8ba176	0.004261191
121	0x3ae90d78	0.0017780503
122	0x3b96ae39	0.0045984057
123	0x3ad8fae2	0.0016554261
124	0x3cd9fc09	0.026609438
125	0x3e4f9e60	0.20275259
126	0x3e6f74dd	0.23384424
127	0x3e29e473	0.16591053
128	0x3bb1cd94	0.005426118
129	0x3ba4be7a	0.0050275894
130	0x3b9fb8ae	0.0048743105
131	0x3b79200b	0.0038013484
132	0x3b3ad80b	0.002851012
133	0x3b9cb534	0.0047823433
134	0x3b50f197	0.003188228
135	0x3b26c0cd	0.0025444508
136	0x3b899f1f	0.004199877
137	0x3b5f01da	0.0034028203
138	0x3cd131e4	0.025536485
139	0x3e60dcf1	0.21959282
140	0x3e4b4b0f	0.19852851
141	0x3e2b8e5b	0.16753523
142	0x3c4d6d86	0.012538319
143	0x3b96ae3c	0.004598407
144	0x3b96ae3b	0.0045984066
145	0x3b3cda5c	0.0028816676
146	0x3b3edcab	0.0029123228
147	0x3b50f197	0.003188228
148	0x3b48e84a	0.0030656033
149	0x3b0aa048	0.0021152664
150	0x3bb0cc6d	0.005395463
151	0x3b049950	0.0020232983
152	0x3cda3c55	0.026640097
153	0x3e6239ef	0.22092412
154	0x3e2dc8f3	0.16971187
155	0x3e325e3e	0.17418763
156	0x3bb9d6e1	0.0056713675
157	0x3bc3e281	0.005977929
158	0x3bb0cc6d	0.005395463
159	0x3b6d1220	0.0036174133
160	0x3b2eca18	0.002667075
161	0x3b93aabe	0.004506438
162	0x3b10a744	0.0022072354
163	0x3b30cc6c	0.0026977314
164	0x3b5afd33	0.0033415079
165	0x3b4cecf3	0.0031269162
166	0x3cf45a88	0.029828325
167	0x3e7725cd	0.24135514
168	0x3e09a727	0.1344267
169	0x3e3b88d4	0.18313915
170	0x3c2dc8f0	0.010606989
171	0x3b7b225f	0.0038320047
172	0x3b91a86b	0.004445126
173	0x3b1ab2dd	0.0023605146
174	0x3b16ae3a	0.002299203
175	0x3b54f63e	0.0032495405
176	0x3b2eca17	0.0026670748
177	0x3b14abe6	0.0022685467
178	0x3bb3cfe8	0.005487431
179	0x3b2cc7ca	0.00263642
180	0x3ce78bb8	0.028264865
181	0x3e73f0e7	0.23822366
182	0x3e02df52	0.12780502
183	0x3e3632ac	0.17792767
184	0x3bbcda5d	0.0057633356
185	0x3bb6d362	0.005579398
186	0x3bb7d48e	0.0056100553
187	0x3b36d364	0.0027896995
188	0x3b28c320	0.002575107
189	0x3b90a740	0.004414469
190	0x3b34d112	0.0027590436
191	0x3b46e5fc	0.0030349484
192	0x3b731915	0.0037093807
193	0x3b46e5f8	0.0030349474
194	0x3cfb225e	0.030656036
195	0x3e7ef296	0.24897227
196	0x3dc412b3	0.09573879
197	0x3e39bec5	0.18139179
198	0x3c1cb532	0.009564685
199	0x3b9db65d	0.004812999
200	0x3ba9c44c	0.005180871
201	0x3b0aa048	0.0021152664
202	0x3b0296fe	0.0019926424
203	0x3b1eb783	0.0024218268
204	0x3b30cc6b	0.0026977311
205	0x3b22bc2b	0.0024831395
206	0x3b9cb531	0.004782342
207	0x3b36d364	0.0027896995
208	0x3d0c2206	0.034212135
209	0x3e82f7e6	0.25579756

network_body.observation_encoder.processors.1.normalizer.running_mean f4 [9]
0	0x4290bc9b	72.36837
1	0x429f0937	79.518
2	0x3dffd7d4	0.12492338
3	0x4290ca5b	72.395226
4	0x429f34b4	79.602936
5	0x3e014d83	0.12627225
6	0x4290d75b	72.420616
7	0x429f5fce	79.68712
8	0x3e02af1b	0.1276211

network_body._body_endoder.seq_layers.0.weight f4 [128, 219]
0	0x3a7fd864	0.0009759723
1	0xbdd9f589	-0.10642535
2	0x3d96f533	0.07370987
3	0xbe03d7ed	-0.12875338
4	0xbc93ff87	-0.01806618
5	0x3dbee484	0.0932093
6	0xbdb2c400	-0.0872879
7	0x3c0396b2	0.008031534
8	0x3da9a277	0.08282941
9	0xbd8bde82	-0.06829549
10	0xbb257096	-0.0025244108
11	0x3ce11696	0.02747659
12	0x3e0438dd	0.12912317
13	0xbc89cc91	-0.016821178
14	0xbd9020a3	-0.07037475
15	0xbd2be6e9	-0.04196826
16	0xbd632af3	-0.05546088
17	0x3d75b385	0.059985656
18	0xbd12c02d	-0.035827804
19	0x3defefd5	0.11715666
20	0xbc809c3a	-0.015699495
21	0xbc22d32e	-0.0099380445
22	0xbcf8b53b	-0.030359855
23	0x3ca49ed8	0.020095274
24	0x3c82512b	0.015907845
25	0xbceb70d6	-0.028740328
26	0xbd99b3e6	-0.07505016
27	0xbd72b780	-0.05925703
28	0xbc2bc3cd	-0.010483694
29	0x3d6e2ee3	0.058150183
30	0x3bbc6107	0.0057488712
31	0xbdad0e3f	-0.08449983
32	0x3dfe3ccc	0.1241394
33	0xbde4f231	-0.11179007
34	0x3dd3caba	0.103414014
35	0xbd8ac76f	-0.0677632
36	0xbcf38d2a	-0.029730398
37	0x3d8eb21f	0.06967568
38	0xbdda0f45	-0.10647444
39	0x3d60679f	0.05478632
40	0xbdae6d41	-0.08516932
41	0xbda4af74	-0.080412775
42	0xbd81a255	-0.063297905
43	0x3ccbc7f0	0.024875611
44	0xbd153f67	-0.03643742
45	0x3c2b4eca	0.0104557965
46	0xbdc67737	-0.09690707
47	0x3daca02a	0.08428986
48	0xbdc11db5	-0.09429494
49	0xbdc9494b	-0.09828433
50	0x3c110468	0.008851148
51	0xbd8985f2	-0.06715001
52	0xbced6431	-0.028978439
53	0x3df72467	0.1206749
54	0x3c60b629	0.013715305
55	0x3d12482c	0.03571336
56	0xbd98f593	-0.074687146
57	0x3d1acb16	0.037791334
58	0x3dc5694a	0.09639223
59	0xbd0d0c90	-0.03443581
60	0x3d84ffd9	0.064941116
61	0xbdb81ffa	-0.08990474
62	0x3df099ed	0.11748109
63	0x3d298794	0.041389063
64	0x3c24d945	0.010061567
65	0xbdb9594a	-0.09050234
66	0x3a8605a4	0.001022507
67	0xbc8e79bc	-0.017392032
68	0x3da17478	0.07883543
69	0xbcd594f4	-0.026072003
70	0x3cb05763	0.021526044
71	0x3d69290b	0.056923907
72	0x3d9543af	0.072883
73	0xbd017a5f	-0.031610843
74	0x3e14135e	0.14460513
75	0x3d93d4a4	0.07218292
76	0xbdd1d56b	-0.10245784
77	0x3d0174a1	0.031605367
78	0xbd687ea8	-0.056761414
79	0xbe297511	-0.16548564
80	0xbcc00545	-0.023440013
81	0xbbdf85a8	-0.006821353
82	0x3b675971	0.0035301114
83	0xbc61dd96	-0.01378574
84	0x3d41b7b8	0.04729435
85	0x3d8b22e1	0.06793762
86	0xbdf04547	-0.117319636
87	0x3daaf82a	0.08348115
88	0x3cba548a	0.02274539
89	0x3d5310ee	0.051529817
90	0xbe1030e6	-0.14081153
91	0xbdfc22a5	-0.123112954
92	0xbda33cec	-0.07970604
93	0xbc5d488c	-0.013506066
94	0x3d746477	0.059666123
95	0xbd1ee63e	-0.038793795
96	0xbcb7291f	-0.022358475
97	0xbe155e25	-0.14586695
98	0xbddf144c	-0.10892543
99	0xbde6dcc5	-0.11272577
100	0x3d524df7	0.051343884
101	0x3dbefb1c	0.09325239
102	0xbc2fa155	-0.010719617
103	0x3d70df1d	0.058806527
104	0x3daf8b55	0.08571497
105	0x3d819b6f	0.06328475
106	0x3dbdb82e	0.09263645
107	0x3c4c8bca	0.0124845
108	0xbcf0ffe9	-0.029418902
109	0xbda7b8a2	-0.08189513
110	0x3bb95dc6	0.0056569306
111	0x3c957571	0.018244477
112	0x3d9868f0	0.0744189
113	0x3d021079	0.03175399
114	0xbce1242f	-0.027483074
115	0x3d572c70	0.052532613
116	0xbddbe626	-0.10737257
117	0xbd342ba9	-0.04398695
118	0x3d07a442	0.033115633
119	0x3d347525	0.04405703
120	0x3dcb0083	0.09912207
121	0xbd4a26f3	-0.04935355
122	0xbdc96e54	-0.098354965
123	0xbdc6b429	-0.097023316
124	0x3d3e44bb	0.046452265
125	0x3c50a05e	0.012733547
126	0xbdb6c7cc	-0.08924827
127	0xbd79ddab	-0.061002415
128	0xbce240b6	-0.027618747
129	0xbc15b435	-0.009137203
130	0xbcea577b	-0.028606167
131	0xbc5face4	-0.01365206
132	0x3d25678d	0.040381957
133	0x3d3e3782	0.046439655
134	0xbc9b9965	-0.018994043
135	0xbaf8ad5e	-0.0018972566
136	0x3dd01b81	0.10161496
137	0xbcd0abc3	-0.025472527
138	0xbccc5744	-0.024943955
139	0x3c58b762	0.013227316
140	0x3d0136b7	0.03154632
141	0xbdf6f3c8	-0.12058216
142	0xbd977983	-0.073962234
143	0x3ccad4d8	0.024759695
144	0x3d8ab0ff	0.067720406
145	0x3bd25f0a	0.006420021
146	0x3d33efc5	0.043929834
147	0x3d79e49c	0.061009035
148	0x3d6d4a72	0.057932325
149	0x3d7199db	0.05898462
150	0x3ceed3e2	0.029153768
151	0x3d903579	0.07041449
152	0xbbc3c091	-0.0059738834
153	0x3cfe522c	0.031045042
154	0xbd5a23ee	-0.05325692
155	0x3cc5ffc3	0.024169808
156	0x3d6dfa84	0.05810024
157	0x3c618422	0.013764413
158	0xbd1c4b8a	-0.038157977
159	0x3d027408	0.031848937
160	0x3cce546a	0.025186736
161	0x3e16506b	0.14679115
162	0x39c05b5a	0.00036689156
163	0xbc6d2b6c	-0.014475685
164	0x3ce7d0cb	0.028297802
165	0x3d867631	0.06565512
166	0xbcd78752	-0.026309643
167	0xbd0de10f	-0.03463846
168	0x3cc7b5d5	0.024378696
169	0x3d3ecdd6	0.04658302
170	0x3df38a81	0.11891652
171	0x3c7848fa	0.015154118
172	0xbd8fcc3c	-0.070213765
173	0x3cc73727	0.02431829
174	0xbcd9c109	-0.026581304
175	0x3cf85aef	0.030316798
176	0x3de51a4a	0.11186655
177	0x3d8cdd55	0.06878153
178	0xbd5d8091	-0.05407769
179	0x3bcb6fa5	0.0062083774
180	0xbd82ad87	-0.06380754
181	0xbd4898f5	-0.048973996
182	0xbc76cb48	-0.015063114
183	0x3bf22a08	0.0073902644
184	0x3d1a3261	0.0376457
185	0xbd71f370	-0.05907005
186	0xbc1e026b	-0.009644131
187	0x3da3ddde	0.08001302
188	0xbd6d265e	-0.057897918
189	0x3b07ac8d	0.0020702214
190	0x3d15c339	0.036563132
191	0xbc80acc4	-0.015707381
192	0xbd1f69fc	-0.038919434
193	0xbdacc752	-0.08436455
194	0xbd173e00	-0.036924362
195	0x3d8be619	0.06830997
196	0x3e1a929c	0.1509499
197	0xbd17542f	-0.036945518
198	0x3beb08d5	0.0071726837
199	0x3d134234	0.035951808
200	0xbb611b96	-0.0034348718
201	0x3c8ba88f	0.017048148
202	0x3d627374	0.055285886
203	0x3d284a23	0.041086327
204	0x3d08c602	0.03339196
205	0xbad0ea17	-0.0015938905
206	0x3d56ac42	0.05241037
207	0xbd08186b	-0.03322641
208	0xbc33b717	-0.010968945
209	0x3d29a636	0.041418277
210	0x3d52f521	0.051503304
211	0xbe031006	-0.12799081
212	0xbd249dc6	-0.040189527
213	0x3ce2a4af	0.027666418
214	0x3d0893bb	0.03334401
215	0x3bd37b67	0.0064539197
216	0x3de2b1ab	0.11069044
217	0xbc3987be	-0.011323867
218	0x3df38fcf	0.11892664
219	0x3d0cd1dc	0.034379825
220	0xbc7655f3	-0.01503514
221	0xbd8da42a	-0.069160774
222	0xbe23d3f3	-0.15998821
223	0x3b492a2a	0.0030695298
224	0x3d473e64	0.048643485
225	0xbd182d89	-0.0371528
226	0x3d49e8a3	0.049294125
227	0x3df21971	0.11821259
228	0xbd73c82a	-0.059517063
229	0x3d2a36b8	0.04155609
230	0x3adcbe35	0.0016841354
231	0xbdfc718f	-0.12326347
232	0xbc947103	-0.018120294
233	0xbdc2b5b5	-0.09507314
234	0x3d272121	0.04080308
235	0xbd791a22	-0.060815938
236	0xbcad1f55	-0.021133104
237	0x3dcab4a6	0.09897737
238	0xbc437764	-0.01193032
239	0xbe1a1972	-0.15048769
240	0x3cb00348	0.02148594
241	0x3ba57d53	0.00505034
242	0x3da17b7b	0.0788488
243	0xbde33b3d	-0.11095283
244	0x3e166e07	0.1469041
245	0x3c6f2c78	0.0145980045
246	0xbc8b74ac	-0.017023407
247	0x3d8630d1	0.0655228
248	0x3aa06cde	0.0012239476
249	0xbd25d160	-0.04048288
250	0x3d9374d4	0.072000176
251	0xbd71cea7	-0.05903497
252	0xbcea7ccd	-0.028623963
253	0xbd71fc77	-0.05907866
254	0x3d576dfb	0.05259512
255	0xbd2b132a	-0.041766323

network_body._body_endoder.seq_layers.0.bias f4 [128]
0	0xbba3ce79	-0.0049989787
1	0xbbe790eb	-0.007066836
2	0x3c819fc7	0.015823258
3	0x3c1c9cb9	0.00955885
4	0x3b83ecd0	0.004026033
5	0x3c00d34f	0.00786288
6	0x3c142aab	0.009043376
7	0x3cf6f5b1	0.030146452
8	0xbcc5086c	-0.024051867
9	0x3acd0ce3	0.0015644099
10	0xbb38a63c	-0.0028175255
11	0x3c626b23	0.013819489
12	0x3b4d6b34	0.0031344416
13	0x3b675a0c	0.0035301475
14	0x3b9a5e50	0.00471095
15	0x3b88b8b7	0.0041724104
16	0x3c58bf68	0.013229229
17	0x3c1e2849	0.009653159
18	0xbc8180dd	-0.015808517
19	0x3c8ddca4	0.017317124
20	0x3c8d6684	0.017260797
21	0x3c0286d7	0.007966719
22	0xba24c3ca	-0.00062852784
23	0xbb3b5e88	-0.002859028
24	0x3b77ab75	0.0037791405
25	0xbc07c60d	-0.008286965
26	0xb858a4a5	-5.165175e-05
27	0x3b93e1ba	0.0045129927
28	0xbbe68c84	-0.0070357937
29	0xbb5f3262	-0.003405713
30	0xbc966d55	-0.01836268
31	0x3bc0cfd1	0.0058841486
32	0xbb16f83d	-0.0023036145
33	0xbbd226c5	-0.006413313
34	0x3cae8bdf	0.02130693
35	0xbc7f2523	-0.015572819
36	0x3be317de	0.0069303354
37	0x3c1ff888	0.009763844
38	0xbbfc75eb	-0.0077044866
39	0xbc1ba31c	-0.0094993375
40	0xbb9e4524	-0.0048300195
41	0x3c68f9c2	0.014219703
42	0xbb22c70a	-0.0024837875
43	0xbb83412f	-0.004005573
44	0x3c88b113	0.016685998
45	0x3b10ed1b	0.0022113982
46	0xbc4eade4	-0.012614701
47	0x3be05d00	0.006847024
48	0xbbe94401	-0.0071187024
49	0x3b756a49	0.0037447384
50	0xbca4f251	-0.020135077
51	0x3980c16d	0.00024558176
52	0xbbe2fd32	-0.006927156
53	0xbba528fb	-0.0050402856
54	0x3a96a8d7	0.001149441
55	0x3caa1b4c	0.02076497
56	0xbc0f2249	-0.008736202
57	0x3c69b672	0.01426469
58	0x3c8a106c	0.016853534
59	0xbc08dfb2	-0.008354114
60	0x3be89cc1	0.0070987646
61	0x3c8c4b65	0.017125795
62	0xbc5c9e43	-0.013465467
63	0x3c864226	0.016388964
64	0x3c53a4c4	0.012917701
65	0x3c35fd95	0.011107822
66	0x3ce31a86	0.027722608
67	0x3b0a8fbb	0.00211428
68	0x3cb85369	0.02250071
69	0xbb0a4795	-0.0021099795
70	0x3c74c422	0.01493934
71	0x3c071d47	0.008246726
72	0xbbb46a29	-0.0055058193
73	0xbc44e5e1	-0.012017698
74	0x3c1d1444	0.009587351
75	0xbc652a43	-0.013987127
76	0x3b9254ed	0.0044656903
77	0xbc662129	-0.014045992
78	0xbb271d61	-0.002549969
79	0xbc793feb	-0.015212993
80	0x39070338	0.00012875802
81	0xbb9b4c87	-0.0047393474
82	0xbc3d2c78	-0.011546247
83	0xbc12d4f0	-0.008961901
84	0x3c189b86	0.009314423
85	0xbc3e3088	-0.01160825
86	0x3c2d536b	0.01057897
87	0x3c82cf64	0.015968032
88	0x3c10fea4	0.008849774
89	0x3ba0b38c	0.004904216
90	0xbc02caa0	-0.00798288
91	0xba90c36e	-0.0011044571
92	0xbafc9101	-0.0019269289
93	0xbb8c97c2	-0.004290552
94	0xbc86d315	-0.016458074
95	0x3c13da56	0.009024223
96	0x3c72aa77	0.01481115
97	0x3ba96ecb	0.0051706783
98	0x3c7b91ca	0.015354583
99	0x3d030fc9	0.031997476
100	0x3bca2a86	0.00616962
101	0x3c2625d6	0.010140857
102	0x3c4bd28e	0.012440337
103	0x3bd22a05	0.0064137005
104	0x3bb20a3c	0.005433349
105	0xbc2cee7c	-0.010554906
106	0xbc1cd2e9	-0.009571769
107	0xbc359c70	-0.011084661
108	0x3b5cc63c	0.0033687493
109	0x3bf7ed54	0.0075661335
110	0x3c9bb375	0.01900647
111	0x3bac5e4c	0.0052602645
112	0x3b3d8a88	0.0028921682
113	0xbc1d77f5	-0.0096111195
114	0x3c640c8d	0.013919008
115	0xbc11602e	-0.008873029
116	0xbc5de05a	-0.013542259
117	0xbc0e87ae	-0.008699341
118	0xbbbad0ba	-0.0057011517
119	0x3c888013	0.016662633
120	0xbb827e4a	-0.00398234
121	0xbc8b2bf5	-0.016988734
122	0xbc9c1af9	-0.01905583
123	0x3ba07e6a	0.004897882
124	0xbc82476c	-0.015903197
125	0xbbd5cd07	-0.0065246853
126	0x3ad01b46	0.0015877269
127	0x3c72289b	0.014780189

network_body._body_endoder.seq_layers.2.weight f4 [128, 128]
0	0xbe29b659	-0.16573466
1	0xbcff4aa5	-0.031163523
2	0xbe5c1ded	-0.21495791
3	0xbd38dd06	-0.04513266
4	0x3c5a7a49	0.013334819
5	0xbc507118	-0.012722276
6	0x3dc97a32	0.0983776
7	0xbde16acd	-0.11006699
8	0xbcf931fb	-0.03041934
9	0x3ceedbdb	0.02915757
10	0xbc57705c	-0.013149347
11	0x3d6bf18b	0.0576034
12	0xbdbbb15c	-0.09164688
13	0xbd92affa	-0.07162471
14	0xbda8d7da	-0.082442954
15	0xbd336d45	-0.04380538
16	0xbcfb7830	-0.030696958
17	0xbda4ff2e	-0.08056484
18	0x3d7c2b31	0.061564628
19	0xbc893c95	-0.01675252
20	0x3e3e8a84	0.18607527
21	0xbe0ba641	-0.1363764
22	0x3c5bcefd	0.013416049
23	0xbb5d5c02	-0.0033776765
24	0xbca8d194	-0.020607747
25	0x3d5f0930	0.05445212
26	0xbd8df95d	-0.06932328
27	0x3e38a29e	0.18030784
28	0xbe6b6c1c	-0.22990459
29	0x3d23f686	0.040030025
30	0xbd98cb29	-0.07460625
31	0xbd2b9892	-0.04189355
32	0x3d528827	0.051399376
33	0x3e5aed60	0.21379614
34	0xbd2d0834	-0.04224415
35	0x3c989c3b	0.018629184
36	0xbc7efdd7	-0.01556345
37	0x3cc00c82	0.023443464
38	0x3c64c5b8	0.013963155
39	0x3d1c67f8	0.03818509
40	0xbdc13557	-0.09434002
41	0xbddd939a	-0.108191684
42	0xbe29c651	-0.16579558
43	0x3b84e0d3	0.0040551214
44	0xbdd29e8a	-0.10284145
45	0xbdb14cdc	-0.08657238
46	0x3d8727cd	0.06599388
47	0xbd52874a	-0.051398553
48	0xbbe04def	-0.006845228
49	0xbdd3f7f6	-0.10350029
50	0x3d9c8122	0.07641818
51	0xbd07ecb9	-0.03318474
52	0xbd9ef140	-0.077608585
53	0x3dc73160	0.097262144
54	0xbe22d5e7	-0.1590191
55	0xbd1a1e8d	-0.03762679
56	0xbdb15b68	-0.086600125
57	0x3c8d605c	0.017257862
58	0x3d6843a9	0.05670515
59	0xbdc12785	-0.09431366
60	0x3c533691	0.012891428
61	0xbda3fda1	-0.0800736
62	0xbcc32797	-0.023822589
63	0x3d63f1bb	0.055650454
64	0xbde26cd7	-0.11055916
65	0xbe6cf9f8	-0.2314223
66	0xbb15e6eb	-0.0022873234
67	0xbdcd4b77	-0.100241594
68	0xbd7b4118	-0.061341375
69	0x3e2d18a8	0.16903937
70	0x3da682f0	0.08130443
71	0xbda0b24a	-0.07846506
72	0xbba0a1b8	-0.004902091
73	0xbbb45ca4	-0.0055042077
74	0x3cbb24ed	0.022844756
75	0xbdb82152	-0.0899073
76	0xbe01cbe9	-0.12675442
77	0x3c45403f	0.012039243
78	0x3e478a2e	0.19486305
79	0xbc04b82b	-0.00810055
80	0x3cb8c5eb	0.022555312
81	0xbdbdc316	-0.09265725
82	0xbbce924f	-0.0063040624
83	0xbdafde31	-0.085873015
84	0xbcd92a4e	-0.02650943
85	0xbd0849ba	-0.033273436
86	0x3d212a9f	0.039347287
87	0xbe2cf7e0	-0.16891432
88	0xbc785bac	-0.015158575
89	0x3d7a1026	0.061050557
90	0x3d995a78	0.07487959
91	0xbca93bd6	-0.020658415
92	0x3c0423ce	0.008065177
93	0x3e043b0f	0.12913154
94	0x3df69f8a	0.120421484
95	0x3dadf812	0.08494581
96	0xbd550f43	-0.052016508
97	0x3d9e8e3d	0.077419735
98	0xbdfc06f3	-0.12306013
99	0x3be8788f	0.00709445
100	0x3e2030e6	0.15643653
101	0xbce48320	-0.027894557
102	0xbde935f5	-0.113872446
103	0xbdfcdd7d	-0.12346933
104	0xbd0b8d38	-0.034070224
105	0x39463de5	0.00018905809
106	0xbd9891a0	-0.07449651
107	0xbded7b57	-0.11595791
108	0xbdc4576c	-0.09586987
109	0xbccc412f	-0.024933426
110	0x3dd1da0a	0.10246666
111	0x3d8525fe	0.06501387
112	0x3e12d121	0.14337589
113	0x3d834fb2	0.06411685
114	0xbd8f0d0a	-0.06984909
115	0xbd1767a9	-0.036964092
116	0x3e48e379	0.19618024
117	0xbc3ae40c	-0.01140691
118	0xbcaef0e5	-0.021355102
119	0xbddb1bba	-0.10698648
120	0xbd2053a0	-0.03914225
121	0x3db2b08e	0.087250814
122	0x3da81247	0.08206611
123	0xbc7f950d	-0.015599501
124	0xbd35c1d9	-0.04437432
125	0x3d7caf3e	0.06169056
126	0x3cb7bddc	0.0224294
127	0x3d6db08f	0.058029708
128	0xbd1a34c2	-0.03764797
129	0x3df25861	0.11833263
130	0x3beb9942	0.0071899006
131	0x3df1e791	0.11811746
132	0xbdbc0c66	-0.09182052
133	0xbd05fa5b	-0.03270946
134	0x3d2289c5	0.03968217
135	0x3d2f061a	0.04273043
136	0xbdb37326	-0.08762197
137	0xbda2760b	-0.07932671
138	0xbddadd38	-0.106867254
139	0xbdd2bb79	-0.10289664
140	0x3cf757be	0.030193206
141	0xbd100997	-0.035165396
142	0x3e6f05ea	0.233421
143	0xbb187ddc	-0.0023268377
144	0xbc003b4d	-0.007826638
145	0x3de9a640	0.11408663
146	0xbd38fdde	-0.04516398
147	0xbdebb1bb	-0.11508509
148	0x3daeceed	0.08535562
149	0xbd4a641e	-0.049411885
150	0x3d803dc3	0.0626178
151	0xbde3d64b	-0.111248575
152	0xbe75f1c4	-0.24018008
153	0x3db9d7c4	0.09074357
154	0x3d85fea4	0.065427095
155	0x3e4d76e7	0.20064889
156	0x3d802df5	0.062587656
157	0x3d512a53	0.051065754
158	0xbd1b226e	-0.03787463
159	0xbc641834	-0.013921786
160	0xbe3e4d32	-0.18584135
161	0x3d706c43	0.058696996
162	0x3dd7c0b1	0.105348
163	0x3e4221bf	0.18958186
164	0x3e596714	0.21230727
165	0xbdb1fe86	-0.086911246
166	0x3d6d9f7c	0.058013424
167	0xbdd3f9a6	-0.10350351
168	0xbcfb8e78	-0.030707583
169	0xbe1eff03	-0.15526967
170	0xbe0773a1	-0.13227703
171	0x3d38b15d	0.04509102
172	0xbd5006be	-0.05078768
173	0x3dfbd4b2	0.12296428
174	0x3d2b6ce0	0.04185188
175	0xbdb2a241	-0.08722354
176	0xbd186dec	-0.037214205
177	0x3dfbc1ed	0.12292848
178	0x3d7ac144	0.06121947
179	0xbde2334c	-0.1104494
180	0xbbb3c66a	-0.0054862993
181	0xbd2c24e0	-0.042027354
182	0x3c7678cb	0.015043448
183	0x3c388465	0.011262034
184	0x3d6badcb	0.05753879
185	0xbd9861b0	-0.074405074
186	0x3da74b4e	0.0816866
187	0x3c17bfa6	0.009262001
188	0xbd9303da	-0.07178469
189	0xbde2a0d7	-0.11065834
190	0x3e23e563	0.16005473
191	0x3c9dfe9d	0.019286448
192	0x3d29fce0	0.041500926
193	0x3db7582f	0.089523666
194	0x3e0c80f9	0.13721074
195	0x3e3ef3b2	0.1864765
196	0x3db0da1d	0.08635352
197	0xbdbe6818	-0.09297198
198	0x3dfa08d5	0.12208716
199	0x3cc692d1	0.02423993
200	0xbd54d251	-0.051958386
201	0x3d058fc3	0.032607805
202	0x3e41bd5f	0.18919896
203	0xbd2fceb1	-0.042921726
204	0xbb967121	-0.0045911227
205	0xbcdf0000	-0.02722168
206	0xbe1f1af2	-0.15537623
207	0xbb558330	-0.0032579415
208	0xbbb30db9	-0.0054642824
209	0x3b859170	0.0040761754
210	0xbd87628e	-0.06610595
211	0xbe17ceed	-0.1482503
212	0x3da458b2	0.0802473
213	0xbd2042b8	-0.039126128
214	0xbd298843	-0.041389715
215	0x3d31c3de	0.043399684
216	0x3bfe8a9a	0.0077679874
217	0xbdb4bc28	-0.088249505
218	0xbdd665b7	-0.10468619
219	0xbdc0d459	-0.09415502
220	0xbe0b7bd8	-0.13621461
221	0x3c4b2f8a	0.012401471
222	0xbd82c820	-0.06385827
223	0x3e15372b	0.14571826
224	0x3cf07ace	0.029355433
225	0x3d1296b3	0.03578825
226	0x3b04e97f	0.0020280776
227	0x3e3b37f7	0.18283068
228	0x3e14ec70	0.14543319
229	0xbcf0f3fb	-0.029413214
230	0x3d9fc2cc	0.078008264
231	0x3d7b93ca	0.06142024
232	0x3cc21d19	0.023695515
233	0x3de4183c	0.11137435
234	0xbd860843	-0.065445445
235	0xbdbbcc0c	-0.09169778
236	0x3cb54de7	0.022131873
237	0xbcd5ac33	-0.026083088
238	0x3db4e221	0.08832193
239	0xbda15914	-0.078783184
240	0x3ccd2674	0.02504275
241	0x3d6b35f4	0.0574245
242	0x3d5e1129	0.054215584
243	0xbe584b36	-0.2112244
244	0x3d2154ec	0.03938763
245	0x3ce00e67	0.027350618
246	0xbdc8b1ba	-0.09799524
247	0xbe1433c9	-0.1447288
248	0xbdbd15d2	-0.092326775
249	0x3c88c930	0.016697496
250	0xbc2e93fa	-0.010655398
251	0xb92d5c83	-0.00016533029
252	0xbd04db98	-0.032435983
253	0xbe4e8e9b	-0.20171587
254	0x3e0d1c5d	0.13780351
255	0x3b247b12	0.002509777

network_body._body_endoder.seq_layers.2.bias f4 [128]
0	0xbb289b70	-0.0025727414
1	0x3c902a5b	0.017598322
2	0x3c35f39d	0.011105445
3	0xbad323d9	-0.0016108706
4	0x3ca36a53	0.01994816
5	0x3c3348b5	0.010942628
6	0x3c66bc02	0.0140829105
7	0x3bcb556a	0.0062052505
8	0xbc838a8e	-0.016057279
9	0xbba0bc20	-0.0049052387
10	0x3b0d3026	0.0021543591
11	0xbc2c5ecf	-0.010520651
12	0xbc8089a6	-0.015690636
13	0xbc4534b7	-0.012036494
14	0xbbf858ab	-0.0075789294
15	0x3c563d77	0.013076178
16	0xbc88e0fc	-0.016708843
17	0xbc84a320	-0.016191065
18	0xbbb4eabe	-0.0055211475
19	0xbcae88a7	-0.021305395
20	0xbb42116f	-0.0029612442
21	0x3bd56990	0.006512828
22	0x3c394a5a	0.011309231
23	0xbc2cba13	-0.01054241
24	0xba73a757	-0.000929465
25	0xbc43be1c	-0.011947181
26	0xbc32f6ed	-0.0109231295
27	0x3c55cc8a	0.013049254
28	0x3c18c0e7	0.009323335
29	0x3c01e53c	0.007928189
30	0x3b94006f	0.0045166533
31	0xbc93ca9e	-0.018040951
32	0x3b62fa8d	0.0034634203
33	0x3c752209	0.014961728
34	0x3c066785	0.008203392
35	0xbb411d12	-0.002946679
36	0x3c7ff3b7	0.015622071
37	0xbb2a8fad	-0.002602558
38	0xbc14fc2b	-0.009093325
39	0x3c24674a	0.010034392
40	0x3b716d8e	0.0036838981
41	0x3b44bb8e	0.0030019018
42	0x3c3f5368	0.0116776
43	0x3caad830	0.02085504
44	0x3c05a131	0.008156107
45	0x3c7d3aaa	0.015455881
46	0xbc8776ee	-0.016536202
47	0x3c90fadf	0.01769775
48	0x3c4dbae0	0.0125567615
49	0x3a11847a	0.00055510516
50	0xbc371692	-0.011174815
51	0x3bc2eb12	0.0059484327
52	0x3c6b459e	0.01435986
53	0x3c7dd44a	0.015492508
54	0xbca00779	-0.019534813
55	0x3bf42b2a	0.0074514346
56	0x3c00d0e9	0.007862308
57	0xbc0fcb26	-0.008776462
58	0xbb8d6e56	-0.0043161316
59	0x3c749fea	0.014930705
60	0x3a9509b2	0.0011370687
61	0xbafbdc76	-0.0019215483
62	0x3ba36fba	0.004987684
63	0x3cd08ad7	0.025456829
64	0x3beb0208	0.007171873
65	0x3b3e5ffe	0.0029048915
66	0xbc28a223	-0.010292563
67	0xbb220165	-0.002472007
68	0xbc3127e3	-0.010812732
69	0x3b61ff3d	0.003448441
70	0x3bb77b46	0.005599412
71	0xbc8075ea	-0.015681226
72	0x3c495ee2	0.012290688
73	0x3b941403	0.004518987
74	0x3a46ec98	0.0007588356
75	0xbc86ef6c	-0.016471587
76	0x3c04ba5e	0.008101074
77	0x390e5e6d	0.00013577352
78	0x3aedc8a1	0.0018141457
79	0xbb6ffd9a	-0.0036619664
80	0x3b80533d	0.003916173
81	0xb9de4abd	-0.00042398824
82	0x3c787695	0.015164991
83	0x3bd5e266	0.006527233
84	0xba833a49	-0.0010011877
85	0x3c6a6af8	0.01430773
86	0x3b0c202f	0.0021381488
87	0xbbdf7a08	-0.006819967
88	0x3c01afb9	0.007915431
89	0xbc8e263e	-0.01735222
90	0xbbef1040	-0.0072956383
91	0xbba79e00	-0.0051152706
92	0x3c8979b1	0.01678166
93	0x3c2a5d90	0.010398284
94	0x3c21ec9a	0.00988307
95	0xb9d0a34c	-0.00039794517
96	0x3a4fc77e	0.000792615
97	0xbc005005	-0.007831578
98	0x3c5fd942	0.013662638
99	0x3c897f5e	0.016784366
100	0x3bcdd960	0.0062820166
101	0x3be303d7	0.006927948
102	0x3cb9ad8d	0.022665763
103	0xbb480c46	-0.0030524894
104	0xbb9b99df	-0.0047485675
105	0x3b49f775	0.0030817662
106	0xbc33f1ed	-0.010982973
107	0xbc20dc57	-0.009818158
108	0xbc89643c	-0.016771428
109	0x3b6c102d	0.0036020384
110	0x3c49a836	0.012308171
111	0xbbecd8c1	-0.0072279875
112	0x3c26b148	0.010174103
113	0xbc5af9fa	-0.013365263
114	0x3b83a659	0.004017633
115	0x3b80aa0d	0.0039265216
116	0x3c16c9d1	0.00920339
117	0xbadd948e	-0.0016905235
118	0x3bead217	0.007166158
119	0x3bac464f	0.005257405
120	0x3c93e548	0.018053666
121	0xbba0c87f	-0.0049067135
122	0xbae40eb3	-0.00173994
123	0x3cb34239	0.021882163
124	0xbbc33aba	-0.0059579285
125	0xbbc9d65c	-0.006159587
126	0x3b1d391c	0.0023990339
127	0xbb75776c	-0.0037455214

action_model._discrete_distribution.branches.0.weight f4 [2, 128]
0	0x3b5c7fbf	0.0033645479
1	0x3cbed86e	0.023296561
2	0x3c8b0725	0.01697118
3	0x3c11dfeb	0.008903484
4	0x3c9a7fa0	0.018859684
5	0x3acf3f0d	0.0015811637
6	0x3beffcaa	0.007323821
7	0xbcce9977	-0.025219662
8	0xbae55788	-0.00174974
9	0x3c201dd2	0.009772735
10	0x3c9757cc	0.018474482
11	0xbb74a7ba	-0.0037331418
12	0xbcb1c535	-0.021700481
13	0xbba07cf3	-0.0048977076
14	0xbc9e672b	-0.019336304
15	0x3cae2935	0.021259883
16	0x3a26a20c	0.00063565443
17	0xbc254997	-0.010088346
18	0xba3906d8	-0.000705821
19	0xbba15977	-0.004923995
20	0x3bebb6cf	0.0071934233
21	0xbb82039d	-0.003967716
22	0xbc649a58	-0.013952814
23	0x3c2f2644	0.010690276
24	0x3b1a6a74	0.0023561986
25	0xbc88f23a	-0.016717065
26	0xbc6d7bf5	-0.014494886
27	0x3c9e1b92	0.019300256
28	0x3c8a6f77	0.016898854
29	0x3c8dedc6	0.017325293
30	0xbc41e44b	-0.011834214
31	0xbc906dfc	-0.01763057
32	0xbb4ba3e0	-0.003107302
33	0x3c31e258	0.010857187
34	0x3c62de92	0.01384701
35	0xbccc47a2	-0.024936501
36	0xbbe547b7	-0.0069970745
37	0xbc836644	-0.016039975
38	0xbc55ebad	-0.013056678
39	0x3c2f9fde	0.010719268
40	0xbcebd019	-0.028785752
41	0x3b794fd1	0.003804196
42	0x3c1f76c7	0.009732909
43	0x3b9e1f3d	0.0048255012
44	0xbc871ffa	-0.01649474
45	0x3cc4c993	0.0240219
46	0xbcaba76a	-0.020953853
47	0x3c60032b	0.01367263
48	0xbba9d72d	-0.0051831217
49	0x3c0aa386	0.008461839
50	0xbc1e6bed	-0.009669286
51	0xbbc8d77e	-0.0061292043
52	0x3d0b6c4d	0.03403883
53	0x3c9ddcce	0.019270327
54	0xbbc00714	-0.005860219
55	0x39dbca9c	0.0004192189
56	0x3b745d96	0.0037287227
57	0xbc563f65	-0.013076638
58	0x3b09b86b	0.0021014463
59	0x3b52ef7c	0.00321862
60	0x3c15c5f4	0.009141434
61	0x3bfe2180	0.0077554584
62	0xbc08d4f7	-0.008351556
63	0xbbab473e	-0.0052269986
64	0x3c991085	0.018684635
65	0x3ce65cc9	0.028120415
66	0xbc4cd24a	-0.012501309
67	0xbabc7ec1	-0.0014381037
68	0x3bc7a057	0.006092112
69	0xbc7096fd	-0.014684436
70	0x3ca19edd	0.019729072
71	0x3bf03744	0.007330807
72	0x3ca32744	0.019916184
73	0x3cc969c4	0.024586566
74	0x3c7748a9	0.015093007
75	0xbc477c36	-0.01217561
76	0x3c69d2a6	0.014271414
77	0xbcaee55d	-0.021349603
78	0x3b9e4e61	0.004831121
79	0x3b0dc446	0.002163188
80	0xbc8f78b2	-0.017513607
81	0x3c5610d1	0.013065533
82	0x3cb81213	0.022469556
83	0xbc697015	-0.014247914
84	0xbcb55481	-0.022135021
85	0x3c41f14d	0.011837316
86	0xbcf389b6	-0.029728752
87	0xba4b12d3	-0.00077466405
88	0xbc3bd655	-0.011464675
89	0xba945461	-0.0011316651
90	0xbcb64e2e	-0.022254076
91	0x3bd00572	0.0063483054
92	0xbc457315	-0.0120513635
93	0x3cc97727	0.02459295
94	0x3c20f393	0.009823698
95	0xbcf71963	-0.030163473
96	0xbb98b431	-0.0046601524
97	0x3bee95fc	0.007281063
98	0xbc8dd0b9	-0.01731144
99	0x3c4185f4	0.011811722
100	0x3c86f5d4	0.016474642
101	0x3b65c0f0	0.0035057627
102	0x3c8a5be2	0.016889516
103	0x3b409d97	0.0029390806
104	0xba802dee	-0.0009779313
105	0xbcc0ffcb	-0.023559472
106	0xbc178088	-0.009246953
107	0xbb000e3c	-0.0019539734
108	0x3b0490ab	0.002022783
109	0xbc43e6db	-0.011956896
110	0x3c68a762	0.014200063
111	0x3c29968a	0.010350833
112	0x381ba930	3.7112448e-05
113	0xbce55573	-0.027994847
114	0xbad23b19	-0.0016039341
115	0x3cd18f55	0.025581041
116	0x3c64902d	0.01395039
117	0x3c2cf9ac	0.010557573
118	0xbd10b260	-0.03532636
119	0xbbbfbd27	-0.005851406
120	0xbc6334eb	-0.013867597
121	0xbb1b07ea	-0.002365584
122	0x3b5cd223	0.0033694587
123	0xbc89951a	-0.01679473
124	0x3a3646ac	0.000695328
125	0x3c307cb9	0.010771924
126	0x3c2e7f2d	0.010650438
127	0xbc133555	-0.008984883
128	0xbbffa821	-0.007802025
129	0xbbb54004	-0.005531313
130	0xbc284292	-0.010269778
131	0xbbc5b675	-0.0060337135
132	0x3c0762bd	0.008263287
133	0xba5a1b32	-0.00083200925
134	0xbbdbbd4f	-0.006705917
135	0x3c97c50a	0.018526573
136	0xb909d434	-0.0001314439
137	0xbc5c6f00	-0.013454199
138	0xbcc18e7e	-0.023627516
139	0x3c1bee27	0.009517229
140	0x3c550012	0.013000505
141	0x3caed9f3	0.02134416
142	0x3c50a884	0.01273549
143	0xbcda1e12	-0.026625667
144	0x3c1b4f71	0.0094793895
145	0x3a98be99	0.0011653482
146	0x3c0e9c2d	0.008704227
147	0x3c24bcca	0.010054776
148	0x3ab68875	0.0013926165
149	0xbbf2dd27	-0.0074116173
150	0x3cfffe17	0.03124909
151	0xbbe76b46	-0.0070623485
152	0xbb98a01e	-0.0046577593
153	0x3c436802	0.011926653
154	0x3c6b1902	0.014349224
155	0xbb267e23	-0.0025404773
156	0xbc2f5668	-0.010701753
157	0xbc86a042	-0.016433839
158	0x3c8461fe	0.016160008
159	0x3b080dfb	0.0020760286
160	0xbc33e7d9	-0.01098057
161	0xbc13f823	-0.009031328
162	0xbccccc80	-0.024999857
163	0x3d038dc8	0.032117635
164	0x3bc1de37	0.0059163827
165	0x3c6e5cd5	0.0145485
166	0x3cbf5125	0.023354122
167	0x3c0ee350	0.008721188
168	0xba880a78	-0.0010379096
169	0x3af61a52	0.0018776155
170	0xbbfd9cb3	-0.0077396273
171	0xb9503752	-0.00019857034
172	0x3c9208b2	0.017826412
173	0xbc9da37f	-0.019243
174	0x3bf7caf7	0.007562037
175	0xbbdb329f	-0.006689384
176	0x3b4ef7c2	0.003158078
177	0x3ae5209f	0.0017481035
178	0x3c014ffa	0.007892603
179	0xbb2e430d	-0.0026590258
180	0xbccb70ee	-0.024834123
181	0xbc82e199	-0.015976714
182	0xbb667b57	-0.003516873
183	0xbc3d50ff	-0.0115549555
184	0xbc6c6a88	-0.014429696
185	0x3b863224	0.0040953327
186	0xbbb44cb3	-0.0055023073
187	0xbb4ac11d	-0.0030937858
188	0xbc0f9afe	-0.00876498
189	0xbc844561	-0.016146364
190	0x3c765708	0.015035398
191	0xbbffdafe	-0.0078080883
192	0xba923260	-0.0011153929
193	0xbc9d9a4c	-0.019238614
194	0x3c0ede5d	0.008720008
195	0xbc50bfec	-0.01274107
196	0xbc2caa68	-0.010538675
197	0xbb27011e	-0.0025482844
198	0xbb087608	-0.0020822305
199	0x3c4b0b22	0.012392791
200	0xbbb74be8	-0.0055937655
201	0xbcabcc1b	-0.020971349
202	0xbc2628fa	-0.0101416055
203	0x3c842cae	0.016134586
204	0xbbd2280a	-0.0064134644
205	0x3cc5e324	0.02415616
206	0xbb6be9bb	-0.0035997469
207	0xbc6c5306	-0.014424091
208	0x3ca3cc3e	0.019994851
209	0xbc61fd0c	-0.013793241
210	0xbc960a1e	-0.018315371
211	0xbb7cc793	-0.0038571104
212	0x3cd4edc0	0.025992274
213	0xbcc7307f	-0.024315117
214	0x3d048c43	0.032360326
215	0x3c2382bc	0.0099799
216	0x3c9ac374	0.018892027
217	0x3ba01c7f	0.0048862095
218	0xbc76501d	-0.015033749
219	0x3bce1719	0.0062893745
220	0x3ca56d19	0.020193623
221	0x3bb51ecd	0.0055273534
222	0xbc95a203	-0.01826573
223	0x3ccbb1d4	0.024865068
224	0x3bf6aa1e	0.007527604
225	0xbbc0ee6f	-0.0058877985
226	0x3ca2d5d8	0.01987736
227	0x3b737edd	0.0037154474
228	0xbc1dd37a	-0.0096329395
229	0x3c32c6dd	0.0109116705
230	0xbc8fad8e	-0.017538812
231	0xbc246c88	-0.0100356415
232	0xbc73fc82	-0.0148917455
233	0x3be9b3b5	0.0071320185
234	0x3cbb7bd5	0.022886196
235	0xbaedea3d	-0.0018151473
236	0x3c08b9e6	0.008345103
237	0x3c0c6b7a	0.008570546
238	0xbc8198cc	-0.01581993
239	0xbb38429f	-0.002811588
240	0x3b986837	0.0046510953
241	0xbb3f4db8	-0.002919061
242	0x3c1417a2	0.009038838
243	0xbc6fe9df	-0.014643162
244	0xbbbdbe36	-0.005790497
245	0xbbf4d4ed	-0.007471672
246	0x3d18aa37	0.037271705
247	0x3c24d302	0.010060074
248	0xbb1d36b0	-0.0023988895
249	0x3c89f700	0.016841412
250	0xbca33acf	-0.019925503
251	0x3ceb9db6	0.028761726
252	0xbc14faa8	-0.009092964
253	0x3c624c4a	0.013812134
254	0x38a65f00	7.933192e-05
255	0x3c3be0dd	0.011467186

action_model._discrete_distribution.branches.0.bias f4 [2]
0	0x3c1fa7c0	0.009744585
1	0xbc1fa7ba	-0.009744579

action_model._discrete_distribution.branches.1.weight f4 [3, 128]
0	0xbb1f69c1	-0.002432451
1	0xbc7f5f0c	-0.015586626
2	0x3c062556	0.0081876125
3	0xbccc83b4	-0.024965145
4	0xbc80e1ac	-0.015732609
5	0xbc0ffd46	-0.008788412
6	0x3d219ebc	0.03945802
7	0x3c9f30d2	0.019432459
8	0x3c7a69d0	0.015284017
9	0x3bedddcd	0.0072591067
10	0x3c0151d5	0.007893045
11	0x3ba1ce04	0.004937889
12	0x3cc4a02d	0.024002159
13	0xbc2aabce	-0.010416938
14	0x3c5ba15f	0.013405173
15	0xbaf331bd	-0.0018554252
16	0x3bacd531	0.005274438
17	0x3be72c80	0.0070548654
18	0xbc3b1673	-0.0114189265
19	0x3bd64f7f	0.0065402384
20	0x3ce2e3bb	0.027696481
21	0x3be520f4	0.0069924537
22	0xbc4bb1f8	-0.012432568
23	0xbbbc7e10	-0.0057523325
24	0x3acab2c1	0.001546465
25	0xb9d7c63a	-0.00041155686
26	0x3c29613a	0.010338122
27	0xbccc9eec	-0.024978124
28	0x3c8c3dcc	0.01711931
29	0x3afa2183	0.0019083474
30	0x3c5c9bb0	0.013464853
31	0x3c73dbb2	0.014883922
32	0x3b1402dd	0.0022584714
33	0xbc110988	-0.00885237
34	0x3ce49545	0.027903209
35	0x3bbf4071	0.0058365394
36	0xbb3f8182	-0.002922148
37	0xbc23c1d2	-0.009994941
38	0x3c4a83dd	0.01236054
39	0xbb1bf35f	-0.0023796184
40	0xbbb58168	-0.005539108
41	0x3bce70a8	0.0063000508
42	0xbc4413f7	-0.011967651
43	0xba0abd4d	-0.000529249
44	0x3b2b7814	0.0026164101
45	0xbbc8e73f	-0.0061310823
46	0x3ba630a3	0.005071716
47	0xbcc6a3fb	-0.024248114
48	0x3ae36f60	0.0017351918
49	0xbbdd5c6e	-0.0067554032
50	0x3ccc77e4	0.024959512
51	0xbc8ebf71	-0.01742527
52	0x3b57079f	0.003281094
53	0xbb8e697e	-0.0043460717
54	0x3cbec6a8	0.023288086
55	0xbcaff9ff	-0.021481512
56	0x3c4a4c73	0.0123473285
57	0xbb97848b	-0.0046239547
58	0xbc1aa0f7	-0.009437791
59	0xbc02012f	-0.0079348525
60	0xbc5b5391	-0.013386623
61	0x3c81df3c	0.015853517
62	0x3be316ff	0.0069302316
63	0xbc3dd9df	-0.011587589
64	0x3c9041db	0.017609527
65	0xbc22be6f	-0.009933098
66	0x3c06b902	0.00822282
67	0xbb99077a	-0.0046700807
68	0xbb5a3a13	-0.0033298775
69	0x3c932c60	0.017965496
70	0x3c50b284	0.012737874
71	0x3bc56922	0.0060244957
72	0xbcbf29d6	-0.023335379
73	0x3bab6bf7	0.0052313763
74	0x3be06163	0.006847547
75	0x3c649d4a	0.013953516
76	0x3cd4257b	0.025896778
77	0xbc1ac64c	-0.009446692
78	0xbbce888a	-0.006302898
79	0xbc55d44a	-0.013051102
80	0xbc1a8765	-0.009431695
81	0x3c788270	0.0151678175
82	0x382341ea	3.8923616e-05
83	0xbc575d64	-0.013144825
84	0x3c88a4a2	0.016680066
85	0x3c08f83e	0.008359967
86	0x3c674c90	0.014117375
87	0xbbe7610f	-0.007061131
88	0xbc24e66e	-0.010064704
89	0x3b0eb427	0.002177486
90	0x3c39e30f	0.011345639
91	0xbb086ae5	-0.0020815667
92	0xba963eb7	-0.0011462782
93	0xbc91aba6	-0.017782044
94	0xbc0f08ee	-0.008730156
95	0x3bb12018	0.005405437
96	0x3c7da9f3	0.015482414
97	0x3c9a19d3	0.018811142
98	0xbc1db816	-0.009626409
99	0xbcb1d93f	-0.021710036
100	0x3c24d8b0	0.010061428
101	0xbcf561aa	-0.029953796
102	0xbcf534a9	-0.029932337
103	0x3d0473f9	0.032337163
104	0x3b155578	0.002278654
105	0x3b91dde6	0.004451501
106	0x3bbed683	0.0058239116
107	0x3b9aa221	0.0047190343
108	0x3c57cdae	0.013171596
109	0xba03571b	-0.0005010233
110	0xbb612c61	-0.0034358727
111	0xbb2234c5	-0.0024750691
112	0xbccd0157	-0.025025053
113	0x3a8d1308	0.0010763118
114	0xbc60ee9e	-0.013728766
115	0x3c98a7c5	0.018634686
116	0xbcdd9a79	-0.027051197
117	0x3b8215f8	0.003969904
118	0xbcf1c5a2	-0.029513184
119	0xbb158706	-0.0022816076
120	0xbca509be	-0.020146247
121	0x3c0569ba	0.008142883
122	0x37f8bd85	2.9652156e-05
123	0xbc030b77	-0.007998339
124	0x3cb52203	0.022110945
125	0x3cba3a6a	0.022732932
126	0xbb94b27c	-0.0045378786
127	0xbc5a9d9e	-0.013343243
128	0x3c26b5a9	0.010175147
129	0x3a1fc6b4	0.0006094978
130	0xbc9e5410	-0.019327193
131	0x3ce9a1bb	0.028519502
132	0x3cb6d242	0.022317056
133	0xbc3c3d32	-0.0114891995
134	0xbd41edc1	-0.04734588
135	0xbc937e16	-0.018004458
136	0x3c19bffd	0.0093841525
137	0x3c4fdd88	0.0126870945
138	0xba8d89d0	-0.0010798518
139	0x3cbb670e	0.022876289
140	0xbc8cb64d	-0.017176772
141	0xbc6a552a	-0.014302531
142	0x3b1cd410	0.002393011
143	0xbaead078	-0.0017914912
144	0xbb026c70	-0.001990106
145	0xbc1ae2c9	-0.009453484
146	0x3c0b8608	0.008515842
147	0x3a8cb97a	0.0010736429
148	0xbbc878f4	-0.0061179344
149	0xbc32408b	-0.010879646
150	0x3ce86685	0.028369198
151	0xbc96ce99	-0.01840906
152	0x3c135e56	0.008994659
153	0xbc70edab	-0.014705102
154	0xbb85f32f	-0.0040878276
155	0xbb2c2947	-0.002626972
156	0xbbd9f82b	-0.0066518984
157	0x3b9ff3cb	0.0048813573
158	0xbd29a8e5	-0.041420836
159	0xbb394c56	-0.002827426
160	0x3b859eb4	0.004077757
161	0x3ca6e823	0.020374363
162	0xbc44f0c0	-0.01202029
163	0x3c7e6047	0.015525884
164	0xbc660055	-0.014038165
165	0x3c919c78	0.017774805
166	0xba30ce9d	-0.0006744655
167	0xbcefdfcc	-0.02928152
168	0xbbce97d1	-0.006304719
169	0xbbf221f0	-0.0073892996
170	0x3cd67208	0.026177421
171	0xbd33b1c4	-0.043870702
172	0xbcbde28f	-0.02317932
173	0x3cd41dcc	0.025893115
174	0x3babb3f2	0.005239957
175	0x3c079d57	0.008277259
176	0xbc1933dc	-0.009350743
177	0x3c84fbef	0.016233413
178	0xbc843df7	-0.016142828
179	0x3b45b444	0.003016726
180	0x3c035f28	0.0080182925
181	0x3bcfdacf	0.0063432227
182	0xbc225a4d	-0.009909225
183	0xbb1066b0	-0.0022033863
184	0xbc18362d	-0.00929026
185	0xba3538f5	-0.00069130893
186	0x3c8c5f0b	0.017135164
187	0x3c2eaaed	0.010660869
188	0xb8320f45	-4.2452728e-05
189	0x3cb25bf2	0.021772359
190	0xbc94a4f4	-0.018145062
191	0x3ca62783	0.020282513
192	0xbcd18fd7	-0.025581283
193	0xbc41909d	-0.011814264
194	0x3cacc70d	0.021091009
195	0x3cb9fd11	0.02270368
196	0x3c57c1e4	0.013168786
197	0xbceaa872	-0.028644774
198	0xbcc05d7b	-0.023482075
199	0x3aea4d44	0.001787581
200	0xbc3ae8c0	-0.011408031
201	0x3bb57ca8	0.005538542
202	0x3c3a68b6	0.011377504
203	0x3bfc0076	0.0076904846
204	0xbcf4895e	-0.029850658
205	0xbd14d94e	-0.03634005
206	0x3cf46276	0.029832106
207	0xbca6178d	-0.020274902
208	0x3bc95920	0.0061446577
209	0x3cc5e3c8	0.024156466
210	0x3cb3310c	0.021873973
211	0x3ccb6268	0.024827197
212	0xbc8187ae	-0.015811767
213	0xbca7240a	-0.020402927
214	0xbcc85401	-0.024454119
215	0x3c387de0	0.01126048
216	0x3c35dcdd	0.011100021
217	0x3c4ba02c	0.012428325
218	0x38df5c66	0.00010650679
219	0x38eb6461	0.0001122437
220	0xbca8ece6	-0.020620774
221	0xbc70df3a	-0.014701659
222	0x3a87adc0	0.0010351464
223	0xbaf25089	-0.0018487136
224	0xb92b4e56	-0.00016337013
225	0x3c5bde1b	0.013419653
226	0xbc80441d	-0.015657479
227	0xbc21c258	-0.009872995
228	0x3b0083dc	0.0019609844
229	0x3cfe4074	0.031036593
230	0x3bbecb98	0.00582261
231	0xb9c9bdf7	-0.00038479242
232	0x3a83c4fe	0.0010053215
233	0x3bce63a1	0.006298498
234	0x3c823da6	0.015898537
235	0xbb9b35f1	-0.004736655
236	0xbac3a9ee	-0.0014927962
237	0xbc232f04	-0.00995994
238	0x3b85df9e	0.004085495
239	0x3b5815c6	0.0032971962
240	0x3c9c3a2b	0.019070705
241	0xbc95f840	-0.018306851
242	0xbc0f01cb	-0.008728455
243	0xbc630bbc	-0.013857778
244	0x3cb90e6c	0.022589885
245	0xbc1a5c27	-0.009421385
246	0x3ca53584	0.02016712
247	0xbc1d81e0	-0.009613484
248	0xbc0398a6	-0.008032
249	0xbb7e5487	-0.0038807706
250	0x3c956da8	0.018240765
251	0xbd1ae9c7	-0.037820604
252	0x3c1a7938	0.009428315
253	0x3a63d1c3	0.000869062
254	0xbba2177e	-0.004946648
255	0x3c9a6967	0.018849088

action_model._discrete_distribution.branches.1.bias f4 [3]
0	0xbc4eff48	-0.012634106
1	0xba975584	-0.0011545871
2	0x3c5836d3	0.013196665

action_model._discrete_distribution.branches.2.weight f4 [1, 128]
0	0x3bb698f0	0.005572431
1	0xbbaf649d	-0.00535257
2	0xbaf4daff	-0.0018680989
3	0x3bb21817	0.0054350006
4	0xbbe3dd8a	-0.0069538997
5	0xbb6f5e90	-0.003652487
6	0x3c9ed263	0.01938743
7	0xbb868b93	-0.004105994
8	0xbb1c5be0	-0.0023858473
9	0x3bbc12ed	0.005739561
10	0x3bcbc61a	0.006218684
11	0x3ca89313	0.020577943
12	0x3abc0d75	0.0014347272
13	0xb9d5fe9b	-0.00040816222
14	0x3c0092a7	0.007847465
15	0xba1eb207	-0.000605375
16	0x3b0fdde3	0.0021952323
17	0x3b0f123c	0.0021830937
18	0xbc7565f8	-0.0149779245
19	0xbc518273	-0.012787449
20	0x3c307ad1	0.010771469
21	0xbc080806	-0.008302694
22	0x3bc23413	0.005926618
23	0xbc512ef0	-0.012767538
24	0x3bafa6a3	0.005360441
25	0x3b9fb145	0.004873427
26	0xbc009717	-0.007848523
27	0x3bfedc8f	0.0077777575
28	0xbbb3f8d7	-0.0054923105
29	0x3b413adf	0.0029484553
30	0x3ba9f2e9	0.005186428
31	0xbbe1856a	-0.0068823593
32	0x3ae1649b	0.001719612
33	0x3ae4e408	0.0017462978
34	0x3c3f8fc9	0.011691996
35	0xbac40021	-0.0014953652
36	0xbbceffba	-0.006317106
37	0x3b80d4c5	0.003931614
38	0x3cb21793	0.021739757
39	0x3c613113	0.01374461
40	0xbc001092	-0.007816451
41	0x3c0e9ed7	0.008704863
42	0xbc154ece	-0.009113027
43	0xbbe51e2f	-0.0069921236
44	0xbc184c8b	-0.009295593
45	0x3b6e6845	0.0036378067
46	0x39ff63d8	0.0004871178
47	0xbb47aca0	-0.0030467883
48	0xbb90a507	-0.004414204
49	0xbac0bfe7	-0.0014705629
50	0xbc332112	-0.010933178
51	0xbbf39dc7	-0.00743458
52	0xbb11b325	-0.0022232023
53	0xb9b096cb	-0.00033681685
54	0xbc47db4b	-0.01219828
55	0x3bc3b9bc	0.005973069
56	0x3ba823f7	0.0051312405
57	0xbc98e2fe	-0.018662926
58	0xbc210a3c	-0.0098291
59	0xbb84d3dc	-0.004053576
60	0xbc1f8cf7	-0.0097381985
61	0xba7ea062	-0.000971323
62	0xbbf5313b	-0.0074826754
63	0x3b633c25	0.00346733
64	0x3c0a928e	0.008457793
65	0x3b44d5d8	0.0030034687
66	0xbc24c462	-0.010056587
67	0x3c8575fb	0.016291609
68	0xbbe6af03	-0.007039906
69	0x3c2ce0bd	0.010551629
70	0x3b8ef3c3	0.0043625548
71	0x3a092abf	0.0005232505
72	0xbc132037	-0.008979849
73	0xbc4d2115	-0.012520094
74	0xbc532233	-0.012886572
75	0xbab7a5d2	-0.001401121
76	0xbc5a61a7	-0.013328946
77	0xbb6651cd	-0.0035143972
78	0xbc800864	-0.015629001
79	0x3b2e756c	0.0026620282
80	0x3baf47e1	0.005349145
81	0xbbe738f7	-0.0070563513
82	0x3bb2a34b	0.005451595
83	0x3cb009b9	0.021489011
84	0xbba110f6	-0.004915352
85	0xbbfeb960	-0.0077735633
86	0xbc505b0a	-0.012717018
87	0xbc86be9e	-0.016448315
88	0xbc2d6026	-0.010582006
89	0x3bb55a00	0.0055344105
90	0x3b7f6d1d	0.0038974949
91	0xbb8574b5	-0.0040727505
92	0xba0a04df	-0.0005265008
93	0xbb7555ba	-0.003743513
94	0x3b0e3fa1	0.0021705406
95	0xbc29491e	-0.010332374
96	0x3ba8e729	0.0051545096
97	0x3c17f9da	0.009275878
98	0x3a72e8d5	0.0009266262
99	0x3a328d2d	0.0006811198
100	0x39ea6da5	0.0004471365
101	0xbc43620b	-0.011925231
102	0x3c5015b2	0.012700485
103	0xba80e6af	-0.0009834374
104	0xbb88e65b	-0.004177851
105	0xbc967f2d	-0.018371189
106	0x3b436920	0.0029817298
107	0x3b9705ab	0.00460883
108	0xbb438fd8	-0.0029840376
109	0xbc0ebe90	-0.008712426
110	0xbca448eb	-0.020054301
111	0x3c4436af	0.011975928
112	0xbb6add00	-0.0035837293
113	0xbb156495	-0.0022795547
114	0xbbfd859b	-0.0077368743
115	0x3c0e8694	0.008699078
116	0xbb334e03	-0.002735973
117	0x3bed8d0d	0.0072494806
118	0xbbf47d20	-0.007461205
119	0x3c7d0515	0.015443106
120	0xbb059cf3	-0.0020387738
121	0xbbf03083	-0.007330002
122	0x3c9ae52e	0.01890811
123	0x3c0adef9	0.008476012
124	0x3bcab7d8	0.0061864667
125	0x3b3cb69b	0.0028795365
126	0x3963ce57	0.00021725275
127	0xbc17b612	-0.009259718

94 f4 [210]
0	0x3ef8d5c4	0.4860059
1	0x3ebdd59a	0.37077028
2	0x3e0022ea	0.12513319
3	0x3d93e584	0.07221511
4	0x3da6de42	0.08147861
5	0x3da4f4c8	0.08054501
6	0x3d56dbc7	0.05245569
7	0x3da7a06f	0.08184897
8	0x3db077cd	0.086166
9	0x3d64b134	0.055833057
10	0x3d2c9140	0.04213071
11	0x3d380fca	0.044936933
12	0x3e16f596	0.14742121
13	0x3e69feab	0.22851054
14	0x3ef95872	0.4870029
15	0x3ebd6840	0.369936
16	0x3de4b667	0.11167603
17	0x3d99cc6d	0.07509694
18	0x3da3cc48	0.07997948
19	0x3daa4114	0.08313194
20	0x3d7b0d4a	0.06129197
21	0x3dadefe2	0.0849302
22	0x3da8c207	0.08240133
23	0x3d82ff1e	0.06396316
24	0x3d7f15f0	0.06227678
25	0x3d55aa2f	0.052164253
26	0x3e0f1b1d	0.13975187
27	0x3e6ac860	0.22928
28	0x3ef7082d	0.48248425
29	0x3ebd4007	0.3696291
30	0x3e030440	0.1279459
31	0x3d99cc6c	0.075096935
32	0x3dc13b0a	0.09435089
33	0x3d9b088a	0.07569988
34	0x3d6b4cf4	0.057446435
35	0x3d892d24	0.06698063
36	0x3daaff50	0.08349478
37	0x3d5939dd	0.0530337
38	0x3d442eed	0.047896314
39	0x3d33d68d	0.043905783
40	0x3e0f6dd7	0.14006744
41	0x3e68d33a	0.22736827
42	0x3ef81727	0.48455164
43	0x3eba71f4	0.36415064
44	0x3ddae6ac	0.106885284
45	0x3d9f7a35	0.07786981
46	0x3d9de04e	0.07708798
47	0x3d8bef56	0.06832759
48	0x3d6a3658	0.057180732
49	0x3da3cc48	0.07997948
50	0x3d9bd9db	0.07609912
51	0x3d7e1554	0.06203206
52	0x3d8204ef	0.06348597
53	0x3d55aa31	0.05216426
54	0x3e184693	0.14870672
55	0x3e6cd99b	0.23129885
56	0x3ef53577	0.47892353
57	0x3ebaf5e9	0.3651574
58	0x3dfa5eed	0.12225137
59	0x3d9299a9	0.071582146
60	0x3daaff50	0.08349478
61	0x3d8ea3a1	0.069648035
62	0x3d5b9156	0.0536054
63	0x3d6b4cf2	0.057446428
64	0x3d974c43	0.07387593
65	0x3d520ae2	0.05127991
66	0x3d5f089f	0.05445158
67	0x3d2369b6	0.039895736
68	0x3e142f33	0.1447113
69	0x3e6cf76f	0.23141263
70	0x3ef4b2ce	0.47792667
71	0x3eb8906a	0.3604768
72	0x3dc38109	0.09546096
73	0x3d93089e	0.07179378
74	0x3d9b0889	0.07569987
75	0x3d639264	0.05555953
76	0x3d4f9799	0.050681684
77	0x3d9de04e	0.07708798
78	0x3d952e6d	0.07284246
79	0x3d77fb9a	0.06054268
80	0x3d8f8770	0.070082545
81	0x3d5341c6	0.0515764
82	0x3e1c8b1e	0.15287444
83	0x3e744c8c	0.23857325
84	0x3ef056ce	0.46941227
85	0x3eb6f72d	0.35735455
86	0x3dda9d2b	0.10674509
87	0x3d93e584	0.07221511
88	0x3d9fe009	0.07806403
89	0x3d691e6e	0.056913786
90	0x3d5939db	0.05303369
91	0x3d639265	0.055559535
92	0x3d8ea39f	0.06964802
93	0x3d33d68e	0.043905787
94	0x3d828244	0.063725024
95	0x3d0f5958	0.034997314
96	0x3e1edee0	0.15514708
97	0x3e77cbcc	0.24198836
98	0x3eebb2ca	0.46034843
99	0x3eb83f29	0.35985687
100	0x3da3cc47	0.07997947
101	0x3d8c63ac	0.068549484
102	0x3d8a1a24	0.06743267
103	0x3d61507a	0.05500839
104	0x3d5de26c	0.05417101
105	0x3d9a9f74	0.075499445
106	0x3d837b80	0.0642004
107	0x3d5939dd	0.0530337
108	0x3d8204f0	0.06348598
109	0x3d55aa2f	0.052164253
110	0x3e201d95	0.15636285
111	0x3e782635	0.24233325
112	0x3ee46e46	0.44615382
113	0x3eb9c359	0.3628185
114	0x3de69f49	0.1126085
115	0x3d892d25	0.06698064
116	0x3d967477	0.07346433
117	0x3d639265	0.055559535
118	0x3d5b9159	0.05360541
119	0x3d5476dd	0.05187117
120	0x3d85e285	0.06537346
121	0x3d2e0bc8	0.042491704
122	0x3d8b0586	0.06788163
123	0x3d280d8c	0.041028544
124	0x3e24e62b	0.16103427
125	0x3e7924bd	0.24330421
126	0x3ed8bc27	0.4233105
127	0x3ebe7c38	0.37204146
128	0x3d96e085	0.073670425
129	0x3d914aca	0.07094343
130	0x3d8f15b7	0.06986564
131	0x3d7d13b3	0.061786365
132	0x3d5b9156	0.0536054
133	0x3d8dbe5d	0.069210745
134	0x3d68052c	0.056645557
135	0x3d4f9799	0.050681684
136	0x3d84eddd	0.06490681
137	0x3d6f9a86	0.058496974
138	0x3e21a21a	0.15784493
139	0x3e7dad77	0.24773203
140	0x3ecc40a1	0.39893058
141	0x3ebf3aa0	0.37349415
142	0x3de429ef	0.11140811
143	0x3d8b0586	0.06788163
144	0x3d8b0586	0.06788163
145	0x3d5cbaaa	0.053888954
146	0x3d5de26a	0.054171003
147	0x3d680529	0.056645546
148	0x3d639265	0.055559535
149	0x3d3d8bad	0.046275783
150	0x3d967477	0.07346433
151	0x3d3972b0	0.04527539
152	0x3e24fdc8	0.16112435
153	0x3e7af034	0.24505693
154	0x3ec03715	0.37542024
155	0x3ec23512	0.37931114
156	0x3d9a3615	0.075298466
157	0x3d9e472e	0.0772842
158	0x3d967478	0.073464334
159	0x3d76f382	0.06029082
160	0x3d5476dc	0.051871166
161	0x3d89a3d8	0.06720704
162	0x3d418e48	0.04725483
163	0x3d55aa30	0.052164257
164	0x3d6d7646	0.057974122
165	0x3d65ce93	0.056105208
166	0x3e2e49d7	0.17020355
167	0x3e847c21	0.25875953
168	0x3eaeabe2	0.3411551
169	0x3ec60d4d	0.38682023
170	0x3dd21bcd	0.10259209
171	0x3d7e1556	0.062032066
172	0x3d88b608	0.06675345
173	0x3d480f2d	0.048842598
174	0x3d457bda	0.048213817
175	0x3d6a3659	0.057180736
176	0x3d5476df	0.051871177
177	0x3d442eeb	0.047896307
178	0x3d97b7b6	0.07408087
179	0x3d5341c5	0.051576395
180	0x3e29ccff	0.16582106
181	0x3e80d978	0.25165915
182	0x3eaaf75d	0.33391848
183	0x3ec3d5fa	0.3824919
184	0x3d9b7157	0.07589977
185	0x3d98f83a	0.074692205
186	0x3d99627a	0.07489486
187	0x3d5939dd	0.0530337
188	0x3d50d22d	0.05098169
189	0x3d883e82	0.066525474
190	0x3d580ba9	0.052745495
191	0x3d627229	0.055284653
192	0x3d7a087a	0.06104324
193	0x3d627229	0.055284653
194	0x3e309cbd	0.17247291
195	0x3e845ea4	0.25853455
196	0x3e96ac7f	0.2942848
197	0x3ec550d1	0.3853822
198	0x3dc7a7a5	0.097487725
199	0x3d8e312e	0.06942974
200	0x3d93773a	0.07200475
201	0x3d3d8bae	0.046275787
202	0x3d380fca	0.044936933
203	0x3d4a9a07	0.0494633
204	0x3d55aa32	0.052164264
205	0x3d4d1cbe	0.05007624
206	0x3d8dbe5d	0.069210745
207	0x3d5939db	0.05303369
208	0x3e3a38fa	0.18185797
209	0x3e86b681	0.26311114

97 f4 [9]
0	0x41edd0c3	29.726934
1	0x42c5ada6	98.83916
2	0x3ea94eac	0.33067834
3	0x41edf67a	29.74535
4	0x42c5b6d9	98.857124
5	0x3eaa1664	0.33220208
6	0x41ee25c7	29.768446
7	0x42c5bfc6	98.87456
8	0x3eaadc7a	0.33371335
