Assets/ZooheimTest/Models/run2/RabbitBehavior.onnx (onnx, 405109 bytes, 14 tensors)

discrete_act_size_vector f4 [1, 3]
2.0 3.0 1.0
00000000: 0000 0040 0000 4040 0000 803f

network_body.observation_encoder.processors.0.normalizer.running_mean f4 [630]
0.03414979 0.6073459 0.107156396 0.0038856827 0.0016743193 0.0008424244 0.0013794699 0.0015690154
0.216303 0.4513973 0.032264836 0.6040186 0.10640877 0.0038856822 0.001453182 0.0006634093
0.0016216672 0.001305758 0.22310558 0.45176193 0.034339342 0.6049451 0.10658779 0.003517123
0.0016216666 0.00095825753 0.0012425762 0.0014215912 0.21679792 0.4451425 0.035202824 0.5938462
0.10854638 0.00415947 0.001484773 0.000821364 0.002000758 0.0012320458 0.22575918 0.45547298
0.032170087 0.59798443 0.10985219 0.0034328788 0.0017901517 0.0009477277 0.0012741673 0.0012741671
0.22164188 0.4481351 0.03802494 0.5924035 0.10869383 0.0036224246 0.0013689398 0.0012741669
0.001684849 0.0012004551 0.22453769 0.4534553 0.037140388 0.5992797 0.10668257 0.0027694704
0.0020639396 0.0008529547 0.0012636369 0.001453182 0.21969374 0.44869906 0.037803803 0.6040605
0.1102102 0.00413841 0.0012741672 0.0011372732 0.0018112126 0.0007792424 0.21352306 0.4498662
0.03639274 0.60144895 0.11611768 0.0021692428 0.0018638638 0.001116213 0.0017375009 0.0018533341
0.20943727 0.44547996 0.041752677 0.6055873 0.112663746 0.003938335 0.0013057578 0.0008529548
0.0018638639 0.0009477274 0.20617284 0.44794425 0.039414946 0.6069143 0.12318353 0.0024325014
0.0014742434 0.0013794702 0.0019059853 0.0021271217 0.19109344 0.437349 0.042921524 0.6184449
0.11828694 0.0038540938 0.0016006065 0.0010214398 0.001663788 0.0010846218 0.18520702 0.44188967
0.041352514 0.60221785 0.1265321 0.0029168944 0.0014426518 0.001442652 0.0024535619 0.0020744698
0.18609159 0.44201866 0.043163743 0.61640215 0.12052993 0.003253864 0.001484773 0.0010109093
0.0017585611 0.0013900006 0.18202685 0.44248056 0.04085759 0.6013856 0.13520913 0.0033275767
0.0018006826 0.0012741666 0.0024009102 0.0019270465 0.17756206 0.44010517 0.045132905 0.6047026
0.12975444 0.0033591685 0.0014005309 0.0011478037 0.0018428036 0.0016006066 0.18231116 0.44629604
0.04352175 0.5957836 0.13705198 0.0027800007 0.0022745458 0.0012109852 0.0020744703 0.0020007577
0.1791837 0.44491455 0.047007307 0.6062719 0.13462996 0.0037066694 0.00136894 0.0012741671
0.0024114398 0.0014742427 0.1740239 0.4515874 0.044890698 0.59154004 0.1449181 0.0032854558
0.0022429544 0.0011899245 0.0026115165 0.0017375008 0.17427659 0.45031697 0.050082125 0.58874935
0.13922119 0.0036118962 0.001653258 0.0014637124 0.0024325002 0.001842804 0.18178463 0.4583065
0.046375465 0.5784506 0.14295945 0.004433259 0.0022429542 0.0012952276 0.0027589404 0.0018322733
0.18595463 0.46244064 0.03419192 0.60846215 0.10741966 0.0038962143 0.0016848486 0.0008424244
0.0013794699 0.0015690154 0.21685067 0.45236167 0.032317504 0.6052188 0.106598295 0.003896213
0.0014637124 0.0006634093 0.0016321976 0.001305758 0.22358999 0.45273194 0.03439199 0.6060086
0.10687207 0.003527652 0.0016321978 0.00095825753 0.0012425762 0.0014215913 0.21735601 0.44611067
0.035276517 0.59497267 0.10880966 0.004170001 0.001484773 0.000821364 0.002011289 0.0012320458
0.22623307 0.456423 0.032222737 0.59914285 0.11006275 0.00344341 0.0018006829 0.0009477277
00000000: a6e0 0b3d 057b 1b3f d074 db3d f0a6 7e3b
00000010: d574 db3a 25d6 5c3a 54cf b43a 6ca7 cd3a
00000020: 897e 5d3e 8c1d e73e 2228 043d f7a0 1a3f
00000030: d7ec d93d eea6 7e3b b278 be3a a5e8 2d3a
00000040: 1f8e d43a f825 ab3a ca75 643e 574d e73e
00000050: 69a7 0c3d afdd 1a3f b34a da3d 887f 663b
00000060: 1a8e d43a 9333 7b3a f0dd a23a af54 ba3a
00000070: 4600 5e3e b8e9 e33e d630 103d 4e06 183f
00000080: 914d de3d 2a4c 883b b79c c23a ce50 573a
00000090: 261f 033b 997c a13a 6a2d 673e c133 e93e
000000a0: c8c4 033d 8215 193f 2ffa e03d 26fa 603b
000000b0: 86a3 ea3a ee70 783a f601 a73a f401 a73a
000000c0: 17f6 623e f771 e53e 0ac0 1b3d c1a7 173f
000000d0: df9a de3d 3366 6d3b ff6d b33a f201 a73a
000000e0: 27d6 dc3a 9758 9d3a 35ed 653e 4b2b e83e
000000f0: 8520 183d 656a 193f 647c da3d 0180 353b
00000100: 2943 073b d298 5f3a 9ea0 a53a b278 be3a
00000110: 65f7 603e e2bb e53e 29d8 1a3d b5a3 1a3f
00000120: e3b5 e13d 809b 873b f501 a73a 8e10 953a
00000130: 3666 ed3a 1246 4c3a caa5 5a3e dd54 e63e
00000140: 8e10 153d 8ff8 193f 1bcf ed3d db29 0e3b
00000150: e44c f43a e54d 923a dbbc e33a 93eb f23a
00000160: b976 563e f315 e43e db04 2b3d c507 1b3f
00000170: 40bc e63d 260d 813b f625 ab3a d498 5f3a
00000180: e54c f43a e970 783a f91e 533e f358 e53e
00000190: 9171 213d bc5e 1b3f a647 fc3d 9a6a 1f3b
000001a0: 663b c13a 57cf b43a 41d2 f93a 2e67 0b3b
000001b0: 00ae 433e 35ec df3e 7bce 2f3d 6852 1e3f
000001c0: 6c40 f23d f794 7c3b 71cb d13a d5e1 853a
000001d0: 7613 da3a de29 8e3a e9a6 3d3e 5d3f e23e
000001e0: 4161 293d f32a 1a3f a191 013e 5e29 3f3b
000001f0: 5d17 bd3a 5e17 bd3a f0cb 203b d4f3 073b
00000200: cb8e 3e3e 4550 e23e 77cc 303d 88cc 1d3f
00000210: 65d8 f63d c73e 553b b79c c23a 7d80 843a
00000220: 857f e63a ae30 b63a 3f65 3a3e d08c e23e
00000230: 4a5a 273d 68f4 193f 4374 0a3e 7913 5a3b
00000240: e204 ec3a f001 a73a 9758 1d3b f394 fc3a
00000250: d4d2 353e 7755 e13e 48dd 383d cacd 1a3f
00000260: 59de 043e 7f25 5c3b 0592 b73a e771 963a
00000270: 3a8a f13a 72cb d13a c7af 3a3e ea80 e43e
00000280: dd43 323d 4685 183f 5b57 0c3e ac30 363b
00000290: 8c10 153b ecb9 9e3a d6f3 073b 251f 033b
000002a0: ef7b 373e d7cb e33e bc8a 403d a334 1b3f
000002b0: 70dc 093e 98eb 723b 016e b33a f401 a73a
000002c0: 3f09 1e3b 603b c13a 5233 323e 7736 e73e
000002d0: 4fdf 373d 2b6f 173f 6965 143e cd50 573b
000002e0: 88fe 123b 3ef7 9b3a fa25 2b3b dabc e33a
000002f0: 9075 323e f28f e63e ea22 4d3d 47b8 163f
00000300: 0090 0e3e 90b5 6c3b 22b2 d83a 0ada bf3a
00000310: 956a 1f3b 3e8a f13a c025 3a3e 26a7 ea3e
00000320: 33f4 3d3d 5715 143f f663 123e df44 913b
00000330: 87fe 123b a0c4 a93a 57cf 343b e428 f03a
00000340: e46a 3e3e 05c5 ec3e d40c 0c3d 2dc4 1b3f
00000350: d7fe db3d a157 7f3b 23d6 dc3a 25d6 5c3a
00000360: 54cf b43a 6ca7 cd3a 1a0e 5e3e f39b e73e
00000370: 5c5f 043d 9fef 1a3f 3550 da3d 9b57 7f3b
00000380: 0ada bf3a a5e8 2d3a 77ef d53a f825 ab3a
00000390: c6f4 643e 7bcc e73e 9ede 0c3d 6123 1b3f
000003a0: bedf da3d 2e30 673b 78ef d53a 9333 7b3a
000003b0: f0dd a23a b054 ba3a 9392 5e3e 9e68 e43e
000003c0: 1c7e 103d 2150 183f 99d7 de3d 81a4 883b
000003d0: b79c c23a ce50 573a d4cf 033b 997c a13a
000003e0: a4a9 673e 47b0 e93e fdfb 033d 6d61 193f
000003f0: 9468 e13d d5aa 613b e404 ec3a ee70 783a

network_body.observation_encoder.processors.1.normalizer.running_mean f4 [6]
48.574005 119.0079 48.626537 119.224976 48.6769 119.44323
00000000: c84b 4242 0b04 ee42 9381 4242 3073 ee42
00000010: 25b5 4242 efe2 ee42

network_body._body_endoder.seq_layers.0.weight f4 [128, 636]
0.006009314 0.029856844 0.04196322 -0.06403556 -0.06022945 -0.074049465 -0.020276193 0.026853852
-0.040732194 0.0117953345 0.054625522 0.00017557689 0.015662903 0.05172058 0.01816379 -0.01380788
0.01712443 -0.0817093 0.04956662 0.04425863 0.047281 -0.0393325 -0.0012996565 0.0042688553
-0.022682091 -0.05923907 -0.044268724 0.029444385 -0.08059436 0.0009007253 0.082891576 -0.043807887
0.07468293 0.07040588 -0.007360105 -0.06958158 0.039403923 0.019683218 -0.05011265 -0.019632647
-0.008824606 -0.040815707 -0.0030750844 -0.017226648 0.0016062557 -0.08063185 0.012151267 0.06050321
0.018295327 -0.03798862 -0.04670416 0.114602044 -0.0029877038 0.03719522 -0.047404807 -0.032403484
-0.06639103 0.04098627 0.037116457 -0.01979669 0.0035915705 -0.0073506245 0.0808349 -0.08762872
0.05764494 0.04859398 -0.009240414 0.08066664 -0.065237924 0.021450859 0.017135788 0.025073646
-0.0057269908 0.022726469 0.03912123 -0.0020177274 0.0060672425 -0.06193521 0.030342868 0.0047672656
-0.077972904 -0.010024241 0.097005405 -0.042536687 0.04967282 0.005524014 -0.0115929665 -0.04495517
0.035369787 0.041390028 -0.049539976 0.005234865 -0.033617605 -0.015792599 -0.054656424 -0.018394785
0.07266202 0.10789243 -0.07355779 0.023377623 -0.03927982 -0.051557694 0.046239983 0.008684572
-0.00090286706 0.021389304 0.032497637 0.018093508 0.054741394 0.024394486 0.019880861 -0.024609491
-0.015108086 0.04127783 0.039811168 0.05045144 -0.031997275 0.066753 -0.025796266 0.041250285
0.04949435 -0.012144783 0.045699984 -0.07110061 0.011434988 -0.0009784496 -0.050389327 0.012295763
-0.025334211 0.034471404 -0.05831005 0.0010729034 -0.022842284 0.04281222 -0.076940745 -0.030445147
-0.05317507 0.005115326 0.047739882 -0.00445315 -0.04846341 -0.03737291 0.07863988 0.07974089
-0.028532991 0.02077297 -0.059107184 -0.0028351997 0.07528044 0.010028537 -0.008580691 0.037637338
-0.01860001 -0.026284352 -0.019665373 0.0089560775 -0.0040706787 -0.086888835 -0.0030287947 -0.012273189
-0.039491437 0.012613352 0.027717248 0.024664849 0.027781365 -0.00607619 0.014886541 0.020675812
0.011156395 0.030239865 0.0047114645 0.012148972 -0.04893019 0.06829717 0.031616688 0.049730256
0.01272635 -0.028626805 -0.008512327 0.068545096 0.006374263 -0.012771809 -0.042493913 -0.010481632
0.028467104 -0.039141137 -0.07209486 0.073113054 0.0922053 0.028437883 -0.015591541 -0.0033929646
-0.03813511 0.030252961 0.027281065 0.100609675 0.020628968 -0.043652244 -0.019849312 -0.035482228
-0.007933062 0.026199117 -0.015618918 0.00033522162 0.06105163 -0.014568534 0.024818186 0.04999399
-0.03966576 -0.06657133 0.12006452 -0.0151350405 0.010855799 0.033553373 0.024952289 0.018429104
0.060365826 -0.0070862616 -0.0417743 -0.068921365 0.13150962 -0.0113576315 -0.00745422 -0.02348815
0.041060664 0.013700973 0.03298843 0.074156046 -0.0008800575 0.096528545 -0.03808018 0.01616407
0.06556082 0.047523104 -0.023328893 -0.06007503 -0.037157618 0.025459081 0.02377404 0.067916684
-0.06451909 -0.094973154 0.06660676 -0.10591563 -0.02961205 0.0028575524 0.02180312 0.008543837
-0.0019887807 0.023873793 -0.01709913 -0.08061921 -0.0478732 -0.0015286761 -0.01462882 -0.024076315
00000000: c8e9 c43b 5796 f43c a0e1 2b3d 1325 83bd
00000010: 28b3 76bd 3fa7 97bd 421a a6bc 9cfc db3c
00000020: cdd6 26bd 3841 413c 03bf 5f3d 101b 3839
00000030: 7d4f 803c f5d8 533d 3bcc 943c 723a 62bc
00000040: 8848 8c3c 3557 a7bd 5e06 4b3d 8a48 353d
00000050: b9a9 413d 1e1b 21bd 3c59 aaba c1e1 8b3b
00000060: cbcf b9bc aba4 72bd 1f53 35bd 5a35 f13c
00000070: a80e a5bd a71e 6c3a 0fc3 a93d e66f 33bd
00000080: 5df3 983d f530 903d 092d f1bb ca80 8ebd
00000090: 0266 213d b33e a13c ec42 4dbd a5d4 a0bc
000000a0: 1595 10bc 5f2e 27bd 5b87 49bb e61e 8dbc
000000b0: ff88 d23a 5022 a5bd 1c16 473c 37d2 773d
000000c0: 15e0 953c f599 1bbd dc4c 3fbd 7ab4 ea3d
000000d0: 5acd 43bb 045a 183d 8b2b 42bd 84b9 04bd
000000e0: 05f8 87bd 38e1 273d 6d07 183d ab2c a2bc
000000f0: 8e60 6b3b 82dd f0bb c58c a53d b076 b3bd
00000100: 1a1d 6c3d 7b0a 473d 1b65 17bc 8d34 a53d
00000110: 769b 85bd b6b9 af3c 5a60 8c3c 3f67 cd3c
00000120: 7ba9 bbbb dc2c ba3c 953d 203d d93b 04bb
00000130: b8cf c63b c6af 7dbd 9b91 f83c b936 9c3b
00000140: 42b0 9fbd b73c 24bc c5aa c63d f33a 2ebd
00000150: ba75 4b3d ca02 b53b 6df0 3dbc ea22 38bd
00000160: e9df 103d 9788 293d 6eea 4abd 3b89 ab3b
00000170: 9db2 09bd 7b5f 81bc 6adf 5fbd a9b0 96bc
00000180: d3cf 943d b5f6 dc3d 77a5 96bd 6e82 bf3c
00000190: e0e3 20bd 292e 53bd 2366 3d3d bc49 0e3c
000001a0: 62ae 6cba 9f38 af3c 3e1c 053d d638 943c
000001b0: 8338 603d f2d6 c73c 30dd a23c d899 c9bc
000001c0: e887 77bc f112 293d 0911 233d 2ba6 4e3d
000001d0: 930f 03bd ccb5 883d b152 d3bc 0ff6 283d
000001e0: 96ba 4a3d e9fa 46bc e82f 3b3d 329d 91bd
000001f0: d159 3b3c 523f 80ba 0a65 4ebd 2b74 493c
00000200: b189 cfbc e331 0d3d 85d6 6ebd aaa0 8c3a
00000210: be1f bbbc de5b 2f3d 1c93 9dbd 1a68 f9bc
00000220: 1ace 59bd 779e a73b e58a 433d bbeb 91bb
00000230: 9281 46bd 5614 19bd f20d a13d 314f a33d
00000240: 05be e9bc 132c aa3c 601a 72bd c2ce 39bb
00000250: a22c 9a3d bc4e 243c 0796 0cbc 9c29 1a3d
00000260: 0c5f 98bc 4852 d7bc 4719 a1bc 83bc 123c
00000270: 5463 85bb c6f2 b1bd be7e 46bb 7c15 49bc
00000280: c6c1 21bd 3ca8 4e3c 480f e33c f00d ca3c
00000290: bf95 e33c c71a c7bb aee6 733c 5260 a93c
000002a0: 50c9 363c 98b9 f73c a162 9a3b 7b0c 473c
000002b0: 066b 48bd 63df 8b3d 8080 013d f4b1 4b3d
000002c0: 2e82 503c c382 eabc 4a77 0bbc 5f61 8c3d
000002d0: 32df d03b d940 51bc 190e 2ebd 27bb 2bbc
000002e0: d833 e93c 7552 20bd 78a6 93bd 4cbc 953d
000002f0: 22d6 bc3d 90f6 e83c aa73 7fbc 805c 5ebb
00000300: 9033 1cbd 0fd5 f73c 8a7c df3c 720c ce3d
00000310: 15fe a83c b2cc 32bd 069b a2bc d055 11bd
00000320: acf9 01bc 889f d63c 7ee6 7fbc afc0 af39
00000330: 4611 7a3d dcb0 6ebc 824f cb3c 80c6 4c3d
00000340: 9078 22bd 8d56 88bd 63e4 f53d f6f8 77bc
00000350: 85dc 313c 436f 093d be68 cc3c a2f8 963c
00000360: 2842 773d df33 e8bb 871b 2bbd a526 8dbd
00000370: 75aa 063e 5c15 3abc 8842 f4bb 396a c0bc
00000380: 3a2f 283d 0c7a 603c e01e 073d 20df 973d
00000390: a9b3 66ba c2b0 c53d f6f9 1bbd 836a 843c
000003a0: c044 863d 96a7 423d 3c1c bfbc 3c11 76bd
000003b0: 9632 18bd 908f d03c c7c1 c23c e717 8b3d
000003c0: 9622 84bd 4981 c2bd 2069 883d 4bea d8bd
000003d0: f894 f2bc c645 3b3b 759c b23c 73fb 0b3c
000003e0: 3456 02bb f992 c33c 7a13 8cbc af1b a5bd
000003f0: b016 44bd dc5d c8ba b8ad 6fbc b13b c5bc

network_body._body_endoder.seq_layers.0.bias f4 [128]
-0.0048069037 -0.013222642 0.0042737825 0.004402333 0.0031676851 -0.0033816951 -0.016483337 -0.0066425125
-0.0018823624 -0.020885425 -0.011803615 -0.021128764 -0.0044251867 -0.025547113 -0.0056170705 -0.009309144
-0.023704983 -0.011667101 -0.00860418 0.0010628278 -0.015054581 -0.0012352633 -0.014518883 -0.02131188
-0.012280524 -0.009030864 -0.01709626 -0.014010533 -0.012927381 0.0057294024 0.0021523226 -0.017978074
-0.017892938 0.00078363804 -0.017915457 -0.01323283 -0.013858705 -0.010056475 -0.0146319885 -0.009322328
-0.01244884 -0.02468825 -0.00049235084 -0.02354885 -0.006014692 -0.021607073 -0.020820236 0.0024611773
0.0020503164 -0.011500181 0.003400415 -0.018251123 -0.018023673 -0.012924133 -0.0077849287 -0.004300361
0.007389617 -0.023248734 -0.015862511 -0.002184033 -0.0036313708 0.0051604463 -0.004635034 -0.0076560015
-0.012770932 -0.0017213267 -0.017482726 -0.010094455 -0.009091484 -0.009261746 0.0102577675 -0.0009130433
-0.018178755 -0.01586756 0.0051631145 -0.005623557 -0.0025877773 0.008512536 -0.014112497 -0.017702209
-0.027057055 0.005059067 0.00203125 -0.0119571695 -0.0003601816 -0.0053630117 -9.483763e-05 -0.0011348954
-0.015096712 -0.012558806 -0.0067586876 0.0014986482 -0.010918524 0.009558987 -0.01129645 -0.02214792
-0.0035085597 -0.019415395 0.002606945 -0.008846483 -0.02462062 -0.0022634352 -0.013828745 0.0041108415
-0.014528222 -0.0126834335 -0.013928609 -0.0059362864 -0.010672565 -0.00750229 0.0058704936 0.0036087155
-0.010868053 0.0029963918 0.0059556644 -0.016906707 -0.012981291 -0.0104128895 -0.0024218601 -0.0035273621
-0.008504524 -0.001464945 -0.00922206 -0.002456234 0.005109 -0.02002232 0.0040805764 -0.020943524
00000000: 3b83 9dbb c8a3 58bc 160b 8c3b 7241 903b
00000010: f098 4f3b 6e9f 5dbb 1008 87bc 6fa9 d9bb
00000020: 9ab9 f6ba e917 abbc f363 41bc 3b16 adbc
00000030: 2801 91bb 2e48 d1bc 670f b8bb 6185 18bc
00000040: f430 c2bc 5e27 3fbc 8cf8 0cbc 954e 8b3a
00000050: 7da7 76bc 8fe8 a1ba 9ce0 6dbc 4096 aebc
00000060: 4034 49bc 30f6 13bc 750d 8cbc 6f8c 65bc
00000070: 5ecd 53bc b6bd bb3b fb0d 0d3b c146 93bc
00000080: 3694 92bc 0f6d 4d3a 70c3 92bc 83ce 58bc
00000090: 9f0f 63bc eac3 24bc 02bb 6fbc adbc 18bc
000000a0: 38f6 4bbc 033f cabc 1b11 01ba 85e9 c0bc
000000b0: e516 c5bb 5101 b1bc 338f aabc b44b 213b
000000c0: 9a5e 063b 416b 3cbc 7fd9 5e3b 6183 95bc
000000d0: 62a6 93bc bebf 53bc b718 ffbb 0bea 8cbb
000000e0: 9a24 f23b 2174 bebc 19f2 81bc fe21 0fbb
000000f0: 4bfc 6dbb f618 a93b 7ce1 97bb 32df fabb
00000100: 2c3d 51bc 249e e1ba ef37 8fbc 3763 25bc
00000110: 73f4 14bc 94be 17bc 3210 283c 4c59 6fba
00000120: 9deb 94bc affc 81bc 582f a93b d145 b8bb
00000130: b397 29bb 2a78 0b3c 1a38 67bc 3904 91bc
00000140: c2a6 ddbc 88c6 a53b b81e 053b 01e8 43bc
00000150: c2d6 bcb9 34bc afbb 91e3 c6b8 c5c0 94ba
00000160: 3358 77bc 73c3 4dbc fb77 ddbb 4a6e c43a
00000170: 9ce3 32bc 4c9d 1c3c bf14 39bc 8e6f b5bc
00000180: ddef 65bb 090d 9fbc 48d9 2a3b d7f0 10bc
00000190: 2fb1 c9bc 2456 14bb f691 62bc 3db4 863b
000001a0: c807 6ebc 2dce 4fbc d234 64bc 2e85 c2bb
000001b0: fbdb 2ebc c5d5 f5bb 455d c03b 3380 6c3b
000001c0: eb0f 32bc 1d5f 443b bc27 c33b ef7f 8abc
000001d0: 7baf 54bc d39a 2abc 12b8 1ebb 512b 67bb
000001e0: 8f56 0bbc 6603 c0ba 2018 17bc c5f8 20bb
000001f0: 6669 a73b d905 a4bc 5bb6 853b c191 abbc

network_body._body_endoder.seq_layers.2.weight f4 [128, 128]
-0.06513124 -0.019573685 0.030510532 0.21815701 0.035673868 -0.07027193 -0.0038958306 0.07010946
0.02457643 -0.06781632 -0.0010512122 0.08342093 -0.03740739 -0.06277721 -0.15584973 -0.0623235
0.06504079 0.0045801727 -0.023698073 -0.104628965 0.0518958 -0.037262727 -0.13361442 0.06765394
0.02986342 -0.0865705 0.03634022 0.06221228 0.047548722 -0.018954057 -0.03983717 0.12376549
-0.0294706 0.0009953866 0.18621984 -0.100214675 -0.1831941 -0.049003392 0.17557016 0.023819145
0.15635802 0.015495696 -0.14445105 0.0077405456 -0.03293606 -0.08747254 0.15685727 0.08327611
0.10485317 0.06606746 -0.06077756 -0.051490933 -0.07163119 -0.08883971 0.039136346 -0.040401302
-0.08232854 -0.109054685 -0.013851418 -0.040700644 -0.16481198 0.009744604 -0.020606136 -0.036643755
0.05900372 -0.06539042 -0.008018687 -0.03313055 0.054393116 -0.055553913 -0.031617288 -0.014977575
-0.030408494 0.00730179 -0.056485355 -0.0561989 -0.009386751 -0.056694094 -0.0014147278 0.07537311
-0.08007235 0.09648716 0.07249345 -0.027597193 -0.0064033917 0.093892604 0.022854472 -0.081109814
0.021886757 -0.22403184 -0.03344531 0.08921616 -0.044870395 0.07103272 0.01061973 0.05823599
0.015152654 0.088779904 -0.06677261 0.09307944 0.029315209 -0.04036048 0.0125906905 0.077684686
0.04134138 -0.005120511 0.01861028 -0.006416181 0.01610073 -0.09551317 -0.116933405 -0.055437203
0.056684844 0.03692541 0.017061533 0.094036885 0.024607461 0.027851144 -0.044985533 0.014750029
0.14491579 -0.11563751 -0.12773755 -0.04591756 0.09352103 0.058977198 0.0011780749 0.112161346
-0.055816233 -0.12360126 -0.00984428 -0.05485735 -0.06491057 -0.037932377 0.012551757 -0.0020918788
0.1771585 -0.028033085 0.055907823 0.068700016 -0.11842214 0.019545702 -0.2186617 -0.06990178
0.010549641 0.08825793 0.099108584 -0.13289447 -0.023326594 -0.035134953 -0.06416756 -0.014655085
0.010289713 0.1026159 0.07217999 -0.027955998 -0.14730856 -0.12759791 -0.02873857 0.036902227
-0.08029851 -0.004837692 0.095366366 0.001026115 0.030730888 -0.15041222 -0.037909653 -0.043921832
-0.029448338 -0.032975007 -0.064771555 0.060471546 0.09205713 0.08069768 0.08258176 0.07290229
-0.09268583 0.030740278 -0.07828796 -0.03202168 0.051209055 0.053311426 -0.0016880563 -0.01467158
0.031388648 -0.19964784 -0.0510561 0.056215804 -0.0021621315 0.09777345 -0.01942048 0.04908873
-0.018921832 0.010955988 0.012332102 0.034228474 -0.051548693 0.0640926 0.03332072 -0.18429391
-0.063643046 0.05620171 -0.094632894 -0.03254806 0.23997663 -0.09467408 -0.0052461205 -0.002438768
0.11048982 -0.09458677 -0.04701564 0.035572365 0.0976559 0.076215625 0.12674767 -0.06848308
0.04688558 0.017097227 -0.004140762 -0.12844473 -0.034233753 -0.0028973287 0.0021098556 0.10985867
-0.04173414 0.044013217 0.0048744082 -0.044196203 -0.21265051 0.018715788 0.1705292 -0.08235527
0.06031466 -0.014430274 -0.103924364 -0.07550803 0.114423245 -0.036371056 -0.047574166 -0.058047786
-0.0017794621 0.07900662 -0.096399225 0.08761033 -0.031521082 -0.044359997 0.04614491 0.045799896
0.07509937 -0.033504393 -0.112670176 -0.074706234 -0.012366744 -0.10476569 0.122616984 -0.059269574
00000000: 8763 85bd fe58 a0bc 39f1 f93c 8d64 5f3e
00000010: c31e 123d bbea 8fbd 3151 7fbb 8c95 8f3d
00000020: 8254 c93c 48e3 8abd d4c8 89ba 98d8 aa3d
00000030: 7e38 19bd 5691 80bd 1297 1fbe ed46 7fbd
00000040: 1b34 853d 4615 963b 7622 c2bc b647 d6bd
00000050: b190 543d cda0 18bd 38d2 08be 268e 8a3d
00000060: 22a4 f43c e04b b1bd 7cd9 143d 4ed2 7e3d
00000070: 73c2 423d 8a45 9bbc 4d2c 23bd c378 fd3d
00000080: 546c f1bc a277 823a 6ab0 3e3e 5a3d cdbd
00000090: 3c97 3bbe c8b7 48bd aac8 333e 5e20 c33c
000000a0: 511c 203e a9e1 7d3c faea 13be 67a4 fd3b
000000b0: f6e7 06bd ce24 b3bd 319f 203e aa8c aa3d
000000c0: 42bd d63d 604e 873d e4f1 78bd 28e8 52bd
000000d0: 60b3 92bd 98f1 b5bd 6f4d 203d d67b 25bd
000000e0: de9b a8bd 1058 dfbd 0ff1 62bc b8b5 26bd
000000f0: 79c4 28be d5a7 1f3c 33ce a8bc c317 16bd
00000100: e2ad 713d 6aeb 85bd d060 03bc e6b3 07bd
00000110: 51cb 5e3d 808c 63bd 2181 01bd 8164 75bc
00000120: 3c1b f9bc db43 ef3b 305d 67bd d130 66bd
00000130: e3ca 19bc 1138 68bd 636e b9ba 385d 9a3d
00000140: f9fc a3bd 0f9b c53d 7277 943d 8213 e2bc
00000150: 8bd3 d1bb c44a c03d 4d39 bb3c e71c a6bd
00000160: db4b b33c 9a68 65be f3fd 08bd f6b6 b63d
00000170: 05ca 37bd 9a79 913d 60fe 2d3c dd88 6e3d
00000180: d642 783c 3dd2 b53d 14c0 88bd 6fa0 be3d
00000190: 7326 f03c 0851 25bd 2f49 4e3c 2619 9f3d
000001a0: 9455 293d f6c9 a7bb 9674 983c d43e d2bb
000001b0: aee5 833c 699c c3bd c87a efbd 1f12 63bd
000001c0: 5e2e 683d 193f 173d a1c4 8b3c 6996 c03d
000001d0: 9695 c93c 1528 e43c c042 38bd 1baa 713c
000001e0: ce64 143e 5cd3 ecbd a2cd 02be 0d14 3cbd
000001f0: f487 bf3d 1392 713d a269 9a3a d9b4 e53d
00000200: 909f 64bd a822 fdbd e749 21bc 1ab2 60bd
00000210: d5ef 84bd fb5e 1bbd e2a5 4d3c e717 09bb
00000220: 0a69 353e a4a5 e5bc 9aff 643d 98b2 8c3d
00000230: 4f87 f2bd 4f1e a03c dae8 5fbe aa28 8fbd
00000240: 67d8 2c3c 93c0 b43d 71f9 ca3d 7d15 08be
00000250: 6a17 bfbc abe9 0fbd 486a 83bd e21b 70bc
00000260: 2f96 283c 4928 d23d 1ad3 933d fa03 e5bc
00000270: 0ed8 16be 07a9 02be 266d ebbc ca26 173d
00000280: 8c73 a4bd 8085 9ebb 714f c33d b57e 863a
00000290: 58bf fb3c a905 1abe 2747 1bbd 61e7 33bd
000002a0: a43d f1bc cd10 07bd f3a6 84bd 03b1 773d
000002b0: 7388 bc3d d344 a53d a020 a93d cc4d 953d
000002c0: 12d2 bdbd 09d3 fb3c 7055 a0bd 2a29 03bd
000002d0: 96c0 513d 155d 5a3d c541 ddba 1161 70bc
000002e0: 6291 003d 7c70 4cbe 3320 51bd 8b42 663d
000002f0: 8cb2 0dbb 723d c83d b317 9fbc 4411 493d
00000300: f501 9bbc bf80 333c 960c 4a3c 2833 0c3d
00000310: b924 53bd fb42 833d 4f7b 083d 8bb7 3cbe
00000320: 4957 82bd c433 663d e4ce c1bd 1d51 05bd
00000330: 6fbc 753e 7ce4 c1bd a6e7 abbb bdd3 1fbb
00000340: 7d48 e23d b5b6 c1bd 7993 40bd 54b4 113d
00000350: d1ff c73d f016 9c3d 24ca 013e db40 8cbd
00000360: 180b 403d 7c0f 8c3c 3baf 87bb 0487 03be
00000370: b138 0cbd 1ce1 3dbb 8145 0a3b 95fd e03d
00000380: 6bf1 2abd 3447 343d 80b9 9f3b 1407 35bd
00000390: 0ec1 59be da51 993c 359f 2e3e e1a9 a8bd
000003a0: 810c 773d f56c 6cbc 4cd6 d4bd f4a3 9abd
000003b0: bc56 ea3d d1f9 14bd 21dd 42bd 84c3 6dbd
000003c0: d73c e9ba 39ce a13d f56c c5bd 0b6d b33d
000003d0: 401c 01bd d4b2 35bd 7202 3d3d ac98 3b3d
000003e0: b3cd 993d e73b 09bd 9fbf e6bd 95ff 98bd
000003f0: e29d 4abc 658f d6bd 9d1e fb3d a7c4 72bd

network_body._body_endoder.seq_layers.2.bias f4 [128]
-0.0069732186 -0.0038784188 -0.0033554172 0.00091303414 -0.0045896056 -0.018958297 -0.007825394 0.005170351
0.009461035 0.0032119118 0.007759101 -0.007503827 -0.002319906 -0.00030793328 0.0032347967 0.0116478
-0.0007316293 -0.0034153734 0.012105422 -0.017375115 -0.0036721444 -0.0030376327 -0.005272291 -0.010686443
0.0069338838 0.0060227457 -0.011191803 0.0008223182 0.020380795 0.008218335 0.0037644075 0.00142642
0.020555113 -0.005369744 -0.010356802 0.0017946431 0.004971045 -0.0075655514 -0.006040178 0.0027377286
0.007712349 0.0021248045 0.008109156 -0.006566309 -0.00039467314 -0.014650644 -0.012491226 0.004178464
-0.007081057 -0.008107263 -0.0067198323 -0.0031700798 -0.00259114 0.0065508224 -0.010121402 -0.004974465
-0.0062778667 -0.00043647844 -0.00034292854 0.0029503303 0.0050541353 -0.015703373 -0.015598137 0.0012973367
-4.541348e-05 -0.003396828 -0.003945474 0.0029174336 -0.017181043 -0.011159329 0.005825852 -0.0008811138
-0.00080978597 3.393091e-05 0.016180318 -0.01108789 -0.004321323 0.009635182 0.00050294533 -0.007291556
-0.015795726 0.010427053 -0.014792356 -0.010458048 0.00061670854 0.010267846 0.014050489 -0.007993732
-0.0035904872 -0.01879961 0.016029244 0.011080784 -0.0165008 -0.010579162 -0.0028466817 -0.013763716
-0.016085945 -0.0070351474 -0.0021727562 -0.020669978 -0.0022422925 0.005987604 -0.012646647 -0.0023829353
-0.003016077 -0.011757967 0.0022982184 0.0045703887 -2.2484102e-05 -0.0036392198 0.0037435237 0.00094107835
-0.00593863 -2.953018e-05 -0.0247741 0.0058529023 0.023177868 -0.0019797795 0.016144475 0.0076155537
0.0040593026 0.0082821725 0.0022758313 -0.008235854 0.017801465 0.0064708255 -0.022174967 -0.009771846
00000000: 997f e4bb 122d 7ebb 8fe6 5bbb af58 6f3a
00000010: 6764 96bb 6e4e 9bbc 1536 00bc 0c6c a93b
00000020: 7502 1b3c f07e 523b 0f40 fe3b aae2 f5bb
00000030: 9009 18bb 1b72 a1b9 e2fe 533b 6ad6 3e3c
00000040: d0ca 3fba 75d4 5fbb d255 463c 4256 8ebc
00000050: 5ca8 70bb 0513 47bb 2fc3 acbb 3116 2fbc
00000060: a235 e33b 745a c53b d35d 37bc d790 573a
00000070: a0f5 a63c 32a6 063c 47b4 763b b7f6 ba3a
00000080: 3263 a83c adf4 afbb 93af 29bc 3b3a eb3a
00000090: 26e4 a23b 72e8 f7bb afec c5bb 776b 333b
000000a0: dfb7 fc3b 4e40 0b3b 44dc 043c 312a d7bb
000000b0: 22ec ceb9 4109 70bc 00a8 4cbc 7feb 883b
000000c0: 3608 e8bb 53d4 04bc 0a32 dcbb 1dc1 4fbb
000000d0: 1ed0 29bb 48a8 d63b 3dd4 25bc d600 a3bb
000000e0: 90b6 cdbb 25d7 e4b9 17cb b3b9 545a 413b
000000f0: 299d a53b 5ca4 80bc 548f 7fbc 650b aa3a
00000100: 5a7a 3eb8 519d 5ebb 0949 81bb 6a32 3f3b
00000110: 42bf 8cbc 9ed5 36bc cae6 be3b 8cfa 66ba
00000120: d147 54ba 0a51 0e38 968c 843c fba9 35bc
00000130: e299 8dbb e2dc 1d3c 17d8 033a 01ee eebb
00000140: 0a66 81bc 3bd6 2a3c a35b 72bc 3c58 2bbc
00000150: 9caa 213a 783a 283c 0634 663c 24f8 02bc
00000160: 614e 6bbb a401 9abc c34f 833c 2d8c 353c
00000170: b02c 87bc 3954 2dbc 658f 3abb 3681 61bc
00000180: acc6 83bc 1887 e6bb cd64 0ebb 1654 a9bc
00000190: 6df3 12bb aa33 c43b e233 4fbc 052b 1cbb
000001a0: 60a9 45bb 7da4 40bc b59d 163b 33c3 953b
000001b0: 3e9c bcb7 fa7f 6ebb e855 753b b3b2 763a
000001c0: d798 c2bb 94b7 f7b7 0ef3 cabc b4c9 bf3b
000001d0: 83df bd3c 30bf 01bb 6b41 843c e58b f93b
000001e0: e603 853b f3b1 073c 1d26 153b adef 06bc
000001f0: 61d4 913c 3809 d43b 47a8 b5bc 181a 20bc

action_model._discrete_distribution.branches.0.weight f4 [2, 128]
1.426645e-05 0.020822635 -0.013710432 -0.022874057 0.024581049 -0.015754199 -0.016026994 -0.030001512
-0.001930588 0.03155796 0.005904478 0.0001871215 0.04063155 0.02953301 0.007554789 -0.029873196
-0.009352447 0.00594212 0.0030871185 -0.0049578715 0.018838286 0.054396376 -0.019845236 0.010522454
-0.03935183 -0.016349593 0.01260915 0.014258906 -0.068125166 -0.015693454 0.0021267766 -0.01675146
0.025302831 -0.014860649 -0.01317811 -0.03725612 0.0023112746 0.0071093594 0.017098814 0.0003996339
0.0012959458 0.034787633 -0.011415472 -0.018263636 -0.00974785 0.009980286 -0.013182902 -0.002885458
-0.020854775 0.02536298 0.0038726863 0.027195398 -0.022582794 -0.016168296 0.015285824 0.006251751
0.018676056 0.03065027 -0.014660516 0.002110784 0.003432577 -0.0028728808 0.0020327074 -0.012373163
0.005199631 0.031727705 -0.009965241 0.028772322 0.02762927 0.014587412 -0.026113736 -0.006204441
0.059296954 0.013731678 0.042231295 0.017961955 -0.003112901 -0.007986397 -0.013252155 0.02611422
-0.008815712 -0.0068846853 0.0123867495 -0.009800764 -0.013558235 0.01816316 -0.029204378 0.00014416635
-0.01985334 -0.0008991247 -0.008956887 0.0066781016 -0.002786825 0.013583923 0.011929768 0.019744907
-0.0011161922 -0.016659686 0.02045838 0.007056394 -0.015438332 0.0013984179 0.006667429 0.007347738
0.0010564221 -0.0038043878 -0.018730361 0.020269567 -0.0037932578 -0.018479077 0.014725954 0.018294279
0.0013311445 -0.017260296 0.00092076865 -0.00068667094 -0.02282845 -0.0069647925 -0.04766741 -0.034532703
-0.024157204 -0.030005038 0.026184825 0.015103647 -5.582538e-05 -0.016132856 -0.0051958407 -0.024257263
0.00087408547 -0.023561787 0.00898953 0.01943626 -0.031760223 0.013481788 0.02361127 0.03352348
-0.0124201635 -0.034486864 -0.0028415464 -0.02340983 -0.028405946 -0.013391665 0.012946634 0.032102577
0.008676381 -0.026465427 -0.015696825 0.0050765984 -0.0135169765 -0.036772378 0.010854848 -0.005658727
0.03908632 0.026009932 -0.022186287 -0.03184099 0.05820984 0.008969671 0.00657463 0.020765997
-0.036670372 0.015880764 -0.0011726608 0.04488464 0.0066606947 -0.016886992 -0.030750616 0.012808043
-0.013063534 -0.027270516 0.0107459165 0.008969096 0.00886726 0.00038631834 -0.010364113 0.022273714
0.006517892 -0.024820386 -0.007799044 -0.02568534 0.0102342 -0.0009568542 -0.011796923 -0.0016554442
-0.013200052 -0.035912987 0.00013314946 -0.01885186 0.016367279 -0.0033110701 0.013189139 0.033214744
-0.012680683 -0.017224602 0.012515314 -0.010067342 -0.0069930158 -0.011401831 0.017501654 -0.0020568725
-0.01663298 -0.028863812 -0.03216801 -0.007249191 0.0118731195 0.0033235594 0.0057098875 -0.035268374
0.009247122 0.0105653955 -0.021228585 -0.011300683 0.0143557405 -0.025230614 0.026823811 0.0020839574
0.012163924 -0.0015229163 0.021984695 0.0014025413 0.0026882812 0.011895393 -0.0114769405 0.0076975976
0.02007116 -0.018110946 -0.02551017 -0.009253573 0.017526632 -0.006708974 0.004791658 0.0071175806
-0.0137985125 -0.0015922446 0.030101234 -0.012783037 0.02919506 0.0038010557 -0.020291472 -0.0032259072
-0.0064775283 -0.00012871447 -0.0025795426 0.02657752 0.014951547 0.01965671 0.040188488 0.03894888
0.028971747 0.0014990652 -0.032253064 -0.017789444 -0.021471657 0.008388269 0.0027980644 0.04085527
00000000: f059 6f37 3b94 aa3c b8a1 60bc 6062 bbbc
00000010: 325e c93c f30e 81bc 0b4b 83bc bbc5 f5bc
00000020: c90b fdba eb42 013d 5a7a c13b 0c36 4439
00000030: 456d 263d 36ef f13c 2a8e f73b a2b8 f4bc
00000040: 023b 19bc 1eb6 c23b 4151 4a3b a475 a2bb
00000050: c052 9a3c bcce 5e3d 7a92 a2bc 5f66 2c3c
00000060: 622f 21bd 95ef 85bc 9c96 4e3c 309e 693c
00000070: 3585 8bbd 8f8f 80bc 6461 0b3b 5c3a 89bc
00000080: e247 cf3c 147a 73bc 00e9 57bc e099 18bd
00000090: c178 173b a1f5 e83b d012 8c3c f485 d139
000000a0: badc a93a 7a7d 0e3d f607 3bbc 9f9d 95bc
000000b0: 72b5 1fbc 5a84 233c 19fd 57bc f419 3dbb
000000c0: a2d7 aabc 06c6 cf3c e5cc 7d3b e2c8 de3c
000000d0: 8dff b8bc 6073 84bc 6571 7a3c 7ddb cc3b
000000e0: 87fe 983c 4616 fb3c a932 70bc 1455 0a3b
000000f0: 16f5 603b f146 3cbb 2c37 053b cfb8 4abc
00000100: ab61 aa3b e9f4 013d 4045 23bc efb3 eb3c
00000110: c756 e23c 0a00 6f3c 79ec d5bc a04e cbbb
00000120: 5de1 723d d5fa 603c b9fa 2c3d f324 933c
00000130: d001 4cbb 60d9 02bc 911f 59bc 7ded d53c
00000140: c76f 10bc ed98 e1bb cbf1 4a3c 6293 20bc
00000150: 5c23 5ebc e8ca 943c 053e efbc 5c2b 1739
00000160: 79a3 a2bc 3db3 6bba e8bf 12bc fad3 da3b
00000170: 2aa3 36bb 1a8f 5e3c 1375 433c 12c0 a13c
00000180: 324d 92ba e579 88bc 5598 a73c 5339 e73b
00000190: 0ff1 7cbc 1e4b b73a 737a da3b 4bc5 f03b
000001a0: a577 8a3a 0953 79bb 6a70 99bc 5d0c a63c
000001b0: 4e98 78bb 6f61 97bc 2145 713c e2dd 953c
000001c0: cc79 ae3a 7765 8dbc bd5f 713a b501 34ba
000001d0: bb02 bbbc ea38 e4bb e73e 43bd 2a72 0dbd
000001e0: 54e5 c5bc 20cd f5bc 8f81 d63c 4975 773c
000001f0: 0c26 6ab8 0d29 84bc df41 aabb 2bb7 c6bc
00000200: e222 653a a604 c1bc d248 133c cb38 9f3c
00000210: 0217 02bd b8e2 5c3c 6c6c c13c eb4f 093d
00000220: f17d 4bbc 1942 0dbd 3d39 3abb f9c5 bfbc
00000230: 96b3 e8bc b768 5bbc 1e1e 543c fe7d 033d
00000240: 6127 0e3c 06ce d8bc a196 80bc 9859 a63b
00000250: 4f76 5dbc a29e 16bd 88d8 313c d86c b9bb
00000260: fa18 203d c812 d53c 04c0 b5bc b36b 02bd
00000270: 716d 6e3d 87f5 123c fe6f d73b 741d aa3c
00000280: ac33 16bd 6018 823c f8b3 99ba f5d8 373d
00000290: f541 da3b 9756 8abc b7e8 fbbc d3d8 513c
000002a0: 6f08 56bc 6b66 dfbc a40f 303c 1df3 123c
000002b0: fc47 113c c58a ca39 3ece 29bc 5d77 b63c
000002c0: 0a94 d53b 1f54 cbbc 1f8f ffbb 106a d2bc
000002d0: 59ad 273c 66d5 7aba e247 41bc 7dfb d8ba
000002e0: 0845 58bc 7f19 13bd 099e 0b39 376f 9abc
000002f0: ac14 863c 8afe 58bb 4217 583c 2f0c 083d
00000300: a4c2 4fbc 9c1a 8dbc 080d 4d3c 7ef1 24bc
00000310: ab25 e5bb bfce 3abc a15f 8f3c 98cc 06bb
00000320: e341 88bc cd73 ecbc 9ac2 03bd 9f8a edbb
00000330: 7987 423c 13d0 593b 021a bb3b 9275 10bd
00000340: 3e81 173c 7b1a 2d3c 92e7 adbc 8026 39bc
00000350: 5734 6b3c 6fb0 cebc 9cbd db3c 0193 083b
00000360: 324b 473c 979c c7ba 3f19 b43c 7ad5 b73a
00000370: e02d 303b e5e4 423c c709 3cbc 213c fc3b
00000380: 466c a43c 685d 94bc b4fa d0bc 4c9c 17bc
00000390: 0394 8f3c f4d6 dbbb 5703 9d3b 983a e93b
000003a0: 2813 62bc ddb2 d0ba dd96 f63c f16f 51bc
000003b0: 7a2a ef3c 221b 793b 4d3a a6bc be69 53bb
000003c0: 7241 d4bb 87f7 06b9 8b0d 29bb 19b9 d93c
000003d0: 55f7 743c 1c07 a13c af9c 243d dc88 1f3d
000003e0: 2856 ed3c 487c c43a ca1b 04bd 2bbb 91bc
000003f0: 54e5 afbc f36e 093c bb5f 373b db57 273d

action_model._discrete_distribution.branches.0.bias f4 [2]
-0.0025806408 0.002580637
00000000: f81f 29bb e81f 293b

action_model._discrete_distribution.branches.1.weight f4 [3, 128]
0.027232261 0.01864973 -0.0055414117 -0.022972142 -0.0039548636 0.021115433 0.010514082 0.025055133
-0.06245725 -0.0130220605 -0.02272473 0.01893518 -0.012733379 -0.015793657 -0.018810771 -0.013150039
-0.009147423 0.029977161 -0.025677811 -0.003774483 -0.0127708195 0.028051643 -0.0030944163 -0.020669732
0.03767715 0.0036005464 0.011745422 -0.02178932 -0.0019333581 -0.017887373 0.03543358 -0.03273139
-0.01757741 -0.019680345 -0.00027608502 0.030971866 -0.057947546 -0.0047317543 0.0009964572 0.0053476617
-0.027142974 -0.007624892 0.023960859 0.029067066 0.008386278 -0.015982838 0.02374992 0.0020083198
0.0013593814 -0.021173732 0.004502238 -0.008380864 0.008294246 -0.03816021 0.03824446 -0.0091028195
0.007296266 -0.00833839 -0.031722274 0.02055491 0.011039182 0.008942745 0.008084974 -0.018145084
-0.028710645 -0.0056446902 -0.0003346156 -0.02409842 -0.020191882 -0.013181057 -0.024364928 -0.009470223
0.005691821 0.02811804 -0.0058547063 -0.019682162 -0.032376684 0.020089835 -0.022785531 0.0014310646
0.027049825 -0.05874614 0.0037884074 0.001441432 0.017449599 -0.012044197 0.0055934596 -0.009049643
0.03472123 -0.009799163 -0.019952407 -0.04265065 -0.020580582 0.005767828 0.02852084 -0.006429954
0.010385617 -0.02305309 0.02355247 0.015340676 -0.00699512 -0.022649175 0.022046883 0.0034324871
-0.034041975 0.019800425 0.013344634 -0.020596785 -0.003084022 -0.037091225 -0.024942646 -0.025049968
0.021375952 -0.03613733 0.007740703 0.011163349 0.0046572527 0.036317844 -0.047388166 0.014274699
-0.017400859 0.002567762 -0.032650955 0.009154983 -0.03441201 0.001474653 0.026111962 0.013382159
0.0034251304 0.016926879 0.0059119374 0.015703931 -0.03634574 -0.011201863 -0.03747886 -0.015939673
-0.00075505057 -0.048417974 -0.008848753 -0.038558755 -0.015561286 0.04361901 0.027691154 -0.006999269
-0.011874453 -0.051365063 0.050408248 -0.012366715 0.025647288 -0.008846648 0.0016873571 0.0028005177
-0.017998243 -0.041855305 -0.006826977 0.004629264 -0.0150961885 0.018481204 -0.019838683 -0.040448133
0.059849326 -0.0022919052 -0.019944208 0.007297609 0.012972339 -0.023868138 -0.027730579 -0.044306338
0.052857354 -0.011670001 0.010627996 -0.034933202 0.021342367 0.02232459 -0.0169059 0.022355594
-0.013568518 0.032322403 -0.0068340893 -0.0017421367 0.011986757 0.033879746 0.0136010125 0.00106989
0.0259694 0.013184871 0.0055539026 -0.03231373 0.025424944 -0.009914341 0.005492563 0.022278149
-0.007510284 0.007481383 -0.0021141917 0.03287997 -0.0125865685 0.00769445 0.028445974 -0.020149713
0.0014358134 0.005553547 0.052285433 0.0013439134 0.018464368 0.01716389 0.017643664 0.00031603102
-0.006722525 0.030964954 -0.030089697 0.025771357 -0.008631226 0.022185352 -0.027783232 0.011165259
-0.009692092 -0.013291994 0.055155087 0.020541767 -0.0043795807 0.0008736582 -0.0043477747 -0.00010346218
-0.0035363273 -0.013142247 0.0048211 -0.016860683 -0.031050442 0.030894477 0.0032468515 0.028841475
0.018707838 -0.0100699095 -0.003296001 0.0025976708 -0.039295796 -0.0015333275 0.040139735 -0.030618224
-0.0008834169 -0.0160871 -0.0051510474 0.023211068 0.04437334 -0.0019394113 0.03382666 -0.008074879
-0.024937676 0.028604386 -0.000597858 -0.013638809 0.06635547 0.036677934 -0.008050192 0.004078051
00000000: 3116 df3c 52c7 983c bb94 b5bb 1330 bcbc
00000010: cd97 81bb 46fa ac3c 4243 2c3c 6c40 cd3c
00000020: 2cd3 7fbd 7b5a 55bc 3729 babc f31d 9b3c
00000030: aa9f 50bc b361 81bc 0c19 9abc 4373 57bc
00000040: 13df 15bc aa92 f53c 465a d2bc 515d 77bb
00000050: b33c 51bc 8fcc e53c b1cb 4abb 9253 a9bc
00000060: 5b53 1a3d 25f7 6b3b df6f 403c 847f b2bc
00000070: bc68 fdba 8a88 92bc cd22 113d 5a11 06bd
00000080: 80fe 8fbc ad38 a1bc 81bf 90b9 b6b8 fd3c
00000090: 685a 6dbd d50c 9bbb 8e9b 823a 703b af3b
000000a0: f15a debc 3bda f9bb 9049 c43c 0e1e ee3c
000000b0: 9966 093c 71ee 82bc 318f c23c 049e 033b
000000c0: 452d b23a 8974 adbc 8287 933b e44f 09bc
000000d0: 97e4 073c e14d 1cbd 39a6 1c3d fe23 15bc
000000e0: 8415 ef3b be9d 08bc 37ef 01bd c562 a83c
000000f0: afdd 343c 9784 123c d776 043c 00a5 94bc
00000100: 9632 ebbc 18f7 b8bb 586f afb9 0d6a c5bc
00000110: 7269 a5bc 5cf5 57bc f598 c7bc ff28 1bbc
00000120: 7582 ba3b ce57 e63c d6d8 bfbb 7c3c a1bc
00000130: 6a9d 04bd 7093 a43c b9a8 babc 8f92 bb3a
00000140: 9897 dd3c cb9f 70bd ee46 783b 6fee bc3a
00000150: 76f2 8e3c 0655 45bc 5749 b73b f444 14bc
00000160: d937 0e3d ab8c 20bc 3b73 a3bc 73b2 2ebd
00000170: 9c98 a8bc 0c00 bd3b 89a4 e93c 5db2 d2bb
00000180: 6f28 2a3c d5d9 bcbc 1cf1 c03c 7557 7b3c
00000190: 5237 e5bb c38a b9bc aa9b b43c 94f3 603b
000001a0: 996f 0bbd 8034 a23c 74a3 5a3c 97ba a8bc
000001b0: 4e1d 4abb f8ec 17bd 8554 ccbc 9735 cdbc
000001c0: 9f1c af3c bd04 14bd b9a5 fd3b 7be6 363c
000001d0: de9b 983b 05c2 143d 181a 42bd 6de0 693c
000001e0: 3f8c 8ebc e647 283b 02bd 05bd c8fe 153c
000001f0: 9cf3 0cbd 2549 c13a c1e8 d53c d840 5b3c
00000200: 2778 603b 3daa 8a3c edb8 c13b 88a5 803c
00000210: 45df 14bd 0588 37bc 6f83 19bd eb93 82bc
00000220: 96ee 45ba ed51 46bd 5cfa 10bc c9ef 1dbd
00000230: c4f4 7ebc d9a9 323d 8fd8 e23c 205a e5bb
00000240: 118d 42bc 2c64 52bd e178 4e3d c39d 4abc
00000250: 431a d23c 88f1 10bc 4f2a dd3a e488 373b
00000260: 0d71 93bc 7870 2bbd d5b4 dfbb 15b1 973b
00000270: 0156 77bc e565 973c bc84 a2bc f1ac 25bd
00000280: 9124 753d ca33 16bb 0962 a3bc c820 ef3b
00000290: ef89 543c 1d87 c3bc 3d2b e3bc 907a 35bd
000002a0: f480 583d 8833 3fbc 0c21 2e3c 1e16 0fbd
000002b0: 30d6 ae3c 0fe2 b63c 3e7e 8abc 1423 b73c
000002c0: 7d4e 5ebc 7f64 043d 7ff0 dfbb 6858 e4ba
000002d0: 1a64 443c 7dc5 0a3d c8d6 5e3c 8d3b 8c3a
000002e0: c7bd d43c 5b05 583c 83fd b53b 675b 04bd
000002f0: f947 d03c c36f 22bc f5fa b33b aa80 b63c
00000300: d418 f6bb 6426 f53b 408e 0abb 26ad 063d
00000310: e537 4ebc ba21 fc3b 8807 e93c 0311 a5bc
00000320: e731 bc3a 87fa b53b 4029 563d 4026 b03a
00000330: 9642 973c 499b 8c3c 7289 903c f7b0 a539
00000340: a148 dcbb 37aa fd3c ab7e f6bc 741e d33c
00000350: fc69 0dbc 0ebe b53c a999 e3bc 7eee 363c
00000360: 95cb 1ebc aac6 59bc 4dea 613d 3547 a83c
00000370: 9682 8fbb 3606 653a c777 8ebb d6f9 d8b8
00000380: bac1 67bb 9452 57bc 51fa 9d3b 6a1f 8abc
00000390: 7f5d febc 6a16 fd3c 21c9 543b f544 ec3c
000003a0: 2e41 993c 43fc 24bc b901 58bb af3d 2a3b
000003b0: a1f4 20bd eff9 c8ba 9069 243d 12d3 fabc
000003c0: 1b95 67ba 18c9 83bc 1eca a8bb 2325 be3c
000003d0: d2c0 353d d833 feba d38d 0a3d 7f4c 04bc
000003e0: 194a ccbc bf53 ea3c 92b9 1cba 5075 5fbc
000003f0: 60e5 873d 9a3b 163d f4e4 03bc 2ca1 853b

action_model._discrete_distribution.branches.1.bias f4 [3]
-0.008236817 0.005378315 0.0030422902
00000000: b7f3 06bc 943c b03b 2961 473b

action_model._discrete_distribution.branches.2.weight f4 [1, 128]
-0.00598837 0.0012851476 0.0009167447 0.0040870565 -0.014694079 -0.009333241 0.005599418 0.015474877
-0.018000785 0.0075445035 -0.0044730073 0.0009384001 0.0040958524 0.010246571 0.011281781 -0.0009770442
-0.0039152983 0.004646674 0.007950469 0.0004683046 0.0053045168 0.002058272 0.0081207 0.0035250317
0.0003548294 -0.006076162 0.012018554 -0.006249308 -0.007449876 0.0012873969 -0.0006715003 0.009103979
0.007718491 0.021061096 -0.0030128118 -0.0052282703 -0.009915366 -0.0017386031 0.0013252114 0.016678628
0.008959382 -0.0016474469 0.005642833 -0.020546589 -0.0073496676 0.0029079847 0.0013698988 -0.0048416634
-0.0015402993 -0.0057943435 0.008328406 0.004455 0.003957398 0.011213581 0.0048148045 -0.007182178
-0.008593324 -0.002872165 0.0033051868 -0.01580882 0.002544278 0.007272148 -0.007238394 -0.013876215
0.0016751969 -0.0020487504 -0.0027151264 0.0036920556 -0.007956228 0.010643291 0.009471144 -0.0020497355
-0.008718753 0.002502339 0.005759885 -0.001500695 -0.015247094 0.0058574355 0.009300351 -0.014506954
-0.0036721136 0.0042963396 0.006828309 0.00408479 0.012372397 -0.005682204 0.005474523 0.0051880707
-0.0069693103 -0.009574201 0.018841213 -0.002543027 0.0031963077 -0.007453291 0.018288841 -0.006130643
0.010047319 -0.009973248 -0.011156819 -0.0021731183 0.005325264 -0.0018815112 0.01202615 -0.005755136
0.0030344462 -0.01489939 -0.00020631061 -0.00717413 -0.0011522461 0.008706904 -0.010720578 -0.010035562
-0.008921795 -0.0028655613 -0.01132613 -0.0024699247 -0.008560773 0.013781117 -0.0035782051 0.0027149806
-0.0006843997 0.003999346 -0.008407834 0.005465723 -0.004511271 0.0011625758 0.0024602716 0.0009859047
00000000: 173a c4bb 6672 a83a b251 703a b7ec 853b
00000010: 6fbf 70bc 73ea 18bc 537b b73b 578a 7d3c
00000020: 6276 93bc e237 f73b 4e92 92bb f7fe 753a
00000030: 8036 863b 3ce1 273c 38d7 383c 2a10 80ba
00000040: e74b 80bb 2043 983b af42 023c c886 f539
00000050: 83d1 ad3b 13e4 063b af0c 053c 3804 673b
00000060: 6508 ba39 8b1a c7bb 78e9 443c ffc6 ccbb
00000070: 171e f4bb dfbd a83a 9f07 30ba db28 153c
00000080: 65eb fc3b 5288 ac3c 9872 45bb e951 abbb
00000090: 0f74 22bc d7e1 e3ba b7b2 ad3a 9ea1 883c
000000a0: 5fca 123c 25ef d7ba 84e7 b83b 5251 a8bc
000000b0: 7bd5 f0bb e393 3e3b 2d8e b33a d1a6 9ebb
000000c0: dee3 c9ba 7ade bdbb de73 083c 40fb 913b
000000d0: 0fad 813b 2bb9 373c 82c5 9d3b 7a58 ebbb
000000e0: 03cb 0cbc ef3a 3cbb d59b 583b 8081 81bc
000000f0: e7bd 263b 334b ee3b 0d30 edbb 1059 63bc
00000100: 4892 db3a 5444 06bb 43f0 31bb 6af6 713b
00000110: d75a 02bc 3361 2e3c db2c 1b3c db54 06bb
00000120: 1ad9 0ebc 48fe 233b 6bbd bc3b f8b2 c4ba
00000130: f3ce 79bc bbef bf3b 8060 183c 93ae 6dbc
00000140: d8a7 70bb 4fc8 8c3b 02c0 df3b b4d9 853b
00000150: 98b5 4a3c c831 babb a163 b33b b100 aa3b
00000160: d05e e4bb 1cdd 1cbc e358 9a3c eaa8 26bb
00000170: 2579 513b bd3a f4bb 7bd2 953c 90e3 c8bb
00000180: 839d 243c d566 23bc 17cb 36bc e06a 0ebb
00000190: 8d7f ae3b 0a9d f6ba 5409 453c 9495 bcbb
000001a0: 8fdd 463b 921c 74bc 1555 58b9 f714 ebbb
000001b0: f706 97ba 67a7 0e3c 5da5 2fbc 336c 24bc
000001c0: b82c 12bc 24cc 3bbb 3b91 39bc 76de 21bb
000001d0: 7c42 0cbc 32ca 613c 5280 6abb d1ed 313b
000001e0: 4969 33ba f20c 833b 03c1 09bc cf19 b33b
000001f0: 49d3 93bb 9261 983a 823c 213b 7939 813a

94 f4 [630]
0.18164279 0.48835176 0.309329 0.062298592 0.04101275 0.029193236 0.037257176 0.03971252
0.41173595 0.3681442 0.17673248 0.48907137 0.3083771 0.062298596 0.03823089 0.025951866
0.040367898 0.036257185 0.41634125 0.36850148 0.18212815 0.4888733 0.3086054 0.059289817
0.0403679 0.031110615 0.035377428 0.037816666 0.4120766 0.36654305 0.18432069 0.4911246
0.31108618 0.06444144 0.038640633 0.028830878 0.04480274 0.035228655 0.41809386 0.37059015
0.17648144 0.49031585 0.3127222 0.058580067 0.042396665 0.030941231 0.035820022 0.035820015
0.415364 0.36785302 0.19128402 0.49139813 0.31127158 0.06016505 0.037115976 0.03582002
0.0411405 0.034778498 0.41729012 0.36886644 0.18913357 0.49005508 0.3087262 0.052652925
0.04549957 0.02937273 0.035673097 0.038230885 0.41405186 0.36831897 0.19074903 0.48906228
0.31316838 0.06427919 0.03582002 0.033860143 0.04264344 0.028092097 0.4098066 0.3654087
0.18729347 0.48961064 0.32038245 0.046637613 0.04325413 0.033548426 0.041773338 0.043132704
0.40692 0.36448786 0.20004977 0.48873496 0.316198 0.06271647 0.036257185 0.029372733
0.043254133 0.030941233 0.4045691 0.362494 0.19460708 0.48844638 0.32866377 0.049367134
0.03850454 0.037257176 0.043736525 0.04618579 0.39317587 0.35659987 0.20270622 0.48577905
0.32296392 0.062046494 0.04010704 0.03210805 0.040884603 0.033075303 0.388479 0.3552784
0.19913065 0.48945075 0.33246404 0.054026995 0.038093317 0.038093317 0.049578942 0.04561466
0.38919407 0.35556296 0.20325144 0.4862727 0.32559627 0.057042163 0.038640633 0.031943984
0.042023793 0.037397847 0.3858803 0.3517566 0.19798681 0.48962376 0.34196222 0.057680454
0.042520236 0.035820022 0.04904769 0.04397571 0.38215742 0.35187268 0.20762095 0.48892525
0.3360487 0.057951823 0.03753797 0.034014937 0.0430109 0.040107045 0.38611445 0.34998465
0.20405425 0.49075046 0.34391746 0.05275228 0.047748324 0.034929197 0.04561466 0.04480274
0.3835198 0.34963948 0.21167935 0.48858657 0.3413434 0.06085604 0.037115984 0.03582002
0.049154405 0.038504545 0.37914383 0.34678093 0.20708945 0.49155977 0.3520332 0.057316598
0.047417883 0.03462714 0.051139276 0.041773338 0.37936103 0.3483516 0.21813858 0.4920713
0.34619236 0.060078107 0.040756047 0.038367968 0.049367126 0.043010913 0.3856806 0.34714317
0.21032196 0.49381784 0.35004655 0.06651418 0.047417875 0.03611205 0.05255339 0.04288877
0.38908365 0.350004 0.18175079 0.488105 0.30966303 0.0623824 0.041140504 0.029193236
0.037257176 0.03971252 0.41211277 0.36797258 0.17687176 0.48881432 0.30861884 0.062382385
0.038367957 0.025951866 0.040497694 0.036257185 0.41666302 0.36830866 0.18226276 0.4886437
0.3089676 0.05937793 0.0404977 0.031110615 0.035377428 0.037816666 0.4124596 0.36638847
0.1845064 0.49090797 0.31141716 0.06452241 0.038640633 0.028830878 0.044919636 0.035228655
0.4184043 0.37038827 0.17662099 0.49008286 0.3129848 0.058669273 0.04252023 0.030941231
00000000: 9100 3a3e 3e09 fa3e 5f60 9e3e cf2c 7f3d
00000010: fcfc 273d a726 ef3c fb9a 183d 98a9 223d
00000020: 0ecf d23e 667d bc3e 5cf9 343e 9067 fa3e
00000030: 9ae3 9d3e d02c 7f3d fe97 1c3d 0299 d43c
00000040: cf58 253d 6a82 143d ae2a d53e 3aac bc3e
00000050: cd7f 3a3e 9a4d fa3e 8701 9e3e e1d9 723d
00000060: d058 253d b0db fe3c ece7 103d a6e5 1a3d
00000070: b4fb d23e 88ab bb3e 90be 3c3e af74 fb3e
00000080: b046 9f3e e0f9 833d a445 1e3d bc2e ec3c
00000090: 1483 373d ec4b 103d 6610 d63e febd bd3e
000000a0: 8db7 343e ae0a fb3e 201d a03e a7f1 6f3d
000000b0: 20a8 2d3d 7778 fd3c 04b8 123d 02b8 123d
000000c0: 97aa d43e 3b57 bc3e f5df 433e 8998 fb3e
000000d0: fd5e 9f3e a16f 763d ec06 183d 03b8 123d
000000e0: f182 283d e673 0e3d 0da7 d53e 10dc bc3e
000000f0: 3bac 413e 80e8 fa3e 5c11 9e3e 98aa 573d
00000100: c25d 3a3d 149f f03c f41d 123d fd97 1c3d
00000110: 9bfe d33e 4e94 bc3e b753 433e 5f66 fa3e
00000120: 9b57 a03e cfa4 833d 03b8 123d efb0 0a3d
00000130: e3aa 2e3d 6621 e63c 2cd2 d13e d916 bb3e
00000140: dcc9 3f3e 3fae fa3e 2b09 a43e 1507 3f3d
00000150: 3e2b 313d 136a 093d 851a 2b3d ebab 303d
00000160: d157 d03e 279e ba3e d9d9 4c3e 783b fa3e
00000170: b4e4 a13e 7e71 803d 6a82 143d 169f f03c
00000180: 3f2b 313d 7878 fd3c ae23 cf3e d098 b93e
00000190: 1447 473e a515 fa3e 9e46 a83e 3135 4a3d
000001a0: f0b6 1d3d fb9a 183d 1225 333d 502d 3d3d
000001b0: 594e c93e 4294 b63e 3892 4f3e 08b8 f83e
000001c0: 875b a53e 7724 7e3d 4847 243d bb83 033d
000001d0: 9d76 273d f879 073d b8e6 c63e 0de7 b53e
000001e0: e8e8 4b3e 4a99 fa3e ba38 aa3e 694b 5d3d
000001f0: bd07 1c3d bd07 1c3d 4a13 4b3d 70d6 3a3d
00000200: 7244 c73e 590c b63e 2521 503e bcf8 f83e
00000210: 8eb4 a63e 0ba5 693d a445 1e3d b2d7 023d
00000220: 2421 2c3d 7c2e 193d 1a92 c53e 7119 b43e
00000230: 0ebd 4a3e f7af fa3e ac15 af3e 5742 6c3d
00000240: b329 2e3d 04b8 123d 3be6 483d e01f 343d
00000250: 23aa c33e a828 b43e 969a 543e 6954 fa3e
00000260: 930e ac3e e45e 6d3d 6ac1 193d 3f53 0b3d
00000270: 332c 303d 4947 243d cbb0 c53e 3031 b33e
00000280: 99f3 503e a543 fb3e f315 b03e c612 583d
00000290: bf93 433d eb11 0f3d 70d6 3a3d 1483 373d
000002a0: b55c c43e f203 b33e 79c2 583e 0528 fa3e
000002b0: 90c4 ae3e 2f44 793d ee06 183d 03b8 123d
000002c0: 2156 493d f1b6 1d3d 241f c23e 458d b13e
000002d0: 420f 543e b9ad fb3e b23d b43e cfc4 6a3d
000002e0: 4139 423d 30d5 0d3d 6b77 513d 851a 2b3d
000002f0: 9c3b c23e 245b b23e b85f 5f3e c5f0 fb3e
00000300: 2040 b13e 7614 763d d0ef 263d bb27 1d3d
00000310: 2f35 4a3d 362c 303d ed77 c53e c0bc b13e
00000320: a45e 573e b1d5 fc3e 4d39 b33e 9638 883d
00000330: 3f39 423d 3bea 133d 3942 573d 23ac 2f3d
00000340: f935 c73e b933 b33e e11c 3a3e e6e8 f93e
00000350: 278c 9e3e b084 7f3d f282 283d a726 ef3c
00000360: fb9a 183d 98a9 223d 7200 d33e e766 bc3e
00000370: df1d 353e df45 fa3e 4a03 9e3e ac84 7f3d
00000380: b827 1d3d 0299 d43c e9e0 253d 6a82 143d
00000390: db54 d53e f492 bc3e 17a3 3a3e 822f fa3e
000003a0: 0031 9e3e 4636 733d ebe0 253d b0db fe3c
000003b0: ece7 103d a6e5 1a3d e82d d33e 4597 bb3e
000003c0: 3fef 3c3e 4a58 fb3e 1272 9f3e 5324 843d
000003d0: a445 1e3d bc2e ec3c a7fd 373d ec4b 103d
000003e0: 1739 d63e 88a3 bd3e 22dc 343e 24ec fa3e
000003f0: 8b3f a03e 314f 703d b129 2e3d 7778 fd3c

97 f4 [6]
8.399208 32.50249 8.392478 32.10794 8.416866 31.70629
00000000: 2863 0641 8d02 0242 9747 0641 886e 0042
00000010: 7cab 0641 7ba6 fd41
