Assets/ZooheimTest/Models/run2/RabbitFBehavior.onnx (onnx, 406669 bytes, 14 tensors)

discrete_act_size_vector f4 [1, 3]
000000 00 00 00 40 00 00 40 40 00 00 80 3f
       2.0 3.0 1.0

network_body.observation_encoder.processors.0.normalizer.running_mean f4 [630]
000000 b3 c3 15 3d 63 74 ff 3e 64 20 c9 3d 00 a0 0b 3b
       0.036563586 0.49893484 0.09820631 0.0021305084
000010 b4 1f ca 3a 5e 7c bf 3a f3 ee 94 3a 69 66 5f 3a
       0.0015420825 0.0014609208 0.0011362716 0.0008522035
000020 6c 6f ad 3e ea 02 11 3f af 42 17 3d 8a 48 fd 3e
       0.3387407 0.5664507 0.03692883 0.49469405
000030 f9 46 c7 3d c5 72 4d 3b 4c 04 f2 3a bc db b0 3a
       0.09730334 0.0031348926 0.0018464415 0.001349322
000040 be db b0 3a 6b 66 5f 3a 04 7e af 3e a7 ea 10 3f
       0.0013493223 0.00085220364 0.3427583 0.5660805
000050 b9 a1 18 3d f0 27 fe 3e e1 2b c0 3d db 18 54 3b
       0.037263606 0.49639845 0.09383369 0.0032363448
000060 6e 2d b6 3a 38 1a d2 3a a8 fc 80 3a 7a de 2c 3a
       0.0013899037 0.0016029542 0.0009840922 0.0006594431
000070 91 ac af 3e d7 a4 11 3f 02 71 21 3d cc 18 f7 3e
       0.34311345 0.5689215 0.039414413 0.48261106
000080 02 7c cf 3d 21 3b 22 3b 1c 7f bb 3a 73 e9 9c 3a
       0.101310745 0.0024754482 0.0014304849 0.0011971429
000090 65 71 cf 3a f5 55 77 3a 8d 0f b3 3e 78 49 13 3f
       0.0015826641 0.0009435111 0.34972802 0.5753398
0000a0 33 ec 18 3d 9f 7d 02 3f e4 c8 bc 3d 5e 13 5c 3b
       0.037334632 0.5097293 0.09218004 0.003358088
0000b0 90 8f a3 3a c7 97 97 3a f4 ee 94 3a 91 4b 0a 3a
       0.0012478698 0.0011565619 0.0011362717 0.00052755425
0000c0 76 fc a9 3e ae 80 10 3f b3 1f 2b 3d 5f a4 f9 3e
       0.33200425 0.5644635 0.041778278 0.48758218
0000d0 d9 fb c7 3d 9d e2 26 3b 98 84 b3 3a cd fe 79 3a
       0.09764833 0.0025464662 0.0013696132 0.00095365645
0000e0 e2 3d 9e 3a bb e6 a0 3a e8 95 b1 3e b0 76 12 3f
       0.0012072886 0.0012275794 0.34684682 0.5721235
0000f0 a6 36 19 3d 41 a0 ff 3e 15 8a ca 3d 8f 84 33 3b
       0.037405632 0.49926952 0.09889618 0.0027392244
000100 f5 e3 a4 3a be a2 87 3a 30 ec 98 3a 23 3b 22 3a
       0.0012580144 0.0010348184 0.0011667069 0.00061886216
000110 ce 74 ab 3e c8 fc 10 3f 41 10 32 3d 6f 80 fb 3e
       0.33487552 0.56635714 0.043472532 0.49121425
000120 e0 93 d3 3d 18 e8 1e 3b fe d8 b4 3a 55 4e 86 3a
       0.10330939 0.0024247225 0.0013797579 0.0010246733
000130 ef ee 94 3a 95 b2 6c 3a 24 eb ab 3e 5a 1c 11 3f
       0.0011362712 0.00090292963 0.33577836 0.56683886
000140 05 43 26 3d 9d a5 fd 3e 07 d3 d4 3d 96 e2 26 3b
       0.04059126 0.49540415 0.10391813 0.0025464646
000150 4c 92 9f 3a 61 71 cf 3a db 76 c7 3a 8f c8 4c 3a
       0.0012174337 0.0015826636 0.0015217917 0.0007811868
000160 6e 99 a8 3e e4 c0 0f 3f 78 e9 3b 3d 05 14 fc 3e
       0.32929558 0.561537 0.04587695 0.49234024
000170 cb bf d1 3d 07 37 28 3b d1 81 b7 3a c8 97 97 3a
       0.1024166 0.0025667564 0.001400048 0.001156562
000180 81 d3 bc 3a 01 a0 8b 3a b4 1d aa 3e a9 60 11 3f
       0.0014406295 0.0010652543 0.33225787 0.56788117
000190 ce e9 2b 3d 1b d4 00 3f ce 39 e2 3d c4 72 4d 3b
       0.04197102 0.5032365 0.110461816 0.0031348923
0001a0 cb c5 d0 3a b2 1f ca 3a 13 8a ab 3a 28 30 b2 3a
       0.0015928088 0.0015420823 0.0013087414 0.0013594674
0001b0 b8 ec 9f 3e 59 5b 0e 3f 79 46 40 3d 53 03 00 3f
       0.3123529 0.55608135 0.046942208 0.5000507
0001c0 8c a5 e0 3d 85 6a 59 3b f8 4c 08 3b 7b de ac 3a
       0.109690756 0.0033175063 0.002079783 0.0013188863
0001d0 2f 5e eb 3a 02 d9 b4 3a c4 ce a0 3e 7f 6c 10 3f
       0.0017957146 0.0013797584 0.3140775 0.5641555
0001e0 17 c5 32 3d 2a b2 01 3f fb b3 ea 3d d6 18 54 3b
       0.04364499 0.5066248 0.1146011 0.0032363436
0001f0 fd 11 de 3a 95 ed 16 3b ab 2a ba 3a 66 66 df 3a
       0.0016942617 0.0023029794 0.001420339 0.0017044067
000200 7c f9 98 3e 42 94 0d 3f c9 ff 49 3d 88 22 02 3f
       0.2987784 0.5530435 0.0493162 0.5083394
000210 67 bd e4 3d 67 08 6c 3b 72 80 39 3b 0f 8a ab 3a
       0.11168938 0.003601575 0.002830532 0.0013087409
000220 6b f4 0c 3b b8 e6 a0 3a 0b 28 99 3e a5 73 0e 3f
       0.002150799 0.0012275791 0.29913363 0.5564521
000230 d7 b0 40 3d 9f 1e fe 3e a2 96 ee 3d b6 fa 7f 3b
       0.047043648 0.49632737 0.11649825 0.0039059347
000240 51 c0 d8 3a 48 34 2c 3b a2 6e d3 3a 7a 50 7f 3a
       0.0016536807 0.002627628 0.0016130994 0.000973947
000250 11 91 9b 3e 0d c4 0e 3f 63 14 4b 3d 78 c9 ff 3e
       0.30384114 0.557679 0.04957999 0.49958396
000260 4b 79 f2 3d 9b 79 43 3b 82 d3 3c 3b f9 e3 a4 3a
       0.11839541 0.0029827121 0.0028812592 0.0012580148
000270 95 4b 0a 3b a4 fc 80 3a 94 d3 99 3e d4 e7 0f 3f
       0.002110218 0.0009840918 0.30044234 0.56213117
000280 4b 4b 39 3d 85 bf fe 3e 2e 75 f8 3d fa fb 81 3b
       0.04523782 0.49755493 0.12131725 0.0039668055
000290 12 51 02 3b b4 4f 04 3b 74 52 00 3b 76 e9 9c 3a
       0.0019884747 0.0020189108 0.0019580396 0.0011971432
0002a0 a1 bf 99 3e b5 15 10 3f 44 bf 4a 3d c4 87 fa 3e
       0.30029014 0.5628312 0.04949881 0.48931706
0002b0 26 d1 ee 3d ae c1 56 3b a4 a7 fc 3a 21 ad f4 3a
       0.11660986 0.003276925 0.0019276035 0.0018667319
0002c0 14 51 02 3b 7c 50 7f 3a 43 1f a0 3e be aa 12 3f
       0.0019884752 0.0009739471 0.3127385 0.5729178
0002d0 14 73 3d 3d e6 79 f5 3e 10 71 fe 3d a2 a7 7c 3b
       0.046252325 0.47944564 0.12423909 0.0038552065
0002e0 55 4e 06 3b cb fe f9 3a 0d f3 0e 3b 83 de ac 3a
       0.0020493467 0.0019073127 0.002181235 0.0013188872
0002f0 8e 2c a0 3e 0f f4 13 3f fc a9 4a 3d 4c da f6 3e
       0.31283993 0.5779428 0.049478516 0.48213422
000300 de c7 ec 3d e3 6b 57 3b f1 60 e7 3a 76 50 ff 3a
       0.11561559 0.0032870702 0.0017652792 0.0019478935
000310 4b fb 02 3b 48 04 72 3a 93 04 a4 3e ba e5 15 3f
       0.0019986208 0.00092322053 0.3203474 0.5855366
000320 0f fe 3c 3d 92 7e f4 3e e5 bc fc 3d da af 70 3b
       0.046140727 0.47752815 0.12340716 0.003672591
000330 29 69 db 3a 64 aa f8 3a bd 44 14 3b 69 38 a6 3a
       0.0016739714 0.0018971679 0.002262398 0.0012681606
000340 dc a4 a1 3e 7c 8e 15 3f 89 03 16 3d 04 fc ff 3e
       0.3157109 0.5842054 0.036624465 0.4999696
000350 31 70 c9 3d 3b 4a 0c 3b f7 1c ce 3a 5e 7c bf 3a
       0.09835852 0.002140655 0.0015725185 0.0014609208
000360 f3 ee 94 3a 3c 0f 62 3a 88 c0 ad 3e 67 47 11 3f
       0.0011362716 0.0008623486 0.33935952 0.56749576
000370 27 8d 17 3d 2d cc fd 3e c8 96 c7 3d f6 1c 4e 3b
       0.036999848 0.49569836 0.09745556 0.0031450368
000380 8c 01 f6 3a bc db b0 3a be db b0 3a 42 0f 62 3a
       0.0018768772 0.001349322 0.0013493223 0.00086234894
000390 1e d3 af 3e 46 31 11 3f e8 d6 18 3d ee a8 fe 3e
       0.34340757 0.5671581 0.037314326 0.49738258
0003a0 3b a6 c0 3d 10 c3 54 3b ae 2a ba 3a 38 1a d2 3a
       0.09406706 0.00324649 0.0014203393 0.0016029542
0003b0 a8 fc 80 3a 52 87 2f 3a 03 fb af 3e 7b e7 11 3f
       0.0009840922 0.00066958845 0.34371194 0.56993836
0003c0 76 bb 21 3d ce 8d f7 3e 15 e1 cf 3d 8a 8f 23 3b
       0.039485417 0.48350376 0.10150353 0.0024957382
0003d0 5d 7c bf 3a 73 e9 9c 3a 65 71 cf 3a d3 fe 79 3a
       0.0014609207 0.0011971429 0.0015826641 0.0009536568
0003e0 fb 6d b3 3e 33 92 13 3f 62 21 19 3d 71 bf 02 3f
       0.35044846 0.5764496 0.037385352 0.51073366
0003f0 45 33 bd 3d 5e 13 5c 3b cf 8c a7 3a c7 97 97 3a
       0.092382945 0.003358088 0.0012783053 0.0011565619

network_body.observation_encoder.processors.1.normalizer.running_mean f4 [9]
000000 29 67 42 42 f0 5f e5 42 0e 3b 06 3f 5e a8 42 42
       48.600742 114.68738 0.5243386 48.66442
000010 2d c8 e5 42 72 a1 06 3f 96 e9 42 42 ee 2f e6 42
       114.89097 0.52590096 48.72811 115.09361
000020 d5 07 07 3f
       0.52746326

network_body._body_endoder.seq_layers.0.weight f4 [128, 639]
000000 7b 39 8f 3d 61 e0 7a bd 25 50 92 bc 87 e8 78 3d
       0.069933854 -0.06124914 -0.017860482 0.06076863
000010 3a ea 59 3d 2c 7a 75 3d 29 eb 73 bd b8 70 25 bd
       0.05320189 0.059930965 -0.059550438 -0.0403907
000020 fb d8 c3 bc 33 f9 53 bd ad d9 42 3d af ea be bd
       -0.023907175 -0.051751327 0.047570873 -0.09322106
000030 d1 bf 59 bc 89 e2 ac bc f9 42 91 3d 92 b0 b5 bb
       -0.0132903615 -0.021104114 0.07092852 -0.0055447305
000040 a1 34 8d bb 54 02 64 3d 9e d4 9c bc b9 69 ff 3c
       -0.0043092524 0.055666283 -0.019144353 0.031178342
000050 fc 02 1c 3c 7f ef ab 3a 89 58 f5 3b 0b ba 52 3c
       0.009522196 0.001311764 0.007487361 0.012861739
000060 89 14 ce 3a 0a 9d 2f 3d e3 ef eb 3c fa 8b 9c 3b
       0.0015722673 0.042874373 0.02880091 0.0047774287
000070 cf 74 5d b9 8b b9 aa 3c 98 9a 6d bd 51 11 2f bd
       -0.00021119717 0.020840427 -0.05800876 -0.042741124
000080 33 e7 a3 bc dc 41 84 3c 68 e4 0d 3d 9f af 58 bc
       -0.020007705 0.016144685 0.034641653 -0.013225465
000090 a7 a2 54 bc 68 e7 97 3b 60 81 34 bd ce 39 1d 3d
       -0.0129782325 0.00463574 -0.044068694 0.038385205
0000a0 af b4 9d 3d a1 22 a1 bd d1 4c 73 bd 2d b0 46 3d
       0.07700478 -0.07867933 -0.05939943 0.048507858
0000b0 22 97 9d 3c de 54 0c bd f0 86 b4 3c 27 ae 7b bd
       0.019237105 -0.034260623 0.022037 -0.06144538
0000c0 e6 8a d6 bd ba c7 1f bb df 4a 4c 3c 5b 89 fd 3c
       -0.104757115 -0.002438052 0.012469023 0.030949285
0000d0 c6 1b 23 bd d9 24 78 bd 32 32 b1 bc dd 04 03 3c
       -0.03982141 -0.060582016 -0.02163038 0.007996765
0000e0 04 28 2a 3d 9c 54 35 bc 6f 63 2d 3d ca c5 e3 bb
       0.041542068 -0.011067536 0.042331155 -0.0069510685
0000f0 07 84 9d bc f5 39 40 3d 6f 97 66 bd ec 02 ac 3c
       -0.019227995 0.046930272 -0.056296762 0.020997487
000100 17 3b c0 3d bd 1e a1 3c 05 0c 92 3b c0 f0 40 bd
       0.093862705 0.019667977 0.0044569992 -0.047104597
000110 ed eb 53 bc 16 b5 5f 3d b5 92 0b 3d 1d ae 70 bd
       -0.012934667 0.054616056 0.034075458 -0.058759797
000120 10 e3 30 3d 02 ce 53 3b 0d 69 ca bc c8 71 f8 bc
       0.043185294 0.0032318835 -0.024708295 -0.030327693
000130 a0 7e 62 bd 41 24 00 bc 04 81 db bc 2d 56 2c bc
       -0.05529654 -0.007821144 -0.026794918 -0.010518593
000140 dc 78 bf 3d 89 7b 86 bd b5 38 24 bd ef 35 34 3b
       0.09349224 -0.06566531 -0.040093143 0.0027497967
000150 07 63 5d bd a4 d4 85 bd 0d ee 21 3d 0b 86 5c bc
       -0.054049518 -0.065346986 0.039533664 -0.013459693
000160 a7 bb 75 3c dd 6b 3c bd bc 40 a4 bc 31 60 01 3d
       0.014998353 -0.046001304 -0.020050399 0.031585876
000170 89 a5 17 3d ef c4 75 3d 54 00 db bb f0 34 10 bd
       0.0370231 0.060002264 -0.0066833887 -0.035206735
000180 69 58 99 3c a4 e8 e1 bc 47 a8 c1 3d 3c 15 2e bd
       0.018718915 -0.027576752 0.094559245 -0.04250072
000190 eb c7 32 3d 49 7f 8a 3d 5b dd 54 bc ec 91 b9 3d
       0.043647688 0.06762559 -0.012992228 0.090610355
0001a0 42 14 c1 3c 1f 30 b0 3a 16 26 a8 3b 13 1e 11 3d
       0.02356923 0.0013442076 0.0051314933 0.03542907
0001b0 2f e8 fd bc 63 de 7c bd 5c ce ac 3c 8e 14 d5 3c
       -0.030994503 -0.061735522 0.021094494 0.026010778
0001c0 d7 de 23 bd 84 75 a0 3d 02 08 40 3c d1 37 37 bd
       -0.04000744 0.07834914 0.011720659 -0.044730965
0001d0 10 0c d6 bc ce 5c 05 3d 7e 28 14 3d ab 1f 2b 3d
       -0.026128799 0.03255921 0.03617143 0.041778248
0001e0 a2 54 34 3d 3d d4 23 3d cb c3 33 bd a2 5b 17 bc
       0.044026025 0.039997328 -0.043887895 -0.009238156
0001f0 14 8f 11 bb 47 40 55 3c 70 5f 91 3d 29 a9 0c 3c
       -0.0022210525 0.013015813 0.070982814 0.008585253
000200 90 12 d7 3b da 7a 3d bd d6 85 c0 3d b8 52 41 bd
       0.006563492 -0.04625974 0.09400527 -0.047198027
000210 f7 40 cc 3c 69 c3 fa 3c ac 0f b7 ba 51 96 24 3d
       0.024933321 0.030610757 -0.0013966463 0.040182415
000220 26 ff 03 bd 4e f6 37 3c 3d 3b 59 3c 08 d5 bf 3d
       -0.03222575 0.011228157 0.013258752 0.09366804
000230 4c ff 11 3d fa 93 9a bc 7e 19 c6 bd ee e2 5e bc
       0.03564386 -0.018869389 -0.09672831 -0.013603909
000240 a5 74 27 bd b4 1e a6 bc a9 78 d6 3c c7 ef 5c bd
       -0.040882725 -0.020278312 0.026180582 -0.053939607
000250 39 a2 ad 3c fc 5a d2 bc 30 ac 56 3b db dd 46 3d
       0.021195518 -0.02567815 0.003275644 0.04855142
000260 d1 b2 ac bb 71 49 86 bc e1 34 61 3c 9b c2 22 3d
       -0.00527034 -0.016392441 0.0137455175 0.03973637
000270 64 a9 b5 bd 0d c2 eb 3c 80 a3 df ba a4 77 ee bc
       -0.08870199 0.028779054 -0.0017062277 -0.029109783
000280 27 92 9b bc 86 40 8b bc 47 59 c6 bd 52 b0 38 3c
       -0.01899059 -0.01699854 -0.09684997 0.011272507
000290 17 2f b3 3c 20 df 97 3d 4a 17 c0 3c 84 cd c3 bc
       0.02187304 0.074156046 0.023448605 -0.023901708
0002a0 ae 98 8c bd bc f1 c4 bb c6 e5 f9 3a e1 c2 43 3d
       -0.06865059 -0.0060102623 0.001906567 0.047793273
0002b0 e6 f6 31 3d b8 c6 1c 3c 6d e6 9f bc a4 be 09 3c
       0.04344835 0.009568863 -0.019519055 0.008407269
0002c0 d2 f3 81 3d 35 81 61 bc 72 2d b8 3c 2c 48 dc 3b
       0.06345333 -0.0137637155 0.022482608 0.0067224707
0002d0 25 90 d7 bd c1 26 07 bd 58 23 f5 3c 41 11 af bd
       -0.1052554 -0.032995943 0.02992408 -0.08548213
0002e0 92 62 d8 bc b1 b8 31 bd fc 48 fa 3d e2 4d 4f 3d
       -0.02641419 -0.043389026 0.12220952 0.050611384
0002f0 83 ea 28 3c 38 a0 53 bd 5a 18 83 3d 94 66 d0 3c
       0.010309818 -0.05166647 0.06401129 0.025439538
000300 48 8f ce bc f4 cb 35 bd 66 ac 0a bd 65 a4 71 3d
       -0.025214806 -0.044383958 -0.03385582 0.05899467
000310 c0 15 d9 3c b1 aa 2d 3d f7 89 90 3d 91 34 5c bd
       0.026499629 0.042399112 0.07057565 -0.05376107
000320 4c d7 8b bc 0a ae b0 bc 74 e7 64 bc 70 f0 a5 3d
       -0.017070435 -0.021567363 -0.013971198 0.081025004
000330 30 0a 19 bd a7 f0 8e bd 3a 25 ae ba 90 5b c7 3b
       -0.03736323 -0.069794945 -0.0013286241 0.006083913
000340 6f 8a ac bc f4 ea 25 bd 89 4d 34 bd 9a 1a d7 3c
       -0.021062104 -0.040507272 -0.044019256 0.026257802
000350 e3 0a 05 3d 82 52 7d 3b 2d fa 19 3d 56 c5 a7 bb
       0.032481086 0.0038653915 0.0375921 -0.00511996
000360 d6 2d 29 3c 16 d4 74 3b 47 fe 48 3d 78 34 b2 3d
       0.01032587 0.0037357858 0.049070623 0.08701414
000370 bd c9 1a bc 4b 10 40 3d 12 59 80 3d 60 c7 66 bc
       -0.009447512 0.04689054 0.06266989 -0.014085621
000380 60 0e cb 3c 70 99 69 bd 9b c4 06 3d 0c 9a 80 bc
       0.024787128 -0.057031095 0.03290234 -0.015698455
000390 d2 e8 5b bd 20 79 a8 bd 7e 46 42 3d b3 ee 12 3d
       -0.05368883 -0.08226228 0.047430508 0.035872173
0003a0 30 a6 c4 3c 65 9c 0e 3d 53 43 0d 3d 58 a5 6a 3d
       0.024005026 0.03481712 0.034488034 0.05728659
0003b0 38 04 29 3d 8c 8c 0f 3c f4 51 9a bb cc 4a 3d 3a
       0.04126379 0.008761536 -0.0047094766 0.00072209234
0003c0 c0 98 e6 3c 00 1b 4d bc 12 ca be 3c 5e 10 35 bc
       0.028149009 -0.012518644 0.023289714 -0.0110512655
0003d0 06 76 63 3d e4 89 44 bc 8c 14 a1 bb 7a 2c c6 3b
       0.055532478 -0.011995766 -0.0049157795 0.0060477825
0003e0 56 0d ac bb 70 ee 5c bb 15 27 3e bd 4c 20 03 bd
       -0.005250613 -0.0033711456 -0.04642399 -0.032013223
0003f0 8d b6 13 bc 5b 46 6d 3d ee cd 05 3d aa 75 e1 bc
       -0.0090156915 0.057928424 0.032667093 -0.027521927

network_body._body_endoder.seq_layers.0.bias f4 [128]
000000 1d ad 7e bc 68 76 c6 bb 6e a2 c5 bb a7 1f 45 bc
       -0.015544203 -0.0060565956 -0.006031326 -0.012031472
000010 fa 3d 38 3c 02 da 87 bc ba 4d 3c bc fb 63 cc bb
       0.011245245 -0.016583446 -0.011493141 -0.0062375045
000020 b1 f1 ab bc 85 37 53 39 ef f1 0f 3c 8e 77 9d bb
       -0.02098927 0.0002014321 0.008785709 -0.004805512
000030 ed ea a9 bc 8f 0d 06 bc 7e 94 2c 3c 91 88 f7 bb
       -0.020741904 -0.008181944 0.01053345 -0.007554122
000040 1e 07 9b bc d2 ea 1a bc ec 53 bd bb b0 81 a3 3b
       -0.018924292 -0.0094554 -0.0057778265 0.004989825
000050 19 54 6c bb bf e7 2f bc 83 97 da 3b 66 82 0a bc
       -0.0036060868 -0.010736405 0.0066708936 -0.008453941
000060 07 cb 52 3b 2f 5f af bb 17 f3 e9 ba e7 38 80 bc
       0.003216447 -0.005351923 -0.0017848936 -0.015652133
000070 e9 fe 1c bc f5 12 41 bc 6b 40 ab bc a1 09 2f 3b
       -0.00958226 -0.011784305 -0.02090474 0.002670862
000080 83 84 bd 3a 3b 60 4f 3c c0 f9 94 bc 04 2b 6c bc
       0.0014459047 0.0126572205 -0.018185496 -0.014414553
000090 70 52 c0 3b 59 e0 ba bc 25 82 4f bc 74 09 97 bb
       0.0058692023 -0.022812055 -0.012665306 -0.004609281
0000a0 9e d1 da 3b c5 26 75 bc f0 2a c3 bc bf 22 87 3a
       0.0066778203 -0.014962857 -0.023824185 0.0010310038
0000b0 18 f3 4a bc 4d 6d 93 bb ac 9d 0c 3a 3f ee 71 bc
       -0.01238706 -0.0044991137 0.0005364071 -0.014766275
0000c0 84 5a 2b 3b 1a 6e 67 bc d3 6f 84 bc d6 97 61 bc
       0.002614648 -0.014125371 -0.016166603 -0.013769111
0000d0 43 28 76 bc 96 da cb bc 2e 48 02 3c 84 41 d5 bb
       -0.015024248 -0.024884503 0.007951779 -0.006508054
0000e0 89 74 20 bb be ac 7f bb 62 31 93 bc d5 fe 87 bb
       -0.0024483523 -0.0039012874 -0.017967883 -0.0041502514
0000f0 e2 a6 39 bc df 3c 7f bc c0 5d 68 bc ea 68 eb bc
       -0.011331292 -0.015578478 -0.014182508 -0.02873655
000100 2a ae 85 bc 6e 04 aa bc f1 d7 cd bb 8e b4 82 bc
       -0.0163184 -0.020754065 -0.0062818457 -0.015955236
000110 d6 8e a5 3a ef ba 5f bb 5c ff 3d b9 b4 01 6e bc
       0.0012631069 -0.003413852 -0.00018119573 -0.014526773
000120 53 47 82 bc 6a 4d 3d bb a0 3d c9 bc 97 b0 17 bc
       -0.01590315 -0.0028885254 -0.024565518 -0.009258411
000130 4f 46 ac ba 24 27 2c 3c c7 f3 b7 ba d8 f2 b9 bc
       -0.0013143512 0.010507379 -0.0014034443 -0.022698805
000140 aa 52 b9 bc 0a e8 b5 3a 3b b6 8f bc 63 20 14 3b
       -0.022622425 0.0013878357 -0.017542949 0.0022602312
000150 d6 db 49 bc aa 34 97 bc de 1f ad bc ea 9f b4 3a
       -0.012320479 -0.01845773 -0.02113336 0.0013780568
000160 0b 2a 66 bc 1f fc 63 bc ac 61 b7 bc b3 d9 63 bc
       -0.01404811 -0.013915091 -0.02238544 -0.013906884
000170 fe 73 ef bb 97 fe 3f bc 22 e4 76 bc 28 b5 c5 bc
       -0.0073075285 -0.011718414 -0.01506904 -0.024134234
000180 c1 ad 4f bb c3 84 3c bc 5e 58 f7 bc 25 39 aa bb
       -0.0031689259 -0.011506262 -0.030193504 -0.0051948004
000190 04 d5 dc bc 96 e8 4a 3c df b7 1a bc 33 83 a1 bc
       -0.026957043 0.012384554 -0.009443252 -0.019715881
0001a0 c3 db aa 3b b8 cb 77 bc b7 9b ff bb c1 01 e5 bb
       0.005214186 -0.015124254 -0.007800545 -0.0069887345
0001b0 52 08 dc bb 02 eb 68 bb 1c ef 9e bc 26 e5 02 bd
       -0.006714859 -0.0035540466 -0.019401126 -0.031956814
0001c0 86 47 0c 3c cd 8c 06 3c 03 58 b8 bb ce 1d c5 bb
       0.008561974 0.00821228 -0.005625726 -0.006015516
0001d0 c5 76 51 3c bb 6e 22 bc 89 0e db 3b b9 6d 4f 3b
       0.0127846645 -0.0099140955 0.0066850823 0.0031651093
0001e0 f9 c5 16 bc ff db 60 bc e3 8a 7f bc 0e 4f 1b bc
       -0.009202474 -0.013724326 -0.015597078 -0.009479297
0001f0 87 53 a2 bc 94 f1 b9 bb bd d7 90 3a e7 89 f4 bc
       -0.01981522 -0.0056745503 0.0011050623 -0.029850913

network_body._body_endoder.seq_layers.2.weight f4 [128, 128]
000000 76 b2 04 bb c2 59 c9 3d e1 eb b8 bd af 07 db 3d
       -0.0020247973 0.09831573 -0.09029365 0.10694825
000010 ac 72 46 3d 31 c3 ae bb 6c 93 ff bd 6c 54 a1 3d
       0.048449203 -0.005333327 -0.1247929 0.0787743
000020 8e 60 b1 bd 9c fa 73 3c 4b 06 84 3c 5c 88 e0 bd
       -0.086609945 0.014891293 0.016116282 -0.109635085
000030 a1 df a0 3c 48 8e d3 bc 0f cb 46 bc 27 f7 52 3d
       0.019637885 -0.02582468 -0.012133374 0.051505234
000040 74 84 a4 3d 71 d6 a6 bc a2 05 e6 bd 81 07 03 3e
       0.08033076 -0.020365926 -0.11231543 0.12795831
000050 a4 c1 9a ba 74 5c 27 3d fd 3d fb 3d 27 e4 2c be
       -0.0011806977 0.040859655 0.12267683 -0.16883908
000060 52 0d 76 bd 2b 8b 2c 3d b3 c8 f5 3d 72 91 8e bc
       -0.060071297 0.04212491 0.12001171 -0.017403338
000070 cc b8 27 be 24 d1 02 3c b6 fc ca 3c 73 d5 11 be
       -0.16379088 0.007984433 0.024778705 -0.1424158
000080 75 05 00 be 63 9b 42 be d0 fb 09 3d 41 3c 12 3e
       -0.12502082 -0.19004588 0.033687413 0.14280798
000090 c9 67 d5 3d 31 23 ba 3d 06 5d c9 bd 8a 93 9f bd
       0.10420186 0.090887435 -0.09832196 -0.07791813
0000a0 9e 2b 7a 3d 99 df 39 bd 4b c5 d0 3d 6f 86 a7 bd
       0.061076753 -0.045379255 0.10193881 -0.08179938
0000b0 a4 a6 e9 bb f7 b8 ab bd 3e fb a3 3d c5 31 14 3e
       -0.007130461 -0.083848886 0.08006905 0.1447211
0000c0 b3 7c 0d bd cf 31 cf bd ad 98 4b be dd 86 3a bc
       -0.03454275 -0.10116922 -0.1988246 -0.011384693
0000d0 4d 4d 4f 3e af a6 02 3c e0 4d 11 3d 1a 13 45 3d
       0.20244332 0.007974311 0.035474658 0.04811392
0000e0 c3 f7 bc 3c e9 1e 16 3d 59 2f 08 3c d7 b8 74 3d
       0.02306736 0.036650572 0.00831207 0.05974659
0000f0 a0 08 06 be 70 a1 3b bc e9 8d f0 3d f7 67 ea bc
       -0.13089228 -0.011452064 0.11745817 -0.028614027
000100 a9 b4 3e be c7 ea f4 3c 0f 1f 95 3c 8a 29 64 3d
       -0.18623604 0.029897107 0.018203286 0.055703677
000110 e5 4c 8b bd 12 bd 72 3d ae f0 45 3d c7 4c 81 3e
       -0.06801776 0.059262343 0.048325233 0.2525389
000120 33 0f a8 bd b0 59 61 3c ea 53 c6 3d 43 2f b5 3c
       -0.08206024 0.013754293 0.09683974 0.022117263
000130 28 64 32 3d e6 6b fc 3d aa 11 22 3e 4f 85 5c 3d
       0.043552548 0.123252675 0.15827051 0.05383807
000140 e3 bb 16 be de 50 50 bd 79 9c b2 bb bc 41 a0 bd
       -0.1472011 -0.05085837 -0.005450782 -0.07825038
000150 ad 8e 35 bb e8 24 96 bd 4c e1 0c be 85 2f ab bd
       -0.002770345 -0.07331258 -0.13757819 -0.08358673
000160 ad 21 ac 3d a9 41 36 be 2c a2 e9 3c 6c 48 8e 3d
       0.08404861 -0.17798485 0.028519712 0.06947407
000170 e5 3b 57 3d 92 cf a4 3d a8 3e 5b 3e 5b f4 bb 3d
       0.052547354 0.080474034 0.2141062 0.091774665
000180 03 37 f0 bc e5 17 b2 3c c3 88 fe bc dd d9 02 3d
       -0.029323107 0.02173991 -0.031071072 0.031946052
000190 03 88 5f 3c e5 2a 1e 3d 31 fb bf 3d 8d 78 47 be
       0.013643268 0.038615126 0.09374083 -0.1947958
0001a0 96 bf a1 3a 3a 3e 85 bd ca a5 28 be cd 22 70 3d
       0.0012340422 -0.065060094 -0.16469494 0.05862694
0001b0 43 41 38 be 42 43 a2 bd 01 0f 2d bd ea a6 7a 3d
       -0.17993645 -0.07922985 -0.042250637 0.061194338
0001c0 f9 d3 c3 3d d5 25 88 bd 07 0f ba 3d f2 b7 3f be
       0.09561915 -0.06647841 0.090848975 -0.18722513
0001d0 89 81 39 3e 98 75 03 3e b0 b9 80 bc 68 6b 8d bd
       0.1811582 0.12837827 -0.015713543 -0.06905252
0001e0 5e be 07 3e 7d 0f e0 3c 10 2e 93 3d ed fd 77 3c
       0.13256213 0.027351135 0.0718652 0.015136224
0001f0 a8 0e a0 bc 3a 5a a0 3d 5b 39 41 3c b1 70 b1 3c
       -0.019538239 0.07829709 0.01179346 0.02166018
000200 bc 31 d5 3c 2e b9 e8 3c 41 a7 ba 3d cc d7 6d 3d
       0.026024692 0.028408613 0.091139324 0.058067128
000210 bb d0 93 3d 6b 0a ef bd 6c 64 ec 3b b0 8d 5d 3e
       0.072175466 -0.11671909 0.0072141197 0.2163608
000220 7a a5 27 bd bc 21 39 3d f6 b6 f7 bd 9e 71 ce 3d
       -0.040929295 0.045198187 -0.12095444 0.100802645
000230 3b 4b c7 3c b9 e3 c4 bd 19 0f 1a bd d6 86 8e bd
       0.024327865 -0.09613747 -0.037612054 -0.06959312
000240 21 5c 99 bc 9d 61 66 be a8 58 eb 3d ff ee 87 bd
       -0.018720688 -0.22498174 0.11491519 -0.06637382
000250 57 21 91 3d 26 44 d1 3d 5a 88 de bd a4 58 c0 3c
       0.07086437 0.102180764 -0.10865851 0.023479767
000260 cf 41 18 be cb 33 31 3e 17 3e e0 3d 58 48 eb 3c
       -0.14868854 0.17304914 0.10949343 0.02872102
000270 b2 2e 45 3d a7 32 1f bd d0 e2 8b bd fd dd f8 bc
       0.048140235 -0.038866665 -0.068303704 -0.03037929
000280 dc 07 82 bd d7 ec 00 bd e1 1c 0a bd b6 09 0c 3e
       -0.06349155 -0.031475868 -0.033718947 0.1367558
000290 37 2c 11 3e e6 4a 51 be 9e 2a 8b bd dc b6 87 3d
       0.14177023 -0.20438728 -0.06795238 0.066266745
0002a0 c3 a2 61 3e eb 6b 00 bd fa 35 24 be b1 55 60 bd
       0.22034745 -0.03135292 -0.16036215 -0.05476922
0002b0 5b 68 d0 bc df 60 07 bc 4d 26 d1 3d 33 3b bd bd
       -0.025440386 -0.008262842 0.102123834 -0.09239807
0002c0 ed a7 d2 3c c0 a5 c3 3c e4 12 80 3d 27 c5 6e bc
       0.025714839 0.023882747 0.06253603 -0.014573372
0002d0 08 83 93 3d 25 2c 8b bc bf a5 93 bc a9 1d 3a 3d
       0.072027266 -0.016988823 -0.01802337 0.045438442
0002e0 00 58 18 3e 86 15 d9 3b e3 c5 e2 3d 2e 36 d2 bd
       0.1487732 0.0066248802 0.110729 -0.1026424
0002f0 02 8b 6f 3c 82 04 72 bd 32 19 84 3d 8b c6 3f 3e
       0.014620544 -0.05908633 0.06450118 0.18728082
000300 60 83 d8 bd bf 37 69 3d ab b4 fa 3c 66 ec 26 3d
       -0.10571933 0.05693793 0.030603727 0.04075279
000310 8a 38 5d bd 3f b8 7e 3d 94 27 2b 3e 55 bc 90 bb
       -0.054008998 0.06218743 0.16714317 -0.004416982
000320 95 10 ab 3c 81 08 80 3d b9 13 33 3c 0f cd 1d 3e
       0.02088193 0.06251622 0.010929995 0.15410255
000330 e5 62 6e bd 01 6a ec 3d dd da 29 3d 90 fa 02 bd
       -0.058199782 0.11543656 0.04146849 -0.031977236
000340 18 d0 96 3d 47 63 0d 3c 54 00 4a 3e 16 b1 e5 bd
       0.073639095 0.008629627 0.19726688 -0.11215417
000350 77 6e 22 3d 29 f6 01 be ec 6e a3 3d 49 50 3b be
       0.03965613 -0.12691559 0.07980141 -0.18292345
000360 06 b0 9a 3c d3 1b f5 bd 69 62 30 3e 04 6a 1e 3d
       0.018882763 -0.11968198 0.1722504 0.038675323
000370 0a 23 d3 bd bd b6 c6 3c 43 98 63 3d b9 3f a8 bd
       -0.103094175 0.024257058 0.05556513 -0.08215279
000380 5f d2 23 be 7f e8 55 be 2c b5 bd 3d f7 fc 2a 3d
       -0.15998219 -0.20889471 0.092630714 0.041745152
000390 6d a7 ca bd 03 44 5e 3d 13 02 8e 3d 76 86 d6 3c
       -0.09895215 0.05426408 0.069339894 0.026187163
0003a0 45 25 22 be 87 99 4e 3d 3c 76 ee 3c b0 d6 42 bd
       -0.1583453 0.050439384 0.029109113 -0.047568023
0003b0 22 16 f7 3d f3 3b 95 bd 40 bf 0f bd 81 d2 82 3d
       0.120647684 -0.07286825 -0.0350945 0.06387807
0003c0 d5 c4 6a bd d6 6a 91 3c 81 e0 a2 bd af 64 b0 bc
       -0.05731662 0.017751139 -0.07952977 -0.021532385
0003d0 9d 1e 48 be ed 76 b1 3d 68 37 95 3d 09 d2 d0 3c
       -0.19542928 0.086652614 0.072859585 0.025490778
0003e0 8f 22 5e 3e 76 fd a1 bd 18 f6 be bd fb b6 21 3d
       0.2169287 -0.07909672 -0.093242824 0.039481144
0003f0 3f f1 16 3d cf dc 0b 3e cb 64 df bd 0b e4 96 bd
       0.036851164 0.1365845 -0.109078966 -0.073677145

network_body._body_endoder.seq_layers.2.bias f4 [128]
000000 38 0d f6 bb 4c 2f 0c bc 3d 97 ae bc f1 48 a3 bc
       -0.0075089 -0.008556198 -0.02131235 -0.019932242
000010 ed fe 50 bb 43 36 8f 3b ff c1 aa bc d4 97 86 bc
       -0.003189023 0.004370482 -0.020844458 -0.01642982
000020 9a 3e 41 bb 69 0b a8 3b d5 81 52 bc 88 93 fc b9
       -0.0029486776 0.0051283133 -0.012848337 -0.00048175105
000030 d5 1c 8d ba cd e5 a1 3b d8 8d 9b 3b f6 22 97 bc
       -0.0010766039 0.0049407245 0.0047471337 -0.018449288
000040 19 6d aa 3a 82 ec 21 bc df a9 8e bc 61 4f 91 bc
       0.0013002484 -0.009883048 -0.017414985 -0.017738046
000050 68 4f 8d bc 98 77 26 bc a3 d8 cf ba 5b e4 2d 3b
       -0.017249778 -0.010160349 -0.001585741 0.0026533816
000060 3b f1 41 bb 88 ee 41 bc 3e 0d 4d bc 65 bc 25 bc
       -0.0029593247 -0.011836655 -0.012515364 -0.010115718
000070 7e 43 d1 ba 10 5d d2 3a 76 4b ea ba 75 62 f1 3b
       -0.0015965549 0.0016049463 -0.0017875272 0.0073664733
000080 dc 17 15 3a 3e eb a1 3b 3e de 32 3c d6 83 36 3a
       0.0005687454 0.004941373 0.0109172445 0.0006962394
000090 fd be 3a bb b7 94 0b bc 8d fe 09 bc ca af be bc
       -0.0028495186 -0.008519343 -0.008422506 -0.023277182
0000a0 e9 57 6b ba 7b 63 7f bc 53 9a c6 3a 67 88 1c bc
       -0.0008977638 -0.015587683 0.0015152193 -0.009554005
0000b0 93 aa 90 3a 50 47 ca bb 76 c9 a2 3b 19 78 22 3c
       0.0011037163 -0.006173052 0.0049678637 0.009916329
0000c0 78 00 aa 3c 80 56 59 3b e8 bd 28 ba 2e 33 34 bc
       0.020752177 0.003316313 -0.00064369896 -0.01099853
0000d0 e0 60 74 bc f5 a7 a2 b9 70 13 79 3c 9a f1 96 3b
       -0.014915675 -0.00031024186 0.015202388 0.004606438
0000e0 3a 97 81 bc bc 5a f1 bb 2a b5 95 3b 49 50 b6 bc
       -0.01581918 -0.0073655527 0.0045687156 -0.02225508
0000f0 c1 a2 b7 bc 74 31 91 3c d1 d9 19 bc 77 4d d8 3b
       -0.022416474 0.017723776 -0.00939031 0.0066010314
000100 67 f0 cf 3b 2d da 04 bc b0 3c 2d bc 9a f6 11 bc
       0.006345797 -0.008108658 -0.010573551 -0.008908892
000110 e9 63 08 3b b2 d6 73 3c 39 fc eb bc 86 e7 02 bc
       0.0020811504 0.01488273 -0.028806793 -0.00798977
000120 36 20 10 bc fc d9 6f 3c 03 b0 62 b9 58 bc 4b bc
       -0.008796742 0.014639374 -0.00021618609 -0.012435041
000130 24 4d 53 bb dd 04 e1 bb a3 38 ad 3b 9e ac 40 bc
       -0.0032242024 -0.006867035 0.0052862926 -0.011759905
000140 97 2c 0b bc d2 98 97 ba e7 ae 8e bb eb 19 07 3c
       -0.008494518 -0.001156593 -0.004354346 0.008245925
000150 e2 d2 13 bc d6 2a 9f bb c3 2f 07 3b 1c 5f 9c 3c
       -0.009022446 -0.0048574014 0.0020627833 0.01908832
000160 19 9e a5 3b a0 69 14 bb 7c 20 32 bc 9d 7c 7e bc
       0.005054247 -0.0022645965 -0.010872003 -0.01553264
000170 9f 69 ae bb 4f 59 02 bc fa 28 01 bb 3b 20 28 bc
       -0.0053226496 -0.007955863 -0.0019708262 -0.010261591
000180 fd e9 c7 3a 9f 01 70 3b c5 0a 10 3b 34 80 a4 bc
       0.0015252229 0.003662206 0.0021979075 -0.020080663
000190 ee ae e5 3b 8b 76 95 bc d7 f1 32 3c c1 00 fe 3b
       0.0070093786 -0.018245002 0.010921917 0.0077515547
0001a0 f8 83 da bc 27 1b 41 bc 3f 73 72 3a 1c 50 52 bc
       -0.026674256 -0.011786259 0.00092487404 -0.012836482
0001b0 fb ec 17 3b 38 8f 59 bb e7 cf 80 bb ce b4 94 3a
       0.0023182023 -0.0033196937 -0.003931034 0.0011345388
0001c0 82 c8 3f 3c b6 06 93 bb ba ba 57 bc a1 25 4c bc
       0.01170552 -0.004486884 -0.013167078 -0.012460143
0001d0 06 da aa 3b a1 b2 27 bc fc 51 42 3b 49 88 19 bc
       0.0052139787 -0.01023546 0.0029650917 -0.009370872
0001e0 a9 e5 07 bc 9f a9 1a 3a 5e c2 5a bc ec 36 d5 3a
       -0.008294501 0.00058999093 -0.013352005 0.0016266978
0001f0 91 e5 4b 39 3e c0 50 3b 67 19 4c bc 38 08 00 bc
       0.00019445109 0.0031852867 -0.012457228 -0.0078144595

action_model._discrete_distribution.branches.0.weight f4 [2, 128]
000000 fa 10 37 bb ce b4 fb bc 7c a7 70 bc 56 11 2c bc
       -0.0027933703 -0.030725863 -0.014688369 -0.01050218
000010 53 e4 8f bc b7 11 cd 3b c7 6a ca 3b 6e 7e 05 bb
       -0.017564928 0.0062582153 0.0061772796 -0.0020369547
000020 47 7c b1 3c 70 e2 39 3c d0 8a b2 3c d3 9c d7 3c
       0.021665705 0.011345491 0.021794707 0.026319897
000030 83 d5 b0 bb 33 ad 32 bc 67 33 13 3c d1 9b 42 3c
       -0.0053965463 -0.010905552 0.008984423 0.01187797
000040 f1 fe 3f bc fb 5f 6a bb 32 a1 ec 3b df 25 24 bc
       -0.011718498 -0.0035762775 0.0072213644 -0.010018795
000050 f7 38 62 bc 97 18 78 bb 2e 5b 1c bc b0 96 fd bc
       -0.013807527 -0.0037856454 -0.009543223 -0.030955642
000060 4d 9a a8 bc 7c 32 ce bb b0 5b 42 3c f6 6e d1 bc
       -0.020581389 -0.0062926393 0.01186268 -0.025565606
000070 6e a6 34 bb 5a d4 f0 bb 3a e4 8e 3b d2 f1 80 bb
       -0.002756502 -0.007349533 0.004360703 -0.003935077
000080 44 47 93 3c b5 46 db bc cc d0 a6 3c b6 ca 70 3c
       0.017978318 -0.026767114 0.020363234 0.014696768
000090 c5 c1 c0 3b ba fe 58 bc ef 46 3b 3b 91 b7 29 3c
       0.005882474 -0.013244325 0.0028576215 0.010358707
0000a0 82 8f bb b6 41 b4 c1 ba ee c4 53 bd ed 4c 96 bb
       -5.589741e-06 -0.0014778451 -0.05170148 -0.004586807
0000b0 66 46 bd bb 48 d2 33 3b c7 13 e5 bb 40 96 f3 3c
       -0.0057762144 0.002743857 -0.006990883 0.02973473
0000c0 61 8b 2b 3d ff 05 85 3b df b8 0b ba ea 4f e3 3b
       0.04188097 0.0040595527 -0.0005329977 0.0069370167
0000d0 fa 75 3c bc 5d d4 02 bb c6 a8 e4 3c 28 8a 3f bc
       -0.011502737 -0.0019963004 0.027912509 -0.011690654
0000e0 04 57 70 bc 1f 3e ac bc 1b 97 00 3d 88 4a 39 3c
       -0.014669184 -0.021025715 0.031394105 0.011309274
0000f0 fa 2f 39 3a d0 0b 00 3d d6 5b 1f bc 23 6f 0c 3d
       0.0007064339 0.031261265 -0.009726485 0.034285676
000100 4a 07 86 3c 0f 31 88 bc f6 9c a3 3c 52 b1 cf bb
       0.016360898 -0.016624955 0.019972306 -0.006338277
000110 c1 24 85 3c bc 45 fa 3c e3 5d 07 bc c5 7e 21 bc
       0.016252877 0.03055083 -0.00826213 -0.009856884
000120 30 e8 1d bb 16 6f 20 3c 8d 0b f8 3a e8 74 44 3c
       -0.0024094693 0.00979211 0.0018924341 0.011990763
000130 3e eb cf bc db 69 e8 bc 8f 5e 78 bc 48 a1 9b bb
       -0.025380727 -0.028370788 -0.015159263 -0.004749451
000140 be 75 28 3b ee bd 46 39 41 64 c6 bc 47 5e d6 bc
       0.0025704945 0.00018953506 -0.024217727 -0.026168002
000150 a0 89 d5 bc 9a 5a fd bb 2b 00 d0 bb 75 e4 27 3c
       -0.026066601 -0.007731748 -0.0063476763 0.0102473395
000160 ab f3 51 3c 7d 70 89 bc 21 c8 99 ba bd a5 35 bc
       0.012814443 -0.016777271 -0.0011732617 -0.011086878
000170 30 95 b8 bc 62 19 d3 39 e1 72 bd bc e8 cd 45 3c
       -0.022532076 0.00040263968 -0.023126068 0.012073018
000180 b0 9e 5b 3c 61 b3 0d bc a4 a8 cc bc 49 25 74 bc
       0.013404533 -0.008648724 -0.024982758 -0.014901468
000190 a7 5a 08 bd f0 bb f4 bc fe 22 05 3d 9a 5d ec 3c
       -0.033289578 -0.029874772 0.032504074 0.028853226
0001a0 76 3e 33 bb 2c 8d b6 bc 53 69 e9 bc 1b a4 a9 bb
       -0.0027350462 -0.022284113 -0.028492605 -0.0051770336
0001b0 80 c7 98 3c 6f 1e 62 bd d0 01 1f bb 81 af d7 3c
       0.018649817 -0.055204805 -0.0024262555 0.026328804
0001c0 a9 d8 13 3d 15 74 ab 3c 9a 4f 86 bc c8 b7 73 3b
       0.036095295 0.020929376 -0.016395379 0.00371884
0001d0 72 4c 2e 3c 4f 40 23 bb e0 7d fa bb 08 e6 02 bc
       0.010638343 -0.0024910157 -0.0076444 -0.007989414
0001e0 83 d1 30 bd 0a 52 81 bd 12 fc 80 bc 66 fd 55 bc
       -0.043168556 -0.06314476 -0.015745196 -0.013060903
0001f0 a0 f2 12 bd 5e e1 c0 3a 19 c0 51 bc 5a 41 01 bd
       -0.035875916 0.0014715602 -0.012802147 -0.031556465
000200 b7 a9 eb 3a ed 1d 5c 3c b5 b4 04 3b e1 71 11 3d
       0.0017979656 0.013434869 0.0020249311 0.035508994
000210 df 14 08 3d d3 e2 84 bc 93 b7 13 3c d2 ff a8 bb
       0.03322303 -0.01622144 0.0090159355 -0.0051574493
000220 20 ea c0 bc ce df 8b bc 47 cd 92 3a 61 fe a0 bc
       -0.02354914 -0.017074492 0.0011200093 -0.019652547
000230 d2 0e 80 3c d3 9c 84 3c 03 c0 8b 3b d1 82 98 bb
       0.015632067 0.01618806 0.004264833 -0.0046542664
000240 8e cd 6f bc 98 3f 7d bb 8e c5 96 bb 0e 05 3e 3c
       -0.01463641 -0.003864264 -0.004601187 0.011597885
000250 bc 90 4f 3c 8b 18 25 bc da e7 de 3a f2 ac 6f 3c
       0.012668785 -0.010076652 0.0017006353 0.014628636
000260 4f 63 67 3b 0b 0c b2 3b 00 2e ea bb 11 58 e8 3c
       0.0035306995 0.0054335645 -0.007146597 0.028362306
000270 fa 81 9f 3a fd 3b 67 3a d0 36 c0 bc e0 5f 99 3c
       0.0012169473 0.00088208896 -0.023463637 0.018722475
000280 d1 5b 37 bc 81 b7 b4 3c ed 7f 11 bd 6e f2 d3 3c
       -0.011191324 0.022060158 -0.03552239 0.025872435
000290 df c1 07 3a f7 e5 9a 3c 29 df c2 bb 1c 10 89 3c
       0.00051787304 0.018908484 -0.005947013 0.016731314
0002a0 ac 52 3b bc d8 69 4b 3c c0 52 3b 3d aa 65 f9 3b
       -0.011433285 0.012415372 0.045733213 0.0076109963
0002b0 6b 70 b5 3c a8 d7 14 3b 25 a6 e1 b9 10 40 8c bc
       0.022148332 0.002271155 -0.00043039132 -0.017120391
0002c0 53 9f 29 bd 30 ea 23 bc f6 b9 b0 bb 33 0f 53 ba
       -0.04141171 -0.010004565 -0.005393262 -0.0008051276
0002d0 b4 e6 6c 3c 09 ab 6c bc 17 5f bc bc 94 67 9e 3c
       0.014459301 -0.014445075 -0.022994561 0.0193365
0002e0 e2 1a 8f 3c 82 69 d1 bb dc 38 70 bc 53 61 fa bb
       0.017468873 -0.0063907513 -0.014661994 -0.0076409965
0002f0 8d 8f 9f bb 20 40 60 bd 85 2b 6d 3c d7 35 1f bc
       -0.0048694075 -0.054748654 0.014475708 -0.009717426
000300 e4 ba 8f bc 39 6a 55 3b 39 9f db 3b 05 77 33 bc
       -0.017545171 0.0032564534 0.0067023304 -0.010953669
000310 64 a7 e5 bb 9f f0 1a bd fd d1 c4 38 24 6e 1f 3c
       -0.00700848 -0.03782713 9.385122e-05 0.009730849
000320 6c da 8b bc ff 16 05 bc b3 62 16 bc cb 50 bc ba
       -0.017071925 -0.0081231585 -0.009178805 -0.001436734
000330 74 d5 67 3c 69 cd 21 3d 04 43 d5 3c 8e 74 11 3c
       0.014150012 0.039502535 0.026032932 0.008877886
000340 84 f7 31 3b c5 e1 81 3b ac 9e 6c 3c 86 93 12 3d
       0.0027155587 0.0039636814 0.014442127 0.03578522
000350 5b e2 ea 3c e4 e8 0d 3c 18 5a 5b bc 3a 4f 5e 3b
       0.028672388 0.0086614825 -0.013388179 0.0033921734
000360 11 ac e4 bc 08 7b 63 3d 8f 27 a3 3b 9c e8 66 3b
       -0.027914079 0.055537254 0.004979081 0.003523386
000370 de f5 32 3d ea 18 ac bb e2 cd 8e 3c 48 7a 8d bc
       0.04369151 -0.0052519934 0.017432157 -0.017270222
000380 b5 63 73 3c 72 05 c2 b9 39 25 cb 3c 0b 4f ea 3b
       0.014855315 -0.0003700662 0.024798023 0.007150536
000390 4d f8 1f 3d 00 4b b8 3c 29 b5 0f bd f8 cd d4 bc
       0.039055157 0.0224967 -0.035084877 -0.02597712
0003a0 91 00 18 ba f1 e7 6e 3c a3 b7 f9 3c d3 58 85 3b
       -0.0005798424 0.014581666 0.030483073 0.0040694266
0003b0 13 13 e9 bc a1 aa 64 3d b5 59 02 3d 2a fe 0d bc
       -0.028451478 0.055826787 0.031823833 -0.0086665545
0003c0 b8 65 7b bc 59 d0 d3 bc 7d 0f 22 bb 56 e3 6a 3c
       -0.015344076 -0.025856184 -0.002472847 0.014336428
0003d0 58 07 38 bb 3e 3b 13 bc 91 6d 54 3b 2d 43 92 3b
       -0.002808055 -0.008986292 0.003241394 0.0044635744
0003e0 7c d1 20 3d c3 57 59 3d 3d 69 04 b9 cc 8a d9 3c
       0.03926228 0.05306221 -0.00012627705 0.026555441
0003f0 89 89 09 3d 0f f0 2b bc d7 a9 76 3c 5e 6a b6 3c
       0.03357843 -0.010494246 0.015055141 0.022267517

action_model._discrete_distribution.branches.0.bias f4 [2]
000000 3d 56 3c 3c 3c 56 3c bc
       0.01149517 -0.011495169

action_model._discrete_distribution.branches.1.weight f4 [3, 128]
000000 0d ee 84 bc db 72 64 bc 14 03 cf bc 20 48 74 bc
       -0.016226793 -0.013943399 -0.025270022 -0.014909774
000010 c5 e2 67 3a 12 9b 9f 3c 8b 11 73 bc c5 f6 bf bb
       0.0008845742 0.019483123 -0.014835726 -0.0058582746
000020 18 7c 34 3c 15 de b2 bb d3 dd ad 3c f9 77 9f bb
       0.011015914 -0.005458603 0.021223938 -0.004866597
000030 03 9d a4 bb f1 ec 89 3c 1d 94 4d bc 64 ef 3e 3c
       -0.0050236 0.016836615 -0.01254752 0.011653755
000040 5b cb f0 bb 13 f5 ff bc 0c 6f 19 3b cb 7f 46 bc
       -0.0073484606 -0.03124479 0.0023412136 -0.012115429
000050 e6 e0 4f bc 61 48 b6 ba 29 c2 54 bb 39 3b 86 bc
       -0.012687897 -0.0013907069 -0.0032464361 -0.016385661
000060 47 85 bd bc d0 12 04 bd 32 31 e1 bc cb c7 c7 bc
       -0.02313484 -0.032244503 -0.027489278 -0.02438726
000070 b8 32 98 3c 69 34 11 3c 48 a3 8b 3c 5a 9c d7 3c
       0.018578872 0.008862593 0.017045632 0.026319671
000080 43 58 3c 3b 4d 69 6a 3c 19 e3 a4 bc b6 68 c3 3b
       0.0028739132 0.014307332 -0.02012782 0.0059634103
000090 f1 8c b7 bc c6 fa d0 bc 41 a3 89 3c fd 60 1b bc
       -0.022406073 -0.025510203 0.016801478 -0.009483573
0000a0 c0 7b ba 3c aa 62 a1 bb 07 d1 77 bc d3 2c 90 bc
       0.022764087 -0.0049250918 -0.01512552 -0.017599499
0000b0 35 4e 8b 3c 6c 6d 29 3c 43 c1 2b 3d 36 98 2c 3d
       0.017005065 0.01034103 0.041932356 0.042137347
0000c0 b5 fa ef bb 5c 33 a7 bb bc 43 4c 3b 10 f7 51 3c
       -0.007323588 -0.005102558 0.0031168303 0.012815252
0000d0 b5 b3 85 bc ae 88 ba 3b b4 a1 a1 3b b4 3a d1 bc
       -0.016321043 0.005692563 0.0049326066 -0.025540687
0000e0 b3 d4 d3 bb 11 07 0c 3d f6 74 65 3c 9f 4c e1 bb
       -0.0064645647 0.034186427 0.014004936 -0.006875589
0000f0 42 d5 90 3b f9 a1 5b 3a d0 18 b0 bc 9d 1f 46 3c
       0.0044199536 0.0008378323 -0.021496207 0.012092498
000100 f6 17 dc bb 42 b1 ec 3c 0b 05 9a 3c ef 57 a4 3b
       -0.0067167236 0.028893117 0.018801233 0.0050153653
000110 7c 18 1e bd 7f a8 fd 3b 40 e0 3a bb 0d 9d 9b 3c
       -0.03859757 0.0077410336 -0.002851501 0.018995786
000120 c6 eb b1 bc dc 34 bd 3c 4d ea 35 3d 97 11 16 3c
       -0.02171887 0.023096494 0.0444129 0.009159467
000130 14 6e eb 3c 56 5d 45 bc 5d 1a 50 ba 0d 05 cb 3b
       0.028739013 -0.012046179 -0.0007938499 0.0061956705
000140 83 65 85 bc b9 66 aa 3c fb 3f fc 3b 9a 78 34 3d
       -0.016283756 0.020800935 0.0076980568 0.044060327
000150 57 78 79 bc 7f 21 b2 bc 50 93 76 bd 4f b0 6b 3c
       -0.015226445 -0.021744488 -0.060199082 0.014385297
000160 d3 30 df bc 4d 53 d3 3c 06 6d 48 bb bf 23 91 3c
       -0.02724496 0.025796557 -0.003058256 0.01771724
000170 29 82 ab bc 0a cb 26 bc 17 4b 0c bd eb e4 c0 bc
       -0.020936089 -0.010180244 -0.0342513 -0.023546657
000180 4b 51 0d 3d 4e 58 41 bd 67 28 16 3d 68 c1 58 bc
       0.034501355 -0.047203355 0.036659624 -0.013229705
000190 02 05 80 bb 6d d4 d1 3b 83 04 42 bc 58 14 35 bc
       -0.003906847 0.006403497 -0.011841896 -0.011052214
0001a0 d3 79 08 3c b9 81 dd bc 4e 6f 94 3c bd 81 9e 3c
       0.008329826 -0.027039396 0.01811948 0.019348973
0001b0 13 a5 2e bc c9 66 17 3c f7 ed 0e 3d e3 9d 7b bb
       -0.010659474 0.0092408145 0.03489491 -0.0038393668
0001c0 2b fe 80 bc d4 36 d5 3c b2 e4 ba 3c e5 fa 85 3b
       -0.015746197 0.02602712 0.022814129 0.004088747
0001d0 c1 3f 22 bc c8 af da bc 0e 98 5f 3c 33 cb cb 3c
       -0.009902895 -0.026695147 0.0136470925 0.024877166
0001e0 d7 52 8a bc 6e 35 52 3c 04 dc c3 3b 5c cc 7d 3c
       -0.016885204 0.012830121 0.0059771556 0.015490618
0001f0 69 5e 3a 3d 34 e7 d5 3a d8 cf ba bc 43 1c 89 3c
       0.045500193 0.0016319514 -0.022804186 0.016737109
000200 fe ac ec 3c f8 a0 0d 3d 28 ec 11 bc 44 09 95 3b
       0.028891083 0.03457734 -0.008906402 0.0045482237
000210 e7 e0 5e 3c bd d3 05 bd 5f e9 54 bb 02 1a 97 3c
       0.013603426 -0.032672632 -0.0032487733 0.018445019
000220 f1 bc d3 bc 3c 99 19 3c d9 0d ba 3b 96 e8 71 bc
       -0.02584693 0.009374913 0.0056779203 -0.014764925
000230 64 3f c8 3c 98 7e 08 bd 83 41 48 3d d2 f8 0b 3a
       0.02444429 -0.033323854 0.0488906 0.00053395063
000240 ef f6 8a bc 6f c2 99 3b ec de 40 bc 2b c6 b9 bb
       -0.01696345 0.0046923677 -0.011771899 -0.0056693754
000250 47 7a 3a 3c 80 58 2e b9 b9 a7 a1 3c 1d fa 01 3d
       0.011381692 -0.00016626902 0.019733297 0.031732667
000260 be db 95 3c 80 d1 b7 3c 1d 87 07 3d 16 83 87 bb
       0.018293258 0.022438765 0.03308784 -0.0041354997
000270 67 8c 15 bb be f1 05 3c 9f de 2a 3c c4 8a 0e bd
       -0.0022819282 0.008175312 0.010429054 -0.034800306
000280 f0 ed 21 bc e0 16 11 3d 6e bd f8 3c a2 55 68 3c
       -0.009883389 0.035422206 0.030363765 0.014180573
000290 8d 13 29 bc 9e e6 04 3d 7f 42 ed bb 58 4e eb 3b
       -0.010319603 0.032446496 -0.007240593 0.00718097
0002a0 30 be 11 bd c6 41 3f 3c bd 6d 87 3c 52 87 53 3c
       -0.035581768 0.011673396 0.01653182 0.012910681
0002b0 49 71 21 3c 76 b8 fc bc c1 90 ab 3b 78 5b a8 bc
       0.009853669 -0.030849677 0.005235762 -0.020551428
0002c0 ec 52 ea bc 24 1c 92 bc 8b 39 04 ba 7b 1c fd 3c
       -0.028603993 -0.017835684 -0.0005043975 0.03089737
0002d0 b1 7a 90 3c 51 4a 4e bc d0 c1 63 3d d2 47 05 3d
       0.017636629 -0.012590961 0.055604756 0.032539196
0002e0 c0 ff 8f bc 7c 4b 46 bb 5f 06 cb 3c 02 b8 bb bb
       -0.017578006 -0.0030257395 0.024783311 -0.0057287225
0002f0 70 90 1f bc 7f 81 69 bc 7f 08 30 3c 2b 1a 4f bc
       -0.009739026 -0.014252066 0.010744213 -0.012640516
000300 75 39 65 3c ac 0e db bc db 28 f5 3c dc 4a 11 3d
       0.01399075 -0.026740395 0.029926708 0.035471782
000310 77 ed 5f 3b 0a 0e 4d 3d 83 38 3f 3c 2f ef f4 3c
       0.003416864 0.050062217 0.011671188 0.029899208
000320 02 3a d5 3c 5a 62 49 bd 47 cd 81 3b a1 5f f0 bb
       0.026028637 -0.04916606 0.0039612385 -0.0073356186
000330 88 c6 bf bb e6 6a af 39 1a 1f 28 3d 08 58 b6 bc
       -0.005852524 0.00033458247 0.041045286 -0.022258773
000340 ee 35 a2 3b 5c 4f 83 ba 49 37 7c 3b ad 02 61 bd
       0.0049502766 -0.0010018158 0.00384851 -0.054934192
000350 72 5a b3 bc 35 32 3c 39 b6 a5 9c 3c 12 c7 c1 bc
       -0.021893714 0.0001794778 0.019121986 -0.023654494
000360 43 8a e6 3c c6 86 12 bd ce 68 e2 3b 1f 04 98 3c
       0.0281421 -0.03577306 0.0069094663 0.018556653
000370 5b 03 ad 3b 49 3f 68 ba 34 57 06 3d 13 f5 09 3c
       0.005279941 -0.0008859528 0.032798007 0.008420247
000380 44 ae 28 bc 91 81 74 3c 60 de b7 ba 4b f5 4e 3c
       -0.010295454 0.014923469 -0.0014028065 0.012631725
000390 df 47 0b bd 8a 5a e3 bc 8a b4 ab 3c 40 97 89 3c
       -0.03400409 -0.027753133 0.020960111 0.016795754
0003a0 dc 58 23 bc da 46 e2 3c 64 09 1f 3c 1e 6f 26 bd
       -0.009969916 0.027621675 0.009706829 -0.040633313
0003b0 28 9f fe ba 8a 06 58 3c 6f 24 c8 bc 98 61 0c bc
       -0.0019426094 0.013185153 -0.024431435 -0.00856819
0003c0 a1 8f 25 3b 50 5d 2c 3c 56 be 8c bb ae 31 ac bc
       0.0025262611 0.010520294 -0.0042951507 -0.021019783
0003d0 48 e2 9d bc 6a 67 9f 3c 3f f3 18 bd cf 42 17 3d
       -0.019272938 0.019458491 -0.037341353 0.036928948
0003e0 95 f7 5f 3c 02 8f a7 bb ba 9f d1 bc 9f dc 28 3d
       0.013669868 -0.0051134834 -0.025588859 0.041226026
0003f0 73 3a fc bc e3 87 94 bc 28 8b 7f 3c 91 ad d4 bc
       -0.03078959 -0.018131202 0.015597142 -0.02596167

action_model._discrete_distribution.branches.1.bias f4 [3]
000000 c5 79 9b bb eb 22 13 ba 1a 8f c9 3b
       -0.0047447407 -0.0005612808 0.0061510922

action_model._discrete_distribution.branches.2.weight f4 [1, 128]
000000 77 fd 5b bc ce 2b 90 3b a8 7d d8 b9 57 95 a2 3b
       -0.01342713 0.004399753 -0.00041292352 0.0049616504
000010 b5 a4 77 bb b0 d0 a8 bb a4 c6 01 bb 8e 93 84 3b
       -0.0037787382 -0.0051518306 -0.0019802237 0.00404591
000020 49 e8 ae 3b 55 cf 04 ba d0 1c e7 3b 9a 42 d3 b8
       0.005337749 -0.0005066295 0.0070529953 -0.000100736695
000030 83 1c 10 3c 52 c0 22 bc 2f bb 5f ba 27 14 2e bb
       0.00879586 -0.009933548 -0.00085346674 -0.0026562305
000040 0d e0 e9 3b bb c2 4e bc cd 01 38 b9 88 5d ef b9
       0.0071373046 -0.01261967 -0.00017548278 -0.00045655319
000050 a1 4a 12 bb b8 15 01 bc da 55 e8 3b 70 78 7d 39
       -0.0022322314 -0.007878713 0.0070903124 0.00024172827
000060 2b 58 4b 3c e8 4f 06 3b 8b 50 0b ba c0 f8 4c bc
       0.012411158 0.0020494405 -0.0005314431 -0.0125104785
000070 6f ec 2f 3c be 1f c0 3a 38 30 8d 39 e7 8b 33 bc
       0.0107375225 0.0014657897 0.00026929541 -0.010958648
000080 81 bd 0b 3c 7f d0 9d ba 10 82 e5 bb db 6d 50 bb
       0.008529068 -0.0012040286 -0.00700403 -0.003180376
000090 01 a0 0d bc 55 8a cd b9 4e 71 a7 bc d7 b4 a1 bc
       -0.008644105 -0.00039203712 -0.02043977 -0.019739551
0000a0 8d bd 9f bb df 5b 73 3b 1b 9b df bb d3 ae a8 ba
       -0.004874891 0.0037133617 -0.00682391 -0.0012869484
0000b0 e4 31 3b 3c b5 f0 cf bb c8 4b e5 b9 d7 e2 d9 3a
       0.011425469 -0.006345833 -0.00043734745 0.001662339
0000c0 5b 8e 17 3c 5b f8 0c bc 59 07 17 3b 43 25 a7 bc
       0.009250249 -0.008604134 0.002304515 -0.02040351
0000d0 09 6f 15 bc 85 b4 aa ba 96 b5 36 3b a7 45 6c bc
       -0.009120711 -0.001302377 0.002787923 -0.014420903
0000e0 4d 31 14 3b 36 18 09 bc 37 e8 31 3c b3 c4 94 3b
       0.0022612393 -0.008367589 0.010858587 0.00454005
0000f0 e9 9e 45 bc c8 82 5a 3c 96 d5 3a 3c 8f c3 55 3b
       -0.012061813 0.013336845 0.011403462 0.0032617783
000100 aa fd 54 3a bb 7c e0 bb bb 5a 1a 3b 25 60 81 3b
       0.0008124957 -0.0068508065 0.0023552615 0.003948229
000110 97 94 3a bc 2a 1c 0a 3b 9d ad cf ba 55 56 cc 3b
       -0.011387966 0.0021073916 -0.0015844587 0.0062358775
000120 4b ab 29 bc 09 fa 9a 3b 69 a0 89 bc f3 95 44 ba
       -0.010355781 0.0047295135 -0.016800122 -0.0007499151
000130 cb 2f fa 3b c7 71 aa ba de de 8a 3c cb ce b6 ba
       0.007635092 -0.0013003879 0.016951974 -0.0013947127
000140 cf 35 c0 3b 56 95 93 3b 73 fa 23 3a f2 c6 f8 3b
       0.0058657895 0.004503886 0.00062552764 0.0075920755
000150 05 93 6f 3c 02 d4 cb 3b cc 10 96 ba 07 f1 54 bc
       0.0146224545 0.0062203417 -0.0011449098 -0.0129969185
000160 1c 72 ae bb f3 6c 1a 3c 5b f9 be 3b d0 74 e4 bb
       -0.0053236615 0.00942539 0.0058280653 -0.006971933
000170 d5 08 a9 3c 38 18 64 bc 6d 9f 0c 3c b3 06 e6 3b
       0.020634094 -0.01392179 0.008582932 0.0070198416
000180 3f c4 b5 bb 17 4f fe bb 5d a3 5e bc f2 56 ed bb
       -0.005547076 -0.007760893 -0.0135887535 -0.0072430307
000190 5a e1 8f 3c 23 e2 26 bc 6c aa 28 ba ac 6c 2a bc
       0.01756351 -0.010185751 -0.0006434086 -0.010401886
0001a0 83 e9 dd 3b 6f 88 26 3b 6c 58 cb 3b 2f c0 22 3c
       0.0067722215 0.002541091 0.006205609 0.009933515
0001b0 0b 97 38 3c e5 60 8b 3b b3 a4 ae ba 5b 89 29 3c
       0.01126648 0.004253494 -0.0013324231 0.0103476895
0001c0 9a fd dc 3b 4f 2c e6 b9 b7 55 29 bc c3 00 11 3b
       0.006744099 -0.0004390203 -0.010335377 0.0022125698
0001d0 24 73 be 3a 5a b5 70 3b d8 29 51 3c 90 d7 b2 ba
       0.0014530164 0.0036729188 0.012766324 -0.0013644565
0001e0 65 86 e1 bb 02 12 02 bb 25 b6 6a bb 71 d4 c0 3a
       -0.006882476 -0.001984716 -0.0035814133 0.001471175
0001f0 63 25 94 3a d5 21 12 3c 14 9a 8e 3b a9 f5 0d 3c
       0.0011302646 0.008919199 0.0043518636 0.008664527
