Assets/ZooheimTest/Models/0609_SimpleModel/DeerFBehavior.onnx (onnx, 158417 bytes, 14 tensors)

discrete_act_size_vector f4 [1, 3]
00000000: 0000 0040 0000 4040 0000 803f
2.0 3.0 1.0

network_body.observation_encoder.processors.0.normalizer.running_mean f4 [150]
00000000: 83b2 ae3d 269f 333f 6b23 103e 80e0 043c
00000010: 9e2f 6e3b 31ce 653b 3eac 1f3b 15a6 053b
00000020: af8b cd3c 6193 6e3e 75c6 ab3d c562 303f
00000030: cc34 1c3e bc1e 023c 4b31 873b aadd 5d3b
00000040: 9b4b 083b c269 073b 5322 df3c 3162 713e
00000050: ae9c b23d 7c7e 333f 41d8 0b3e 81f2 fe3b
00000060: 6a0b 8c3b b809 733b c39c 273b 5486 243b
00000070: 1047 cc3c a982 693e b0c2 a23d 3631 313f
00000080: 89e1 1d3e d405 f53b 9500 833b 9899 633b
00000090: 45f3 ef3a dfa9 cc3a fdc1 e43c 2f72 783e
000000a0: c2f8 b03d 3719 323f 94bc 123e 3aaf f53b
000000b0: 6275 813b 185b 803b 43ac 1f3b 3a94 3a3b
000000c0: ef4a ca3c 442e 693e 6154 9d3d 08b7 303f
000000d0: fc5e 1d3e 9303 d93b 7df2 7e3b 3aaf 753b
000000e0: 5de9 0e3b 7841 b93a e41a 043d 3417 803e
000000f0: ac37 aa3d 60fc 323f ee80 103e c0c1 fa3b
00000100: e765 893b 6075 813b d595 1c3b 40ac 1f3b
00000110: 6959 e73c 2576 713e 8c10 8d3d cbe2 323f
00000120: 6118 1d3e d387 cf3b 0317 863b 3b7c 553b
00000130: 667f 193b e7d5 e13a d9bf fb3c f31d 843e
00000140: 210d a13d e932 343f 6f38 113e 7b09 0d3c
00000150: ae10 7e3b b525 8d3b 553b 1f3b 5d53 043b
00000160: 626b e53c a152 763e 2b47 7f3d 73cc 313f
00000170: e9b7 233e dc50 fa3b a222 803b e1dc 6c3b
00000180: 8b52 133b f06b ec3a 58fb 0c3d b00a 883e
00000190: 13dd 983d 8889 333f bd67 133e 6963 ff3b
000001a0: 7704 813b 07d6 983b ce4a 173b a410 fe3a
000001b0: 3b33 063d 3c69 823e d8b6 7c3d c3bc 303f
000001c0: 4a94 253e 0846 f13b ef87 863b 26ed 553b
000001d0: a72c 183b 9500 033b 214a 1b3d e74c 8f3e
000001e0: bd19 953d c6a4 313f 8f7c 153e 2838 db3b
000001f0: dcf8 863b e38e 913b 236f 303b a3e1 123b
00000200: 7349 1f3d 3ab7 8a3e 7ae9 833d 127d 313f
00000210: 8a0e 233e 64a4 ec3b 0739 833b 0065 613b
00000220: ac77 1d3b 7ea7 f93a 5fee 1a3d b67e 983e
00000230: a5ae 913d 5980 353f fcf4 083e 97c2 eb3b
00000240: 5b53 843b 7b9a 8b3b 71de 4e3b 46f7 243b
00000250: 2638 1d3d 8c21 943e
0.08530142 0.70164716 0.14076011 0.008110166 0.00363443 0.0035065527 0.002436414 0.0020393182
0.02509102 0.23298408 0.08387462 0.6890071 0.15254515 0.007941898 0.004125749 0.0033854046
0.0020797017 0.0020662402 0.027238047 0.23572613 0.087212905 0.70114875 0.13656713 0.0077803736
0.0042738216 0.003708465 0.0025575615 0.002510448 0.024936229 0.22803749 0.0794729 0.69215715
0.15418066 0.0074775014 0.003997872 0.0034729 0.0018306753 0.001561459 0.027924532 0.24262308
0.08641197 0.69569725 0.1432975 0.0074976953 0.0039507607 0.003917109 0.002436415 0.0028469698
0.024693934 0.22771555 0.076821096 0.69029284 0.15368265 0.0066227405 0.0038901858 0.0037488476
0.0021806576 0.0014133891 0.032252207 0.25017703 0.083114 0.69916344 0.14111683 0.0076524913
0.004193056 0.00395076 0.0023893018 0.0024364144 0.028240876 0.23580225 0.06887922 0.6987731
0.15341331 0.00633333 0.0040920987 0.0032575268 0.0023421883 0.0017229886 0.030731129 0.258041
0.07863832 0.7039018 0.14181684 0.008608217 0.0038767266 0.0043074735 0.002429684 0.002019129
0.028005306 0.24054958 0.06232373 0.6945259 0.15988125 0.0076390337 0.0039103786 0.0036142396
0.002247962 0.0018037539 0.034419388 0.26570654 0.074640416 0.7013173 0.14395042 0.007793833
0.0039373 0.004664186 0.0023085359 0.0019383621 0.0327637 0.25470912 0.06169781 0.6903803
0.16169849 0.0073630847 0.00410556 0.0032642572 0.0023219974 0.001998936 0.03791249 0.2798836
0.072803 0.6939205 0.14598297 0.006690044 0.004119022 0.0044420823 0.0026921711 0.0022412322
0.038888406 0.27092916 0.064410165 0.6933147 0.15923515 0.0072217453 0.004004601 0.0034392476
0.0024027629 0.0019047109 0.037824985 0.29784173 0.07113389 0.7089897 0.13374704 0.007194828
0.004038257 0.004260359 0.003156569 0.00251718 0.038383625 0.28931844

network_body.observation_encoder.processors.1.normalizer.running_mean f4 [9]
00000000: 922f c042 d7fd 2943 6630 da3e 0d73 c042
00000010: ce50 2a43 e8ee da3e eeb5 c042 15a4 2a43
00000020: 7ead db3e
96.09291 169.99156 0.4261505 96.22471 170.31564 0.42760396 96.35533 170.64095
0.42905802

network_body._body_endoder.seq_layers.0.weight f4 [128, 159]
00000000: fb4b e7bd 39ae dabd ede3 3c3d a218 223d
00000010: f773 1d3e 05dc fbbd b49a ac3d 06a7 06be
00000020: 662f 003e aa13 b63d bfa5 63bd dfd2 89bd
00000030: be40 453e 50e4 0dbe 3b94 69bd 0702 303e
00000040: 3f7f 7c3d 6e9d 74bc 80dc e7bc cc4c 053e
00000050: eb86 4ebc 1dd9 1f3e e415 8abd 0af6 c83d
00000060: 673d 10bd 48eb 1dbd d660 a93c 63c5 3bbe
00000070: 8865 18be e8b7 52bc ac84 8abd 6b2c a53d
00000080: 1298 0bbe fb01 45be a3c4 65bd 1ac5 163d
00000090: 5573 c63a 7ec3 ae3d b7cf 87bc 5a68 9a3d
000000a0: 999e f83d 2a0f e13d 639d ccbd ed2e 543d
000000b0: ade2 20be ee26 643d 7719 0dbe 075f aabd
000000c0: 33aa 0fbe b417 21be 6b26 883d 3929 40bd
000000d0: 8f08 123c 2762 7f3d d3a4 e3ba 6fb6 233c
000000e0: c77d 35bc 1ead c2bc b365 d63d b796 4ebb
000000f0: 9cb5 15be 9bd4 d23d 0451 ddbd 67e8 253e
00000100: 2ac8 61bd b57e 21be 5fd1 7fbd 6d7a e9bd
00000110: c6c8 f83c ff5b 88bd 1842 40bd 31d8 8abd
00000120: 1ca7 a6bd f10a 023e 2f63 293c a7ef 3fbd
00000130: 2b62 81be d59c 023e ded6 233d 8c49 0b3e
00000140: d258 50bc 9f17 dc3c c164 083b dec1 46be
00000150: e78f 36bd 6f91 653c 46de 903c e94d ad3d
00000160: e410 99bd d7f6 05bd 339f 0c3e 0343 c93d
00000170: f206 5abe ed5f 2cbe 5d55 b63d d368 b5bd
00000180: 0925 373d 73ff 2c3e 2997 0bbd eadc 5d3d
00000190: ce40 1cbd d77c febb 520f 283d 5ec4 17be
000001a0: e1d4 b1bd 5c1a 013d e70c 46be 7b75 c7bd
000001b0: ee59 943d db88 a3bd 38d0 d4bd 4d0a 84bd
000001c0: ff55 e63d c6a0 2dbd dc04 913d a692 eb3d
000001d0: ee28 33bc 8c18 0fbc 59aa 533d 8ab8 dcbd
000001e0: 1ca8 31bd 9075 13bc 5655 3b3e 0bce da3a
000001f0: 2b88 c23d 9e94 9cbd 06fc 293e 0325 303d
00000200: 5749 343d e1c1 c33d 0a76 333d b078 b23c
00000210: 051a 1abd 01f6 89bc d83a e0bd c56a c43c
00000220: 8615 573d 20a6 b13d 8dc3 9abc ec69 2f3d
00000230: 17b3 b6bd fbe2 1abd 48dc 103d 40b0 5a3c
00000240: 52e7 a93d 6dca cf3d 839c 82bd 2ce8 a8bd
00000250: 1809 64bd f025 febd 4c69 113e dc5e 98ba
00000260: 60b9 bb3d 07e8 7ebd e5e3 923d 924b 123d
00000270: 1de6 36be 878c 19be 3726 223e beb1 023e
00000280: b4de 84bd 83a7 1e3d 548e 053d 713e d3bd
00000290: 03fc 103e b210 ca3c 16a7 063c 5c66 c2bc
000002a0: bd48 5b3c 70dc 68bc 9546 1a3e 8ed0 25be
000002b0: 28b3 bb3c 2200 d7bd fe26 f5bd 2522 95bd
000002c0: 0a61 cabd 0512 adbc 0f88 c5bd 9848 57bc
000002d0: 2e7a a0bd b1de 57bb 6e25 b9bd 5d85 8f3b
000002e0: 03f7 0b3d 8a20 bc3d 08bf f7bd b1ac 893d
000002f0: ff0f f13c ac5e 8c3c ee6d 933d 0fe7 143c
00000300: c84a 68bd 0f67 c63d 4865 1cbc f44c 83bd
00000310: 808b 123e 7ed9 78b9 3324 14bc 300c 873d
00000320: 158e bc3d 7760 883d 1f1a 8abc e2a0 f2bb
00000330: 0e61 923d 94cb dfbd e995 b43c 5053 a13d
00000340: eb72 b53d e407 39bd 92b5 8e3c 625d 84be
00000350: 6471 f4bb 5a5b c83d bdff 1cbe 2187 423b
00000360: bbda 1fbd e337 8abd bf3a 0839 de34 61bc
00000370: c61b 7b3c 23a0 f33c 0f56 a1bd 2aa4 00bd
00000380: 4e09 3c3d 495d ba3c 2ffc 803d 762e e0bd
00000390: a839 72bd 7cb8 2fbd 9c99 bc3d f31f 21bc
000003a0: eba2 753d 911b a5bd 1956 cd3b 548d c9bc
000003b0: 96b4 19be 86de 7dbd 6801 1fbd 6810 21bd
000003c0: 0cf6 07bd 4a62 513d 001d 10be e944 823c
000003d0: b70e 4bbc b764 6b39 dece e03d 3f74 333d
000003e0: 10ce 4b3d 6e13 303c 88e5 e83d 1ef8 d6bd
000003f0: e198 f13d e2c7 a9bc 1c86 293e 4096 1ebb
-0.11293789 -0.106777616 0.046115804 0.039574273 0.15376268 -0.12297825 0.08427945 -0.13149652
0.12518081 0.08890469 -0.05557799 -0.067296736 0.19262978 -0.13856626 -0.05702613 0.17188273
0.06164479 -0.014930112 -0.028303385 0.13017577 -0.012605409 0.15610166 -0.067424566 0.09812553
-0.035214808 -0.03855446 0.020676058 -0.18337016 -0.14882481 -0.0128612295 -0.067635864 0.08065113
-0.13632229 -0.19239037 -0.05609573 0.036809064 0.0015140573 0.08533381 -0.016578538 0.07539435
0.12139625 0.109892204 -0.09990957 0.051802564 -0.1571147 0.05570119 -0.13779245 -0.08318906
-0.1402977 -0.15731698 0.06647953 -0.046914313 0.008913173 0.062349465 -0.0017367847 0.009992226
-0.011077351 -0.02376419 0.10468616 -0.0031522939 -0.1462006 0.102944575 -0.10806468 0.16201936
-0.055122532 -0.15770991 -0.06245553 -0.11400304 0.030369174 -0.06658172 -0.046938032 -0.067795165
-0.08137342 0.12699486 0.010338589 -0.04685941 -0.2527021 0.12755139 0.039999835 0.13602275
-0.012716489 0.026866732 0.0020812007 -0.19409892 -0.04457083 0.014011725 0.017684113 0.08462126
-0.07473925 -0.032706108 0.13732605 0.098272346 -0.21291712 -0.16833468 0.089030005 -0.08857884
0.044713054 0.16894321 -0.034079704 0.05416576 -0.03814774 -0.007766347 0.041030236 -0.14821002
-0.086831816 0.03151928 -0.1934086 -0.097392045 0.07243715 -0.079850875 -0.10391277 -0.06447277
0.11246871 -0.042389654 0.07081005 0.1150258 -0.010935051 -0.00873388 0.051676128 -0.107773855
-0.043373212 -0.009000197 0.18294272 0.0016693486 0.09498628 -0.07645534 0.16600046 0.043004047
0.044015255 0.09558464 0.043813743 0.021786064 -0.03762247 -0.016840937 -0.109487236 0.023976693
0.05251076 0.08674264 -0.018892074 0.042825624 -0.089208774 -0.03781412 0.035366327 0.013347685
0.08296074 0.101460315 -0.063775085 -0.08247408 -0.055672735 -0.1240958 0.14200324 -0.001162495
0.09166217 -0.062232997 0.07172374 0.0357166 -0.17861219 -0.14995013 0.1583489 0.12763116
-0.0648779 0.03873397 0.032606438 -0.10314644 0.14158635 0.024666164 0.008218547 -0.02373045
0.013384041 -0.014212713 0.15065987 -0.16192839 0.022912577 -0.10498072 -0.11970328 -0.07281903
-0.0988179 -0.021126756 -0.09645092 -0.013139866 -0.07835804 -0.003293913 -0.09040342 0.004379912
0.034171116 0.09185894 -0.12096983 0.067223914 0.029426573 0.017134987 0.07198702 0.009088292
-0.056711942 0.096876256 -0.009545632 -0.06411162 0.14311028 -0.00023732145 -0.009041834 0.065941215
0.092067875 0.06659024 -0.016858159 -0.0074044326 0.07147418 -0.10927501 0.022044139 0.07877219
0.088598095 -0.04517354 0.017420564 -0.25852495 -0.0074598063 0.09783049 -0.15331931 0.0029682594
-0.039026957 -0.06748941 0.00012991855 -0.013745515 0.015326446 0.029739445 -0.078777425 -0.03140656
0.04590731 0.02274956 0.062981 -0.10946362 -0.059137017 -0.042900547 0.09208986 -0.009834277
0.059969824 -0.080618985 0.006266367 -0.024603523 -0.15010294 -0.061979793 -0.0388197 -0.039322287
-0.033193633 0.051119126 -0.14073563 0.015902 -0.012393645 0.00022448866 0.10976957 0.043812033
0.049757063 0.01074682 0.113719046 -0.10496543 0.117967375 -0.020725194 0.16555065 -0.0024198443

network_body._body_endoder.seq_layers.0.bias f4 [128]
00000000: 0a5f 273d fc5f a0bc 35a0 43bd 8f65 abbb
00000010: fd28 363b 6cb7 72bc 4a77 dd3a 71b9 0fbc
00000020: 55ee 98bb 6246 aa3b 284f 1abc 933e 433b
00000030: dd05 b53b d927 bf3c ce0c 75bc 3b0b 993c
00000040: ac25 653c d5ba 6dbc 61f0 fbbb 5592 953c
00000050: 88cd fabb 4722 d73c 6761 b03b ab61 ad3c
00000060: cad4 923b a98f 2a3c f49f 4e3c 7eaa 663c
00000070: 9f68 d8b7 43af 0d3d 239f b8bc 44fe 123c
00000080: 0af9 d4bc bc22 803c 8a49 fa3b eb88 e4bb
00000090: e578 ec3b 512b 4d3c 6874 133d 0e22 89bc
000000a0: c983 dfbb 0711 1abd 100f 443b e88e 223c
000000b0: db7e 42bc 4835 1a3b 0ff0 6dbc 8e3a 903c
000000c0: 2782 d5bc 1101 163d 9a46 ddbc 455f 0dbd
000000d0: 6d14 b83c 7d74 9bbc 475d abbc 4f21 e93c
000000e0: 1a0c 1dbb 1f78 163b 10e4 953b 438c 8abc
000000f0: af63 3cbd 7b9a 5abc 6272 603c ae3e 0fbb
00000100: f4ea b23c 9676 023c f16a 68bc 229b 143c
00000110: e89c e93c e710 c03b dc03 443b f93e 81bc
00000120: ccc6 1c3b fe71 5abc 849b 02bc 9ed8 033d
00000130: ac15 b4bc 0ea3 693c a1df 453c dbf8 ad3a
00000140: db85 52bc 49a6 a0bc 743e 36bc 71b8 613c
00000150: ed36 b3bc 2559 73bc 4aca 80bc 0008 d03c
00000160: c0b4 f8bb 19e4 e3bc dd05 643c dedd e1bb
00000170: 95b0 56bb 79df 8dbc fb3c 53bd 6bf2 513b
00000180: 2e1e 81bb af47 21bc db52 ae3c d166 6ebc
00000190: 2d36 c1bc c35d 433c 1672 e2bb 4334 63bc
000001a0: 118f b3bb 21c7 bb3c dc63 22bd 74a6 ef3c
000001b0: f93b 0cbd c904 963c 0a71 7bbc 4928 ca3b
000001c0: 6eca 65bc cd2a 263c 8208 633b d422 d53b
000001d0: 81b7 9abb a61c d73c c8c0 b1bc a37f 96bb
000001e0: 978b 043c 9520 c13c 3b6a 84bd 4066 173c
000001f0: 5033 adbc 10df feba 4ed5 47ba 35f1 4b3c
0.04086212 -0.019577019 -0.047760207 -0.0052306126 0.0027795427 -0.014814239 0.0016896513 -0.00877224
-0.0046670833 0.0051963786 -0.009418286 0.0029791936 0.0055243806 0.02333443 -0.014956666 0.018682113
0.013986032 -0.014509876 -0.0076885675 0.018258253 -0.0076538958 0.026261462 0.005382705 0.021164736
0.004480933 0.010410228 0.012611378 0.014078734 -2.5797925e-05 0.03459097 -0.02253682 0.008971754
-0.025997657 0.015641563 0.007638161 -0.0069743297 0.00721656 0.0125225345 0.035999686 -0.016739871
-0.00682113 -0.037613895 0.0029916205 0.009921767 -0.011871065 0.0023530293 -0.014522566 0.017606046
-0.026063038 0.03662211 -0.027011205 -0.034514684 0.022470677 -0.018976444 -0.020918502 0.028458266
-0.0023963512 0.0022959781 0.0045743063 -0.016912585 -0.045993503 -0.013342495 0.013699146 -0.0021857428
0.02184055 0.007962843 -0.014185653 0.00907019 0.028517202 0.00586139 0.0029909527 -0.015777098
0.0023922203 -0.013332842 -0.007971648 0.032189004 -0.02198299 0.014260067 0.012077243 0.0013273017
-0.012849296 -0.019610541 -0.011123288 0.013776884 -0.021876777 -0.014852797 -0.015721459 0.02539444
-0.0075899065 -0.027818726 0.013917414 -0.0068929037 -0.003275906 -0.017318474 -0.051571827 0.0032035362
-0.0039403653 -0.009843751 0.021279743 -0.0145508805 -0.023585403 0.01192421 -0.0069105728 -0.013867441
-0.0054797013 0.0229221 -0.039646015 0.029254176 -0.034236882 0.018312829 -0.015346775 0.006169353
-0.014025314 0.01014204 0.0034642522 0.006504396 -0.0047215824 0.026258778 -0.02169837 -0.004592852
0.008089921 0.023575107 -0.06465574 0.009240687 -0.021142632 -0.001944514 -0.00076230324 0.012447645

network_body._body_endoder.seq_layers.2.weight f4 [128, 128]
00000000: 40c8 06be bb64 c03d 06af c1bb 374a 8f3e
00000010: e03b e7bd d19e e53d 3410 e23b 118d adbb
00000020: aba2 0e3d 58d7 13be e086 f73c 8cbc 1f3d
00000030: ae1b 78bc fed4 3cbc 0806 f7bc 0dd3 0ebe
00000040: 01e5 1ebd 1521 bc3d 9e30 2bbe 8a98 353e
00000050: ce00 9a3b 3015 b73d 3114 09be e52e 9dbd
00000060: b23a 463c 50ce 723b 1bae 9ebd e915 c33d
00000070: 99d9 8e3b e31e ffbd 8cac a33c 3ed0 9d3d
00000080: 5c49 cc3d 9631 0f3e 518a 1d3e 782c 153d
00000090: 42ea 6a3d f60e be3d eecc 3a3d 99c4 80bd
000000a0: 0777 15bd ff7a 833e d8a2 88bd 6bc1 a33c
000000b0: 5847 2a3d 7422 1c3d c435 27be df92 fcbc
000000c0: 8f63 963d cf10 74be d8f9 2b3e 3785 c3bd
000000d0: e153 31bd 0875 e83c 2d31 8e3d b43b a53d
000000e0: e455 e63c fd2b eebc cbaa e23d d7f5 1f3e
000000f0: ec3f 4cbc de3e 50bd d69b 073c ec61 a6bd
00000100: 9336 f43b bdce 953d dd4a 423d b7ff 493d
00000110: 09c0 b5bd 094c 60bd 8249 793c 2865 3f3e
00000120: e64d 253e f028 9cbd 3d23 8fbd 072b 81bd
00000130: bad1 913c e18e 10be 9bac 04be 8c4f 90bd
00000140: afc8 bd3b c7af 98bd cb13 97bd ef82 23bd
00000150: aae8 c83d 8a49 5bbd 55fd dd3a 87eb aabc
00000160: 2f05 aabd 9d2a d8bc 0315 9a3d 1836 67bd
00000170: 47b1 7e3c 32bb 9bbb 9843 8ebd 79f3 b7bd
00000180: 93f8 68bd c359 1a3a 7e82 b9bc b687 0abc
00000190: a92a 923d d7bc 06be a892 493c 7bad 75bd
000001a0: 815d 06bd 766b b03c 6549 363b 331a f1bd
000001b0: e162 2cbc 5757 c63d c7cf 6ebd 25ce 5fbd
000001c0: c0a7 adbc 9056 563c 4fb6 ebbd 4c16 813d
000001d0: bb04 133d 2b0e debd 6429 73bd b1b5 433b
000001e0: 9026 a5bd 7dc5 07be ccc8 5abd bd10 2cbb
000001f0: 1d66 b63d 5b55 173e 0da4 1bbd 37cd e6bd
00000200: a28f afbd edde 05bd b07b 683d f7f3 013c
00000210: 9293 113d 54cc 743d 37f5 693d bc80 15bd
00000220: a7d1 10bd 24c8 40be b575 97bd 9d30 223c
00000230: 3aca 12bd 1445 0eba fbc3 a13c 2c47 58ba
00000240: b05f 32be ad5b debd e2bf a13c e232 83bd
00000250: dffb 1c3c 0292 22be 6b91 9f3d c2b6 66bd
00000260: 61ac 92ba 210e 0bbe e2ea 84bd 87aa fdbd
00000270: 28cd 4c3d 387a 24be 3632 553d ef16 acbd
00000280: b588 433d 37f4 2dbe 917f 6c3c 28eb 9fbc
00000290: 2335 0cbe 0854 063e 2698 463d b304 2fbd
000002a0: 9a04 a83c c708 0f3b 203b 2f3d b135 62bc
000002b0: 850d 1dbe 6d10 35bd a89f 4b3a ad86 b33c
000002c0: f65c a63d bbcf 9e3d d2b7 a0bd 7891 633e
000002d0: 913a c73c e83c f73d 5e34 083d 0734 373d
000002e0: b725 f6bd adbc 1b3d c03b 6a3e 7e1c f33d
000002f0: a404 bcbd e3a9 a0bd 4de6 b13d a150 01bd
00000300: a937 44bd d547 cfbd 59db dabc df56 233d
00000310: ead2 923d 0a55 87bd 6c1d 8dbd f84f 903b
00000320: 4d8f 33be 92aa 94bc 4357 dbbc 8642 a23c
00000330: 89c5 0c3e e526 8e3d ec7f 733e 061c 0d3d
00000340: 8f19 3b3d 03bd a33a 4b3c 1abe c3ee 53bd
00000350: 1d16 073e 9c63 27be cb58 c93c dcac 1dbd
00000360: 4249 913c 62f9 18be c553 29bd cbd8 b03c
00000370: aa73 26bd f796 b7bd fbd8 b1bd 688e 0cbd
00000380: 66a7 15be f6a0 423e 63f9 2c3e a14d 033d
00000390: 1b14 13be 0e2c eebd 9b39 863d 38be 9dbc
000003a0: f45a ee3d 9886 293d ee90 753d 371c 82bd
000003b0: f6bf 21be 053d 21be db47 a83d eccf 86be
000003c0: 13de 31be bc98 2ebb 320c 08bd 844b aebc
000003d0: 2481 6dbd 6ad8 0f3e 911c 4d3d 9a5e 273d
000003e0: f5ad ffbd f6b0 50bd 9cbd 503d 27f7 a83d
000003f0: 05e7 d8bd 604d e7bc e3e0 033e e227 0bbd
-0.13162327 0.09394213 -0.005910757 0.2798631 -0.11290717 0.112119325 0.006898904 -0.0052963574
0.0348231 -0.14437616 0.03021568 0.03899817 -0.015143318 -0.011525391 -0.030154243 -0.13947697
-0.038792614 0.091859974 -0.16717765 0.1773397 0.004699803 0.08939588 -0.13386609 -0.0767496
0.012098955 0.0037049241 -0.07748052 0.095256634 0.0043594358 -0.12457063 0.019979738 0.07705735
0.0997493 0.1398376 0.15384795 0.03641936 0.057352312 0.09280197 0.045605592 -0.06287498
-0.036490466 0.25679776 -0.06671685 0.01998969 0.041571945 0.038118795 -0.16329104 -0.030831752
0.07343208 -0.23834537 0.16794527 -0.09546893 -0.043292884 0.028376117 0.06942973 0.08068028
0.028117128 -0.02907371 0.110677324 0.15621124 -0.012466412 -0.050841205 0.0082769 -0.08124146
0.007452795 0.07314823 0.047434676 0.049316134 -0.088745184 -0.054760013 0.01521528 0.18690932
0.16142997 -0.07624996 -0.06989143 -0.06307035 0.0178002 -0.14117004 -0.12956469 -0.07046422
0.0057917456 -0.07455402 -0.07376822 -0.03991979 0.09810002 -0.05353693 0.0016936461 -0.020864261
-0.0830177 -0.026387507 0.07523539 -0.056448072 0.015545196 -0.00475254 -0.06946486 -0.089819856
-0.056877684 0.00058880093 -0.022645231 -0.008455208 0.07137043 -0.13157974 0.012303032 -0.059979897
-0.032804016 0.021535616 0.0027814743 -0.11772575 -0.010521621 0.096846275 -0.05830362 -0.054639954
-0.021198153 0.013082162 -0.11509382 0.06303081 0.035893183 -0.10842546 -0.059365645 0.0029862935
-0.08063996 -0.1325893 -0.05341415 -0.0026255094 0.08906195 0.14778654 -0.037998248 -0.112696104
-0.08572318 -0.0326833 0.056758583 0.007931701 0.035541125 0.059765175 0.05711862 -0.036499724
-0.03535619 -0.18826348 -0.07395498 0.009899286 -0.03583739 -0.00054271636 0.019746771 -0.00082503515
-0.17419314 -0.108573295 0.019744817 -0.064061895 0.009581535 -0.1587601 0.07791408 -0.056326635
-0.0011190289 -0.13579609 -0.06490113 -0.12386041 0.05000034 -0.16062248 0.052049838 -0.08402812
0.047737796 -0.16987692 0.014434711 -0.01952131 -0.13692145 0.13117993 0.048484944 -0.04272909
0.020510007 0.00218253 0.042780995 -0.013806746 -0.15337189 -0.044205118 0.0007767626 0.021914804
0.081232 0.07754465 -0.07847561 0.2222346 0.024319919 0.12072164 0.033253066 0.04472735
-0.12018912 0.038021732 0.22874355 0.11870669 -0.09180573 -0.07844903 0.086865045 -0.031571034
-0.047904644 -0.10121123 -0.026715921 0.03987777 0.07169135 -0.06608017 -0.068903774 0.0044040643
-0.17535134 -0.01814774 -0.026775008 0.019807111 0.13747229 0.06941012 0.23779267 0.034450553
0.04567867 0.0012492243 -0.15062062 -0.051741373 0.1319203 -0.16346592 0.024578473 -0.03849493
0.017735127 -0.14938882 -0.041339654 0.02158775 -0.04063765 -0.08964341 -0.08683964 -0.034315497
-0.14614639 0.19006714 0.16892008 0.032056455 -0.14363138 -0.116294965 0.06553956 -0.019255742
0.11638442 0.041388124 0.05995267 -0.06353038 -0.15795884 -0.15745933 0.0821683 -0.26330507
-0.17369871 -0.002664133 -0.033214755 -0.021276243 -0.057984486 0.14047399 0.05007607 0.040861703
-0.124843515 -0.050950013 0.050962076 0.082502656 -0.105909385 -0.028235137 0.12878756 -0.033973582

network_body._body_endoder.seq_layers.2.bias f4 [128]
00000000: 935b 6fbc 3504 82bc 6d31 953c 155e 8d3c
00000010: b1ed 7fbb ed92 a2ba 8f02 5d3c 5839 a43c
00000020: fec3 423c 9a62 9fbc b330 e53b 006e 48bc
00000030: 09f0 aebc c306 353c 20a3 67bc 635e 00bc
00000040: 467b 943c 38b9 05bd d0b9 963c 9b84 05bd
00000050: 6dd9 e6bc ed86 f3bb 0dfd 90bc ab19 9c3c
00000060: d21e 853c 5e56 f0bb 8c09 8bbc b19a 983b
00000070: 72f1 6dbb 0be8 523c 2749 eebc d726 44bc
00000080: 43c3 383c 2783 5bbc 1298 da3a e21a 433c
00000090: d1ec 693c 8347 c23b d497 24bc f1bc fc3c
000000a0: 6ff0 173c 7f15 cf3b 003b 733b 5e5e 03bb
000000b0: 7294 14bc 72e2 733c adc1 87bb 6480 633c
000000c0: fe5f 98bb 2dbc 8d3c 54f9 9cbb 3ac0 bcbc
000000d0: 5905 beb9 0f4e 25bc 0bf3 423b f697 133b
000000e0: 49d9 6bbc f484 b6bc fd2f 023b 93ee 083d
000000f0: 1548 9ebc 46e0 403c 671d 693b 3584 023c
00000100: 3c07 f4bc 2066 da3b 190e 41bb 6cc3 36bc
00000110: f4ea 1cbc 6124 8a3b 4687 183d cd32 b23c
00000120: cba9 eebc 141f 05bd 71a6 d8bc 80f4 3f3c
00000130: 753f f1bb 48fb b5bc 4ee7 683c ac7a dfbc
00000140: 9fbb 6abb bf39 833c 587a 063d 39c9 e63c
00000150: 1491 ebbc fafb 003d 60bc c93c f86c e2bb
00000160: f698 8e3c 09db 48bc 8367 5b3c 791a a938
00000170: 69a6 a8bc f019 7b3c a8f0 25bc e3be 9a3b
00000180: 2f77 ad3c be41 ddbb edae d6bc 18f4 debc
00000190: 6240 ca3c 0dfa 27bc 68ef 7b3c 3f15 c0bc
000001a0: 57f7 c5bc 8354 0e3c 10db bebc 9a1d 333c
000001b0: c90f 16bc de5b dabb a861 42bc 8215 a33b
000001c0: 7693 f9bc aa4d 4bbc aedc ba3b 543e 8bbc
000001d0: adf4 a03a e3b5 023c 346d e5bc 81a0 2fbb
000001e0: 4f52 bebc d5da 543c f1c3 2dbc 25c3 01bd
000001f0: fb53 87bc 0fc7 363c ff5b 1cbc 4a56 9e3c
-0.014609235 -0.015871147 0.018212045 0.017256776 -0.0039051587 -0.0012403406 0.01348938 0.020046875
0.0118875485 -0.019456197 0.006994331 -0.012233257 -0.021354692 0.011048975 -0.014138013 -0.007835004
0.018125188 -0.03264734 0.01839915 -0.032597166 -0.028179849 -0.007431856 -0.017698789 0.019055208
0.016250048 -0.0073345145 -0.016972326 0.0046571125 -0.0036307243 0.012872706 -0.029087616 -0.011972151
0.011277023 -0.013397968 0.00166774 0.011908265 0.014277653 0.005928935 -0.010045964 0.030851813
0.009273632 0.006319701 0.0037114024 -0.002004526 -0.009068595 0.014885532 -0.004142961 0.013885591
-0.004650115 0.017301643 -0.0047904644 -0.02304088 -0.00036243608 -0.010089411 0.0029746916 0.0022520996
-0.014395067 -0.022280194 0.001986503 0.033430647 -0.01932148 0.011772221 0.0035570504 0.007966091
-0.029788606 0.0066650063 -0.0029457866 -0.011154991 -0.009577502 0.0042157625 0.03723838 0.02175274
-0.029133698 -0.03250034 -0.026446553 0.011716008 -0.007362301 -0.022214547 0.014215304 -0.027280174
-0.0035817397 0.016018746 0.03283152 0.028172122 -0.028755702 0.031490304 0.024625957 -0.0069099627
0.017406922 -0.012259253 0.013391378 8.063479e-05 -0.020587163 0.015326008 -0.010128178 0.0047224625
0.021174995 -0.006752222 -0.026206458 -0.027216002 0.024688903 -0.010252488 0.015376903 -0.02344763
-0.024165792 0.008687141 -0.023297817 0.0109323505 -0.009159037 -0.0066637835 -0.011864103 0.004976929
-0.030465823 -0.012408653 0.0057025766 -0.016997494 0.001227995 0.0079779355 -0.028006174 -0.0026798549
-0.023232607 0.012991627 -0.010605798 -0.031680245 -0.016519537 0.011155858 -0.009543418 0.019328255

action_model._discrete_distribution.branches.0.weight f4 [2, 128]
00000000: 1c9a 12bb e9c7 cc3c 349a 683d 2cf8 5abd
00000010: e894 4d3c 76e2 113d 04bd acbc 2c02 3f3d
00000020: b0bd 2d3d 3e73 333c c3c7 1ebd 924d 623b
00000030: 1c15 3fbc acce c9bc 385a 473c 5e47 973c
00000040: c2a4 8dbc 6a2f afbc 2b32 193d 4f39 f0b9
00000050: 6f96 e3bc 8e52 743d edc2 1dbd 8221 2a3d
00000060: ee6e 1e3c 992a 903c 44ea b63c 10bb 26bc
00000070: 2cac 21bd ce95 eabc 74e4 913c 676e ceba
00000080: 3104 ca3c 2c9c 533c 41a1 593c 8828 423b
00000090: b20f 68bc 1df7 053c 3f2a 96bc fc7b 3bbd
000000a0: 64ef bcbc b117 063c 0531 fa3c ae5b 363c
000000b0: e84c 383d d63a 91bc cfbd 833b be5a 86bb
000000c0: 0a10 243d 727e 0cbc 1af8 94bc 6f14 79bc
000000d0: e805 873d 3040 b73c dddd 463c b29c a93c
000000e0: 6d27 a53c bc8f 95bc 0f3e 54bc f56e 1cbc
000000f0: 05a4 80bc 5e48 353c 1aaa d33c 0758 a73c
00000100: 4e8a 89bb 6d43 38bc d960 783c 0c06 d33c
00000110: 11a3 76bc 1100 9dbb 9f54 17bd 8e99 dcbc
00000120: 36f0 a13c d822 ba3b 2cdb 1a3c 40a0 25bd
00000130: cb5c 703d 8fab 6b3c 757d e13c aace 993c
00000140: 8cab 9fbb aeb7 323c 15a6 1cbd 9ef3 a2bc
00000150: 06e8 7b3c c060 e63b 5dce d0bc 67a3 663d
00000160: 9c55 dabc ee84 79bc af1b f1bb 2129 3e3d
00000170: 4c14 903c 766e c93c d04d c13c 61b5 2f3c
00000180: a1ed 2f3c e254 4cbc a3c5 98bb c886 043d
00000190: bb8f 86bc 5b66 9abc 0b32 0f3d 6f75 07bb
000001a0: be08 2a3c f3c1 66bc c3cf ea3c a50b d1bb
000001b0: fae2 d83c 10f3 ac3c d60a d13c 24b6 5cbc
000001c0: c85c 193b da6b ea3c bc47 11bd 3a30 25bc
000001d0: 53da 9e3c c309 973c f39a 023c 3fca b83c
000001e0: bcca 33bc 1ae0 17bc 1b3c 543c 1cf9 abbb
000001f0: 49d4 093b 4271 aa3b 8997 fe3b 4e30 a7bc
00000200: 20b1 733c 779d 1cbd f85a 2bbd a564 943c
00000210: 8660 623c cd5c eabc 6827 c23c 8ec4 2bbd
00000220: 33e1 1ebd 7bca e1bb be0d 263d 7288 7a3b
00000230: 84cd 73bb ce35 ce3c 9fdd 6cbc ab3a 16bb
00000240: 95fb e83b 2881 86bb 5d32 e0bc d10f 5c3b
00000250: f333 973b 9313 3cbd d30d a23c b240 88bd
00000260: 946a 25bc 3378 b3bb 0d7a 1ebc b02f f73c
00000270: 1873 2c3d 5894 013d b36a 84bc ddef 45bb
00000280: 49e4 3fbd 0d87 d4bc 5e5f 85bc 40ea 6f3c
00000290: 47f9 4aba 3a61 e7bb c012 b93c 4b33 413d
000002a0: 7905 503b 0c21 713c 12d7 29bd 5103 c3bc
000002b0: a9b7 73bd 8060 733c 1d95 343b 59e4 eaba
000002c0: 8f07 d5bc b7f4 d6bb 6714 92ba 2c47 213c
000002d0: b1dd 42bd a4dd 17bc 74e5 323c e49e a1bc
000002e0: 1ac2 1ebd 8076 dfbb 07bb 02bc 0156 cb3b
000002f0: 40ca 663b c710 303c becd 43bd b390 c63b
00000300: 1b53 dc3a 79d0 823b 3b6d 20bc 9b37 efbc
00000310: 2f03 773c 3e06 293c 71a1 ce3c 7051 da3c
00000320: 38ef d0bb 3160 5a3c 97e6 f63b 81c0 283d
00000330: e5d4 3fbd 3b48 483b 9396 08bd 1509 21bc
00000340: 1fcf c1bb 65d8 023c 0df5 403d 2562 fdbb
00000350: f8f7 64bc 404e bc3b 4a5d fa3c f0a6 11bd
00000360: 9637 8d3c be1e 843c 182d 793c 851b 44bd
00000370: 21a4 c4bc 8ff4 01bd a660 7ebc 30f3 5bbb
00000380: 2547 4bbc 62ba 613c 793e 50bc d7c5 fdbc
00000390: db60 e43c adc6 003d 900c ddbc 560a 553c
000003a0: e246 10bc ba9f 303d 8ff7 d6bc 6f3e 583c
000003b0: 236a a5bc 842e 7cbc 1d15 19bd 8203 093d
000003c0: e8c5 74bb 6d31 dfbb 54d7 ed3c b585 6b3c
000003d0: 9da5 babc 517d cbbc c272 3fbc 5f52 b3bc
000003e0: 28aa 1d3c 4aec 753c e234 153b 2bbb abba
000003f0: 0213 bcbb 5fff 85ba 9244 1ebb 51ef 2a3d
-0.0022369688 0.024997668 0.056787685 -0.05345933 0.012547709 0.03561636 -0.021086223 0.04663293
0.04241723 0.010952769 -0.038764726 0.0034531099 -0.011662748 -0.024634682 0.012167506 0.018466648
-0.017290477 -0.021384913 0.03740136 -0.00045819065 -0.027781693 0.059649043 -0.038515974 0.04153586
0.009670002 0.017598437 0.022328503 -0.010176435 -0.039470837 -0.028635886 0.01780913 -0.0015749455
0.024660202 0.012915652 0.013283075 0.002962621 -0.014163898 0.008176592 -0.018330691 -0.045772538
-0.02306337 0.008184359 0.030540952 0.011130257 0.04499522 -0.01772825 0.0040204297 -0.004100173
0.04005436 -0.008575069 -0.01818471 -0.015202626 0.065929234 0.022369474 0.012137857 0.020704601
0.020160401 -0.018257014 -0.012954249 -0.009547939 -0.01570321 0.011064617 0.025837947 0.020427717
-0.0041973954 -0.011246544 0.015159809 0.02575972 -0.0150535265 -0.0047912677 -0.036945935 -0.02692869
0.019767862 0.005680423 0.009451669 -0.04043603 0.058682244 0.0143841645 0.027525643 0.018775303
-0.004872745 0.01090805 -0.038244326 -0.019891556 0.015375143 0.0070305765 -0.025489027 0.056308176
-0.02665215 -0.015229447 -0.0073580365 0.046425942 0.017587803 0.024588805 0.023596674 0.010724396
0.0107378075 -0.0124714095 -0.004662232 0.0323551 -0.016425958 -0.018847635 0.034959834 -0.002066936
0.010378061 -0.014084327 0.028663522 -0.006379562 0.026475418 0.021111995 0.025517862 -0.01347116
0.002340125 0.02861588 -0.0354688 -0.010082299 0.019391214 0.018437272 0.007971513 0.022557376
-0.010973629 -0.009269739 0.012953783 -0.005248202 0.0021031073 0.0052014897 0.0077695292 -0.020408776
0.014873773 -0.038236108 -0.0418348 0.018114397 0.013816958 -0.028608704 0.023700431 -0.041935496
-0.038788985 -0.0068905926 0.04054045 0.00382283 -0.0037201354 0.02517214 -0.014457135 -0.0022923152
0.007110069 -0.004104752 -0.027367765 0.0033578763 0.004614347 -0.045917105 0.019781983 -0.06652965
-0.010096211 -0.0054769753 -0.009672654 0.030174106 0.04210195 0.031635612 -0.01616416 -0.0030202784
-0.04684857 -0.025943303 -0.016280826 0.014643252 -0.00077428337 -0.007061151 0.022591949 0.047168057
0.0031741543 0.014717352 -0.041464873 -0.023805292 -0.059501324 0.01485455 0.0027554699 -0.0017920836
-0.02600458 -0.006559934 -0.0011144996 0.009843629 -0.047574703 -0.009269152 0.010918964 -0.019729085
-0.03875933 -0.006819546 -0.007979161 0.006205321 0.0035215765 0.0107461875 -0.047803633 0.00605973
0.0016809435 0.003992137 -0.009791668 -0.02920132 0.015076443 0.01031643 0.025223466 0.02665016
-0.0063761733 0.013328598 0.0075348127 0.04119921 -0.04683389 0.003056063 -0.033346724 -0.0098288255
-0.0059145833 0.007986163 0.0471087 -0.007732647 -0.013975136 0.005746633 0.030562062 -0.035559595
0.01723842 0.01612794 0.015208505 -0.047877807 -0.024004044 -0.03172737 -0.0155259725 -0.00335617
-0.012407099 0.013777347 -0.012710207 -0.030978126 0.027878216 0.031439472 -0.02698353 0.013002953
-0.008805962 0.043121077 -0.026241092 0.013198479 -0.020192211 -0.01539195 -0.03737365 0.03345061
-0.0037349407 -0.006811312 0.02903334 0.01437514 -0.022784049 -0.024840029 -0.011685075 -0.021889864
0.009623088 0.015009949 0.0022767116 -0.0013102045 -0.0057395706 -0.0010223201 -0.0024149758 0.041732136

action_model._discrete_distribution.branches.0.bias f4 [2]
00000000: 395f 36bc 3c5f 363c
-0.011131101 0.011131104

action_model._discrete_distribution.branches.1.weight f4 [3, 128]
00000000: cc58 b53b 91be 3a3c 9310 0fbc c260 7cbc
00000010: 45b6 64bb 6968 3fbb 3d04 8abc e8fa fe3a
00000020: 2263 32bd 2ff8 203c ec97 c83c 754d 5d3d
00000030: 97e5 08bb 63f7 b23b 67bc 07bb 44a6 14bc
00000040: 3304 35bc 0424 213c 80e3 05bd 9821 583b
00000050: 9a99 1c3d 70ec b43c 27b6 c53c 2d11 02bd
00000060: a8a9 0abd 2e28 50bb e9ee 3cbb 6050 3a3c
00000070: 4003 053d dc4b 05bc e308 6f3c e0b9 973c
00000080: a177 64bd ca6d b2bb f196 77bc 54c7 43bc
00000090: 5547 ebbc c30b 41bc c70a d53c 59f4 89bc
000000a0: a85b 18bc d9e9 02bc 0eb0 8fbb 81cb d6bc
000000b0: 7190 edbb 0a96 9ebc cfc9 eebb c6d1 febc
000000c0: 9c85 9ebc 3f1e 9fbc e2d9 53bc 284a 043c
000000d0: fca1 b43b c262 63bb b3d8 62bc a81a d4bc
000000e0: 5be4 133c f807 08bc 41e3 c2bb 56c6 4fbd
000000f0: 4753 f03c a827 97bb 7a15 93bc 2d77 f8bc
00000100: 67e6 533c f35b a6bc 932c 84bb a4ec 8a3b
00000110: 53f1 253c edea 93bc 9717 273c a8a9 b5bc
00000120: 67ea 033d 48cb 6a3a d9d2 ecbb ab39 d03b
00000130: e737 df3c 0a84 9e3c e496 b0bb dd4b 0f3c
00000140: 3796 eebc a876 b9ba 7605 8abc 2604 8cbd
00000150: da5c 0a3d 56f5 bdbb b3de 50bc 852a 9f3c
00000160: ac09 02bd fc9f a43b 8d64 a8bc de38 24bb
00000170: 06c8 043d 7dad 73bc 47b8 91bc 724c f4bc
00000180: fcbb e0bc 8cf3 e03c bf68 7e3c 0eec 003c
00000190: ed38 8dbc 98c6 503d 9621 edbb e779 5a3d
000001a0: 074b 743c 6511 bbbb fa4f df3c f1fd febb
000001b0: 2775 503d 91e2 c1bc 9265 97bb 642c b1bb
000001c0: 38b2 7e3c 78c0 213b 44a5 003d bd8c 843c
000001d0: 506d 5fbc 40da 1b3c ecff 993c 703f 11bd
000001e0: 907d 063d 07c5 71bc 5ccd 4b3c aa7e cfbb
000001f0: a621 553d 27f3 e2bb 4c47 90bb fd1e e43b
00000200: 53b0 853c 5a07 5abc 8db5 55bd 9a3c c4ba
00000210: 7a5b 52bc efdc 783c e7a6 513d d1a8 5bbd
00000220: d5be bf3c 1122 c2bc 0100 35bc 8e9d 94bc
00000230: 5c1f 693c cf23 a1b5 480b a83c 8f9a 1c3c
00000240: 0619 3a3d 7188 4cbc ad6b e1bb ef7c 8bbc
00000250: 2540 9cbc 65e3 5dbb f2e5 b7bc 0fcc 693a
00000260: a38d 0c3c d1c2 853c 2844 60bb 0e32 c1bc
00000270: 8199 633b 7e6f 823c 80fe 89bc a543 b93a
00000280: d158 4c3b e9b8 fabb 7431 de3c 2385 a73c
00000290: 63e7 c03c 1641 603d 525d f1bc bc23 9fbc
000002a0: 24f7 623c 8bb4 9d3c 00e4 24bd 046f 163d
000002b0: 5cfa 9f3c fbdc fc3b b136 0b3c 03a1 d83b
000002c0: 180c 8fbc 6507 2fbd 7022 2b3c 85d4 8f3b
000002d0: cc60 f83b aed1 00bd 9671 223d a546 923d
000002e0: 110f 2ebb 503c 8a3c d82f df3c 739f 573d
000002f0: 3d30 a63b 8446 4b3c 1cd9 133d a177 243d
00000300: 6b5b d5bc 9c38 cb3c 3e38 54bb 8b6c df3b
00000310: bbb0 073d 2083 d03c 5647 dabc 096f 72bc
00000320: 3d97 c73b 635b a7bc c965 1fbc f59b af3b
00000330: 2867 3e3d fcc7 edbc db87 07bd c81b 14bc
00000340: bf26 583d a415 82bd 0e93 033c 493b 703d
00000350: fd13 11bc fc26 a7bd 0980 943d f4cf 66bc
00000360: 5b50 b3b9 3a9a 813b 5cf3 543c c457 663d
00000370: a9aa 30bd 1bc2 0fbd 9888 b4b9 2fb2 e63c
00000380: 0254 f23c bfce 30bd 3212 4e3c 9857 373c
00000390: ab1b 1c3a 78d1 11bb 5504 7d3d 4f82 b2ba
000003a0: ba7f 9c3c dd68 ca3c 2ff4 fa3b bbe1 1c3b
000003b0: 2a80 b7bc 63d5 3a3d 8771 f43b 77a1 963c
000003c0: 9720 06ba 3cf2 02bc c075 103c 63e0 ee3a
000003d0: 20a0 3a3d 8101 1bbd 893d 393c 3777 dd3c
000003e0: d133 cc3c 22a6 043d 392d 2f3d d227 c0bb
000003f0: c966 cfbc dfb3 26bd 9361 d83c d64b 49bd
0.005534267 0.011397974 -0.008731979 -0.015403928 -0.003489868 -0.002920652 -0.016847724 0.0019453438
-0.04355157 0.009824797 0.024486504 0.054028947 -0.00208888 0.0054616197 -0.0020711662 -0.009072844
-0.011048364 0.009835247 -0.032687664 0.0032979008 0.038232423 0.022085398 0.024134709 -0.03175466
-0.033853203 -0.003176223 -0.0028828925 0.011371702 0.032473803 -0.008135762 0.014589521 0.01852125
-0.05577815 -0.005445217 -0.015111671 -0.011949379 -0.028720537 -0.011782589 0.026006116 -0.016840147
-0.009299196 -0.007990324 -0.004385001 -0.026220085 -0.007249885 -0.019358654 -0.007287241 -0.031105887
-0.01935082 -0.019423602 -0.012930365 0.008074321 0.005512474 -0.0034696315 -0.01384561 -0.025891617
0.009026612 -0.008302681 -0.005947501 -0.050726257 0.029336585 -0.0046128817 -0.017954577 -0.030330265
0.01293335 -0.020307517 -0.004033634 0.0042396355 0.010128337 -0.018056357 0.010198495 -0.022175625
0.032205965 0.0008956683 -0.0072272834 0.006354531 0.027248336 0.01935007 -0.0053890813 0.008746115
-0.029124362 -0.0014149742 -0.016848307 -0.06836729 0.033779956 -0.0057970686 -0.012748408 0.019429455
-0.031747505 0.0050239544 -0.020555759 -0.002505831 0.03241732 -0.014872906 -0.017788066 -0.029821608
-0.027433388 0.027459882 0.015527903 0.00786878 -0.017239058 0.050970644 -0.00723667 0.05333891
0.014910466 -0.0057088607 0.027259815 -0.007781737 0.050892975 -0.023667606 -0.0046202624 -0.005406903
0.01554542 0.002468137 0.03140761 0.01618039 -0.013636902 0.009512484 0.01879879 -0.03546089
0.03283459 -0.014756448 0.012439098 -0.006332238 0.052034043 -0.0069259587 -0.0044030305 0.006961702
0.01631943 -0.013307417 -0.052175093 -0.0014971674 -0.0128391925 0.015189393 0.05118456 -0.053627793
0.023406425 -0.023697885 -0.011047364 -0.018141534 0.014228668 -1.2005856e-06 0.020513192 0.009558334
0.04543402 -0.012483702 -0.006879291 -0.017027346 -0.019073555 -0.0033857462 -0.022448514 0.0008918652
0.008578691 0.016328247 -0.0034220312 -0.023583438 0.0034728947 0.015922304 -0.016844988 0.001413454
0.0031180868 -0.0076514375 0.02712319 0.020449227 0.023547834 0.05474957 -0.029463444 -0.01942622
0.013852868 0.019251129 -0.0402565 0.036726967 0.01952856 0.0077167726 0.008496926 0.006610991
-0.017461821 -0.04273166 0.010445222 0.004389348 0.0075798985 -0.031449966 0.039659105 0.071423806
-0.0026559273 0.016874462 0.027244493 0.052642297 0.0050716684 0.012406949 0.036095724 0.04015315
-0.026044568 0.024807267 -0.0032382156 0.0068183593 0.033127528 0.02545315 -0.026645344 -0.014796981
0.006091027 -0.020429319 -0.009728857 0.0053591677 0.046485096 -0.029026024 -0.033088546 -0.009039827
0.052771326 -0.06351784 0.008030666 0.05865029 -0.008854863 -0.081617326 0.07250983 -0.014087666
-0.0003420141 0.003955153 0.0129974745 0.056236044 -0.043131504 -0.035097223 -0.00034434046 0.028161136
0.029581074 -0.04316592 0.01257758 0.011190318 0.00059550506 -0.0022250097 0.06177171 -0.0013619157
0.019103874 0.024708206 0.0076585035 0.0023938257 -0.02239998 0.045613658 0.0074598226 0.01838754
-0.00051165506 -0.0079923235 0.008817136 0.0018224831 0.045562863 -0.03784323 0.011306175 0.027034385
0.024927052 0.032385 0.042767737 -0.005864122 -0.025317566 -0.040698882 0.026413715 -0.04914459

action_model._discrete_distribution.branches.1.bias f4 [3]
00000000: 6c1a b7bc 29d3 f73b 2f79 613c
-0.022351466 0.007563014 0.013761803

action_model._discrete_distribution.branches.2.weight f4 [1, 128]
00000000: 454f 293b 8376 08bb fa08 b53a c247 db39
00000010: eb4c 8e3a df27 ef38 99f2 0cbc 159d dabb
00000020: f39c c7bb e859 793b af90 e938 6ab0 5fbb
00000030: 39b6 44b8 1bf8 973b 67ab c9bb 2338 613c
00000040: c2ab 143b 4d6d 4e3c 4bf1 cbbb 4cd1 323c
00000050: ef6e 17bc 1da4 783b 4f93 28ba 4899 de39
00000060: a36f 3b3c ef5e 38bc bbc3 003b 9260 6bbb
00000070: 439b cdbc c304 853a 0df0 a03b fac4 6c3b
00000080: a63e 013c 0363 583b e6a1 153c 2338 a1ba
00000090: 252b f6bb 932f 2ebc 0a97 f939 607f b2ba
000000a0: f385 96bb b359 573c 120c df39 5f61 8b3b
000000b0: 03f4 043c 9471 3f3c 2df7 50bc d9b0 1a3c
000000c0: a361 613a 229b 123c c48a 00bc d7dd 8939
000000d0: 3d67 0ebc 4024 cbbb 65a0 58bc 7484 08bc
000000e0: 1035 85ba 4b55 57bb a014 cfb9 7c3f 82bb
000000f0: 5191 a0bb 3d1f af3b 9aef a83b 63a4 30bb
00000100: b79e 8e3b 93f1 81bb f58a 2f3c 405c d13b
00000110: 8f21 f53b 8c87 143b 3bcf 5bbc a606 933c
00000120: 2bb1 4cbc 7128 85bb 85f7 6bbc 6aba b7bb
00000130: c2fc 27bc b252 62bc b18d 81bc 90dc 7fbb
00000140: cf86 a9bc 1c8a a0bb 9dad 7cbc ffa8 f2bb
00000150: 4bac 06bb 9694 053c 357d 853b 3550 cc3c
00000160: 4d77 283c fb9b df39 f323 27bb 0907 c0bb
00000170: bfbf 0dbb 7a30 8b3b fbd7 243c e876 46ba
00000180: 4256 ea3b 862a 26bc 8445 b63b e560 0e3c
00000190: aaaa 82bc 839d 1d3c 3f84 373b 6963 c1bb
000001a0: ef72 d33b a2fb 65bc 9019 34bc 6550 ef3b
000001b0: 3ace 653c c538 49bc e4c3 93bb 5805 4ebb
000001c0: d0ff 223c 7bb4 d43b d76b 63bb 3bfd 4ebb
000001d0: e3bd 003c b68a 8b3c a75b 16bc b2c0 83b9
000001e0: d8a3 4a3c 31ef 2fbb 278f c93a 6e8a 373c
000001f0: 7114 823c 76d8 3dbc 953d 3a3c 4ee5 92bb
0.0025834602 -0.0020822592 0.0013811879 0.000418244 0.0010856664 0.00011403835 -0.008602762 -0.0066715577
-0.006091708 0.0038047973 0.00011137255 -0.003413225 -4.689975e-05 0.004637731 -0.006154466 0.013746294
0.0022685383 0.0125993015 -0.0062238327 0.010914158 -0.009242757 0.0037939616 -0.0006430642 0.00042457343
0.0114401905 -0.011253103 0.0019647914 -0.0035915715 -0.025098449 0.0010148514 0.004911429 0.003612815
0.007888472 0.0033018 0.009132838 -0.0012300055 -0.0075124674 -0.01063146 0.00047605514 -0.0013618283
-0.0045936047 0.013143945 0.00042542868 0.004253551 0.008114818 0.011684794 -0.012754244 0.009441578
0.0008597618 0.008948119 -0.007845584 0.0002629596 -0.008691606 -0.0061993897 -0.013221835 -0.008332361
-0.0010162909 -0.0032857235 -0.00039497484 -0.003974853 -0.0049001356 0.0053443 0.005155516 -0.002695345
0.0043524164 -0.0039655655 0.010714282 0.006389171 0.007480807 0.00226638 -0.013416107 0.017947506
-0.012493412 -0.004063659 -0.014402275 -0.005606939 -0.010253133 -0.013813661 -0.015814634 -0.0039041378
-0.020694165 -0.0048992764 -0.015422252 -0.0074054 -0.0020549472 0.008153101 0.0040737637 0.02494059
0.01028235 0.0004265009 -0.0025503605 -0.0058602137 -0.0021629182 0.004247722 0.010061259 -0.0007570819
0.007151396 -0.010141974 0.005562486 0.008690094 -0.01595052 0.009620073 0.0028002409 -0.005901743
0.00645291 -0.014037045 -0.010992423 0.007303285 0.014026219 -0.012281601 -0.004509436 -0.003143629
0.009948686 0.0064912415 -0.0034701729 -0.0031584043 0.0078577725 0.017033916 -0.009177125 -0.00025129836
0.012368165 -0.002684545 0.0015377746 0.011202438 0.015878888 -0.011587253 0.011367221 -0.0044829017

onnx::Div_94 f4 [150]
00000000: e305 8f3e 0a43 ea3e b310 b23e 53c3 b73d
00000010: 55b6 763d 565b 723d 3536 4a3d 4b16 393d
00000020: 622d 203e dafb 763e b1ee 8d3e 2b02 ed3e
00000030: f917 b83e 1fdd b53d 0b62 833d f327 6e3d
00000040: a4e6 3a3d 5d4c 3a3d 40b4 263e 9c7e 7a3e
00000050: 1a77 903e c15f ea3e 11d2 af3e 6205 b43d
00000060: c0b4 853d cd32 793d e926 4f3d ba3e 4d3d
00000070: fcb1 1f3e b8d8 743e 637d 8a3e ef57 ec3e
00000080: 2ce6 b83e 2f83 b03d af57 813d 8632 713d
00000090: 2d6a 2f3d b213 223d 56bb 283e 7d8c 7f3e
000000a0: 0edd 8f3e af94 eb3e be65 b33e 9fbf b03d
000000b0: 1d95 803d 6a09 803d 3336 4a3d 5f7f 5a3d
000000c0: fbef 1e3e e76e 743e 195b 883e 17bd ec3e
000000d0: 94a7 b83e e632 a63d 6f32 7f3d 4b8b 7a3d
000000e0: 105c 3f3d 3e3f 1a3d c0ed 343e 23e7 823e
000000f0: 9d58 8d3e 6fd1 ea3e f140 b23e 5f8c b23d
00000100: b071 843d 1f95 803d d841 483d 3136 4a3d
00000110: 2ba8 293e 1ad3 7b3e 8bab 813e a2e7 ea3e
00000120: ac85 b83e e98d a23d 62d9 823d 8ba3 693d
00000130: 8748 463d ba34 2a3d 1ac0 303e bdac 843e
00000140: bbd2 893e eabf e93e 549f b23e f844 bd3d
00000150: f0c1 7e3d 783a 863d 07ef 493d 692c 383d
00000160: eff7 283e 1377 7d3e 088f 773e bfd5 eb3e
00000170: 8fa6 bb3e 7d64 b23d cada 7f3d 9e07 763d
00000180: 5646 423d 9520 2e3d b4b2 3a3e cffc 853e
00000190: c090 863e 1056 ea3e b0bc b33e e52c b43d
000001a0: 4d5d 803d 71a4 8b3d 72dc 443d e078 343d
000001b0: 304f 363e ae4c 833e 0e65 763e 60b8 ec3e
000001c0: 8182 bc3e 072b af3d 1f10 833d fde0 693d
000001d0: 676e 453d 5441 373d 1896 433e 4d27 883e
000001e0: e807 853e 36f7 eb3e 58c9 b43e e008 a73d
000001f0: c146 833d 104c 883d 5481 543d 37fc 413d
00000200: 99fc 453e 8c1d 873e 4963 7b3e 9118 ec3e
00000210: d157 bb3e 1c7e ad3d 6373 813d 4108 703d
00000220: 51d1 483d 41e8 323d 8d5e 433e 44b2 893e
00000230: 8f9d 833e 9291 e83e a047 ae3e eb2b ad3d
00000240: 8afd 813d 227f 853d 5702 663d c084 4d3d
00000250: d8bf 443e 7dd7 873e
0.2793418 0.45754272 0.34778365 0.08972802 0.06023248 0.059169136 0.049368102 0.045187276
0.15642312 0.24119511 0.2772117 0.46290717 0.3595579 0.08880066 0.064151846 0.058143567
0.045630112 0.045482982 0.16279697 0.2446236 0.28215867 0.4577618 0.34339955 0.08790089
0.06528616 0.060839463 0.050574217 0.05010865 0.1559524 0.23910797 0.27048787 0.46160838
0.36113107 0.08618771 0.063155524 0.058886074 0.042825866 0.039569564 0.16477713 0.24955936
0.2809834 0.46011874 0.3503856 0.08630299 0.06278441 0.062517956 0.049368095 0.053344127
0.15521233 0.23870431 0.26632002 0.46238014 0.36065352 0.08115177 0.062303957 0.061167996
0.046718657 0.03765797 0.1766882 0.25566968 0.2760667 0.4586291 0.3481517 0.0871818
0.06466997 0.062784426 0.04889092 0.049368087 0.16568057 0.24592248 0.2532619 0.45879847
0.36039484 0.079372235 0.06389119 0.057040732 0.04840901 0.04155419 0.17260781 0.2591304
0.26918587 0.4565423 0.34887183 0.0924167 0.062196672 0.06554121 0.04930022 0.044964228
0.16500829 0.24752454 0.24175656 0.46061513 0.36650512 0.08710573 0.062464513 0.060065858
0.04743036 0.04251154 0.18232232 0.2616944 0.2628231 0.45768785 0.35104895 0.087976255
0.06267796 0.06818474 0.048061796 0.044060588 0.17803645 0.2564444 0.24061987 0.46234417
0.36818317 0.08553129 0.06399559 0.05709933 0.04820099 0.044740036 0.19100225 0.26592484
0.25982594 0.46087044 0.35309863 0.0815599 0.064099796 0.06655133 0.05188115 0.04735967
0.1933464 0.2638973 0.24549593 0.46112493 0.36590436 0.08471319 0.063208364 0.05860162
0.049027745 0.043678526 0.19079037 0.26893818 0.25706145 0.4542356 0.3403902 0.08455642
0.06347187 0.06518389 0.056154575 0.05017543 0.19213808 0.26531592

onnx::Div_97 f4 [9]
00000000: 658b 7e41 444a cf41 1a32 fd3e 531d 7a41
00000010: 9a59 c641 484e fd3e 44d7 7541 acf5 bc41
00000020: e269 fd3e
15.909032 25.911263 0.49452287 15.632159 24.79375 0.49473786 15.365055 23.619957
0.49494845
