Assets/ZooheimTest/Models/0609_SimpleModel/DeerBehavior.onnx (onnx, 156857 bytes, 14 tensors)

discrete_act_size_vector f4 [1, 3]
00000000: 0000 0040 0000 4040 0000 803f
2.0 3.0 1.0

network_body.observation_encoder.processors.0.normalizer.running_mean f4 [150]
00000000: b2e6 9a3d 837d 353f c6f0 203e 80b0 e33b
00000010: dd06 893b b2bf 913b b602 0c3b 3f68 343b
00000020: 1714 aa3b bc7b 2a3e 6d3d a43d 44d4 323f
00000030: 8a0f 243e eb64 e13b 8a13 8e3b 1f74 8f3b
00000040: ffaa 203b 42b8 413b b54a ad3b 1642 2a3e
00000050: e2d9 8e3d 5092 363f ce6b 213e c2d5 c83b
00000060: 4ef6 943b d663 a93b 7e50 fe3a dbfe 1c3b
00000070: f35f ba3b 6fb9 293e fe9f a03d 1f17 323f
00000080: a665 293e cea3 de3b 99fe 8e3b aee2 5b3b
00000090: ab6c 3f3b 9ad1 4b3b 3025 ba3b 9a4e 2b3e
000000a0: fbd2 8b3d 2994 363f 407b 203e c02d c23b
000000b0: d26b 953b 20ff aa3b 4703 283b b067 183b
000000c0: 716d e93b 60c3 2e3e ebd4 9e3d f256 323f
000000d0: 1229 293e f6af c73b 6324 903b b892 4e3b
000000e0: 160c 3e3b 4603 283b 46fb bb3b 0857 2e3e
000000f0: 9267 7f3d 0081 373f 7cf9 233e b23a d53b
00000100: 70fa 913b 8f63 9b3b 88c0 3b3b d613 1c3b
00000110: 242a e13b 161a 323e 3326 9c3d c678 313f
00000120: 1c39 2c3e 6574 9d3b 5a91 883b bf1d 6a3b
00000130: 9036 583b be8d 273b eee0 003c bf8c 333e
00000140: 357b 6f3d 2f99 363f 13fe 293e 9fd1 cb3b
00000150: f267 a63b 2507 973b fffa 2d3b f8bf 1f3b
00000160: 7d08 dd3b 05b3 373e 654d 943d dce5 333f
00000170: eb6f 2a3e fc52 a73b 6174 9d3b bb5a 853b
00000180: 3468 343b bc52 193b 741d dc3b 61fe 393e
00000190: 39ac 5f3d d74c 353f ee58 303e 9f71 e63b
000001a0: d463 a93b c5ed 8c3b 58b4 523b 0b21 3d3b
000001b0: 277a ee3b a131 3d3e 977f 8c3d fde9 333f
000001c0: 7d2f 2f3e ea74 b93b c495 933b b367 983b
000001d0: 10bc 303b c18d 273b 1764 b73b 03ed 413e
000001e0: 9f5c 673d 937e 333f e87a 363e c4c5 f03b
000001f0: a474 ab3b bd52 993b b87d 4f3b 655f 1e3b
00000200: 822c 033c 672c 453e 9f95 8c3d d875 363f
00000210: d611 213e 4b8e c33b 1031 953b a37c 973b
00000220: 855b 2f3b c9c8 353b 22b7 093c 5481 503e
00000230: ccfc 823d c263 353f 618c 243e d9c9 ed3b
00000240: fefa ad3b dcfe 9c3b a76c 3f3b 372d 263b
00000250: b85a 053c 7748 523e
0.07563533 0.7089464 0.15716848 0.0069485307 0.0041817264 0.0044479007 0.002136392 0.0027527956
0.005190383 0.16648763 0.080195285 0.6985514 0.16021553 0.0068784854 0.0043358253 0.0043778564
0.0024515984 0.002955929 0.005288447 0.16626772 0.069751516 0.71317005 0.1576378 0.0061289975
0.0045459634 0.005169372 0.0019402651 0.0023955617 0.0056877076 0.16574644 0.07843016 0.6956653
0.16542682 0.0067944294 0.0043638465 0.003355186 0.0029209058 0.0031100274 0.0056807026 0.16729203
0.06827351 0.71319824 0.15672016 0.005925864 0.0045599723 0.0052184016 0.002563672 0.0023255162
0.007123642 0.17066717 0.07755455 0.6966392 0.16519573 0.006093974 0.004398869 0.0031520557
0.0028998903 0.0025636717 0.0057367412 0.17025387 0.06235463 0.71681213 0.1601314 0.006507241
0.0044549033 0.004742093 0.0028648693 0.0023815534 0.0068714786 0.17392763 0.076244734 0.6932491
0.1681866 0.004805135 0.004167718 0.0035723296 0.0032991506 0.0025566663 0.007866127 0.17534159
0.05846711 0.7132749 0.16600828 0.006220057 0.005078309 0.004609006 0.002654731 0.0024375897
0.0067453966 0.17939384 0.07241324 0.7027261 0.16644256 0.005106328 0.004805133 0.004069654
0.002752793 0.002339526 0.0067173783 0.18163444 0.054607604 0.70820373 0.17221424 0.0070325877
0.005169371 0.0043008053 0.003215095 0.0028858806 0.0072777453 0.18475963 0.06860273 0.7027891
0.17107959 0.005659689 0.0045039374 0.004651034 0.0026967563 0.002556667 0.0055966484 0.18938069
0.056484815 0.7011501 0.17820323 0.0073477942 0.0052324105 0.0046790526 0.0031660628 0.0024165746
0.008006217 0.1925522 0.068644755 0.71273565 0.1572946 0.0059678904 0.004552968 0.004623012
0.002675743 0.0027738085 0.008405479 0.20361835 0.063958734 0.70855343 0.16069175 0.007256728
0.0053094616 0.004791124 0.002920905 0.002535654 0.008139305 0.20535456

network_body.observation_encoder.processors.1.normalizer.running_mean f4 [6]
00000000: 4022 bf42 7349 2b43 c15d bf42 569f 2b43
00000010: 9f98 bf42 e6f4 2b43
95.566895 171.28691 95.68311 171.6224 95.79809 171.95663

network_body._body_endoder.seq_layers.0.weight f4 [128, 156]
00000000: aab2 143d 6369 eebd 95a5 893d e4f1 79bb
00000010: 130a bbbd b4e3 043d 439e e2bc 516d f83d
00000020: 1fae f8bc cf02 71bc 84c0 9cbd 20ed c83b
00000030: e4f8 233d a3ab e0bd e085 eb3c faac 73be
00000040: 3e89 a4bc dff9 0abe aab4 5abd 0305 b8bd
00000050: 84af 1e3e ddae febd 8686 273d ea8a 823d
00000060: 1974 1f3d d885 163c fce7 873d 8ee7 5ebc
00000070: cf87 8b3d 74fc 99bd 5c49 473e b446 09be
00000080: fdbf 013b 5b7b 683d 7c29 97bd 0fec 843d
00000090: be85 ff3c dd77 a2bd 4008 753c 9a14 843d
000000a0: eb3f be3d 5a54 d9bd bcfd b23d b21c d1bc
000000b0: b271 9bbd ac4f c13d c758 793c 40a1 a23d
000000c0: ae69 053e eef4 533e 2c3f 373d 3c47 8e3b
000000d0: ac63 ab3d 2224 c9bb b933 43bd f779 953d
000000e0: 51a7 1abc 36ea 233e b1c3 283d 4f9f 6a3d
000000f0: 2dc6 9e3d 2012 88bd bd66 fdbb e00a f7bd
00000100: 81af 2abd 3d67 ef3c 1038 f73d c70c 493e
00000110: 212b 6d3d a992 fabb fb9c 41be 7d46 b3bd
00000120: 0511 5cbd f76e f1bd 425d b03d fe1a 7c3c
00000130: 21c1 0f3d bd8b 3ebc 432a 0abd 93a9 9ebd
00000140: 82f8 67bc 327c 8ebd b661 19be 9b4f 1fbe
00000150: 5cae 653b 0390 b83b 7ad8 733d 677d bebc
00000160: d2ca 3e3d 3577 b6bc 37c6 2c3d 292d da3c
00000170: 7401 81bd 79d0 e1bd 6a7c a2bd 446a bf3d
00000180: 7d6b 1ebe b066 aabc 7994 0bbc 4473 22be
00000190: 76f5 8e3d c5de d53d 51a7 d1bc 14d4 c63c
000001a0: 171e 8b3c 5dfa af3c 54da c33c 8c61 ea3c
000001b0: f609 1c3e 33b0 3ebd 68f8 debc 6eae f63c
000001c0: d430 a8bc dcdb a03d c779 163e 88e9 8abc
000001d0: 8c8a 4fbd c2fa 8c3b 2327 2dbd 3fd7 f73b
000001e0: 6b42 92bd f2c1 cbbc f8f7 d93d 047d 98bd
000001f0: e133 28be 1d08 eb3d 6add 20bc 635d c63b
00000200: 8da9 dfbc 67d9 ffbc 2c50 a83c db3f 64be
00000210: be49 573d 7ab7 66bd 816f 513d 851c 7c3d
00000220: 362c 8a3d c068 913c f2fc a63c 4bcd 363d
00000230: 8c89 073c d54c cb3d 4087 b0bd 1d41 14bb
00000240: 86c9 9e3d 8cfc 153d 7347 1abd 2d6e 4c3d
00000250: 2a2a f2bd da1b 02bd 6787 103a 2989 adbc
00000260: 7e7c a4bd 554c 073e 6c8d 973d f1d9 15bd
00000270: f7d6 593c 43e0 bfbd af61 7a3c 6aaf 873c
00000280: 8ae4 52bd fcb8 9abe aa1d 03be fe63 0cbe
00000290: 1349 003d 6566 24ba 2830 0e3e 1dc3 623d
000002a0: 72d3 1bbd c59a 1d3d 9c98 9e3d b2f1 12bd
000002b0: 5ad3 4cbc 508a 913c 708d 0e3e 92f9 943d
000002c0: 49c0 793c e4ae 08bd c3ba 493c 448b 4bbd
000002d0: 48c8 4abd eecf 83bd b6a3 4d3e 9d3e 0a3d
000002e0: 1a68 713d 523a 2dbe f369 753c 733f 5e3d
000002f0: 1ec4 5a3e 5541 de3c 3b29 06bc 48c1 973d
00000300: 0619 8a3d 4df5 a73d a69e d83d 702d 22bc
00000310: e69a 30bd 57c3 0e3d 6d81 93bd f95e 0a3e
00000320: e4ec 7f3a d1c7 1d3e d5bd e33d e447 883d
00000330: bc8b 4f3c ed7c 683c 5d83 1a3c 905f a83d
00000340: 91c2 d0bd 30d5 6a3c 35a6 1fbe c76d e0bb
00000350: 7e6b 0ebc d5e3 fb3d 063b da3c 7ce4 1a3d
00000360: f3a5 67bc 40f1 473e 8540 c23d 5de2 b4ba
00000370: b910 c6bd b0f8 903d f7bc 823c 0ef7 b13d
00000380: d549 adbd d151 c43d 191c 1d3e 7b80 1c3e
00000390: 0788 1dbd 70ee 22bc b1f4 e1bd 4b46 cfbd
000003a0: a56d ef3d 75d8 db3d 4df9 b2bd 4534 153c
000003b0: 8f18 bcbd 89e7 51bd 532c 9fbc e4b3 8abc
000003c0: 6b4b cd3d 6bcc b2bd dc8e cf3d aa39 273e
000003d0: d5c7 79bd 0d4d 31bd 10e7 6ebc 0ebc 1b3d
000003e0: fc13 d9bc e268 673d fd1f 46bd 5200 96bd
000003f0: 6c46 d6bd b9e1 be3d d1db 973d e7f1 72bb
0.0363032 -0.11641195 0.067210354 -0.0038138563 -0.09132781 0.032443717 -0.027663356 0.121302254
-0.030356465 -0.014710142 -0.07653907 0.006131783 0.040032282 -0.10970237 0.02875036 -0.23796454
-0.020084973 -0.13571881 -0.05339495 -0.08985331 0.15496641 -0.12435696 0.040899776 0.06374152
0.03892908 0.009187184 0.066360444 -0.013605012 0.06813013 -0.07518855 0.19461578 -0.13405877
0.0019798272 0.056758266 -0.073809594 0.06490337 0.031191703 -0.07933018 0.01495558 0.06449242
0.09289535 -0.10611792 0.08739802 -0.025526378 -0.07590045 0.09439024 0.01521892 0.07940912
0.13028595 0.20698902 0.04473798 0.004341988 0.0836862 -0.0061383406 -0.04765675 0.072986536
-0.009439305 0.16007313 0.04120225 0.057280835 0.07752643 -0.06644082 -0.0077331946 -0.12062621
-0.04167128 0.029224033 0.1207124 0.1963378 0.05790246 -0.007646878 -0.1890754 -0.08753679
-0.05372717 -0.11788743 0.086115375 0.015387295 0.03509629 -0.011629996 -0.03373171 -0.077471875
-0.01415837 -0.06957282 -0.1497868 -0.15557711 0.0035046553 0.005632402 0.05953262 -0.023253156
0.046580143 -0.02227364 0.04218122 0.026632862 -0.06299105 -0.11026091 -0.07933886 0.093464404
-0.15470691 -0.020800918 -0.008519285 -0.15864283 0.06980412 0.104428805 -0.025592478 0.024271049
0.016982121 0.021481687 0.023907818 0.028610967 0.15238175 -0.046554755 -0.027218059 0.030112471
-0.020531096 0.07854435 0.14694892 -0.01695706 -0.050669238 0.0043023536 -0.04227365 0.007563501
-0.071415745 -0.024872754 0.106429994 -0.0744572 -0.1642604 0.11476157 -0.009818414 0.006053613
-0.027302528 -0.031231595 0.020546041 -0.22289984 0.05256056 -0.05632732 0.05113173 0.061550636
0.06746714 0.017750144 0.020384286 0.044629376 0.00827254 0.09926764 -0.08619547 -0.0022621818
0.07753281 0.0366178 -0.037665796 0.04990976 -0.118244484 -0.031764843 0.00055133406 -0.021183567
-0.080315575 0.13212712 0.07400021 -0.0365848 0.0132958805 -0.093689464 0.015282079 0.016563136
-0.051487483 -0.30219257 -0.12804285 -0.13710019 0.03131969 -0.00062713615 0.13885558 0.055361856
-0.038043447 0.038477678 0.07743952 -0.03587503 -0.012501562 0.017766148 0.13921142 0.07274164
0.015243598 -0.033369914 0.012312594 -0.04969336 -0.04950741 -0.06436144 0.20081982 0.03375112
0.05893717 -0.16916779 0.014978874 0.05425973 0.21363875 0.027130762 -0.008188541 0.07409912
0.06743054 0.08201084 0.10577135 -0.009898528 -0.043116473 0.03485426 -0.072024204 0.13512792
0.00097627775 0.15408255 0.11120192 0.06654337 0.012667593 0.014189941 0.0094307335 0.08221352
-0.101933606 0.014333054 -0.15590747 -0.006849024 -0.00869262 0.12299315 0.026639473 0.037815556
-0.0141386865 0.19525623 0.094849624 -0.0013800372 -0.09671158 0.070786834 0.015959246 0.086897
-0.08461348 0.09585918 0.1534275 0.15283386 -0.038459804 -0.009944543 -0.11032999 -0.10120829
0.11690835 0.10734645 -0.087389566 0.0091067 -0.09184372 -0.0512462 -0.019430315 -0.016931482
0.100241505 -0.08730396 0.1013467 0.16330591 -0.06098159 -0.043286372 -0.014581457 0.03802114
-0.026498787 0.05649651 -0.04837035 -0.0732428 -0.10462651 0.09320397 0.074149735 -0.0037070455

network_body._body_endoder.seq_layers.0.bias f4 [128]
00000000: d56c 06bc c89a 6bbc e9e7 763b f277 df3c
00000010: a8d4 073d 7d37 023c 1d39 793c 02b8 fbbc
00000020: 9b43 453c f5d1 3dbc 66a2 1d3c fe77 343c
00000030: 3304 b23c 0be9 923c e802 d8bb 9dca 663b
00000040: 5dd3 eabb 3995 3b3c 7e7a 36bd 156b aabc
00000050: 0d78 18bc c28f 5bbc 05dc 033c 7132 463b
00000060: b0b2 9dbb 0f63 b73c 2dab 853c 9713 c0bc
00000070: 69e7 bcbb 496b a73c 9684 29bc 3d38 4abb
00000080: 99fd d5bc 9a24 74bc 8e50 4ebd fbce d3bb
00000090: a25f 5d3c 43b8 14bd 65ce 853c a317 933c
000000a0: 6f8d 453c 3c9c 843b c09a 4d3c 02f7 0ebd
000000b0: 789c acbc 237c c63b e8fa 2ebc 7da8 f8bc
000000c0: f358 973c 0fc6 f939 d014 563c d0e2 39bc
000000d0: 3730 88bc 256f 32ba 69ee a03c 5b54 c1bc
000000e0: e6c5 64bc cff5 65bb 61ea 263d c35d 11bc
000000f0: 836b 90bc 7811 893c 7981 adbb 4a68 d7bb
00000100: 6742 c93c e834 a83b ce31 7bbb 34f5 43bc
00000110: 6b8f a93b de61 9a3c 7102 46bc 560e 583a
00000120: 86a6 40bc 975b efbb 2244 a5bc f079 86bc
00000130: 89ce 5e3c 6d33 343c 4358 e33c c1d0 ac3b
00000140: 5b0a d2bb 27c7 0cbd 15a8 43bc 2c60 78bc
00000150: f73f d8bc e48c 293d 3c78 4f3d 1bb3 123a
00000160: 376b e3bb d5e5 513b 89d2 fe3c f993 003c
00000170: 5933 743c bf8d 3e3c cacc f33c 413c 333b
00000180: ddee 3bbc fb24 983c e68c 6bbc 7f0b 613c
00000190: 151f 92bc 20fd 95bb 7811 40bc da9e d339
000001a0: 11a9 f8bb 74de ea3c c275 14bd de0f 7fbc
000001b0: 6011 693c 9601 2abc 0f1d e4bc 2a03 b33b
000001c0: 61fa 16ba 6e0b be3c ce03 38bc da7c d43b
000001d0: 20a9 4fbb 313f 5c3b d6fd 063c c804 90bc
000001e0: 7b35 543c fefa 163c c8fa 093d 854f 253d
000001f0: 963b 2abc 6196 2f3c 1294 c73c a49e 9dbb
-0.0082046585 -0.014380164 0.003767485 0.027278874 0.03316179 0.0079478 0.015211371 -0.03072739
0.012040044 -0.011585702 0.009621238 0.0110149365 0.021730518 0.01793339 -0.0065921433 0.0035215982
-0.0071663097 0.011449152 -0.04455041 -0.020803014 -0.009305966 -0.013400974 0.008048062 0.0030242468
-0.004812561 0.022386102 0.016316975 -0.023446841 -0.005764891 0.0204369 -0.010346552 -0.0030856275
-0.026121901 -0.014901305 -0.05036979 -0.006463883 0.01351157 -0.03630854 0.016333768 0.017955607
0.012057646 0.004046945 0.012549102 -0.034903534 -0.021070704 0.0060572787 -0.010679938 -0.030353779
0.018475031 0.00047640546 0.0130664855 -0.01134558 -0.016624553 -0.0006806723 0.019644933 -0.023599794
-0.013963198 -0.003508914 0.040750865 -0.008872452 -0.01762939 0.016731963 -0.0052949754 -0.0065737115
0.024567796 0.00513326 -0.0038329246 -0.011960316 0.0051745675 0.018845495 -0.012085543 0.00082418823
-0.011758452 -0.0073046195 -0.02017409 -0.016415566 0.0135990465 0.010998589 0.027752047 0.005273909
-0.006409926 -0.034369614 -0.011941929 -0.015159648 -0.026397688 0.04139413 0.050651774 0.0005596147
-0.0069402712 0.003202786 0.03110625 0.007847779 0.01490482 0.011630475 0.029760737 0.0027349147
-0.011470524 0.018572321 -0.0143768545 0.013735651 -0.017837087 -0.004577294 -0.011722915 0.0004036341
-0.0075885137 0.028670527 -0.036245115 -0.015567748 0.014225334 -0.010376355 -0.027845887 0.0054630237
-0.0005759355 0.02319881 -0.011231376 0.00648461 -0.00316865 0.0033607 0.00823923 -0.017580405
0.012952204 0.009215115 0.03368643 0.04035904 -0.010390183 0.0107170055 0.024362598 -0.004810171

network_body._body_endoder.seq_layers.2.weight f4 [128, 128]
00000000: 5086 ba3d 0a2b 543c 0273 8ebd bbf9 cbbd
00000010: b14e c8bd 3316 1a3e 0972 003c 3e1d 54bd
00000020: a23c c7bc 6bfa 29bc 26b5 afbd 5e80 48ba
00000030: 0140 ce3c dddb 98bd 8848 5a3d 8252 23be
00000040: 2068 10be 85b8 95bd c92b 15bb 0d0b f73b
00000050: 5b76 ff3d bdc7 d8bd da77 113e e280 1cbc
00000060: 3a08 843d 877e 7e3c f8c7 163e 690c ab3c
00000070: 0443 0abe 51b1 0d3e d9e1 d73d 4a4a cebb
00000080: e6c3 023e 7847 ab3d 54a3 e63d 2be9 49bd
00000090: 4161 013c 40b6 fb3c 5b20 763c 7668 e33d
000000a0: aa7f 0d3c a6fc 063e 5030 d93d f162 b43d
000000b0: dd07 833d 438d 42be 5cf7 a4bd 9579 9cbd
000000c0: aa3e 4fbb b537 a5bd d69d 82bd 748c 00be
000000d0: 23ca 63be f4c7 28be 0cd0 243d 1422 da3c
000000e0: 7e67 103c c6fe bdbc b2b6 bdbd b66f 44bd
000000f0: f5c2 d03d 4aa3 653d feb7 10bd 2104 c83d
00000100: 38bb 4cbc d665 7b3c 0329 29bd b1bf bebd
00000110: fdd3 a5bd 8d27 b4bc 436c 5ebd a3e3 a8bd
00000120: 888a d13d 0cfd 413d 6a9a 8d3d 8762 0bbd
00000130: 6fad 4b3e 8590 97bc 9e16 243e 981f 41be
00000140: 3876 8c3d 827a 213e e37b 09be 6096 d1ba
00000150: 485b ecbc a24d d33d 1c8f 133e eaca 05bd
00000160: 536f bc3d 0bb6 1ebe 37ff 98bd a67c 52bd
00000170: 3622 8bbb 1dbb 733c 1253 2d3d 2a29 023d
00000180: 4ae3 f73d 46f1 1a3b 44ab 8cbe 65af 66bd
00000190: e730 173e 3b00 0a3e 23a7 a53d 58f6 9cbd
000001a0: c319 c53d f796 a13c b6ce 19bd 017c c13b
000001b0: 7f30 ab3d 1e41 d6bb db4a 80bd 4384 18bc
000001c0: 868a a8bd 0aa3 f4bd a038 0dbe 3506 1b3e
000001d0: 1c5e 8b3d 9908 263d 5d9b d43d 0b8f 1dbe
000001e0: 4787 043d 59b7 033e 00ff 1cbd cde5 823d
000001f0: 8936 723a 4b6c 5a3d 0bb6 283e 8c05 15bd
00000200: b75e dc3c b829 3ebe 5b36 9abc 67ca 23be
00000210: ab81 0f3e ba2b 07be 3698 f13c 8c9f d0bd
00000220: fb9b 033c f777 653b 30da 01be 1022 72bc
00000230: 6de0 5f3d 99ad 013e 9236 c33d 5e30 113d
00000240: 9a41 c6bc 3838 29be bfa8 0fbe d774 0f3e
00000250: 46f8 8a3d 2573 473d 479d 15bd bb86 49bb
00000260: bd54 eeb8 beb1 0e3e 55ca 57bd e242 a93d
00000270: f253 d3bb 869c 413b f7f1 9fbd 91a4 2dbe
00000280: 93c8 32bd 8b4e 8ebd d550 fb3c ad7d 3d3d
00000290: d8bc 18bd 0fe9 14be f73c 9cbd d522 f6bc
000002a0: fa38 b93d 190f 1fbe 1905 0abd ab78 2a3d
000002b0: 4675 0f3e c2ad 3a3d 24fc af3d 35ea 783d
000002c0: 9315 b23d 040c 4f3e bd63 113e a4e8 333d
000002d0: 0652 abbd 1446 893d 3e40 423d 1672 40be
000002e0: c74e aa3a f328 21bd 8f7a 423e d488 03be
000002f0: 731d 883c b852 463e 0cd0 063e c13b 033e
00000300: 288c 063e eced 133d f63d 59be 721e 1b3d
00000310: 45fb 44bd 9730 e6bd 8642 043e 9148 e7bc
00000320: ad3d e6bd dbe3 703b 4893 a23d 424b 46be
00000330: aaac 8f3b 673d 823d ad41 0c3e 3f6a b1bd
00000340: 7276 fc3c 4eb1 4ebd ae37 dbbc 8160 20bc
00000350: 806e 613e 0cb6 2a3e 86e6 2f3d 0512 6abd
00000360: 6aaf 0c3e 44ad 45bd 3638 603d 1907 5e3d
00000370: d211 e33c 87e0 87be 6a80 603d b503 1dbd
00000380: 8e7c 0c3e 3cd8 c53c 3c9a 8abd 54db 8abc
00000390: 0e78 5bbe f83b 313d b4c1 b43d 05f6 28be
000003a0: c668 c3bd dc8d a8bc ac47 e63d 0922 d2bd
000003b0: b810 cbbd b847 e43d 81f2 12be a8e4 593d
000003c0: 2eca e23d 7edf 70bb 71d2 133d 8a69 2f3c
000003d0: b205 0d3e 396a c13d 997a 623d 9e1a 7cbc
000003e0: 02dd 4c3d 7748 04bd 3cec 67bc fa25 c9bb
000003f0: a36a 3ebc aee7 863d 9115 15be 374c 1bbc
0.09107649 0.012949714 -0.0695553 -0.09959742 -0.09780634 0.15047531 0.007839688 -0.0517857
-0.024320904 -0.010374646 -0.08579473 -0.0007648523 0.025177004 -0.074638106 0.053291827 -0.15949443
-0.1410222 -0.07310585 -0.0022761694 0.007539159 0.124737464 -0.10584972 0.14205876 -0.009552212
0.064468816 0.015533096 0.1472472 0.020879941 -0.13502127 0.13837172 0.10541124 -0.006295477
0.12770042 0.08363241 0.11261621 -0.049294632 0.007896722 0.030726552 0.015022363 0.11103909
0.0086363945 0.13182315 0.10604918 0.08807934 0.06397984 -0.189992 -0.080549926 -0.076403774
-0.0031623044 -0.08067266 -0.06377761 -0.12553579 -0.22245078 -0.16482526 0.04023747 0.026627578
0.008813737 -0.023192775 -0.09263362 -0.0479581 0.10193435 0.056063928 -0.03533172 0.097664125
-0.012495808 0.015344104 -0.041298877 -0.09313906 -0.08097074 -0.021991516 -0.054302465 -0.08246543
0.10231501 0.047360465 0.06914218 -0.03402951 0.19890378 -0.01850153 0.16024253 -0.18859708
0.06858486 0.1576939 -0.13426165 -0.001599025 -0.02885212 0.10317542 0.1441006 -0.032664217
0.09200921 -0.15499131 -0.07470553 -0.051388405 -0.0042460216 0.014876154 0.04231555 0.03177754
0.12103899 0.0023642345 -0.27474415 -0.056319613 0.14764749 0.1347665 0.080885194 -0.07664174
0.09624054 0.019725306 -0.03755065 0.005904675 0.08358859 -0.0065385243 -0.062642775 -0.009308877
-0.08229546 -0.1194516 -0.13791132 0.15139087 0.06805059 0.040535543 0.10381196 -0.15386598
0.032355573 0.1286291 -0.038329124 0.06391487 0.0009239694 0.053325932 0.16475694 -0.036382243
0.026900632 -0.18570602 -0.018824747 -0.15995179 0.14014308 -0.13200274 0.029491525 -0.10186681
0.008032794 0.0035014132 -0.12680888 -0.014778629 0.05465739 0.12663879 0.09531893 0.035446517
-0.024201203 -0.16525352 -0.14029215 0.14009415 0.06785636 0.048693795 -0.036526944 -0.0030750472
-0.00011364508 0.13934991 -0.052683193 0.0826471 -0.006449216 0.0029542758 -0.07809823 -0.16957308
-0.043648314 -0.06948575 0.030678192 0.046262432 -0.03728947 -0.1454203 -0.076288156 -0.030045906
0.090440705 -0.15533103 -0.033696268 0.041618984 0.1400958 0.045575865 0.08593014 0.060770232
0.08695521 0.20219427 0.14198203 0.043923035 -0.08365254 0.067028195 0.047424547 -0.1879352
0.0012993448 -0.039345693 0.18992065 -0.12845165 0.016615605 0.19367492 0.13165301 0.12815763
0.13139403 0.03611557 -0.21215042 0.03787083 -0.04809119 -0.112397365 0.12916002 -0.028232845
-0.112422325 0.0036756906 0.07938248 -0.19364646 0.004384597 0.06359368 0.13696928 -0.08662843
0.030818198 -0.05046206 -0.026759949 -0.009788633 0.22014809 0.16671008 0.042944454 -0.05714609
0.1373879 -0.048260942 0.054741107 0.054205988 0.027718458 -0.26538488 0.054809965 -0.038333613
0.13719389 0.02415096 -0.06767699 -0.016950287 -0.21432516 0.04327008 0.088260084 -0.16500099
-0.09541468 -0.020575456 0.11244139 -0.10260398 -0.09915298 0.11146492 -0.1435032 0.05319658
0.11073719 -0.0036754305 0.036089364 0.010706315 0.13771704 0.094440885 0.0552927 -0.015387205
0.050015457 -0.03229567 -0.014155444 -0.0061385604 -0.011622104 0.06587158 -0.14559008 -0.00947862

network_body._body_endoder.seq_layers.2.bias f4 [128]
00000000: 7b0a 5e3c 1697 45bb 7d84 e3bc 1b2d eabb
00000010: 3f20 ccbc 60aa d7bc 66b7 adbc 326d 273c
00000020: 17d1 613c bd63 f23b 33bb fe3b 37cd 17bc
00000030: 1e7f f43b 344b a5bb 79f3 97bb 8e35 e8bb
00000040: ed0c c23c 3b93 4cbc 5f66 8d3b fd77 09bb
00000050: 8a40 10bc c125 3b3c c537 99ba 0e07 13bd
00000060: 3890 80bc 0a0b c03a dda9 00bb 6450 a8bb
00000070: 2fd2 2fbc 9eb1 14bd 5bac 15bc b9e4 5e3c
00000080: 9465 013d 1b8d 9f3c c21e 483c 9ce7 37bb
00000090: 2765 3abb ca06 c5bb 12de a0bc 5dc7 e23c
000000a0: 8997 a7bb 1b84 36bd 3702 2f3c 5a08 a2bc
000000b0: 2e4c 0b3d 5161 ea3b 5963 76bb 8990 5dbc
000000c0: 6184 dc3b 901c 8ebc 217d 323c 0811 49bc
000000d0: 5f60 803b 228c 8b3b 71bf f3bb cbf1 efbb
000000e0: 715f b93c ad91 d5bb 015b 86bc f08e d7bb
000000f0: 708e 42bc ab0b 7ebb 270e e83c fc4b 3dbc
00000100: 12c1 c4bb b153 ec3c 5919 6b3c ea3d 81bc
00000110: 394a 24bc 1f01 9c3c a94a 043c f66d fd3c
00000120: 10ff 1d3d ca36 77bb 6308 233d 0a4f 92bc
00000130: 57eb 6bbc 9e4a 9bbb a214 30bb c0db 38bc
00000140: 8891 aa3b 260a b0bb 7ce9 7f3b 13cb 043c
00000150: a668 1fbb 0e33 973c d8fd 0ebd e004 ccbb
00000160: d38f 0d3d d7db df3b cf63 153c b877 7b3c
00000170: a49e 8d3c 1f95 0f3d 6c90 5abc 76ba 54bc
00000180: 561a a0bc 80c1 303c 2b51 573c 755b 2fbc
00000190: 8e5a 8dbc aeb5 983a d82b 133c 9a10 5b3c
000001a0: f1db 76ba b69e d6ba cacd b73c d87e 103c
000001b0: 1e6a 923c c41d 0bba 183e 87bb a4ee 88bc
000001c0: 013c c9bc 7bcb 86bb 2ea3 093c 502b 013c
000001d0: c2f1 a6bc 0ac1 e1bb 9488 d33c edfc afbb
000001e0: 4e02 26bc b749 583b 3312 413c be60 f53b
000001f0: 21c2 22bc cd48 64bc acc4 2c3c 1f4e 9e3a
0.013552303 -0.0030149869 -0.027773136 -0.0071464903 -0.02491772 -0.026326358 -0.021205615 0.010218905
0.013782761 0.0073971436 0.0077737807 -0.009265236 0.0074614426 -0.0050443653 -0.0046371785 -0.0070864623
0.023687804 -0.012486274 0.004315182 -0.002097606 -0.00880445 0.011422575 -0.0011689594 -0.0358954
-0.015693769 0.0014651727 -0.0019632496 -0.0051365364 -0.010731264 -0.0363022 -0.009135331 0.013604336
0.031591013 0.019476464 0.0122143645 -0.0028061634 -0.002844164 -0.006012772 -0.019637141 0.027682954
-0.0051145 -0.04455958 0.01068168 -0.019779373 0.034008197 0.0071527143 -0.0037595837 -0.013523229
0.006729648 -0.017347604 0.010894091 -0.012272127 0.0039177383 0.0042586485 -0.007438593 -0.007322525
0.022628518 -0.00651761 -0.016400816 -0.006578319 -0.01187478 -0.003876428 0.02832706 -0.011553761
-0.006004461 0.0288485 0.014349305 -0.015776593 -0.010027462 0.019043503 0.008074441 0.030936223
0.038573325 -0.0037721866 0.03980292 -0.017859954 -0.014399371 -0.0047391197 -0.0026867767 -0.011282861
0.005205337 -0.0053723035 0.003904908 0.008105057 -0.002432385 0.018456962 -0.034910053 -0.006226167
0.03456099 0.006831627 0.0091180345 0.015348367 0.01728756 0.035054322 -0.013340097 -0.012983909
-0.019543808 0.0107883215 0.013141911 -0.010702957 -0.017255094 0.0011650824 0.008982621 0.013370657
-0.0009416929 -0.0016374204 0.022436995 0.008819304 0.017872866 -0.00053068646 -0.004127275 -0.016715355
-0.024564745 -0.004113612 0.0084007215 0.007883862 -0.020378951 -0.006889467 0.025821961 -0.0053707273
-0.010132385 0.0033002922 0.011784124 0.007488339 -0.009933979 -0.013933373 0.010544937 0.0012077725

action_model._discrete_distribution.branches.0.weight f4 [2, 128]
00000000: 0cc1 3bbc 92f1 8dbb e93c 753c 2357 de3b
00000010: 69da ebba 38e8 783c 3cde 1c3d 3b51 c4bc
00000020: aaef 22bd 6ae5 603c 9dd4 683c fedf 62bc
00000030: b272 5abc c957 9a3c a28b 4bbc 9788 543d
00000040: 64d5 4bbc 0f32 563c 7714 9fbb 12da ed3b
00000050: 89eb 10bd 5c25 7ebc 3737 4cbc e9e4 1f3b
00000060: d96d 09bc 73be 853c 7384 bd3b c8cd 5fbc
00000070: 8174 13bc cc64 c2bb 9712 98bc 2e36 84bb
00000080: 87d0 a5bc 2e18 8dbc 9fff 20bd 506e c73c
00000090: a809 1c3c 26ae 72bb d150 f03b 8ba8 02bd
000000a0: 68fc 923a 3cc7 743b 30f1 553b 893b 66ba
000000b0: c75a 94bc 7a5c dd3c 5307 b5bc 061a 9f3b
000000c0: 27c3 8cbc 1d88 0d39 609b b43c 2390 ef3a
000000d0: 2d83 0d3c 78c6 e73c 8420 e3bb 9113 e33c
000000e0: 1d5c 143d 7747 bf3c 603c 633c d075 e9bc
000000f0: 01aa 543c fec8 773c ba89 05bd d076 e63c
00000100: 426f 74bc cf9f b8b9 1e5b 0e3c 86f1 283c
00000110: 3068 aabb 524f feb7 948e adbc 0ae8 33bd
00000120: 20c2 99bc 5075 163c c33a f0bc 0c0a 4c3c
00000130: 1e17 0d3d 9a0a bf3c 237f 22bc f9f6 4a3c
00000140: 2a00 913c f55c 1f3c f281 2d3c 045d 5639
00000150: 6a82 c8bc 3055 de3c f428 a63c 311a b5bb
00000160: dd9a 8fbd 23ce e9bc e287 953b 663b 60bd
00000170: 264f 03bd 7c0e f7bc fca9 a2bc 55b1 1a3d
00000180: d1c4 f93c ae5b 773b 00a2 a8bc c852 273d
00000190: c02a 053d c872 b8bb cebe 023d 0588 b43c
000001a0: fb47 703b e414 15bd 41f5 863c d7f3 b7bc
000001b0: 6858 17bd 7dba 86bc f3b7 f1ba 7b29 8e3c
000001c0: 516a f93c 46c5 263d a1aa f6bb 1e9c b6bb
000001d0: b3aa d8bc 1f81 44bc f8d1 8ebd f83d 0abc
000001e0: 5e2f 0d3c b073 cbba f3c3 b9bb cb20 40bc
000001f0: bbb4 023d ee83 973c 6d3a 7bbc 9d56 2d3c
00000200: a0a5 8e3c f0c7 623c acd0 233c c659 6a3c
00000210: 6431 963b a6bc 82bb a4ae 05bd 8389 393c
00000220: 5a81 6b3d 11f6 09bd 76d5 56bc 166e 6f3c
00000230: 7a03 b13b 447a aabc 54c7 3b3c f37b 78bd
00000240: 9dff b93c c0b8 7a3a beb1 c83b b3f8 adbc
00000250: c44f 3e3c 689a ab3c 89bc bf3c c6b0 96bc
00000260: ec34 d6bb a614 86bc 815e 26bc 5579 95ba
00000270: 426e 973b 2aba 313c 0daf de3b 60da 85b8
00000280: cf92 623b 4770 c23b 001d 153d 7f53 8dbc
00000290: 88d3 7dbb a66d 833b 2949 a5bc 2832 7f3c
000002a0: 06e9 96bc 233a bebc 238e 033b 7dc5 a93b
000002b0: 5715 db3c fcdf a8bb 6652 f23c 180c 7dbc
000002c0: ac0a b13c b754 3e3c 53f9 93bc 3e58 703c
000002d0: 212d 30bc ae90 babc 2879 0e3a 133b 2dbc
000002e0: 0558 29bc 5bbd 9ebc 8894 e6ba cbbb 993c
000002f0: 98ae 2f3c 41c8 74bb 743f 193d c6c0 c0bc
00000300: 59a0 8d3c 4e7c ffb8 1b55 1bbc 1884 a6bb
00000310: 4ff0 283c c6d6 52bc dd45 0d3c 74d6 703d
00000320: c11a 8d3c fb5f 87bc e786 323d 149b adbb
00000330: 1937 74bc 14ae 413b 6efb ddbc cf30 29bc
00000340: 1222 32bc 7655 e7bc e252 99bc 3fc1 833b
00000350: 82f8 bc3c 72cb 01bb 66da bfbb 6a91 c63a
00000360: 03d6 8a3d ce1e df3c ff25 153b e68a 203d
00000370: b594 fc3c bab7 b23c fb69 4e3c a457 3cbd
00000380: 2b63 c8bc 8c74 613c b0d0 c73c db6e 33bd
00000390: 1728 b0bc 50a8 9cbb bbbf bdbc 59d7 29bc
000003a0: 54f7 773c 4fe4 b63c 9bd3 cfbc cdf7 993c
000003b0: 65dc bb3c f5df 233d f856 ab3b abc1 3d3c
000003c0: 476c abbc d1fe 17bd f4a8 33bb 20a7 0a3c
000003d0: 344a 693c 726d 473c 05ce 613d 968e b33c
000003e0: 111c b63b ce9f 47bc be7f 84ba d9e7 333b
000003f0: 268e 13bd f315 dfbb 5586 f5bb 0c98 733c
-0.0114596 -0.004331776 0.014968135 0.00678529 -0.0017994168 0.015192084 0.038297877 -0.023964515
-0.039779343 0.013726572 0.014210847 -0.013847349 -0.01333301 0.018840687 -0.012423428 0.051888075
-0.012441013 0.013073458 -0.0048547345 0.007258662 -0.035380874 -0.015511837 -0.012464336 0.0024397916
-0.008388006 0.016326165 0.0057836114 -0.013659902 -0.008999945 -0.005932426 -0.018563552 -0.004034779
-0.020241035 -0.017223444 -0.03930628 0.024344593 0.009523787 -0.003703007 0.007333853 -0.031899016
0.0011214139 0.0037350198 0.003264498 -0.0008782675 -0.018109692 0.027021635 -0.022098219 0.004855397
-0.0171829 0.00013497514 0.022046745 0.0018277209 0.008637232 0.02829288 -0.0069313664 0.02771929
0.03622066 0.023349507 0.013869375 -0.02849856 0.012979985 0.015123604 -0.03260205 0.028132826
-0.014919104 -0.00035214282 0.008688716 0.01031149 -0.0052004084 -3.0316096e-05 -0.02118615 -0.04392246
-0.018769324 0.009183243 -0.029324895 0.012453567 0.034445874 0.023320485 -0.009918007 0.012387984
0.017700274 0.0097267525 0.010590063 0.00020443281 -0.024476249 0.02714023 0.0202832 -0.005526804
-0.0701196 -0.028540676 0.0045633176 -0.054744147 -0.032057904 -0.030158274 -0.019856445 0.037766773
0.030489357 0.0037743854 -0.02058506 0.04085043 0.032511473 -0.0056289174 0.031920247 0.022037515
0.0036663997 -0.036396876 0.016474368 -0.02245514 -0.036949545 -0.016446346 -0.0018441662 0.017353764
0.030446203 0.04071548 -0.007527665 -0.00557281 -0.026448583 -0.0119936755 -0.06973642 -0.008437626
0.00861725 -0.0015522148 -0.005669111 -0.011726568 0.03191064 0.018495526 -0.015333754 0.010579732
0.01741296 0.013841614 0.009998482 0.01430363 0.0045835245 -0.003989774 -0.032637253 0.011324289
0.057496406 -0.033681933 -0.0131124165 0.014613649 0.0054020258 -0.020810254 0.011461098 -0.060665082
0.022704894 0.0009564273 0.006124704 -0.021236753 0.011615697 0.02094765 0.02340533 -0.018394839
-0.0065370705 -0.016367268 -0.010154367 -0.0011403958 0.004621298 0.010847608 0.00679577 -6.38261e-05
0.0034572368 0.0059337947 0.03640461 -0.017251728 -0.0038730819 0.004010874 -0.020176487 0.015575923
-0.018421661 -0.023221081 0.0020073734 0.005181013 0.026743574 -0.005153654 0.029580306 -0.015444778
0.021611534 0.011616877 -0.018063223 0.014669476 -0.010752947 -0.022774067 0.0005434924 -0.010573166
-0.010335927 -0.019377401 -0.0017591873 0.018766304 0.010722779 -0.0037350806 0.03741403 -0.023529422
0.017288374 -0.00012182501 -0.00948074 -0.005081665 0.0103112 -0.012868589 0.008622614 0.05879827
0.017224671 -0.01652526 0.043585684 -0.005298028 -0.014905714 0.0029553222 -0.02709743 -0.010326578
-0.010872381 -0.028238993 -0.01871628 0.0040208395 0.023067717 -0.00198051 -0.0058548925 0.0015149538
0.06779101 0.027236369 0.0022758243 0.039194964 0.030832628 0.021816123 0.01259851 -0.045982018
-0.02446135 0.013760697 0.024391502 -0.043806892 -0.021503491 -0.0047808066 -0.023162713 -0.010366284
0.015134651 0.022325663 -0.025369456 0.018794918 0.02293224 0.040008504 0.0052288733 0.011581819
-0.020925654 -0.037108246 -0.0027413936 0.008462697 0.014238883 0.01217209 0.055128116 0.021918576
0.005557545 -0.0121840965 -0.0010108871 0.0027451424 -0.036024235 -0.0068080365 -0.0074928203 0.014867794

action_model._discrete_distribution.branches.0.bias f4 [2]
00000000: 14d8 7bbc 2bd8 7b3c
-0.015371341 0.015371363

action_model._discrete_distribution.branches.1.weight f4 [3, 128]
00000000: 1f98 92bc a1c2 27bc 1a0d 323c 9dad fd3b
00000010: a3bd af3c 80ee 2cbb e087 143d 0cb7 06bd
00000020: 7dc3 373a 0b27 333c ee7a e7bc 69bf 153d
00000030: a54d c8ba c8c0 173d 6555 8dbc d674 ab3c
00000040: ac63 dbbc 6ae9 a1bb ede2 dcbb 92c7 d83a
00000050: b04c 1e3c 7c9d a93c 24b1 0d3c 3cad 2d3b
00000060: 3b0d 433d c935 b7bc f6e8 c63c ea82 fe3c
00000070: 00e6 5d3c 970e 273d 9252 ad3b 33fb d5bc
00000080: 9c95 a5bc ac18 fb3c 78ad 2dbc e5a7 c3bc
00000090: 0bc3 d9bc b404 23bb 93eb 83bc 6bd5 3fbd
000000a0: 28c8 25bc 1273 813c e44e 853c 018c c03c
000000b0: e526 29bc eace ccbc 5c03 1bba 83d7 623d
000000c0: cc84 cabb e46c 253c 56dc 85bb 74fa c63c
000000d0: d35a f93c bd4e e9bc 5019 c93c 037c 8f3d
000000e0: e043 113c 13aa 56bc ebb7 253d ba4f fe3b
000000f0: cc9d 053d 18a0 2fbb a51e 30bc fde5 2bbc
00000100: cbbe 363d 1859 4cbd 6ed0 533c 67b6 84bc
00000110: 773f 023c ba08 0bbd 1735 7139 3cf6 683c
00000120: 5bf0 20bd 1a25 0dbc 6f66 3abd 813f f53c
00000130: 249f dd3c 8d2c a1bb 601b 46bc a551 77bc
00000140: ef69 f13c d15a acba 9eac 84bc e9fe 67bc
00000150: f3b0 b53c 2770 1bbd 1ee3 923c a6e5 923b
00000160: 73dd 7ebc 5996 8dbc 59b6 a73a b0a5 103d
00000170: e91d f3bc 2013 febc 8cf2 e3bb 88d7 a33c
00000180: 9186 5a3d 153a 013d 99bc 2bbc 193f 2b3d
00000190: aaa3 acbc 7640 693a 2da6 603c 146d 2bbd
000001a0: 355c 8fbb fb5c 1ebc b038 9abc 42d8 8a3c
000001b0: f843 afba a894 2e3d b48b 523d f972 d53c
000001c0: 0a55 9ebb c2c8 e2bc 6f17 eebc cd23 4f3c
000001d0: 545f d03c 6d09 593c 3879 c23c 723c e73b
000001e0: 622a c7bc 0030 e63c 89f2 31bd 5d60 9c3c
000001f0: 5073 633d 0e94 523d 1e90 14bd f353 0f3d
00000200: e98b 8e3d 43a3 a1bc 5743 f73c 72c6 08bc
00000210: 7b17 49bc dae1 973c c05d 88bc e63d 033d
00000220: 3635 413d 575c 72bd 4e78 883c 3a8b 0b3c
00000230: 79fb b73c c15d d33c 3c83 bb3c b6a5 b53c
00000240: 7db4 88bc c8c4 d03b 0c72 ae3c e88f 613c
00000250: 8a50 913c 5415 293b 70c3 113d e229 aebc
00000260: e88b 9abc f643 b13c 7c82 16bd dd34 89bc
00000270: 658a 62bc 9861 1ebb e64d a0bc b342 d13c
00000280: 87bd e2bc 178b f83c e6ab 6d3c 6fc4 003d
00000290: 7f46 3a3d 00fe dc3a cbac 1b3c 74a2 2b3c
000002a0: b601 36bb 3141 c9bb 277b 51bd 4839 1cbd
000002b0: 631a 25bd 4112 f0bb 8218 323c c02b 09bd
000002c0: 0a74 1b3c 3a31 113d 0f38 4dbd 4d8b afbc
000002d0: 2935 1ebd a785 5d3b db24 e6bc 0ec8 5bbc
000002e0: a584 80bd 60cb 053d 8f50 18bc 1cd8 00bc
000002f0: 6370 02bd ec17 693c 1493 1fbd 804b 1a3d
00000300: 2793 44bc 297f 98bb 80d6 efbc 9838 d5bb
00000310: 0920 43ba 4744 6b3d c9dd 55bc a521 34bd
00000320: 89e9 913a c76f c2bc f5c3 51ba d117 21bd
00000330: 3f15 2abd ae2b 19bd 61b0 b3bc e225 323c
00000340: c47f 47bd 2443 f6bc f39f 243b d490 9fbc
00000350: 2643 143c a711 5a3d 0e66 db3a b30e 963c
00000360: f3f8 263d 3996 083d 8ec3 e8bc f064 133c
00000370: f3e6 023d 8614 54bc 0713 993b ffc0 f53b
00000380: fd10 15bd 531c a2bd 4c28 17ba f9ec f5bc
00000390: fef0 fa3b 1d8f c6bc f9e2 75bc f3aa aa3c
000003a0: 16b8 74bc 7f9c 5e3c e335 2dbd 8d0e 2abd
000003b0: 9b4f 1cbd a6ab 3d3c f207 04bd 0706 bcbc
000003c0: 635e 123b 45eb 8cbc f148 323d 0014 14bd
000003d0: 1e0b 053c 97a6 c0bb 2c1f c3bb 606f a93c
000003e0: 2314 b63c 8021 25bd 3d7c 5b3b 57d2 0e3d
000003f0: 753f 35bd 41f3 f23a 5536 cc3c 063c 37bd
-0.017894803 -0.010239274 0.0108673815 0.0077416436 0.02145273 -0.0026387274 0.036262393 -0.03288941
0.0007010026 0.010934602 -0.02825686 0.036559496 -0.0015281929 0.037049085 -0.017252633 0.020929735
-0.026780926 -0.004941155 -0.006740919 0.0016538969 0.009661838 0.020704977 0.008648191 0.002650096
0.04762004 -0.022364514 0.024281006 0.031068284 0.013543606 0.0407854 0.005289384 -0.026120758
-0.02021294 0.030651413 -0.01060044 -0.02388377 -0.026582262 -0.002487463 -0.016103541 -0.04683439
-0.010118522 0.01580194 0.01627297 0.023504259 -0.010324215 -0.025001008 -0.00059132813 0.05538131
-0.0061803814 0.010096762 -0.004085104 0.024289347 0.030438816 -0.028479928 0.024548203 0.07006075
0.00886628 -0.013102072 0.0404586 0.007760969 0.03262119 -0.0026798304 -0.010749494 -0.010491845
0.044615548 -0.049889654 0.0129281115 -0.016200257 0.0079497015 -0.03394387 0.00023003329 0.014218863
-0.03929172 -0.008614803 -0.045507845 0.029937508 0.027053423 -0.004918641 -0.012091488 -0.015095149
0.029469458 -0.0013149624 -0.016195592 -0.014159896 0.022179103 -0.037948754 0.017930564 0.0044829426
-0.015555727 -0.017283605 0.0012795433 0.035314262 -0.029677348 -0.031014979 -0.006956404 0.020000234
0.05335099 0.031549532 -0.010481977 0.04180822 -0.021074135 0.000889785 0.013711494 -0.041852072
-0.0043750056 -0.009665723 -0.018825859 0.016948823 -0.0013371697 0.04262224 0.051402763 0.0260558
-0.004831915 -0.02768362 -0.029063908 0.012642813 0.025436081 0.013246876 0.023739442 0.007056766
-0.024312202 0.02809906 -0.04344419 0.019088918 0.055529892 0.051410727 -0.036270253 0.03499217
0.069602795 -0.01973117 0.030183477 -0.008348094 -0.012273665 0.018540312 -0.016646266 0.032041453
0.047169887 -0.059170093 0.016658928 0.008517081 0.022458779 0.025801541 0.022889726 0.022173744
-0.016687626 0.0063711144 0.021294616 0.01376722 0.0177386 0.0025800066 0.035586774 -0.021260206
-0.01886554 0.021638852 -0.036745533 -0.01674884 -0.013826941 -0.0024167057 -0.019568395 0.0255445
-0.027678264 0.03033976 0.014506316 0.031437334 0.045477387 0.0016860366 0.009501646 0.010475744
-0.0027772016 -0.0061418046 -0.051142838 -0.038140565 -0.040308367 -0.007326395 0.010870101 -0.03348899
0.009488115 0.035447337 -0.05010229 -0.021428728 -0.038624916 0.0033801587 -0.028093746 -0.013414396
-0.062753 0.032664657 -0.00929655 -0.0078640245 -0.03184546 0.014226895 -0.038958624 0.03766966
-0.0119979745 -0.0046538305 -0.029277086 -0.0065069906 -0.0007443433 0.05743816 -0.013053366 -0.0439774
0.0011132221 -0.02373494 -0.0008001917 -0.039329354 -0.041524168 -0.03739517 -0.02193469 0.01087329
-0.04870583 -0.030061312 0.0025119751 -0.01947824 0.009049213 0.05323949 0.0016738789 0.018317556
0.04076476 0.03334639 -0.02841356 0.008996233 0.03195853 -0.012944346 0.0046714577 0.0074998136
-0.036393154 -0.07915559 -0.00057661976 -0.030020224 0.007658123 -0.024238164 -0.015007728 0.020833468
-0.014936468 0.013587116 -0.04228772 -0.041517783 -0.038161855 0.011576569 -0.03223414 -0.022952093
0.002233409 -0.017202029 0.043526594 -0.036151886 0.008120326 -0.005879234 -0.0059546437 0.02068299
0.022226399 -0.04031515 0.00334908 0.034868564 -0.04424997 0.001853563 0.024928251 -0.044734977

action_model._discrete_distribution.branches.1.bias f4 [3]
00000000: 9796 73bc 59e6 2abb 942c 8c3c
-0.014867446 -0.002607724 0.0171111

action_model._discrete_distribution.branches.2.weight f4 [1, 128]
00000000: 0303 4ebb dbf1 babb c66e b73b 42d9 8bbb
00000010: 67df f83b 509d 1abc 623a 5bbc e0fe 4d3c
00000020: 1da8 ddba 1ed7 b2bb 6648 8a3a a831 4ebc
00000030: ae1b 163c f0f3 8a3a 6220 39bc 6c9e afbc
00000040: 1793 f7bb c847 d5b9 6385 f63b 9468 213a
00000050: 526c d83b 0465 ac39 5f61 203b 03d8 c03b
00000060: 7c36 993c bb42 173b dd76 843c cbec 38bb
00000070: 0b03 033c 71f7 913a 8f47 5a3a f63e 433c
00000080: 8738 9d38 554a 003c 1196 39bc 711e 26bc
00000090: 9514 d9bb a3b8 523b 53df 663c ea8d ebbb
000000a0: e19b a2bc 4d4f db39 a77b dfb8 dff1 363c
000000b0: 435e b7bb 68e7 01bb 0b70 86bb 03c3 1fbc
000000c0: 14f6 1fbc d6d8 083c 8198 a23b ebc2 0e3c
000000d0: 0a90 dc3b e106 a1ba 4675 473b 00ec 85bc
000000e0: 41cc 0bbc e26d 47bb 3f3c c23b 6e32 0abc
000000f0: 42ab 103c 0323 69bc eed7 0dbb 8b3d a937
00000100: 4bb3 86bc b7ec 12bb dcbc 8a3b 9f99 c7bb
00000110: bb88 b2ba 5efe 053c 7512 2abb 34be 833a
00000120: d56a febb f732 23ba e117 ae3b 2ba1 323c
00000130: 9b93 e3bb 774f e0bb 3352 fe3b 6e04 36bc
00000140: 82ec ae3b d33a cfba 95f4 b4bc 581d 743b
00000150: f3a3 a1bc cda4 07ba 3288 19bc 779d f9bb
00000160: f36a dcbb 81ad 49bc 0901 0a3b 5f4e a0bb
00000170: 9778 d4ba 2953 243b 9c76 273b a365 1dbc
00000180: 775f 22bc d701 b5bb 000e 5b3a d3a1 12bc
00000190: 537d 99ba 1f04 4d3c 390b 073b c347 503c
000001a0: c081 e73b 76a8 1a3b 3ece beba ad27 e1bb
000001b0: 3707 10bc 0c85 b03b 5b42 18bb 3141 49bb
000001c0: 8440 283c e63a 4c3c e3f8 dd3c 8bc4 81bc
000001d0: 5786 4abc 0b02 0e3c ddc7 a13b b7a7 20bb
000001e0: 5f5b 47bc 15e5 13bb feee 323a eb54 aeb6
000001f0: fe95 3e3c 63f2 55bb 25d8 723c 5c6e 09bc
-0.00314349 -0.005705101 0.005597922 -0.0042678425 0.007594991 -0.00943692 -0.013380619 0.012572974
-0.0016911064 -0.005457773 0.0010550141 -0.012585081 0.009161873 0.0010601263 -0.011299225 -0.021437846
-0.0075553763 -0.00040680007 0.007523225 0.0006157246 0.0066047097 0.0003288166 0.00244721 0.0058851256
0.018702738 0.0023080546 0.01616996 -0.0028217311 0.007996331 0.0011136365 0.0008326703 0.0119168665
7.4968724e-05 0.007830222 -0.0113272825 -0.010139094 -0.006624768 0.003215351 0.014091331 -0.0071885483
-0.01984972 0.0004183002 -0.00010656501 0.011166065 -0.0055959537 -0.0019821767 -0.004102712 -0.009751084
-0.009763259 0.008352479 0.0049620275 0.008713464 0.006731038 -0.0012285375 0.003043489 -0.016347885
-0.008532585 -0.0030430485 0.005927592 -0.008434875 0.008829894 -0.014229539 -0.0021643597 2.0175028e-05
-0.016442915 -0.0022418925 0.0042339396 -0.006091311 -0.0013621071 0.008178322 -0.0025950943 0.0010051192
-0.0077642 -0.0006225551 0.005312905 0.010902683 -0.006945086 -0.0068454104 0.0077612638 -0.011109455
0.0053382525 -0.0015810378 -0.022089282 0.0037248936 -0.019731497 -0.00051743985 -0.00937085 -0.007617648
-0.0067266165 -0.012309433 0.0021057746 -0.004892155 -0.0016210255 0.0025073981 0.0025552874 -0.009606752
-0.009910456 -0.005523901 0.0008356273 -0.008949715 -0.0011710323 0.01251319 0.0020606054 0.012712422
0.007065028 0.0023598946 -0.0014557315 -0.006871185 -0.008790783 0.005386954 -0.002323291 -0.0030709023
0.010269288 0.012465214 0.027096217 -0.01584079 -0.012361131 0.008667479 0.0049371556 -0.0024514028
-0.012167781 -0.0022566963 0.0006825774 -5.19549e-06 0.011632441 -0.0032645694 0.014822041 -0.008388128

onnx::Div_94 f4 [150]
00000000: fb62 873e 3c94 e83e 2c5a ba3e 8435 aa3d
00000010: 3945 843d da63 883d 086e 3d3d 01e2 563d
00000020: 5d43 933d 31d6 343e 3a10 8b3e 3ff4 ea3e
00000030: 37cf bb3e 185b a93d ceab 863d 7c51 873d
00000040: 54d9 4a3d bba0 5e3d 79a3 943d c23c 383e
00000050: 796d 823e 7592 e73e 0894 ba3e f2ee 9f3d
00000060: 51e0 893d 7af7 923d af92 343d 9087 483d
00000070: f81b 9a3d 416a 363e 0fa8 893e 7e96 eb3e
00000080: 0f3f be3e 7953 a83d 591a 873d 331b 6d3d
00000090: e74f 5d3d 8253 643d d803 9a3d ef7d 3a3e
000000a0: 1b24 813e bc90 e73e bf22 ba3e a747 9d3d
000000b0: 5316 8a3d 52a8 933d b868 4f3d 7c97 453d
000000c0: ba52 ac3d 6976 3a3e 75f3 883e 1160 eb3e
000000d0: be23 be3e a97a 9f3d 07a4 873d ffda 653d
000000e0: cc84 5c3d bb68 4f3d 7bc4 9a3d e07a 3f3e
000000f0: d79d 773e 18af e63e 01c5 bb3e 00c2 a43d
00000100: 2c7f 883d facc 8c3d ae30 5b3d 09f2 473d
00000110: 2e45 a93d 9bc0 3d3e d3e2 873e 361c ec3e
00000120: 5682 bf3e 46ba 8d3d cb0c 843d c99d 743d
00000130: ed20 6b3d 8720 4f3d 4501 b53d 5106 433e
00000140: 5c45 703e fa8b e73e 8e83 be3e c01b a13d
00000150: c9ac 913d b6d2 8a3d 790a 533d 8645 4a3d
00000160: e9b8 a73d 76f6 433e d1b3 843e 8304 ea3e
00000170: 98b6 be3e d912 923d 47ba 8d3d 0e7f 823d
00000180: fde1 563d c82e 463d 5960 a73d 4683 453e
00000190: 7fae 683e e9c0 e83e a251 c13e 293a ab3d
000001a0: 79f7 923d 1d21 863d 5a21 683d 01fd 5b3d
000001b0: 6929 ae3d 699e 473e d96d 813e dc00 ea3e
000001c0: 1bd0 c03e 5dbb 993d c53d 893d 6073 8b3d
000001d0: 33b2 543d 8520 4f3d 14e1 983d 6f82 463e
000001e0: 6069 6c3e bb5f ea3e 52f0 c33e a8fd ae3d
000001f0: afda 933d 15de 8b3d ec5c 663d 0767 493d
00000200: 6598 b63d f4cc 473e 3f77 813e 42ad e73e
00000210: bc69 ba3e 29d5 9d3d 56fb 893d 5808 8b3d
00000220: bede 533d 71b2 573d 260d bb3d 0a73 4d3e
00000230: fc90 7a3e dbab e83e f908 bc3e 86e9 ad3d
00000240: 81ee 943d ae85 8d3d e24f 5d3d 4f47 4e3d
00000250: d017 b83d 285b 4a3e
0.26442704 0.45425594 0.3639692 0.083109885 0.06458516 0.0665967 0.046247512 0.052461628
0.07190583 0.17659833 0.27160817 0.4588947 0.3668153 0.08269328 0.06575738 0.06607339
0.049523667 0.054352503 0.072577424 0.17991927 0.25474146 0.45228925 0.36441064 0.07809247
0.06732238 0.07176109 0.0440852 0.048957407 0.07524866 0.1781397 0.2688603 0.46013254
0.37157485 0.08219046 0.06596822 0.057887267 0.05403128 0.0557437 0.075202644 0.18212102
0.2522286 0.4522761 0.36354634 0.07679682 0.06742539 0.07209839 0.050636977 0.04824017
0.08414216 0.18209232 0.26748243 0.4597173 0.37136644 0.077870674 0.066230826 0.056117054
0.053837582 0.050636988 0.07557007 0.18699217 0.24181305 0.4505546 0.3667374 0.08044815
0.06664881 0.06875034 0.05351322 0.048814807 0.08265148 0.18530504 0.2654024 0.46115273
0.37404126 0.069202945 0.064477526 0.05972079 0.057404447 0.05056813 0.08838133 0.19045378
0.23463959 0.4522398 0.37209743 0.07866621 0.07113034 0.06778471 0.05152366 0.04938271
0.08189566 0.19136986 0.2591844 0.45706567 0.37248683 0.07132501 0.06920295 0.0637189
0.052461613 0.048384458 0.08172674 0.19288358 0.22722815 0.4545968 0.37757593 0.083607025
0.07176108 0.065492846 0.05667243 0.05370808 0.08503992 0.19494022 0.2527912 0.4570378
0.37658772 0.0750644 0.06701235 0.068091154 0.051927757 0.050568122 0.07464805 0.19385694
0.23087072 0.45776162 0.38269287 0.08544475 0.07219445 0.06829468 0.05624096 0.04917052
0.08915786 0.19511777 0.2528629 0.45249373 0.36408794 0.07706673 0.06737392 0.06788701
0.051726095 0.05266041 0.09133367 0.20063415 0.2446937 0.45443615 0.36725596 0.08491807
0.072720535 0.06910263 0.05403126 0.050360974 0.08988917 0.19761336

onnx::Div_97 f4 [6]
00000000: 5a51 8741 a78b c341 17ce 8541 78a6 b941
00000010: 7f5f 8441 c22a af41
16.914722 24.44319 16.72563 23.206284 16.546629 21.895878
