Assets/ZooheimTest/Models/0609_SimpleModel/GiraffeFBehavior.onnx (onnx, 314417 bytes, 14 tensors)

discrete_act_size_vector f4 [1, 3]
0	0x40000000	2.0
1	0x40400000	3.0
2	0x3f800000	1.0

network_body.observation_encoder.processors.0.normalizer.running_mean f4 [450]
0	0x3d90b66a	0.07066043
1	0x3f26d868	0.6517396
2	0x3d9e4189	0.077273436
3	0x3b9142e7	0.004433024
4	0x3b31fc29	0.0027158356
5	0x3ac4579d	0.0014979724
6	0x3a87af04	0.0010351841
7	0x3ad11cca	0.0015954014
8	0x3cdc2fcb	0.026878258
9	0x3e805e8f	0.25072142
10	0x3d8b4677	0.068005495
11	0x3f23f2f0	0.6404257
12	0x3d97def5	0.074155726
13	0x3b7b69f1	0.0038362707
14	0x3b51e91d	0.0032029815
15	0x3aeaa725	0.0017902596
16	0x3abc5c61	0.0014370793
17	0x3a690e82	0.00088904065
18	0x3d007356	0.031359993
19	0x3e7f452d	0.24928732
20	0x3d8ad38c	0.067786306
21	0x3f2706b5	0.6524461
22	0x3d93ae3f	0.07210969
23	0x3bb52d77	0.0055291015
24	0x3b2f9731	0.0026792998
25	0x3afdceec	0.0019364036
26	0x3ac2bef9	0.001485794
27	0x3abac3b7	0.0014249001
28	0x3cec72de	0.028863367
29	0x3e7ede0e	0.24889395
30	0x3d8ef119	0.069795795
31	0x3f255221	0.64578444
32	0x3d9f7a6c	0.07787022
33	0x3b76a001	0.003763199
34	0x3b690e7f	0.003556162
35	0x3afa9d9e	0.001912046
36	0x3acdeb7c	0.0015710439
37	0x3ae2abe9	0.0017293665
38	0x3cfb03c5	0.030641446
39	0x3e82b0fc	0.25525653
40	0x3d824570	0.063609004
41	0x3f2c8c38	0.67401457
42	0x3d95b373	0.07309618
43	0x3bc5f040	0.006040603
44	0x3b154086	0.0022774055
45	0x3b193e23	0.0023382984
46	0x3af904f7	0.0018998672
47	0x3ae4448b	0.0017415447
48	0x3ced8bd3	0.028997337
49	0x3e7c795f	0.24655674
50	0x3d89546c	0.06705555
51	0x3f2729d2	0.6529819
52	0x3da43795	0.08018414
53	0x3b637839	0.003470911
54	0x3b68422a	0.0035439827
55	0x3b087b57	0.002082547
56	0x3ad2b56d	0.0016075798
57	0x3b1ba31e	0.0023748348
58	0x3d062fe9	0.032760534
59	0x3e85395e	0.2602033
60	0x3d862fe6	0.06552105
61	0x3f2f5c20	0.68499947
62	0x3d968c87	0.07351022
63	0x3ba40481	0.0050054197
64	0x3b0e1197	0.0021677965
65	0x3b1ed467	0.0024235488
66	0x3b054a0b	0.0020338323
67	0x3b12db8a	0.0022408688
68	0x3cebf32a	0.028802473
69	0x3e804176	0.25049943
70	0x3d8ba642	0.068188205
71	0x3f278fff	0.65454096
72	0x3d9321c6	0.07184176
73	0x3b85b035	0.0040798434
74	0x3b59e452	0.0033247662
75	0x3b0c78f6	0.0021434403
76	0x3b1ad6ca	0.002362656
77	0x3b16d928	0.0023017619
78	0x3d062fe5	0.03276052
79	0x3e88c25e	0.2671079
80	0x3d830b66	0.063986585
81	0x3f2f32a1	0.6843663
82	0x3d8d2557	0.06891888
83	0x3bca5407	0.0061745676
84	0x3b1a0a75	0.0023504768
85	0x3b22d202	0.0024844413
86	0x3afc3642	0.0019242244
87	0x3b147433	0.0022652268
88	0x3cf1bc81	0.029508831
89	0x3e8320d3	0.2561098
90	0x3d8b9fdc	0.068176
91	0x3f29ddcd	0.66354066
92	0x3d8026b5	0.06257383
93	0x3b7f678b	0.0038971629
94	0x3b3c5c60	0.0028741583
95	0x3af109b8	0.0018389737
96	0x3b054a0a	0.002033832
97	0x3afa9d9a	0.0019120455
98	0x3d0e77c6	0.034782194
99	0x3e8bf661	0.2733641
100	0x3d80602b	0.062683426
101	0x3f30313a	0.68825114
102	0x3d6a0de7	0.057142165
103	0x3bd84bb4	0.0066008214
104	0x3b438b4a	0.0029837661
105	0x3b346121	0.0027523714
106	0x3b0e119a	0.0021677972
107	0x3b193e20	0.0023382977
108	0x3d08c7f5	0.03339382
109	0x3e867fb2	0.262693
110	0x3d8f1dcb	0.069881044
111	0x3f2dad24	0.67842317
112	0x3d4dd1f1	0.050249044
113	0x3b9fa0b7	0.0048714536
114	0x3b0218bd	0.001985117
115	0x3b0e1198	0.0021677967
116	0x3b0c78fb	0.0021434415
117	0x3b17a57a	0.0023139403
118	0x3d04bd94	0.03240736
119	0x3e8fc920	0.28083134
120	0x3d7f5acb	0.062342446
121	0x3f312644	0.69199014
122	0x3d517630	0.051138103
123	0x3ba39e58	0.0049932413
124	0x3b51e91e	0.0032029818
125	0x3b5ab0b0	0.0033369474
126	0x3b0baca3	0.0021312616
127	0x3b312fda	0.0027036578
128	0x3d0e6afa	0.03476999
129	0x3e8c79c6	0.27436656
130	0x3d8bd954	0.068285614
131	0x3f311fe4	0.69189286
132	0x3d314961	0.04328287
133	0x3ba40483	0.0050054207
134	0x3b17a57e	0.0023139413
135	0x3b3394cf	0.002740193
136	0x3adc4952	0.0016806519
137	0x3b0947aa	0.0020947256
138	0x3d11dc22	0.035610326
139	0x3e92f015	0.28698793
140	0x3d81b296	0.06332891
141	0x3f32ae23	0.6979696
142	0x3d47490d	0.04865365
143	0x3bab9991	0.0052368124
144	0x3b36c61b	0.0027889076
145	0x3b544e17	0.0032395178
146	0x3ac1264d	0.0014736146
147	0x3b07af02	0.0020703678
148	0x3d0edded	0.034879614
149	0x3e900aee	0.2813334
150	0x3d90e983	0.07075789
151	0x3f2715e0	0.65267754
152	0x3d9e8e28	0.07741958
153	0x3b920f38	0.0044573806
154	0x3b31fc29	0.0027158356
155	0x3ac4579d	0.0014979724
156	0x3a87af04	0.0010351841
157	0x3ad11cca	0.0015954014
158	0x3cdd9555	0.027048746
159	0x3e80a40d	0.2512516
160	0x3d8b6cc7	0.06807857
161	0x3f242f9b	0.6413514
162	0x3d985ea9	0.0743993
163	0x3b7dcee8	0.0038728062
164	0x3b51e91d	0.0032029815
165	0x3aeaa723	0.0017902594
166	0x3abc5c61	0.0014370793
167	0x3a690e82	0.00088904065
168	0x3d01261d	0.03153049
169	0x3e7fd298	0.24982679
170	0x3d8b19c8	0.06792027
171	0x3f2744f5	0.65339595
172	0x3d940140	0.07226801
173	0x3bb5939d	0.0055412785
174	0x3b2f9731	0.0026792998
175	0x3afdceec	0.0019364036
176	0x3ac2bef9	0.001485794
177	0x3abc5c61	0.0014370793
178	0x3cee0b83	0.029058224
179	0x3e7f7410	0.24946618
180	0x3d8f2428	0.06989318
181	0x3f258f94	0.6467221
182	0x3d9fda2e	0.07805286
183	0x3b7838a5	0.003787556
184	0x3b690e7f	0.003556162
185	0x3afa9d9e	0.001912046
186	0x3acdeb7c	0.0015710439
187	0x3ae2abe9	0.0017293665
188	0x3cfcb5f4	0.03084848
189	0x3e82f96f	0.25580928
190	0x3d827eeb	0.06371864
191	0x3f2ccf43	0.67503756
192	0x3d960013	0.07324233
193	0x3bc5f040	0.006040603
194	0x3b154086	0.0022774055
195	0x3b193e23	0.0023382984
196	0x3af904f7	0.0018998672
197	0x3ae4448b	0.0017415447
198	0x3cef0aec	0.029180013
199	0x3e7d0490	0.24708772
200	0x3d89877e	0.06715296
201	0x3f276dae	0.6540173
202	0x3da490f7	0.08035462
203	0x3b637839	0.003470911
204	0x3b69dad2	0.0035683406
205	0x3b087b57	0.002082547
206	0x3ad2b56d	0.0016075798
207	0x3b1ba31e	0.0023748348
208	0x3d06c924	0.032906666
209	0x3e857f35	0.26073614
210	0x3d866961	0.06563068
211	0x3f2fa58f	0.68612
212	0x3d96c604	0.07361987
213	0x3ba40481	0.0050054197
214	0x3b0e1197	0.0021677965
215	0x3b1fa0b8	0.002435727
216	0x3b054a0b	0.0020338323
217	0x3b12db8a	0.0022408688
218	0x3cecd90b	0.028912088
219	0x3e808366	0.2510025
220	0x3d8bcc8e	0.06826125
221	0x3f27d89d	0.655649
222	0x3d935b40	0.07195139
223	0x3b85b035	0.0040798434
224	0x3b5ab0ac	0.0033369465
225	0x3b0c78f6	0.0021434403
226	0x3b1ad6ca	0.002362656
227	0x3b16d928	0.0023017619
228	0x3d06bc62	0.0328945
229	0x3e89069d	0.26762858
230	0x3d8344da	0.06409617
231	0x3f2f7b42	0.6854745
232	0x3d8d4bab	0.06899198
233	0x3bca5407	0.0061745676
234	0x3b1a0a75	0.0023504768
235	0x3b22d202	0.0024844413
236	0x3afc3642	0.0019242244
237	0x3b147433	0.0022652268
238	0x3cf2bbec	0.029630624
239	0x3e83640d	0.2566227
240	0x3d8bd2f1	0.06827343
241	0x3f2a2cd1	0.66474634
242	0x3d804d01	0.06264687
243	0x3b7f678b	0.0038971629
244	0x3b3c5c60	0.0028741583
245	0x3af109b8	0.0018389737
246	0x3b054a0a	0.002033832
247	0x3afa9d9a	0.0019120455
248	0x3d0ef774	0.03490396
249	0x3e8c3fd2	0.2739244
250	0x3d80a008	0.062805235
251	0x3f30737b	0.6892621
252	0x3d6a80d7	0.057251777
253	0x3bd8b1de	0.0066130003
254	0x3b438b4a	0.0029837661
255	0x3b346121	0.0027523714

network_body.observation_encoder.processors.1.normalizer.running_mean f4 [9]
0	0x43f158a1	482.6924
1	0x43c77ede	398.99115
2	0x3ea6200f	0.32446334
3	0x43f1c621	483.54788
4	0x43c7d65b	399.67465
5	0x3ea6f5f2	0.32609516
6	0x43f23472	484.40973
7	0x43c82e67	400.36252
8	0x3ea7ca3e	0.32771486

network_body._body_endoder.seq_layers.0.weight f4 [128, 459]
0	0xbcceee56	-0.025260132
1	0x3dac9301	0.08426476
2	0x3d14268f	0.036169585
3	0xbc528c5c	-0.012850847
4	0xbcd49fac	-0.025955044
5	0x3d11a2f8	0.03555581
6	0xbc15918e	-0.009128941
7	0xbd378d8c	-0.044812724
8	0xbd76a033	-0.06021137
9	0x3c5f2d37	0.01362162
10	0xbcb90347	-0.02258457
11	0xbdc45917	-0.09587305
12	0x3bf55ce0	0.007487878
13	0x3b74d7da	0.0037360103
14	0x3d2b925f	0.041887637
15	0xbd986dc3	-0.074428104
16	0xbcb54c9a	-0.022131253
17	0xbde40144	-0.11133054
18	0x3d74fb6c	0.059810087
19	0x3cf95e8c	0.030440591
20	0x3d0950d1	0.03352434
21	0xbcf3b82d	-0.029750908
22	0x3da61d18	0.08111018
23	0xbd014501	-0.031559948
24	0xbcf102d2	-0.02942029
25	0xbddd0e21	-0.107937105
26	0x3db7649c	0.089547366
27	0xbd7efabe	-0.062250845
28	0xba5a3f1f	-0.0008325446
29	0x3d50d2f0	0.050982416
30	0x3d401a3b	0.046900015
31	0xbd5d441d	-0.054020036
32	0xbcb5060f	-0.022097616
33	0xbd5ebd4e	-0.054379754
34	0x3d2f603d	0.04281639
35	0x3d603d97	0.054746237
36	0x3a953d37	0.0011386041
37	0x3bfa33e8	0.0076355822
38	0x3de617c4	0.11235002
39	0x3d4f403d	0.05059837
40	0xbc02b049	-0.0079766
41	0xbc9b0c44	-0.018926747
42	0x3d4f93f4	0.05067821
43	0x3cbf5512	0.023355994
44	0x3d55a678	0.05216071
45	0xbc49a250	-0.012306765
46	0xbccc425a	-0.024933983
47	0x3c8e150d	0.017344022
48	0xbcbd6ab4	-0.02312217
49	0xbd6289dd	-0.055307258
50	0xbbd0d715	-0.006373296
51	0xbd1bfacb	-0.03808097
52	0x3c985760	0.018596351
53	0x3dc3062d	0.09522662
54	0x3daa43a1	0.083136804
55	0x3cd35ffe	0.025802609
56	0x3da5333b	0.08066412
57	0x3c4e78da	0.012602055
58	0xbaad67dc	-0.0013229805
59	0x3c78f86a	0.015195945
60	0xbd9d21aa	-0.076724365
61	0x3ba07789	0.004897062
62	0x3d98307a	0.07431121
63	0x3d67560d	0.05647855
64	0xbe0ba6b8	-0.13637817
65	0x3d2566bf	0.04038119
66	0x3d65b3e8	0.056079775
67	0xbcf27f8c	-0.029601835
68	0x3ce6abd8	0.028158113
69	0x3cb5904f	0.022163538
70	0x3ceff6da	0.029292513
71	0xb9ee4f83	-0.00045454138
72	0xbcee98a4	-0.02912552
73	0xbdb57b4a	-0.08861406
74	0x3c45f93f	0.012083351
75	0xbd110013	-0.03540046
76	0x3d5e5e7f	0.054289337
77	0x3d6d9631	0.05800456
78	0xbc169adb	-0.009192194
79	0xbe00c84e	-0.1257641
80	0xbd4a0ce0	-0.049328685
81	0x3cdb5669	0.026774602
82	0x3d04a14f	0.0323804
83	0xbc669d0f	-0.014075532
84	0x3b1c9b0e	0.002389613
85	0xbc86b077	-0.016441567
86	0xbd5fb528	-0.054616123
87	0xbd3233e4	-0.043506518
88	0x3b82f8d4	0.003996948
89	0xbd505e61	-0.050871257
90	0x3d65f9ea	0.05614654
91	0xbcab91c3	-0.020943528
92	0xbd0aeb56	-0.03391584
93	0x3d15a333	0.036532592
94	0xbd37f606	-0.04491236
95	0x3d8f5b12	0.06999792
96	0xbd29c19b	-0.041444402
97	0x3c5af029	0.013362923
98	0x3b14cf9d	0.0022706755
99	0xbcac5648	-0.021037236
100	0x3cf20829	0.029544907
101	0xbc8b7e93	-0.017028129
102	0xbc289859	-0.010290229
103	0x3cc0f1d0	0.023552805
104	0xbc5a24e6	-0.013314461
105	0xbd3e2198	-0.046418756
106	0xbd3cd8b3	-0.046105098
107	0x3d62a256	0.055330597
108	0xbcea5c3f	-0.02860844
109	0xbce8ca95	-0.028416911
110	0x3c8a7f94	0.016906537
111	0xbd874358	-0.06604642
112	0x3cbb3865	0.02285404
113	0xbd9ea9fa	-0.07747264
114	0xbd42b9d5	-0.047540504
115	0x3cb9331a	0.022607375
116	0xbdc5eb1b	-0.096639834
117	0xbcd7c461	-0.026338758
118	0xbd0ca9e7	-0.03434172
119	0x3d023d10	0.031796515
120	0x3dac0cc0	0.08400869
121	0x3b9e8110	0.004837163
122	0x3b987d88	0.0046536364
123	0x3d82c859	0.063858695
124	0xbdefa4b9	-0.1170134
125	0xbd36dad2	-0.044642277
126	0x3cd01860	0.025402248
127	0xbd308605	-0.04309656
128	0x3d497ecc	0.04919319
129	0x3b85afa1	0.0040797745
130	0x3d193928	0.037408024
131	0xbcd44356	-0.025911015
132	0xbde92b01	-0.113851555
133	0xbce27271	-0.02764246
134	0x3c515106	0.012775665
135	0x3cbfbebb	0.023406377
136	0x3d8acfaa	0.0677789
137	0xbcbecc40	-0.023290753
138	0x3c04e56a	0.008111337
139	0x3df19883	0.117966674
140	0x3da681b5	0.081302084
141	0x3d83086e	0.06398092
142	0x3da737bd	0.08164928
143	0xbd60892b	-0.054818314
144	0x3da7b99e	0.081897005
145	0x3ca54a55	0.020177046
146	0xbd092136	-0.033478938
147	0x3cb5717f	0.022148846
148	0xbd459568	-0.048238188
149	0xbbcfe716	-0.0063446863
150	0xbd2a9353	-0.041644406
151	0x3c82894e	0.015934613
152	0xbcccab8e	-0.024984147
153	0x3db790d1	0.089631684
154	0x3c513f7a	0.012771482
155	0xbd1ced21	-0.03831208
156	0x3c63d913	0.013906735
157	0xbca90284	-0.020631082
158	0xbbb6753e	-0.0055681756
159	0xbd9451b5	-0.07242147
160	0xbc4bd985	-0.012441997
161	0xbd98e9f4	-0.07466498
162	0xbce30172	-0.02771065
163	0xbd22b9c5	-0.039727945
164	0xbcce05ca	-0.025149245
165	0x3da1584a	0.07878168
166	0x3df3af9e	0.11898731
167	0xbc060a72	-0.008181201
168	0xbd553243	-0.052049886
169	0x3dbbda37	0.091724806
170	0x3cd48206	0.025940906
171	0x3d366dae	0.044538192
172	0xbd04ca96	-0.032419764
173	0x3d9ef4fa	0.07761569
174	0x3d921a2e	0.071339
175	0xbd7a6afd	-0.06113719
176	0xbc6c9dc5	-0.014441912
177	0x3c628cb0	0.013827488
178	0x3c6521c3	0.0139851
179	0xbd522b0d	-0.051310588
180	0xbd97fdb1	-0.07421435
181	0x3cb48279	0.02203487
182	0x3ce8ef8a	0.028434534
183	0xbb672807	-0.003527166
184	0xbd0eee01	-0.034894947
185	0xbc82e91a	-0.015980292
186	0x3d49fc3d	0.04931282
187	0xbce3d95c	-0.027813606
188	0xbc300000	-0.0107421875
189	0xbcbc45f7	-0.02298258
190	0xbd0d388f	-0.034477767
191	0xbdfa4f6a	-0.12222178
192	0x3d1dbb78	0.038508862
193	0x3a21b717	0.0006168945
194	0x3bcb23b4	0.0061993245
195	0xbd767222	-0.06016744
196	0x3db6a318	0.089178264
197	0xbcdb5d27	-0.026777817
198	0xbdf58157	-0.1198756
199	0xbd09d23e	-0.03364777
200	0xb85fc56b	-5.3351203e-05
201	0xbd97d05b	-0.074127875
202	0xbcffcf95	-0.031226913
203	0xbc73fa31	-0.014891193
204	0x3bf44bb9	0.007455316
205	0x3d27f39a	0.0410038
206	0x3cf8a35d	0.030351335
207	0x3d887215	0.066623844
208	0xbd8013a9	-0.0625375
209	0x3bffa93a	0.007802156
210	0x3a487b51	0.000764777
211	0xbb90854f	-0.004410423
212	0xbd2221df	-0.039583083
213	0x3cf46590	0.029833585
214	0x3d6bc5fe	0.057561867
215	0x3da0334c	0.07822284
216	0x3cac4c5d	0.021032507
217	0xbd8e36a8	-0.069440186
218	0xbc39ce4e	-0.011340691
219	0xbbb9e081	-0.005672515
220	0xbc700944	-0.014650647
221	0x3cb2b241	0.021813514
222	0xbd4d5a39	-0.05013487
223	0x3d5b274a	0.053504266
224	0x3c216872	0.009851562
225	0x3bd0e354	0.006374756
226	0x3cd2ef0d	0.025748754
227	0x3ca159bc	0.019696109
228	0x3df15915	0.11784569
229	0xbd3c01dc	-0.04590021
230	0x3c265159	0.010151231
231	0x3c74ba16	0.0149369445
232	0x3d875e56	0.0660979
233	0xbda25832	-0.07926978
234	0x3bade117	0.005306374
235	0xbe0c8fa4	-0.1372667
236	0x3ca0a5b5	0.019610265
237	0xbd8ad458	-0.067787826
238	0xbd14af4e	-0.036299996
239	0x3cec5dc7	0.02885331
240	0xbd2a079a	-0.041511156
241	0xbc47ad0b	-0.012187253
242	0xbd342759	-0.043982837
243	0xbddf92cd	-0.10916672
244	0x3b1a9a61	0.0023590552
245	0xbccc36b5	-0.02492843
246	0x3b0b8cc6	0.0021293624
247	0xbd427a60	-0.047479987
248	0x3d494b81	0.04914427
249	0xbd5d1015	-0.053970415
250	0x3dc1f108	0.09469801
251	0xbd11985a	-0.035545684
252	0x3d35aefc	0.04435633
253	0xbca14544	-0.019686349
254	0xbcb68bcc	-0.022283457
255	0x3d97f78d	0.074202634

network_body._body_endoder.seq_layers.0.bias f4 [128]
0	0xbafd26a9	-0.001931389
1	0x3c886975	0.016651848
2	0x3c9062c5	0.017625222
3	0x3bd9a4aa	0.006641944
4	0x3cd2def0	0.02574107
5	0xbc27d200	-0.010242939
6	0xbcd9297e	-0.026509043
7	0x3c3f152e	0.0116627645
8	0x3ae0f199	0.0017161845
9	0x3c0b675e	0.008508531
10	0xbcbf759a	-0.023371506
11	0x3c42d3af	0.01189129
12	0x3c6aa230	0.014320895
13	0x3c08765d	0.008329001
14	0xbccd1409	-0.025033968
15	0x3cb96638	0.02263175
16	0x3c840429	0.016115265
17	0x3b1206b0	0.0022281818
18	0xbb920f62	-0.0044574
19	0x3b24607c	0.0025081923
20	0xbc4de908	-0.012567766
21	0xbcc72177	-0.02430795
22	0xbcbfa176	-0.02339242
23	0xbce3a75e	-0.027789768
24	0xbb956ee6	-0.0045603393
25	0xbccc8f0e	-0.024970558
26	0x39cea306	0.00039412844
27	0x39625eb7	0.00021588324
28	0xbc2b0b13	-0.010439652
29	0x3c211db4	0.009833742
30	0xbd070987	-0.03296807
31	0xbbc8f9a7	-0.0061332765
32	0x3bb39bb4	0.0054812077
33	0xbb9427c0	-0.00452134
34	0xbc80fa7a	-0.015744437
35	0x3b812199	0.0039407727
36	0x3ad66255	0.001635621
37	0xb93cd393	-0.00018007895
38	0x3cb5e7e6	0.022205304
39	0xbb7c5dfd	-0.003850817
40	0x3bb92f0e	0.0056513613
41	0xbbee5f79	-0.007274565
42	0x3c5930d2	0.013256269
43	0x3b885f30	0.004161738
44	0xbb46383f	-0.0030245928
45	0x3c35d2ec	0.011097651
46	0xbb5d66dc	-0.0033783233
47	0x3c09799c	0.00839081
48	0xbb4839b4	-0.0030551972
49	0xbd0da74b	-0.03458337
50	0xbc01db2d	-0.007925791
51	0xbc34bf1a	-0.01103189
52	0x3c1c5fd1	0.009544329
53	0x3af74d23	0.0018867593
54	0x3cb53e13	0.022124326
55	0x3b846c6d	0.0040412457
56	0xbab27cd5	-0.0013617525
57	0x3c99c249	0.0187694
58	0x3c07fdad	0.008300227
59	0xbb872479	-0.004124221
60	0xbc6c5be3	-0.014426204
61	0xbabd6d95	-0.0014452214
62	0x3b4dc42a	0.003139744
63	0xbcef79e6	-0.02923293
64	0xbbafa753	-0.005360523
65	0x391ab4f0	0.00014753989
66	0xbc8c5c95	-0.01713399
67	0xbaf00018	-0.0018310575
68	0x3b846bc0	0.004041165
69	0xbce1cbbd	-0.02756297
70	0x3bdc1e27	0.0067174616
71	0xbd1a6c6b	-0.03770105
72	0xbc8528e0	-0.016254842
73	0x3be4f21f	0.006986871
74	0x3c221bc0	0.009894311
75	0x3bfe3c95	0.007758687
76	0xbba13ad9	-0.0049203453
77	0x3b601d4d	0.0034197152
78	0xbbd8bb65	-0.006614136
79	0x3c53fbd3	0.012938458
80	0x3c089de4	0.008338425
81	0xbcc6959e	-0.024241265
82	0xbcd8e674	-0.026477076
83	0xbbed3668	-0.0072391517
84	0xbc8e8c65	-0.01740093
85	0x3bfb4f6b	0.0076693795
86	0xbb6d09d9	-0.00361692
87	0x3c841099	0.016121196
88	0xbcfca7e8	-0.030841783
89	0xbbc7b06b	-0.0060940287
90	0xbca1345f	-0.019678293
91	0xbc43373a	-0.0119150225
92	0xbb85ece1	-0.004087076
93	0x3b229c6f	0.002481248
94	0x3d0c60fc	0.03427218
95	0xbbbd123d	-0.0057699964
96	0xbbf51954	-0.007479826
97	0x3c4f563f	0.01265484
98	0xbcff0a3f	-0.031132815
99	0xbc69cef7	-0.014270536
100	0xbb270591	-0.0025485496
101	0xbc02d8a2	-0.00798622
102	0xbbfe63f3	-0.0077633797
103	0xbcb4e231	-0.022080513
104	0xbc785843	-0.015157762
105	0x3bab4a72	0.0052273804
106	0xbc8163df	-0.015794693
107	0x3c020840	0.007936537
108	0xbcbd8c79	-0.023138272
109	0xbcd60454	-0.02612511
110	0xbb871ae8	-0.0041230805
111	0xbc4afc48	-0.01238925
112	0x3baeaac1	0.005330414
113	0xbbca7811	-0.006178864
114	0xbcde3ce8	-0.027128652
115	0xbc04759a	-0.008084679
116	0x3afc97e7	0.0019271345
117	0x3c2107e2	0.00982854
118	0x3af6b5d8	0.0018822504
119	0x3c7ea14c	0.015541386
120	0x3cb28119	0.021790074
121	0x3be4b535	0.0069796094
122	0x3cb46555	0.022020975
123	0x3c6d04ab	0.014466445
124	0x3c0c8958	0.008577667
125	0xbc0aa428	-0.008461989
126	0xbc5b8978	-0.013399474
127	0xbc09f376	-0.008419862

network_body._body_endoder.seq_layers.2.weight f4 [128, 128]
0	0xbd99fa30	-0.075184226
1	0xbe04ba54	-0.12961704
2	0x3cf474c1	0.029840829
3	0xbd79b488	-0.060963184
4	0xbd767535	-0.06017037
5	0xbe204d40	-0.15654469
6	0xbc965559	-0.018351244
7	0xbddbf87d	-0.10740755
8	0x3ccc3147	0.024925841
9	0xbda09b46	-0.07842116
10	0x3e1c2417	0.15248142
11	0x3cd0eee8	0.025504544
12	0xbdc74f82	-0.09731962
13	0xbcba4d5c	-0.022741966
14	0x3d909460	0.0705955
15	0x3e54843e	0.20753571
16	0xbcd7523e	-0.026284333
17	0x3d9629cd	0.073321916
18	0x3d9835e6	0.07432155
19	0xbcc23af0	-0.023709744
20	0xbd54a804	-0.051918045
21	0x3d4485eb	0.047979277
22	0xbd691697	-0.05690631
23	0xbda193f9	-0.07889552
24	0xbde8b89c	-0.113633364
25	0xbcdf9648	-0.02729334
26	0xbb026217	-0.0019894892
27	0xbddf0cae	-0.1089109
28	0x3d48d4af	0.049030956
29	0xbd4307e9	-0.047614966
30	0xbd96dcd6	-0.0736634
31	0xbd479579	-0.048726533
32	0xbd12ddf6	-0.03585621
33	0x3c8c2202	0.01710606
34	0xbc8cd02a	-0.017189104
35	0xba70fcd0	-0.00091929454
36	0x3cc94ac0	0.024571776
37	0xbdc817b0	-0.09770143
38	0xbe38adc7	-0.18035041
39	0xbd9cf4a9	-0.07663853
40	0xbdd6e96d	-0.10493741
41	0xbe1f73c9	-0.15571512
42	0xbe1de44c	-0.1541912
43	0x3a10425d	0.0005503053
44	0x3c58da45	0.013235633
45	0x3c5826e0	0.013192862
46	0xbdd38cd6	-0.10329597
47	0x3c8ddc32	0.017316911
48	0xbd3faa6b	-0.046793383
49	0x3e08ac63	0.1334701
50	0xbd2b28bf	-0.041786905
51	0xbcee0761	-0.029056253
52	0xbc192a52	-0.009348469
53	0xbd8e8ecd	-0.06960831
54	0x3d197711	0.037467066
55	0xbd89224f	-0.06695997
56	0xbd2ef1a5	-0.04271092
57	0x3d7853c2	0.060626753
58	0xbe6a49c8	-0.22879708
59	0xbc8d3b55	-0.017240206
60	0x3d05bb52	0.032649346
61	0xbe1f6ca0	-0.15568781
62	0xbc863ecd	-0.016387368
63	0xbd8be629	-0.06831009
64	0x3e03cbf5	0.12870772
65	0x3c9a8073	0.018860077
66	0xbc1ea6a2	-0.009683283
67	0xbc808ea3	-0.015693014
68	0xbc8b0053	-0.016967928
69	0xbd1fb55a	-0.03899131
70	0x3dca6727	0.09882956
71	0x3d54f10f	0.051987704
72	0xbe0314b4	-0.12800866
73	0xbaf5cf68	-0.0018753828
74	0xbdb77afa	-0.08959003
75	0xbdc33c42	-0.09532978
76	0x3dad8670	0.084729075
77	0xbda90b4f	-0.0825411
78	0xbe0f7dc5	-0.14012821
79	0x3d3ef1d6	0.04661735
80	0x3da27184	0.07931808
81	0xbdac14d9	-0.08402414
82	0xbd5e36db	-0.054251533
83	0xbe255b2c	-0.1614806
84	0x3da7a326	0.08185415
85	0x3daf29dd	0.08552907
86	0xbbace427	-0.0052762213
87	0x3dfd8d46	0.123804614
88	0xbd449576	-0.0479941
89	0xbe2dda3c	-0.16977781
90	0x3cabc350	0.020967156
91	0xbd6c821c	-0.05774127
92	0xbe084757	-0.13308464
93	0x3dba71a7	0.09103709
94	0x3d4bab78	0.049724072
95	0x3dab9256	0.08377521
96	0x3e0ac75f	0.13552617
97	0x3d33dbc2	0.04391075
98	0xbc15d78d	-0.00914563
99	0x3d6e6a1f	0.058206674
100	0xbd2dcd75	-0.042432267
101	0x3ddb536e	0.10709272
102	0x3d1001e8	0.035158068
103	0x3ca0db6e	0.019635882
104	0x3d899d37	0.067194395
105	0xbbd7ce89	-0.0065859
106	0xbe465a10	-0.19370294
107	0xbd9eeff0	-0.07760608
108	0x3d110375	0.035403688
109	0xbd3ef2a9	-0.046618138
110	0xbdc003ea	-0.093757465
111	0x3d20df65	0.039275546
112	0x3c6b2f5f	0.014354556
113	0x3d06bb58	0.03289351
114	0x3d4b0129	0.049561653
115	0xbdbfa5d0	-0.09357798
116	0xbcb61420	-0.022226393
117	0x3d0d8cd9	0.03455815
118	0x3d853671	0.065045245
119	0xbe237b57	-0.15965019
120	0x3db2b02a	0.08725007
121	0x3cf8c27f	0.03036618
122	0x3d3820fd	0.044953335
123	0xbdf93a7d	-0.12169359
124	0xbcebbc08	-0.028776184
125	0xbd576bcd	-0.05259304
126	0x3da505f5	0.08057777
127	0xbcf3f09e	-0.029777821
128	0xbdb73b09	-0.08946807
129	0xbd129760	-0.035788894
130	0x3dabd626	0.08390455
131	0x3d48b3fa	0.048999764
132	0x3c931346	0.017953526
133	0xbda1b82d	-0.07896457
134	0xbe18b502	-0.14912799
135	0xbe309dcc	-0.17247695
136	0xbd1a5506	-0.03767874
137	0xbe19ed81	-0.15032007
138	0xbce2048e	-0.027590062
139	0xbdcadfff	-0.09906005
140	0x3e2df5c4	0.16988283
141	0xbc510263	-0.012756917
142	0x3d91b5af	0.071147315
143	0x3df336c2	0.118756786
144	0x3dd38ff2	0.1033019
145	0x3d33bf7e	0.043883793
146	0xbccef61a	-0.025263835
147	0xbb7f5d31	-0.0038965459
148	0xbd35e170	-0.044404447
149	0xbda9fdbb	-0.08300348
150	0x3d0f74b0	0.03502339
151	0xbce998da	-0.028515268
152	0xbdfde72b	-0.123976074
153	0x3c8d5043	0.017250186
154	0xbe15f503	-0.14644246
155	0xbda9e959	-0.08296461
156	0x3daae2ce	0.08344041
157	0xbb5a0d18	-0.0033271965
158	0x3da22e14	0.07918945
159	0x3d650543	0.05591322
160	0x3de1633b	0.11005255
161	0x3cf8fc09	0.030393617
162	0x3e74ba6c	0.2389924
163	0x3e26f0dc	0.16302818
164	0xbd4692dc	-0.0484799
165	0x3d88ed00	0.06685829
166	0xbded7a56	-0.11595599
167	0x3ccb6484	0.024828203
168	0x3d91563c	0.07096526
169	0xbcf0f0d5	-0.029411713
170	0x3d885646	0.0665708
171	0xbd865f6f	-0.06561171
172	0xbd4d3143	-0.050095808
173	0x3cd22175	0.02565072
174	0x3db2618f	0.08710014
175	0x3e16311b	0.1466717
176	0x3db005a3	0.08594825
177	0xbd971142	-0.073763385
178	0x3d84a6c7	0.06477123
179	0xbd5fef62	-0.054671653
180	0x3d1230ae	0.035690956
181	0x3e06c435	0.13160785
182	0x3d440137	0.04785272
183	0x3ced452d	0.02896365
184	0x3e292f0d	0.16521855
185	0xbd4e8475	-0.05041929
186	0xbe07102f	-0.13189767
187	0xbd2b801f	-0.041870233
188	0x3bbd563d	0.0057781027
189	0xbe2da457	-0.16957222
190	0xbd9bf249	-0.076145716
191	0xbe1d2d49	-0.15349306
192	0xbe347bc6	-0.17625341
193	0xbcb1f130	-0.021721452
194	0x3d8b8ebf	0.06814336
195	0x3cd408e1	0.02588314
196	0x3d0e734d	0.03477793
197	0x3bfe7b99	0.007766199
198	0xbd90402d	-0.070434906
199	0x3e0a2ac6	0.1349288
200	0xbd2de01d	-0.04245006
201	0xbe17b81d	-0.14816327
202	0xbe400767	-0.18752824
203	0xbdced1f6	-0.100986406
204	0xbda6cda7	-0.08144694
205	0xbce6d2dc	-0.028176717
206	0x3dc2582e	0.09489475
207	0xbdab14bb	-0.083535634
208	0xbe1c2a48	-0.15250504
209	0xbd89a93b	-0.06721731
210	0x3dd1e7d0	0.10249293
211	0xbc53bfd1	-0.012924151
212	0xbd2d64b5	-0.04233237
213	0x3dadb414	0.08481613
214	0xbd3e6fc9	-0.046493325
215	0x3c4fb2c5	0.012676899
216	0x3dbe0196	0.09277646
217	0x3ce9fe8b	0.028563758
218	0x3de93465	0.113869466
219	0x3b8a7651	0.00422553
220	0xbd1520a3	-0.036408078
221	0xbd401068	-0.046890646
222	0xbdc11531	-0.0942787
223	0xbd20ec91	-0.039288107
224	0x3d574c64	0.052563086
225	0x3cdd7d60	0.027037323
226	0x3bb2243f	0.00543645
227	0x3e1855f6	0.14876541
228	0xbe0f632c	-0.14002675
229	0xbdb4f5b5	-0.088359274
230	0xbd2c29c7	-0.04203203
231	0x3d31ac79	0.043377373
232	0x3e0f32de	0.13984248
233	0xbd709598	-0.058736414
234	0x3c4bb4b7	0.0124332225
235	0xb6b40633	-5.3651397e-06
236	0x3e4578e6	0.192844
237	0x3e1a9cbb	0.1509885
238	0x3e496bd9	0.19670047
239	0x3d65b2ab	0.056078594
240	0xbbb74f59	-0.005594176
241	0xbdf428a2	-0.119218126
242	0xbd20c568	-0.03925076
243	0xbda38391	-0.07984079
244	0xbb28bf5e	-0.002574883
245	0xbd896753	-0.06709161
246	0xbd347f0c	-0.044066474
247	0xbe5e187a	-0.21689025
248	0x3d008891	0.03138024
249	0x3d0f313d	0.034959067
250	0xbddaaacb	-0.106771074
251	0xbcff7984	-0.031185873
252	0x3d95166e	0.07279669
253	0xbdb85abc	-0.09001681
254	0xbdb937ed	-0.0904387
255	0x3dc561e3	0.09637811

network_body._body_endoder.seq_layers.2.bias f4 [128]
0	0xbc0acd03	-0.00847173
1	0xbc684874	-0.01417743
2	0xbcd1ddcc	-0.025618456
3	0x3bdf51d4	0.0068151746
4	0xbc075f19	-0.008262419
5	0xbc035c30	-0.008017585
6	0x3c2b61f2	0.010460364
7	0xbcba548c	-0.022745393
8	0xbcc525e7	-0.024065925
9	0x3b8915e4	0.004183518
10	0x3c555211	0.013020054
11	0x39846065	0.00025248821
12	0xbc5caab2	-0.013468431
13	0x3b86ee2b	0.0041177473
14	0x3d1dba2a	0.038507618
15	0x3b39dc56	0.002836009
16	0x3b0b2d89	0.0021236858
17	0x3c0f30ce	0.008739663
18	0xbc83c958	-0.01608722
19	0x3c8b1720	0.0169788
20	0x3b4aa839	0.0030923022
21	0xbc73e70f	-0.014886632
22	0x3c9703af	0.018434374
23	0x3ca1f24a	0.019768853
24	0x3c7a9dd8	0.015296422
25	0x3c0a117a	0.008427018
26	0x3c09d781	0.008413197
27	0x3bc36420	0.0059628636
28	0xbc54e4ff	-0.01299405
29	0xbbaaefe5	-0.005216586
30	0xbcca2eca	-0.024680514
31	0xbbb0081d	-0.005372061
32	0xbbbb5339	-0.005716708
33	0xbc3f4613	-0.011674422
34	0xbc73e293	-0.0148855625
35	0xbcf122b9	-0.029435502
36	0x3c0bd89b	0.0085355295
37	0x3bf5ffb5	0.0075072893
38	0x3c9ff78a	0.019527216
39	0xbc9d354c	-0.019190453
40	0x3cdc8d91	0.026922973
41	0x3c822674	0.015887477
42	0xbc29a1f3	-0.010353553
43	0x3c14efa1	0.009090335
44	0xbbf427f5	-0.0074510523
45	0xbcd52809	-0.026020067
46	0x3aa8426c	0.0012837178
47	0xba95c0ed	-0.0011425294
48	0x3cfac8f2	0.030613396
49	0x3ba7b78e	0.005118317
50	0x3b8c2ba1	0.004277662
51	0xbbbee780	-0.005825937
52	0xbcba48f1	-0.02273986
53	0x3c64602f	0.013938948
54	0xbcba7e2e	-0.022765245
55	0xba5b402e	-0.00083637505
56	0x3cdce6d1	0.02696553
57	0xbb8f0a5e	-0.0043652495
58	0x3bb93dd1	0.005653121
59	0x3ca97363	0.020684903
60	0xba0d5544	-0.0005391429
61	0x3b8947a5	0.004189449
62	0xbc6fbf25	-0.014632975
63	0xbc9eb222	-0.01937205
64	0xbcd44c7d	-0.025915379
65	0x3cae7aa5	0.021298716
66	0x3c442db3	0.011973786
67	0x3cf8685b	0.030323198
68	0xbc2f5f06	-0.010703808
69	0xba4d5d2e	-0.0007834014
70	0x3adff74c	0.001708725
71	0x3bd2c6e3	0.0064324006
72	0xbcaa7f50	-0.02081266
73	0xbc95d8ce	-0.018291857
74	0xbc3fa071	-0.011695967
75	0x3b041394	0.002015327
76	0x3c8753d5	0.016519466
77	0x3bd7e592	0.006588646
78	0x3c6e870f	0.014558568
79	0xbca02da5	-0.019553015
80	0x3c856525	0.016283581
81	0xbccb7cd5	-0.024839798
82	0xbcd716f6	-0.026256066
83	0x3ce7bbd0	0.028287798
84	0x3c0d6cbc	0.008631881
85	0xba28fa98	-0.0006446033
86	0xbc1fccb4	-0.009753395
87	0xbc6b41d1	-0.014358954
88	0x3c7ef63b	0.015561636
89	0xbb0e2a55	-0.0021692712
90	0x3cb09196	0.021553796
91	0x3d12cd2c	0.0358402
92	0xbcf5d8b8	-0.030010566
93	0x3b86f911	0.0041190465
94	0xbbc94db4	-0.006143296
95	0x3b11e7d9	0.0022263436
96	0xbc887780	-0.016658545
97	0xba090ce3	-0.00052280555
98	0xbcb4ab6c	-0.022054397
99	0xbac37472	-0.0014912023
100	0x3c3bc19c	0.011459734
101	0xbb878c91	-0.00413663
102	0x3b90b54b	0.004416143
103	0x3c4dd5af	0.012563153
104	0xbc5b009f	-0.013366847
105	0xbc74d975	-0.014944424
106	0xbb84a5c2	-0.00404808
107	0x3bc438d4	0.0059882198
108	0xbc1e4253	-0.009659368
109	0xbc020e1a	-0.007937932
110	0x3b831d98	0.0040013306
111	0x3c0cb077	0.008586994
112	0x3b44b56b	0.003001536
113	0xba9fbafb	-0.0012186462
114	0xb9774616	-0.00023581865
115	0x3cb59c1c	0.022169165
116	0xbcf3ada8	-0.029745892
117	0x3bc83867	0.0061102393
118	0xbccfd204	-0.025368698
119	0xbcaa330e	-0.020776298
120	0x3865f5ec	5.4826887e-05
121	0x3c21836d	0.0098579945
122	0x3c79491d	0.0152151855
123	0xbbcf2a11	-0.0063221534
124	0xbc256977	-0.010095946
125	0x3bd10303	0.006378533
126	0x3cc7e675	0.024401883
127	0xbb27621d	-0.0025540658

action_model._discrete_distribution.branches.0.weight f4 [2, 128]
0	0x3cec7975	0.028866509
1	0x3bb20ad5	0.00543342
2	0x3bc66510	0.006054528
3	0xbc878707	-0.016543878
4	0xbc0d972b	-0.008641998
5	0x3c09424a	0.008377621
6	0x3ccc2459	0.024919676
7	0x3cd2ffc9	0.025756733
8	0x3c5e8aaa	0.013582865
9	0x3d02c49a	0.031925775
10	0xbce9060f	-0.028445272
11	0xbb556311	-0.003256027
12	0xbbd1c3ab	-0.0064014993
13	0xbb87113e	-0.0041219285
14	0xbd2e3953	-0.042535137
15	0xbcc9d36c	-0.024636947
16	0x3c69622e	0.014244599
17	0xbb34cc80	-0.0027587712
18	0x3c116298	0.008873604
19	0xbcc573d5	-0.024103085
20	0xbc2a9cf1	-0.010413394
21	0x3d2f1d8e	0.042752795
22	0x3c9ac708	0.018893734
23	0xbc572396	-0.013131043
24	0xbc94b4bf	-0.018152593
25	0x3b42163d	0.0029615306
26	0xbd38ef09	-0.045149837
27	0xbcfe83c5	-0.031068692
28	0xbc43b67b	-0.011945362
29	0x3d26e5e1	0.040746573
30	0xbb4d9688	-0.0031370241
31	0x3d01568d	0.031576682
32	0x3cba1662	0.022715751
33	0xbba8b624	-0.005148666
34	0x3c267c7d	0.010161516
35	0x3c82b372	0.015954707
36	0xb9ee8f7c	-0.00045501802
37	0x39e4dfd4	0.00043654314
38	0xbbb4cc3b	-0.00551751
39	0x3bc17ae0	0.0059045404
40	0x3ba8e395	0.005154083
41	0x3ba63f28	0.005073447
42	0x3ce3eb95	0.027822295
43	0xbd1c5604	-0.03816797
44	0x3d1d560e	0.038412146
45	0xbc177c43	-0.009245935
46	0x3c8b6826	0.017017435
47	0x3b6d1feb	0.0036182355
48	0xbd0c4df6	-0.034254037
49	0xbceda4a7	-0.029009176
50	0xbcb1c160	-0.021698654
51	0x380073fd	3.06256e-05
52	0x3bb7bb8b	0.0056070737
53	0xbc414c86	-0.01179803
54	0x3c461835	0.012090732
55	0xbc0eab10	-0.008707777
56	0xbcd728e9	-0.026264625
57	0xbc7f85be	-0.0155958515
58	0xbb6ccb89	-0.0036132059
59	0xbd19331e	-0.037402265
60	0x3cc553df	0.024087844
61	0xbc8c468b	-0.017123481
62	0x3d49ca7b	0.049265366
63	0x3ce3ebff	0.027822493
64	0xba553ce2	-0.00081343774
65	0xbce97de8	-0.02850242
66	0xbc8884b0	-0.016664833
67	0xbc8b5319	-0.017007397
68	0xbc29671c	-0.010339525
69	0xbbd72b7d	-0.0065664635
70	0x3bc9cdcf	0.0061585675
71	0xbbb9c50b	-0.0056692413
72	0x3c1cee16	0.0095782485
73	0x393d7b4d	0.00018070378
74	0x3d2ae9b7	0.041726794
75	0x3c16a10e	0.009193672
76	0xbaec7ee0	-0.0018043183
77	0xbbe3d22a	-0.0069525437
78	0xbd04ff60	-0.032470107
79	0x3cecf8bc	0.0289272
80	0xbcefdb3f	-0.02927935
81	0x3c734744	0.014848534
82	0x3940e1e4	0.00018394698
83	0x3c035514	0.00801589
84	0x3ce05d6a	0.027388293
85	0xbc5511fd	-0.013004777
86	0x3d231bb6	0.03982135
87	0x3cd4d446	0.025980126
88	0xbcfa4541	-0.030550601
89	0x3b4b0d3b	0.0030983228
90	0x3c9d0231	0.019166084
91	0xbc142d02	-0.009043934
92	0x3cb78e5a	0.022406746
93	0xbc8223e4	-0.015886255
94	0xbc9995d8	-0.018748209
95	0xb9f608cb	-0.00046927328
96	0x3bfb8abf	0.007676452
97	0xbc63570a	-0.013875732
98	0x3d68ba34	0.056818202
99	0xbc1cdd39	-0.009574228
100	0x3beb504d	0.0071812035
101	0x3bc43d63	0.005988763
102	0xbd238239	-0.039919112
103	0xbb4d8dac	-0.003136496
104	0x3ccca2c1	0.02497995
105	0x3c4f75a3	0.012662324
106	0x3bcce055	0.0062523284
107	0xbcda1e42	-0.026625756
108	0x3d3e6388	0.04648164
109	0xbc24864c	-0.0100417845
110	0x3c9339f9	0.01797198
111	0x3c4cdac9	0.012503334
112	0xbced4cdb	-0.028967312
113	0x3b7dede7	0.0038746537
114	0xbc53776d	-0.012906891
115	0xbd0294a9	-0.031880055
116	0x3c45d34d	0.012074304
117	0xbbf17f54	-0.007369915
118	0x3cae0f2e	0.021247473
119	0x3b191813	0.0023360297
120	0xbc637497	-0.013882778
121	0xbcf1a16c	-0.029495917
122	0x3d09850c	0.03357415
123	0xbb836902	-0.0040103206
124	0x3c821bc4	0.01588238
125	0x3d21325a	0.03935466
126	0xbd4167fd	-0.04721831
127	0xbcdf2c78	-0.027242884
128	0xbc5e1e30	-0.013557002
129	0x3bd10900	0.0063792467
130	0xbbd136f7	-0.006384726
131	0xbbe11b52	-0.006869712
132	0xba66017e	-0.0008774026
133	0xbc88fc58	-0.01672189
134	0xbc42a7f6	-0.011880865
135	0xbd0820f8	-0.033234566
136	0xbcb9d86e	-0.02268621
137	0xbba0376c	-0.0048894193
138	0x3c75239b	0.014962102
139	0x3c220ca6	0.009890711
140	0x3c398414	0.011322994
141	0x3bcc1ede	0.0062292656
142	0x3d457f58	0.048217148
143	0x3c6217bf	0.013799607
144	0xbbab041e	-0.0052189967
145	0xbcadcafa	-0.02121495
146	0xbc64f6fd	-0.013974902
147	0x3c8e8a33	0.017399883
148	0xbb4aae3b	-0.0030926603
149	0xbd417b71	-0.047236864
150	0xbcc1697f	-0.023609875
151	0x3c61cb02	0.013781311
152	0x3c2964ff	0.010339021
153	0x3b0b6f1f	0.002127595
154	0x3cbe666f	0.023242204
155	0x3c1123ea	0.00885866
156	0xbb3f3720	-0.0029177144
157	0xbd033622	-0.032034047
158	0x39a130af	0.00030744585
159	0xbce2ccd2	-0.027685557
160	0xbb7e22e0	-0.0038778111
161	0x3c3628c2	0.011118116
162	0xbc4f7d14	-0.012664098
163	0xbc5d4fce	-0.013507796
164	0xbc04c86d	-0.008104426
165	0xbb94adf9	-0.0045373407
166	0x3bb42df3	0.0054986416
167	0xbc2b2af8	-0.010447256
168	0xbca26d13	-0.019827401
169	0xbbe89900	-0.007098317
170	0xbcc60083	-0.024170166
171	0x3d203c79	0.03912017
172	0xbc4852b7	-0.012226752
173	0x3b005ce0	0.0019586608
174	0xbcec9546	-0.028879773
175	0xbcae9448	-0.02131094
176	0x3d12dc53	0.03585465
177	0x3c3b4361	0.011429639
178	0x3c1d18e0	0.00958845
179	0x3c73e12b	0.014885227
180	0xbccb0652	-0.024783287
181	0xba831145	-0.0009999654
182	0xbc56f31d	-0.013119486
183	0x3ac04a29	0.0014670539
184	0x3d03f915	0.032219965
185	0x3c0e2c8e	0.008677615
186	0x3a1d6e7e	0.00060055393
187	0x3cad4e81	0.021155598
188	0xbd10bfed	-0.035339285
189	0x3a8db0ce	0.0010810138
190	0xbd24dd0a	-0.04024986
191	0xbd2ff58d	-0.042958785
192	0xbc0a75c1	-0.008450926
193	0x3d15e0bd	0.03659128
194	0xbab6c9d7	-0.0013945651
195	0x3a187f13	0.00058172754
196	0x3bda269e	0.0066574356
197	0xbac73c64	-0.0015200493
198	0xbc713789	-0.014722713
199	0x3d190279	0.037355874
200	0xbbd1d29e	-0.0064032814
201	0xbc7d6a2f	-0.015467211
202	0xbd10375d	-0.03520905
203	0xbba3160a	-0.0049769925
204	0xbba3aab1	-0.0049947132
205	0x3ce50254	0.027955212
206	0x3d062aa8	0.032755524
207	0xbcc6178b	-0.024181148
208	0x3caad0dd	0.020851547
209	0xbcc0dd1f	-0.023542939
210	0x3b89455b	0.004189176
211	0x3b883f6b	0.0041579506
212	0xbd1fe4aa	-0.03903643
213	0x3c75c94a	0.015001604
214	0xbd0ed5e2	-0.034871943
215	0xbd21d8a2	-0.039513238
216	0x3cc49f29	0.024001675
217	0x3cb36779	0.021899926
218	0xbb7f11de	-0.0038920562
219	0x3c8bfbca	0.017087836
220	0xbc041bf2	-0.008063303
221	0x3cc523d9	0.024064945
222	0x3c1d9e3d	0.0096202465
223	0x3c3bb303	0.011456254
224	0x3c013bb8	0.007887773
225	0xba04db1b	-0.00050680496
226	0xbd0b16a9	-0.033957157
227	0x3cd6e225	0.026230881
228	0xbca2ee4c	-0.01988902
229	0xbcb89099	-0.022529887
230	0x3cfff2da	0.03124373
231	0x3c14ab71	0.009074078
232	0xbc427c53	-0.0118704615
233	0xbc6b2b31	-0.014353559
234	0xbb03917a	-0.0020075724
235	0x3c3042f9	0.010758155
236	0xbd2224fd	-0.039586056
237	0x3c627eef	0.013824209
238	0xbcc710c9	-0.024299996
239	0xbc55bc45	-0.013045375
240	0x3cb8d999	0.022564696
241	0x3c685d43	0.014182392
242	0xbb11b886	-0.0022235229
243	0x3d1ae3eb	0.037815016
244	0xbc874bc1	-0.016515614
245	0x3c98efb8	0.018668994
246	0xbd0becf9	-0.03416154
247	0xbbab1201	-0.005220652
248	0x3b751403	0.003739596
249	0x3d081fc2	0.03323341
250	0xbc8fbe50	-0.017546803
251	0xbc386745	-0.01125509
252	0xbbd5c4d8	-0.0065237097
253	0xbbfc1e90	-0.007694073
254	0x3cf98170	0.030457228
255	0x3c83c538	0.016085252

action_model._discrete_distribution.branches.0.bias f4 [2]
0	0xbc96259c	-0.01832848
1	0x3c962599	0.018328475

action_model._discrete_distribution.branches.1.weight f4 [3, 128]
0	0xbcc942a0	-0.024567902
1	0xbc53e913	-0.012933987
2	0xbaa5feb3	-0.0012664407
3	0x3be43ac9	0.0069650155
4	0x3cd3ae8a	0.025840063
5	0x3cc846e7	0.024447871
6	0x38f1075f	0.000114931485
7	0xbc245f1f	-0.010032444
8	0x3c461d27	0.012091911
9	0xbc6faee0	-0.014629096
10	0x3d04d7b2	0.032432266
11	0xbd360823	-0.044441354
12	0xbc72bb3d	-0.014815149
13	0xbb05e697	-0.0020431632
14	0xbd54bf99	-0.051940534
15	0xbcb572f7	-0.022149546
16	0x3ce9e5e1	0.028551998
17	0xbc8da700	-0.017291546
18	0x3c9e181c	0.019298606
19	0x3b6aa41e	0.0035803388
20	0x3d8931d2	0.066989556
21	0xbba661a8	-0.0050775595
22	0xbd1b4512	-0.037907667
23	0x3d3a2b70	0.04545158
24	0x3a290cef	0.00064487656
25	0x3d235c53	0.03988297
26	0x3b04fc07	0.0020291822
27	0x3b027844	0.001990811
28	0x3d0ef060	0.03489721
29	0x3c2d97df	0.010595291
30	0xbbf0bcc3	-0.007346721
31	0xbcf68438	-0.030092344
32	0xbc9687a3	-0.018375224
33	0x3bf1930d	0.007372266
34	0x3cb2a6c0	0.021808028
35	0x3c6f99ff	0.014624118
36	0x3d127ba6	0.03576245
37	0x3d200192	0.039063998
38	0xbc513cfa	-0.012770886
39	0xbc6276e3	-0.01382229
40	0xbd3fb249	-0.046800885
41	0xbb5dcaaf	-0.0033842733
42	0xbd161f42	-0.036650904
43	0x3bbdb469	0.005789329
44	0x3c452f97	0.012035272
45	0x3c2c0d2b	0.010501186
46	0x3d1e0f53	0.038588833
47	0xbbd24b06	-0.006417635
48	0xbc4a1de8	-0.012336232
49	0x3d15082b	0.036384743
50	0x3c0ed7a6	0.008718407
51	0xba4703f6	-0.0007591838
52	0x3c3d5425	0.011555706
53	0xbc336d71	-0.010951386
54	0x3c565b31	0.013083265
55	0xbac01569	-0.0014654818
56	0xbcbce23f	-0.023057101
57	0xbc05ab71	-0.008158551
58	0xbb5a4035	-0.003330243
59	0xbb86722f	-0.004102967
60	0xbd456e7d	-0.048201073
61	0xbd0361fe	-0.032075875
62	0xb98deff3	-0.00027072392
63	0xbc0203f2	-0.007935511
64	0xbcca73e2	-0.02471346
65	0xbb0b0301	-0.0021211507
66	0xbd96d495	-0.073647656
67	0x3c824da6	0.015906166
68	0x3ca48e7c	0.020087473
69	0xbc5a7498	-0.013333462
70	0xbc52273c	-0.012826737
71	0xbd2b1516	-0.041768156
72	0xbc9957fc	-0.018718712
73	0x3a62c50e	0.0008650579
74	0xbc604daa	-0.013690392
75	0xbbf33406	-0.007421973
76	0x3cfff265	0.031243512
77	0xbcb84541	-0.02249396
78	0xbc859770	-0.016307563
79	0xbd1058fc	-0.035241112
80	0xbc0d554d	-0.008626294
81	0x3bd19d98	0.0063969605
82	0xbbb77468	-0.0055985935
83	0xba91bde7	-0.0011119217
84	0x3d03585a	0.03206668
85	0xbcb55ccf	-0.022138981
86	0x3d29c3c3	0.04144646
87	0xbcb2e6e1	-0.021838607
88	0x3c141c38	0.009039931
89	0x3d0dec5f	0.03464925
90	0x3c3d8bfc	0.011569019
91	0xbcb3aaa3	-0.021931952
92	0x3c4a4cae	0.012347383
93	0xbd0f361a	-0.034963705
94	0x3c454b7c	0.012041923
95	0x3c668555	0.014069875
96	0xb7bf4b90	-2.280416e-05
97	0xbb631ca8	-0.0034654532
98	0x3c8e0778	0.017337546
99	0x3ca1b260	0.019738376
100	0x3cc0bae3	0.023526615
101	0xbc4bfafe	-0.012449978
102	0x3c9b970f	0.018992929
103	0x3cf3a502	0.029741768
104	0x3cafcb2a	0.02145918
105	0xbb6497b8	-0.003488047
106	0x3b0d90ba	0.0021601156
107	0x3c8b37f3	0.016994452
108	0xbc6056bd	-0.013692555
109	0xbb93e320	-0.0045131594
110	0x3c25b586	0.010114079
111	0x3c860adf	0.016362606
112	0xbc034af5	-0.008013477
113	0xbc780194	-0.015137095
114	0x3d20f785	0.039298553
115	0xbca9c251	-0.02072254
116	0xbc1c0e84	-0.009524945
117	0x3ca8b5a6	0.02059443
118	0x3be0fec3	0.0068663075
119	0xb86a420a	-5.585145e-05
120	0xbc0b0d35	-0.0084870355
121	0xbd670b00	-0.056406975
122	0xbd108175	-0.03527971
123	0xbc7db77a	-0.015485639
124	0x3ca56c5f	0.020193277
125	0x3c3b1357	0.011418185
126	0xbcc0e2f0	-0.023545712
127	0x3b9208c2	0.0044566104
128	0x3b8cd937	0.004298355
129	0x3d4b9c03	0.04970933
130	0x3a18eb58	0.0005833409
131	0xbcb1b901	-0.021694662
132	0xbc3ac5cb	-0.011399697
133	0xbcb3e55a	-0.02195995
134	0xbcf30248	-0.029664174
135	0x3d067daf	0.032834705
136	0xbc62bdfb	-0.01383924
137	0x3b1cdea7	0.0023936422
138	0x3baf7e34	0.0053556208
139	0x3c897c42	0.016782884
140	0x3ce52444	0.027971394
141	0xbccbb88b	-0.02486827
142	0x3ac82bf6	0.001527189
143	0x3d35007b	0.04418991
144	0xbcf43454	-0.029810108
145	0xbca4c80e	-0.020114925
146	0x3cd71b73	0.026258206
147	0xbbed169e	-0.007235362
148	0xbd55d94f	-0.052209195
149	0x3d0feae6	0.035136126
150	0xbc196828	-0.009363212
151	0x3c067880	0.00820744
152	0xbc849cb0	-0.016187996
153	0xbccfd3f3	-0.02536962
154	0x3d3cdc32	0.046108432
155	0x3c49bc53	0.012312966
156	0x3c10e32c	0.0088432245
157	0x3b34a9df	0.0027567071
158	0xbbe8b28a	-0.0071013616
159	0x3d87c372	0.06629075
160	0x3d1408f3	0.036141347
161	0x3d06b5d0	0.032888234
162	0x3beff289	0.0073226136
163	0x3c6baf1d	0.014385012
164	0xbd8921a7	-0.06695872
165	0xbb92a378	-0.0044750534
166	0xbcc41c61	-0.023939313
167	0x3d111c2e	0.035427265
168	0xbc821203	-0.01587773
169	0xbd3029fb	-0.043008786
170	0xbbf8304f	-0.007574118
171	0x3cc7f87c	0.024410479
172	0x3d3e7e59	0.046507213
173	0x3bc345d4	0.005959252
174	0xbd4bead0	-0.04978448
175	0xbca7ec8a	-0.020498533
176	0xbcc50b9f	-0.024053393
177	0xbce4ba03	-0.027920729
178	0x3d6300f8	0.055420846
179	0x3b797e5b	0.0038069698
180	0x3c8f2e0e	0.017478015
181	0xbc8d2cef	-0.01723334
182	0xbb1d76bc	-0.002402707
183	0x3cd66137	0.026169403
184	0xbc67895e	-0.014131872
185	0xbc0981f1	-0.008392797
186	0xbc6c9659	-0.014440143
187	0xbc641183	-0.013920191
188	0x3d495d46	0.049161218
189	0x3cbf589d	0.023357684
190	0x3ca07c06	0.019590389
191	0x3c48ee1c	0.012263801
192	0x3cb823b6	0.022477966
193	0x3bfc9639	0.0077083376
194	0x3d804361	0.062628515
195	0xbc926331	-0.017869564
196	0x3c35ac41	0.011088432
197	0x3ce0b97d	0.027432198
198	0xbcec23a9	-0.028825598
199	0x3caa9f25	0.02082784
200	0x3cd3e0bd	0.025864
201	0x3c107d66	0.00881896
202	0x3b5734e9	0.0032837933
203	0xbd3be100	-0.045868874
204	0xbc960c4d	-0.018316412
205	0xba19200b	-0.00058412616
206	0xbbf01d27	-0.007327694
207	0x3c47a9bc	0.012186464
208	0xbc8b5aab	-0.017011007
209	0x3cc7b061	0.024376096
210	0x3bfe228b	0.0077555827
211	0xbd288709	-0.041144405
212	0xbc673596	-0.014111897
213	0x3c19ae5f	0.009379952
214	0x3d056925	0.032570977
215	0x3d2f8b0f	0.042857226
216	0x3b81d263	0.0039618476
217	0xbc2e223a	-0.010628277
218	0xbd37e530	-0.044896305
219	0xbcddd370	-0.02707836
220	0xbbd25c59	-0.0064197
221	0x3cd0cd0c	0.025488399
222	0x3b3c44d6	0.0028727553
223	0xbc108af9	-0.008822196
224	0x3b333aaf	0.002734821
225	0xbc0d2d07	-0.008616692
226	0x3cc0f3b6	0.02355371
227	0xbb398d1e	-0.0028312872
228	0xbd138c84	-0.036022678
229	0xbc4817a5	-0.012212669
230	0xbc0593dd	-0.008152929
231	0xbcd50fa3	-0.026008433
232	0xbc44d07e	-0.012012599
233	0x3d1d9e99	0.03848133
234	0xbcbb2463	-0.022844499
235	0xbd075e87	-0.033049133
236	0x3c5868d0	0.013208583
237	0x3bc2dea9	0.0059469533
238	0x3d459cd1	0.048245255
239	0xbcd14736	-0.025546651
240	0x3a93d5aa	0.0011278887
241	0x3d573e35	0.05254956
242	0xbd452d50	-0.048138916
243	0xbc2bce6a	-0.010486225
244	0x3d07966a	0.03310243
245	0x3c2d6f69	0.010585644
246	0xbb8d38cc	-0.004309749
247	0x3c6a468c	0.014299046
248	0x3bd6f51a	0.00655998
249	0x3cf53899	0.029934214
250	0xbb466b15	-0.0030276228
251	0x3ce2e641	0.027697684
252	0xbcf8978f	-0.030345706
253	0xbccb6bfe	-0.024831768
254	0x3b409890	0.002938781
255	0xbb5dd694	-0.0033849822

action_model._discrete_distribution.branches.1.bias f4 [3]
0	0x39fab167	0.0004781589
1	0xbc0f122e	-0.008732362
2	0x3c32609b	0.01088729

action_model._discrete_distribution.branches.2.weight f4 [1, 128]
0	0x3a2d28fd	0.0006605534
1	0xbbd2f0f3	-0.006437415
2	0x3c6d0fdf	0.014469116
3	0xbc7d78f7	-0.015470735
4	0x3adb93fb	0.0016752476
5	0xbab308f3	-0.0013659283
6	0xbb44b89c	-0.0030017262
7	0x3b8aab94	0.0042318795
8	0xbc2d0a0d	-0.010561478
9	0xbbf49527	-0.0074640694
10	0xbb8c5835	-0.004282976
11	0x3b1076a7	0.0022043379
12	0x3bc7a53f	0.006092697
13	0x3bd481db	0.0064852065
14	0xbc5aeb87	-0.013361818
15	0xb91222b5	-0.00013936574
16	0x3a5b6523	0.00083692576
17	0xbbb5d5fa	-0.0055491896
18	0xbb9e30ac	-0.0048275795
19	0x3b94ea22	0.0045445124
20	0x3bc60987	0.006043616
21	0x3a75d328	0.0009377473
22	0x3b009daf	0.0019625237
23	0x3b1c9334	0.002389145
24	0xbbf7f94b	-0.00756756
25	0xbad46cdd	-0.001620676
26	0xbc742e3a	-0.014903599
27	0xbb6c768d	-0.0036081404
28	0xbb13e574	-0.0022567185
29	0x3bf8f0fa	0.007597086
30	0x3c2d5fcb	0.010581921
31	0x3ba88ee1	0.0051439856
32	0x3c537fd8	0.012908898
33	0xbc5268ad	-0.012842339
34	0xba58dc12	-0.0008272539
35	0x3bf959b7	0.007609572
36	0x3bcc1fbf	0.0062293704
37	0xbbbba8fc	-0.0057269316
38	0xbbf6e3bd	-0.0075344727
39	0x3be30b37	0.006928827
40	0x3b8f4178	0.004371818
41	0x3aa7c073	0.0012798443
42	0xbbbdd8d3	-0.0057936697
43	0x3bc01756	0.005862157
44	0xb997803e	-0.00028896512
45	0x3b71171f	0.0036787463
46	0xbc0b466b	-0.008500676
47	0x3aa8c72a	0.0012876738
48	0x3b7f3530	0.0038941614
49	0x3bc21327	0.0059226933
50	0xbc2425eb	-0.010018806
51	0xba3d0cbc	-0.00072116754
52	0x3a8410c1	0.0010075794
53	0xbc93066f	-0.017947404
54	0xbc0f205a	-0.008735741
55	0xbae2c970	-0.0017302465
56	0x3c54489d	0.0129567655
57	0xbac0c34f	-0.0014706644
58	0x3c4894f2	0.012242543
59	0x3baad8bb	0.0052138246
60	0xbb9cfc33	-0.0047908067
61	0xba8d0ac9	-0.001076066
62	0xbc8977d6	-0.016780775
63	0x3c94cb7f	0.01816344
64	0xbbad63ec	-0.0052914526
65	0x3c93a0d1	0.01802102
66	0x3bd63da0	0.006538108
67	0x3bc94812	0.0061426247
68	0xbabaab81	-0.0014241786
69	0x3b23e667	0.0025009157
70	0x3b221b13	0.0024735376
71	0xbc1e4f98	-0.009662531
72	0xbbab0383	-0.0052189245
73	0xbc858c13	-0.016302144
74	0xbc3a36df	-0.011365621
75	0x3c560d5f	0.013064711
76	0xbc3b1297	-0.011418006
77	0xbc020a7f	-0.007937073
78	0x3b77d8c0	0.0037818402
79	0x3c398085	0.011322145
80	0xbad19f6b	-0.0015992945
81	0xbb4c2b93	-0.0031153902
82	0x3b193a95	0.0023380865
83	0xbc3e95d1	-0.011632399
84	0xbbf06c45	-0.0073371255
85	0x3b1b144f	0.0023663228
86	0x3b2eb2cf	0.0026656871
87	0xbc263d78	-0.010146491
88	0xbb96a11d	-0.004596843
89	0x3bfc0fa2	0.0076922933
90	0xbba6f74d	-0.0050953985
91	0xbc43046a	-0.011902908
92	0x3c08b032	0.0083427895
93	0xbb3c1c14	-0.002870326
94	0x3c2369a3	0.009973916
95	0xbc462d43	-0.012095752
96	0x3ba32039	0.0049782065
97	0xbba86b56	-0.0051397486
98	0xbc461687	-0.012090332
99	0xbbedc7ea	-0.0072564976
100	0xbc2a24f8	-0.010384791
101	0x3b493993	0.0030704483
102	0xbb7b50f5	-0.0038347815
103	0x3be7c283	0.007072748
104	0x3bb33959	0.005469483
105	0x3c1449a6	0.009050762
106	0xbc53e708	-0.0129335
107	0x3c1ac4d5	0.0094463425
108	0x3bb3b543	0.0054842546
109	0x3b3b1a87	0.0028549747
110	0x3bc4e450	0.0060086623
111	0x3b99e8fb	0.004696963
112	0xbc020ab0	-0.007937118
113	0x3b14b455	0.0022690494
114	0xbc329159	-0.010898911
115	0x3bfd4cd8	0.0077301078
116	0x3ba3416a	0.004982163
117	0x3b415123	0.0029497824
118	0x3c73d36f	0.014881953
119	0x3a5d7f97	0.00084494933
120	0x3b7b0e3b	0.0038308043
121	0x3ae0073f	0.0017092003
122	0xba17bd5d	-0.000578841
123	0x3c201fd4	0.009773213
124	0xbc206bca	-0.009791324
125	0x3c9f441f	0.019441662
126	0x3c1dd62a	0.00963358
127	0x3bb37b39	0.005477336
