Assets/ZooheimTest/Models/0609_SimpleModel/LionFBehavior.onnx (onnx, 189617 bytes, 14 tensors)

discrete_act_size_vector f4 [1, 3]
000000 00 00 00 40 00 00 40 40 00 00 80 3f
       2.0 3.0 1.0

network_body.observation_encoder.processors.0.normalizer.running_mean f4 [210]
000000 26 70 90 3e 4f 8f 44 3e 32 05 8e 3c 0e 88 22 3c
       0.28210562 0.19195293 0.017336462 0.009920133
000010 03 d8 e0 3b 34 dd 6e 3b 42 9b 89 3b 6a 76 0c 3c
       0.006861688 0.0036447765 0.0041994164 0.008573154
000020 25 2c 77 3b f2 69 84 3b eb 5b ab 3b eb c7 9b 3b
       0.0037715521 0.00404095 0.0052294633 0.0047540567
000030 b6 ea ac 3c 55 b6 32 3e 19 cd 91 3e ac 47 3e 3e
       0.021108013 0.17452367 0.2847679 0.18582028
000040 48 58 6e 3c 95 7b 1a 3c 1a f5 c8 3b ce 3d 8d 3b
       0.014547415 0.009428878 0.006132734 0.004310346
000050 20 39 9a 3b 8c 44 ec 3b d0 66 62 3b 69 18 75 3b
       0.004706517 0.00721032 0.0034546144 0.0037398583
000060 3e c3 a8 3b dd b8 8c 3b 0e 01 b6 3c 5b 5c 36 3e
       0.005150228 0.0042944984 0.0222173 0.17808668
000070 04 51 8c 3e c6 2f 44 3e 01 51 74 3c 1f 6f 12 3c
       0.2740556 0.19158849 0.014911891 0.008937626
000080 f2 ba f8 3b 4f 74 a0 3b 0c 7a 49 3b ff 78 13 3c
       0.007590645 0.0048966776 0.0030742912 0.009001016
000090 99 53 7b 3b dc 4c 9c 3b 74 c8 b6 3b ea 25 b3 3b
       0.0038349389 0.0047699045 0.005578095 0.005467166
0000a0 a1 39 b5 3c 6c 66 37 3e 8f 7a 90 3e 89 f3 2f 3e
       0.022122206 0.17910165 0.28218505 0.17182745
0000b0 e4 9e 46 3c 67 25 18 3c c4 f9 bb 3b 8e 7a 64 3b
       0.012122843 0.009286261 0.0057365615 0.0034863087
0000c0 db 82 94 3b a0 97 cc 3b 36 dd 6e 3b 10 60 83 3b
       0.0045322007 0.006243661 0.003644777 0.0040092543
0000d0 11 f4 92 3b ab 7d 86 3b d2 c4 b9 3c 12 f3 3d 3e
       0.0044846614 0.0041043363 0.022676859 0.18549755
0000e0 f1 f0 84 3e 54 16 41 3e a2 61 54 3c de 09 01 3c
       0.25965074 0.18856174 0.012962731 0.007875888
0000f0 99 1d 03 3c ab db 9d 3b 39 49 5f 3b cb 58 09 3c
       0.008002662 0.004817446 0.0034070744 0.008382986
000100 47 d1 81 3b 97 96 96 3b a7 6f ad 3b e5 ef ba 3b
       0.0039617154 0.0045955884 0.005292851 0.005704867
000110 91 6d c1 3c 58 90 43 3e 6e 84 89 3e 23 11 23 3e
       0.023611816 0.19098032 0.26858848 0.15924506
000120 da 4c 1c 3c ba a7 11 3c a8 db 9d 3b 0a 0e 59 3b
       0.009539807 0.008890087 0.004817445 0.003311994
000130 de ee 84 3b 52 08 b0 3b af dc 53 3b 25 2c 77 3b
       0.0040567955 0.0053720856 0.0032327583 0.0037715521
000140 bc 49 7a 3b e2 ab 69 3b 17 f5 c8 3c 96 67 4a 3e
       0.0038190922 0.0035655429 0.02453093 0.19766077
000150 41 a8 74 3e da e0 33 3e 0a e6 39 3c 28 98 e7 3b
       0.23892309 0.17566243 0.0113463495 0.007067699
000160 00 a2 e8 3b 43 65 91 3b 05 0e 59 3b ba 13 02 3c
       0.00709939 0.00443712 0.0033119929 0.0079392735
000170 35 56 82 3b 21 6f 92 3b ec 69 84 3b a6 39 b5 3b
       0.003977562 0.004468814 0.004040947 0.005530554
000180 75 a0 d7 3c 63 c7 51 3e 51 ed 73 3e 2c 99 1d 3e
       0.026321629 0.20486216 0.23820998 0.15390462
000190 42 ec fd 3b 2f 05 0e 3c 51 e0 90 3b 38 b5 4f 3b
       0.0077491114 0.008668228 0.004421272 0.0031693708
0001a0 a9 47 8e 3b 95 cc 8e 3b 08 0e 59 3b 0c 52 2a 3b
       0.0043420387 0.004357884 0.0033119936 0.0025988845
0001b0 46 8e 66 3b 4c 8e 66 3b 10 6d e6 3c c5 cc 5b 3e
       0.0035180016 0.003518003 0.028128177 0.21464832
0001c0 0a 5f 55 3e 61 25 30 3e a8 f6 19 3c 3d 57 b8 3b
       0.20837036 0.17201759 0.009397186 0.005625634
0001d0 a2 03 bd 3b 43 65 91 3b ec c7 1b 3b 5e ab ce 3b
       0.0057682553 0.00443712 0.0023770286 0.0063070497
0001e0 35 71 7e 3b dc b8 8c 3b 92 52 45 3b 72 34 a7 3b
       0.00388248 0.004294498 0.003010903 0.0051026875
0001f0 b5 cf f0 3c b7 92 66 3e 30 05 46 3e d9 fb 27 3e
       0.029395917 0.22516905 0.19337916 0.16404666
000200 70 fe ae 3b 38 13 e7 3b cd 73 85 3b 40 8d 30 3b
       0.00534039 0.0070518516 0.0040726424 0.002693966
000210 fd ae 8b 3b 2b 70 48 3b f6 f0 70 3b dc 3f f9 3a
       0.0042628036 0.0030584435 0.0036764718 0.0019016224
000220 0e 52 2a 3b 00 a2 68 3b c9 65 ec 3c 47 5d 6b 3e
       0.002598885 0.003549695 0.028857129 0.22984801
000230 32 3b 26 3e 1d 54 36 3e 67 ac 04 3c f7 6a ba 3b
       0.16233519 0.17805524 0.008097745 0.0056890207
000240 a3 03 bd 3b 45 65 91 3b cb d1 1c 3b 74 34 a7 3b
       0.005768256 0.004437121 0.0023928757 0.0051026884
000250 ee f0 70 3b dd ee 84 3b f4 34 42 3b cb 9b a4 3b
       0.00367647 0.004056795 0.0029633613 0.005023455
000260 fc f1 06 3d e8 a8 77 3e 9e 2b 1c 3e e5 25 2b 3e
       0.032945618 0.24185526 0.15251014 0.16713674
000270 ec 91 a3 3b 13 e7 ef 3b 21 a5 8a 3b 88 e5 1e 3b
       0.0049917605 0.0073212474 0.0042311107 0.0024245698
000280 77 5d 7c 3b 3e 8d 30 3b 81 35 5d 3b 07 7a c9 3a
       0.0038507858 0.0026939656 0.0033753815 0.001537145
000290 76 a0 17 3b 48 fa 56 3b 1a 10 05 3d 3b bc 7b 3e
       0.0023136414 0.0032802988 0.03248606 0.24583523
0002a0 80 78 f8 3d 9c 53 43 3e dd b8 0c 3c d8 e0 ab 3b
       0.121323586 0.19074863 0.008588997 0.0052453093
0002b0 c9 d1 9c 3b 73 d6 8f 3b 96 2a 26 3b b9 c2 8d 3b
       0.0047857505 0.004389578 0.0025354973 0.0043261913
0002c0 e2 17 5a 3b 55 16 89 3b d4 d2 52 3b ec 33 8c 3b
       0.0033278395 0.0041835704 0.003216912 0.0042786505
0002d0 3e a8 0c 3d ab b9 81 3e 93 37 f9 3d 0a 52 2a 3e
       0.034340136 0.25336966 0.12168803 0.16632858
0002e0 62 5b 90 3b e0 75 f1 3b 31 20 8a 3b 52 3e 28 3b
       0.004405425 0.007368788 0.0042152633 0.0025671911
0002f0 34 56 82 3b 38 dd ee 3a 3c b5 4f 3b b4 dc d3 3a
       0.0039775614 0.0018223887 0.0031693717 0.0016163797
000300 b7 b4 34 3b e2 17 5a 3b 07 5f 0d 3d 8a c3 82 3e
       0.0027573535 0.0033278395 0.034514453 0.2553981
000310 0c d9 c6 3d 7a ff 44 3e 12 f4 12 3c d8 aa b3 3b
       0.09709367 0.19238082 0.008969324 0.0054830126
000320 a9 47 8e 3b 7c c9 6c 3b 00 0d 23 3b 46 8e 66 3b
       0.0043420387 0.0036130836 0.0024879575 0.0035180016
000330 c9 65 2c 3b 87 87 87 3b 96 2a 26 3b 9f bf 6b 3b
       0.0026305786 0.004136029 0.0025354973 0.003597237
000340 89 1b 17 3d 1f 35 86 3e
       0.036891494 0.26212403

network_body.observation_encoder.processors.1.normalizer.running_mean f4 [9]
000000 91 f5 89 42 f9 26 a5 42 20 f6 de 3d c3 f7 89 42
       68.97962 82.57612 0.10886788 68.98391
000010 a1 44 a5 42 8d 6d e1 3d cb f8 89 42 ee 61 a5 42
       82.63404 0.11007223 68.98592 82.69127
000020 01 e5 e3 3d
       0.111276634

network_body._body_endoder.seq_layers.0.weight f4 [128, 219]
000000 d5 f0 2a 3d be ec 80 3d 15 31 c0 bc 97 1a cd bd
       0.04173358 0.06295155 -0.023460904 -0.10014837
000010 51 50 c9 3d b0 54 ce 3c da d3 1f bc 79 e4 99 bd
       0.09829772 0.025186867 -0.009755099 -0.07514281
000020 7d de 37 3d 86 d4 24 be 09 bb e6 3d 6b f5 8c bc
       0.044889916 -0.16096696 0.11266143 -0.017206868
000030 76 c0 bf 3c aa 78 d6 bb 44 59 c6 3c 9c 75 b6 bd
       0.023407202 -0.006545146 0.024212487 -0.08909151
000040 4f ca 9b 3d 60 92 15 3d 5b c0 8f 3d 4d dc b2 3d
       0.07606947 0.036516547 0.07019111 0.08733425
000050 5c 01 07 be c5 d7 e2 bc c1 ce ec bc 18 d2 57 bc
       -0.13184112 -0.027690778 -0.028907182 -0.013172649
000060 a2 29 22 bb bf dd f6 3c 3a 53 36 bd 72 25 82 3d
       -0.0024744053 0.030135034 -0.044512965 0.063547984
000070 89 b9 d3 3d f3 17 78 be fb 88 85 bc d4 dc 34 3d
       0.103381224 -0.24227886 -0.016300669 0.04415591
000080 ce 21 b7 bc f5 92 33 3d 44 50 4e 3d ad f8 cb 3d
       -0.022354987 0.04384132 0.050369516 0.099595405
000090 8c c4 18 bd b7 7d 9b bd ed f8 2d bd 56 22 3d 3d
       -0.037296817 -0.075923376 -0.042473722 0.046175323
0000a0 21 54 c8 bd af 36 8e 3c 9d 52 79 3d 51 89 ea bd
       -0.09781671 0.01736006 0.0608698 -0.11451972
0000b0 ce 1b c0 bd 7b 95 0b 3c c0 fc 8b 3c 3c af 1c bd
       -0.09380303 0.008519526 0.017088294 -0.038253054
0000c0 b6 7c 90 3a 33 be bb 3b 0a 3c 9a bd 11 84 ff bb
       0.0011023495 0.0057294606 -0.07530983 -0.007797726
0000d0 a0 c7 a6 3c 2d 08 a7 3d 7a 9a 90 3d 77 13 72 3d
       0.02035886 0.08155856 0.07060714 0.059100594
0000e0 48 31 2c bc d6 92 8e bc 8e 83 05 3d 74 62 d8 bd
       -0.010509796 -0.017404001 0.032596163 -0.105656534
0000f0 73 4c 44 bd 23 85 bf 3d e0 22 43 3d bc cd 14 3c
       -0.04792447 0.09351566 0.04764068 0.009082254
000100 3e 37 bb 3c 81 f2 b1 bc 00 27 94 3c a1 8b ba 3c
       0.02285349 -0.02172208 0.018085003 0.022771658
000110 63 cb 53 bd 54 34 33 bd d9 de ad 3d 14 ec 92 3c
       -0.051707637 -0.043751076 0.084897704 0.017934836
000120 ab 57 8f bd 83 3e 99 bd 5a ca ea bb 48 c6 84 bd
       -0.06999143 -0.07482626 -0.0071652355 -0.06483132
000130 6a 53 83 3c 5e 81 af bd 8f 52 7d bd df f3 89 3d
       0.016030986 -0.08569597 -0.061846312 0.06735968
000140 e9 ff 78 3d 82 f9 8d 3d 76 4a 06 bd 9e ae 08 3d
       0.06079093 0.069323555 -0.032785855 0.033369653
000150 ee 29 f5 3d fd 7e 87 3d 19 a2 2a bd d2 af de bc
       0.11970888 0.06616018 -0.041658495 -0.027183447
000160 67 60 0a be 3c 5a ec bd c6 38 e5 3d 67 e3 d3 3b
       -0.13513337 -0.11540648 0.11192469 0.0064663175
000170 b9 64 a4 bd 9b a8 85 3d 86 4c 1e bd 89 1e b7 3d
       -0.08027024 0.065262996 -0.038647197 0.08941371
000180 2f 01 dd 3d ec 6e 01 be c5 5a 4b be 75 65 14 bd
       0.107912414 -0.1263997 -0.19858845 -0.03622957
000190 21 32 a7 bd e3 2c 2d 3e cc 19 f5 3d 27 27 0d 3d
       -0.08163858 0.16911654 0.11967811 0.034461167
0001a0 8e a7 9d 3c a4 7d a3 3d e0 e5 96 bc 26 e5 c9 bc
       0.019244935 0.079829484 -0.01842016 -0.0246454
0001b0 9a c7 c9 3c c1 d2 ff 3b 1c ed a3 bd e9 66 9e 3d
       0.02463131 0.0078071062 -0.080042094 0.07734472
0001c0 b3 77 eb 3d e8 ed 2a bd 41 73 7b 3c d9 a0 f9 bc
       0.1149744 -0.04173079 0.015347303 -0.030472206
0001d0 16 eb 8e 3d e4 a8 05 bd 83 f3 f1 bc 93 70 49 3d
       0.06978433 -0.03263177 -0.02953506 0.049179625
0001e0 b2 13 da 3d 3d cb 41 3c e7 c2 99 3d 74 f0 f8 3d
       0.10648288 0.011828241 0.07507878 0.12155238
0001f0 9f 4d 60 3d 95 3b f7 3c 68 d2 09 3e e2 3c 04 bd
       0.054761525 0.030179778 0.1345917 -0.032284625
000200 1a 1d 63 bd 47 0d cc bc 59 f2 b7 3d 76 37 87 bc
       -0.055447675 -0.024908675 0.08981771 -0.016505938
000210 5b 7d 5f 3d c3 20 a0 3d 6f c1 80 3c 7d a8 08 bd
       0.054562908 0.07818749 0.015717236 -0.033363808
000220 6e 6e 36 bc 6e 3d fd bd ef 6d 8c bd 02 3e 06 3d
       -0.011134727 -0.123652324 -0.06856906 0.03277398
000230 01 8c 82 bd 42 f0 66 3c 74 45 82 bd 58 84 c7 3d
       -0.0637436 0.014095368 -0.063609034 0.097420394
000240 e2 96 43 bd f3 27 06 be a0 ac 53 3d 54 ba 1f 3d
       -0.047751315 -0.13101177 0.0516783 0.038996056
000250 6d b5 0a 3b 7c 20 7a bd 8d 4a e4 bc fa 05 a8 bb
       0.0021165267 -0.061066136 -0.02786758 -0.0051276656
000260 b5 02 f8 bc 79 91 0e 3d 26 d1 c3 bc 41 a0 61 bd
       -0.030274728 0.034806702 -0.02390344 -0.05508447
000270 17 40 e4 bc 9f 4d e6 3d 0d 63 67 bd 47 d2 f9 bc
       -0.027862592 0.11245274 -0.056490947 -0.030495776
000280 41 6b 18 3c d4 bb 38 3e cd 05 0a 3e 51 d8 99 bd
       0.009302915 0.180404 0.13478775 -0.07511962
000290 a7 f9 ac bc 05 ba 29 3d fa bd 88 bd 30 b6 b9 bd
       -0.021115137 0.041437168 -0.0667686 -0.09067953
0002a0 29 ae 85 3d 02 05 b8 3c 56 16 02 3e 2c b0 77 3d
       0.06527359 0.022463325 0.12703833 0.060470745
0002b0 1f 94 35 3e 25 be 66 3c 92 3e 1e bd 2f 6e 94 bd
       0.17732285 0.01408342 -0.03863389 -0.07247578
0002c0 1e 91 a1 3c 49 c0 40 3e 21 c9 88 3d 64 2c 4b bb
       0.019722518 0.18823351 0.06678987 -0.00310018
0002d0 3e c0 df bc 5b bd 8c bd d5 5c fb 3d 40 8c 72 bd
       -0.027313348 -0.06872054 0.12273566 -0.059215784
0002e0 ab 19 dc ba 57 72 df 3d 2a 93 83 bd 88 03 ad bd
       -0.0016792318 0.109104805 -0.06424554 -0.08447939
0002f0 2a d2 31 3d 2d 2b 96 bd 6c 54 84 3d ab b2 e4 bb
       0.04341332 -0.07332454 0.06461415 -0.0069793067
000300 77 a6 09 bd 5a ac 0c bd 81 f7 f5 3c dc b3 b0 3d
       -0.03360602 -0.034344055 0.030025246 0.086280555
000310 70 2d 11 bd aa e1 6c 3d cc ed 9d 3d 5d 79 a4 bd
       -0.035443723 0.057832398 0.07711372 -0.08030961
000320 99 82 0d 3e cf 63 70 3d 2c f8 07 be df 6f c4 3c
       0.1381935 0.058688935 -0.13278264 0.023979126
000330 06 42 a6 bd 67 55 1e bd 02 72 18 bc ae 6c 47 3d
       -0.08118062 -0.038655665 -0.009304525 0.04868763
000340 c1 4d 3e bd 80 85 0b bc 09 9c f5 3d 98 16 ba bc
       -0.04646087 -0.008515716 0.11992652 -0.022715852
000350 b9 cc 80 3d 5d 1d 25 3d 20 f6 a5 bc ec c6 e6 3a
       0.06289048 0.040311206 -0.020258963 0.0017606891
000360 3a eb 80 bd 6e 4e be 3d a8 55 cb 3c cf eb e6 ba
       -0.06294866 0.09292303 0.024821118 -0.0017617884
000370 b7 13 9b bd 7a ad 1c bd 46 e1 93 bd 19 2f bc 3c
       -0.0757212 -0.038251378 -0.07220702 0.022971677
000380 46 b0 17 3d 82 53 58 3d a9 93 35 3c fe a6 9d bd
       0.03703334 0.052814014 0.011082568 -0.07697867
000390 80 ed e8 3a 43 6e c6 3a 06 fa 2f 3d 03 a1 2d 3d
       0.0017770976 0.0015139062 0.04296305 0.04238988
0003a0 55 8d 9c bc 69 3b ca b8 32 d7 a9 3c 12 22 79 bc
       -0.019110361 -9.6431766e-05 0.020732496 -0.015205877
0003b0 27 0f 55 3d 46 4c 44 bd f5 96 74 bc 95 30 7a bd
       0.052016404 -0.047924303 -0.014928569 -0.061081488
0003c0 87 a4 bd bd ec 06 ac 3d ad d6 4a 3c e5 77 29 3d
       -0.09259897 0.08399758 0.012380284 0.041374106
0003d0 a8 9a 1e 3c df 6d 4c bd c9 33 f3 39 25 8d d2 bc
       0.009680428 -0.04990947 0.00046387155 -0.025702069
0003e0 3a 8d 9b bd bc 09 60 3c 64 d3 01 3e 25 fe af 3d
       -0.07595296 0.013674196 0.12678295 0.08593396
0003f0 1d 8a 85 bd 69 e9 58 3d 71 fa 83 3d 61 70 99 3d
       -0.06520484 0.052956972 0.06444252 0.07492138

network_body._body_endoder.seq_layers.0.bias f4 [128]
000000 34 73 08 3b fd ce 2f bc bd e7 37 3c 24 b7 bf bc
       0.002082062 -0.010730502 0.011224684 -0.023402758
000010 41 56 22 bc 16 c5 0c ba 00 41 81 3b 4d 96 5e bc
       -0.00990826 -0.0005369944 0.003944516 -0.013585639
000020 cd 1b 59 3c 1c 49 5e bc f8 3c 34 bc 4e e8 a0 bb
       0.013251257 -0.013567235 -0.011000864 -0.0049105054
000030 c4 a7 e7 b9 1d ea 5a 3c ea 97 49 bc 56 3c c7 3a
       -0.0004418475 0.013361481 -0.012304286 0.0015200477
000040 73 0d 5f b9 e9 97 28 bc 1a ac 57 bc 21 f3 36 bc
       -0.00021271947 -0.010290124 -0.013163591 -0.011166365
000050 22 b9 c9 38 7c 03 2b bb 78 2d 77 ba c3 6e ac ba
       9.6189106e-05 -0.0026094606 -0.00094290776 -0.0013155568
000060 70 85 5e bb 1b f0 3f 3a 30 b0 96 bc 29 03 55 3c
       -0.0033954047 0.000732185 -0.01839456 0.013001242
000070 18 18 ac 3b ce f7 98 bb 8e 14 c7 39 c8 5c 89 3c
       0.0052518956 -0.0046682125 0.00037971552 0.016767874
000080 1b 2d 56 3c 88 11 f2 39 6e f3 8f bc 95 4b 6e bc
       0.013072277 0.000461709 -0.017572131 -0.014544387
000090 f0 5c 77 3c 24 94 96 3a 12 9a 97 bc 35 72 09 bc
       0.015097842 0.0011488241 -0.018506084 -0.0083890455
0000a0 b4 1d d8 ba 28 2b 53 bc 2c 05 84 3b 37 57 06 3c
       -0.0016488344 -0.012888707 0.004028937 0.008199505
0000b0 ee bd 29 bc 2f 30 09 bc 71 15 96 ba c2 2c 3d bc
       -0.010360224 -0.008373304 -0.0011450482 -0.011546316
0000c0 76 98 bc bb 20 a9 a3 bb 58 fc bb bb e1 0e de 3c
       -0.0057554794 -0.0049945265 -0.005736869 0.027106704
0000d0 d3 a2 e6 3b ff 8b 84 bb 3d 25 ea bb 4a ef 90 3c
       0.007038453 -0.004045009 -0.0071455524 0.017692227
0000e0 3a 46 c4 3a e0 cd cd ba 62 05 53 3c 77 e5 b8 3c
       0.0014974542 -0.0015701614 0.012879701 0.022570355
0000f0 52 c3 11 bc b5 28 fe bb 6d 21 51 3c 77 53 aa bc
       -0.008896666 -0.0077563175 0.012764317 -0.020791752
000100 fd 53 13 3c 89 a9 b3 bb db a8 02 3c eb 83 21 3c
       0.008992192 -0.0054828566 0.007974829 0.009858112
000110 9f ae 9a 3b 08 bb e3 3a d1 ea 69 bc ae ba 62 3c
       0.0047205235 0.0017374465 -0.014277176 0.013838453
000120 8f 09 27 3a 75 29 77 3c 37 23 74 bc 43 11 63 3c
       0.0006371969 0.015085568 -0.014900974 0.013859096
000130 b9 5d 4d bc fa c9 8c bc 79 b9 00 3c 89 3a ae b9
       -0.012534552 -0.017186154 0.00785672 -0.00033231478
000140 3a 65 af ba c6 c5 1e 3a d5 5e a5 bc 65 e6 64 3c
       -0.0013381608 0.0006056692 -0.020186821 0.013970946
000150 df 40 79 3c ce 9f 05 bb 3c 6d 04 3b be 21 f2 3b
       0.01521322 -0.002038944 0.002020671 0.0073892763
000160 f0 fb 87 bc c0 7b 54 bc d1 a3 a2 bb 27 43 93 bb
       -0.016599625 -0.012968957 -0.004963376 -0.004494089
000170 1c 90 b8 39 92 3b c3 bc 61 74 44 3c 8e 4c fd 3b
       0.00035202585 -0.023832116 0.0119906375 0.0077300733
000180 68 dd 89 bb 23 24 82 bc 52 f4 c7 3a ea 0f a8 bb
       -0.004207302 -0.015886372 0.0015255308 -0.00512885
000190 19 0c 1a bc e6 6e 00 bb a9 b3 39 3c 9d c9 c5 3c
       -0.009402298 -0.001959735 0.011334338 0.024143988
0001a0 a5 cb 73 3c 45 02 74 3b 98 0e 32 3c ab 1a 31 bc
       0.014880096 0.0037232798 0.010867737 -0.010809581
0001b0 ca 40 ad ba 79 3e 82 bb ce ea a6 bb f4 da 13 bc
       -0.0013218161 -0.0039747325 -0.005093909 -0.00902437
0001c0 a9 44 8b bc d7 45 94 3a 3c f8 88 39 10 23 1a 3c
       -0.017000513 0.0011312318 0.0002612489 0.009407774
0001d0 8f fd 4d bc 12 9b 92 3c 11 af a4 bb c5 1b bf bb
       -0.01257266 0.017896209 -0.0050257524 -0.005832168
0001e0 8c 6c 65 bc fa eb 1f 3c 3a b0 17 3c ee 7e 57 bc
       -0.01400293 0.009760851 0.009258324 -0.013152821
0001f0 58 c0 2a 3c e5 97 2b bc 45 f7 21 bc 6d 1f cf bb
       0.010421835 -0.010473226 -0.009885614 -0.006320885

network_body._body_endoder.seq_layers.2.weight f4 [128, 128]
000000 af 1d 85 3d 05 71 19 3c 51 88 b7 3c a3 17 16 3e
       0.06499802 0.009365325 0.022403868 0.14657454
000010 61 98 e8 3d d6 b7 f7 bd 05 8b f2 3d 84 0d f6 bc
       0.11357189 -0.12095611 0.11842922 -0.030035742
000020 00 dd 53 bd 75 43 b0 bc cc 38 a3 3d 9f bf 96 bc
       -0.051724434 -0.021516541 0.079698175 -0.018401919
000030 ed cd 85 bb 28 d8 ae bc d9 5d ac bc 42 76 a2 3d
       -0.004083386 -0.021343306 -0.021040844 0.07932712
000040 66 16 b0 bd a8 dc 0a 3e 1f 59 ea bd 82 69 10 3d
       -0.08598022 0.13560736 -0.1144278 0.03525687
000050 6a 06 62 3b 76 7c 9e bd 50 20 4d 3d 10 a6 f9 bd
       0.0034488686 -0.07738583 0.050079644 -0.12189877
000060 e1 33 11 bd ea 9a c4 3d f2 89 ba bc a4 48 33 ba
       -0.035449866 0.0959986 -0.022770856 -0.00068391324
000070 c0 5c 00 bd 96 4f 06 3e 58 09 cb 3a 24 f8 99 3d
       -0.031338453 0.13116297 0.0015490456 0.07518032
000080 be 53 bc bd 39 06 3a 3c d0 cf 81 3e 64 9f 52 bd
       -0.0919566 0.011354023 0.2535386 -0.051421538
000090 cd 33 4f be 58 18 64 3d a3 76 02 3b fa 36 32 3e
       -0.20234604 0.05568728 0.0019907139 0.17403784
0000a0 a0 c4 b8 3b 54 5f 55 be 7c 83 8c 3d 91 1c 23 be
       0.005638674 -0.20837146 0.06861016 -0.15928866
0000b0 70 04 d4 3d 21 be c9 3d 28 28 0b 3d f7 41 7d 3d
       0.10352409 0.09850717 0.033973843 0.061830487
0000c0 e3 85 40 3d 30 e1 7b 3c 46 57 66 3c e7 a8 02 be
       0.047002684 0.015373513 0.014058894 -0.12759744
0000d0 07 7c 39 bd 84 20 d1 3c ec bd 39 be d5 97 d7 bd
       -0.045284297 0.0255282 -0.18138856 -0.105270065
0000e0 47 17 00 3c c4 3e 96 3d b5 02 47 3d 1d 2d 9e be
       0.00781805 0.0733619 0.048586566 -0.30893794
0000f0 33 14 dd 3d 71 e0 44 3c 94 db 27 3d 6c 8f 08 bd
       0.10794868 0.012016402 0.04098089 -0.033339903
000100 97 31 7d bc 8e 8a e4 3d 91 ce 44 3d fd 8c ed bc
       -0.015453718 0.1115924 0.04804856 -0.028997893
000110 77 60 a5 3d 7c 9b 34 3d f9 c1 e6 bd ec fc 2e be
       0.0807504 0.044093594 -0.11267466 -0.1708867
000120 86 7f b9 3d 66 e2 99 3e 36 4f ed bd f1 70 ae bd
       0.09057526 0.3005554 -0.11587374 -0.085176356
000130 24 d3 f2 bb d2 ad 0c be ff 35 70 bd 10 f9 a8 3d
       -0.007410424 -0.13738182 -0.058645245 0.0825063
000140 34 0e 1b be 5d b0 ad bd 51 f6 d7 3d f0 e9 f9 bc
       -0.15142137 -0.08480904 0.10545028 -0.030507058
000150 04 15 50 3d 4a 5c d9 3d a1 53 18 3e 55 2f 34 3c
       0.050801292 0.10613306 0.14875652 0.010997613
000160 e4 7f 4f bd cc bd 1a 3e 0f 47 d0 3c c2 23 13 bd
       -0.050659075 0.15111464 0.025424508 -0.035922773
000170 c4 ae f1 bc aa 83 7e 3d 55 2d 70 3d b7 ec 28 3e
       -0.02950228 0.062137283 0.058636982 0.1649655
000180 1b 14 0d 3d 43 f6 42 3d f0 0a 3e bd df 34 a8 bd
       0.034443002 0.047598135 -0.04639715 -0.08213209
000190 fc 8e 6a bc 9c a8 5a 3d f5 a9 f3 3c e6 6a bf 3d
       -0.014316317 0.053383455 0.029744128 0.09346561
0001a0 85 3c 7c bb 91 0e 8b bc 86 f5 62 bd ef 2d 0d 3e
       -0.003848822 -0.01697472 -0.05540993 0.13787054
0001b0 ca 8d 3f bd a4 9e 52 3d 77 82 73 3d 09 da ad 3c
       -0.04676608 0.051420823 0.059450593 0.021222131
0001c0 5e 03 c2 3d 04 1e b9 3d b5 8a 8b bd 97 0a 9c 3c
       0.094732985 0.09038928 -0.06813566 0.019048018
0001d0 6c 2e e3 3d 69 65 34 bc 8a 4a 85 3d 4f 52 b7 bc
       0.11092839 -0.011010506 0.06508358 -0.022378115
0001e0 bb a7 25 3d 78 7d 1e be a2 16 81 bd 1c 76 d4 3d
       0.040443163 -0.1547755 -0.06303145 0.1037409
0001f0 a2 04 15 3e 9a bc 99 3c 4a 94 56 bd e7 35 8d 3c
       0.14552549 0.01876669 -0.052387513 0.017237617
000200 65 1f db 3d 24 a5 c3 3d 2c a0 cc 3b 24 6c e9 3c
       0.106993474 0.095529824 0.00624468 0.028493948
000210 82 91 c0 3d c0 7e a4 bd 12 ff 11 be d9 6f b2 3a
       0.094027534 -0.08031988 -0.14257458 0.0013613655
000220 eb 1f f2 3d b6 7a 9b 3d 6d 6e 06 be c8 98 58 be
       0.11822494 0.07591765 -0.13128062 -0.21152031
000230 e1 a4 cc 3d 62 01 0d 3b da 31 ac bd 33 45 f1 3d
       0.09992386 0.0021515717 -0.08407946 0.11780777
000240 c6 11 ce 3c 75 d4 97 bd 74 ec a5 3d c3 aa bb 3d
       0.02515496 -0.0741357 0.081017405 0.091634296
000250 9e 8b 85 3c 93 99 25 3e 4c a9 18 be 81 59 d0 3c
       0.016301926 0.16171865 -0.14908332 0.025433304
000260 fe 41 06 bc e0 7e 30 3e 37 3e dc bd de cb a3 bd
       -0.008194445 0.17235899 -0.10754054 -0.07997869
000270 2f b9 b8 3c be 70 95 3c 00 ad e9 3c a7 31 aa 3d
       0.02254924 0.018242236 0.028524876 0.08310252
000280 d7 90 80 3d 77 b3 bb bd 2a 2e 98 3c 5e f4 6c bd
       0.06277626 -0.091650896 0.0185767 -0.057850234
000290 d6 d0 e2 bc e7 0b ef 3d ee 50 f3 3d 97 0b a6 bd
       -0.027687471 0.11672192 0.118806705 -0.08107679
0002a0 ca b7 f9 bd 4d 1f d8 bd ef e8 9a bd 30 48 04 be
       -0.12193258 -0.10552845 -0.0756396 -0.12918162
0002b0 cb 1b 64 3b c0 00 17 bc 17 ec d3 bd 4c f7 b2 bd
       0.0034806605 -0.009216487 -0.10347765 -0.087385744
0002c0 6c 55 ba 3d 49 5d 1f bd 5b 34 15 bc f8 6e 3e 3d
       0.09098324 -0.038907323 -0.009106721 0.046492547
0002d0 7f 71 00 3e bd bd c1 3d 38 6e 87 3d 61 cb a1 3d
       0.12543295 0.09460018 0.066128194 0.079001196
0002e0 33 d0 67 3c 77 21 e9 bd 3e 9c 78 bd 15 96 88 3b
       0.01414876 -0.11383336 -0.06069588 0.004168282
0002f0 0e f8 4d be 0d 41 cf bd 5f 45 4e 3e 49 5a 53 bd
       -0.20114157 -0.10119829 0.2014365 -0.051599775
000300 0a 75 f0 bd 91 7c d8 3d 4f 71 4a 3d 2f c9 1d bc
       -0.117410734 0.10570634 0.049424466 -0.009630485
000310 e6 06 9b bd 1e 76 d5 3d 1b ec 14 be fd 3c 66 bb
       -0.07569675 0.1042292 -0.14543192 -0.0035131567
000320 38 d8 00 3e b9 e2 9c 3d 3c de e0 bd 67 20 07 3d
       0.12582481 0.076604314 -0.10979888 0.032989886
000330 52 1c 49 bd d0 91 da 3d 3e 21 65 3d 6e 57 15 3d
       -0.049099274 0.10672343 0.055939905 0.036460333
000340 d3 d8 15 3e 67 32 b4 bd 98 c1 b1 bd 78 6a b3 3c
       0.14633493 -0.08798676 -0.08679503 0.021901354
000350 d1 bf 02 3d ad bf ba bc f4 1e f1 bd 8a 26 a4 bd
       0.03192121 -0.022796476 -0.11773482 -0.08015163
000360 55 cb f9 3c 34 91 2f bd fe 37 a7 3d 8d 06 39 be
       0.030492464 -0.042863086 0.081649765 -0.18068905
000370 dd cb 42 bb af 08 32 be 88 9a 7c 3d 37 35 d2 bd
       -0.0029723563 -0.17386125 0.06167081 -0.10264056
000380 43 3d 07 be 04 6e 22 bd 2e 14 dd bc 7d f3 09 bd
       -0.13206963 -0.0396557 -0.026987161 -0.033679474
000390 70 72 4f bc 99 ef 08 3e 67 54 33 3c 79 fb 25 3e
       -0.012661561 0.13372649 0.010945416 0.1620921
0003a0 96 34 11 be 93 82 7e bd b5 b4 06 3e a0 86 1a 3d
       -0.14180216 -0.062136244 0.13154872 0.037726045
0003b0 ba d7 6e 3d 89 52 10 bd 79 65 95 bd 7a 32 71 3d
       0.0583112 -0.03523496 -0.07294745 0.05888603
0003c0 d8 fb 88 bc f7 5f 17 3d ee ca c5 3b 37 c1 28 bd
       -0.016721651 0.036956754 0.006036154 -0.04119989
0003d0 94 e5 81 bd d5 79 34 3e 22 17 54 bd aa f7 1a 3e
       -0.06342617 0.176246 -0.051779874 0.15133539
0003e0 5b e6 04 be a2 a4 1b 3d c8 ff ee bd e7 d0 9a 3c
       -0.12978499 0.037998803 -0.1166988 0.01889844
0003f0 43 f5 60 be a8 2a e6 3d 5d a7 3a bd e1 f0 dd 3c
       -0.2196856 0.11238605 -0.045569766 0.0270924

network_body._body_endoder.seq_layers.2.bias f4 [128]
000000 1b 5a 1a bc e5 3e 26 3c 50 4c 7b 3b dc 0d 00 3c
       -0.009420897 0.010146831 0.0038345046 0.007815804
000010 4b 48 0e 3c 98 94 99 ba 8f 09 c9 bb 2c b0 e7 bb
       0.008684228 -0.0011717258 -0.0061351727 -0.007070562
000020 43 dd 1f 3c 77 c7 71 bb 81 71 c6 ba 1a 94 53 bb
       0.009757343 -0.0036892572 -0.0015140028 -0.003228432
000030 9a de 24 bc dd 0c 2d bc 01 b1 b4 bb af a3 ae bb
       -0.010062838 -0.010562149 -0.0055142646 -0.005329571
000040 43 bf a0 bb a2 39 55 3c b7 ca 08 3c 42 7f c7 bb
       -0.0049056127 0.013014229 0.008349112 -0.0060881684
000050 9a af 32 3c 55 ee 69 3c 35 c4 f8 3b 4f bc 17 bc
       0.0109061245 0.014278014 0.007591749 -0.009261205
000060 f7 07 d2 3b 22 b7 0f bb 5a c8 e5 3b 92 79 d4 3c
       0.006409641 -0.0021929224 0.007012409 0.025936875
000070 ca cb 2e 3b 3d c6 52 bc a6 72 4f 3c 06 3d e7 3b
       0.002667176 -0.0128646465 0.012661612 0.007056835
000080 07 a0 7e ba a0 36 86 bc df cf 7f 3c 6a e4 06 bb
       -0.0009713177 -0.01638347 0.015613525 -0.0020582923
000090 91 eb 90 3b 9f fc b9 3c 99 1a 16 bc 6a 3d d5 39
       0.004422613 0.022703467 -0.009161615 0.00040672283
0000a0 93 a4 72 bc 17 af a2 3b 5d 33 87 bb fc 9e 24 3a
       -0.014809745 0.00496472 -0.004125996 0.0006279794
0000b0 42 51 7d bc ab 5c c3 39 f5 1f 42 bb 49 e3 d0 bb
       -0.015461268 0.0003726234 -0.0029621099 -0.0063747508
0000c0 c0 ba 26 3b 64 65 e2 3b 75 0d 8d 3c a9 33 33 bc
       0.0025440902 0.0069090594 0.01721833 -0.01093761
0000d0 31 29 a0 3b 4c 00 2a bb f6 3d 0e bc 4f 15 92 bc
       0.004887723 -0.0025940118 -0.008681765 -0.017832426
0000e0 e3 92 1e 3b fc 05 34 bc be 7f 2d bc 84 15 22 bb
       0.0024196438 -0.010987755 -0.010589538 -0.0024732063
0000f0 2e ed 0c 3c 4d 9c 1a 3a a6 a8 5f 3c 2a 42 61 3c
       0.00860147 0.00058979244 0.013651049 0.013748685
000100 63 7d 31 bc 90 30 60 3c db 7e 55 bb 01 aa d2 bc
       -0.010833117 0.013683453 -0.0032576832 -0.02571583
000110 e3 18 a5 3c ef e3 a4 3c 85 3e 86 bb 20 16 a7 bb
       0.020153468 0.020128218 -0.0040968084 -0.005099073
000120 72 5c 20 3c a9 7a c8 bb 26 04 ab bb 5a 61 93 ba
       0.009787666 -0.006118138 -0.0052190004 -0.0011244223
000130 fa e6 a8 bb 7b 2c a4 bb 71 ae bd 3c d8 27 60 3b
       -0.0051544877 -0.0050101853 0.02315447 0.0034203436
000140 04 c6 b3 3a d9 73 0d bc 4c bf 1e bc c0 65 93 bb
       0.001371563 -0.008633577 -0.009689163 -0.0044982135
000150 41 50 bc bb 47 c2 39 bc 5c 0b 1f bc 3c f3 b6 ba
       -0.0057468717 -0.011337823 -0.009707298 -0.0013957988
000160 80 cc 2e ba 95 67 fb 3a 67 af 12 3b 10 ce 52 3c
       -0.0006668046 0.001918065 0.002238238 0.012866512
000170 7b 7a 4e ba 18 5d 60 bc a0 c8 3a bc 09 5a 26 3c
       -0.00078765274 -0.01369407 -0.011400372 0.010153302
000180 a6 d1 50 bb 20 5b 12 3b 9f 04 46 bb 1a c4 9e 3a
       -0.0031863241 0.0022332147 -0.0030215157 0.0012112886
000190 c4 e1 82 3c f8 d0 68 bc 28 da 30 3b 2c 20 ea bb
       0.015976794 -0.014209978 0.00269855 -0.0071449485
0001a0 c9 1e 3e bc 7f 31 e8 3a da 80 ac 3c 4c 64 0a bc
       -0.011604019 0.0017714946 0.021057535 -0.008446764
0001b0 f8 3f 16 3c 6b 23 69 bc 61 e0 2b 3c 28 f4 f6 bb
       0.009170525 -0.014229636 0.010490508 -0.00753643
0001c0 56 fe a5 3a 0b d7 26 3c 59 7a 8b 3a 92 be 3d bc
       0.0012664299 0.010183106 0.0010641321 -0.01158108
0001d0 04 cf f2 bb 85 f6 42 3b b0 b4 4f 3c 5d 7c 7b 3c
       -0.007409932 0.0029748988 0.012677357 0.015349475
0001e0 e9 89 b7 bb df dc fd bb 74 c3 37 bc 55 9f 1d bc
       -0.005601157 -0.007747277 -0.011216033 -0.009620507
0001f0 cd bb 50 bb d4 a9 9b bb 0d 0a ea 3b 55 87 1a 3c
       -0.003185022 -0.0047504697 0.0071423114 0.00943168

action_model._discrete_distribution.branches.0.weight f4 [2, 128]
000000 12 70 c0 bc 8a 41 96 3c d4 41 6e 3c 4a 96 08 3d
       -0.02349094 0.018341798 0.014542062 0.03334645
000010 4a 22 04 3a 62 c6 64 b9 e9 8a cd ba a4 e8 4d bc
       0.000504051 -0.00021817678 -0.0015681657 -0.012567673
000020 33 24 5d 3a bf ef 84 3c 38 15 80 ba bf 8c 04 3c
       0.0008435875 0.016227601 -0.0009771949 0.008090197
000030 b0 09 a4 bc 08 f9 bb 3b 56 af 22 bc 24 eb 66 bc
       -0.02002415 0.005736474 -0.009929499 -0.014094148
000040 eb c3 bb bc 16 29 6b 3c 11 dc 58 3c fc a3 0b 3b
       -0.02292057 0.014353057 0.013236062 0.002130746
000050 1e 38 8e 3c af 03 10 3d 03 f4 e5 3c cf c2 ac bb
       0.017360743 0.035159763 0.028070455 -0.0052722464
000060 64 48 ac 3c 07 1c 86 bb f0 b4 fb bb 23 32 10 3d
       0.021030612 -0.0040926966 -0.0076814815 0.035204064
000070 f6 f8 e7 3b e7 8b 65 bb 3c c8 66 3c 3f 48 13 bc
       0.007079239 -0.0035026015 0.0140858255 -0.008989393
000080 c0 47 0f 3c a5 94 81 3b 36 00 21 bc dc 8b 3b 3b
       0.008745134 0.0039544874 -0.00982671 0.0028617298
000090 dd a2 b1 bb 78 34 08 3d 3e dd 10 3c 15 ea b8 bc
       -0.005421026 0.033253163 0.008841811 -0.022572557
0000a0 67 bd 12 bb bb 86 bd 3c ea ca 81 3c 36 f0 f7 3b
       -0.0022390725 0.023135534 0.015843827 0.007566477
0000b0 8b 7c 51 bc b7 39 75 3b 84 b7 ce bc 3c 65 74 3b
       -0.012786041 0.0037418434 -0.025233991 0.0037291786
0000c0 c0 ab 96 bc 09 1d 04 3c c2 2e a1 3b 08 28 6a bc
       -0.018392444 0.008063563 0.004918904 -0.014291771
0000d0 fa 4b 27 3c 34 2e a1 ba a6 9d b4 bb 55 86 14 3c
       0.010210985 -0.0012297095 -0.005511957 0.00906523
0000e0 63 bb e0 bc 9f 5d ca bc 5d ab 99 bc fc ff 20 bd
       -0.027433103 -0.024702845 -0.01875847 -0.039306626
0000f0 d1 20 98 3c 1b 67 4b bd 99 d8 31 3d c1 15 18 3d
       0.018570336 -0.049658876 0.043419454 0.03713012
000100 30 bd 96 bb 38 32 d9 3a a4 a1 2d bc a8 ec 6a 3b
       -0.0046001896 0.0016570752 -0.01059762 0.0035846625
000110 19 35 6a 3c 90 4a 0b 3d 8d 89 11 bd 0a ff c8 bc
       0.014294886 0.034006655 -0.03553157 -0.024535675
000120 75 e0 87 3c 0a bb 91 3c 43 25 be bb cc 52 57 bc
       0.016586522 0.017789382 -0.005802782 -0.013142299
000130 5b ec b9 bc 43 aa e6 3b 59 ae 5f 3c 2c f5 7d bc
       -0.02269571 0.0070393397 0.013652408 -0.015500348
000140 f0 a4 9a bc f7 e5 9b bc 6c 1d 0d bc 0e 64 2f 3b
       -0.018877476 -0.019030554 -0.008612972 0.0026762518
000150 7b ed b2 bc 75 b5 9e bb ef 5b ba bc d5 57 cd bc
       -0.021841755 -0.0048434087 -0.022748915 -0.025066296
000160 62 ee d9 3c b8 0f 0a bb 68 1e 46 3c 12 48 fd 3c
       0.026602928 -0.0021066498 0.01209221 0.030918155
000170 d5 e1 e9 3b e3 13 90 bb f5 a0 f0 bc 7c 74 e9 3a
       0.007137517 -0.004396902 -0.029373625 0.0017811204
000180 d0 ed de 3b 83 22 89 bc e1 f7 34 3c 98 7f 95 3c
       0.006803252 -0.01674009 0.011045427 0.018249318
000190 a3 19 07 3d 3e 98 b7 bb 8e e7 85 3c 76 b0 a8 bc
       0.032983433 -0.0056028655 0.016345765 -0.020591956
0001a0 58 9f ad bc 3e d0 84 3c 19 6b 0b 3d 5a 11 a5 bc
       -0.021194145 0.016212579 0.034037683 -0.020149875
0001b0 31 00 c4 3c 98 a0 75 bc 2f 55 84 3c 09 2f 41 3c
       0.023925873 -0.014991902 0.0161539 0.011790999
0001c0 ce c5 3c 3c cb 22 94 3c c5 95 d6 3b ba c8 ba 3b
       0.01152177 0.018082997 0.0065486156 0.005700198
0001d0 e6 18 84 bc ec be e2 bb 74 72 33 3c 19 cd 01 3d
       -0.016125154 -0.0069197323 0.010952581 0.031689737
0001e0 83 2f f2 3b d2 5e 20 bc 94 5a 3a 3a 65 e4 04 bd
       0.0073909177 -0.009788232 0.0007108834 -0.032444376
0001f0 c6 7f 00 3c 59 b4 d2 3b a3 64 7f 3c e9 c5 39 bb
       0.007842964 0.0064301905 0.0155879585 -0.0028346723
000200 d4 17 81 3c ad 1f 18 bc 27 08 24 3c 38 65 d3 bc
       0.015758432 -0.009284896 0.010011709 -0.0258051
000210 08 64 1a bc b0 51 99 bc be 51 e5 3c 99 f5 00 3b
       -0.009423263 -0.01871571 0.02799308 0.0019677638
000220 ef e7 8b bc b1 f2 21 3c 3b 1c 7d 3c 60 38 4a 3b
       -0.017078368 0.009884522 0.015448625 0.0030856356
000230 65 ea 6f 3c 14 45 09 bc 20 94 1a bc 5b b8 d5 3c
       0.014643286 -0.008378286 -0.00943473 0.026088884
000240 3e c8 98 3c 2f 4d 12 bd 93 6c 2e bc 5a 38 64 bb
       0.01865017 -0.03571814 -0.010646003 -0.0034823627
000250 1d ce c4 3b 9b f1 4e bd 67 cc f9 bc 79 e2 9c bb
       0.006006016 -0.05052338 -0.030492974 -0.00478774
000260 37 80 68 bb f5 7c 82 3c ab c2 2a bc c9 b0 7b bb
       -0.0035476813 0.015928725 -0.010422389 -0.0038404933
000270 0a 18 df bc 98 e8 c1 3c 6d df 13 bc 40 46 93 b9
       -0.027233142 0.02367048 -0.009025437 -0.00028090365
000280 53 d2 8f bc 19 d4 f1 3b 37 a8 2e 3b fd 79 e8 bb
       -0.017556345 0.0073800203 0.0026650557 -0.0070946203
000290 e9 42 04 3c 31 60 dc bc 85 ec 5f 3b 22 d6 99 3c
       0.008072593 -0.026901336 0.0034168076 0.018778864
0002a0 03 bb 64 bc 22 be 9d bc 20 32 3e bc be 44 5c bc
       -0.013960603 -0.019255701 -0.01160863 -0.013444124
0002b0 dd 8c 14 3b 0a ef 76 bc 16 c4 a0 3c 0e 19 42 bc
       0.002266697 -0.01507164 0.019624751 -0.011846794
0002c0 77 25 93 3c f4 72 79 bc 7c 28 ef bc 3b 8a 9f 3b
       0.0179622 -0.015225161 -0.02919411 0.0048687733
0002d0 e7 dd e9 bb c1 53 14 bc 5e 2b 9b 3b 48 ef 01 3d
       -0.0071370485 -0.009053172 0.0047353944 0.031722337
0002e0 81 ab 6d 3d bf ce cd 3c e8 91 2b 3c 7c b3 ea 3c
       0.058024887 0.025122998 0.0104717985 0.028650038
0002f0 75 f6 70 bc 39 a6 db 3c 79 b9 29 bd 3c 3e 08 bd
       -0.014707197 0.02681266 -0.041436646 -0.033262476
000300 da a1 8a 3c bf 31 c6 bc 4a 10 38 bc 2c 18 7a bb
       0.01692288 -0.024193643 -0.011234352 -0.003816138
000310 d2 0a 10 bd 94 6a c9 bc 26 99 b6 3c 4e 6c da 3c
       -0.03516657 -0.024586953 0.022289824 0.026662972
000320 1f a8 a9 bc 66 9e 29 3c 6b 0a af 3c 1b b1 4e 3c
       -0.02071005 0.010352707 0.021367272 0.012615467
000330 c0 8d e7 3c 11 16 99 3a 63 c9 13 bd a8 9f 35 3c
       0.028265834 0.001167955 -0.03608073 0.011085428
000340 02 c5 59 3d 54 79 b8 3c 82 71 62 3c f9 fc 71 3b
       0.053166397 0.022518791 0.013821008 0.0036924465
000350 b9 f0 03 3d ac 55 1f bb 77 c2 2e 3c 93 f7 b9 3c
       0.032211993 -0.002431254 0.010666481 0.02270106
000360 fe ac 14 bc f9 48 2e 3b 7a 7d 40 3b c6 7b d3 bc
       -0.009074448 0.0026593788 0.0029371665 -0.025815856
000370 94 65 61 bc 66 b2 7b 3c 77 0c 8b 3c ea 6d 9f bc
       -0.013757128 0.015362358 0.016973717 -0.01946159
000380 46 b4 02 bb dc 1f d2 bb 7e 97 97 bb e7 c6 37 bb
       -0.0019943877 -0.0064124893 -0.0046262136 -0.002804214
000390 e2 b7 1c bd c1 b9 da 3b 1e fb c4 b9 79 58 ee 3c
       -0.0382613 0.0066749756 -0.0003757113 0.029094921
0003a0 66 9c 25 3c 69 7e 33 bc b1 5c 00 bd dc 2c ea 3b
       0.010108089 -0.0109554315 -0.031338397 0.007146461
0003b0 dc 26 ba bc 3d 9f 42 3b 0a f9 81 bc ef 11 a1 3b
       -0.022723608 0.0029696964 -0.015865821 0.004915468
0003c0 5a 33 81 3c 05 4b 10 bd 45 70 1a ba e6 42 94 3b
       0.015771557 -0.035227794 -0.0005891363 0.0045245765
0003d0 b4 80 c1 3c 17 0e ae 3b cb 77 18 bc 82 06 f1 bc
       0.02362094 0.0053117382 -0.009305905 -0.029422048
0003e0 cc 5b 30 bc bb cb c0 39 30 b9 65 bc 32 39 3e 3c
       -0.010764074 0.00036772885 -0.014021203 0.011610316
0003f0 95 aa 2d bb a7 ed 8e bc 03 84 36 bc 99 d7 4b bc
       -0.002649938 -0.017447306 -0.0111398725 -0.012441539

action_model._discrete_distribution.branches.0.bias f4 [2]
000000 ff 70 36 3c 02 71 36 bc
       0.011135339 -0.011135342

action_model._discrete_distribution.branches.1.weight f4 [3, 128]
000000 2c b4 48 bc 72 1d f3 3c ab 11 08 3d 6a 54 54 3c
       -0.012249988 0.029677127 0.033219974 0.012959579
000010 cc 6d 41 bd e1 51 58 bb 8c d1 d4 3c 08 f0 62 bb
       -0.04722385 -0.0033007788 0.025978826 -0.0034627933
000020 11 f2 66 bc 1e c9 aa bc fe 39 9d bc 87 08 19 bd
       -0.014095799 -0.020847853 -0.019192692 -0.037361648
000030 45 33 9e 3b 6e 59 96 3c cf 93 c3 3c 2c 0b 33 3b
       0.004827889 0.01835319 0.023874192 0.0027319891
000040 00 13 0a bd 8a 84 b6 3b bb fd dc bb 9b 0d 0b 3c
       -0.033709526 0.005569999 -0.006744114 0.0084871305
000050 16 bd 9a ba 85 5f 84 bc 41 8d 89 3b fc 10 38 bc
       -0.001180562 -0.016158829 0.004197747 -0.011234518
000060 e9 43 d2 3c 1e 4d 8b ba cd 9c cf 3b f6 93 5e bd
       0.025667148 -0.0010627841 0.006335831 -0.054340325
000070 dc 24 d8 bc fe 7b 54 bc ca 8a 9b 3b 4a 6c fe bc
       -0.026384763 -0.012969015 0.0047467696 -0.031057496
000080 d5 89 c5 bc 9d b1 62 3c 44 f6 92 bc 3a bf ca bb
       -0.024113575 0.013836292 -0.017939694 -0.0061873468
000090 d3 24 e4 bc 37 dd 5a 3d 91 e6 c2 39 93 68 6e bc
       -0.02784959 0.053433623 0.0003717435 -0.0145513
0000a0 01 b1 22 3b 89 5f a4 bb 06 7e af 3b 27 51 a5 3c
       0.002482474 -0.0050162715 0.0053555993 0.020180298
0000b0 1d b7 48 bb 30 db 0b bd 06 0b 3e bc 1a 0c a2 3c
       -0.0030626722 -0.03414458 -0.011599308 0.019781161
0000c0 78 fc 8a bb b6 f3 d0 3a b1 8e 44 bc 11 66 a5 bb
       -0.0042415224 0.0015941772 -0.011996911 -0.0050475677
0000d0 c6 94 49 bb 53 ba a8 3b 2d c4 fe 3c 16 75 a1 3b
       -0.0030758842 0.0051491647 0.031099403 0.004927288
0000e0 e6 bd e0 ba 76 5b ea 3b 49 a2 08 3c 5a da 6e ba
       -0.0017146438 0.0071520163 0.008339473 -0.00091115164
0000f0 5d d0 e5 3b 35 c7 94 3c 73 56 b1 3c 8a 70 06 bd
       0.007013364 0.018161396 0.021647668 -0.03282217
000100 11 70 5d bb bd 56 f4 bc 51 4a b6 b9 26 6f 6c bc
       -0.003378872 -0.029826516 -0.00034769115 -0.014430797
000110 1a ba ca bb 25 0c 6f 39 ef c0 8f bc 2d 5d 05 3c
       -0.006186736 0.0002279734 -0.017548053 0.008139891
000120 9d 56 d5 3c 07 1b ed bc 03 1f cd bc 3d 87 c0 bc
       0.026042277 -0.028943552 -0.025039202 -0.023501987
000130 75 04 a9 ba 81 15 b2 3c 23 a4 45 bd 11 d7 35 3b
       -0.0012895005 0.02173877 -0.048252236 0.0027746598
000140 d6 ba 3f 3b 13 65 a5 3c c0 cc 0d bc 65 85 32 bb
       0.002925565 0.020189798 -0.008654773 -0.0027240154
000150 9c 72 83 bc ff 06 75 3a a7 4f a5 bc ac 56 d7 3c
       -0.016045861 0.0009347051 -0.020179583 0.026286446
000160 52 60 95 3c 8b ae aa 3c 12 bf aa 3c 71 2d 91 bc
       0.018234406 0.020835182 0.020843063 -0.017721863
000170 1e 22 d0 3c 61 63 9c ba bc fc 1f 3c bb 45 f0 3c
       0.025406893 -0.0011931473 0.009764846 0.029330125
000180 24 f9 b9 3c 94 8e 2e 3d bf 53 01 bc 23 f8 00 bc
       0.022701807 0.04261644 -0.007893502 -0.00787166
000190 3b bf f8 3b 2b 6e 98 3a ee 21 d4 3a c5 b5 70 3c
       0.007591156 0.0011629512 0.0016184428 0.014691775
0001a0 86 6c bf 3c 6f 8c 9b bc be dd c5 bc c7 29 69 bb
       0.023367178 -0.018987862 -0.024153586 -0.003557788
0001b0 8e 30 5e bb 43 2c 08 bc df a6 c0 bc 36 a6 80 3c
       -0.0033903453 -0.008311334 -0.02351707 0.015704256
0001c0 c9 f0 c9 3c c1 6e 39 3c 4d fb 55 bc aa e2 10 3c
       0.024650948 0.01131791 -0.013060403 0.008843103
0001d0 be 9c d9 3c 8c 4a 87 3b 9e 30 83 3c 84 ac 20 3d
       0.026563998 0.0041287597 0.016014393 0.039227024
0001e0 1e 84 56 bc 4b c5 a0 3c b5 11 62 bc ce 37 97 3c
       -0.013093023 0.019625327 -0.013798167 0.018459227
0001f0 84 a0 35 bc 6f f7 5b 3c 86 f5 77 bb b8 0c 12 3d
       -0.011085633 0.013425692 -0.0037835552 0.03565666
000200 46 b8 37 3c 52 fc 10 bc 08 3e a3 3a 81 9d 86 3c
       0.011213368 -0.00884922 0.00124544 0.016432526
000210 63 42 6c 3c 90 1b 97 bb 89 d7 c1 bc 92 03 78 bc
       0.014420125 -0.00461144 -0.023662345 -0.01513757
000220 81 cf c1 bc 65 3f 10 3c f9 10 17 3c 2d 92 67 3b
       -0.023658516 0.008804177 0.009220355 0.003533493
000230 41 ea 02 bc 35 8a b5 3b 0e aa 22 3b a1 c2 0e 3d
       -0.007990421 0.005540157 0.0024820599 0.03485358
000240 5d 04 21 3d 77 66 22 bb 04 ad 9d bc 2c 0d 5b bc
       0.0393108 -0.0024780312 -0.01924754 -0.01336984
000250 99 25 47 3d 73 81 90 3c 97 e1 4f 3d 6a e2 2a bb
       0.04861984 0.017639851 0.05075225 -0.0026074895
000260 a2 3d 19 bd b0 d8 25 3d 24 eb 0e bd 0a 42 15 3d
       -0.037412293 0.040489852 -0.034892216 0.036439933
000270 f1 76 de 3c f4 7f bd bb 4e 72 53 3c 4e a9 82 3d
       0.027156325 -0.0057830755 0.01290567 0.063799486
000280 2c 34 49 bb ad c2 b8 3b 59 16 00 bd 94 50 cb bc
       -0.0030701263 0.0056384415 -0.031271312 -0.024818696
000290 e5 c7 7c bc 03 a2 47 bd 8b c1 35 39 0d 50 af bb
       -0.015428518 -0.04873849 0.00017333606 -0.005350119
0002a0 c3 72 f4 3b c5 b1 e3 bb 98 a6 e3 bb 8c 81 62 bc
       0.0074599697 -0.006948682 -0.0069473498 -0.013824832
0002b0 db 42 ae ba 0a 3e dd 3c bd 8d 64 3b c2 6c b3 bb
       -0.0013295071 0.027007122 0.0034874522 -0.0054756114
0002c0 19 bc 22 bb ce 30 ef bc 4b 29 f5 3c be 28 8f 3c
       -0.0024831353 -0.029198077 0.029926917 0.017475482
0002d0 b8 55 c9 bc 93 e9 8d bc ed 56 4c bc 28 a5 9e 3c
       -0.024577007 -0.01732329 -0.012471897 0.019365862
0002e0 20 66 d3 bc b6 56 0b bb a9 b3 a6 3c b6 56 82 bc
       -0.025805533 -0.00212614 0.02034934 -0.015910488
0002f0 92 92 03 bd 6f 1f ac 3c d9 b7 c1 3c 69 48 26 3d
       -0.032122202 0.021011082 0.023647236 0.0405964
000300 3b 83 a3 3b ff 8f 27 3b 41 6f 21 3d 4c f4 75 3b
       0.004990009 0.0025568006 0.03941274 0.0037529645
000310 6b 91 56 3c 77 d5 21 bc 08 89 05 bc e7 95 7e bb
       0.013096194 -0.009877554 -0.008150347 -0.0038846673
000320 12 e6 0e bd 00 17 8b 3c c8 75 01 3d c1 0a 04 3d
       -0.03488738 0.01697874 0.031606466 0.03223682
000330 58 4d ff 3c 50 55 75 3b b3 81 62 3c 9f 10 37 3c
       0.03116481 0.0037434883 0.013824868 0.011173396
000340 a6 45 da 3c d0 84 bb bc 24 0a 84 bc fa 6d 89 3c
       0.02664454 -0.022890478 -0.016118117 0.016776074
000350 07 62 bd bc 8a a1 23 bc 1d 7a df 3c 38 55 b0 bc
       -0.023118032 -0.009987244 0.027279908 -0.02152501
000360 53 eb ff 3b 7f c7 b6 bc f6 6f ed bc ee 9c 80 bb
       0.0078100353 -0.022311924 -0.028984051 -0.0039249575
000370 b1 86 52 ba c5 d2 83 bc 0f c7 43 ba b2 fa 9b 3b
       -0.0008030935 -0.016091714 -0.0007468322 0.00476011
000380 5a c3 c3 bb 78 7b b0 bc ea 51 ab 3c 05 3a ae bc
       -0.0059742155 -0.02154325 0.020913083 -0.0212679
000390 1f e2 c0 bc 0f b6 8b 3c 29 a6 06 3d bf 25 ca 3c
       -0.023545323 0.017054586 0.032873306 0.024676202
0003a0 0c 28 2b 38 01 eb 2f 3c 75 1d 03 3c b4 0e 07 3c
       4.0806874e-05 0.010737182 0.008002629 0.008243252
0003b0 bd 0f 5f bb 42 3b ab 3a a7 b4 8b 3c 3f 29 ae bc
       -0.003403648 0.0013063925 0.017053915 -0.021259902
0003c0 ee 80 a5 3c 0a fa bb bb 41 87 15 bc 8d 63 e2 3b
       0.02020308 -0.005736594 -0.009126485 0.00690884
0003d0 22 26 9e 3c fc 6f 26 bd 28 bd 22 3c ab 1a 6c bc
       0.019305293 -0.04063414 0.009932794 -0.014410655
0003e0 6f a4 de 3c 08 c9 ad 39 c0 20 4d 3b 9c 36 e0 3b
       0.027178017 0.0003314691 0.0031300038 0.0068424474
0003f0 9c f7 36 3c 98 62 25 3c 59 27 25 bc 41 dc 39 3b
       0.011167433 0.010094307 -0.010080182 0.0028360041

action_model._discrete_distribution.branches.1.bias f4 [3]
000000 73 e9 bd 3a 56 dd a7 bb ce 59 70 3b
       0.0014489129 -0.005122821 0.0036674622

action_model._discrete_distribution.branches.2.weight f4 [1, 128]
000000 1f 8d 8e bb f7 4a 9c bb 28 a2 65 bb d3 4c 25 bc
       -0.004350319 -0.0047696787 -0.003503928 -0.010089117
000010 da 3a 02 3a 8f 60 29 bc 90 96 11 bc 06 18 3e 3b
       0.0004967876 -0.010337963 -0.008885995 0.0029006018
000020 29 d6 b5 bb 60 e1 cb 3b 53 8f 78 3b cc 53 ca bb
       -0.0055492115 0.006221935 0.0037927225 -0.00617454
000030 81 52 9e bb 03 fa 43 3c 26 34 30 bc d9 d1 bf bb
       -0.0048316126 0.011961463 -0.010754621 -0.005853873
000040 86 5d 87 3c 51 15 43 3c f2 ef 76 ba 60 95 cd 3b
       0.016524088 0.011906938 -0.000941991 0.0062739104
000050 cb 82 33 bc 39 81 31 3b 0c 5c 41 bc 8f a9 84 bb
       -0.010956476 0.002708508 -0.011801731 -0.0040485333
000060 4f fc 8c 3b 6c 74 2d 3b 03 a8 17 bc 86 aa 05 3c
       0.0043025385 0.0026467098 -0.009256366 0.008158332
000070 b5 ca 37 bb 43 ac 06 3c c7 35 20 3a f0 55 73 3c
       -0.0028044407 0.008219781 0.0006111529 0.014852032
000080 ab 77 1a 3c f5 54 1c 3c 23 e3 2e bc dd 5e 89 bc
       0.009427945 0.00954174 -0.010674271 -0.016768867
000090 a7 c2 df 3b 57 95 e9 3b 83 ad b6 3b 6a db f0 3b
       0.0068286243 0.0071283984 0.0055748834 0.007350375
0000a0 ab 45 e5 bb b0 0b e8 ba 7f 0b d6 3a 67 44 23 bb
       -0.0069968305 -0.0017703678 0.001633033 -0.0024912597
0000b0 d3 26 c7 ba c7 ea 14 bb 1f f4 3b bc 14 3d 2c bb
       -0.0015194066 -0.0022722946 -0.011471777 -0.0026281523
0000c0 20 56 01 3c ff 80 25 bc 1f 20 aa ba a7 8e d2 3b
       0.007894069 -0.010101556 -0.0012979544 0.006425697
0000d0 2b c3 dc bb a2 43 34 ba f7 4d 36 3c a7 09 05 ba
       -0.006737133 -0.0006876533 0.011126987 -0.00050749857
0000e0 d4 54 38 3c 5c 80 10 3c eb b8 30 3c 63 f0 f5 3b
       0.011250693 0.008819666 0.010786275 0.007505463
0000f0 f7 16 59 bb dc bc 15 3c 24 3b ab 3c 03 3c 92 bb
       -0.003312526 0.009139266 0.020902224 -0.0044627204
000100 db 59 2a 3c 7a 15 c8 bc 6b 14 e4 3b e7 18 88 3b
       0.0103974 -0.024424303 0.006960442 0.004153359
000110 cb 9e 99 3a 6f 63 ee bb ec a1 a5 3a c0 a3 a3 3b
       0.0011720298 -0.007275037 0.0012636757 0.0049938858
000120 a0 b2 6b bb a2 4b ea 3b c7 cc 50 b9 28 1e d0 bb
       -0.0035964623 0.0071501294 -0.00019912711 -0.006351251
000130 98 34 fe 3a 17 ba b2 bb 83 e0 1a 3b f5 41 b7 ba
       0.0019394336 -0.0054543125 0.0023632355 -0.0013981449
000140 93 72 31 3c 91 ef a2 bb ca aa e3 ba e8 4c 34 bc
       0.010830539 -0.004972406 -0.0017369625 -0.011004664
000150 d3 a1 4c 3c 0f f8 8c bc c9 1b 8c 3b ea dc 72 bc
       0.012489754 -0.017208127 0.004275773 -0.014823178
000160 6f 4d 72 bb 9d ec bc bb 8c 7e 85 3b 4d 2f 4c bb
       -0.0036972424 -0.005765511 0.0040739235 -0.0031156123
000170 38 b4 6e bb 8e 43 bc 3a c8 74 20 bc aa ac 9f 3b
       -0.0036423337 0.0014363395 -0.009793468 0.004872878
000180 dd c4 67 ba 5b 8e 77 bc 4b e9 a1 bb 6b 02 56 39
       -0.00088412856 -0.015109624 -0.004941141 0.00020409531
000190 9c c7 37 3c a2 bd e2 3b 3e c9 2b bb 2a 4e b5 bc
       0.011217024 0.0069195786 -0.002621248 -0.022131998
0001a0 ed 57 1a bc 44 e9 af ba 4f 19 87 bb d6 36 a8 3a
       -0.009420377 -0.0013420959 -0.00412289 0.0012833725
0001b0 ff 1b 60 3b d7 74 11 3b 3d 70 2d bc 00 4a e8 ba
       0.0034196374 0.0022194886 -0.010585842 -0.0017722249
0001c0 b4 8a 29 3c 1a 4f a2 3a 79 7e 23 ba 2b 69 d8 bb
       0.010348011 0.0012383193 -0.00062368024 -0.006604334
0001d0 4f c1 fd 3b ed c8 62 bc 90 d5 50 3b fa 9e 13 bc
       0.0077439914 -0.01384185 0.0031865574 -0.009010071
0001e0 eb 7a 21 bc 63 cc 93 bc 9d cf 42 3c 58 70 da 3b
       -0.009855966 -0.018041795 0.011890319 0.0066662244
0001f0 93 b1 85 3b f4 fd 3b 3a 1d d6 60 bc 0b 44 82 ba
       0.0040800064 0.0007171326 -0.013722924 -0.0009938491
