Assets/ZooheimTest/Models/0609_SimpleModel/RabbitBehavior.onnx (onnx, 406457 bytes, 14 tensors)

discrete_act_size_vector f4 [1, 3]
2.0 3.0 1.0
00000000: 0000 0040 0000 4040 0000 803f

network_body.observation_encoder.processors.0.normalizer.running_mean f4 [630]
0.031590648 0.6328021 0.12105818 0.0023656473 0.0020959296 0.0011968709 0.0020678353 0.0015508758
0.17647952 0.42025322 0.032787535 0.6255309 0.12257534 0.002073453 0.001994785 0.001213729
0.0018486889 0.0016520199 0.18217735 0.42505103 0.03187724 0.63309443 0.12069297 0.0019723098
0.0016857341 0.0011575376 0.0020565959 0.001449731 0.17892948 0.42225957 0.034832884 0.62368226
0.1209233 0.0022532644 0.0020678332 0.001275539 0.0020622145 0.0017531633 0.18231219 0.425833
0.033647265 0.625323 0.124429636 0.0025623164 0.0015340179 0.001005821 0.0022364073 0.0014216355
0.18037355 0.42372537 0.034591265 0.6298804 0.1218168 0.0025061248 0.0023375521 0.0015059226
0.0018711649 0.0016520196 0.17616485 0.42201883 0.033326972 0.62513214 0.12558155 0.0026185072
0.0013766825 0.0010002027 0.002275741 0.0014047784 0.17902501 0.42311138 0.034658674 0.63412815
0.12072103 0.0028769872 0.0020341198 0.0013261108 0.00197231 0.0013036346 0.17244492 0.41894746
0.03616463 0.6246262 0.12634015 0.002669079 0.0012362052 0.001163156 0.0019329754 0.0017644017
0.17515902 0.42202643 0.037451383 0.628453 0.12367104 0.0026072673 0.0021521207 0.0012923959
0.001904879 0.0013204913 0.17065814 0.42047608 0.036704056 0.620159 0.12990831 0.002461171
0.0014722081 0.0010170598 0.0019835476 0.0018318318 0.17494546 0.4222275 0.03860893 0.630195
0.12570518 0.0028826043 0.0019779273 0.0014272553 0.0018655453 0.0015227803 0.16704498 0.42393005
0.03794586 0.6096177 0.14150614 0.002820795 0.0015283986 0.0009496303 0.0021465006 0.0019048798
0.1726192 0.42723688 0.042604115 0.6211088 0.12597494 0.0031073699 0.001961071 0.0017587829
0.0021296437 0.0014384935 0.17075364 0.4308295 0.039777707 0.6039193 0.14647903 0.0030848947
0.001281158 0.0010788703 0.0019779282 0.0019498323 0.17071436 0.43105456 0.044121284 0.6125959
0.1325212 0.0028151763 0.0019779284 0.0013373491 0.0022083125 0.001629543 0.17104584 0.43417224
0.042694014 0.60163856 0.14379868 0.0028601289 0.0014272551 0.0011687762 0.0021858367 0.0021521198
0.17177637 0.43825734 0.045110263 0.60216105 0.14019118 0.0022420266 0.0019385942 0.0013823019
0.002315074 0.0017587825 0.17306308 0.44226548 0.045076545 0.5923053 0.14513047 0.0031129885
0.0014665885 0.0012418237 0.002365648 0.002124025 0.17713693 0.44585782 0.048324376 0.58969826
0.14032052 0.0022813603 0.0016407814 0.0014890652 0.0023993624 0.0018880208 0.18132316 0.45348087
0.047829904 0.59121484 0.14715895 0.002404981 0.0013148721 0.0015845902 0.0027084113 0.0020959298
0.17333843 0.4507864 0.03167496 0.63394254 0.121282965 0.002371266 0.002124025 0.001219348
0.002067835 0.0015564946 0.1769852 0.42118013 0.03287746 0.62661546 0.12274955 0.002084691
0.0020228806 0.001230586 0.0018486889 0.0016576385 0.18277292 0.42603603 0.031955898 0.63417304
0.12091773 0.0019779273 0.0017138296 0.0011743947 0.0020622145 0.0014553501 0.17949133 0.42322394
0.034905933 0.62479484 0.12108627 0.0022588836 0.0020959293 0.001292396 0.0020734533 0.001764402
0.18288536 0.426815 0.033731543 0.6264186 0.1246263 0.0025679348 0.0015733524 0.0010226787
00000000: 3265 013d 52ff 213f 5aed f73d fa08 1b3b
00000010: dd5b 093b 53e0 9c3a 8584 073b c246 cb3a
00000020: 0cb7 343e 6e2b d73e 394c 063d cb22 203f
00000030: c808 fb3d c5e2 073b f0ba 023b fd15 9f3a
00000040: b54f f23a 9788 d83a b38c 3a3e 4aa0 d93e
00000050: b591 023d 7a12 223f e02d f73d de41 013b
00000060: daf3 dc3a 84b8 973a f4c7 063b e604 be3a
00000070: 4a39 373e 6832 d83e edac 0e3d a4a9 1f3f
00000080: a3a6 f73d 81ab 133b 7c84 073b fd2f a73a
00000090: 3826 073b 66ca e53a 0cb0 3a3e c806 da3e
000000a0: b7d1 093d 2b15 203f f7d4 fe3d 89ec 273b
000000b0: 1911 c93a c1d5 833a b090 123b 2c56 ba3a
000000c0: d8b3 383e 88f2 d83e 92af 0d3d d83f 213f
000000d0: 167b f93d cc3d 243b 9e31 193b 6162 c53a
000000e0: e041 f53a 9488 d83a 8f64 343e da12 d83e
000000f0: dd81 083d a908 203f 7398 003e 439b 2b3b
00000100: cd71 b43a 3c19 833a 9924 153b 8b20 b83a
00000110: 5552 373e 0ea2 d83e 41f6 0d3d 3956 223f
00000120: 963c f73d d68b 3c3b de4e 053b e5d0 ad3a
00000130: df41 013b b8de aa3a 6795 303e 4880 d63e
00000140: 5d21 143d 81e7 1f3f 505f 013e b7eb 2e3b
00000150: 2a08 a23a 0a75 983a e45b fd3a 7f43 e73a
00000160: e35c 333e d913 d83e 9f66 193d 4ce2 203f
00000170: 3e47 fd3d b0de 2a3b 980a 0d3b 9c65 a93a
00000180: 22ad f93a 5614 ad3a 02c1 2e3e a448 d73e
00000190: fe56 163d bdc2 1e3f af06 053e 994b 213b
000001a0: 1bf7 c03a dd4e 853a 68fe 013b 131a f03a
000001b0: e724 333e 342e d83e 6624 1e3d 7654 213f
000001c0: dcb8 003e 13ea 3c3b 1da0 013b be12 bb3a
000001d0: 5085 f43a 0798 c73a d70d 2b3e 5c0d d93e
000001e0: 1e6d 1b3d e80f 1c3f fce6 103e 16dd 383b
000001f0: 8c54 c83a 9cf0 783a 4eac 0c3b 29ad f93a
00000200: 16c3 303e cbbe da3e a781 2e3d fc00 1f3f
00000210: 93ff 003e 04a5 4b3b 5085 003b f686 e63a
00000220: 7e91 0b3b d58b bc3a 0bda 2e3e af95 dc3e
00000230: f3ed 223d 759a 1a3f 99fe 153e f22b 4a3b
00000240: 87ec a73a e168 8d3a 21a0 013b 8491 ff3a
00000250: bfcf 2e3e 2fb3 dc3e 85b8 343d 16d3 1c3f
00000260: a3b3 073e d27e 383b 22a0 013b fd49 af3a
00000270: 56b9 103b 6496 d53a a426 2f3e d34b de3e
00000280: ebdf 2e3d fc04 1a3f f63f 133e 0071 3b3b
00000290: bc12 bb3a 9f31 993a 4140 0f3b 940a 0d3b
000002a0: 25e6 2f3e 4463 e03e 8ac5 383d 3a27 1a3f
000002b0: 478e 0f3e f7ee 123b 6d18 fe3a 5b2e b53a
000002c0: 7fb8 173b f386 e63a 7337 313e 9f70 e23e
000002d0: 2fa2 383d 52a1 173f 159d 143e 4803 4c3b
000002e0: 8b3a c03a b0c4 a23a fd08 1b3b 3a33 0b3b
000002f0: 6263 353e 7a47 e43e c8ef 453d 77f6 163f
00000300: 2fb0 0f3e e082 153b 7d0f d73a bd2c c33a
00000310: 9f3e 1d3b 7777 f73a c7ac 393e a52e e83e
00000320: 4ae9 433d db59 173f d6b0 163e e39c 1d3b
00000330: c957 ac3a 06b2 cf3a 9a7f 313b de5b 093b
00000340: a17f 313e 7acd e63e 9abd 013d 0f4a 223f
00000350: 3463 f83d 3e67 1b3b 3a33 0b3b 88d2 9f3a
00000360: 8484 073b 4b03 cc3a 9c3b 353e eca4 d73e
00000370: 84aa 063d df69 203f 1e64 fb3d 509f 083b
00000380: 4e92 043b 9d4b a13a b54f f23a 1e45 d93a
00000390: d328 3b3e 6521 da3e 30e4 023d 2a59 223f
000003a0: b7a3 f73d 1da0 013b 94a2 e03a 26ee 993a
000003b0: 3826 073b 72c1 be3a 93cc 373e cfb0 d83e
000003c0: 86f9 0e3d 8ef2 1f3f 14fc f73d c709 143b
000003d0: dc5b 093b 9d65 a93a c6e2 073b 8243 e73a
000003e0: 4d46 3b3e 7f87 da3e 162a 0a3d f85c 203f
000003f0: 133c ff3d cc4a 283b f238 ce3a 670b 863a

network_body.observation_encoder.processors.1.normalizer.running_mean f4 [6]
48.38277 123.41745 48.44219 123.653946 48.50064 123.88976
00000000: f587 4142 bcd5 f642 cdc4 4142 d24e f742
00000010: a800 4242 8fc7 f742

network_body._body_endoder.seq_layers.0.weight f4 [128, 636]
0.0010316485 0.04986302 0.0065018237 -0.05271568 0.032672547 -0.008897382 -0.012014643 -0.0071915593
0.050098587 0.026067331 -0.07115756 0.03138197 0.018282346 -0.020524945 -0.030787969 -0.023231674
-0.025728846 -0.0054177847 0.053051163 0.047889367 0.02345422 -0.021469893 -0.13090163 -0.025567612
0.097695746 -0.053321812 0.03240925 -0.00088262436 0.027800066 0.08806566 -0.028171154 0.068372354
-0.035953965 0.023434797 0.009604143 -0.0018718878 0.05843071 0.09106357 -0.037448578 -0.0019319201
-0.017726446 0.08971885 0.0029571874 0.009864151 -0.060448032 -0.0637434 -0.040395897 -0.0010384428
0.0016337999 0.032884415 0.0143187465 -0.09216091 -0.007225991 -0.06775278 -0.006584382 0.096205406
0.04373175 0.00754556 0.070437305 -0.029709931 -0.054759894 0.07701416 0.006772399 -0.06565354
-0.0854478 -0.051190462 0.0072229938 -0.03841992 0.07222859 -0.047183253 -0.019363182 -0.06857891
0.10709702 0.0070925034 -0.041356537 0.045448195 0.09221156 -0.0033677672 0.068541005 0.074422546
0.017947458 0.010940246 -0.010835505 -0.013828128 -0.0072619193 -0.005696952 0.063481286 -0.03359788
0.06454685 -0.023481175 -0.020922843 0.049726434 -0.055242673 0.07255125 -0.042162493 0.08179639
0.019387312 -0.04944852 -0.02168194 0.045065243 0.12478957 0.0491706 -0.04006013 0.09603425
0.034829747 -0.08389888 0.0106625585 -0.023863867 -0.015755687 -0.07330456 -0.1297197 -0.021887649
0.039616082 -0.0060543795 0.06892273 0.0063101845 -0.027483303 0.02957126 0.037222963 0.03176571
-0.030577363 0.045841686 0.030529862 0.05006521 0.09784783 0.06390403 0.10569023 -0.029972969
-0.06346699 0.02947502 0.0077003967 -0.1014348 0.0072255493 0.041311953 0.014488739 0.09004022
-0.016761059 -0.038430434 -0.04622541 0.015595021 0.033854254 0.053555366 0.048685674 -0.02196443
0.006547163 -0.06865122 0.0395501 -0.07240729 -0.03384108 0.058697555 0.016674915 -0.0071496116
0.0035831355 0.08041782 0.07179273 0.025845347 0.024160001 -0.02834176 0.0352774 -0.09756517
0.067908734 -0.05344865 -0.056402694 -0.040896706 0.025743103 -0.07869409 0.14173147 -0.032331336
0.022674913 0.022850648 -0.019552456 -0.014403089 0.063443616 -0.024179455 -0.030436087 -0.0045675887
-0.039752934 -0.021763915 -0.048133466 -0.0031688097 -0.05152471 0.08602829 0.008875171 -0.033143423
-0.01285048 -0.0757349 0.023062037 0.07394568 0.013558676 -0.012689908 -0.03169204 0.023525221
0.1023837 -0.06883142 -0.07884637 0.010449101 -0.01092303 -0.0028257226 -0.056570776 -0.03712254
-0.009426373 0.06954783 -0.076823436 0.127151 -0.07229365 -0.112173736 -0.039013736 -0.027584676
-0.07654256 0.025353855 0.013740106 0.0384568 0.00565936 0.03107689 0.032081436 -0.079868205
0.07181487 0.06984204 -0.024921997 -0.012462672 -0.053188104 -0.0021748361 -0.022829998 -0.008606141
0.055229124 0.04821873 -0.014093462 -0.0033667819 0.03984196 -0.01793732 0.072531156 -0.050246544
-0.08339104 0.017341698 -0.055176552 0.0018600343 0.06857631 0.060068484 0.0014403309 -0.019142486
-0.025177399 0.032078896 -0.007257816 -0.053682406 0.08783957 -0.08833799 0.018115036 0.03341298
0.003871775 0.056072857 -0.0061925254 0.0041427636 -0.019294545 0.06883783 -0.0055130413 -0.007246129
00000000: 6138 873a 2b3d 4c3d 400d d53b 66ec 57bd
00000010: a6d3 053d 53c6 11bc 11d9 44bc 2ca7 ebbb
00000020: 2d34 4d3d 288b d53c 0ebb 91bd 618a 003d
00000030: dcc4 953c ee23 a8bc 0d37 fcbc 5a50 bebc
00000040: 4dc5 d2bc ac87 b1bb 2d4c 593d a427 443d
00000050: 1023 c03c a1e1 afbc 140b 06be 2b73 d1bc
00000060: b514 c83d f967 5abd 90bf 043d eb5f 67ba
00000070: f7bc e33c c55b b43d 31c7 e6bc ce06 8c3d
00000080: 7744 13bd 55fa bf3c b25a 1d3c 225a f5ba
00000090: 0a55 6f3d 897f ba3d ae63 19bd 7b38 fdba
000000a0: 0d37 91bc 84be b73d 5fcd 413b 3f9d 213c
000000b0: 5b98 77bd e68b 82bd 2b76 25bd 5c1c 88ba
000000c0: 3a25 d63a cfb1 063d 2d99 6a3c dcbe bcbd
000000d0: 02c8 ecbb f8c1 8abd cdc1 d7bb 5707 c53d
000000e0: 1020 333d bf40 f73b 6f41 903d 3e62 f3bc
000000f0: e94b 60bd 9ab9 9d3d 00eb dd3b 5d75 86bd
00000100: 42ff aebd 17ad 51bd ddae ec3b 355e 1dbd
00000110: 95ec 933d 3a43 41bd 899f 9ebc 1973 8cbd
00000120: af55 db3d 3b68 e83b 7965 29bd e327 3a3d
00000130: 6ad9 bc3d c2b5 5cbb 3a5f 8c3d d96a 983d
00000140: 8c06 933c b83e 333c 6787 31bc 5f8f 62bc
00000150: 65f5 edbb 7fad babb 7a02 823d ee9d 09bd
00000160: 2431 843d 985b c0bc 6266 abbc f2ad 4b3d
00000170: 2446 62bd c095 943d 94b2 2cbd de84 a73d
00000180: 24d2 9e3c 888a 4abd 539e b1bc 5596 383d
00000190: ad91 ff3d 1c67 493d 1716 24bd 9bad c43d
000001a0: a3a9 0e3d 2dd3 abbd 03b2 2e3c 287e c3bc
000001b0: 1212 81bc b320 96bd 3ed5 04be ba4d b3bc
000001c0: 7944 223d d163 c6bb 5c27 8d3d aac5 ce3b
000001d0: aa24 e1bc 6d3f f23c 1b77 183d c31c 023d
000001e0: 617d fabc 7ec4 3b3d c319 fa3c 2d11 4d3d
000001f0: 7164 c83d 1ee0 823d 1f74 d83d df89 f5bc
00000200: fbfa 81bd 9975 f13c 9c53 fc3b 0cbd cfbd
00000210: 4dc4 ec3b b936 293d 2d62 6d3c 0267 b83d
00000220: 7d4e 89bc 3b69 1dbd db56 3dbd 4282 7f3c
00000230: c2aa 0a3d df5c 5b3d a16a 473d c0ee b3bc
00000240: 9589 d63b 0399 8cbd 49ff 213d 464a 94bd
00000250: f29c 0abd d96c 703d d599 883c 4a47 eabb
00000260: 0ad3 6a3b 19b2 a43d 1108 933d 9fb9 d33c
00000270: 32eb c53c fb2c e8bc 097f 103d 3fd0 c7bd
00000280: bc13 8b3d f9ec 5abd 8306 67bd 4e83 27bd
00000290: 33e3 d23c 5e2a a1bd 0e22 113e dd6d 04bd
000002a0: bdc0 b93c 4831 bb3c 792c a0bc effa 6bbc
000002b0: baee 813d fe13 c6bc 1a55 f9bc b6ab 95bb
000002c0: f9d3 22bd 3d4a b2bc 9927 45bd ceab 4fbb
000002d0: 930b 53bd 9a2f b03d 2a69 113c 66c1 07bd
000002e0: d28a 52bc e61a 9bbd 99ec bc3c d570 973d
000002f0: 3525 5e3c 55e9 4fbc 83cf 01bd f7b7 c03c
00000300: 8cae d13d 7df7 8cbd 357a a1bd b532 2b3c
00000310: 82f6 32bc c22f 39bb c2b6 67bd ce0d 18bd
00000320: 1371 1abc 186f 8e3d 9b55 9dbd df33 023e
00000330: b10e 94bd 58bb e5bd decc 1fbd 42f9 e1bc
00000340: 58c2 9cbd e3b2 cf3c 2e1e 613c e184 1d3d
00000350: 2772 b93b f694 fe3c d367 033d f191 a3bd
00000360: ad13 933d 5809 8f3d 3729 ccbc 3c30 4cbc
00000370: c5db 59bd b287 0ebb fa05 bbbc c600 0dbc
00000380: ef37 623d 0181 453d 44e8 66bc 3aa5 5cbb
00000390: 5331 233d 49f1 92bc 378b 943d 52cf 4dbd
000003a0: ecc8 aabd 2d10 8e3c cf00 62bd 65cc f33a
000003b0: bd71 8c3d 5f0a 763d 7cc9 bc3a b4d0 9cbc
000003c0: d540 cebc 2965 033d f9d2 edbb 15e2 5bbd
000003d0: 3ce5 b33d 8cea b4bd fc65 943c 0ddc 083d
000003e0: 9bbd 7d3b a7ac 653d abea cabb 05c0 873b
000003f0: 980f 9ebc d9fa 8c3d bea6 b4bb f070 edbb

network_body._body_endoder.seq_layers.0.bias f4 [128]
-0.003978419 -0.025739051 0.0032549717 -0.012538543 -0.007583572 0.00011741744 -0.011378084 0.0072412086
-0.010656561 -0.027744384 -0.030065214 -0.013504698 -0.0101426765 -0.0043846616 -0.026805745 -0.023361761
-0.014178475 -0.020351263 -0.0025327972 -0.042516 -0.008900024 -0.010943226 -0.008526654 0.0050384523
-0.013004904 -0.0050620316 -0.006800083 -0.015999107 -0.008570953 -0.012403413 -0.013087067 -0.00013692911
-0.006721828 -0.023745593 -0.027025694 0.0005158699 -0.020726845 -0.026892053 -0.012945714 -0.031248624
-0.0071871653 0.0026252866 -0.03838873 0.012722986 -0.007248921 -0.00052593066 -0.026336597 -0.004740153
-0.0071558175 0.011674725 0.006774232 -0.008656248 -0.0049304077 -0.008557709 -0.016234502 0.0072769695
-0.01864569 -0.01590564 -0.015635105 -0.005439806 -0.0030886459 0.0073354435 -0.028957706 -0.007843596
-0.019751092 -0.001952861 -0.016153766 0.0025863233 -0.017051645 -0.008749191 -0.021240016 -0.027538218
0.0023598387 -0.020471876 -0.01759894 -0.044686224 1.6588312e-05 -0.039159954 -0.020396756 -0.016479228
-0.024021277 -0.0025036214 -0.018639857 -0.029318344 -0.016455162 -0.00889886 -0.035305157 -0.0066127325
-0.031821817 -0.010186005 -0.03084371 -0.0012601977 -0.026466452 -0.010205706 -0.0047145 -0.028716909
1.7429942e-05 -0.026760811 -0.025542187 -0.005387934 -0.011518527 -0.011161491 -0.019971492 0.004360736
-0.014876932 -0.02063836 -0.028439628 -0.0097062895 -0.023658207 0.0072164303 0.008987283 -0.019626366
-0.0056002676 -0.0124633685 -0.032770213 0.009751386 -0.014117572 -0.023995679 -0.013483232 -0.020852907
-0.01544944 -0.02523025 0.0045685717 -0.017278688 -0.033367697 -0.031423282 -0.012772305 -0.025786087
00000000: 665d 82bb b4da d2bc 5d51 553b 766e 4dbc
00000010: 9d7f f8bb 023e f638 256b 3abc a947 ed3b
00000020: db98 2ebc 3148 e3bc 534b f6bc cf42 5dbc
00000030: 782d 26bc 35ad 8fbb b997 dbbc 2a61 bfbc
00000040: d64c 68bc b1b7 a6bc 49fd 25bb 4225 2ebd
00000050: 68d1 11bc 374b 33bc 61b3 0bbc 9a19 a53b
00000060: 8512 55bc 66df a5bb 3bd3 debb 8f10 83bc
00000070: 2f6d 0cbc af37 4bbc 236b 56bc a194 0fb9
00000080: c842 dcbb 1e86 c2bc fd64 ddbc 713b 073a
00000090: 58cb a9bc b94c dcbc 431a 54bc 1dfd ffbc
000000a0: 5082 ebbb 000d 2c3b 803d 1dbd 1274 503c
000000b0: 5b88 edbb 9cde 09ba d9bf d7bc 4953 9bbb
000000c0: 597b eabb 5947 3f3c 60fa dd3b f0d2 0dbc
000000d0: 428f a1bb a235 0cbc 38fe 84bc a573 ee3b
000000e0: d9be 98bc 8b4c 82bc 3115 80bc 6640 b2bb
000000f0: e16a 4abb 295e f03b b638 edbc 6d82 00bc
00000100: 0bcd a1bc 24f7 ffba e754 84bc 4e7f 293b
00000110: e4af 8bbc c458 0fbc 8bff adbc d497 e1bc
00000120: 86a7 1a3b a3b4 a7bc a72b 90bc e708 37bd
00000130: 2127 8b37 3066 20bd 1917 a7bc 72ff 86bc
00000140: 45c8 c4bc cc13 24bb 9db2 98bc 062d f0bc
00000150: facc 86bc 86cc 11bc 249c 10bd 9faf d8bb
00000160: 9857 02bd 34e3 26bc f3ab fcbc 382d a5ba
00000170: 2cd0 d8bc d535 27bc 187c 9abb b93f ebbc
00000180: 8436 9237 7d39 dbbc d93d d1bc 448d b0bb
00000190: 34b8 3cbc b0de 36bc 419b a3bc 81e4 8e3b
000001a0: 60be 73bc c711 a9bc 39fa e8bc 2107 1fbc
000001b0: dbce c1bc ce77 ec3b 663f 133c 79c7 a0bc
000001c0: 7382 b7bb 2833 4cbc 0f3a 06bd 47c4 1f3c
000001d0: 644d 67bc 9692 c4bc c6e8 5cbc b7d3 aabc
000001e0: a61f 7dbc abaf cebc f5b3 953b 098c 8dbc
000001f0: 91ac 08bd b3b5 00bd ee42 51bc 583d d3bc

network_body._body_endoder.seq_layers.2.weight f4 [128, 128]
-0.0054227635 -0.009066269 0.04343102 0.008031806 0.025652753 0.10287005 -0.14803809 0.11438264
0.14586566 -0.08557152 -0.013848303 0.03520431 0.11465043 -0.0346472 -0.10474415 -0.013930119
0.040105257 -0.020303177 0.17314596 -0.001769148 -0.040320173 -0.07967464 0.16129243 0.13803732
0.0021713597 -0.03814768 0.046669226 0.0011058433 -0.13480751 0.06423113 0.06867801 -0.053749565
-0.08124712 -0.16486585 -0.11512639 0.05479705 -0.07010598 -0.07162247 0.019812083 -0.08828554
0.044760305 -0.07897628 0.22154549 -0.01719424 -0.004928083 -0.056459296 -0.2051416 0.048115816
0.14539675 0.117739156 -0.06799309 -0.03158098 0.09830803 -0.020228049 -0.13130173 0.026788527
-0.16902111 -0.072745465 0.10797525 0.07790037 0.13145213 0.11734574 0.0840674 -0.04010644
0.07657277 0.017219216 0.07797157 0.082993746 -0.19098075 0.18450083 0.0011532032 -0.06916283
-0.03697806 0.024032213 0.03061195 0.011889672 0.055721834 -0.0050260914 0.12630714 -0.09395101
-0.12158041 0.047755122 0.14481598 -0.1219279 -0.08043567 0.051316187 0.005562088 0.07516262
-0.008369466 -0.049959682 -0.004259666 -0.0788141 0.10351968 0.033004347 -0.015871558 -0.018165234
0.012487948 0.08368625 -0.14879435 0.023819061 -0.046689283 -0.192483 -0.0055441265 0.12011468
0.046026956 0.038131 -0.090900846 -0.07770529 -0.05954297 0.06537656 -0.05911766 0.019471722
-0.0046986816 -0.06532891 -0.031527597 -0.12891829 0.11687651 0.069301784 0.22750913 -0.04280259
0.04057464 -0.08408883 0.010769193 0.013473749 -0.01428488 0.01379867 0.02098512 0.014383569
0.06555102 0.0018535614 -0.012961377 0.084915526 -0.049358603 0.064657815 -0.065689206 0.12867582
-0.11969057 0.0882135 0.041474484 -0.10492647 0.092025295 0.04889632 -0.092045054 -0.041246895
-0.02755921 -0.1867158 0.14208008 -0.041079987 0.04347138 0.050521724 0.09141989 -0.21537225
0.08261403 0.0013201105 -0.036472518 -0.05666581 0.13899784 -0.051237784 -0.16809687 -0.20104545
-0.0021697232 -0.023482522 0.016000737 -0.03724815 -0.034455936 0.114422545 -0.061619513 0.019324012
-0.009773297 0.12662774 -0.12335713 0.004270114 0.096307665 -0.01657068 0.05768389 -0.2021626
-0.027842255 0.032977276 -0.004965933 -0.019075487 0.015435768 -0.015798518 0.094723634 -0.123225
-0.19559638 0.05930526 0.047066037 -0.17059846 0.10107284 -0.049534597 0.05192522 -0.044979915
0.08851575 0.24716787 0.14386357 -0.06665904 -0.09141997 0.08903724 -0.119300276 0.008281769
-0.01873487 -0.21065143 -0.00593444 -0.17174482 0.07110453 0.14402406 0.02760271 0.13560355
-0.0044452725 -0.04960292 -0.009749343 -0.003114941 0.08152921 -0.13765883 0.010925053 -0.109374456
0.040916856 0.10522779 0.017388066 -0.062415387 0.12598327 0.108324714 -0.06841714 0.038984682
0.00044707998 -0.0061873663 0.0058096205 0.081652105 -0.13997518 -0.05942862 0.0071062297 -0.1461285
0.006037003 0.16588089 0.091188036 -0.020587368 -0.012518611 -0.027948271 0.044299003 0.067024834
-0.26598248 -0.10670788 -0.04382604 0.07662666 -0.15295096 -0.09679118 0.117186695 0.062311884
0.00059880316 -0.05561254 0.002399685 -0.11671247 0.042458214 0.08309313 -0.07208475 0.039241508
00000000: 70b1 b1bb b08a 14bc bae4 313d d697 033c
00000010: b925 d23c 88ad d23d 4c97 17be 7241 ea3d
00000020: cf5d 153e 1f40 afbd fee3 62bc 6532 103d
00000030: d8cd ea3d 39ea 0dbd 1a84 d6bd 273b 64bc
00000040: 6945 243d d952 a6bc 2d4d 313e c2e2 e7ba
00000050: c426 25bd 752c a3bd d829 253e a859 0d3e
00000060: 5f4d 0e3b be40 1cbd 3b28 3f3d f2f1 903a
00000070: fb0a 0abe 9c8b 833d 0ea7 8c3d 8128 5cbd
00000080: e464 a6bd 98d2 28be 62c7 ebbd df72 603d
00000090: b993 8fbd cdae 92bd f34c a23c 0dcf b4bd
000000a0: 9556 373d 51be a1bd d2dc 623e efda 8cbc
000000b0: c27b a1bb dd41 67bd a410 52be 1715 453d
000000c0: e3e2 143e 3a21 f13d f63f 8bbd 0f5b 01bd
000000d0: b855 c93d 4bb5 a5bc f673 06be 9d73 db3c
000000e0: df13 2dbe 93fb 94bd 2122 dd3d 3b8a 9f3d
000000f0: 639b 063e f752 f03d 872b ac3d a746 24bd
00000100: 2fd2 9c3d 500f 8d3c 8faf 9f3d a0f8 a93d
00000110: 7590 43be c9ed 3c3e 1427 973a 3ea5 8dbd
00000120: 4e76 17bd 34df c43c eac5 fa3c e6cc 423c
00000130: 943c 643d e9b1 a4bb a956 013e 6369 c0bd
00000140: 26ff f8bd e09a 433d a44a 143e 56b5 f9bd
00000150: 75bb a4bd ec30 523d 2d42 b63b dcee 993d
00000160: 1620 09bc 86a2 4cbd ab94 8bbb 4969 a1bd
00000170: 2002 d43d 912f 073d 1205 82bc 42cf 94bc
00000180: 409a 4c3c b263 ab3d 8c5d 18be 3120 c33c
00000190: 433d 3fbd 431a 45be 81ab b5bb affe f53d
000001a0: c386 3c3d 402f 1c3d 392a babd f323 9fbd
000001b0: 54e3 73bd 25e4 853d 5c25 72bd 2983 9f3c
000001c0: 66f7 99bb 2acb 85bd 1523 01bd 2803 04be
000001d0: f45c ef3d 18ee 8d3d 27f8 683e c551 2fbd
000001e0: 9831 263d c436 acbd 4571 303c 00c1 5c3c
000001f0: 210b 6abc d113 623c fde8 ab3c 10a9 6b3c
00000200: 9d3f 863d 33f3 f23a f55b 54bc 31e8 ad3d
00000210: 3f2c 4abd 516b 843d 1088 86bd 98c3 033e
00000220: 5420 f5bd 48a9 b43d 26e1 293d b0e3 d6bd
00000230: c277 bc3d 8247 483d 1e82 bcbd 81f2 28bd
00000240: dac3 e1bc 6d32 3fbe 717d 113e 7d43 28bd
00000250: 0c0f 323d deef 4e3d 5a3a bb3d 8b8a 5cbe
00000260: 8b31 a93d 8f07 ad3a 3564 15bd 691a 68bd
00000270: 7355 0e3e b6de 51bd 9621 2cbe dcde 4dbe
00000280: ea31 0ebb 6b5e c0bc fa13 833c 8491 18bd
00000290: ab21 0dbd 5e56 ea3d be64 7cbd 644d 9e3c
000002a0: 2e20 20bc b4aa 013e aaa2 fcbd 50ec 8b3b
000002b0: f43c c53d 3cbf 87bc f145 6c3d b603 4fbe
000002c0: 7115 e4bc 2e13 073d 44b9 a2bb 3244 9cbc
000002d0: 4ee6 7c3c e56b 81bc 77fe c13d 645d fcbd
000002e0: 6b4a 48be 13ea 723d 51c8 403d 5db1 2ebe
000002f0: 47ff ce3d cae4 4abd 8aaf 543d dc3c 38bd
00000300: bf47 b53d 9319 7d3e f950 133e 8984 88bd
00000310: 653a bbbd 2859 b63d b453 f4bd 42b0 073c
00000320: df79 99bc 02b5 57be b175 c2bb e0dd 2fbe
00000330: 409f 913d 0b7b 133e 141f e23c a8db 0a3e
00000340: a6a9 91bb 6e2c 4bbd b5bb 1fbc 0a24 4cbb
00000350: c9f8 a63d 70f6 0cbe fefe 323c b7ff dfbd
00000360: 6f98 273d ab81 d73d 6b71 8e3c 47a7 7fbd
00000370: c201 013e 59d9 dd3d 491e 8cbd 67ae 1f3d
00000380: 0f66 ea39 64bf cabb a15e be3b 3839 a73d
00000390: a755 0fbe 6d6b 73bd 60db e83b b6a2 15be
000003a0: 0dd2 c53b aedc 293e cbc0 ba3d d7a6 a8bc
000003b0: dc1a 4dbc c6f3 e4bc df72 353d 5144 893d
000003c0: db2e 88be a989 dabd ef82 33bd 70ee 9c3d
000003d0: 2d9f 1cbe 743a c6bd 94ff ef3d bf3a 7f3d
000003e0: 00f9 1c3a fac9 63bd 0944 1d3b f306 efbd
000003f0: aae8 2d3d bb2c aa3d 2ba1 93bd b4bb 203d

network_body._body_endoder.seq_layers.2.bias f4 [128]
0.008662669 -0.0020666497 0.0048456164 -0.023871364 0.017642261 0.0008966711 0.0053014383 -0.0044622654
0.0112992115 -0.0032792627 -0.0052824053 -0.005949191 -0.016126126 -0.016348997 -0.008348338 0.002263139
-0.0026485359 -0.013909462 0.01339746 -0.017650358 0.019065946 -0.018836066 -0.0042166705 0.0030632066
-0.0012060332 -0.00659102 -0.0107665695 0.01565079 0.012048404 -0.01209937 -0.007042312 -0.000748095
0.019861238 -0.0068975165 0.0040010465 0.008210429 0.0054098014 -0.0035783912 -0.01815 -0.002920027
-0.030069135 0.004013751 0.01521258 0.00094188994 0.01356329 -0.011519124 -0.006994877 0.009273069
0.0019907071 0.01172037 0.012210568 -0.0053945533 -0.025656363 -0.0174437 0.0063290168 0.007016607
-0.020035883 0.00032561368 0.023472413 -0.016466133 -0.0025619713 -0.015594022 -0.019944223 -0.007956347
0.017504899 0.011823662 -0.019713607 0.0010363354 -0.0075916904 0.0063657886 0.009052349 0.018216291
-0.0062100147 -0.018408732 0.0077752373 0.0014490102 0.024295121 -0.021052817 -0.0134451995 -0.026275942
-0.012949186 -0.01848636 -0.032004833 0.0004283879 0.0042456943 -0.021583851 -0.0077240546 -0.010662294
-0.016225046 0.005155025 0.00955435 -0.031862814 -0.021842092 0.018106287 0.0032465083 -0.0022206795
-0.031198297 -0.024184983 -0.018362982 0.00013785879 -0.0024955214 0.004876017 -0.012818348 0.0050707036
-0.00136431 -0.0126569625 -0.001272307 0.0056162514 -0.005129459 -0.0005816341 0.008683704 0.016291691
-0.02100606 0.002242028 0.0015213941 -0.009442797 -0.0031043964 -0.01734846 0.005279465 -0.008803273
-0.0090012085 -0.011347231 -0.020241115 0.0043488042 -0.002230974 0.00091842277 -0.011300049 -0.02704381
00000000: deed 0d3c a170 07bb fac7 9e3b e18d c3bc
00000010: 8186 903c 940e 6b3a b0b7 ad3b 3238 92bb
00000020: 5420 393c e6e8 56bb 0718 adbb 6ef1 c2bb
00000030: f01a 84bc 55ee 85bc 78c7 08bc 2c51 143b
00000040: 0f93 2dbb 83e4 63bc 0581 5b3c 7c97 90bc
00000050: 3030 9c3c 184e 9abc ff2b 8abb 14c0 483b
00000060: c213 9eba 7cf9 d7bb 4466 30bc 1636 803c
00000070: ab66 453c 703c 46bc 32c3 e6bb ce1b 44ba
00000080: 09b4 a23c 9004 e2bb 361b 833b 0985 063c
00000090: b444 b13b 7183 6abb 4faf 94bc ec5d 3fbb
000000a0: 8c53 f6bc c985 833b 2f3e 793c 2ae9 763a
000000b0: 9038 5e3c b5ba 3cbc 4835 e5bb 12ee 173c
000000c0: 8676 023b cb06 403c d60e 483c cbc4 b0bb
000000d0: 4b2d d2bc 17e6 8ebc a463 cf3b 91eb e53b
000000e0: 4b22 a4bc 21b7 aa39 3849 c03c fce3 86bc
000000f0: bfe6 27bb 127e 7fbc 1162 a3bc 575b 02bc
00000100: 6f66 8f3c 08b8 413c 6e7e a1bc a5d5 873a
00000110: b7c3 f8bb 1b98 d03b 4e50 143c 553a 953c
00000120: 617d cbbb e9cd 96bc 6bc7 fe3b b7ec bd3a
00000130: 9006 c73c f576 acbc 4149 5cbc a540 d7bc
00000140: d328 54bc b570 97bc 8017 03bd 4099 e039
00000150: 771f 8b3b 9ed0 b0bc 111a fdbb e7b0 2ebc
00000160: 63ea 84bc 7ceb a83b d989 1c3c 9582 02bd
00000170: 30ee b2bc a353 943c 5fc3 543b d288 11bb
00000180: 9293 ffbc 961f c6bc f76d 96bc 308e 1039
00000190: e78b 23bb ffc6 9f3b 0c04 52bc 2528 a63b
000001a0: a6d2 b2ba 265f 4fbc 8ac3 a6ba 8808 b83b
000001b0: 0515 a8bb ce78 18ba 1846 0e3c 2776 853c
000001c0: e714 acbc fdee 123b 8469 c73a f6b5 1abc
000001d0: 2173 4bbb 5c1e 8ebc 5dff ac3b 9a3b 10bc
000001e0: ce79 13bc bde9 39bc b2d0 a5bc 6a80 8e3b
000001f0: 8835 12bb 4fc2 703a d723 39bc fb8a ddbc

action_model._discrete_distribution.branches.0.weight f4 [2, 128]
-0.030280482 0.034866884 -0.048811644 0.0017757533 0.0068419506 -0.040248275 -0.012559008 0.023566874
0.05285952 -0.024498776 -0.015503961 0.028645929 0.021324195 -0.015418404 -0.0030695833 -0.011158149
-0.009787898 0.010453717 -0.03332654 -0.007851636 -0.037142362 -0.014089721 -0.009648758 -0.021918794
-0.029406218 0.019720854 0.010873743 -0.035133522 0.009268182 0.022738108 0.012062882 -0.030018149
-0.02894893 0.038272377 -0.038857292 -0.03821454 0.00094590633 0.035347532 0.020245545 -0.060070753
0.022361837 -0.04310324 -0.028723806 0.010819549 -0.015447167 0.012028239 -0.026740758 -0.06457849
-0.025874639 0.029310012 -0.028541137 -0.03504273 0.030987363 -0.009722132 -0.020667939 -0.015960433
-0.027031356 0.022055482 -0.05407789 0.0030290126 -0.016971203 -0.01539132 -0.00227734 -0.010212336
-0.056836486 0.014158509 -0.027999975 -0.036723144 0.019410279 0.036373634 0.055456873 0.0035377548
0.0026478257 0.012851646 0.017394945 -0.012951934 0.053170573 -0.008946417 -0.00068682927 0.015261627
-0.0015289574 -0.0017754427 0.0020088765 0.04671395 -0.007904531 -0.0031204377 -0.0012288773 0.011105006
-0.0057319826 -0.008857449 0.0017275803 -0.0022923448 -0.008451175 -0.059871927 0.0043130266 0.027110137
-0.0050079683 -0.042253237 0.008722128 0.040931158 -0.037568998 0.05413786 0.010779797 -0.027728774
-0.017887423 -0.014241776 -9.318057e-05 -0.010439399 0.0155896405 0.030425556 0.006472295 0.00055475376
-0.0034384516 0.0423241 -0.040197365 -0.009748197 -0.0036141328 0.019320171 0.011146691 -0.010423591
0.03406877 0.006681427 0.021853209 -0.03423739 -0.0126022715 0.029187718 -0.006784436 -0.005600554
0.015252472 -0.032061297 0.0408573 -0.0031178326 -0.0014158724 0.059312593 0.016638862 -0.019886345
-0.03200149 0.030497579 0.0039096675 -0.022506684 0.00097591185 0.0018446696 0.0075664227 0.012640401
0.0045746425 -0.008716316 0.04096423 0.0008186423 0.035977896 -0.007911928 0.009771534 0.035864796
0.02710433 -0.004767494 0.0068771057 0.03963672 -0.025009284 -0.019974446 -0.029312294 0.010756028
0.022293186 -0.04053905 0.041824784 0.025088813 0.0010756184 -0.043132078 -0.015045343 0.04285786
-0.018842615 0.028759938 0.02582388 -0.015137378 0.016767163 -0.00852828 0.0002841732 0.063596606
0.031466458 -0.028855486 0.033113044 0.040061906 -0.016805518 0.0027533614 0.019131051 0.018919436
0.020461412 -0.0025003366 0.06184398 0.01125014 0.027121032 0.01778388 -0.011070673 0.016857537
0.044113692 -0.017974366 0.01907264 0.027326467 -0.009069735 -0.026004702 -0.059144374 0.0067709354
-0.008606484 -0.0002206592 -0.011450038 0.042788494 -0.01204314 -0.029565636 0.017535908 -0.009410938
0.0015349892 0.0059800795 0.010041096 -0.040621642 0.024276627 -0.011329387 0.0026273406 0.0059852106
0.012657185 0.023754645 0.0060259146 -0.011234611 0.015188089 0.04560534 0.008057824 -0.04302525
0.012644923 0.0062278416 -0.019553714 -0.033649817 0.046575814 -0.047826156 -0.019865623 0.04776478
0.014235235 0.011455048 -0.009907919 0.010573113 0.00040801385 -0.03064986 -0.024358438 -0.0065415823
-0.012957592 -0.050321765 0.039450403 0.016687464 -0.012115362 0.010944065 -0.0038818817 0.018757386
-0.04753265 0.0049981116 -0.032453608 0.01818117 0.009375294 -0.023619642 -0.010072079 -0.012244247
00000000: c60e f8bc 94d0 0e3d b8ee 47bd 65c0 e83a
00000010: 7132 e03b 60db 24bd 4cc4 4dbc 510f c13c
00000020: 3983 583d a8b1 c8bc 5304 7ebc deaa ea3c
00000030: 14b0 ae3c 799d 7cbc 102b 49bb abd0 36bc
00000040: 6b5d 20bc 1146 2b3c 6981 08bd 26a4 00bc
00000050: 9722 18bd 93d8 66bc d315 1ebc 0b8f b3bc
00000060: 4fe5 f0bc a18d a13c c927 323c 2be8 0fbd
00000070: 93d9 173c 4545 ba3c 65a3 453c 9fe8 f5bc
00000080: 4e26 edbc 7fc3 1c3d d328 1fbd d986 1cbd
00000090: b3f6 773a 93c8 103d fcd9 a53c c00c 76bd
000000a0: 2c30 b73c 068d 30bd 304e ebbc 7a44 313c
000000b0: 1d16 7dbc 1712 453c 6f0f dbbc ba41 84bd
000000c0: 0df7 d3bc 8d1b f03c 1acf e9bc f788 0fbd
000000d0: 36d9 fd3c 9449 1fbc cf4f a9bc 74bf 82bc
000000e0: dd70 ddbc b3ad b43c c780 5dbd 6682 463b
000000f0: 3107 8bbc e02b 7cbc 6d3f 15bb a451 27bc
00000100: 60cd 68bd 17f9 673c 3460 e5bc 026b 16bd
00000110: 4e02 9f3c 85fc 143d bf26 633d add9 673b
00000120: 2587 2d3b b68f 523c d87f 8e3c 5934 54bc
00000130: 63c9 593d fe93 12bc 550c 34ba e70b 7a3c
00000140: 4c67 c8ba f9b5 e8ba 5ba7 033b 2057 3f3d
00000150: 0282 01bc 4280 4cbb 4812 a1ba c5f1 353c
00000160: 5bd3 bbbb d51e 11bc fa6f e23a 2a3b 16bb
00000170: cc76 0abc 443c 75bd 4a54 8d3b 1416 de3c
00000180: e219 a4bb bb11 2dbd 42e7 0e3c 6ea7 273d
00000190: f3e1 19bd a9bf 5d3d bf9d 303c 7427 e3bc
000001a0: a588 92bc 5756 69bc f069 c3b8 030a 2bbc
000001b0: b16b 7f3c 043f f93c 8c15 d43b e56c 113a
000001c0: a557 61bb 095c 2d3d fea5 24bd e7b6 1fbc
000001d0: 16db 6cbb 5645 9e3c 9ca0 363c b6c7 2abc
000001e0: b28b 0b3d dfef da3b 8005 b33c 813c 0cbd
000001f0: c279 4ebc 151b ef3c f94f debb da84 b7bb
00000200: 81e5 793c b552 03bd fc59 273d 8d54 4cbb
00000210: cb94 b9ba c3f1 723d 394e 883c b0e8 a2bc
00000220: ff13 03bd 0fd6 f93c ab1c 803b f05f b8bc
00000230: 56d4 7f3a d7c8 f13a c1ef f73b af19 4f3c
00000240: e2e6 953b e1ce 0ebc 1cca 273d 289a 563a
00000250: 8f5d 133d 08a1 01bc c918 203c f7e6 123d
00000260: e609 de3c a338 9cbb 5859 e13b 1d5a 223d
00000270: 45e0 ccbc 73a1 a3bc 5620 f0bc 0d3a 303c
00000280: 33a0 b63c 460c 26bd 7750 2b3d 0e87 cd3c
00000290: c4fb 8c3a 43ab 30bd be80 76bc b98b 2f3d
000002a0: d45b 9abc f699 eb3c 9a8c d33c c402 78bc
000002b0: 4a5b 893c 33ba 0bbc 15fd 9439 f03e 823d
000002c0: f9e2 003d 5762 ecbc 8ba1 073d f417 243d
000002d0: baab 89bc bd71 343b b9b8 9c3c effc 9a3c
000002e0: b19e a73c b0dc 23bb 1d50 7d3d 8252 383c
000002f0: ed2c de3c 80af 913c c561 35bc d118 8a3c
00000300: 8fb0 343d fa3e 93bc 3a3e 9c3c c1db df3c
00000310: 3a99 14bc d007 d5bc 5f41 72bd b9de dd3b
00000320: 3602 0dbc c160 67b9 f198 3bbc fd42 2f3d
00000330: 9750 45bc a233 f2bc 77a7 8f3c 5630 1abc
00000340: b131 c93a 8bf4 c33b 6983 243c e162 26bd
00000350: c7df c63c e59e 39bc 762f 2c3b 961f c43b
00000360: 1560 4f3c 1a99 c23c 0975 c53b 6011 38bc
00000370: 76d7 783c aacc 3a3d f704 043c 3f3b 30bd
00000380: a72c 4f3c ec12 cc3b 1c2f a0bc 64d4 09bd
00000390: 48c6 3e3d 5ce5 43bd 3bbd a2bc 01a5 433d
000003a0: e73a 693c f4ad 3b3c d354 22bc da3a 2d3c
000003b0: b1ea d539 6a15 fbbc 598b c7bc c55a d6bb
000003c0: 144c 54bc 321e 4ebd bf96 213d 26b4 883c
000003d0: 837f 46bc bc4e 333c 2b67 7ebb 17a9 993c
000003e0: 99b1 42bd 33c7 a33b 13ee 04bd adf0 943c
000003f0: d59a 193c fb7d c1bc 5c05 25bc 189c 48bc

action_model._discrete_distribution.branches.0.bias f4 [2]
-0.0037830733 0.0037830628
00000000: 70ed 77bb 43ed 773b

action_model._discrete_distribution.branches.1.weight f4 [3, 128]
0.040485363 -0.035565376 0.0075455625 -0.006403215 0.02228577 0.0015107815 -0.004676504 0.020170223
-0.052868627 -0.02074938 -0.04227884 0.049984798 0.030373164 0.014232528 0.02421282 -0.038334746
0.04661319 -0.026827123 -0.0017715435 0.014607312 -0.027522394 -0.018893901 -0.014074956 -0.042551093
0.01872691 -0.03945928 0.0001252875 -0.026218679 0.0404633 -0.018524501 0.033980615 -0.03403006
0.009879453 -0.02645886 0.02935603 0.03810054 -0.021196974 -0.022892535 -0.017353764 -0.011440359
0.022588382 -0.018334484 0.010758073 -0.02484934 0.042399727 -0.016560163 -0.0061584096 0.028409418
0.0130357025 -0.052355703 -0.009857817 0.0019555357 0.006956456 0.018534383 0.021122208 0.044139486
0.0056661796 0.026017616 -0.0056837746 -0.03064517 0.030323869 -0.009157224 0.024323694 -0.0053149187
-0.03369144 0.05974153 -0.017807748 -0.013712736 0.027703227 -0.041945413 -0.024734229 0.01633884
-0.025649715 -0.02958848 0.06672666 0.014676682 -0.014247569 -0.028711308 -0.0150830485 -0.026143905
0.0095634535 0.009606613 0.0046378374 -0.0018449372 0.016007526 0.010571064 0.03969129 -0.022405222
0.01394732 -0.011430745 -0.06616908 0.034626633 -0.006768217 -0.038388047 0.02114604 0.041250583
0.018597737 0.012100703 0.009659046 0.030242419 -0.020692645 -0.0035552455 0.020502904 -0.010140038
-0.031377975 -0.0069701704 0.033294342 0.030260347 0.012807165 0.010394107 -0.0089214295 0.006827086
-0.0077724843 0.008058444 -0.015978979 -0.013511579 0.024933983 -0.02083212 -0.016474182 -0.024548389
-0.032991916 0.025277259 -0.012005226 0.01865724 -0.02243249 0.04947222 0.01443679 0.024089033
0.020200651 0.019649101 0.0015147609 0.008229547 0.04914631 0.003486779 -0.028278507 -0.021522678
-0.028357636 -0.0046554743 0.014638644 -0.014330032 0.0060164444 0.022070806 0.01826614 0.0053450116
-0.037100945 0.062055767 0.05541354 0.014830691 -0.0074125305 0.029876918 -0.024202667 -0.010167772
-0.017713023 6.53819e-05 -0.02819781 0.01354981 -0.055479966 -0.01969765 0.009679844 -0.00035052455
-0.048138972 0.023235573 -0.0011492299 -0.008448652 -0.020947304 -0.021682303 0.024705295 0.02359114
-0.0053301393 -0.0029753086 0.0475282 -0.0045744465 -0.041761775 -0.012859362 0.008339357 -0.0118911965
-0.0101483455 -0.019011913 -0.00836435 -0.020754194 0.01795196 -0.03155686 -0.019684266 -0.046698425
0.012816016 -0.038623538 0.023131872 0.04037271 -0.021968717 0.030809084 0.007895126 -0.0037852323
-0.006289793 -0.06997714 0.015066739 0.02674167 0.022824882 0.008562607 -0.0036527424 -0.051151916
0.053462196 0.0023786107 -0.026876567 -0.012986326 -0.05888792 0.03057399 0.017184768 0.0030154279
-0.024535015 -0.013012909 -0.015085503 0.0117744375 -0.041318707 0.012894946 -0.0046306076 0.05770908
-0.00048019318 -0.0063632503 0.040742844 0.00020902303 0.017031342 0.012329609 -0.06302616 0.0072445604
-0.000860115 -0.007188364 0.029570332 -0.035510328 0.001279059 0.014966904 -0.023700058 -0.022012373
0.005228235 -0.0026183056 -0.038546234 0.005654178 -0.018025562 -0.03610536 -0.04836408 0.012455361
0.0096886195 0.042377863 -0.010359378 -0.008936557 0.017247157 0.048166297 -0.025435133 -0.013488042
0.010057121 -0.040145334 0.0133614745 -0.02944394 -0.009661316 -0.026303563 -0.01607418 -0.0053189727
00000000: fbd3 253d 00ad 11bd c440 f73b 10d2 d1bb
00000010: a690 b63c 6a05 c63a 5c3d 99bb 063c a53c
00000020: c68c 58bd 9bfa a9bc 942c 2dbd dcbc 4c3d
00000030: 24d1 f83c 8d2f 693c f759 c63c e504 1dbd
00000040: 79ed 3e3d 8ec4 dbbc 2333 e8ba 8253 6f3c
00000050: a576 e1bc 62c7 9abc a59a 66bc 0e4a 2ebd
00000060: 2d69 993c 0ea0 21bd 9b5f 0339 8ec8 d6bc
00000070: d8bc 253d b2c0 97bc 422f 0b3d 1b63 0bbd
00000080: 6edd 213c 40c0 d8bc 0f7c f03c 500f 1c3d
00000090: 47a5 adbc 2089 bbbc 7b29 8ebc 5870 3bbc
000000a0: 450b b93c 3332 96bc a142 303c d890 cbbc
000000b0: 56ab 2d3d 2ea9 87bc 7ccc c9bb deba e83c
000000c0: b393 553c ef72 56bd ae82 21bc 7228 003b
000000d0: fcf2 e33b 6bd5 973c 7b08 ad3c 9bcb 343d
000000e0: 5cab b93b e522 d53c f53e babb 940b fbbc
000000f0: c369 f83c 2e08 16bc 7c42 c73c c528 aebb
00000100: 0900 0abd 89b3 743d 8ee1 91bc 62ab 60bc
00000110: e1f1 e23c f4ce 2bbd 709f cabc 08d9 853c
00000120: 5a1f d2bc 8a63 f2bc fda7 883d 7776 703c
00000130: a36e 69bc fa33 ebbc e41e 77bc be2b d6bc
00000140: 08b0 1c3c 0e65 1d3c 00f9 973b d2d1 f1ba
00000150: 3722 833c 4232 2d3c 5693 223d 288b b7bc
00000160: 4d83 643c 0548 3bbc a883 87bd a8d4 0d3d
00000170: ebc7 ddbb c93c 1dbd 763a ad3c 5ff6 283d
00000180: 485a 983c 0742 463c fa40 1e3c f3be f73c
00000190: 9f83 a9bc 1fff 68bb b5f5 a73c 6722 26bc
000001a0: 3186 00bd 0766 e4bb a65f 083d 8ce4 f73c
000001b0: 25d5 513c 0b4c 2a3c 302b 12bc c0b5 df3b
000001c0: 53b0 febb 9007 043c 59e6 82bc ab5f 5dbc
000001d0: 5a42 cc3c 1fa8 aabc ddf4 86bc b419 c9bc
000001e0: 8822 07bd 4112 cf3c 91b1 44bc 11d7 983c
000001f0: 57c4 b7bc 62a3 4a3d 4988 6c3c 5d56 c53c
00000200: d67b a53c 27f7 a03c f18a c63a 39d5 063c
00000210: a44d 493d 7282 643b 54a8 e7bc 5450 b0bc
00000220: 464e e8bc f38c 98bb ecd6 6f3c 83c8 6abc
00000230: 9825 c53b d6cd b43c dfa2 953c 3525 af3b
00000240: 29f7 17bd 302e 7e3d 4ff9 623d 6dfc 723c
00000250: d0e4 f2bb 70c0 f43c ac44 c6bc ba96 26bc
00000260: e71a 91bc a41d 8938 18ff e6bc 0600 5e3c
00000270: f63e 63bd f75c a1bc 3598 1e3c 9cc6 b7b9
00000280: 5f2d 45bd 8758 be3c c2a1 96ba 376c 0abc
00000290: ae99 abbc 169f b1bc c262 ca3c 3542 c13c
000002a0: 73a8 aebb 65fd 42bb eeac 423d 3de5 95bb
000002b0: 650e 2bbd 13b0 52bc cca1 083c 4bd3 42bc
000002c0: 3f45 26bc dfbe 9bbc a00a 09bc b304 aabc
000002d0: fd0f 933c c441 01bd e640 a1bc d946 3fbd
000002e0: 44fa 513c b733 1ebd 0d7f bd3c db5d 253d
000002f0: bdf7 b3bc 5563 fc3c 8f5a 013c a911 78bb
00000300: 9c1a cebb 2d50 8fbd 7cda 763c 5911 db3c
00000310: 3ffb ba3c 2d4a 0c3c d962 6fbb ac84 51bd
00000320: 2dfb 5a3d 77e2 1b3b 3f2c dcbc 99c4 54bc
00000330: 7634 71bd 4e76 fa3c 12c7 8c3c 7c9e 453b
00000340: a8fd c8bc 1934 55bc 3029 77bc 92e9 403c
00000350: ce3d 29bd 5345 533c 5abc 97bb 5b60 6c3d
00000360: 70c2 fbb9 d082 d0bb f8e1 263d 312d 5b39
00000370: 5085 8b3c 2102 4a3c dc13 81bd c763 ed3b
00000380: 5779 61ba 5e8c ebbb 7b3d f23c 4773 11bd
00000390: 19a6 a73a bf37 753c a026 c2bc 4b53 b4bc
000003a0: 9d51 ab3b e197 2bbb a8e2 1dbd af46 b93b
000003b0: 58aa 93bc 37e3 13bd 6a19 46bd 9211 4c3c
000003c0: 04bd 1e3c 6994 2d3d 61ba 29bc a36a 12bc
000003d0: e949 8d3c 064a 453d 575d d0bc f3fc 5cbc
000003e0: 9fc6 243c 6f6f 24bd 16ea 5a3c 6b34 f1bc
000003f0: 7f4a 1ebc 927a d7bc 00ae 83bc c74a aebb

action_model._discrete_distribution.branches.1.bias f4 [3]
0.000305902 -0.0036760375 0.004926459
00000000: 7961 a039 ade9 70bb 226e a13b

action_model._discrete_distribution.branches.2.weight f4 [1, 128]
0.002949846 0.019472478 0.008903989 0.0010437849 -0.001169432 0.011716803 -0.0055492218 -0.015302493
0.00085711916 0.010755986 -0.0071905325 0.0073458143 -0.009791895 0.017536154 0.0030375104 0.0013460463
-0.0030404364 0.004327976 0.0077328817 -0.005837237 -0.0006926582 -0.0010675627 0.003027184 -0.010973602
-0.0122407125 0.004605181 0.0037149086 0.0056577628 -0.005422304 -0.012766555 0.010262406 -0.011445577
0.00798248 -0.0004029897 -0.0040006326 0.00802258 0.0080417795 0.008797339 -0.0004159303 0.00491924
0.004204912 -0.01806207 0.0055626123 0.0031665612 0.0016448414 -0.0044601266 -0.00095918233 0.0012085187
0.010779058 0.010038886 0.016277201 -0.012577923 -0.0009231024 0.000922814 0.007550262 -0.00783832
-8.109933e-05 -0.0014268972 -0.0021027941 0.009904933 0.0031755564 0.013006361 -0.010248676 0.0067918277
-0.007727392 -0.00074016675 -0.004037856 -0.007128908 0.00013930716 0.007841744 -0.0026846312 0.020380778
-0.00051025976 0.0019485133 0.00456581 -0.005529011 0.010380354 -0.0031055117 -0.00805522 -0.007410177
-0.0052406644 -0.011958455 0.019685373 -0.016277563 0.0014077228 0.0076418906 0.0026249334 -0.017594403
-0.0019199665 0.008619731 -0.007091708 0.0009527553 -0.00972097 -0.006772883 -0.0037470818 0.012375246
0.011589231 -0.020224614 -0.0059938245 0.004902769 -0.023336252 0.0011814948 -0.0042857765 -0.0019450337
0.0044436245 -0.001406719 -0.008536015 -0.009515042 0.0048106676 -0.003175468 0.0003050083 0.0014316604
-0.008359891 0.0034465734 0.00066886446 -0.0049758824 -0.011669056 -0.009182437 0.009334082 0.01341251
-0.022849722 -0.0028813514 0.005083141 -0.0020253982 0.00072705484 -0.010123559 0.0077413567 0.0040920046
00000000: 3452 413b bf84 9f3c 09e2 113c 9ccf 883a
00000010: a047 99ba d5f7 3f3c 3fd6 b5bb 4fb7 7abc
00000020: 4bb0 603a e039 303c 8f9e ebbb 28b5 f03b
00000030: 2f6e 20bc fba7 8f3c f810 473b d26d b03a
00000040: 0f42 47bb b2d1 8d3b 1d64 fd3b 4b46 bfbb
00000050: 8193 35ba 76ed 8bba b863 463b 9fca 33bc
00000060: 458d 48bc 0fe7 963b d375 733b c164 b93b
00000070: 95ad b1bb d02a 51bc a723 283c 3b86 3bbc
00000080: f3c8 023c 5d48 d3b9 bd17 83bb 2471 033c
00000090: abc1 033c b722 103c 3811 dab9 9331 a13b
000000a0: 5cc9 893b e8f6 93bc 9346 b63b 1586 4f3b
000000b0: b897 d73a 4126 92bb a371 7bba 2967 9e3a
000000c0: a59a 303c 247a 243c c457 853c a213 4ebc
000000d0: 5afc 71ba 00e9 713a 3068 f73b 4c6c 00bc
000000e0: df13 aab8 ba06 bbba 08cf 09bb 4d48 223c
000000f0: ff1c 503b a218 553c 10ea 27bc fb8d de3b
00000100: 1036 fdbb c007 42ba fe4f 84bb 9d99 e9bb
00000110: fb12 1239 a97a 003c a3f0 2fbb 97f5 a63c
00000120: f4c2 05ba 4265 ff3a ca9c 953b b52c b5bb
00000130: 5c12 2a3c d785 4bbb 0bfa 03bc 12d1 f2bb
00000140: e1b9 abbb 65ed 43bc 3843 a13c 8658 85bc
00000150: 5783 b83a d368 fa3b 1307 2c3b 2322 90bc
00000160: 63a7 fbba c639 0d3c 8f61 e8bb 53c2 793a
00000170: b444 1fbc 0fef ddbb 9a91 75bb 8bc1 4a3c
00000180: c2e0 3d3c 17ae a5bc d867 c4bb 68a7 a03b
00000190: ab2b bfbc 63dc 9a3a b36f 8cbb 80f0 feba
000001a0: d39b 913b a861 b8ba a4da 0bbc fbe4 1bbc
000001b0: cea2 9d3b 831b 50bb 85e9 9f39 8da6 bb3a
000001c0: edf7 08bc e8df 613b bc56 2f3a ba0c a3bb
000001d0: 912f 3fbc ef71 16bc faed 183c 25c0 5b3c
000001e0: 572f bbbc 0ed5 3cbb 7a90 a63b 8bbc 04bb
000001f0: d397 3e3a 49dd 25bc 35ab fd3b 3916 863b

onnx::Div_94 f4 [630]
0.1749238 0.482047 0.32620353 0.04863815 0.045794703 0.034656283 0.045488216 0.039421942
0.38123497 0.35343114 0.1780958 0.48399112 0.32795778 0.04554968 0.044681378 0.03489806
0.043021966 0.040680576 0.38599786 0.35580298 0.17568922 0.48196632 0.3257786 0.044430144
0.041091505 0.03408543 0.04536502 0.038121503 0.3833005 0.3547131 0.18337171 0.48446703
0.3260468 0.047474273 0.045488205 0.03577053 0.045426674 0.041901186 0.3861089 0.35504806
0.18033507 0.48404512 0.33007962 0.050609987 0.03920821 0.031787246 0.04729719 0.037752274
0.3845056 0.35520008 0.18275757 0.4828423 0.32708263 0.050054606 0.048349835 0.038849372
0.04328144 0.040680565 0.38096768 0.35221356 0.17950456 0.48409468 0.3313856 0.051159255
0.037153825 0.031698916 0.047709335 0.037528988 0.3833805 0.35606652 0.18292925 0.48167953
0.32581148 0.053612765 0.045117624 0.036468774 0.044430144 0.03616012 0.37777424 0.3521141
0.18671462 0.4842251 0.33224085 0.05164857 0.03521784 0.034167565 0.043987017 0.042034604
0.3801105 0.3537275 0.18988001 0.48322397 0.3292145 0.05104989 0.046401598 0.036004785
0.04366773 0.03639184 0.37621742 0.3508856 0.18804914 0.4853529 0.33621082 0.04960577
0.03841432 0.03196317 0.04455592 0.04282632 0.37992784 0.35197222 0.19267559 0.4827576
0.33152524 0.053664837 0.0444931 0.03782641 0.043216713 0.039065078 0.37302366 0.34924024
0.19108008 0.48784173 0.3485509 0.053089146 0.03913672 0.030892516 0.046341266 0.043667726
0.37792522 0.3518755 0.20197682 0.48511666 0.33182958 0.055707555 0.044303987 0.041967954
0.046159804 0.03797424 0.37630102 0.35060635 0.19545093 0.48908713 0.35359377 0.05550672
0.03584879 0.0329139 0.04449308 0.044177487 0.3762666 0.34992945 0.20537822 0.48716292
0.33906478 0.053036503 0.044493087 0.036622126 0.047000576 0.040404294 0.37655652 0.3484996
0.20218024 0.48956636 0.3508935 0.053456232 0.0378264 0.034249503 0.046761908 0.046401598
0.3771934 0.34855273 0.20755944 0.4894575 0.34719348 0.047356296 0.044050597 0.037229158
0.04811793 0.041967954 0.37830925 0.3491854 0.20748554 0.4914115 0.35224026 0.055757668
0.038341317 0.035297323 0.04863817 0.046099156 0.38179186 0.34883925 0.21446389 0.49189436
0.34732732 0.047767926 0.040542673 0.038632464 0.048981864 0.043475002 0.38529313 0.35031268
0.21341935 0.49161512 0.35427225 0.04903892 0.03631477 0.039845932 0.052025948 0.045794703
0.37854698 0.34723258 0.17514923 0.48173106 0.32646435 0.048695616 0.046099167 0.034978278
0.045488216 0.039492924 0.38166353 0.35333496 0.1783315 0.48370874 0.3281581 0.04567236
0.04499343 0.035138167 0.043021966 0.040749356 0.38648757 0.35572764 0.17589869 0.48166728
0.32604012 0.044493087 0.0414308 0.034331255 0.04542666 0.03819492 0.38377044 0.35463455
0.18355684 0.48418167 0.3262361 0.047533147 0.045794703 0.0360048 0.04554969 0.0420346
0.38657975 0.35495973 0.18055287 0.48376015 0.33030325 0.050665185 0.039705113 0.032050766
00000000: 3a1f 333e ddce f63e 2604 a73e cc38 473d
00000010: 3a93 3b3d bff3 0d3d da51 3a3d e778 213d
00000020: 3b31 c33e edf4 b43e bf5e 363e afcd f73e
00000030: 15ea a73e 4d92 3a3d d203 373d 45f1 0e3d
00000040: cd37 303d ada0 263d 83a1 c53e cf2b b63e
00000050: e0e7 333e 4ac4 f63e 74cc a63e 62fc 353d
00000060: 914f 283d 2a9d 0b3d acd0 393d 4b25 1c3d
00000070: f73f c43e f59c b53e cbc5 3b3e 100c f83e
00000080: 9bef a63e 6274 423d d751 3a3d 1f84 123d
00000090: 5211 3a3d 94a0 2b3d 11b0 c53e dcc8 b53e
000000a0: c2a9 383e c3d4 f73e 3200 a93e 6b4c 4f3d
000000b0: ca98 203d 5833 023d b3ba 413d 21a2 1a3d
000000c0: ebdd c43e c9dc b53e cd24 3b3e 1b37 f73e
000000d0: 6077 a73e 0f06 4d3d 7a0a 463d 8520 1f3d
000000e0: e147 313d aaa0 263d 320e c33e 5655 b43e
000000f0: 0bd0 373e 42db f73e 60ab a93e 5e8c 513d
00000100: 9c2e 183d b9d6 013d dd6a 433d ffb7 193d
00000110: 734a c43e 5a4e b63e ce51 3b3e b39e f63e
00000120: c3d0 a63e 0f99 5b3d 42cd 383d 4860 153d
00000130: 62fc 353d a21c 143d a06b c13e 4d48 b43e
00000140: 1e32 3f3e 5aec f73e 791b aa3e 738d 533d
00000150: 9540 103d 4af3 0b3d bb2b 343d 7a2c 2c3d
00000160: d89d c23e c51b b53e e86f 423e 2269 f73e
00000170: ce8e a83e b119 513d 9a0f 3e3d c179 133d
00000180: efdc 323d 9c0f 153d 929f c03e 47a7 b33e
00000190: f48f 403e 2d80 f83e d323 ac3e 6b2f 4b3d
000001a0: 5658 1d3d d0eb 023d 4580 363d a76a 2f3d
000001b0: e785 c23e b435 b43e c04c 453e 012c f73e
000001c0: adbd a93e a9cf 5b3d 663e 363d deef 1a3d
000001d0: 0204 313d b402 203d f5fc be3e 9ecf b23e
000001e0: 7faa 433e 64c6 f93e 4375 b23e 0174 593d
000001f0: d34d 203d 4d12 fd3c 57d0 3d3d eedc 323d
00000200: 6a7f c13e 0729 b43e 03d3 4e3e 3661 f83e
00000210: 91e5 a93e 9b2d 643d 1978 353d 97e6 2b3d
00000220: 1012 3d3d e08a 1b3d 87aa c03e ad82 b33e
00000230: 4a24 483e a169 fa3e 3e0a b53e 045b 633d
00000240: 2ed6 123d bad0 063d 603e 363d 74f3 343d
00000250: 04a6 c03e f429 b33e ab4e 523e 6b6d f93e
00000260: e699 ad3e ce3c 593d 623e 363d 1501 163d
00000270: ad83 403d f97e 253d 04cc c03e 8a6e b23e
00000280: 5608 4f3e 71a8 fa3e 50a8 b33e ecf4 5a3d
00000290: dbef 1a3d 3549 0c3d 6a89 3f3d 9a0f 3e3d
000002a0: 7e1f c13e 8175 b23e 768a 543e 2c9a fa3e
000002b0: 58c3 b13e adf8 413d 666e 343d 9a7d 183d
000002c0: 4e17 453d 97e6 2b3d c0b1 c13e 6ec8 b23e
000002d0: 1777 543e 4a9a fb3e d658 b43e 2762 643d
000002e0: c90b 1d3d ed93 103d d138 473d 78d2 3c3d
000002f0: 397a c33e 0f9b b23e 6c9c 5b3e 94d9 fb3e
00000300: e3d4 b13e 4da8 433d 1310 263d 133d 1e3d
00000310: 35a1 483d d812 323d 2445 c53e 2f5c b33e
00000320: 9a8a 5a3e fab4 fb3e 2c63 b53e 09dd 483d
00000330: ccbe 143d 7d35 233d 2919 553d 3a93 3b3d
00000340: e9d0 c13e 78c8 b13e 525a 333e 74a5 f63e
00000350: 5626 a73e 0e75 473d 7bd2 3c3d 6245 0f3d
00000360: da51 3a3d 55c3 213d 6769 c33e 52e8 b43e
00000370: 889c 363e aca8 f73e 5704 a83e f112 3b3d
00000380: 084b 383d 0aed 0f3d cd37 303d cce8 263d
00000390: b3e1 c53e ef21 b63e c91e 343e 189d f63e
000003a0: bbee a63e 623e 363d 58b3 293d ee9e 0c3d
000003b0: 4e11 3a3d 4772 1c3d 8f7d c43e a992 b53e
000003c0: 53f6 3b3e a9e6 f73e 6b08 a73e 1eb2 423d
000003d0: 3a93 3b3d c579 133d 5092 3a3d 792c 2c3d
000003e0: c8ed c53e 48bd b53e dae2 383e 69af f73e
000003f0: 821d a93e 4c86 4f3d d4a1 223d aa47 033d

onnx::Div_97 f4 [6]
8.2161665 29.28215 8.173376 28.779335 8.146794 28.265251
00000000: 6b75 0341 d841 ea41 26c6 0241 143c e641
00000010: 4559 0241 3c1f e241
