Assets/ZooheimTest/Models/0609_SimpleModel/WolfBehavior.onnx (onnx, 406457 bytes, 14 tensors)

discrete_act_size_vector f4 [1, 3]
0	0x40000000	2.0
1	0x40400000	3.0
2	0x3f800000	1.0

network_body.observation_encoder.processors.0.normalizer.running_mean f4 [630]
0	0x3e299a45	0.16562755
1	0x3e446eb7	0.1918286
2	0x3be53402	0.006994725
3	0x3c4e96e3	0.012609216
4	0x3c34b7c6	0.011030143
5	0x3b94b6b6	0.0045383824
6	0x3bc2530f	0.0059303115
7	0x3bf799cf	0.007556177
8	0x3b806655	0.003918449
9	0x3b0d0c50	0.0021522231
10	0x3b80c876	0.003930147
11	0x3b35ad13	0.0027721568
12	0x3c0f27f8	0.008737557
13	0x3e125c77	0.14293085
14	0x3e26648a	0.1624929
15	0x3e41eacd	0.18937226
16	0x3be03870	0.0068426654
17	0x3c43db89	0.011954197
18	0x3c2873e7	0.0102815395
19	0x3b8d6e69	0.0043161404
20	0x3bb60f33	0.005556011
21	0x3be5f839	0.007018116
22	0x3b79e67b	0.0038131762
23	0x3b000439	0.0019533767
24	0x3b6cde69	0.003614331
25	0x3b296938	0.0025850069
26	0x3c36d36f	0.011158808
27	0x3e15d26a	0.14631048
28	0x3e274a7f	0.16337012
29	0x3e3ef87e	0.1864948
30	0x3bdcc55f	0.0067373957
31	0x3c3cf55d	0.011533109
32	0x3c2e02ab	0.010620753
33	0x3b8c4812	0.0042810524
34	0x3bb7358b	0.0055910996
35	0x3bfe1dd2	0.0077550197
36	0x3b85c404	0.004082205
37	0x3b271c80	0.0025499165
38	0x3b7c3339	0.003848268
39	0x3b37f9cb	0.0028072472
40	0x3c14e7c5	0.009088461
41	0x3e1413ed	0.14460726
42	0x3e1f1f4d	0.15539284
43	0x3e3a3d53	0.18187456
44	0x3bb36058	0.0054741316
45	0x3c2d6f7d	0.010585663
46	0x3c021fde	0.007942168
47	0x3b7aaac2	0.0038248752
48	0x3b957af8	0.004561778
49	0x3bc1f0ed	0.005918613
50	0x3b754d16	0.003742998
51	0x3b03d96b	0.0020118605
52	0x3b437968	0.0029827002
53	0x3b367152	0.002783854
54	0x3c5d899c	0.013521578
55	0x3e1d6c93	0.15373449
56	0x3e203f8f	0.15649246
57	0x3e31e114	0.17371017
58	0x3ba71c84	0.005099835
59	0x3c33c27a	0.01097166
60	0x3c0fec36	0.008784344
61	0x3b7799c9	0.0037780872
62	0x3b8a5d78	0.004222568
63	0x3be533fc	0.0069947224
64	0x3b831533	0.00400033
65	0x3b195029	0.0023393726
66	0x3b7e7ff6	0.0038833595
67	0x3b31d7df	0.0027136726
68	0x3c3deaa8	0.011591591
69	0x3e1c0285	0.15235336
70	0x3e1601e1	0.14649154
71	0x3e336990	0.17520738
72	0x3baf8b26	0.005357164
73	0x3c163f31	0.009170339
74	0x3bdb3cdc	0.0066906046
75	0x3b7aaabd	0.003824874
76	0x3b7f442e	0.003895055
77	0x3b9fd435	0.004877592
78	0x3b83d96a	0.0040237205
79	0x3b0f5905	0.0021873128
80	0x3b3edff3	0.0029125183
81	0x3b3c9341	0.0028774294
82	0x3c7c0226	0.015381372
83	0x3e22e7f7	0.159088
84	0x3e1885c6	0.1489478
85	0x3e2b8b03	0.16752248
86	0x3b95dd17	0.004573475
87	0x3c249eb7	0.010047606
88	0x3bfee215	0.007778416
89	0x3b80c878	0.0039301477
90	0x3b62230e	0.0034505758
91	0x3bc8d713	0.0061291545
92	0x3b83d96a	0.0040237205
93	0x3b271c80	0.0025499165
94	0x3b62230e	0.0034505758
95	0x3b11a5c2	0.0022224043
96	0x3c585cf9	0.01320576
97	0x3e23917f	0.15973471
98	0x3e0a8244	0.13526255
99	0x3e2f4ac1	0.1711836
100	0x3b92cc1c	0.004479898
101	0x3c0c7923	0.008573803
102	0x3ba5f621	0.0050647412
103	0x3b6fef62	0.003661119
104	0x3b56a375	0.0032751237
105	0x3b8abf99	0.004234266
106	0x3b6c1a2f	0.0036026349
107	0x3af9e67e	0.0019065884
108	0x3b304f66	0.0026902794
109	0x3b34e8d6	0.0027604601
110	0x3c82fca5	0.01598961
111	0x3e277244	0.16352183
112	0x3e0cc5c8	0.13747323
113	0x3e280baa	0.164107
114	0x3b5767aa	0.0032868185
115	0x3c17c7ae	0.009263916
116	0x3bf8c02e	0.007591269
117	0x3b8b21b4	0.004245961
118	0x3b615ecf	0.0034388786
119	0x3bbdb996	0.005789946
120	0x3b723c18	0.0036962088
121	0x3b2f8b28	0.0026785824
122	0x3b4b23d0	0.0030996688
123	0x3b0d0c4e	0.0021522227
124	0x3c6780b8	0.01412981
125	0x3e295cbd	0.16539283
126	0x3df86a4e	0.12129651
127	0x3e2d1fc3	0.16906647
128	0x3b6f2b24	0.003649422
129	0x3c00c874	0.007860292
130	0x3b9bff03	0.0047606244
131	0x3b4be80e	0.0031113657
132	0x3b4be80d	0.0031113655
133	0x3b800438	0.003906753
134	0x3b56a36f	0.0032751223
135	0x3ac12cb1	0.001473805
136	0x3b0250ef	0.0019884666
137	0x3b1f7217	0.0024329477
138	0x3c834642	0.016024712
139	0x3e2df4a0	0.16987848
140	0x3dff0d01	0.12453652
141	0x3e29d488	0.1658498
142	0x3b41f0e8	0.0029593054
143	0x3c0f27fa	0.0087375585
144	0x3bdadabe	0.006678908
145	0x3b6e66e5	0.0036377248
146	0x3b3b0ac0	0.0028540343
147	0x3ba3474d	0.004982865
148	0x3b7c3338	0.0038482677
149	0x3b37358b	0.0027955498
150	0x3b259406	0.002526523
151	0x3af3c498	0.0018598018
152	0x3c5d899b	0.013521577
153	0x3e2d752a	0.16939226
154	0x3ddb6df0	0.10714328
155	0x3e2f19b5	0.1709965
156	0x3b53927a	0.0032283352
157	0x3bed408d	0.007240361
158	0x3b89993a	0.004199174
159	0x3b45c623	0.0030177913
160	0x3b2bb5f0	0.0026200972
161	0x3b7aaac1	0.003824875
162	0x3b499b55	0.003076275
163	0x3ad82bed	0.0016492583
164	0x3ad9b462	0.0016609544
165	0x3b018cb3	0.00197677
166	0x3c82697c	0.01591944
167	0x3e315eeb	0.17321365
168	0x3de02c2b	0.10945924
169	0x3e2b4aa4	0.16727692
170	0x3b945496	0.004526685
171	0x3bf799c5	0.0075561726
172	0x3bd209fe	0.0064098826
173	0x3b7e7ff2	0.0038833586
174	0x3b615ecf	0.0034388786
175	0x3b92cc1d	0.0044798986
176	0x3b868843	0.004105599
177	0x3b38be0f	0.0028189456
178	0x3b0561e7	0.0020352544
179	0x3aca5f93	0.001543986
180	0x3c631857	0.013860784
181	0x3e302cc2	0.17204574
182	0x3dc412b6	0.09573881
183	0x3e2ea83f	0.17056368
184	0x3b70b39a	0.0036728145
185	0x3bc93939	0.0061408547
186	0x3b849dad	0.0040471167
187	0x3b499b55	0.003076275
188	0x3b28a4f9	0.0025733097
189	0x3b4d7089	0.0031347594
190	0x3b37f9ca	0.002807247
191	0x3af0b39e	0.0018364077
192	0x3ab98246	0.0014153204
193	0x3ae780ba	0.0017662265
194	0x3c81bdc1	0.015837552
195	0x3e32c9b8	0.17459762
196	0x3dc60374	0.096686274
197	0x3e2f9d89	0.17149939
198	0x3b84ffc8	0.004058812
199	0x3bd26c1a	0.006421578
200	0x3bc2530d	0.0059303106
201	0x3b6b55ec	0.0035909368
202	0x3b55df2f	0.0032634248
203	0x3b8d6e71	0.004316144
204	0x3b6f2b23	0.0036494217
205	0x3b3113a1	0.0027019756
206	0x3b00c871	0.0019650722
207	0x3ac74e9b	0.0015205921
208	0x3c612dbd	0.013743815
209	0x3e31f42e	0.17378303
210	0x3e29e0ca	0.16589656
211	0x3e44e95c	0.19229645
212	0x3be71ea1	0.007053212
213	0x3c4fbd43	0.012679401
214	0x3c354af0	0.01106523
215	0x3b957af4	0.0045617763
216	0x3bc2530f	0.0059303115
217	0x3bfcf777	0.00771993
218	0x3b82b310	0.003988631
219	0x3b0d0c50	0.0021522231
220	0x3b87ae9e	0.004140689
221	0x3b3e1bb6	0.0029008216
222	0x3c10e182	0.008842828
223	0x3e12b905	0.14328392
224	0x3e26ae1f	0.1627736
225	0x3e42561e	0.18978164
226	0x3be1c0e8	0.0068894513
227	0x3c4501e5	0.0120243775
228	0x3c29071b	0.0103166355
229	0x3b8e32ad	0.004339537
230	0x3bb60f34	0.0055560116
231	0x3bea91b3	0.007158482
232	0x3b800435	0.0039067515
233	0x3b000438	0.0019533765
234	0x3b79e683	0.003813178
235	0x3b304f64	0.002690279
236	0x3c388cf8	0.011264078
237	0x3e163796	0.14669642
238	0x3e279722	0.16366246
239	0x3e3f7012	0.18695095
240	0x3bddebb9	0.006772485
241	0x3c3deaa8	0.011591591
242	0x3c2e95da	0.010655845
243	0x3b8d0c4e	0.0043044453
244	0x3bb7358b	0.0055910996
245	0x3c012a95	0.0078836875
246	0x3b874c7f	0.004128992
247	0x3b271c80	0.0025499165
248	0x3b84ffc7	0.0040588113
249	0x3b406871	0.0029359127
250	0x3c16d266	0.009205436
251	0x3e147cb9	0.14500703
252	0x3e1f62c6	0.15565023
253	0x3e3ab1d5	0.182319
254	0x3bb486b9	0.0055092243
255	0x3c2e64ca	0.010644147

network_body.observation_encoder.processors.1.normalizer.running_mean f4 [6]
0	0x4292892d	73.26792
1	0x42737d7a	60.872536
2	0x42927e19	73.246284
3	0x4273c7c7	60.945095
4	0x42927038	73.21918
5	0x42741116	61.016685

network_body._body_endoder.seq_layers.0.weight f4 [128, 636]
0	0xbc03b370	-0.008038387
1	0x3c519c7e	0.012793658
2	0xbd66899a	-0.05628357
3	0xbd75473e	-0.059882395
4	0x3d89db0f	0.06731235
5	0x3da5d294	0.08096805
6	0x3c79d5cd	0.015248728
7	0x3dbe5d5f	0.09295153
8	0xbcb495e2	-0.022044126
9	0x3db569e3	0.08858087
10	0xbcdba10d	-0.026810193
11	0xbd9963a9	-0.07489712
12	0xbc6aebeb	-0.014338474
13	0x3b379fad	0.0028018758
14	0xbdc0df70	-0.09417617
15	0xbd177fdd	-0.036987174
16	0xbd2d127b	-0.042253952
17	0x3badb8aa	0.0053015547
18	0x3cc0aae3	0.023518985
19	0xbda45582	-0.08024122
20	0xbd31c720	-0.04340279
21	0xbb941c4a	-0.004519974
22	0x3c968bbf	0.018377183
23	0x3d484bcf	0.04890042
24	0xbd80237b	-0.06256767
25	0xbcf82923	-0.030293053
26	0x3d31b7a6	0.04338803
27	0x3c4ad580	0.012380004
28	0xbcfd4720	-0.030917704
29	0x3ca0e880	0.019642115
30	0xbbb74ca4	-0.005593853
31	0x3cbdf39a	0.023187447
32	0xbce5b3d4	-0.02803985
33	0x3c9ce9fb	0.01915454
34	0x3d22269e	0.03958761
35	0xbc9643d4	-0.01834289
36	0xbbf13d59	-0.0073620495
37	0xbd0842e5	-0.03326692
38	0xbdc433b8	-0.09580177
39	0x3d419e81	0.0472703
40	0xbc203b5a	-0.0097797755
41	0x3d56cacf	0.052439507
42	0x3d220e74	0.039564565
43	0x3bfa299a	0.007634354
44	0xbd0aa223	-0.033846032
45	0xbd66a220	-0.05630696
46	0xbd06113d	-0.032731283
47	0x3c9ed1df	0.019387184
48	0xbb39526c	-0.0028277887
49	0xba8b3e28	-0.0010623382
50	0x3b6de80d	0.0036301643
51	0xbb243383	-0.0025055117
52	0xbd179c55	-0.037014324
53	0xbba92333	-0.005161667
54	0xba0d1301	-0.0005381555
55	0xbd72b3c7	-0.05925348
56	0x3cc58f02	0.024116043
57	0xbc3185c5	-0.010835116
58	0x3d45b763	0.048270594
59	0x3b8e8dab	0.004350384
60	0x3d477c86	0.04870274
61	0x3ca75a55	0.020428816
62	0xbd0942e1	-0.033511046
63	0x3dc4cbbc	0.09609172
64	0xbdad4a17	-0.08461397
65	0xbd4d6421	-0.05014432
66	0xbaabea06	-0.0013116009
67	0xbd8b90e3	-0.06814744
68	0x3d6dd807	0.058067348
69	0xbd891501	-0.06693459
70	0x3c9de340	0.0192734
71	0xbd39f636	-0.04540082
72	0x3c353341	0.011059583
73	0x3d5cbe7e	0.053892605
74	0x3bf5b7bb	0.007498709
75	0x3d874d42	0.06606533
76	0xbd7c3e06	-0.061582588
77	0x3dba9491	0.09110368
78	0xbd1a37f5	-0.03765102
79	0x3ccc2b3a	0.024922956
80	0xbc1622c7	-0.009163565
81	0xbce2d282	-0.027688269
82	0x3d971bc8	0.07378346
83	0xbc74d588	-0.014943488
84	0x3b391533	0.0028241395
85	0xbcd8f2a0	-0.02648288
86	0x3d5e7ef9	0.05432031
87	0x3dd74624	0.10511425
88	0xbd4e4b65	-0.05036487
89	0xbd88e015	-0.06683365
90	0xbd04776f	-0.032340463
91	0xbd3840a7	-0.044983532
92	0xbdba1a2f	-0.090870254
93	0xbce0b7a1	-0.027431311
94	0xbb30f081	-0.002699882
95	0x3c99f4b0	0.018793434
96	0x3d255662	0.040365584
97	0xbca2bfac	-0.019866787
98	0x3ca519ab	0.020153841
99	0x3c709c63	0.014685723
100	0x3cb291b3	0.02179799
101	0x3d3198a9	0.04335848
102	0x3c84e50d	0.016222501
103	0x3d34ed12	0.0441714
104	0xbe07f976	-0.13278756
105	0x3c3de7a7	0.011590875
106	0xbbfcbde0	-0.0077130646
107	0x3d399cfd	0.04531573
108	0x3de480bb	0.11157366
109	0xbd101541	-0.03517652
110	0xbd5887b2	-0.052863784
111	0xbcd8fe8b	-0.026488563
112	0xbb25b926	-0.002528736
113	0x3bf40faa	0.0074481564
114	0x3d529d6f	0.05141967
115	0x3b3eaacf	0.002909351
116	0xbd6c6dc7	-0.05772188
117	0x3dfa79ce	0.12230264
118	0xbda9ed8d	-0.08297262
119	0x3c3d9e25	0.011573349
120	0xbc984912	-0.01858953
121	0xbd73d1c9	-0.05952624
122	0xbc9886c9	-0.018618958
123	0xbc77953c	-0.015111264
124	0xbd3ea9f5	-0.046548802
125	0x3c76a2d2	0.015053468
126	0x3d46ca8e	0.048533015
127	0x3d7e0001	0.062011722
128	0xbd15bf01	-0.03655911
129	0xbc3cffe1	-0.011535616
130	0x3bf50332	0.0074771876
131	0xbce3bb45	-0.027799258
132	0xbc0f21e2	-0.008736106
133	0x3dc18387	0.09448915
134	0xbbb881e1	-0.005630717
135	0x3c9a4784	0.01883293
136	0x3d54395f	0.051812526
137	0xbc67d16c	-0.014149051
138	0x3e044eb4	0.12920648
139	0x3d46927e	0.04847955
140	0x3d23d9fa	0.0400028
141	0xbd822374	-0.063544184
142	0xbcbe22a6	-0.023209881
143	0x3c97a76e	0.018512454
144	0xbbe36a15	-0.006940136
145	0x3d82c0da	0.0638444
146	0x3d7443ce	0.059634976
147	0xbd154f96	-0.036452852
148	0x3cd56fb1	0.026054235
149	0x3b81e5ff	0.0039641852
150	0x3df2bebe	0.118527874
151	0x3b5d265f	0.0033744795
152	0x3b68d2cb	0.0035526033
153	0x3d0a1f1b	0.03372107
154	0x3da4d359	0.08048124
155	0x3d36eb34	0.0446579
156	0xbd6ee7fd	-0.05832671
157	0x3c43e6ff	0.011956929
158	0xbbb3a5c6	-0.005482408
159	0xbd500885	-0.050789375
160	0x3d93792e	0.072008476
161	0x3c8722a6	0.016496014
162	0x3c530da1	0.012881667
163	0xbd7ed321	-0.062213067
164	0xba239b31	-0.0006241082
165	0x3b32dcd9	0.002729228
166	0xbaf17572	-0.0018421842
167	0xbbe7f294	-0.007078478
168	0x3ce56b57	0.028005285
169	0x3cc8ce80	0.02451253
170	0x3d85e93a	0.06538625
171	0xbc6ed209	-0.0145764435
172	0x3da5257a	0.08063789
173	0xbc0dd600	-0.008656979
174	0x3d317e8e	0.043333583
175	0xbc960ec9	-0.018317597
176	0xbdc9beca	-0.09850843
177	0xbd23090f	-0.03980356
178	0xbc217e24	-0.009856734
179	0xbdc82cbc	-0.097741574
180	0xbcdb5192	-0.026772294
181	0xbce8b191	-0.028404983
182	0x3d07cff3	0.0331573
183	0xbc6dc08d	-0.01451124
184	0x3d03d8a1	0.032189015
185	0xbd19dbcd	-0.037563134
186	0xbd833cef	-0.064081065
187	0x3d2a69d9	0.04160485
188	0xbd5ee3df	-0.054416534
189	0xbcebe485	-0.02879549
190	0xbcbb100f	-0.022834806
191	0x3cdd5aa7	0.027020765
192	0xbc9cdd98	-0.019148633
193	0xbd531837	-0.051536765
194	0xbcdc58a4	-0.026897736
195	0x3d6429c8	0.05570391
196	0xbdb48951	-0.088152535
197	0x3cf731f7	0.030175192
198	0x3cfe211b	0.031021645
199	0xbd30be0f	-0.043150004
200	0x3d14a496	0.036289774
201	0xbbe79d89	-0.00706834
202	0xbdc266bd	-0.09492252
203	0xbcb9c048	-0.022674695
204	0xbcb411fe	-0.021981236
205	0x3c4c989a	0.012487555
206	0x3cd54650	0.026034504
207	0xbc47f532	-0.012204455
208	0x3be469e0	0.006970629
209	0xbd90df9e	-0.070739016
210	0xbd45b1ba	-0.048265196
211	0xbd10b978	-0.035333127
212	0xba64d66f	-0.0008729463
213	0x3d62963b	0.055319052
214	0x3d960acd	0.07326279
215	0xbd0d2464	-0.034458533
216	0x3c818e17	0.015814824
217	0x3c34faa4	0.0110460855
218	0xbd8671c8	-0.06564671
219	0x3d5555c9	0.052083764
220	0xbd20a4d0	-0.039219677
221	0xbd95208c	-0.072815984
222	0x383ccd51	4.501391e-05
223	0x3baa2dc6	0.005193445
224	0x3ce4b626	0.027918886
225	0x3d9810aa	0.074250534
226	0x3a40652f	0.0007339296
227	0x3c0c7e40	0.008575022
228	0x3cf1c4d3	0.029512798
229	0x3c69e3b1	0.014275477
230	0xbd23b69d	-0.039969075
231	0xbc1e9c9d	-0.009680894
232	0x3dad5dfa	0.0846519
233	0xba3d6860	-0.0007225331
234	0x3bad8bfa	0.0052962275
235	0xbd07a87a	-0.033119656
236	0x3bba30af	0.005682073
237	0x3cae5fd4	0.021285929
238	0x3cdd0608	0.026980415
239	0x3d4446de	0.047919147
240	0x3bdff84c	0.006835019
241	0x3d584d46	0.05280807
242	0x3d22f5fc	0.03978537
243	0xbb0832ce	-0.0020782235
244	0xbd6fe326	-0.058566235
245	0x3d593a04	0.053033844
246	0x3d601874	0.05471082
247	0x3d1c61e2	0.038179286
248	0x3c6ae337	0.014336399
249	0xbc1c4b37	-0.009539417
250	0xbd329289	-0.043596778
251	0xbd6f66d4	-0.058447674
252	0x3d961a67	0.073292546
253	0xbd4ce79f	-0.05002558
254	0x3d3bcf49	0.04585198
255	0x3d2bb68f	0.04192215

network_body._body_endoder.seq_layers.0.bias f4 [128]
0	0xbbbaf741	-0.0057057445
1	0xbc199136	-0.009373
2	0xbc1e92c9	-0.009678551
3	0x3c92b40f	0.017908124
4	0xbc1361b0	-0.0089954585
5	0x3cac7cea	0.021055657
6	0xbaef6151	-0.0018263255
7	0x3c96386a	0.018337447
8	0xbcac4ae0	-0.021031797
9	0xbc59465f	-0.013261407
10	0xbc7bf9fa	-0.015379423
11	0xbccd81cf	-0.025086312
12	0xbb577582	-0.0032876437
13	0xba12f3cd	-0.0005605787
14	0x3b943456	0.0045228405
15	0x3bb0ec89	0.005399291
16	0xbbbb7d0a	-0.005721693
17	0x3c5d020c	0.013489258
18	0xbbcebe8e	-0.006309337
19	0xbc0f2445	-0.008736675
20	0xbc6b7a9e	-0.014372496
21	0xbbb77151	-0.005598225
22	0xbc197fd7	-0.009368858
23	0x3b5848d2	0.0033002389
24	0x3bbe1036	0.0058002723
25	0xbc524b74	-0.012835372
26	0xbb8db3c5	-0.0043244087
27	0x3b981ebb	0.004642335
28	0xbc9b8d99	-0.018988417
29	0xbb0a66e1	-0.002111845
30	0x3d00d3e1	0.031452063
31	0xbba2b7e2	-0.004965768
32	0xbc12216b	-0.0089191
33	0x3ac2797e	0.0014837233
34	0x3bc6d214	0.0060675237
35	0x3be78c77	0.0070663053
36	0xbb304068	-0.0026893858
37	0xbbe1e9b6	-0.0068943156
38	0xbbc1ec04	-0.005918028
39	0x3c885961	0.016644182
40	0x3a7d4d3f	0.00096626946
41	0xba79348a	-0.0009506425
42	0xbc37e8f3	-0.011224973
43	0xbc175e6c	-0.0092388205
44	0x3c451987	0.012030012
45	0xbc4b75d2	-0.012418227
46	0xbb18e599	-0.002333021
47	0xbb2b6394	-0.0026151882
48	0x3c859e15	0.016310731
49	0xbc255fd7	-0.010093651
50	0x3b9c236d	0.0047649653
51	0x3c70d431	0.014699028
52	0x3c929ace	0.017896082
53	0x3c0f7886	0.008756762
54	0xbbff9b3d	-0.0078004883
55	0x3c833001	0.016014101
56	0xbc325a80	-0.010885835
57	0x3c700509	0.014649638
58	0xba9223d5	-0.0011149595
59	0x3a167d74	0.000574074
60	0x3c48fe08	0.012267597
61	0x3bd173e7	0.0063919905
62	0xbb9e2503	-0.0048261895
63	0xbc327bb7	-0.010893754
64	0xbc1b9dda	-0.009498084
65	0xbb369a0f	-0.0027862822
66	0x3c1e640c	0.009667408
67	0xbc5d6e7c	-0.013515111
68	0xbc796603	-0.015222075
69	0x3ac575ce	0.0015065016
70	0x3ac1eaff	0.0014794766
71	0xbc258773	-0.010103094
72	0xbca91969	-0.020642
73	0x3b23b71d	0.002498097
74	0xbb3bae30	-0.002863776
75	0x3c6284de	0.013825623
76	0xba8135e2	-0.0009857977
77	0x3c0279f2	0.007963644
78	0xba8c4582	-0.0010701867
79	0x3c1f6dd7	0.009730778
80	0xbc5599d8	-0.0130371675
81	0x3bd7f086	0.006589952
82	0xbc9bcc40	-0.019018292
83	0xbb62471f	-0.0034527255
84	0x3abe7d2b	0.0014533153
85	0x3c01824a	0.0079045985
86	0xbc17baf5	-0.009260883
87	0xbcf7b929	-0.030239658
88	0xbc86189f	-0.016369162
89	0x3bf39972	0.0074340636
90	0x3b6de4df	0.0036299748
91	0xbb418b82	-0.0029532616
92	0xbcc8caa7	-0.024510695
93	0xbc8fbf50	-0.01754728
94	0x3b9248ec	0.0044642594
95	0x3b81cf0b	0.003961449
96	0xbce4db2c	-0.02793654
97	0x3b7cfd91	0.0038603286
98	0xbc82851c	-0.015932612
99	0xbc6063ab	-0.013695638
100	0x38af9d94	8.3740015e-05
101	0x3bbb83b4	0.0057224873
102	0xb9fd3eea	-0.00048302795
103	0xbc123457	-0.008923612
104	0x3bdd2411	0.006748684
105	0xbbb46a41	-0.0055058305
106	0x396f4559	0.0002281865
107	0xbc4813f8	-0.012211792
108	0x3c65bbb6	0.014021805
109	0x3c5fc0fa	0.013656849
110	0xbc3a6611	-0.011376874
111	0x3c324c16	0.010882398
112	0xbc67cb0e	-0.014147533
113	0xbb09a430	-0.0021002404
114	0xbcd35109	-0.025795477
115	0xbc37c607	-0.011216647
116	0xbb4df2c9	-0.0031425229
117	0xbb8b1c1a	-0.0042452933
118	0x3bd7c526	0.006584781
119	0x3c1e937d	0.009678719
120	0xbcb3df4b	-0.02195706
121	0xbbc24ebd	-0.0059297965
122	0xbba3f9c0	-0.0050041378
123	0xbb3ecbc6	-0.0029113158
124	0x3b669625	0.0035184708
125	0x3bede173	0.0072595417
126	0x3cbabce9	0.022795158
127	0xba25885e	-0.0006314571

network_body._body_endoder.seq_layers.2.weight f4 [128, 128]
0	0x3cd78187	0.02630688
1	0x3cbeb270	0.023278445
2	0xbdbc0e90	-0.09182465
3	0x3daa8675	0.08326427
4	0xbe138c45	-0.14408977
5	0x3dd62da4	0.10457924
6	0xbe41c6b3	-0.18923454
7	0xbd9bf8f2	-0.07615842
8	0x3df9192b	0.121630035
9	0xbca5fecc	-0.020263098
10	0xbbc93137	-0.0061399
11	0xbe481163	-0.19537883
12	0xbdbcf758	-0.092268646
13	0x3cb89012	0.022529636
14	0x3daffb60	0.08592868
15	0xbc949259	-0.01813619
16	0x3d849e33	0.064754866
17	0x3de4b9d7	0.11168259
18	0x3dcd6912	0.10029806
19	0xbda68422	-0.08130671
20	0xbe2a2917	-0.16617237
21	0xbdf17148	-0.11789185
22	0x3d308a79	0.043100808
23	0xbd6bdb8a	-0.057582416
24	0xbe176940	-0.14786243
25	0x3d896d94	0.067103535
26	0xbde92fdb	-0.11386081
27	0xbe0ac351	-0.1355107
28	0xbe12017b	-0.14258377
29	0xbbc769dd	-0.006085618
30	0x3d959a05	0.073047675
31	0x3da47c74	0.0803155
32	0x3e1ceb34	0.15324098
33	0xbd99f70f	-0.07517826
34	0xbd858f7c	-0.06521508
35	0x3d98acf4	0.07454863
36	0xbe50206a	-0.20324865
37	0x3e39fedb	0.18163626
38	0x3dab2746	0.083571
39	0xbc61c5cf	-0.013780071
40	0x3c3f4a23	0.01167539
41	0xbcba838f	-0.02276781
42	0x3e13f798	0.14449918
43	0xbc7d2c4a	-0.015452454
44	0xbddc9a27	-0.1077159
45	0xbd79524b	-0.060869496
46	0xbdb71a49	-0.0894056
47	0xbe16bf17	-0.14721332
48	0x3d9c83ab	0.07642301
49	0x3c94a815	0.018146554
50	0xbe3a4d90	-0.1819365
51	0x3bbddaeb	0.0057939193
52	0x3d417f72	0.047240682
53	0x3d9e9a4b	0.07744273
54	0xbbc180c7	-0.005905244
55	0xbcdff8ab	-0.027340254
56	0x3de6bb9f	0.11266255
57	0xbdcab318	-0.09897441
58	0xbd91d231	-0.07120169
59	0xbdc2bb0e	-0.09508334
60	0xbdcfe6d9	-0.101514526
61	0x3d930e63	0.071804784
62	0xbdb5eb19	-0.08882732
63	0x3e399d3a	0.18126383
64	0x3cda6b0c	0.026662372
65	0x3dcd5f19	0.10027904
66	0xbd82deb9	-0.06390137
67	0x3c9c91b6	0.01911245
68	0x3dee0066	0.1162117
69	0xbcc0fdba	-0.023558486
70	0xbdc7e479	-0.097603746
71	0xbcf4d227	-0.029885365
72	0x3d78ecfc	0.06077288
73	0xbc6df291	-0.014523164
74	0x3bfa3b85	0.00763649
75	0xbc365130	-0.011127755
76	0xbe04c2e8	-0.12964976
77	0xbc97e4e0	-0.018541753
78	0xbca80c9d	-0.020513827
79	0xbe124e01	-0.14287569
80	0x3c23e1e8	0.010002591
81	0x3d22d8dd	0.0397576
82	0x3d44b91e	0.048028104
83	0xbc46655b	-0.012109126
84	0xbd364d7a	-0.04450748
85	0xbcdcd3af	-0.026956407
86	0xbdae9cd1	-0.08526004
87	0xbdcd1aba	-0.10014863
88	0xbd43e55a	-0.04782615
89	0x3e13549b	0.14387743
90	0xbc1cd9ca	-0.009573409
91	0x3e3eb5e1	0.18624069
92	0xbe52ad19	-0.20573844
93	0xbe069ef2	-0.1314657
94	0xbd84f2af	-0.06491601
95	0x3d90ff52	0.070799485
96	0xbcedbeba	-0.02902161
97	0x3cf097b3	0.02936921
98	0xbdc3b96a	-0.09556849
99	0x3da98c8b	0.082787596
100	0x3db357f4	0.0875701
101	0x3e04d96c	0.12973565
102	0xbde4c16c	-0.11169705
103	0xbe1af365	-0.1513191
104	0x3bffd3a0	0.00780721
105	0x3ea46333	0.32106933
106	0x3dbf6893	0.09346118
107	0x3ba141cc	0.0049211737
108	0x3cfaffae	0.030639496
109	0x3d9d1891	0.07670701
110	0xbcc366c1	-0.023852708
111	0x3dd8e8b8	0.105912626
112	0xbd87b116	-0.06625573
113	0xbcf9a6b9	-0.030475007
114	0xbd3837c3	-0.044975054
115	0xbc162955	-0.009165128
116	0x3ce92f43	0.028464919
117	0xbd34bccb	-0.04412536
118	0xbd81e339	-0.063421674
119	0x3cb427cf	0.021991638
120	0xbddb7b2d	-0.10716853
121	0x3d140dfb	0.036146145
122	0x3b237163	0.002493941
123	0xbda7d22e	-0.081943855
124	0xbdd5df85	-0.104430236
125	0xbd8d5684	-0.06901267
126	0x3d58a658	0.052893013
127	0xbe293a08	-0.16526043
128	0xbd8f6ecc	-0.07003555
129	0xbd086647	-0.033300664
130	0xbd14c987	-0.036325004
131	0xbd9d31ce	-0.07675515
132	0x3d972df5	0.073818125
133	0x3e4227ca	0.18960491
134	0xbd1d01bb	-0.03833173
135	0xbd9b2507	-0.07575422
136	0xbd1aafaf	-0.0377652
137	0xbdab978b	-0.08378514
138	0xbccaac60	-0.024740398
139	0xbc3dbd19	-0.011580729
140	0x3ca07796	0.019588273
141	0x3dd41da1	0.10357214
142	0xbdce94f2	-0.10087003
143	0xbc07ad11	-0.008281008
144	0xbe376e1b	-0.17913096
145	0xbc0fa3f7	-0.00876712
146	0xbd037d88	-0.032102138
147	0xbd2a066a	-0.041510023
148	0xbe50552e	-0.20344993
149	0x3d534763	0.05158175
150	0xbd47862a	-0.048711933
151	0xbd3d9f21	-0.046294335
152	0x3dd61149	0.10452516
153	0x3d8edae3	0.06975343
154	0xbd4658e6	-0.048424624
155	0x3df63d60	0.12023425
156	0xbe1b23d4	-0.15150386
157	0x3cb10e02	0.021613125
158	0xbd526c1b	-0.05137263
159	0x3df27bce	0.1184002
160	0x3cfbf79d	0.03075772
161	0x3da321b3	0.07965412
162	0x3ca8b2e4	0.020593114
163	0x3d253629	0.040334854
164	0x3e1b69c0	0.15177059
165	0x3bd14d3c	0.006387381
166	0xbd164662	-0.036688216
167	0xbdab3368	-0.08359414
168	0xbd9b8260	-0.075932264
169	0xbdef0300	-0.11670494
170	0x3d94cdae	0.07265793
171	0x3dfa8994	0.12233272
172	0x3d6b8848	0.057503015
173	0x3d0ffd30	0.035153568
174	0xbdf19a28	-0.11796981
175	0x3db9ba35	0.09068719
176	0x3bcc5b36	0.006236459
177	0x3e4d809a	0.20068589
178	0x3d555251	0.052080456
179	0xbd552a87	-0.05204251
180	0xbd7b3b68	-0.06133595
181	0xbd457030	-0.048202693
182	0xbcecc0b6	-0.028900485
183	0x3e3661fe	0.17810819
184	0xbd6a023a	-0.05713103
185	0x3dd6ab00	0.104818344
186	0xbe86d7f7	-0.26336643
187	0x3a588eb2	0.00082610094
188	0x3d863b47	0.06554275
189	0x3d246529	0.040135536
190	0x3c919909	0.017773168
191	0xbaf863d8	-0.0018950654
192	0x3d98c09d	0.07458613
193	0x3d7d09ea	0.061777033
194	0xbd422050	-0.047394097
195	0xbd6cceae	-0.057814293
196	0x3d5d02e8	0.05395785
197	0xbda326af	-0.07966363
198	0xbd034b12	-0.032054015
199	0xbc04ba1f	-0.008101015
200	0x3b871a1c	0.0041229855
201	0x3cc3f367	0.023919774
202	0x3d85e776	0.06538288
203	0xbbac5bb0	-0.0052599534
204	0xbdeabd78	-0.114619195
205	0x3d7a0c07	0.061046626
206	0xbdeb670c	-0.11494264
207	0xbd88eef7	-0.06686204
208	0xbe176e82	-0.14788249
209	0xbb537436	-0.0032265312
210	0x3d8331be	0.06405972
211	0xbcca7fe8	-0.024719194
212	0x3b4e1af0	0.0031449161
213	0x3d88ac94	0.06673542
214	0x3e03ab21	0.12858249
215	0xbe8732a0	-0.2640581
216	0xbdc471bd	-0.09592006
217	0xbb853c2a	-0.00406601
218	0x3de8a9bd	0.113605
219	0x3bf71e1d	0.0075414316
220	0x3cfb8e88	0.030707613
221	0x3dc5375e	0.09629701
222	0x3b74cdb8	0.0037354063
223	0xbd0795cf	-0.033101853
224	0xbe5516c8	-0.20809472
225	0xbdbad9a5	-0.09123544
226	0xbe1b283c	-0.15152067
227	0xbe60ecf9	-0.21965398
228	0xbcdb7fd0	-0.026794344
229	0x3ccefbc7	0.025266541
230	0xbd0a178f	-0.033713873
231	0x3b91a9c6	0.0044452874
232	0xbd8d1264	-0.06888273
233	0xbde7f9a8	-0.11326915
234	0xbdc1f835	-0.0947117
235	0x3e2e41c6	0.17017278
236	0xbcf31884	-0.029674776
237	0xbe899b3c	-0.26876247
238	0xbdf54dd9	-0.11977739
239	0xbd393e4b	-0.045225423
240	0x3d444e8d	0.047926474
241	0x3c47326b	0.012158017
242	0xbcc9f01f	-0.024650631
243	0x3e6341b5	0.22193034
244	0xbd8514ab	-0.06498083
245	0x3c29b8e2	0.010359021
246	0x3e0ed9fe	0.13950345
247	0xbe2f44c0	-0.1711607
248	0x3ca9bec0	0.02072084
249	0x3c8230b2	0.01589236
250	0x3e490962	0.19632486
251	0xbb98c3b6	-0.0046620024
252	0x3cdc1db3	0.02686963
253	0xbdadb51e	-0.08481811
254	0x3d79448f	0.0608564
255	0xbe3eb78f	-0.1862471

network_body._body_endoder.seq_layers.2.bias f4 [128]
0	0x3c6ab670	0.014325723
1	0x3c387018	0.011257194
2	0x3c310f2a	0.010806838
3	0xbb6e1fff	-0.003633499
4	0x3c2adff7	0.010429374
5	0x3a94a8b5	0.0011341783
6	0x3b5db5b6	0.0033830232
7	0xbb4615d3	-0.003022541
8	0x3baaf5d6	0.005217294
9	0xbc729d92	-0.0148080755
10	0xbc23238c	-0.0099572055
11	0x3c0115a1	0.007878692
12	0x3c895eb9	0.0167688
13	0x3c860331	0.016358944
14	0x3b5c6556	0.0033629737
15	0x3c0707b4	0.008241583
16	0x3b1642d8	0.0022928026
17	0x3c6e12e7	0.014530874
18	0x3c25efd1	0.0101279775
19	0xbbaba842	-0.0052385638
20	0xbb1571a8	-0.002280334
21	0x3bde2f53	0.006780544
22	0xbbae1243	-0.0053122356
23	0xbb12dad7	-0.002240827
24	0xbb2ce015	-0.002637868
25	0xbb84a0a4	-0.00404747
26	0xba3ceb87	-0.0007206727
27	0x3c87bd83	0.016569858
28	0xbc7d002f	-0.015441938
29	0x3b89aea6	0.004201728
30	0x3cc7621a	0.02433877
31	0xbcc97e33	-0.02459631
32	0xbb52ad98	-0.0032146927
33	0x38a141bd	7.689323e-05
34	0x3b1ac38c	0.002361509
35	0x3c807c48	0.015684262
36	0x3c44e0f6	0.0120165255
37	0xbcafb33b	-0.021447768
38	0xbc6f9b75	-0.014624466
39	0x3c6bc505	0.014390235
40	0x3ae2870c	0.0017282679
41	0x3c939682	0.018016104
42	0xbada74ce	-0.0016666891
43	0x3c0bbdff	0.008529185
44	0x3c20488b	0.009782921
45	0x3bbad9f5	0.005702252
46	0x3c216aa2	0.009852083
47	0x3ba97da8	0.00517245
48	0xbb78f915	-0.0037990261
49	0x3bdde888	0.0067721047
50	0x3ca65d98	0.0203083
51	0xbabfe333	-0.0014639854
52	0xbc5639ea	-0.013075331
53	0xbc846de6	-0.016165685
54	0x3beefef2	0.0072935754
55	0xbc3e280e	-0.0116062295
56	0xbc48e48b	-0.01226152
57	0xbc4d0d16	-0.012515327
58	0xbc85ff7b	-0.016357174
59	0x3c935e5d	0.017989332
60	0xbb742d8d	-0.0037258596
61	0xbb7b81be	-0.0038376893
62	0xbbc558cd	-0.006022549
63	0xbbb06dbc	-0.005384175
64	0x3c4867f3	0.012231815
65	0xbcdf66d2	-0.027270708
66	0x3c8dfae5	0.01733155
67	0xbc40f9dd	-0.011778322
68	0x3c5c1801	0.013433457
69	0x3c6af4fb	0.014340634
70	0xbcbd9316	-0.023141425
71	0x3a7cb897	0.0009640543
72	0x3cd206a5	0.025637934
73	0x3a7f82af	0.00097469514
74	0x3b7cecf1	0.0038593377
75	0xbc7180c6	-0.014740175
76	0xbc9dc848	-0.01926054
77	0x3ca7a6d9	0.020465301
78	0xbca5bd26	-0.020231795
79	0x3ba99e46	0.0051763384
80	0x3cae0817	0.021244092
81	0x3c07d18d	0.008289707
82	0xba741664	-0.0009311198
83	0x3c52dd1a	0.0128700975
84	0xbca9fcd9	-0.02075045
85	0xbc7caf3e	-0.01542264
86	0x3cb7a94d	0.022419596
87	0xbaef989d	-0.0018279735
88	0x39d7c7de	0.00041156908
89	0x3c70554d	0.014668775
90	0x3b631733	0.003465128
91	0xbbd097ff	-0.0063657756
92	0x3c6897b5	0.014196326
93	0x38671f50	5.5103854e-05
94	0x3c34f62c	0.01104502
95	0xbc96fcb1	-0.01843104
96	0x3bf3af1c	0.007436646
97	0x3bcfb332	0.0063385004
98	0x3c158e98	0.009128235
99	0xbc49b040	-0.012310088
100	0xbbcefcf1	-0.006316774
101	0xbcbd18a2	-0.023083035
102	0x3c882c92	0.016622815
103	0x3c71c921	0.0147574255
104	0x3b0122d3	0.0019704595
105	0x3bed2d32	0.0072380537
106	0xbb417f99	-0.0029525517
107	0xbbf3ad44	-0.0074364264
108	0xbbd33f82	-0.0064467797
109	0x3bde0c68	0.0067763813
110	0x3c322088	0.010872014
111	0x3c4712f6	0.012150517
112	0xbc17b0e6	-0.0092584845
113	0xbb89a98a	-0.004201119
114	0x3a215ace	0.00061551936
115	0x39b4fccd	0.00034520627
116	0x3c4a790a	0.0123579595
117	0x3c016136	0.007896712
118	0x3bb0664a	0.0053832876
119	0x3c5dd2a9	0.013538995
120	0xb9e4fc91	-0.00043675725
121	0xbb90ba74	-0.004416758
122	0x3b9ce05c	0.004787488
123	0x3b5e49c2	0.0033918475
124	0x3c717916	0.014738342
125	0xbbc6fc80	-0.006072581
126	0x3adc0a5c	0.0016787755
127	0xbc83b6b0	-0.016078323

action_model._discrete_distribution.branches.0.weight f4 [2, 128]
0	0x3cd40591	0.02588156
1	0xbc09e113	-0.008415478
2	0x3c6851b5	0.014179637
3	0xb9642e28	-0.00021760969
4	0x3d059ab5	0.032618243
5	0xbcef3a25	-0.02920253
6	0x3bcf3946	0.006323966
7	0x3cb9bc71	0.022672864
8	0x3c8e7a6c	0.01739236
9	0xba5cc006	-0.00084209477
10	0xbc12ec34	-0.008967448
11	0xbce3b0fb	-0.027794352
12	0xbcc50de2	-0.024054471
13	0xbd77a960	-0.060464263
14	0x3c0514b2	0.00812261
15	0xbb27dbff	-0.0025613306
16	0x3cdce338	0.026963815
17	0xbc3ff3e5	-0.011715864
18	0x3cdc1bed	0.026868785
19	0x3d2d037b	0.042239647
20	0xbb40ed3f	-0.0029438285
21	0x3ce7b5fc	0.02828502
22	0xbc55f297	-0.013058326
23	0x3c534225	0.012894188
24	0xbc948523	-0.01812989
25	0x3c67526b	0.014118771
26	0x3d668f9a	0.056289293
27	0x3ca1dbe3	0.01975817
28	0x3cd4f6bd	0.02599656
29	0xbd3d5b99	-0.046229932
30	0xbc46d517	-0.0121357655
31	0x3bf2c20c	0.007408386
32	0x3c821828	0.01588066
33	0xbbd74c24	-0.006570356
34	0x3d585f57	0.0528253
35	0x3b5c5264	0.0033618445
36	0x3d062f3a	0.032759883
37	0x3cd95563	0.026529973
38	0x3c164f82	0.00917423
39	0x3b2af406	0.002608539
40	0x3ca5928c	0.02021148
41	0x3cd8ab5d	0.0264489
42	0xbcffa70b	-0.031207582
43	0xbcaedc4a	-0.021345276
44	0x3c63aac3	0.013895693
45	0xbb4db5e7	-0.003138894
46	0xbc8c6f64	-0.017142959
47	0x3c9295e7	0.017893745
48	0xbb9084ce	-0.004410363
49	0xbcb77e83	-0.022399193
50	0xbcb41634	-0.021983244
51	0xbc65423a	-0.01399284
52	0xbc1a4c48	-0.009417601
53	0x3c32c368	0.010910846
54	0xbc04d3b4	-0.008107115
55	0x3bfe658d	0.0077635706
56	0x3c46ae82	0.012126567
57	0xbc1aceb3	-0.009448695
58	0x3c6c4be6	0.0144223925
59	0x3ae4fca4	0.0017470312
60	0xbc9f5077	-0.019447548
61	0x3c38ce4e	0.011279656
62	0xbc59349e	-0.013257174
63	0xbc5ec8ec	-0.013597708
64	0xbb17fd82	-0.0023191874
65	0x3c3927b0	0.011300966
66	0xbc589d23	-0.013221058
67	0x3d1e1daa	0.03860251
68	0x3d03b715	0.032157023
69	0xbc2c70f0	-0.010524973
70	0x39fb27dd	0.0004790415
71	0x3d033671	0.03203434
72	0xbd2be1c4	-0.041963354
73	0x3b326094	0.002721821
74	0xbbc48150	-0.0059968606
75	0x3c17309d	0.009227899
76	0xbc602960	-0.01368174
77	0xbc90a4b9	-0.01765667
78	0x3c6d84f5	0.014497031
79	0xbc2a4cd4	-0.010394294
80	0x3d29cc6b	0.041454714
81	0xbceffc66	-0.029295158
82	0x3ca4e29b	0.020127585
83	0x3c82a250	0.015946537
84	0x3ba7cef4	0.0051211063
85	0xbc46c714	-0.012132425
86	0x3d76f3e4	0.060291186
87	0x3b99b69a	0.0046909573
88	0x3bfe32ef	0.0077575366
89	0xbc6613f4	-0.014042843
90	0x3b7fdc31	0.0039041156
91	0x3cdf6064	0.027267642
92	0xbcad174d	-0.021129275
93	0xbc42e808	-0.011896141
94	0xbbdf18ad	-0.0068083615
95	0x3cd2049d	0.025636965
96	0x3c275461	0.010212989
97	0xba700615	-0.000915618
98	0xbc1c5ca6	-0.0095435735
99	0x3c60d0a4	0.013721619
100	0xbcf61407	-0.030038847
101	0xbc638f84	-0.013889197
102	0xbcb90099	-0.022583293
103	0xbb04b19e	-0.002024747
104	0x3d1b45b7	0.037908282
105	0xbbb4f028	-0.005521793
106	0xbafa5c85	-0.0019101059
107	0xbb6b9899	-0.003594911
108	0xbc111cbc	-0.008856948
109	0xbab91528	-0.0014120685
110	0x3d301bb5	0.042995173
111	0x3c96efa8	0.018424824
112	0x3c9d70a5	0.019218752
113	0xb9ceb151	-0.00039423493
114	0x3b31488e	0.0027051303
115	0x3ba719ca	0.00509951
116	0x3c13b218	0.009014629
117	0x3b5c9d1c	0.003366298
118	0x3c5f0956	0.013613066
119	0xbb8076a1	-0.0039203917
120	0xbccc03ae	-0.024904098
121	0xbc3a80cc	-0.011383247
122	0xbae3febf	-0.0017394646
123	0xbbd03f67	-0.0063552144
124	0x3b0f8ae6	0.0021902858
125	0x3b2b02db	0.0026094231
126	0xbcaf79b9	-0.021420347
127	0x39dbce2f	0.00041924554
128	0xbcf6747b	-0.03008484
129	0x3c4ac2c4	0.012375537
130	0xbc181864	-0.009283159
131	0xbc51851c	-0.012788083
132	0xbd256eee	-0.040388994
133	0x3c560a57	0.013063989
134	0xbb04c7be	-0.0020260657
135	0xbd01efce	-0.031722836
136	0xbc8df3b8	-0.017328128
137	0xbbb5466c	-0.0055320766
138	0x3cdab61c	0.026698165
139	0x3d09ddce	0.033658795
140	0x3cacccb6	0.021093708
141	0x3d1b8dd9	0.037977073
142	0xbc72cda1	-0.014819534
143	0x3c8fa855	0.017536322
144	0xbc83767b	-0.016047707
145	0x3cad3d6e	0.021147456
146	0xbc345a11	-0.011007802
147	0xbcf21515	-0.029551068
148	0x3b83bc35	0.0040202388
149	0xbc9b18cd	-0.018932724
150	0x3cb41bd5	0.021985928
151	0xbcb8b6ee	-0.022548165
152	0x3c901ef4	0.017592885
153	0xbd169a3d	-0.036768187
154	0xbd665e17	-0.056242075
155	0xbd013f00	-0.031554222
156	0xbc010d1b	-0.00787666
157	0x3d0aae67	0.03385773
158	0x3cd889dd	0.026432926
159	0x3c01df74	0.0079268105
160	0xbb94fed7	-0.004546981
161	0x3c8d6414	0.017259635
162	0xbd21e771	-0.03952736
163	0xbbe8fecd	-0.0071104527
164	0xbb0220c2	-0.001985595
165	0xbce4fb4a	-0.027951855
166	0xbcd27771	-0.02569172
167	0x3bb80110	0.005615361
168	0xbc671bc4	-0.014105741
169	0xbcf777a2	-0.030208413
170	0x3d14e081	0.036346916
171	0x3ca3b73a	0.01998483
172	0xbc0dd7f6	-0.008657446
173	0x3ba2ff49	0.00497428
174	0x3bdc4690	0.006722279
175	0xbc5c6894	-0.013452668
176	0xbbd87bb1	-0.006606542
177	0x3cb0e7bf	0.02159488
178	0x3d175717	0.03694829
179	0x3ca9ba33	0.02071867
180	0xbba76ade	-0.005109175
181	0xbc4c04de	-0.012452332
182	0xbb2bbe1a	-0.0026205839
183	0xbcbc3c86	-0.022978079
184	0x3af92a4f	0.0019009801
185	0x3ba3bcc3	0.0049968674
186	0xbbe61f9f	-0.0070228125
187	0x3c217a66	0.009855842
188	0x3c65fab9	0.014036828
189	0xbc0c22d8	-0.008553229
190	0x3be881b5	0.0070955404
191	0x3bb3ab50	0.0054830685
192	0xbcd8bbd2	-0.026456747
193	0xbcabbdb9	-0.02096449
194	0xbc66596a	-0.014059404
195	0xbccae7f7	-0.024768813
196	0xbd509e23	-0.05093206
197	0xbbc4b39e	-0.0060028573
198	0xbc3b005f	-0.011413663
199	0xbcd95d74	-0.02653382
200	0x3d240736	0.04004594
201	0x3c511abb	0.012762721
202	0xbb9cc78a	-0.004784529
203	0x3c41cdf0	0.0118288845
204	0xbc1898ae	-0.009313745
205	0x3c9d8c61	0.019231977
206	0xbbd81297	-0.006594013
207	0x3d07e02f	0.033172783
208	0xbcb99823	-0.022655552
209	0x3ca1c15d	0.019745523
210	0xbc810137	-0.01574765
211	0xbbe12562	-0.0068709115
212	0x3b2bc3a7	0.0026209147
213	0x3c6c3731	0.0144174555
214	0xbd8c6865	-0.06855849
215	0xbb8fcb7d	-0.0043882714
216	0x3b140331	0.002258491
217	0x3c9e2ee9	0.019309478
218	0x3a989fbe	0.0011644287
219	0xbcead6fe	-0.02866697
220	0x3cb0aa03	0.021565443
221	0x3c17e4d4	0.0092708655
222	0x3b4d83b1	0.0031359012
223	0x3bf2d95d	0.0074111656
224	0xbbb8698f	-0.005627818
225	0x3c319e99	0.010841035
226	0x3c133c1e	0.008986501
227	0xbc84933e	-0.016183492
228	0x3c3ab3b0	0.01139538
229	0xbb6683fd	-0.0035173886
230	0x3ca3ec1e	0.02001005
231	0x3c68c055	0.014206012
232	0xbcc2b56c	-0.02376815
233	0x3c7c35b4	0.015393663
234	0xbc90927f	-0.01764798
235	0xbb620127	-0.003448555
236	0x3c2281d6	0.009918651
237	0x3cd42fde	0.025901731
238	0xbd1bc782	-0.038032062
239	0xbc8cb438	-0.017175779
240	0xbd30831d	-0.04309379
241	0xb8a1756f	-7.698952e-05
242	0xbc7ca3be	-0.015419899
243	0x3bbe422d	0.0058062286
244	0xba33273d	-0.0006834155
245	0x3c96bcf2	0.018400643
246	0xbc477f16	-0.012176296
247	0x3c840800	0.016117096
248	0x3ca774d5	0.020441452
249	0xbc169491	-0.009190694
250	0x3bc896ce	0.006121493
251	0x3aae334a	0.0013290432
252	0x3c852ae1	0.016255798
253	0xbc643a53	-0.013929921
254	0x3c01d9ef	0.007925495
255	0xbc8c8d18	-0.017157122

action_model._discrete_distribution.branches.0.bias f4 [2]
0	0xbbc8e9cf	-0.006131388
1	0x3bc8e9db	0.0061313934

action_model._discrete_distribution.branches.1.weight f4 [3, 128]
0	0xbc8b0d21	-0.016974034
1	0x3cc5ee57	0.0241615
2	0x3c4496f7	0.011998883
3	0xbc683591	-0.0141729275
4	0xbcdbc5c6	-0.026827704
5	0x3cf4523b	0.029824367
6	0x3c91899d	0.017765814
7	0x3d4a22ad	0.049349476
8	0x3b098b9e	0.002098776
9	0x3c413f21	0.011794836
10	0xbb23369f	-0.0024904383
11	0x3ca5a72b	0.020221313
12	0xbc11d8b3	-0.008901763
13	0xbbd2d30f	-0.0064338516
14	0x3c831ab5	0.016003946
15	0xbb99c3a0	-0.00469251
16	0xbcba6e66	-0.02275772
17	0xbd115e8f	-0.03549057
18	0xbd2d5133	-0.042313766
19	0x3cb327f3	0.021869635
20	0xbbcca363	-0.006245063
21	0xbc23424d	-0.009964538
22	0xbb0304ca	-0.0019991868
23	0xbc0438a7	-0.008070148
24	0x3d18c625	0.03729834
25	0x3d0112d2	0.03151209
26	0x3b28c137	0.002574993
27	0xbce5b152	-0.028038654
28	0x3ce6499d	0.028111273
29	0x3cd0740d	0.025445962
30	0xbc9bde30	-0.019026846
31	0x3ad17bc0	0.0015982315
32	0x3d3686ee	0.044562273
33	0xbc2f51f7	-0.010700694
34	0xbca5f027	-0.020256115
35	0xbbb604e2	-0.0055547813
36	0xbd21bc60	-0.03948629
37	0x3c99de59	0.018782781
38	0x3c85bdae	0.016325798
39	0xbd38aea2	-0.045088418
40	0xbc017b20	-0.00790289
41	0xbb3f7513	-0.0029214069
42	0xbc2e6c8e	-0.010645999
43	0xbcf3dd7a	-0.029768694
44	0x3d33f370	0.043933332
45	0x355eb2ea	8.29618e-07
46	0xbccc62eb	-0.024949512
47	0xbb703e89	-0.0036658368
48	0x3c1302ef	0.008972867
49	0xbca82c7c	-0.020529024
50	0xbd458d1b	-0.04823027
51	0x3d87edc1	0.06637145
52	0x3cbe2a80	0.023213625
53	0x3a8d3916	0.0010774459
54	0xbcd1bf18	-0.025603816
55	0x3bd72407	0.006565574
56	0x3c644204	0.013931755
57	0x3a9d5331	0.0012002942
58	0x3cbdfbb9	0.02319132
59	0xbd06babf	-0.03289294
60	0x3c63e8aa	0.013910452
61	0xbce3655c	-0.027758293
62	0x3c6a19bd	0.014288363
63	0x3d16d91c	0.036828145
64	0xbccbbf50	-0.024871498
65	0x3c9ad5a8	0.018900707
66	0xbcfe3fb4	-0.031036235
67	0x3aa86aa3	0.0012849163
68	0xbd0ef425	-0.034900803
69	0xbd18d153	-0.037309002
70	0x3c68bbb1	0.014204905
71	0x3c73600f	0.014854445
72	0xbbcd9d68	-0.006274868
73	0xbb5e90aa	-0.0033960738
74	0xbcf80921	-0.03027779
75	0x3ca10ad9	0.019658493
76	0xb9d04a8d	-0.00039728396
77	0xbd59ec75	-0.05320402
78	0x3c35805b	0.011077966
79	0x3d0056f3	0.03133292
80	0xbd130825	-0.03589644
81	0x3d50515f	0.05085885
82	0x3c926b47	0.01787342
83	0xbd1ad910	-0.037804663
84	0x3b93c4b5	0.0045095333
85	0x3ca8f2e9	0.020623641
86	0x3c769ed7	0.015052519
87	0x3b4555ec	0.0030111028
88	0xbc9bd5bd	-0.019022817
89	0xbd1e52c3	-0.038653146
90	0x3c586645	0.013207977
91	0x3ce23940	0.02761519
92	0xbcceaaa3	-0.02522785
93	0x3d217d6e	0.03942626
94	0xbcd66f62	-0.026176158
95	0x3c7686ac	0.015046757
96	0xbcae739e	-0.021295365
97	0xbca74890	-0.020420343
98	0xbca38f63	-0.019965833
99	0x3d09c140	0.033631563
100	0x3cadc498	0.021211907
101	0xbc0db792	-0.008649724
102	0xbb0515f7	-0.0020307282
103	0xbd134276	-0.035952054
104	0xbc7453e6	-0.014912581
105	0x3b2cd5aa	0.002637247
106	0x3b81535c	0.003946705
107	0x3d2c69ad	0.042092968
108	0x38e19d1c	0.000107581
109	0x3bd870b1	0.0066052307
110	0xbcff84b1	-0.031191202
111	0x3a9190a7	0.0011105732
112	0x39ced552	0.00039450318
113	0xbaeba199	-0.0017977237
114	0xbb960a72	-0.004578882
115	0xb9aaaa18	-0.00032551656
116	0xbcf700fe	-0.03015184
117	0xbbbca569	-0.005757023
118	0x3c75bcc0	0.014998615
119	0xbd044965	-0.032296557
120	0x3c83fc32	0.016111467
121	0xbbb2e5c9	-0.0054595214
122	0xbc039852	-0.008031921
123	0x3a9b68e5	0.0011856823
124	0xbd4a783b	-0.049431067
125	0xbc2116a1	-0.009832055
126	0x3c76df1e	0.015067844
127	0x3a62321b	0.0008628682
128	0xbc0e8140	-0.008697808
129	0xbd2454cd	-0.040119935
130	0xbcc2f7ef	-0.023799865
131	0x3b9e6013	0.0048332303
132	0x3b8f315c	0.004369898
133	0xbc6115eb	-0.013738136
134	0x3bfcdcbc	0.0077167433
135	0xbb4c43f5	-0.0031168435
136	0xbd580cb8	-0.052746505
137	0xbc51703c	-0.012783106
138	0xbcd3304f	-0.025779871
139	0xbc8c2c54	-0.017110981
140	0xbce313c5	-0.027719388
141	0xbbcaa794	-0.0061845277
142	0x3c990ca6	0.018682789
143	0xbc9bf89b	-0.019039443
144	0xbc7a16a5	-0.015264188
145	0x3ca3f7a0	0.020015538
146	0x3ca6043c	0.020265691
147	0x3b0f9b5e	0.0021912674
148	0x3cdf0114	0.027222194
149	0x3d47e87e	0.048805706
150	0xbaec12eb	-0.0018011009
151	0xbc9c931d	-0.019113118
152	0xbca240d2	-0.0198063
153	0xbca52ece	-0.02016392
154	0xbca6142a	-0.020273287
155	0x3c0cefe8	0.00860212
156	0xbb9d20fd	-0.0047951923
157	0xbc37a539	-0.011208826
158	0x3d26edc7	0.040754106
159	0xbabc5287	-0.0014367857
160	0xbd29b256	-0.04142984
161	0x3d03776f	0.032096323
162	0xbb1ea702	-0.002420843
163	0xbd1371d9	-0.035997245
164	0xbcc4250b	-0.023943445
165	0xbb538478	-0.0032275002
166	0xbbd62cc7	-0.0065360996
167	0x3b602e02	0.003420711
168	0x3d059759	0.03261504
169	0xbd451be3	-0.048122298
170	0xbc6f2d09	-0.01459814
171	0x3c687506	0.014188057
172	0xbd6b7674	-0.057486013
173	0xbbd098a2	-0.0063658515
174	0x3bcce414	0.006252775
175	0xbc8296e4	-0.01594109
176	0x3c691ae6	0.0142276045
177	0xbd17ff88	-0.037108928
178	0x3d056bee	0.032573633
179	0xbcd22710	-0.025653392
180	0xbbf0bb5c	-0.0073465537
181	0xbcd7839b	-0.026307872
182	0xbb97a941	-0.004628331
183	0xbcc7201d	-0.024307305
184	0xbd17539b	-0.036944967
185	0xbc052ce8	-0.008128382
186	0xbc834668	-0.016024783
187	0xbccf5154	-0.025307335
188	0x3cb5c860	0.022190273
189	0xbd1bcf0b	-0.03803925
190	0x3c32523d	0.010883865
191	0xbd00febb	-0.03149293
192	0x3d5c184a	0.0537341
193	0xbc4b6ab1	-0.012415574
194	0x3d2ef281	0.04271174
195	0xbc7f4504	-0.015580419
196	0x3c56f90b	0.0131209
197	0xbbe4d4bb	-0.0069833673
198	0xbba335cd	-0.004980779
199	0xbb116311	-0.0022184292
200	0xbc94ece2	-0.01817936
201	0x3bfc5282	0.0077002654
202	0x3b0a774d	0.0021128238
203	0xbc94362a	-0.018092234
204	0xbc60fa05	-0.013731484
205	0xbab02fd4	-0.0013441988
206	0x3c13d538	0.009023003
207	0xbcd05487	-0.02543093
208	0xbc9d9047	-0.019233836
209	0xbd4096ad	-0.047018696
210	0x3cc6e543	0.024279242
211	0x3c6ed848	0.014577933
212	0xbc67fb2c	-0.014159005
213	0xba7ebf27	-0.0009717815
214	0x3cf5d7b0	0.030010074
215	0x3c0f8a41	0.00876099
216	0x3c0531be	0.008129535
217	0x3c9407a0	0.018070042
218	0x3d25d180	0.040482998
219	0xbc8cc048	-0.01718153
220	0x3bc29da3	0.005939202
221	0xbd458caf	-0.04822987
222	0x3cf15d19	0.029463338
223	0xbc1c9960	-0.009558052
224	0xbcf08590	-0.029360563
225	0xbbb0cc0d	-0.0053954185
226	0x3c1fb383	0.009747389
227	0xbc556b8b	-0.0130261285
228	0xbcd4d91f	-0.025982438
229	0xbbb6e557	-0.0055815387
230	0xbbf7cffc	-0.0075626355
231	0x3cbc50cf	0.022987751
232	0xbc8f6b04	-0.017507084
233	0xbd01473f	-0.031562086
234	0xbc93f752	-0.018062267
235	0xbc9753c3	-0.018472558
236	0xbc1a713f	-0.009426414
237	0x3cb99baa	0.022657234
238	0x3cecc3b4	0.028901912
239	0xbd36dc49	-0.044643674
240	0x3a0597d8	0.0005096174
241	0xbcebc18a	-0.02877881
242	0xbc4bf9c5	-0.012449686
243	0xbc2e73a0	-0.010647684
244	0x3d217e5e	0.039427154
245	0xbcbfbe9e	-0.023406323
246	0xbd6c65d6	-0.057714306
247	0x3ce8621d	0.028367097
248	0xbd0f8035	-0.035034377
249	0x3c61fa13	0.0137925325
250	0xbc4675f7	-0.012113086
251	0xbb33051b	-0.0027316276
252	0x3cc88360	0.024476707
253	0xbc983c40	-0.018583417
254	0x3c8143ed	0.01577946
255	0xbca25159	-0.01981418

action_model._discrete_distribution.branches.1.bias f4 [3]
0	0xbc88c080	-0.016693354
1	0x3c0bacef	0.008525117
2	0x3c11937b	0.00888526

action_model._discrete_distribution.branches.2.weight f4 [1, 128]
0	0xbba787ce	-0.0051126247
1	0x3ba1f39b	0.00494237
2	0x3bd55328	0.006510157
3	0xbb7cffd8	-0.0038604643
4	0xbb019c6f	-0.001977708
5	0x3ba4582a	0.005015393
6	0xbb922727	-0.0044602337
7	0xbba4874d	-0.005021012
8	0x3bab0ba7	0.005219895
9	0x3bf13aab	0.00736173
10	0xbbd3202a	-0.0064430432
11	0x3ac08fa8	0.001469125
12	0x3b6b540d	0.0035908252
13	0xbc58502d	-0.013202709
14	0x3aafe0bb	0.0013418415
15	0xbb139d20	-0.0022524074
16	0x3b9e47ad	0.0048303218
17	0xba07814e	-0.0005169109
18	0xbab2cf23	-0.0013642054
19	0x3b9472b7	0.0045302766
20	0x3add3e2a	0.0016879488
21	0x3930cd57	0.00016861163
22	0xbb648e17	-0.0034874731
23	0x3c532383	0.012886885
24	0xbc9fbb93	-0.019498622
25	0x3b6b1d77	0.0035875717
26	0xba89a448	-0.001050123
27	0xbc23803f	-0.009979307
28	0xbb8fe4e7	-0.004391301
29	0x3b6df458	0.003630897
30	0xbbddaf5f	-0.0067652906
31	0x3c45af1f	0.012065678
32	0xbaa05b56	-0.0012234251
33	0xbb8fadcd	-0.0043847323
34	0x3b31dd3f	0.002713993
35	0x3a20e891	0.0006138171
36	0xbbe3096a	-0.0069286125
37	0xbc7bfd83	-0.015380266
38	0x39a2bd19	0.00031039937
39	0x3b7876e5	0.0037912664
40	0x39c35273	0.00037254728
41	0xbbe6c9e8	-0.007043112
42	0xbac78aa3	-0.0015223812
43	0x3ca70b2e	0.020391073
44	0x3bd0e705	0.006375196
45	0xbb8163a6	-0.0039486466
46	0x3b17aae6	0.0023142635
47	0xba8ed9cb	-0.0010898648
48	0x3c56f93d	0.0131209465
49	0xba4055bb	-0.00073369936
50	0xbc1baec2	-0.009502115
51	0x3c0b658f	0.0085081
52	0x3c16122d	0.009159607
53	0xbba2ddff	-0.0049703117
54	0x3b921f77	0.0044593173
55	0xbc3b4a50	-0.011431292
56	0xbc2c29be	-0.010507999
57	0xbb9bb55a	-0.0047518434
58	0x3b5179bf	0.0031963435
59	0xbb2ae61f	-0.0026077104
60	0xbba4a8df	-0.005025014
61	0x3a40e227	0.0007357918
62	0x3bd9ea42	0.00665024
63	0xbc1101cb	-0.008850525
64	0x3c8481a4	0.016175099
65	0x3b63bb53	0.0034749105
66	0x3c01cc38	0.007922225
67	0xbc4711d5	-0.012150248
68	0xbbda2957	-0.00665776
69	0x3c509eb5	0.012733151
70	0xbc83d767	-0.016093923
71	0xbba9e7a2	-0.0051850835
72	0x3c4c8c91	0.0124846855
73	0xbb9aa013	-0.0047187894
74	0x3ccf9d8d	0.02534368
75	0x3a689d9f	0.0008873585
76	0x3c4be4a3	0.012444648
77	0x3b805b27	0.003917116
78	0xbc775125	-0.01509503
79	0x3c7d8223	0.015472922
80	0x3b04b8f6	0.0020251847
81	0x3b5dd0ff	0.0033846495
82	0xbbca0b00	-0.006165862
83	0xbb39cbfd	-0.0028350346
84	0xbb0b9579	-0.002129881
85	0x3a118c73	0.00055522396
86	0x3c794b3a	0.015215689
87	0x3cad2041	0.021133544
88	0xbb4a6c5c	-0.003088734
89	0x3c8fee23	0.017569607
90	0xbb51cd08	-0.0032013077
91	0xba6420b3	-0.00087023823
92	0xbbfb1f8d	-0.0076636733
93	0x3b82f180	0.003996074
94	0xbc1bfb66	-0.009520387
95	0x3bb90687	0.00564653
96	0x3bd434a3	0.0064760013
97	0xbac75998	-0.0015209196
98	0x3b511ab5	0.0031906788
99	0x3c579b5a	0.013159597
100	0x3c9deab0	0.019276947
101	0xbb98868f	-0.0046547125
102	0x3b2fe56e	0.0026839632
103	0x3c409e46	0.011756485
104	0x3c6defb0	0.014522478
105	0xbb15fe16	-0.0022887043
106	0xbb1ae578	-0.002363531
107	0xbc16f9bb	-0.009214814
108	0xbb00e0be	-0.0019665207
109	0xbba2d39e	-0.0049690744
110	0x3be1fb33	0.0068964004
111	0x3c0c3072	0.008556472
112	0xbb315bc5	-0.0027062756
113	0xbbcb9664	-0.0062129963
114	0x3c4a037f	0.012329935
115	0xbbb050ca	-0.0053807246
116	0x3bec0112	0.007202276
117	0xbbd7afab	-0.0065822206
118	0x3c6d317a	0.014477128
119	0x3c2433cc	0.010022115
120	0x3c463157	0.0120967245
121	0xbc357b7a	-0.011076802
122	0x3b0b6ebf	0.0021275727
123	0x3a672f8f	0.00088190375
124	0x3c1d4714	0.009599466
125	0xbb5b7d15	-0.0033491303
126	0x3bc48065	0.005996751
127	0x3b8f6e65	0.0043771737
