Assets/ZooheimTest/Models/run1/WolfFBehavior/WolfFBehavior-154019.onnx (onnx, 406669 bytes, 14 tensors)

discrete_act_size_vector f4 [1, 3]
000000 00 00 00 40 00 00 40 40 00 00 80 3f
       2.0 3.0 1.0

network_body.observation_encoder.processors.0.normalizer.running_mean f4 [630]
000000 19 ae d1 3d 0b 99 4d 3e 03 1d d4 3b 43 47 84 3c
       0.102382846 0.20077913 0.006473185 0.016147261
000010 c8 5f 03 3c 47 c6 bd 3b 76 9b 8f 3b 86 49 9e 3b
       0.0080184415 0.0057914588 0.004382546 0.004830542
000020 c5 e7 8d 3b 57 eb 78 3b f1 b0 21 3b bd 02 1d 3b
       0.0043306076 0.003798207 0.0024672116 0.002395793
000030 97 0c 0a 3d da bf 72 3e 6b 7c cf 3d c5 c8 48 3e
       0.033703413 0.23705998 0.10131153 0.19607837
000040 d7 01 cf 3b 83 d5 7a 3c 6e ed 00 3c d6 22 bd 3b
       0.006317358 0.015309694 0.007869108 0.005771975
000050 90 ba 6b 3b f4 b0 a1 3b 32 4f 91 3b 13 0e 83 3b
       0.0035969354 0.0049344245 0.0044344896 0.0039994805
000060 3b fd 1f 3b cd 95 1c 3b f8 a0 0c 3d 70 56 72 3e
       0.0024412412 0.0023893 0.0343332 0.23665786
000070 a5 0a d1 3d 54 41 47 3e 6d a5 c5 3b 0a 4a 80 3c
       0.102071084 0.19458514 0.006031683 0.015660305
000080 14 0e 03 3c ae 2d c1 3b e8 02 93 3b 2e 54 ac 3b
       0.007998962 0.005895338 0.0044864304 0.0052590584
000090 0f ed 94 3b 8c 44 83 3b dc 33 16 3b b7 ec 28 3b
       0.004544861 0.004005974 0.0022919094 0.0025775859
0000a0 1e 6d 12 3d 42 2f 78 3e 4b 63 cc 3d c2 1e 3e 3e
       0.035748594 0.24236777 0.09979876 0.1856642
0000b0 df 07 ae 3b a5 63 5f 3c 9f 63 df 3b a1 ab 9a 3b
       0.005310997 0.013634597 0.0068172957 0.004720167
0000c0 d0 5e 3a 3b 02 65 8f 3b 5b 5a 81 3b 94 13 80 3b
       0.002843786 0.0043760547 0.003947539 0.003908584
0000d0 b9 02 1d 3b b2 0d 17 3b 11 80 19 3d 14 b5 7c 3e
       0.0023957922 0.0023048935 0.03747565 0.24678451
0000e0 ff 72 c9 3d c1 7d 3c 3e 95 cb c4 3b bd ca 76 3c
       0.09836387 0.18407346 0.006005714 0.015062985
0000f0 39 34 02 3c 8f f7 ac 3b dd 49 8a 3b ff 74 a4 3b
       0.007947021 0.0052785347 0.004220231 0.00501883
000100 60 2e 99 3b 92 a4 77 3b 47 58 f9 3a 98 dc 1d 3b
       0.004674718 0.00377873 0.0019023501 0.0024087783
000110 8b 0d 21 3d 8c cd 80 3e aa 0f c5 3d d2 27 31 3e
       0.039319556 0.2515682 0.09622128 0.17300346
000120 8c 23 95 3b 19 d1 41 3c 1d 7f d0 3b d3 e5 7b 3b
       0.0045513567 0.011829638 0.0063628093 0.0038436546
000130 7c 7f 3c 3b 5f 5a 81 3b 7d 32 66 3b 90 d0 5f 3b
       0.002876251 0.0039475407 0.0035125308 0.0034151413
000140 93 f2 11 3b 44 63 f3 3a b1 42 1e 3d d9 be 80 3e
       0.002226983 0.0018569012 0.03863782 0.25145605
000150 64 ee be 3d 13 55 32 3e 31 39 9d 3b 73 79 5d 3c
       0.09322813 0.17415266 0.0047980775 0.013517725
000160 27 17 eb 3b f1 d1 8f 3b 39 34 82 3b 90 02 a7 3b
       0.007174391 0.0043890406 0.0039735106 0.005096741
000170 ed 02 93 3b f0 99 69 3b 2e 8b 0e 3b 60 4f 07 3b
       0.0044864328 0.0035644732 0.0021750438 0.0020646676
000180 a6 02 22 3d f5 83 84 3e 14 8b ba 3d 83 d2 29 3e
       0.039553307 0.25881925 0.09108558 0.1658421
000190 c5 7e 64 3b 92 02 27 3c 13 d1 c1 3b e9 8e 6f 3b
       0.00348656 0.010193484 0.005914816 0.0036553687
0001a0 c0 ec 28 3b ca 5d 76 3b 31 1d 4a 3b c5 9f 52 3b
       0.002577588 0.0037592524 0.0030840153 0.0032138687
0001b0 28 8b 0e 3b b3 e0 ea 3a 23 b5 1b 3d fe bd 82 3e
       0.0021750424 0.0017919749 0.038014542 0.25535578
0001c0 c2 94 b1 3d b1 6d 2c 3e 4b a6 93 3b cc 69 34 3c
       0.086709514 0.16838719 0.0045059077 0.011011552
0001d0 50 5e d8 3b ea d1 8f 3b f6 b6 80 3b 55 49 a8 3b
       0.00660304 0.0043890374 0.0039280606 0.005135695
0001e0 f7 a0 8c 3b 14 c0 68 3b 25 a1 02 3b 2d 80 14 3b
       0.0042916494 0.0035514878 0.0019932475 0.0022659407
0001f0 4b b6 28 3d 91 8d 88 3e df 07 ae 3d 0c a9 25 3e
       0.041189473 0.26670507 0.08497595 0.16177768
000200 50 64 37 3b 33 9b 1e 3c 5a 1d c0 3b ac 17 4d 3b
       0.0027983375 0.009680557 0.005862874 0.0031294627
000210 f9 84 39 3b 19 b5 6e 3b f6 8f 33 3b 3e bb 43 3b
       0.0028308018 0.003642386 0.002739904 0.0029866244
000220 4b bc 07 3b 8f d0 df 3a 27 0c 23 3d 83 b6 84 3e
       0.0020711597 0.0017075705 0.03980651 0.25920495
000230 05 46 a3 3d 24 f1 29 3e 5b 39 93 3b 83 b6 19 3c
       0.079723395 0.16595894 0.0044929213 0.009381893
000240 1d a0 be 3b 68 d7 8c 3b 90 a4 77 3b f8 7f 9e 3b
       0.005817427 0.0042981394 0.0037787296 0.0048370324
000250 95 08 86 3b c7 89 5e 3b 6c 89 f2 3a dc 06 ea 3a
       0.0040903785 0.0033956633 0.001850409 0.0017854827
000260 8b 86 2d 3d d0 77 8b 3e a9 c4 a2 3d 8a 42 28 3e
       0.04236464 0.27239847 0.07947666 0.16431633
000270 fa 79 3f 3b 24 96 08 3c 1b c1 ac 3b dc fb 6f 3b
       0.002921699 0.008336578 0.0052720434 0.0036618626
000280 45 d1 37 3b b8 bf 7c 3b 5d 23 1f 3b 42 a5 4f 3b
       0.0028048318 0.0038566422 0.0024282553 0.0031684195
000290 47 c7 01 3b 4d 6e ed 3a 2e 1f 25 3d 9a ac 86 3e
       0.0019802616 0.0018114537 0.04031294 0.2630356
0002a0 9d 56 95 3d 3b 9a 2e 3e b3 ca 76 3b c2 8e f9 3b
       0.07291911 0.17051022 0.003765744 0.007615895
0002b0 ba 07 b8 3b b6 23 8b 3b a1 6e 59 3b d6 64 99 3b
       0.0056161555 0.0042462004 0.0033177512 0.00468121
0002c0 6d 89 72 3b 12 e1 56 3b 47 79 e7 3a 41 b0 c9 3a
       0.0037008182 0.003278796 0.0017660045 0.0015387611
0002d0 1c 23 2e 3d 33 e1 8b 3e 10 1e 98 3d a6 98 29 3e
       0.04251395 0.2732025 0.07427609 0.16562137
0002e0 ad 17 4d 3b 4f 32 f0 3b e4 28 9c 3b 11 aa 74 3b
       0.003129463 0.007330216 0.0047656167 0.0037332813
0002f0 99 9a 41 3b 2e fc 5b 3b 21 3d f4 3a f7 79 3f 3b
       0.002954161 0.003356706 0.001863394 0.0029216984
000300 6a b5 da 3a 95 af f1 3a 34 23 29 3d df 1d 88 3e
       0.0016686146 0.0018439168 0.041293338 0.2658529
000310 73 97 8b 3d 35 18 2f 3e 70 ed 80 3b 1a 7f d0 3b
       0.06815996 0.17099078 0.0039345548 0.006362808
000320 5c 33 b4 3b 74 b1 83 3b d7 3d 4c 3b f5 b6 80 3b
       0.0054992866 0.004018957 0.003116479 0.00392806
000330 b3 f6 5e 3b 64 d6 48 3b 8e af f1 3a b2 01 d9 3a
       0.0034021556 0.0030645365 0.001843916 0.0016556291
000340 42 a7 2a 3d ec 8d 8c 3e 2a 14 d2 3d 45 04 4e 3e
       0.041663416 0.27452028 0.10257752 0.20118816
000350 f5 89 d4 3b 55 8b 84 3c 3a 96 03 3c bd fc bd 3b
       0.0064861723 0.01617972 0.008031422 0.005797951
000360 f0 d1 8f 3b b1 33 a0 3b e5 3e 90 3b 47 58 79 3b
       0.00438904 0.0048889746 0.004402029 0.0038047002
000370 41 f2 25 3b a7 64 23 3b 31 a9 0a 3d 01 4a 73 3e
       0.0025321397 0.002493182 0.03385276 0.23758699
000380 29 f0 cf 3d 02 34 49 3e 40 a5 cf 3b b1 5d 7b 3c
       0.10153229 0.19648746 0.006336838 0.015342162
000390 99 75 01 3c 3a c6 bd 3b 90 ba 6b 3b 72 ab a4 3b
       0.007901573 0.0057914527 0.0035969354 0.0050253207
0003a0 d5 6f 93 3b 00 7b 83 3b 73 ab 24 3b 82 3e 24 3b
       0.0044994154 0.0040124655 0.0025126606 0.0025061672
0003b0 20 29 0d 3d 6b e3 72 3e 99 77 d1 3d 71 a7 47 3e
       0.034463048 0.23719566 0.102278896 0.19497468
0003c0 5c 12 c6 3b 5a a9 80 3c 87 44 03 3c 25 64 c1 3b
       0.006044669 0.015705753 0.008011944 0.0059018307
0003d0 d5 6f 93 3b d3 74 ae 3b cb a0 96 3b fe 7a 83 3b
       0.0044994154 0.005323985 0.0045968047 0.0040124645
0003e0 1b e2 1a 3b 99 bb 2f 3b e6 02 13 3d b4 bb 78 3e
       0.0023633305 0.0026814698 0.035891436 0.24290353
0003f0 9a d3 cc 3d e8 95 3e 3e 5a 3e ae 3b 42 22 60 3c
       0.10001297 0.18611872 0.0053174915 0.013680043

network_body.observation_encoder.processors.1.normalizer.running_mean f4 [9]
000000 a8 56 91 42 eb b2 5b 42 ef 0f 84 3e 88 57 91 42
       72.66925 54.924725 0.25793406 72.67096
000010 a2 f1 5b 42 4a ca 84 3e 77 57 91 42 a4 2f 5c 42
       54.98597 0.25935584 72.67083 55.046524
000020 ab 84 85 3e
       0.2607778

network_body._body_endoder.seq_layers.0.weight f4 [128, 639]
000000 6e 99 84 3d 01 b8 3f 3d 26 de 30 3c a1 07 db bd
       0.06474577 0.04680634 0.010795152 -0.106948145
000010 aa 95 17 3d a3 75 f1 bc 5c 5a 54 3d fe 6b 0d bd
       0.037007965 -0.029475039 0.051843986 -0.034526818
000020 ac 95 3e bb 3a a3 56 3a d8 6c 2b be 48 2c ed bc
       -0.002908091 0.0008187775 -0.1674074 -0.028951779
000030 dc be c1 bb d1 46 bf 3d 40 81 85 bc bb ac bb 3c
       -0.005912645 0.09339679 -0.016296983 0.022909513
000040 de 32 25 3d dc b3 80 bc 3b 11 41 3d ea 39 1b 3d
       0.040331714 -0.015710764 0.047135573 0.037897028
000050 96 0a e7 bc fa 12 0a be 3e 3b c8 bd 3a e5 eb 3c
       -0.02820329 -0.13483801 -0.097769246 0.028795827
000060 66 d4 e6 bb 6c 70 a7 bc 37 7b 5e bd b1 49 88 bc
       -0.007044363 -0.02043935 -0.054316726 -0.016636701
000070 78 3c 68 3d 79 b2 32 3b 57 7b b4 bc 3f fe f1 bd
       0.056698292 0.0027267023 -0.02203147 -0.11816072
000080 b9 32 8d bd bf d5 d8 3d 73 59 38 3c 18 96 30 3d
       -0.0689444 0.10587644 0.011251795 0.04311189
000090 0b 55 11 3c b9 b1 25 3c 9a a1 24 3d a8 53 97 bc
       0.0088703735 0.010113173 0.040193178 -0.018472508
0000a0 97 c6 66 3b 62 d0 1f bc b4 57 e3 bd fe 16 9a bc
       0.0035213584 -0.009754272 -0.111007124 -0.018809792
0000b0 da c3 2c bc 90 4c 58 3d 8d 59 b5 bc 71 ff 11 3d
       -0.0105447415 0.05280739 -0.022137428 0.035644
0000c0 68 91 19 3d 90 37 a1 bd ae b0 ac 3a 2f dc 79 bd
       0.037492186 -0.07871926 0.0013175213 -0.061001
0000d0 9c 6c 74 bd 0b d4 ca bd 89 37 4a ba 8d e7 17 bb
       -0.05967389 -0.09903725 -0.0007713964 -0.0023178787
0000e0 4e 8e d2 3c 93 c7 83 3d 1f 1b a9 3d 50 05 ec bc
       0.025702622 0.0643455 0.08257126 -0.028811127
0000f0 df 10 84 bb 6e af 1e 3d b7 2b e9 3c 96 b0 31 bd
       -0.0040303315 0.03874152 0.028463228 -0.043381296
000100 77 00 82 bd c1 5e ce 3c 00 69 bb 3d 2f 24 27 3c
       -0.06347745 0.025191667 0.091508865 0.010201498
000110 b5 a0 84 bc bb d1 b8 3d 86 e3 f8 bb a8 09 ca bd
       -0.016189912 0.09024378 -0.0075954823 -0.09865123
000120 0f bc 8f bd 25 e3 39 3d 88 44 d3 bc e0 cb ab bd
       -0.07018291 0.045382638 -0.025789514 -0.083884954
000130 be c0 b3 3d 12 ff 25 bd 47 7a 0a bc 60 dd 08 3d
       0.08776997 -0.040526457 -0.008452005 0.033414245
000140 e5 5f 88 bd fd d5 ab bb c6 a2 5f 3c d6 f3 61 3d
       -0.066589154 -0.0052440153 0.013649648 0.05516418
000150 1f f5 8f 3d 92 5b b1 bc e8 45 4d 3c 60 06 37 3c
       0.07029175 -0.02165011 0.012528874 0.0111709535
000160 a8 51 fd bc ce a5 1d 3c c2 b3 ce 3c a9 3c d3 bc
       -0.030922726 0.00962205 0.0252322 -0.025785761
000170 45 67 35 3d a2 94 73 3c 17 56 a7 3d b1 2c 11 bd
       0.04428794 0.01486698 0.08170717 -0.03544301
000180 c3 4d 78 3c f6 4a a3 bc b7 40 bf 3b 67 3e dd bc
       0.015155259 -0.019933205 0.005836572 -0.027007295
000190 73 05 87 3c bd 83 ad bc 05 03 36 3d 51 7a 63 bc
       0.01648209 -0.021180982 0.044436473 -0.013884143
0001a0 2a 92 0a 3d 7e 63 00 3b 59 b1 99 bd f4 0a c6 bc
       0.0338308 0.0019590552 -0.075045295 -0.024175145
0001b0 eb d6 e3 bc 34 c3 79 bc 5c 8f 33 3d b2 71 88 bd
       -0.027812442 -0.015244294 0.04383789 -0.06662311
0001c0 62 78 a0 3c a4 98 3b 3d c6 28 78 3d 0c 7f cd bd
       0.019588653 0.045799866 0.06058576 -0.10033998
0001d0 df e4 2d ba 16 fb a2 3b 87 ee e3 bd 07 c9 ab bc
       -0.0006633531 0.0049737794 -0.1112948 -0.02096988
0001e0 64 6f 36 3d 0d e9 f7 bc 61 8a d3 3b aa dd 83 3d
       0.044539824 -0.030262494 0.006455705 0.064387634
0001f0 83 c2 37 bc 52 16 53 bd 79 80 4e bd 96 ac 05 3d
       -0.011215809 -0.05153496 -0.05041549 0.032635294
000200 f5 cb ae 3d 19 d7 1d 3d cf cc 26 bc 77 f0 26 bd
       0.085349955 0.03853521 -0.010180666 -0.04075667
000210 bf 8c 8a 3b 89 a2 2f bd 3b 78 be bc ba 87 29 bd
       0.004228204 -0.042879615 -0.02325069 -0.041389205
000220 18 9b ab 3c bd c8 08 be 75 1b f9 b9 e9 dc 6b bc
       0.020947978 -0.13357826 -0.00047513438 -0.014395931
000230 c6 09 4d bd 48 05 ec 3c 9c 67 46 bc 1b a6 92 bd
       -0.05005815 0.028811112 -0.012109663 -0.07160588
000240 28 19 32 3d 3d e0 7a bc 55 64 cc bd db fd 1c bc
       0.043481022 -0.015312252 -0.09980074 -0.009582008
000250 2f b3 48 bc 45 2f 57 bd 13 5d cf bc 3c 85 76 bd
       -0.012249752 -0.052535314 -0.025312936 -0.060185656
000260 5a a5 0c be ae 4d c9 3c 2b 2b f9 bc 38 46 5e bd
       -0.13734952 0.024573173 -0.030416092 -0.054266185
000270 cf 22 39 3d bd 0a 4b bc b4 a7 e3 bc a1 13 e7 bc
       0.04519921 -0.012392697 -0.027789928 -0.028207602
000280 cf 71 20 3c b2 07 2d 3c 6b f9 71 3c fe 61 af bd
       0.009792759 0.010560917 0.0147689385 -0.085636124
000290 48 96 09 3d d9 11 83 bd 59 1a 58 bd 05 03 27 bd
       0.033590585 -0.063998885 -0.052759502 -0.040774364
0002a0 d6 50 af 3d 7a b2 44 bd c8 a4 7e bc 11 1b a6 3c
       0.0856034 -0.04802177 -0.015542217 0.020276578
0002b0 77 8a b5 3d 2e 66 82 3c 6f a2 a8 bc 3c e8 8e bd
       0.08864301 0.015917864 -0.020585267 -0.06977889
0002c0 f2 1c 3a bd 14 e3 50 bc 2d 7b 8e 3c 90 4e c0 3b
       -0.04543776 -0.012749452 0.01739272 0.0058687404
0002d0 13 0b b8 bc 44 9a 3d bd 50 0b 84 bd f8 02 8a bd
       -0.022466218 -0.046289697 -0.0644747 -0.067388475
0002e0 c1 99 c3 3c fb 2b 1a bd 60 54 7f 3d a2 ea a0 3d
       0.023877027 -0.0376396 0.062336326 0.07857253
0002f0 8d 6c 8e 3b fb 36 30 3d 9e d9 69 ba 54 09 9b 3d
       0.0043464364 0.043021183 -0.0008920672 0.075701386
000300 5c 2f 98 3d 16 f9 52 bd b1 96 e1 3b ef a1 c5 bc
       0.07430908 -0.051507078 0.006884419 -0.024125068
000310 a3 c1 43 bd 80 4f 1a bd 30 c2 cc bc 46 24 8c bc
       -0.04779209 -0.037673473 -0.02499494 -0.01710714
000320 94 96 7e bd 41 df d4 3a ef 88 d2 bd 28 52 6e bd
       -0.06215532 0.0016240851 -0.10280024 -0.05818382
000330 e4 16 ef bd e5 f8 9f bd 03 53 88 bc 26 04 a2 bd
       -0.11674288 -0.07811145 -0.016641146 -0.079109475
000340 e5 27 44 bd 8f c4 71 bd 65 3a a5 bc df 88 14 bd
       -0.04788961 -0.059025344 -0.020169446 -0.036263343
000350 91 f8 2f bc ae ab 90 bd c8 fc 85 bd 09 60 6e 3c
       -0.010740415 -0.07063995 -0.06542355 0.014549264
000360 3a e2 31 3d ed 20 b6 bc 4e aa e2 3d 82 09 41 3c
       0.043428637 -0.022232497 0.11067639 0.011782052
000370 3b 31 c7 bd 2b 86 28 3d 70 64 8c 3d 07 ee 1c 3d
       -0.09726187 0.041143578 0.068550944 0.038312938
000380 57 76 0f bd bf 34 50 bd 1b b2 e9 bb 40 bc 1c bb
       -0.035024967 -0.050831553 -0.0071318275 -0.0023915917
000390 2c f8 61 3d 4d 6d 26 3e b4 c2 8a bc 5f 5b 80 bd
       0.055168316 0.16252632 -0.016938545 -0.06267428
0003a0 be 9d d9 bd 6e de a7 bc 76 d9 91 bd d8 56 48 bc
       -0.1062579 -0.020491805 -0.071215555 -0.012227736
0003b0 68 4e 6e bc 70 06 36 bd a0 97 63 3b 0b fa 70 bd
       -0.014545061 -0.044439733 0.0034727827 -0.05883221
0003c0 7a 52 a9 bc d7 51 a5 3c 20 32 ee bc 05 ed ca bd
       -0.02066921 0.020180626 -0.029076636 -0.09908489
0003d0 79 40 4f 3c 66 0a 3e bb 45 da 7e bd 6b 38 46 bd
       0.012649649 -0.0028997897 -0.062219877 -0.048393648
0003e0 ae 72 10 bd 06 5f c0 bc 78 c2 82 bd 66 4a 4d 3d
       -0.035265617 -0.02348281 -0.06384748 0.05011978
0003f0 79 20 bb bc 82 02 66 3c 47 67 54 bd 7d 89 a3 3d
       -0.022842633 0.014038684 -0.051856305 0.07985208

network_body._body_endoder.seq_layers.0.bias f4 [128]
000000 c2 3a 76 3c 42 72 28 39 9f 14 32 bc 4a 9e 1b bc
       0.015028657 0.00016064293 -0.010869174 -0.009498188
000010 2b 48 52 3c 0e c7 be bc ab 8b fd 3b 57 3b ca bc
       0.012834589 -0.023288276 0.007737597 -0.024686499
000020 25 26 8b bc 2b 36 c4 ba df 27 00 bd 26 c9 f1 bb
       -0.016985962 -0.0014969757 -0.031288024 -0.007378715
000030 04 2d 77 bc bb 7c e7 bb 77 ff 1a 3c b4 c6 c7 3b
       -0.015086416 -0.0070644296 0.009460322 0.0060966853
000040 cd 8b 1b bd 77 2a c5 bc a4 14 9d 3b 84 4b 8f bc
       -0.03797512 -0.0240681 0.0047937203 -0.017492063
000050 65 05 5c bc 13 c9 b6 bc 6c 38 1a 3c 1c 94 9d bc
       -0.0134290205 -0.022312677 0.009412866 -0.019235663
000060 79 09 dd bb 38 ad 01 3c 76 91 3a bb 03 36 b4 bc
       -0.006745514 0.007914834 -0.002846805 -0.021998411
000070 7a fb 01 3c 76 c3 c9 3b 69 e3 a7 bc c0 46 ba bc
       0.007933492 0.006157334 -0.02049418 -0.022738814
000080 00 d7 62 bb ce 50 91 bb d6 ed 12 bd 87 c7 a7 bc
       -0.0034613013 -0.0044346815 -0.03587135 -0.020480884
000090 cd 8d 9b bc 83 7e 15 bc 5f 64 45 bc 6b 0a c6 39
       -0.018988514 -0.009124401 -0.012047856 0.00037773265
0000a0 08 fd eb bb ba 57 25 bc 61 35 ae bb 0d 92 86 bc
       -0.0072017945 -0.010091716 -0.005316422 -0.016427064
0000b0 78 40 8c 3b fd 2a 6b bc b6 24 7a bc 21 27 15 39
       0.004280146 -0.014353511 -0.015267542 0.00014224324
0000c0 c7 8d dd bb 07 71 e4 bc 02 19 af bb 32 f3 15 3c
       -0.006761286 -0.027885927 -0.0053435573 0.009152221
0000d0 59 87 ac bc f0 6d 33 bb 5f 4b 52 bc bb 38 c9 bc
       -0.021060633 -0.002737876 -0.012835353 -0.024563184
0000e0 e2 32 77 bc e2 e5 6f 3c 13 12 8c 3b 02 d7 1c 3c
       -0.015087815 0.014642211 0.0042746156 0.009572746
0000f0 c1 e7 f1 3b 1d e5 5b bc 8c f9 65 bc da d1 26 bd
       0.0073823635 -0.013421324 -0.014036547 -0.040727474
000100 85 d1 9a bc 60 8e 7f bc d7 65 03 bd a2 72 d6 bc
       -0.018898735 -0.01559791 -0.032079544 -0.026177708
000110 74 09 d5 ba 23 dc 3c bc 93 52 d1 bc ee 8e 97 3c
       -0.0016253428 -0.011527094 -0.02555207 0.018500771
000120 0a 76 71 bc a6 a9 62 3c ff e2 22 3b 15 41 ea 3b
       -0.014737615 0.013834393 0.0024854538 0.0071488717
000130 72 89 c3 bc de a6 3d bc f6 77 b0 3c b3 5d 3b 3c
       -0.02386925 -0.011575429 0.021541577 0.011435914
000140 42 75 cb 3b 93 66 04 bc 53 c2 f6 bb 4f 8f a3 bc
       0.0062090466 -0.008081096 -0.0075304895 -0.019965796
000150 cb ed 1a bc a8 72 0c 3c 5e 08 9d bc 88 2d df bc
       -0.009456108 0.008572258 -0.019169029 -0.02724339
000160 a5 59 a5 3b 23 ed 9e bc a9 86 cc bb e5 70 e8 bc
       0.005046087 -0.019400185 -0.0062416387 -0.028374145
000170 1c 0b e3 bb df 43 c2 bc 15 7a 15 bd 5f e7 cd bc
       -0.0069288146 -0.023714004 -0.03649338 -0.02513474
000180 a5 95 6c bb 5c ea ea 3b fd 42 02 3b 1b 7b e1 bc
       -0.0036099937 0.007169051 0.0019876354 -0.027524522
000190 3f bb 8d bc 91 df 83 bb a4 ad cb ba 00 79 39 3b
       -0.0173012 -0.004024454 -0.001553942 0.0028300881
0001a0 65 28 05 bd 09 c7 48 bc 19 a8 c1 bc 4a 4a 26 3c
       -0.032509226 -0.012254485 -0.023639726 0.010149548
0001b0 3d 6f b4 b9 91 e6 9c bc eb d6 bc 3b 1e 7f 2d 3b
       -0.00034415154 -0.019152911 0.005762925 0.0026473473
0001c0 f8 c9 c2 bc b1 04 a9 bc 62 c4 bd bc c4 51 4f bc
       -0.023777947 -0.02063212 -0.023164932 -0.012653772
0001d0 53 9b 38 bc 2d aa b0 bc d6 9b 53 bc 57 da 62 bc
       -0.011267501 -0.021565521 -0.012915572 -0.013846002
0001e0 64 7a 72 bc 48 13 76 bc 16 c9 77 bc 29 7d 92 bc
       -0.014799688 -0.015019245 -0.015123626 -0.017881947
0001f0 b3 5b cc bc 02 e6 71 bb 9a d4 3d bb b0 f1 ad bb
       -0.02494607 -0.0036910777 -0.0028965832 -0.0053083524

network_body._body_endoder.seq_layers.2.weight f4 [128, 128]
000000 56 84 3e bc 09 48 96 3b 2f 79 58 3d 53 a2 c8 3c
       -0.011628231 0.004586224 0.052849945 0.024491465
000010 d2 00 5e 3d bc fa 35 3e 64 fb 27 be 5e 66 b8 bc
       0.0542 0.17771429 -0.16404492 -0.02250975
000020 4a 71 92 bc 12 bb d5 3a 3c b0 15 bd d6 7d 56 3c
       -0.017876286 0.0016306362 -0.036545023 0.013091525
000030 f5 8d 3e be 5f 23 e9 bd 06 dd a7 bc 3c 20 d9 3d
       -0.1860884 -0.113836996 -0.020491134 0.10601851
000040 15 76 a4 3c f2 ee 51 3d 0c 3a f5 bd 8f 29 34 be
       0.020075837 0.051253267 -0.11973962 -0.17593978
000050 7d ae b5 bd be f9 0d bd 0f 98 67 bd ca 20 0a 3d
       -0.088711716 -0.034662 -0.0565415 0.033722676
000060 fd 8c f5 3c 92 8c f1 bd ea f3 2c bc e1 5c 47 3d
       0.029974455 -0.1179439 -0.0105562005 0.04867256
000070 4c ce 9b bd 70 a8 26 3e 35 c9 b7 bc b1 7c 7a 3d
       -0.076077074 0.16275191 -0.02243481 0.06115407
000080 b6 35 0d 3a 59 42 55 bb 0d aa f0 bd 6b 03 ee bb
       0.00053867267 -0.0032540767 -0.117511846 -0.007263591
000090 25 68 93 3d 3b 61 e8 bc b6 39 01 3d ff 28 28 bd
       0.07197598 -0.028366676 0.031549178 -0.041054722
0000a0 b8 70 81 3d 1a 2c 04 3d 96 b3 44 bd 7f 4c 97 3b
       0.063203275 0.03226862 -0.04802283 0.0046172733
0000b0 a2 0c 22 3d ad 03 76 bd ba d9 b0 3d c1 25 49 bd
       0.03956283 -0.0600621 0.08635278 -0.04910827
0000c0 cb de 85 3d d1 6f d4 3c 47 f1 c1 3b c1 ac b8 3c
       0.06536635 0.025932224 0.005918655 0.022543313
0000d0 d8 a5 53 be 22 35 43 3e d9 d3 0a bd cb 8e 9e bc
       -0.20668733 0.19063237 -0.03389344 -0.019355198
0000e0 ae 5a 20 be f4 63 b1 3d 00 3b 0e bd a5 15 cb bc
       -0.15659592 0.08661643 -0.034724236 -0.024790594
0000f0 91 ee c8 bc db 99 10 3e 3c af ee bd 23 52 f6 bd
       -0.02452782 0.14121191 -0.11654517 -0.12027385
000100 c5 1e 3f 3e 65 65 e5 3c b6 d6 8f bd bd 30 78 bb
       0.18664081 0.02800245 -0.07023375 -0.0037870847
000110 03 6d 9b 3d 38 de 2c be e3 65 8c bd c2 87 16 3d
       0.07589152 -0.16881645 -0.06855371 0.036750562
000120 15 e2 7a bd ac b7 0b be 17 fe 85 bc c0 74 22 3e
       -0.061250765 -0.13644284 -0.016356511 0.15864849
000130 f6 78 06 be e6 d2 28 be e4 f3 e8 3d d4 69 f6 3c
       -0.1313208 -0.16486701 0.113746434 0.03007976
000140 bd 6f a0 3d 37 d3 2f 3d 47 21 4a be ac 7a 0e bd
       0.078338124 0.04292604 -0.19739257 -0.034784958
000150 f7 10 1f 3d 7e 38 51 bd f1 16 95 3c c4 00 74 3e
       0.03883454 -0.051079266 0.018199416 0.23828417
000160 a5 47 28 be f1 3d f6 3b 2b 65 71 3d 42 02 b9 3c
       -0.1643358 0.007514708 0.058934372 0.022584084
000170 33 35 91 3d 31 e2 18 be 4e 05 d6 bd c4 66 57 3e
       0.07090225 -0.14930035 -0.104502305 0.21035296
000180 30 79 bb bd ca 47 1b bd fb 16 ac bd db 03 50 bd
       -0.09153974 -0.03791026 -0.08402821 -0.050784927
000190 b7 22 91 bd c2 51 30 be d4 57 9e 3c cc ba ca bd
       -0.070866995 -0.17218688 0.01932899 -0.0989891
0001a0 d2 69 c4 3c 12 f3 a8 bc 4f 4c 87 3d 2a 74 8c bd
       0.02397624 -0.020623717 0.066063516 -0.06858094
0001b0 34 b3 26 3e cf c9 37 bd 55 d1 36 3c 08 7d 81 bd
       0.16279298 -0.044870194 0.011158307 -0.06322676
0001c0 6b c3 b8 bd 40 88 1e be 00 5a 47 3d 32 80 8a 3a
       -0.09021648 -0.15481663 0.048669815 0.001056677
0001d0 91 3c 09 3e 42 95 2d 3d 6d ae 94 3d bb 21 bd 3c
       0.1340201 0.04237867 0.072598316 0.023087373
0001e0 dc 97 48 be 56 0f f0 3b 1a ee 84 3d 2e 0e be bd
       -0.1958918 0.007326047 0.06490727 -0.09280048
0001f0 23 88 13 3d a4 43 e0 bd 81 86 04 3e 0d 1a 30 bd
       0.036018502 -0.109504014 0.12941934 -0.042993594
000200 52 16 98 bd 76 6b 23 3e 2e 7d 42 bc 9e 84 2f be
       -0.07426132 0.15958962 -0.0118706655 -0.17140433
000210 59 13 67 3d a4 1b c7 3c 99 1e 55 3d 3d 0e 14 3e
       0.056414936 0.024305172 0.052031133 0.14458556
000220 11 13 d2 3c d7 c1 d7 3c 20 65 58 be af b6 fa 3d
       0.025643857 0.026337547 -0.21132326 0.122418754
000230 ed 6f 56 be 01 4a dc 3d 1f cb 13 be 5a 93 92 3d
       -0.20941134 0.107563026 -0.14432953 0.07157011
000240 c1 7f a7 bd 7f c2 e5 bd 4e 29 ff 3d 7a 90 7a 3e
       -0.08178664 -0.11218738 0.1245905 0.24469176
000250 a6 6f 94 bc 9c c1 21 bd 8a 13 a4 bc ba c2 53 bd
       -0.018119644 -0.03949128 -0.020028848 -0.051699378
000260 cc 1a 09 3e 0b 91 06 3d 89 ca f4 3c 22 09 d7 3d
       0.13389128 0.032853168 0.029881733 0.10499789
000270 4b a6 b0 3c 9c 1b 3c 3c 49 a2 22 be 4d b1 ab 3d
       0.02156367 0.011481192 -0.1588222 0.08383427
000280 30 7f 9c 3d fc 26 02 bd 43 96 61 3e d7 dd 61 bd
       0.076414466 -0.03177546 0.22029977 -0.055143204
000290 1b 87 c5 bc 7d 3a 36 3d c1 7b 04 3e 51 d6 29 3c
       -0.024112275 0.044489373 0.12937833 0.010366038
0002a0 d9 92 81 3b 2b 0e c4 3c e3 27 a4 3d 44 f1 cd 3d
       0.003954273 0.023932537 0.0801542 0.100557834
0002b0 f2 f0 81 3d a3 e4 d6 bd fe 27 ca 3d f1 6f 12 3e
       0.06344785 -0.10492828 0.09870909 0.14300515
0002c0 9c ea de bd 73 6d 04 3b 1c 65 39 be 3e d4 39 bd
       -0.10884592 0.0020206838 -0.18104976 -0.045368426
0002d0 de 3c 55 bd 7b b0 88 be 74 95 5b bd 65 3a 66 3c
       -0.05206 -0.26697144 -0.053609326 0.014052008
0002e0 97 82 51 bd 12 3e 0f bb 06 f3 0f be 52 1e c1 bd
       -0.05114993 -0.0021857065 -0.1405755 -0.09429611
0002f0 ae cc 80 bd c6 d6 f9 bd dc 75 f9 bc 5d 27 87 3d
       -0.062890396 -0.12199168 -0.030451708 0.06599305
000300 0b 04 e5 3b 7d 44 d0 bc f5 9b b1 bd e8 03 69 3d
       0.0069890074 -0.025423283 -0.086723246 0.05688849
000310 35 07 6b 3e 1c f9 be 3b 07 71 93 b9 57 b0 2f 3d
       0.22951968 0.005828036 -0.00028122237 0.04289278
000320 9e 77 e4 bd 60 cd 27 3c ad 04 0c be a2 e2 e5 bd
       -0.11155628 0.010241836 -0.13673659 -0.112248674
000330 1f 9c 09 bd 3a b7 03 bc 56 21 55 bd 5c 2a 94 3d
       -0.033596154 -0.00803929 -0.052033745 0.07234642
000340 8a 74 18 3b d7 41 12 bc 63 6c 28 be 66 8d 74 bd
       0.0023262822 -0.00892683 -0.16447596 -0.05970516
000350 ce 93 a3 3d 35 b9 00 bc 64 a9 9c 3d d6 9c c8 bc
       0.07987176 -0.007856657 0.07649496 -0.024488848
000360 6a bf 14 be b6 32 5f bd 0b 20 6b 3d 8f b8 42 be
       -0.14526144 -0.05449172 0.057403605 -0.19015716
000370 21 90 88 bc 68 0a 86 3d 02 a3 1c 3e 1c a6 77 bc
       -0.016670289 0.065449536 0.15296558 -0.015115287
000380 fb c2 e2 bd 93 ee 19 bd 4d 0b 14 3e 2a 13 53 3d
       -0.11072346 -0.037581038 0.14457436 0.05153195
000390 01 cf 3e bd 95 fe 97 bc 7d 60 84 3d fa f4 9e 3d
       -0.046584133 -0.018554011 0.06463716 0.07761569
0003a0 c2 38 09 3e b0 54 de 3d c6 2f 25 bd 70 58 81 bd
       0.13400558 0.108559966 -0.040328763 -0.06315696
0003b0 fa 44 87 bd 07 87 2d be ec 55 17 3d 1e 99 06 bd
       -0.06604953 -0.1694604 0.036947176 -0.032860868
0003c0 bc 19 da 3c 87 e1 75 bd 39 44 6d bd 9d 17 ac bd
       0.0266236 -0.060029533 -0.05792639 -0.084029414
0003d0 e8 ea 59 3d d5 d7 05 3d 08 48 04 3d 3a 0b d9 bc
       0.05320254 0.032676537 0.032295257 -0.026494611
0003e0 82 8a 78 bd b9 ad 67 bd 56 88 c0 bd 28 c9 02 bd
       -0.060678966 -0.05656216 -0.09401004 -0.03193012
0003f0 a0 1c 63 bd fd a4 11 be e1 3b 81 3b e4 e2 6c 3d
       -0.05544722 -0.14223094 0.0039439057 0.057833567

network_body._body_endoder.seq_layers.2.bias f4 [128]
000000 c7 a2 d1 3b 80 d7 f9 bb 02 3b ec 3c 70 f4 85 bc
       0.0063975784 -0.0076245666 0.02883673 -0.016351908
000010 e9 bc 0f 3c 38 cd be 3c b9 5b 40 ba 0e 46 d8 3c
       0.008773067 0.023291215 -0.00073378865 0.026400592
000020 08 13 bc bc 21 bc ed 3b 62 e2 ae 3c ef 7d 33 3c
       -0.022958294 0.0072550927 0.021348182 0.010955318
000030 d0 47 ea bb 67 98 25 bc 2e a6 f5 bb 4e 12 77 3a
       -0.007149674 -0.010107136 -0.007496617 0.000942503
000040 5d 79 91 bb cd 13 fc bb b1 4c 1d bb 2b 95 f2 ba
       -0.0044395165 -0.00769279 -0.002400201 -0.001850759
000050 a8 f4 a5 3c a1 ec 9a 3c 51 4e 1c 3c 30 ef 24 bc
       0.020258263 0.018911662 0.009540156 -0.010066792
000060 fa 20 c0 3c d5 f7 9b bc c4 1b 9d 3c b7 6d d9 3a
       0.023453224 -0.019039074 0.019178279 0.0016588484
000070 9b 88 53 3a a1 41 39 3a f3 47 db ba 6b 2d af bb
       0.0008069367 0.00070669694 -0.0016729817 -0.0053459904
000080 45 25 6f bc c7 1e 1b 3c 5e da bc 3b cb 15 04 3b
       -0.014596288 0.009467787 0.005763336 0.0020154591
000090 ab 86 39 3c 7a b4 31 3c 5f 3b 75 bc e5 b1 b6 3b
       0.011323611 0.010846252 -0.014967768 0.005575406
0000a0 e0 43 83 39 20 92 6a 3c 4b 2c 31 3c 4e 8a 83 bc
       0.00025036838 0.0143170655 0.010813783 -0.01605716
0000b0 3c 60 26 bb d5 c4 fb 3c b5 f6 3c bb 5c b0 2f 3c
       -0.002538695 0.030733505 -0.0028833572 0.0107232
0000c0 57 da 96 bc 4e d6 8a 3c 85 b8 f8 bb 91 45 8c bc
       -0.01841466 0.016947892 -0.007590356 -0.017123016
0000d0 d4 82 a8 3c cc 56 9e 3c f8 25 79 3b 7e f0 3e bc
       0.020570196 0.019328497 0.0038017016 -0.0116540175
0000e0 60 87 92 3c f5 1d c6 3b b0 33 d3 bc 6b 16 21 bc
       0.017886817 0.0060460516 -0.025781482 -0.009832005
0000f0 aa ce cd 3a 6a 8d aa 3b de e0 b5 bb 4d d0 71 3c
       0.001570185 0.005204846 -0.005550488 0.014759135
000100 11 93 7d 3a 2d a7 bc bc be 70 db ba 4c 48 65 b9
       0.00096730987 -0.023028934 -0.0016741974 -0.00021866075
000110 d7 d0 a9 3c 18 42 42 bb 47 2d 27 bc 91 f7 e1 3b
       0.020729465 -0.0029641446 -0.010203666 0.0068959673
000120 71 e4 12 3d b7 bc a8 3b aa cd 27 3a 48 95 32 bb
       0.03586239 0.0051494497 0.0006401191 -0.0027249623
000130 ce 7a 4c 3c fc 66 9e bc 41 68 a0 b8 42 90 64 3c
       0.012480451 -0.019336216 -7.648813e-05 0.013950409
000140 27 23 a8 bb 52 cd 1c bb 48 90 08 3b 48 e0 4b 3c
       -0.0051311436 -0.0023926091 0.0020837951 0.01244361
000150 af f9 42 3c c2 17 70 3c 86 89 2f bc d7 41 55 bc
       0.0119003495 0.014654102 -0.0107139405 -0.013016186
000160 dc a2 fc bb e3 ff 92 bc 5f 52 c8 3b 5c cd 74 3c
       -0.007709844 -0.017944282 0.006113335 0.01494154
000170 0a 0a b4 bb dc 40 9b ba cf 3c 90 bc 89 77 f0 bb
       -0.005494361 -0.0011844891 -0.01760712 -0.0073384685
000180 1c 4e e8 3b 36 68 3b bc 2b 7a a9 bc b3 d8 e9 3c
       0.0070893895 -0.01143842 -0.020688137 0.028545713
000190 1d 88 bf ba 6f 64 54 bc 01 3a d6 3c 0d c2 ef bb
       -0.0014612708 -0.012963398 0.026150705 -0.007316834
0001a0 4e 92 95 3c 91 fd e7 3b 4d ef ab 3b 0d 7c 57 ba
       0.01825824 0.007079788 0.0052470327 -0.0008220084
0001b0 71 2a cf bc 57 4c dc bc 63 eb 91 3c 1e 97 42 bb
       -0.025288792 -0.02689187 0.017812436 -0.0029692124
0001c0 0f 0f 60 3c 60 0c b5 bb 2f 99 8e bb 05 09 11 bc
       0.013675465 -0.005525157 -0.004351757 -0.008852248
0001d0 75 65 90 bc 04 cb c9 3b 7a 56 90 bb 4e 1e c8 bc
       -0.017626503 0.0061582346 -0.00440484 -0.024428513
0001e0 2c cb 36 3c 2c 8c 8f 3b 6f 00 b1 3c 29 13 a8 bc
       0.011156838 0.0043807235 0.021606652 -0.020516949
0001f0 c1 91 36 bc 8c 01 e0 bb f3 23 ec bc d0 ff 8f 3c
       -0.011143149 -0.006836122 -0.028825736 0.017578036

action_model._discrete_distribution.branches.0.weight f4 [2, 128]
000000 8b 29 8f bb 34 47 0d bc 4d ec 47 bc d3 ac d9 ba
       -0.004368966 -0.008622933 -0.012202335 -0.0016607292
000010 10 1d d0 3c 22 ad e9 bc d4 c7 32 3c f0 3a 06 3d
       0.025404483 -0.028524939 0.010911901 0.03277105
000020 26 82 43 3c 41 54 26 3c bc 7f 59 bc c5 78 2b bc
       0.011932885 0.010151924 -0.013275083 -0.010465805
000030 dc b8 ce 3c e2 75 ac bc 5e b0 ab 3c 46 10 03 3a
       0.025234632 -0.021052305 0.020958122 0.00049996783
000040 b7 ae b8 3b d8 eb f0 bc ef c3 60 3c ec 8f d7 bc
       0.005636062 -0.029409334 0.013718589 -0.026313744
000050 42 d2 b9 39 08 2f ff 3c 06 f6 43 3d 36 7c 50 3c
       0.00035442604 0.031150356 0.047842048 0.012724927
000060 a5 8a 09 3d 88 af 63 bb 68 1f c6 3c d2 af 7a bb
       0.033579487 -0.0034742076 0.024184898 -0.003825177
000070 f1 6e b4 bc 2f 08 96 bc 23 c1 1e bb 7c 6f 2c 3a
       -0.022025557 -0.01831445 -0.0024224005 0.0006577892
000080 f2 3e 07 3c 10 3c 8b 3c fe 54 1f bd 1d 09 46 3d
       0.008254753 0.016996413 -0.038899414 0.048348535
000090 ec e8 3c 3d f1 fa 22 3d 9c ca 7e 3c 54 e3 04 bd
       0.04612057 0.039790098 0.0155512355 -0.03244336
0000a0 23 d4 91 bc e8 28 45 bd 68 61 0c 3c 39 09 4f bc
       -0.01780135 -0.048134714 0.008568145 -0.012636476
0000b0 7e e5 60 bd 77 68 7b 3d 27 66 74 b9 d9 73 c5 3c
       -0.05490636 0.061378922 -0.00023307708 0.024103092
0000c0 a0 05 d7 bb c7 77 2d 3d 85 9e 27 bd 85 96 9f bc
       -0.00656195 0.042350557 -0.04092266 -0.019480953
0000d0 22 ea 39 bd f8 4f 49 bd b0 d8 22 3b 60 d2 11 bd
       -0.045389302 -0.04914853 0.0024848394 -0.03560102
0000e0 4c 31 98 3b bf 9d 12 3d f2 53 03 3b 06 3c 13 3c
       0.0046445485 0.03579497 0.002003905 0.008986479
0000f0 ae 50 ba 3c e1 99 53 3b 0f fe 40 bd 61 6a 71 3d
       0.02274355 0.0032287764 -0.04711729 0.05893934
000100 07 42 78 3c 40 6b 82 3b 4b e2 0b 3d 09 e9 b6 3c
       0.015152461 0.0039800704 0.034151357 0.022327917
000110 0b 79 27 3d 21 ea 3f 3c 3a 62 13 3b 68 21 8f 3b
       0.04088692 0.0117135355 0.0022488968 0.004367996
000120 1b 73 88 3d b1 74 a5 3c 38 66 46 ba 45 0f 10 bd
       0.066625796 0.020197244 -0.00075683324 -0.035170812
000130 f4 53 03 bd c5 bd 02 bd 6b 23 67 3b c7 e4 a7 bd
       -0.032062486 -0.03191926 0.0035268913 -0.08197933
000140 ae 71 85 bc da 08 0f bc 1c ef 23 bd 95 d5 1e 3d
       -0.016289558 -0.008730138 -0.040022954 0.038777906
000150 af 32 9a bc 7a f3 2b 3d 66 64 41 3b 0b 17 97 bc
       -0.018822996 0.041980244 0.0029509305 -0.018443605
000160 8e 16 25 bd 94 c8 87 ba 21 66 a5 3c ea 0c 33 bc
       -0.040304713 -0.001035946 0.0201903 -0.010928372
000170 75 03 c4 bc a1 89 90 3c 8c e3 05 3c 00 cb 2b bd
       -0.02392743 0.017643752 0.008171927 -0.041941643
000180 2e 10 04 bd bb 18 b5 3c 77 7e 96 3c c7 d4 30 bc
       -0.032241993 0.022106519 0.01837085 -0.010792918
000190 a5 23 b6 bc 49 3c 3a 3c ae b1 b7 3b 11 d1 42 bb
       -0.022233794 0.011366912 0.005605898 -0.0029726664
0001a0 85 16 66 bd 1e 46 07 3d 6e 1b 1c 3d 15 a7 e2 bc
       -0.05617382 0.033025853 0.038112096 -0.027667562
0001b0 99 3e d3 3a 34 9c 56 bc bc 21 df bc 4e c8 e8 3c
       0.0016116678 -0.013098765 -0.027237765 0.028415825
0001c0 ef 35 ee bc 19 79 87 bc c4 4c 03 bc 78 d7 86 3c
       -0.029078452 -0.016537236 -0.008013908 0.016460165
0001d0 81 ea 2d bc 2e 2e fb bc fb 60 1d 3c d0 3b d1 bc
       -0.010614992 -0.030661669 0.0096056415 -0.025541216
0001e0 36 18 47 bc 26 81 03 bd 57 06 93 bc d5 b5 99 3b
       -0.012151768 -0.032105587 -0.017947359 0.0046908655
0001f0 f0 b3 9e bc e6 85 fa 3c 87 1c 33 3a c4 de 7b 3d
       -0.01937291 0.030581426 0.0006832559 0.061491743
000200 3d 5c 16 bc 11 33 79 3a d5 39 0c 3a 8f 62 29 3d
       -0.009177265 0.00095062057 0.0005349194 0.04135376
000210 2b ee 89 bc fd ba 25 3d 39 db 2e bc 7e c7 4a bd
       -0.0168372 0.04046153 -0.010672384 -0.049506657
000220 73 c2 c1 bb 0b 5e 0d 3a 53 c3 33 bc a6 90 37 3b
       -0.0059130727 0.00053927366 -0.010971862 0.0028009801
000230 d8 c1 a5 bc 67 4a ee 3c 86 06 7f bc 9c 3d a4 bc
       -0.020234033 0.029088212 -0.01556552 -0.020048909
000240 71 0d 49 3b b1 77 95 3c 36 78 5c bb 58 f1 bb 3c
       0.0030678178 0.01824555 -0.0033640987 0.02294223
000250 76 e6 86 bc a7 be b8 bc df 28 15 bd c8 1d 15 bc
       -0.016467314 -0.022551848 -0.03641593 -0.009101339
000260 31 4e 08 bd 7b e4 3b 3c df 51 fd bc ac 9e 89 bc
       -0.033277694 0.011468048 -0.030922828 -0.016799293
000270 f6 f9 4e 3c 50 d9 f6 3c 52 6e e3 3b cd 95 6e bb
       0.0126328375 0.03013292 0.0069406414 -0.0036405206
000280 35 66 7f bb f6 39 e9 bc c8 05 2e 3d 30 7d 3d bc
       -0.0038970832 -0.02847002 0.042485982 -0.011565492
000290 f0 ba 02 bd 97 f3 f3 bc 32 7b d9 bc 56 0f 20 3d
       -0.03191656 -0.029779239 -0.026548002 0.039077125
0002a0 9f d9 14 3c 33 e9 1d 3d d8 e0 55 ba d0 6d c0 3c
       0.009085088 0.038552474 -0.00081588095 0.023489863
0002b0 e0 2c 2b 3d 12 64 d0 bd 47 65 26 3c 30 29 0f bb
       0.041790843 -0.10175337 0.010155982 -0.0021844618
0002c0 88 72 13 3b 34 15 0e bd 63 0a 80 3c 14 65 7c 3c
       0.0022498686 -0.03468819 0.015629953 0.015404958
0002d0 1a f8 4a 3d da 1d 29 3d 63 46 34 3c b5 2d 97 3c
       0.049553014 0.041288234 0.01100311 0.018454412
0002e0 b4 8a 6a b9 a8 d0 b8 bc 98 e9 69 bc 0f 2d 64 bc
       -0.0002236765 -0.022560433 -0.0142768845 -0.013926758
0002f0 fb 2a b0 bc 4b c0 9a bc 13 c6 1a 3d 71 37 47 bd
       -0.02150487 -0.01889052 0.037786555 -0.048636857
000300 4b e4 5e bc 5b 67 6e bb 34 97 b7 bc 4b b7 92 bc
       -0.013604234 -0.0036377523 -0.022410966 -0.017909667
000310 fb a1 29 bd 7c f8 e6 3b f1 1a ad 3c 50 2c b9 3c
       -0.041414242 0.0070486646 0.02113101 0.022604138
000320 0d ca 1b bd 29 9c 15 bc 05 56 6d 3b 4b 18 eb 3c
       -0.038034488 -0.00913147 0.0036214602 0.028698107
000330 f6 7c ae 3c b5 cc dc 3c 1f 8f 3c bc 79 2c c4 3d
       0.02129982 0.02695308 -0.011508732 0.09578795
000340 d1 19 e0 3b 4e 45 d2 3c 65 89 43 3d aa 39 aa bc
       0.006839015 0.025667813 0.04773845 -0.02077945
000350 20 2b e8 3c 16 8e 3a bd d7 6b 0a 3b 6e 9b 1a 3c
       0.028340876 -0.04554566 0.0021121406 0.009436471
000360 5e c4 05 3d c1 73 67 3a a8 7c a9 bc cd a7 2a 3c
       0.032657973 0.00088291994 -0.020689324 0.010415983
000370 65 17 1a 3d 99 c8 e3 bc 7e e3 8b 3a ee 67 2a 3d
       0.037619967 -0.027805613 0.0010672656 0.04160302
000380 b5 bd 07 3d 31 29 67 bc 23 eb 5a bc a7 3d 4b 3c
       0.033139903 -0.014108942 -0.013361725 0.012404836
000390 e1 42 ef 3c 8b 51 ce 3b bf 27 9c bc 74 88 06 3c
       0.029206695 0.006296342 -0.019061921 0.008211244
0003a0 9f 6b 67 3d ad 1d 23 bd fa 53 11 bd c5 34 94 3c
       0.05649912 -0.039823223 -0.035480477 0.018091569
0003b0 2a 32 02 3d 4c 6f 58 3c 59 0e 34 3c 76 89 d4 bc
       0.03178612 0.013210129 0.010989749 -0.025944453
0003c0 23 c9 a0 3c 06 54 d8 ba 36 98 1e bb ae ad 6b bc
       0.01962716 -0.0016504533 -0.0024199612 -0.01438467
0003d0 52 1a ab 3b 2b 7e 6c 3d 4e 17 8e 3b 21 e2 08 3d
       0.0052216435 0.05773751 0.004336274 0.03341878
0003e0 5e f4 0e 3c 8d cc 04 3d 66 a9 24 3c e6 0a 46 bb
       0.008725254 0.032421637 0.010050153 -0.0030218898
0003f0 b7 e6 80 3c fb ad ba bb c9 38 57 bb f3 eb 5f bd
       0.015735013 -0.0056970096 -0.0032840243 -0.054668378

action_model._discrete_distribution.branches.0.bias f4 [2]
000000 35 52 25 3c 34 52 25 bc
       0.0100904 -0.0100903995

action_model._discrete_distribution.branches.1.weight f4 [3, 128]
000000 66 1a 22 bd 25 75 f4 bc cd df c3 3c 82 b5 b0 bc
       -0.039575957 -0.029841015 0.023910427 -0.021570925
000010 46 00 00 bb 2b 95 ce bc 08 6d d4 3c 90 50 57 bd
       -0.0019531413 -0.025217613 0.025930896 -0.052567065
000020 81 0d 39 3c 0a 1f 41 bb 72 c8 4b bd da 21 90 3c
       0.0112947235 -0.0029467964 -0.049751706 0.017594267
000030 df eb 93 3c 4c 05 90 3c 1e 0d 81 3c 3b 7d 84 3d
       0.018056808 0.01758065 0.015753325 0.06469198
000040 c0 de 04 bd e0 d3 bb bc 33 97 c1 bb 06 e0 99 ba
       -0.032438993 -0.022928178 -0.005907917 -0.0011739738
000050 ba 17 65 3d 22 a0 cd bb 28 8a 30 bc 43 f8 a1 bc
       0.05593083 -0.006275193 -0.0107751265 -0.0197717
000060 34 8e a2 bb ca 54 58 3c 74 08 cf bc 3d 8c 1c 3d
       -0.0049607996 0.013203809 -0.025272585 0.03821968
000070 b7 6d 8e bc ac f6 4a bd dc 50 fb 3b 58 c1 87 3c
       -0.0173863 -0.04955165 0.0076695513 0.016571686
000080 0f b0 91 bc b3 ce 1e 3c 49 08 34 bb 93 7a 03 3c
       -0.017784147 0.009692836 -0.0027470759 0.008024829
000090 c4 df 73 bd 4f 93 4c bc 13 07 aa 3c c7 a1 83 bc
       -0.05953957 -0.012486293 0.020755326 -0.016068352
0000a0 a8 3e 4a 3d b9 bf 55 bd c5 af 77 3d d0 34 03 bd
       0.04937616 -0.052184794 0.06047036 -0.032032788
0000b0 de af 1d 3d 0d 14 d4 3c 5b cd 35 bd f4 8f a1 3c
       0.0384978 0.025888467 -0.044385295 0.019721963
0000c0 fd 9f fa 3b 9e 3d 47 3d d6 4b 33 3c ba 4b 17 3c
       0.0076484666 0.048642747 0.010943374 0.009234363
0000d0 cc 24 48 bd 0d 34 8b 3d 3a 07 41 3b 6e d0 cc bb
       -0.048863217 0.06797037 0.002945377 -0.0062504327
0000e0 30 e2 a3 bd be 36 17 3d dd 37 0f 3c c8 d3 b0 3c
       -0.08002126 0.03691744 0.008741346 0.02158536
0000f0 76 3a 1e bc 2c 8b 2c bd 5f c9 42 bc 71 c0 3a bd
       -0.009657493 -0.042124912 -0.011888831 -0.045593683
000100 aa c3 49 3d a3 ea 4d 3c 5a 81 8b bc 02 d4 26 3d
       0.049258865 0.012568149 -0.017029453 0.04072953
000110 f1 cb 35 bd cf ca c4 3c f9 ef af 3c aa 7b 4e bb
       -0.044383947 0.024022488 0.021476733 -0.0031506815
000120 18 98 69 bc 37 1f 14 bb fe 30 46 bd 83 c7 83 3c
       -0.014257453 -0.0022601613 -0.048386566 0.016086346
000130 35 df 0b bd cf 38 25 bc 0e a4 d4 3c f1 56 13 bc
       -0.034148414 -0.010084345 0.025957134 -0.008992896
000140 9c b3 b9 3c 5b b9 a5 3b d5 f0 a6 3c 95 5a 40 3c
       0.022668652 0.0050574965 0.02037851 0.011740346
000150 88 d8 11 bd 82 2a fa 3c 53 96 0d bd 10 05 c8 3c
       -0.03560689 0.030537847 -0.03456719 0.024416476
000160 31 09 7f 3b cb cd 16 3c df 83 4b bd ec 62 04 bd
       0.003891539 0.009204338 -0.04968631 -0.0323209
000170 b6 e3 86 bc 38 f3 49 3c 5c f8 41 ba b9 95 95 3c
       -0.016466003 0.012326054 -0.0007399374 0.01825987
000180 18 5e 53 3d 58 21 fb bb 34 bb 37 3c fe 3f d9 3c
       0.051603407 -0.007663887 0.011214066 0.026519772
000190 74 ec a1 3c b5 d6 20 3b fd 16 2f 3b 85 23 a5 3c
       0.01976607 0.0024542038 0.0026716583 0.020158539
0001a0 60 e8 81 bc 8b f5 cc bc 0f 32 3a 3c d8 07 82 3c
       -0.015857875 -0.025019428 0.011364474 0.01587288
0001b0 79 f9 72 3b a4 f4 e1 3b a3 f2 0d bd 39 d7 89 b8
       0.0037074967 0.0068956185 -0.034655225 -6.5727574e-05
0001c0 23 81 41 3d 7f 26 15 3d 13 b7 4a bc 14 d2 09 3d
       0.047242295 0.036413666 -0.01237275 0.03364761
0001d0 39 a0 b3 bc 21 a8 f6 3c 27 ce 16 3d 36 23 90 bc
       -0.021926986 0.030109467 0.036817696 -0.017594915
0001e0 a8 96 b5 bc c5 44 61 bc 3e 12 bc 3c a0 26 7b 3c
       -0.022166565 -0.013749306 0.022957917 0.015329033
0001f0 91 9f f3 bc 52 96 4f 3c 7d b1 c9 ba 47 2b f0 bb
       -0.029739173 0.0126701165 -0.0015387979 -0.007329378
000200 fe a3 a1 39 3e 03 fd bc 18 38 27 3d 30 27 5d bc
       0.00030830497 -0.030885335 0.04082498 -0.013498113
000210 99 56 44 bd da 87 01 3d b7 d8 88 bd d0 79 5b 3d
       -0.04793415 0.0316237 -0.0668196 0.053582966
000220 82 d0 42 3b 56 1f cd 3c c8 9f 34 3d fb f4 7c 3c
       0.002972633 0.025039356 0.04409769 0.015439267
000230 c0 48 25 bd 75 42 fd bc 56 f5 98 bc 4a c8 1b bd
       -0.040352583 -0.030915478 -0.018671673 -0.038032807
000240 32 24 7f 3b 6e 9c 89 bc a1 7a 02 3d 2c 82 8f 3b
       0.0038931486 -0.016798224 0.03185523 0.0043795314
000250 1b 28 2a 3d cd 22 15 3d ce 6f 70 bc 96 8d 44 3c
       0.041542154 0.03641014 -0.014675094 0.011996647
000260 3f d1 64 bd 76 3c e5 bc 63 3b 34 3d 03 0b 4f bd
       -0.055863615 -0.027982932 0.044001948 -0.05054761
000270 2a 57 fc bc 1b 0e 30 3d 84 4c 59 bd 87 90 6f 3c
       -0.030803282 0.042982202 -0.053051487 0.01462186
000280 80 4d 9b bc 89 fc 02 3d 52 41 9e bc e7 03 97 3b
       -0.018957853 0.031979118 -0.019318257 0.0046086195
000290 03 25 16 bb a8 ca 03 3d 17 c0 60 bc 0c 42 ef 3c
       -0.0022910244 0.03217569 -0.013717673 0.029206298
0002a0 66 38 80 bc 40 2f b4 bc 39 6f 3c bd 32 9b f3 3b
       -0.015651893 -0.021995187 -0.046004508 0.007434272
0002b0 01 ca 19 bd e1 f9 c1 3c 73 c0 71 bc 05 71 07 bd
       -0.03754616 0.023678722 -0.014755356 -0.03306677
0002c0 51 eb 75 3b f0 af 45 bd 1c 64 9a 3c f7 09 aa 3c
       0.0037524293 -0.04826349 0.018846564 0.020756705
0002d0 94 7b 5b 3d a5 9c 9d bc 46 a1 78 3d 71 48 32 3c
       0.05358465 -0.019239733 0.060700677 0.010881529
0002e0 20 45 5d 3d 6f 4b 08 bd b3 b4 0b bd 79 c6 58 bc
       0.054021 -0.033275064 -0.034107875 -0.013230913
0002f0 31 64 d7 bc d3 5f e2 ba 48 42 f4 3c 16 7e c8 3b
       -0.026292892 -0.001727099 0.029816762 0.0061185462
000300 9f 48 b9 bc 74 2c 9b bc 39 11 09 bb b9 af 80 bd
       -0.022617636 -0.018942095 -0.0020914807 -0.062835164
000310 71 b8 09 3d dd 11 88 3c 61 ec 33 bd 73 2b 5e 3d
       0.033623163 0.01661008 -0.0439266 0.054240655
000320 12 46 7b 3d cd bc d7 3c 07 f0 b7 3c 50 e7 62 bd
       0.06134612 0.026335144 0.022453321 -0.055396378
000330 ad d0 a9 bc 5d 8f cb ba 1c 6f 67 bc 22 98 12 3b
       -0.020729387 -0.0015530396 -0.014125612 0.002236851
000340 95 30 42 3b 61 6d 9b bc c8 9e a7 bb 10 6d dc bc
       0.0029631008 -0.018973054 -0.0051153637 -0.026907474
000350 3e 82 ca bc 08 bd 74 3c 78 0b 05 3d b3 0e 44 bd
       -0.024720307 0.014937647 0.03248164 -0.04786558
000360 49 e4 97 3a ff df 76 3c 7b a8 07 3d ad 02 f8 3c
       0.001158842 0.015068053 0.03311966 0.030274713
000370 5b d4 6e 3c 97 c8 b4 bc a8 89 22 bd 5e a0 bb 3c
       0.014576997 -0.022068305 -0.03968206 0.022903617
000380 26 96 bd 3b e1 40 1b bd ce 28 17 bc 60 88 93 3c
       0.0057857214 -0.03790367 -0.009226037 0.018009365
000390 a0 10 88 3c db 85 ef 3b ae dd 21 3d 8d 3a fc bc
       0.01660949 0.007309658 0.03951805 -0.030789638
0003a0 6e a1 9f bc fb 4f 04 3d 2a b6 e1 ba 67 1e a8 bb
       -0.019486155 0.032302838 -0.0017220427 -0.0051305774
0003b0 72 d2 8d bc c9 98 b7 3b d1 37 01 bd 9d 0d 15 3c
       -0.017312262 0.00560293 -0.03154737 0.009097484
0003c0 f0 ee 81 bd be e2 42 bc b5 27 04 3d d2 83 2c bc
       -0.06344402 -0.01189488 0.03226443 -0.010529475
0003d0 52 96 55 bc 1c 59 5e bc d7 72 80 bc a5 74 f3 3c
       -0.013036327 -0.01357105 -0.01567976 0.029718706
0003e0 2e 14 f1 bc 28 94 e4 3c db c2 15 3d 4f 15 38 3c
       -0.029428568 0.027902678 0.03656278 0.011235549
0003f0 a2 4f fe ba e6 9e 5c bc 0d 1c d7 bc 3e c5 0b 3d
       -0.0019402395 -0.013465619 -0.026258493 0.03412365

action_model._discrete_distribution.branches.1.bias f4 [3]
000000 07 48 f9 3a 59 20 06 3c 41 8e 29 bc
       0.0019018658 0.008186423 -0.010348857

action_model._discrete_distribution.branches.2.weight f4 [1, 128]
000000 2d 18 e7 ba 70 d1 50 bc 9b bf 11 3b 0a e9 a2 3b
       -0.0017631106 -0.012745246 0.002223945 0.004971628
000010 d0 5e ee ba 61 1d 83 bb e3 a8 d5 bb 71 22 c0 3b
       -0.0018186215 -0.004001305 -0.006520377 0.0058634807
000020 b3 53 cb 3b 8c 90 bf 3b 23 e9 2f 3c 8b 04 d3 3a
       0.006205046 0.0058460888 0.0107367365 0.0016099376
000030 48 31 30 bb 83 36 80 bc 13 4f 9c 39 3d 7b ab b8
       -0.0026884843 -0.015650993 0.00029813554 -8.17687e-05
000040 6d 1b 33 3b 63 19 10 3a 59 77 80 bb 53 e3 63 bc
       0.002732958 0.0005496947 -0.0039204773 -0.013909179
000050 d3 3e 85 bb eb 49 38 3c 7f 1b ab bc 1b 31 b8 bb
       -0.004066327 0.011248092 -0.020887135 -0.005621088
000060 3c 35 98 bc a8 a6 db bb 86 6f 96 ba a3 e7 40 3c
       -0.018580072 -0.0067032166 -0.0011477328 0.0117739765
000070 07 ad 29 bc 08 c4 53 bb bd 03 0a 3c 63 ed 44 bc
       -0.010356194 -0.0032312889 0.008423743 -0.012019488
000080 3d 07 4d 3a 02 e4 4d bc cf d1 18 3c 5d be 93 3c
       0.0007821208 -0.012566568 0.009327366 0.018035108
000090 b1 de b0 bb dd 8a 03 3b 38 ff 7e bc 06 bb bc bb
       -0.0053976406 0.0020071783 -0.015563779 -0.0057595996
0000a0 fd e3 59 3c 3a aa ff bb 6f 46 d7 3a 2b 56 24 bb
       0.013298986 -0.007802275 0.0016424189 -0.0025075774
0000b0 55 a0 65 3b 7a 12 55 ba c8 c3 8a 3c 24 f0 28 3b
       0.0035038192 -0.00081280584 0.016939059 0.00257779
0000c0 3d 81 eb 3a c0 c9 55 bc 3a 05 90 bc b8 fd e0 3a
       0.0017967593 -0.013048589 -0.017580617 0.0017165458
0000d0 13 ae 23 3c dd 5f 2e bc 1d 2d 25 ba 13 90 1d 3c
       0.009990233 -0.010642973 -0.0006300973 0.0096168695
0000e0 28 50 65 3c 2a 46 d9 3b 94 3a 0d 3c 99 79 b9 3a
       0.0139961615 0.0066306787 0.008619923 0.0014150619
0000f0 12 2b 0a ba cf 63 b2 bc 70 6d 16 bb 13 1a e8 3b
       -0.00052707 -0.021776108 -0.0022953413 0.0070831864
000100 1f 9c 16 bc 27 70 42 3a ee 88 ac bb 70 30 69 3c
       -0.009192496 0.00074172247 -0.0052653467 0.01423274
000110 18 ea ce 3b 50 02 a3 bb d3 65 a1 3c 40 dc 20 bc
       0.0063145272 -0.004974641 0.019701874 -0.009818137
000120 67 fa a5 3b 10 34 4f 3c f1 78 1a 3c 3c 79 04 3c
       0.0050652507 0.01264669 0.009428249 0.008085545
000130 a2 30 71 bc aa 91 c5 3c bd 88 b0 ba 4b ff 78 3c
       -0.014721068 0.02411731 -0.0013468486 0.015197585
000140 dd 39 a1 3a 2b 0e b3 bb ff 1d 17 3c d7 67 4e 3a
       0.001230057 -0.0054643354 0.00922346 0.000787375
000150 f3 51 af 3a 4d ff 49 ba 64 39 88 bc ff f3 92 bb
       0.0013375863 -0.0007705584 -0.016628928 -0.004484653
000160 9b 5f a0 3b 9f 21 76 3c 99 59 9b b9 10 ac 12 bb
       0.0048942096 0.015022664 -0.0002963066 -0.002238039
000170 e3 4e 97 bc ae 12 27 3c 8d 69 24 3c 89 2a 91 3b
       -0.018470233 0.010197325 0.010034931 0.0044301194
000180 6d 23 d9 bb fb 00 35 3a 08 89 89 3b b5 09 e4 3a
       -0.0066265375 0.0006904748 0.0041972436 0.0017397912
000190 a5 12 d4 b9 ae c7 09 3c 31 6b 8b bb 3f 24 c9 3b
       -0.00040449682 0.008409424 -0.0042547216 0.006138354
0001a0 95 00 e4 b9 99 8b b0 bc e4 bb 85 3b af 10 be 3b
       -0.00043487982 -0.02155094 0.004081236 0.0058003287
0001b0 c7 82 a2 bb f5 84 a7 bb f7 e1 c9 3b 8a 5f 10 bb
       -0.0049594375 -0.0051122853 0.0061609703 -0.0022029602
0001c0 4a ae fd 3a d3 ea 11 3c 1b ca b6 3b ea f4 ad bc
       0.001935431 0.008906084 0.005578292 -0.021234948
0001d0 ed f7 7b bc bf 6d 50 bc 07 16 11 bc 9c 98 15 bb
       -0.015378934 -0.012721478 -0.008855349 -0.0022826558
0001e0 25 73 1d 3c 7c c0 0e 3c 93 18 15 3c ff 66 52 bc
       0.009609972 0.008712884 0.009100097 -0.012841939
0001f0 4b a4 e2 3a 5f 84 db bb 88 c7 6e bc a7 d0 d6 bb
       0.0017291395 -0.0066991295 -0.014573939 -0.006555635
